tabsyn/vae/ckpt/default/original/decoder.pt (torch, 28669 bytes, 51 tensors)

VAE_Decoder.layers.0.attention.W_q.weight f4 [4, 4]
00000000: 5838 5e3e c02f e63d da86 ca3e f4c4 aebe
00000010: eeb4 e9be 8013 753c 70fa 003d b4bd 043e
00000020: 78be 94be 5238 81be 7e66 a03e 2886 303e
00000030: 5447 7fbe e0de f3bc ccf2 fabe 08dc e73e
0.21701181 0.11239576 0.3955601 -0.34134638 -0.4564585 0.014958262 0.031488836 0.12962991
-0.29051566 -0.2523828 0.31328195 0.17238677 -0.24929553 -0.029769361 -0.49013364 0.45285058

VAE_Decoder.layers.0.attention.W_q.bias f4 [4]
00000000: 0000 0000 0000 0000 0000 0000 0000 0000
0.0 0.0 0.0 0.0

VAE_Decoder.layers.0.attention.W_k.weight f4 [4, 4]
00000000: 543c 36be 3e4d eb3e c0bf cb3e 56cf 8a3e
00000010: 6208 a2be 2c7b 4fbe b47a e13e 76d0 bbbe
00000020: 389f 133e 482f eb3e 00f3 6ebc e8b1 9e3d
00000030: 142f 513e e014 8d3e 90c5 91bd 965a debe
-0.17796451 0.4595737 0.3979473 0.2711131 -0.3164702 -0.2026183 0.44038928 -0.3668248
0.14416206 0.4593451 -0.014584303 0.07748777 0.20428115 0.2755499 -0.0711776 -0.43428487

VAE_Decoder.layers.0.attention.W_k.bias f4 [4]
00000000: 0000 0000 0000 0000 0000 0000 0000 0000
0.0 0.0 0.0 0.0

VAE_Decoder.layers.0.attention.W_v.weight f4 [4, 4]
00000000: 1c91 fb3e ee2b 9abe 2a0f 8a3e 501c 44be
00000010: 9005 edbe 0003 90bb 007d 9dbb c052 abbe
00000020: b8cd 64be e066 f1be de8a b13e bed2 b53e
00000030: f4c6 17be c6b9 a63e 3616 85be 581d 4b3e
0.49134147 -0.3011164 0.26964694 -0.19151425 -0.46293306 -0.004394889 -0.004806161 -0.3346157
-0.223441 -0.471488 0.3467626 0.35512346 -0.14821988 0.3256361 -0.25993508 0.19835413

VAE_Decoder.layers.0.attention.W_v.bias f4 [4]
00000000: 0000 0000 0000 0000 0000 0000 0000 0000
0.0 0.0 0.0 0.0

VAE_Decoder.layers.0.linear0.weight f4 [128, 4]
00000000: 0cff 183e c429 2dbe 28a3 5ebe 4ed0 9a3e
00000010: c033 c73e 00f2 f33e a036 94be 5886 003e
00000020: ce56 c83e a0cf 3ebd bc8e 04be 304c e1be
00000030: 2ace 9e3e 2853 ee3d a445 693e 203c a4bc
00000040: c0e9 5abe 00bc 2a3c 26cb b03e 0cd6 5dbe
00000050: d888 943e d066 423e 00ce e3bb e858 9e3e
00000060: 38c7 a43e d892 a23e 78bc 02be dc49 64be
00000070: 4667 aa3e b043 733e d473 98be d0ee debd
00000080: f01f c0bd 5ae9 e8be 7401 523e 2084 cbbc
00000090: 1234 f63e 7c18 ad3e 0047 443d b4f6 a93e
000000a0: 2eb6 c53e 6839 a93d eaa6 87be 76c2 b63e
000000b0: c8eb 1a3e 82dc 99be 324d a43e 0a02 db3e
000000c0: 44ac 313e cc36 d8be 040f ddbe 8496 ddbe
000000d0: 52f4 80be b094 42be d874 25be 0693 cabe
000000e0: 7af6 ebbe 7cb5 8e3e e850 4abe 26fe a3be
000000f0: e8d3 e23d 5075 a4be aea9 b03e 202f d0be
00000100: 76fd bc3e 38ff 9cbe dce2 3ebe 8030 0ebe
00000110: dc13 b53e 0ca3 9fbe f0a8 f83d c6b2 8f3e
00000120: 2c2b 0bbe e483 1cbe f03a 963d cced f4be
00000130: 6887 383e 1824 d23e a8fa b13e c050 a03d
00000140: b4b9 0b3e b0e4 e0bd 0046 aa3d d2cd b93e
00000150: 5e2e c33e 10ea 60be 2488 10be a019 9ebc
00000160: 80b6 913c aaf6 a63e 2c53 d2be 40a4 e3bc
00000170: 4054 99be 70d3 7e3e e8a3 4fbe 0026 ebbe
00000180: 3e76 9a3e b686 9d3e da2f b5be 80b9 f03b
00000190: 40a8 d7be c05a 04be 0033 083b 4c30 3f3e
000001a0: e4b5 603e 8656 fdbe c0d6 e3bc 9e8f 8e3e
000001b0: d8fb 89be 9886 06be 3a4f dcbe 043b 6bbe
000001c0: 1e9b e53e e27a fabe 86ed 89be 800e ebbb
000001d0: f077 26bd 945f e3be c808 3b3e 1c11 563e
000001e0: e877 933d 70ad 853d a8ce ad3d 2eee d23e
000001f0: bcfc 2abe cc8e bf3e daf7 98be 64c0 7ebe
00000200: 96dc a23e 20d4 44be b822 2ebe 242f c83e
00000210: e854 a13e 8810 b53e de94 d4be 3ab4 eb3e
00000220: fc67 bebe 90b4 fc3d da49 e93e 12bb b53e
00000230: d46f 633e c407 c4be 9a78 9f3e 801b 283d
00000240: c031 57bd f4e2 23be 4c0b b83e 28b8 b93e
00000250: c8c6 91be 88c2 5f3e 4c19 4a3e 5e7c 973e
00000260: 5ada 82be 5a8f f8be 0c3e 08be fa6d ba3e
00000270: 6ce8 d23e 849b 41be ace9 b33e e030 533d
00000280: 7efd acbe 00b7 4c3b bc8c 81be 489c 74be
00000290: 444f 193e d0f5 41be 7a8d 9cbe c05a 49bc
000002a0: 2c67 603e 4201 c0be ca96 e23e 0c7c 38be
000002b0: 8473 b13e 748e 423e ce77 c63e f4fb 73be
000002c0: 06b7 febe 4093 763d 10a2 94be 6012 11be
000002d0: 0007 8e3c 4ea5 823e deb6 843e dc56 043e
000002e0: 28ea afbe 3437 0e3e 2298 aa3e d0ea 203e
000002f0: e26a 97be 3c3f 42be f81e edbe e4ca 85be
00000300: c470 abbe 5ab7 8abe c0ac d63d f24f c63e
00000310: c85e b4bd be8b b2be 8a43 d73e 229d afbe
00000320: a0e3 d2be baa2 bf3e f66b cbbe a825 b23d
00000330: 1cbf d5be 5a5a 9a3e 087c cebd 000c f1bb
00000340: 00d0 9ebc 1a5a 82be 8886 8f3d 16ac c6be
00000350: 86ac dabe 20d7 8d3d a015 cabd 1037 f0bd
00000360: 9c0e e43e 0a65 d13e 147b 63be ea76 bebe
00000370: 0038 90bd 58b4 abbd b0e7 343d 20f9 68bd
00000380: 1034 82bd 6003 483d 207e 653d 8004 b3bc
00000390: c0a6 c43e 8ca1 83be ca78 f0be 40af 953d
000003a0: a8f7 b23e 4e24 da3e bac0 e83e 36e5 f23e
000003b0: 6459 5ebe d020 68be 0406 0bbe ca6d e53e
000003c0: a880 d13e 182a bfbe 9810 2e3e b8f5 b23d
000003d0: a018 473d 18f6 ffbd dce4 da3e 3421 8e3e
000003e0: 307c 9dbe 94c1 fbbe d415 02be d83c bdbd
000003f0: b454 e8be 8681 9ebe 4097 dc3e 680a 683e
0.14941043 -0.16910464 -0.21741927 0.3023705 0.3890667 0.4764557 -0.28947926 0.12551248
0.39128727 -0.046584725 -0.12945074 -0.4400344 0.31016666 0.116369545 0.22780472 -0.020048201
-0.21378231 0.010420799 0.3452999 -0.21663684 0.29010653 0.18984532 -0.0069520473 0.30927205
0.32183242 0.31752658 -0.12767208 -0.222938 0.33281916 0.2375629 -0.2977587 -0.108853936
-0.093810916 -0.45490533 0.20508367 -0.024843276 0.48086601 0.33807743 0.047919273 0.33196032
0.38615555 0.082629025 -0.26494533 0.35695237 0.15129006 -0.30051047 0.32090145 0.42774993
0.1735087 -0.42229307 -0.4317552 -0.43278897 -0.25186402 -0.19002032 -0.16157854 -0.39565295
-0.46086484 0.27872837 -0.19757426 -0.32029837 0.11075574 -0.32120752 0.34504455 -0.40660954
0.36912125 -0.30663466 -0.18641227 -0.13885689 0.35366714 -0.31179082 0.12141597 0.2806608
-0.13590688 -0.15284687 0.0733546 -0.47837675 0.18020403 0.41043162 0.34761548 0.07827902
0.13645059 -0.10981119 0.08314133 0.3628984 0.38121313 -0.21964288 -0.14114434 -0.019299328
0.017787218 0.32610065 -0.4107908 -0.027788281 -0.2994709 0.24885345 -0.20277369 -0.4592743
0.30168337 0.3076684 -0.3538807 0.007346332 -0.42120552 -0.12925243 0.0020782351 0.18670768
0.21944386 -0.49480075 -0.027812362 0.27843946 -0.26949954 -0.13137281 -0.43029195 -0.22971731
0.44844908 -0.48921877 -0.26939029 -0.0071733594 -0.040641725 -0.44408858 0.18265069 0.20904964
0.07200605 0.06527221 0.08486682 0.41197342 -0.16697973 0.37413633 -0.29876596 -0.24878079
0.3180892 -0.19221544 -0.17005432 0.39098465 0.3151009 0.35364175 -0.41519827 0.4603594
-0.3718871 0.12339127 0.45564157 0.35494286 0.22210628 -0.38287175 0.311467 0.04104185
-0.05253768 -0.16004544 0.3594612 0.36273313 -0.2847197 0.21851552 0.19736212 0.29587072
-0.25557214 -0.4854687 -0.13304919 0.3641203 0.4119295 -0.18906981 0.35139215 0.051560283
-0.3378715 0.0031237006 -0.25302684 -0.23887742 0.14971644 -0.18941426 -0.30576688 -0.012289703
0.21914357 -0.3750096 0.44255668 -0.1801607 0.34658444 0.18999654 0.3876328 -0.23826581
-0.4974901 0.060199022 -0.29029894 -0.14167166 0.017337322 0.25516742 0.25920767 0.12923759
-0.34358335 0.13888246 0.33319193 0.15714574 -0.29573733 -0.18969434 -0.4631269 -0.26131356
-0.3348447 -0.2709301 0.10482168 0.38732868 -0.088071406 -0.3487224 0.42043716 -0.3429957
-0.4118929 0.37428838 -0.39730805 0.086985886 -0.41747367 0.30147058 -0.10082251 -0.007356167
-0.019386292 -0.25459367 0.07008082 -0.38803166 -0.4270975 0.069257975 -0.09867406 -0.11729252
0.44542396 0.408974 -0.2221492 -0.372001 -0.07041931 -0.08384007 0.044166267 -0.05687821
-0.063575864 0.048831344 0.056028485 -0.021852732 0.3840847 -0.25709188 -0.46967155 0.07308817
0.34954572 0.42605823 0.4545954 0.474405 -0.21713787 -0.22668767 -0.13576514 0.44810325
0.4091847 -0.37336802 0.16998518 0.087382734 0.04860747 -0.124981105 0.4275273 0.27759707
-0.3075881 -0.49171126 -0.1270364 -0.09240121 -0.45377123 -0.30958194 0.43084145 0.2266022

VAE_Decoder.layers.0.linear0.bias f4 [128]
00000000: 30b7 d7be f02d 513e 7c93 023e 38c4 b93d
00000010: bc4f c73e 88f8 bdbd cc5a fa3e d2c8 d03e
00000020: f4e8 8fbe ea6f f8be 00b2 b0bc 9641 c7be
00000030: 5047 a43d 0c69 593e c4ec 943e fe5d a23e
00000040: 00b0 a13b 201c d9be 307b 50be e4e2 473e
00000050: d667 bb3e a2b7 efbe 480f a1bd e89f 8a3e
00000060: 9c25 24be 9c25 19be 5a3b 8bbe 784b a5be
00000070: b0bd b5bd 4a98 cc3e e8c6 923e 3c2b eebe
00000080: acef 2c3e fa29 e13e 884c a43e 2451 043e
00000090: b809 f5bd c04a 893e 3a78 8cbe 2c9a 7ebe
000000a0: 86f6 f9be 3856 45be d401 3c3e 361b f83e
000000b0: 582e 973d 76af f5be e0d8 d63e 5a7b b63e
000000c0: e86f ccbd 848c 0f3e ccc0 503e 90b9 b03d
000000d0: 8042 6c3d 58b9 7cbe 6629 853e 1c71 4bbe
000000e0: 78e9 af3e 006c cbbc 3070 f23e 10d6 ad3d
000000f0: 6c5d 5e3e dcda 3cbe 1068 72bd 20b8 bd3d
00000100: b0a5 a9bd 6c2b e83e 2c4f f23e e094 85bc
00000110: 8e57 c43e 00df 52bc 904c 4b3d 327f a83e
00000120: 8c72 acbe c496 003e cc3c 7a3e e01c 3b3d
00000130: f83a 723e 0c68 d4be bcd4 c6be 9cbf 5c3e
00000140: 14a0 313e 3010 913d 0851 253e a05f c23d
00000150: e422 4abe 8425 353e c082 d6bc c8da 5cbe
00000160: b853 d93e a89c b6bd 1839 643e 02fc cf3e
00000170: c82e 923e b0be 313e d07d c1be 5ecf d23e
00000180: 161f dcbe 06d6 bebe a001 ae3d 4c9b 0bbe
00000190: 38c0 ac3d 5ac2 aebe a683 cabe 589b a53e
000001a0: f4a2 71be 288e 303e 3866 aabe c01c e2bc
000001b0: d06a 0d3d e42e d4be 1c64 5fbe c0ab bfbe
000001c0: e80f b23d 645e ae3e 34bd dbbe 341f 7f3e
000001d0: 1086 82bd 200d 2ebd 1cdb 2d3e 406c 13be
000001e0: 002c 13ba a62d 823e 826c f63e 44f1 8bbe
000001f0: f671 cebe e09a 91bc 805c 363d c044 7cbd
-0.42131948 0.2042768 0.12751573 0.09070629 0.3892802 -0.09275919 0.48897398 0.40778214
-0.28107417 -0.48522884 -0.021569252 -0.38917226 0.08021414 0.21231478 0.29086888 0.31712335
0.004934311 -0.4240427 -0.20359492 0.19520146 0.36602658 -0.46819788 -0.07864243 0.27075124
-0.16029972 -0.14955753 -0.2719372 -0.3228414 -0.08874071 0.39959937 0.28667378 -0.4651736
0.16888303 0.43977338 0.3208964 0.12921578 -0.11964744 0.26814842 -0.27435476 -0.248635
-0.48820895 -0.19271171 0.18360072 0.4845826 0.07381886 -0.4798543 0.41962337 0.35640985
-0.09982282 0.14018446 0.20386046 0.08629143 0.057680607 -0.24680078 0.26008147 -0.19867367
0.3435781 -0.024831772 0.47351217 0.08488095 0.21715325 -0.18442863 -0.059181273 0.09263635
-0.082835555 0.45345628 0.47326028 -0.01630634 0.3834805 -0.01287055 0.049633563 0.32909542
-0.33681142 0.12557513 0.24437255 0.045681834 0.23655307 -0.4148563 -0.38834178 0.21557468
0.17346221 0.07083166 0.16144192 0.09490895 -0.19739872 0.17690092 -0.026185393 -0.21567833
0.42446685 -0.089165986 0.22287405 0.40621954 0.28551316 0.17357898 -0.377913 0.41173834
-0.42992467 -0.37272662 0.08496404 -0.1363346 0.084351 -0.34132653 -0.39553565 0.3234508
-0.23597318 0.17241728 -0.33281112 -0.0276016 0.034525692 -0.41442025 -0.21815532 -0.37435722
0.0869444 0.3405639 -0.42917788 0.24914247 -0.06373227 -0.042492986 0.16978115 -0.14396763
-0.00056141615 0.25425452 0.4812966 -0.2733251 -0.4032132 -0.017774045 0.04452181 -0.061589003

VAE_Decoder.layers.0.linear1.weight f4 [4, 128]
00000000: 1da5 8d3d 7850 febc c2d8 a83d 84af fd3b
00000010: 9fd5 af3c bcd9 26bd 6600 953d 97bf 833d
00000020: e985 393d e534 f5bc a41a af3d 69f0 c33c
00000030: 843d 8bbc fb87 f5bc f14f 623d 595a 2ebd
00000040: 1b87 ac3c a6f0 8dbd 225d 363b 4073 6b3d
00000050: 5e11 703d 0f71 70bd 2b02 43bd 4143 52bd
00000060: 118d 8ebd 3b13 1fbd d6d8 2fbd a74a af3d
00000070: a733 333d 2dac 71bd 7648 2ebd ad79 f23c
00000080: 520b 423d 3e26 ad3d 1826 8dbd 8018 9e3d
00000090: f8a2 9fbd c1a0 1ebd 9e2c a0bd 41c5 71bd
000000a0: 4c94 69bd 52ff 8a3d ea12 48bd 5ea1 433c
000000b0: 7af8 a13c 10e3 8c3c 6698 cb3c 2ab3 35bd
000000c0: 7efc 11bd 6b72 9c3d 5375 22bd 3fe6 f93b
000000d0: a3c6 27bd fd1f 15bb 3049 743c cd39 4fbc
000000e0: 551b 833d e140 933d 001d 93bd f58d 64bd
000000f0: 0586 b53c f255 1abd 450d 00bd 1f2f 84bd
00000100: 6c3c ddb9 28ca f2bb 0709 0fbd 9084 863d
00000110: 2659 793d da49 43bd 902a e7bc 99df d33c
00000120: f56f ac3d dae0 84bd 5f3e 243d 9d80 55bd
00000130: 8504 1ebb b9ad cf3c f7fe 013c 627a 5dbc
00000140: 45de b23d a778 fcbc fb8a 4c3c 3c59 f33c
00000150: 204c a43a 0de1 50bc aaca 933d 0798 35bd
00000160: 109a 393d 74cc d93c d080 0bbd 3d65 203d
00000170: bd05 0e3d 5777 9abd 5d8e 963d 036d 10bd
00000180: a1be 3ebd 6015 9bbd 909c 8bbd c91f 033d
00000190: 1258 3fbd faef 11bd a33d 7fbd 429d 0a3d
000001a0: eec4 353d 2921 bf3c 10c2 b4bd 1482 d83c
000001b0: 51af 35bc 4740 42bd 5a97 3e3d 1133 89bd
000001c0: 8a50 553d 8255 5c3c eec4 a23d 3084 3d3d
000001d0: 3126 ee3c 862c a13d 6cb5 853d 2007 2f3d
000001e0: 6746 b9bc cf30 adbd 6515 debc f7ba 24bc
000001f0: e167 8e3d 9d4d 7bbd 4685 f73c 393d 99ba
00000200: d18e b03c b5de 65bd bc4a 86bd ed39 59bd
00000210: 4521 88bc 6872 a43d 5725 993d e509 5e3d
00000220: 9e87 59bd df5e 96bc 8834 eabc 09fb 99bc
00000230: f961 94bc 20cd 983d 9654 ec3c 55ae abbc
00000240: a60e c23c e2d0 1cbc e319 1c3d 0752 9b3c
00000250: f2a8 15bd 3b18 3b3d 46a5 1ebd 5dd4 ae3d
00000260: b54c 1abd 3e3c 303d 2078 793d 2bf5 41bd
00000270: 02c7 7ebd 25cb 34bd 47dd 683d 66ac a53c
00000280: 4e0c 25bd 9a84 68bb 74e0 1bbd d0c7 a23c
00000290: e7c5 673d 2d1f 923d 6598 2ebb faaf 91bd
000002a0: 04cf 5dbd 3820 e7ba e82b a4bc d669 413d
000002b0: b3f9 1dbd ae83 04bd c385 a73b f0ec 263c
000002c0: 9049 35bd 6426 b0bd 1a3d 9bbc 3d59 073d
000002d0: b6f6 e83c 3359 73bd e54b b1bd 7404 15bd
000002e0: 9f15 203d 80bc 50bd e716 b2bd fa97 1d3b
000002f0: e312 713d ccea 383d 30c0 ee3c 5f7a d73b
00000300: 796c be3c be90 533d 49a9 ce3c ac3f a23c
00000310: ff4b efbc f846 ed3c a0b8 0a3d 3808 6c3b
00000320: 0693 2a3d e163 703d df53 2a3c 674f a3bd
00000330: 2e06 e9bb d397 943d 6e62 ab3c ba4b 74bd
00000340: 15a7 27bc a1c5 693b c521 0abd 1cf2 543d
00000350: 7148 a3bb b372 b6bc 1111 18bd 15ac a2bc
00000360: b19e 0d3c 19b8 3e3d 5088 97bd f997 59bc
00000370: 8a3b 483d c2b5 b7bc 3757 05bd f55f d43c
00000380: 2b54 dbbb 9132 07bd 23f0 833d 44b3 2e3d
00000390: 4039 ad3d 4590 1a3d c0ec 823c be0f 81bd
000003a0: 0a21 8cbd c73d a73d 9818 0d3d 6446 20bd
000003b0: 001b 64bb bc51 1cbd 2966 a23d efb9 29bd
000003c0: c788 10bc 6053 02bd ad29 8cbd 9bc8 b23d
000003d0: 7b8f acbd 6999 63bd a486 d63c 3de9 083d
000003e0: f0a1 a5bd 033d 863c b83e a43d 8720 33bd
000003f0: a5ec 57bd e20c a73d 143b a43d c90e c13b
0.069162585 -0.03104423 0.08244468 0.0077418704 0.021464167 -0.04073499 0.072754666 0.06433027
0.045293722 -0.029932449 0.08550003 0.023918347 -0.016997106 -0.029972067 0.05525202 -0.04256663
0.021060517 -0.06930666 0.0027826508 0.057482958 0.058610313 -0.05870157 -0.04760949 -0.05133367
-0.069605 -0.0388367 -0.0429314 0.08559161 0.04375043 -0.05900209 -0.042549573 0.029599035
0.047374077 0.0845456 -0.068920314 0.07719517 -0.07794756 -0.038727526 -0.0782101 -0.059026007
-0.057026193 0.0678698 -0.048846163 0.011940328 0.019771803 0.017198116 0.024852943 -0.044360317
-0.035641186 0.07639011 -0.03966267 0.0076263244 -0.04096092 -0.0022754662 0.014910027 -0.012648058
0.064016975 0.07190109 -0.07183266 -0.055799443 0.022158632 -0.03767962 -0.031262655 -0.064543
-0.00042197423 -0.007409353 -0.03492072 0.06568253 0.060876034 -0.047677852 -0.028218538 0.025863456
0.084197916 -0.064881995 0.040098544 -0.05212461 -0.002411158 0.025351392 0.0079343235 -0.013517948
0.08733801 -0.03081925 0.012484307 0.029705636 0.0012534894 -0.012748969 0.072163895 -0.044334438
0.04531294 0.026586749 -0.034058392 0.03915905 0.03467344 -0.075422935 0.073513724 -0.03526021
-0.046568517 -0.07572436 -0.06816971 0.032012735 -0.04671485 -0.03562925 -0.06231464 0.03384138
0.04437726 0.023331242 -0.08826077 0.026429214 -0.011089162 -0.04742458 0.04653106 -0.06699193
0.05207876 0.013448121 0.079477176 0.046268642 0.029070945 0.0786982 0.06528744 0.042731404
-0.022616578 -0.08456575 -0.027109811 -0.0100543415 0.06953407 -0.061353315 0.030214917 -0.0011691219
0.021552475 -0.056120593 -0.06557223 -0.053033758 -0.016617427 0.08029634 0.07477825 0.054208655
-0.05310785 -0.018355785 -0.028589502 -0.01879646 -0.018113123 0.074609995 0.028848927 -0.020957151
0.023688626 -0.009571286 0.038110625 0.018960012 -0.036538072 0.045677405 -0.038731836 0.08536599
-0.03767081 0.0430262 0.060905576 -0.04735295 -0.062201507 -0.044139046 0.05685165 0.020223808
-0.040294938 -0.0035479427 -0.038055852 0.019870669 0.05658522 0.071348526 -0.0026641127 -0.07113643
-0.054152504 -0.0017633503 -0.020040467 0.047220074 -0.03856821 -0.032352142 0.005112381 0.010188326
-0.044259608 -0.086010724 -0.018950034 0.03304409 0.028437953 -0.05941124 -0.08657054 -0.0363812
0.03908312 -0.050961018 -0.086957745 0.0024046884 0.058855902 0.045145795 0.029144377 0.006575867
0.023245083 0.05165171 0.025227206 0.019805752 -0.029211042 0.028964505 0.03386748 0.003601564
0.04164412 0.058689002 0.010395973 -0.07974129 -0.0071113324 0.07255521 0.020920958 -0.05964253
-0.010232707 0.0035670775 -0.03372361 0.051988706 -0.004983001 -0.02227149 -0.03712565 -0.019857446
0.008643792 0.046562288 -0.073990464 -0.013280862 0.048884906 -0.022425536 -0.032553878 0.025924662
-0.006693383 -0.03300721 0.06442287 0.04265143 0.08458185 0.037735242 0.015982032 -0.06301831
-0.06842239 0.0816608 0.034447283 -0.03912963 -0.0034806132 -0.038163885 0.07929642 -0.041437086
-0.008821673 -0.031817794 -0.068438865 0.08729669 -0.08425804 -0.055566225 0.026187249 0.03342556
-0.08087528 0.016386515 0.08019775 -0.043732192 -0.052715916 0.08156754 0.08019081 0.005891655

VAE_Decoder.layers.0.linear1.bias f4 [4]
00000000: e045 86ba 0b28 2c3d 657b 363d ede3 6dbb
-0.0010244213 0.042030375 0.044551272 -0.0036299184

VAE_Decoder.layers.0.norm1.weight f4 [4]
00000000: 0000 803f 0000 803f 0000 803f 0000 803f
1.0 1.0 1.0 1.0

VAE_Decoder.layers.0.norm1.bias f4 [4]
00000000: 0000 0000 0000 0000 0000 0000 0000 0000
0.0 0.0 0.0 0.0

VAE_Decoder.layers.1.attention.W_q.weight f4 [4, 4]
00000000: 2a16 d1be 40aa f7bc 5857 9bbd 8e44 b53e
00000010: 1ad1 a9be ca87 ce3e f639 a0be a6d8 f1be
00000020: be27 acbe 2210 ebbe 68ce 1a3e a4e4 c83e
00000030: baaf f43e b0e4 863d 4670 9e3e f8c8 7a3e
-0.40837222 -0.030232549 -0.07585019 0.35403866 -0.33167344 0.40337974 -0.3129422 -0.47235602
-0.3362407 -0.45910746 0.151178 0.3923694 0.4779032 0.065865874 0.30945033 0.24490726

VAE_Decoder.layers.1.attention.W_q.bias f4 [4]
00000000: 0000 0000 0000 0000 0000 0000 0000 0000
0.0 0.0 0.0 0.0

VAE_Decoder.layers.1.attention.W_k.weight f4 [4, 4]
00000000: 185e ee3e 96a1 8bbe 10cd f83e c012 c4bc
00000010: b0b2 043e 30fd bcbd 96e0 b63e e038 61bd
00000020: 941a 93be 005d 7ebb 68ea ac3d 68ea 663e
00000030: c000 9f3e f836 43be 64b3 de3e 70c9 2abe
0.46556163 -0.27271718 0.4859395 -0.023934722 0.12958789 -0.09227979 0.3571822 -0.05498588
-0.28731215 -0.0038812757 0.08443147 0.22550356 0.3105526 -0.19063938 0.4349624 -0.16678405

VAE_Decoder.layers.1.attention.W_k.bias f4 [4]
00000000: 0000 0000 0000 0000 0000 0000 0000 0000
0.0 0.0 0.0 0.0

VAE_Decoder.layers.1.attention.W_v.weight f4 [4, 4]
00000000: 6ce0 36be b24c 99be ac0c ae3e a4d6 133e
00000010: d0ee ecbe f0f8 96bd f056 50be 7c11 ecbe
00000020: f0dc 97bd 8af9 97be e0cd a43e 4860 df3e
00000030: 40df 0d3e c669 c23e 06aa df3e f01c 733d
-0.17859048 -0.29941326 0.33994043 0.14437348 -0.4627595 -0.073717 -0.20345664 -0.4610709
-0.07415187 -0.2968257 0.3218832 0.43628144 0.13854694 0.37971324 0.43684405 0.05935377

VAE_Decoder.layers.1.attention.W_v.bias f4 [4]
00000000: 0000 0000 0000 0000 0000 0000 0000 0000
0.0 0.0 0.0 0.0

VAE_Decoder.layers.1.linear0.weight f4 [128, 4]
00000000: 76b6 d5be 7254 b6be 6462 01be 163a 833e
00000010: 48c3 72be 684e b8bd f069 25bd 0c70 a93e
00000020: 10e6 313d b0cb 19bd fcb2 423e 1064 073d
00000030: 6cb5 9bbe ac0c 8ebe 006c 3d3d 9498 153e
00000040: b840 ad3d f01b 18bd 48e7 e13d 00c8 1cbb
00000050: fac1 a13e 6c5c c2be 003e 63bc 6450 4cbe
00000060: 4488 b6be 000a 763c d099 b6bd 0eb6 cdbe
00000070: 30ac fd3d c09c 41be 54af b53e 50f7 92bd
00000080: 8c20 dabe 8003 503d 6822 d0be 4236 b83e
00000090: cc17 81be 36e4 cabe d41a 173e 6892 b63e
000000a0: 4c59 a43e d668 cd3e a067 7d3d f464 32be
000000b0: b06f e63e 02b0 afbe 40fb 45bd 8cbe 7f3e
000000c0: 1861 433e a41c 77be 62b8 b5be 86d8 9f3e
000000d0: 64e8 743e 7e33 8c3e f050 c7bd b00e cd3e
000000e0: e40f 203e 2c31 513e f035 08be 2c9d a83e
000000f0: 60b8 56bd 9eb1 ddbe d823 323e 4860 213e
00000100: 2ce4 9f3e 5a06 8c3e 2063 97bd 94e6 c9be
00000110: 2035 e93d 8c5f 4c3e 547d 92be c011 c83d
00000120: 44c8 a9be 9887 c2be 6249 d7be 6846 6ebe
00000130: cc26 003e 1800 3e3e c2ab cf3e ee74 fbbe
00000140: d820 8fbd c01e aebc 109d 65be 4cd3 513e
00000150: 02d6 bbbe 488a 0d3e f0df 96be d858 5ebe
00000160: 08b9 a5bd 885b bd3d 9a60 da3e 2224 bb3e
00000170: d06d ec3e f0cd 71bd 0040 bd38 5215 ffbe
00000180: 46a8 a13e 48e3 8a3d 5830 2cbe 1ad0 b23e
00000190: 1e12 afbe 4088 ecbd 90ee fabe 40f9 233c
000001a0: fc1d f8be d029 62be b865 96bd f4f2 2dbe
000001b0: bc64 113e 7862 923d 305b 023d c621 a0be
000001c0: f274 f23e ba8d d73e 16c7 813e 4a7a e83e
000001d0: 18fc 133e d060 1bbd b8f5 643e 48c4 e03e
000001e0: 4274 be3e c68c f8be 54a6 2a3e 903f c6be
000001f0: 3e39 c63e b447 3e3e 7209 ea3e 28f5 853e
00000200: 3c01 e83e 70db b4bd c887 9cbe 2051 b6bd
00000210: 5076 743e 644e 803e b036 313d 1cb0 433e
00000220: 749d 51be 8e9c ff3e 3407 c83e 16e6 c2be
00000230: f045 ccbd 384c ad3e a0d0 8dbd 0062 9e3b
00000240: 3c71 f93e 7844 82bd b011 c43d 7858 fb3d
00000250: a0ff fb3c f0d2 f1bd 9274 bf3e 586c 0d3e
00000260: f043 023d 304e 483e 88c9 ebbd a0bb c8bd
00000270: 2403 153e 38bf 833e 78e7 adbd 809b cc3e
00000280: 4886 cebe 04cb 5a3e b8b7 05be 78b8 fb3d
00000290: f01e f13e 80fc 9b3c 0c09 a4be c07f 8b3e
000002a0: 7ce2 e73e 60ea 723e 8acb 843e 6040 d6be
000002b0: 000d b2be dec6 e4be 640c ddbe 5cb7 cdbe
000002c0: e0b0 8cbc 88bb ed3d 003f 19bc 0484 e1be
000002d0: a6c7 f7be 002c 09ba cac5 f6be e874 bc3e
000002e0: 4054 81bd 1439 c0be 7a25 f43e 1cbe 0c3e
000002f0: daac a1be 6a79 923e 92c7 e9be 1a06 b2be
00000300: ecd6 18be 9ab2 98be 8051 73bd 804d 8a3e
00000310: 9055 c23d 3ce5 37be b0f3 21be 2039 c93c
00000320: 40d8 13be 90ac 60bd 2cdd 6d3e b827 833d
00000330: c2b2 dabe f02c f2bd d044 9abd c64b abbe
00000340: cc8c 173e f84a f33d 4aa2 db3e c873 32be
00000350: e66c cb3e 9e96 a03e a438 3a3e 64e6 df3e
00000360: 1ec6 edbe e438 0d3e 90fa 613d 04be 153e
00000370: 0ce2 6c3e 3a65 dabe 9491 c7be a8da ad3d
00000380: 48a0 d6bd 00ec 4fbc 943d 8a3e 746a 92be
00000390: 102d 74be 66d6 bd3e bc5c 2b3e 8a9c eb3e
000003a0: a864 f23e c0c2 a3bd 88fb af3d a8be 9a3d
000003b0: 626c a53e c263 b4be 9a86 de3e 1a0f 9d3e
000003c0: c0d9 4abc 006a 04bb 0033 48be a01d 5e3e
000003d0: 8022 6dbe 00e3 abbc b895 26be e68e ef3e
000003e0: 1058 8d3d 8007 7e3e 64f0 bfbe a063 c63e
000003f0: f8c9 dabe a03a db3d 7cc6 233e e035 2d3d
-0.4174077 -0.35611302 -0.1263519 0.25630254 -0.23707306 -0.0899933 -0.040384233 0.33093297
0.043432295 -0.037547767 0.1901359 0.03305441 -0.3041185 -0.27744043 0.046245575 0.14608985
0.0845961 -0.03713602 0.110304415 -0.002392292 0.31593305 -0.37961137 -0.013869762 -0.19952542
-0.35650837 0.015017033 -0.08916056 -0.4017796 0.12386358 -0.18907452 0.35485327 -0.07176077
-0.42602956 0.050784588 -0.4065125 0.35978895 -0.25213468 -0.39627236 0.14756328 0.35658574
0.32099378 0.40119046 0.061866403 -0.17421323 0.45007086 -0.3431397 -0.048335314 0.24975032
0.19080007 -0.2413202 -0.35492235 0.31219882 0.23916775 0.27383035 -0.097322345 0.40050268
0.15631062 0.20428914 -0.13301826 0.32932413 -0.052421927 -0.43299574 0.17396486 0.15759385
0.3122877 0.27348596 -0.073919535 -0.3943373 0.11387086 0.19958323 -0.28611243 0.097690105
-0.33160603 -0.37994075 -0.42048174 -0.23269045 0.125148 0.18554723 0.40560728 -0.49112648
-0.06988686 -0.021254897 -0.22423196 0.2049076 -0.36686713 0.13822281 -0.29467726 -0.21713579
-0.080919325 0.09245974 0.42651826 0.36551005 0.4617753 -0.059034288 9.024143e-05 -0.49820954
0.31573695 0.06781632 -0.16815317 0.34924394 -0.3419351 -0.11549425 -0.49010134 0.010008156
-0.48460376 -0.22086263 -0.0734362 -0.1698721 0.14198583 0.07147688 0.031825244 -0.31275767
0.47354847 0.42100316 0.25347203 0.454058 0.14451635 -0.037934124 0.2235936 0.4389975
0.37198073 -0.48544902 0.16665012 -0.3872037 0.38715547 0.1858204 0.4571033 0.26163602
0.45313442 -0.08830917 -0.30572343 -0.08902192 0.23873258 0.25059807 0.043265045 0.19110149
-0.2047022 0.4992413 0.39067996 -0.38066167 -0.09974277 0.33847213 -0.06924558 0.00483346
0.48719203 -0.06360716 0.09573686 0.122727334 0.03076154 -0.11807811 0.37393624 0.13810861
0.03180307 0.19561076 -0.115130484 -0.09801412 0.1455198 0.25731826 -0.08491415 0.39962387
-0.40336823 0.21366507 -0.13058364 0.12291044 0.47093916 0.0190413 -0.32038152 0.27245903
0.4528998 0.2372222 0.25936538 -0.4184599 -0.34775543 -0.44682974 -0.43173516 -0.40178955
-0.017174184 0.11608034 -0.009353399 -0.44046032 -0.48394507 -0.0005232692 -0.48197776 0.36807942
-0.063148975 -0.37543547 0.47684842 0.13744396 -0.31577188 0.28608257 -0.45660073 -0.3477028
-0.14925736 -0.29823762 -0.059403896 0.27012253 0.09488976 -0.1795854 -0.15815616 0.024563372
-0.14437962 -0.05485207 0.23228902 0.0640406 -0.42714506 -0.118249774 -0.07532656 -0.33456248
0.14799803 0.118795335 0.42897254 -0.1742698 0.3973152 0.31364912 0.18185669 0.43730462
-0.46440214 0.13791233 0.055170596 0.14623266 0.23133105 -0.42655355 -0.38978255 0.08488971
-0.1047979 -0.012690544 0.27000105 -0.28596842 -0.23845315 0.37077636 0.16734594 0.46017867
0.4734242 -0.0799613 0.08592898 0.07555896 0.32309252 -0.3523236 0.43462068 0.30675584
-0.012381017 -0.0020204782 -0.19550705 0.21690989 -0.23157692 -0.020982265 -0.1626805 0.4678871
0.06901562 0.24807549 -0.3748809 0.38747883 -0.42732215 0.10704541 0.15993685 0.042287707

VAE_Decoder.layers.1.linear0.bias f4 [128]
00000000: a47d bebe f4b0 2a3e 50f1 83bd f8a9 fa3d
00000010: 0822 7fbe 68a2 c23d c6b3 85be d4c5 333e
00000020: e047 7fbe c641 d73e 2028 74be 92f1 8cbe
00000030: 88ad 87be 2298 e6be e049 983d 289f 57be
00000040: ec45 62be 186c f8be 0ca4 93be 503f c6be
00000050: d690 90be 4409 c83e 8445 d1be 008d a0bb
00000060: e0aa c6be 0092 1d3d 40c7 183e 109b 6d3e
00000070: ea23 cf3e 645a 4a3e 38c5 2abe 5ea7 b23e
00000080: 1af1 d4be 7a9f debe 3297 cbbe d0a4 c03e
00000090: b871 04be a87f 87be 0214 89be 34b4 773e
000000a0: 2892 b83d 6cb6 0f3e a054 f5be 8800 abbe
000000b0: f4bb 5ebe a696 c4be 7e9d c3be a444 a8be
000000c0: d675 cf3e d009 6e3e a0e0 d1be 8c38 623e
000000d0: 10b3 403d 786d c6be faa0 c83e 9028 b7bd
000000e0: 0ce9 303e 101b 0dbd 0050 3cbc 2045 ca3e
000000f0: 748d 89be f043 78bd f0cd c3be 18d7 fb3d
00000100: 804b c4be 3873 afbd 90ae be3d 7c71 dfbe
00000110: 5452 b6be 2050 ab3c 2cce 2d3e a666 b5be
00000120: e81f 193e b683 aabe ca2b c9be 78f9 a8be
00000130: 78e9 80be 747d 163e a468 ac3e c8e7 c9bd
00000140: e093 ddbd 681a d23e a2e4 c73e ec86 b3be
00000150: 9077 11bd e0df b7bd 607d bebd be7b be3e
00000160: 6435 8ebe 1415 aabe 12d2 883e 66ac b0be
00000170: 78ef 72be 3c8c 4abe 5e3e 943e 4c84 4c3e
00000180: 2edf 93be a82c 86bd 885f 1e3e fc3d d4be
00000190: 3064 5c3e 0a53 ffbe 52bc bdbe 6084 51be
000001a0: 6871 f5bd 9ed4 a4be c4d2 78be a63f 8ebe
000001b0: 045f 40be 7451 9abe f2c9 89be a0fc a2bd
000001c0: ecb9 0ebe 3a46 e8be cedc f4be 16b4 963e
000001d0: e02f 13be e056 9b3e d81c 083e 02cb b8be
000001e0: fcb0 633e 709f 933d 886f f3be e0a5 c9be
000001f0: a06d a9bc 8868 c9bd 082b eb3d 80ce a43d
-0.3720523 0.16669065 -0.06442511 0.1223945 -0.24915326 0.09503633 -0.2611372 0.17555934
-0.24929762 0.4204237 -0.23843431 -0.27528054 -0.2649958 -0.45037943 0.074359655 -0.21056807
-0.22096986 -0.4851997 -0.28836095 -0.3872018 -0.282355 0.3906957 -0.4087335 -0.004899621
-0.38802242 0.038469315 0.14919758 0.23203683 0.40457088 0.19761044 -0.16676795 0.34893316
-0.41590196 -0.43481046 -0.3976379 0.37625742 -0.12934005 -0.2646458 -0.26773077 0.24189836
0.09012252 0.14034432 -0.47916126 -0.33398843 -0.21751386 -0.38396186 -0.38206095 -0.3286487
0.4051959 0.2324593 -0.40991688 0.22091883 0.047045767 -0.38755393 0.39185315 -0.089432836
0.172764 -0.034449637 -0.011493683 0.39505863 -0.26865733 -0.060611665 -0.38243055 0.12296885
-0.38338852 -0.08566898 0.09310639 -0.4364127 -0.35609686 0.02091223 0.1697318 -0.35429877
0.14953578 -0.33303612 -0.3929122 -0.3300283 -0.25178123 0.14696294 0.33673584 -0.09858662
-0.108192205 0.4103577 0.3904162 -0.35063875 -0.035514414 -0.08978248 -0.09301257 0.37203783
-0.2777511 -0.33219206 0.2672277 -0.3450653 -0.23724163 -0.19780058 0.28953832 0.19972342
-0.2888121 -0.06551486 0.1546613 -0.4145354 0.21522593 -0.4986804 -0.3705774 -0.20460653
-0.11984521 -0.32193464 -0.2429915 -0.27782935 -0.18786246 -0.3014027 -0.26911885 -0.07958341
-0.13938111 -0.4536608 -0.4782471 0.2943427 -0.14373732 0.30339718 0.13292253 -0.36092383
0.22235483 0.07208145 -0.4754603 -0.39384365 -0.020682156 -0.09834391 0.11482817 0.08047199

VAE_Decoder.layers.1.linear1.weight f4 [4, 128]
00000000: ecef 6fbd d4f4 06bd fc9b 3bbd 11c5 1b3c
00000010: 3dd4 3ebd e998 55bd 1cb8 4f3d 8b1b a03d
00000020: 73db 983d fb65 803d 4a21 a6bb ba27 943d
00000030: a8fd 4bbd 1e0a 933d 92fd 0c3d c050 a6bd
00000040: 3810 0dbd 3b35 ae3d cb33 07bd 385d 6d3a
00000050: b9d5 9f3d 69c3 9c3d 7bec 2bbd 978e b1bd
00000060: d00b a63b f610 543d cc6f 7dbd d356 5e3c
00000070: c429 82bd b7d0 a73c c38e fabc fa97 02bd
00000080: 5667 9abc 782d 0a3d 1fcb 4d3c c37c 2e3d
00000090: f99f a2ba c586 3bbd 2b62 8f3d b1da aebd
000000a0: de0c 36bd ddec 433d 780b 763d 3f94 403d
000000b0: fd23 aebc 62ff 57bd 778a 19bd a43b 823c
000000c0: 3236 3bbd d4b0 983d 38fb 87ba 776e 2c3c
000000d0: fe8c 43bc 9d70 b4bc 83a2 72bd 1588 553d
000000e0: e5f5 42bd a334 4e3d 7503 593d 3ecc c6bc
000000f0: c22f 163d 61f5 903d 0e81 4dbc 6016 91bc
00000100: e261 96bd 9de1 97bc 7574 a3ba dfb9 56bd
00000110: f66f f1bc 27e2 4c3d 008a 6dbd 6d03 33bd
00000120: bf88 9fbd 2f07 a4bd 730f 0cbd e360 6d3c
00000130: 5900 253c e3f7 f4ba 104f 1a3d 9aef a9bd
00000140: 7a9d 583d 1cd4 8abd 0d4e ebbc da3d 023b
00000150: 0ebc 793d e81d f2bc 7ea0 173d 3952 463d
00000160: ba0b 843d 93fb 763d 68fe c13c 4a81 9bbd
00000170: f067 9b3d 0a3d 2b3c d819 2abc 4cda b93c
00000180: d6e5 b439 f664 b13d ed67 6fbd 60eb 6ebd
00000190: 62e8 55bc e376 043d 69e5 853d ccb2 20bd
000001a0: dad5 a7bd 91e1 93bd 24c8 a7bc e837 00bd
000001b0: 9d9b 32bd 20c8 65bd 8563 d8bc 5cc1 cc3c
000001c0: c03e 36bd ba20 96bd 577c 78bd 3b98 b4bc
000001d0: 01f3 abbd fe25 7bbc 5184 113d 274a dc3b
000001e0: 76f8 67bd cc6a a43b dc66 a939 5eb7 663d
000001f0: a67f f5ba 83a8 2fbd bec7 833d a38e 74bd
00000200: c196 6abb c6ea 2e3c 6607 e83c 6084 04bd
00000210: 91bf 29bd 857b 2d3d 6cd6 993d 2ffd 4bbd
00000220: 2013 8f3d 74e9 70bc e388 3abd 4789 353d
00000230: 59d2 e2bc 079a 3b3d 3d7c 1cbd 33eb b53c
00000240: 375a 88bc a3b3 9a39 14f2 af3d 9122 533d
00000250: 3e7b 943d 5bf7 a83c a797 46bc eeac b53c
00000260: 3a44 78bd 1239 5cbd 7b30 a73d 5b66 263d
00000270: ef0a 96bd c041 b33c f20a 9a3d b6fb 783d
00000280: f98c 6d3d 6603 383d 2dd7 8fbd efbf 0b3d
00000290: e17b 5cbd 93fc 733d d852 a8bd fafa ad3d
000002a0: 41a2 5ebd 7285 bd3c 79f6 95bd dffe 173d
000002b0: a8d1 b13c 77df 123d e67c a3bc 108b 643d
000002c0: 14c3 753d ab0b a4bc 22aa 92bd 9793 2c3d
000002d0: 2243 28bd 2750 aa3d 7ba6 5f3d 951a 72bd
000002e0: 2e51 793c 2f15 83bd 9741 b33d 18a2 d4bc
000002f0: f2fb 0cbd 8eed 20bd e1ec b5ba 4e60 b0bb
00000300: 5bc3 95bd 1c8c 3f3d 6897 593d 9a1d 43bd
00000310: d20b 863d e6b8 693b 0b24 4ebc de87 873d
00000320: c0f5 773d 275b a7bd 681d 8cbd 9da1 79bd
00000330: 7071 883d 4577 02bd 5a19 2bbd 6ea9 50bd
00000340: 1456 873d 1e54 343d 79c9 e53c a071 acbc
00000350: b758 94bc 8cb2 823d 2e57 51bd 8622 903d
00000360: e30f 5dbd 25aa ac3d b552 14bd e653 83bc
00000370: 0293 4b3d b62a 66bd c939 bd3c 6ae4 84bd
00000380: 1d66 6bbc 4408 523d 03ff 22bd 01b7 2d3d
00000390: d2dd 61bd 6756 783d f3f5 83bd 6df7 b3bd
000003a0: 4927 9dbd 2c63 a1bd 5301 4abd 30a6 b33d
000003b0: 09d7 14bd b32e 7b3c b564 333d d1d6 1abc
000003c0: 67e8 513d f481 8a3d ccc5 a8bd 51ba af3d
000003d0: f8c7 2e3d c91c 9b3d 6957 5ebd 443b 353d
000003e0: 4abb f93a 3b49 15bd 86d2 603d 872a 913b
000003f0: 5c62 9cbd d463 4bbd e0a7 b43d f724 96bd
-0.058578417 -0.03294833 -0.045803055 0.0095074335 -0.046589125 -0.05214778 0.05071269 0.078177534
0.074637316 0.06269451 -0.0050698863 0.0723414 -0.049802452 0.07179664 0.03442151 -0.081208706
-0.034439296 0.08506247 -0.033008378 0.0009054723 0.07804436 0.07654459 -0.041973572 -0.08669775
0.005067326 0.051773988 -0.061874196 0.013570505 -0.063556224 0.020485265 -0.030585652 -0.031883217
-0.018848103 0.03373477 0.012560635 0.04259945 -0.0012407295 -0.045782823 0.07001146 -0.08537806
-0.044445865 0.047833312 0.06006953 0.04701638 -0.021257395 -0.052733786 -0.037485566 0.01589758
-0.04570598 0.07455602 -0.0010374552 0.010524384 -0.011935471 -0.022026354 -0.059237015 0.05213173
-0.047597785 0.050343167 0.052981813 -0.024267312 0.03666664 0.07078052 -0.012542976 -0.017710865
-0.073428884 -0.018540198 -0.001247062 -0.052423354 -0.029472332 0.050020363 -0.057992935 -0.04370444
-0.07789754 -0.08009183 -0.03419442 0.014488432 0.010070884 -0.0018689599 0.037673056 -0.082976535
0.052884556 -0.06778738 -0.028723741 0.0019873292 0.06097036 -0.029555276 0.03701829 0.048418257
0.06447549 0.060298514 0.02368088 -0.07593019 0.07588184 0.010451565 -0.010382138 0.0226871
0.00034503517 0.08661835 -0.05844872 -0.05832994 -0.013055893 0.03233994 0.06537897 -0.039233014
-0.08195086 -0.07220758 -0.020481177 -0.031303316 -0.043605436 -0.056099057 -0.026414642 0.024994545
-0.044493437 -0.07330461 -0.060665455 -0.022045245 -0.08395959 -0.015328882 0.035526577 0.006722707
-0.056633435 0.005017614 0.00032310828 0.056327216 -0.0018730059 -0.042885315 0.06434582 -0.05970634
-0.0035795423 0.010676092 0.02832384 -0.032352805 -0.041442458 0.042354126 0.07511601 -0.049802
0.0698607 -0.014704097 -0.0455407 0.04432037 -0.027688192 0.04580119 -0.03820442 0.022206878
-0.01664458 0.0002950701 0.085910946 0.051546637 0.07250069 0.02062576 -0.012121118 0.022177186
-0.06061194 -0.053765364 0.08163544 0.040624958 -0.07326304 0.021881938 0.07521619 0.060786925
0.05799577 0.044925116 -0.070234634 0.03411859 -0.053829078 0.059567045 -0.08218926 0.084951356
-0.054353956 0.02313492 -0.073224016 0.0371083 0.021706417 0.035857644 -0.019957017 0.055796683
0.060000494 -0.020025095 -0.071613565 0.04213294 -0.041079648 0.08316069 0.054602128 -0.05910738
0.015217109 -0.06400525 0.08752745 -0.025956199 -0.03441996 -0.03928905 -0.00138798 -0.005382574
-0.07312652 0.046764478 0.053122908 -0.047635652 0.06545223 0.0035663187 -0.0125818355 0.066177115
0.0605371 -0.08171683 -0.06841546 -0.060945142 0.066622615 -0.031852026 -0.041772224 -0.05094283
0.06608215 0.044025533 0.028050171 -0.021050274 -0.018108709 0.06381711 -0.05110853 0.07037835
-0.05397023 0.0843089 -0.036211688 -0.016031217 0.049700744 -0.056193076 0.023098843 -0.06488879
-0.014367607 0.051277414 -0.03979398 0.042410854 -0.055143185 0.060629275 -0.064433955 -0.08787427
-0.07673509 -0.07880244 -0.04931767 0.08771932 -0.036337886 0.015330958 0.043797214 -0.00945063
0.051247027 0.06763068 -0.08240852 0.08580459 0.042671174 0.0757385 -0.05428258 0.044245973
0.0019053009 -0.03644679 0.05488827 0.0044301185 -0.07635948 -0.04965575 0.08821082 -0.07331269

VAE_Decoder.layers.1.linear1.bias f4 [4]
00000000: 0fb9 8dbd 490c 0b3c 8608 1dbc c551 f23b
-0.06920063 0.008486816 -0.009584552 0.0073950016

VAE_Decoder.layers.1.norm1.weight f4 [4]
00000000: 0000 803f 0000 803f 0000 803f 0000 803f
1.0 1.0 1.0 1.0

VAE_Decoder.layers.1.norm1.bias f4 [4]
00000000: 0000 0000 0000 0000 0000 0000 0000 0000
0.0 0.0 0.0 0.0

VAE_Decoder.layers.1.norm0.weight f4 [4]
00000000: 0000 803f 0000 803f 0000 803f 0000 803f
1.0 1.0 1.0 1.0

VAE_Decoder.layers.1.norm0.bias f4 [4]
00000000: 0000 0000 0000 0000 0000 0000 0000 0000
0.0 0.0 0.0 0.0

VAE_Decoder.last_normalization.weight f4 [4]
00000000: 0000 803f 0000 803f 0000 803f 0000 803f
1.0 1.0 1.0 1.0

VAE_Decoder.last_normalization.bias f4 [4]
00000000: 0000 0000 0000 0000 0000 0000 0000 0000
0.0 0.0 0.0 0.0

VAE_Decoder.head.weight f4 [4, 4]
00000000: f2ed ca3e a083 443d 649c 803e d888 fe3e
00000010: c47b b6be 9054 e0be 44d6 2b3e 54af a4be
00000020: fef1 bc3e 0044 bb3e f611 d1be 0831 ff3e
00000030: c693 b3be f2f6 a2be b2ce bbbe b8ea dcbd
0.39634663 0.04797709 0.25119317 0.49713778 -0.356413 -0.43814516 0.16780955 -0.32165015
0.36903375 0.36575317 -0.40834016 0.49842095 -0.3507368 -0.3182903 -0.36681134 -0.107869565

VAE_Decoder.head.bias f4 [4]
00000000: f648 cd3e ec41 a53e d06f ac3d 8452 fbbe
0.40094727 0.32276857 0.08419764 -0.49086392

Detokenizer.weight f4 [14, 4]
00000000: 7d1f c8bd d0f6 3abe c7d0 bebe bb17 dbbd
00000010: 13b0 8c3b e74e 9dbe e909 b93e f6e1 943d
00000020: 2b87 253e 77f2 703e d99c 50bd 41fa acbe
00000030: 174a 073e ac31 1e3e dfc1 e2bd 4560 a43d
00000040: 7848 903e 37a3 b73e aefd 1abe a709 aa3e
00000050: d73a c13e 9d97 293e 0dd4 b1be 8140 d13c
00000060: 8203 c5bc 898e c73e 36f1 ab3e d1e1 873c
00000070: 44e5 9d3e 250b d43d fb88 a4be 5c44 9a3d
00000080: 5332 b43c d1d1 a63e c824 283d 9f7f 0cbe
00000090: fed8 ccbe 2837 793d b3c9 1c3d cf6a 4dbe
000000a0: 5414 303b 3b5f 50be cc8e c03e 253b f63d
000000b0: 1c5b c4be 4ad0 7dbe 05b1 02bd 58e3 763e
000000c0: f2cd 8ebd 3704 ab3d 62df 66be 142f cd3e
000000d0: 9ab0 e1bd d1b3 d83d 4699 983e fd8c c83e
-0.09771631 -0.18258214 -0.3726866 -0.106978856 0.0042934506 -0.3072426 0.36140373 0.07269661
0.16164844 0.23529993 -0.05093083 -0.3378468 0.13211857 0.15448636 -0.11072134 0.080261745
0.2818029 0.3586671 -0.15135834 0.3321049 0.37740204 0.16561742 -0.34732094 0.025543453
-0.024049524 0.38975933 0.33582467 0.01658717 0.30838978 0.10353688 -0.32135758 0.0753257
0.021996653 0.32581952 0.041050702 -0.13720559 -0.40009302 0.060843617 0.038278293 -0.20060275
0.0026867585 -0.20348828 0.37608945 0.12023 -0.3835076 -0.24786487 -0.0319071 0.24110162
-0.06972875 0.08350413 -0.22546151 0.4007498 -0.11020012 0.10581172 0.29804438 0.39170066

Detokenizer.cat_recons.0.weight f4 [2, 4]
00000000: 858a 0abf e72b 103e 98f7 83be 02b5 31bf
00000010: 29d7 78be dcea f83e c264 90be b23a 943e
-0.54117614 0.14079247 -0.25774837 -0.6941682 -0.24300827 0.48616683 -0.28201872 0.2895103

Detokenizer.cat_recons.0.bias f4 [2]
00000000: 84ae fcbe 8049 2c3d
-0.49351895 0.042062283

Detokenizer.cat_recons.1.weight f4 [2, 4]
00000000: 8f09 29bf 764e 343f 1e4c 2a3e 95ad 18bf
00000010: 799d 963e 1cdb 203f 33ca 073f b9fb dabe
-0.6603021 0.7043222 0.16630599 -0.59639865 0.29417017 0.62834334 0.53042907 -0.42770174

Detokenizer.cat_recons.1.bias f4 [2]
00000000: e87a e63d 4cfb 1e3e
0.11253911 0.1552555

Detokenizer.cat_recons.2.weight f4 [7, 4]
00000000: f111 d83e 550e c3be 6453 a7be 0d2b d9be
00000010: 5ac9 d1be 2900 2fbe ea07 cebe 18ab 023f
00000020: 1213 92be b035 003f f005 a1bd e07e 4dbc
00000030: c9df 34bc a452 cd3e a062 eabe 3aec 823e
00000040: 75df 4f3e c0e5 8ebe caec f0be 6b67 793c
00000050: 7244 0cbe 9181 4fbe 29a4 f53d 5898 4cbe
00000060: eaed f33e 04a4 ddbe 2321 94be 6a83 09be
0.42201188 -0.38096872 -0.3268081 -0.42415658 -0.40973932 -0.17089905 -0.40240413 0.5104232
-0.28530174 0.5008192 -0.078624606 -0.012542456 -0.011039683 0.40102112 -0.4577837 0.25570852
0.20300086 -0.2790966 -0.47055656 0.015222411 -0.13697985 -0.2026427 0.11994202 -0.1997999
0.47642452 -0.43289196 -0.2893153 -0.13429037

Detokenizer.cat_recons.2.bias f4 [7]
00000000: 188b aa3d 04e3 5c3e dae6 ca3e 80e6 1a3e
00000010: e032 9e3d 1ced 873e e4a7 8bbe
0.08327311 0.21570975 0.3962925 0.15126991 0.077245474 0.26548088 -0.27276528

Detokenizer.cat_recons.3.weight f4 [4, 4]
00000000: 5860 c8be 2f0b 0b3e 99dc 97be aa95 b7be
00000010: 93ca 13bf b103 573e 9ef5 103d dc4c a23b
00000020: 3867 843e e9a4 913e 6ca5 52be bc97 ddbc
00000030: d3bf 123d 508b 233e dcdd aabe 9453 d93e
-0.39136004 0.13578485 -0.2966049 -0.35856372 -0.5773098 0.20997502 0.03539049 0.00495301
0.2586 0.2844613 -0.20570916 -0.027049892 0.03582747 0.15971112 -0.3337239 0.42446578

Detokenizer.cat_recons.3.bias f4 [4]
00000000: 247e a0be 54dc 1c3e c0d1 77bc a88e df3d
-0.31346238 0.15318424 -0.015125692 0.109158814

Detokenizer.cat_recons.4.weight f4 [11, 4]
00000000: 7185 e8bd 5f68 7e3e 37a3 adbe 3956 8b3e
00000010: d3ef bf3e 19ff 313d b6d0 99bc 9674 0c3d
00000020: afe7 74be 74c7 c03e 2af7 b43e ebb8 bd3e
00000030: 82c6 8abe d2ec d3bd dd63 35bd 8b58 b4bd
00000040: 6a12 35bd e0e7 71be a865 65be 2805 27be
00000050: 5296 c63e 3ecf a1be 2caf 87be 4812 22be
00000060: dbfb d13d cd8f 433e f024 bcbe 98ac a63d
00000070: 53e1 ba3e b8d0 f9bd f1d3 6fbd ca08 fcbd
00000080: e783 133e 361e a9be 91b2 75be 4841 8a3e
00000090: d7a0 45be a0e6 adbe 3a5f 263d abc0 8c3e
000000a0: 243c d03e ace6 f1bd 9742 d9be eb49 923d
-0.11353577 0.24844502 -0.33913586 0.2721422 0.3748766 0.04345617 -0.018776279 0.034290873
-0.23916505 0.3765217 0.3534482 0.37055144 -0.27104574 -0.10347904 -0.04428469 -0.08805951
-0.044207014 -0.2362361 -0.2240206 -0.1631056 0.3878656 -0.31603426 -0.26500833 -0.15827286
0.10253116 0.19097824 -0.3674693 0.081383884 0.36500034 -0.12198013 -0.058551732 -0.12306364
0.14405786 -0.33030862 -0.23993899 0.2700293 -0.19299637 -0.33965015 0.04061816 0.27490744
0.40670884 -0.11811575 -0.42433617 0.07143005

Detokenizer.cat_recons.4.bias f4 [11]
00000000: 780f d5bd 024e f8be f0df 66be fe30 9fbe
00000010: bed8 f6be 40eb 06be d4b7 33be 2004 84bd
00000020: a069 d93d 601a b2bd b04c 12be
-0.10403341 -0.48497015 -0.22546363 -0.31092066 -0.48212236 -0.13175678 -0.17550594 -0.06446099
0.106158495 -0.08696437 -0.14287066

Detokenizer.cat_recons.5.weight f4 [11, 4]
00000000: d3a3 3a3e 0391 973e d422 e23e 9f46 4f3e
00000010: 3ed7 b4bd 4a8a 41be fd7f 923e 40c1 743d
00000020: a5d9 a4bc 78b1 2cbd 56d9 cdbe 84fe c43e
00000030: a9bd 4f3e b5a3 c23e 5dbd a7bd d3a2 c5be
00000040: 59b0 813e 9f35 ec3d 1db4 a0be 046f 86bd
00000050: 9956 49be 50f9 393e ad9f 713c a2c4 95be
00000060: a855 a53e 13a8 2c3e 2755 b33e b34f c2be
00000070: 81f4 22be 3b7a 3f3e d978 0bbe c36a ab3e
00000080: f0db 49be 1adb 963d 748a 9cbe ba50 683e
00000090: 7e67 dd3e 8735 c73d 9c53 2dbe 8020 d6be
000000a0: 846e 113e 6fea 5c3e bf9e 4e3d 1fb9 403e
0.18226556 0.29602823 0.44167197 0.20241784 -0.08830117 -0.1890041 0.28613272 0.05975461
-0.020123312 -0.042161435 -0.40204877 0.3847543 0.20287193 0.38015524 -0.08190415 -0.38600788
0.25329855 0.11533665 -0.31387416 -0.06564143 -0.1966194 0.18161511 0.014747542 -0.2925158
0.32291913 0.1686099 0.35025904 -0.3795143 -0.15913583 0.18698971 -0.13620318 0.3347989
-0.19712806 0.07366009 -0.3057438 0.22687045 0.4324302 0.097270064 -0.16926426 -0.4182167
0.14202315 0.21573804 0.05044436 0.18820618

Detokenizer.cat_recons.5.bias f4 [11]
00000000: 40e1 0b3c 50b0 fc3d 30a2 b43d 64be ee3e
00000010: f083 9bbe 24ef be3e 40ab 083e 0ee5 a53e
00000020: 80a5 edbb e4e4 2d3e ac80 303e
0.0085375905 0.123383164 0.08819997 0.46629632 -0.30374098 0.37291825 0.13346577 0.32401317
-0.007252395 0.16981846 0.17236584

Detokenizer.cat_recons.6.weight f4 [11, 4]
00000000: 073e 423e c6e1 653e 58a4 25bc 1cf3 a4be
00000010: 077b 1abe 1138 b23e c53c d8bc 9b80 b93d
00000020: 25d6 65be a9a1 853d 7745 59be d368 a93e
00000030: 63a6 433e d141 d13e 78d3 85bd c201 0f3e
00000040: 925f 683d b626 a33e 1790 d8bd 6ea7 d93d
00000050: c9c7 0c3e f0c5 dfbc 2d08 98be d675 97bd
00000060: a5c2 95bd a31c 57be b6fd 873e a942 353e
00000070: 9f8d c4bd 7986 e5bd 72ff 8abb 487e 3ebe
00000080: e5bf 803d 5245 a1be 3168 233d 82a5 9bbe
00000090: ad93 dd3c f4c2 8e3e 8532 babe d196 3cbe
000000a0: 93e1 3ebe ed2b e13e 7471 d9be 09c7 d43e
0.18968974 0.22449407 -0.010109983 -0.32216728 -0.15085994 0.348084 -0.026396165 0.09057733
-0.22444971 0.06524975 -0.21217905 0.33087787 0.1910644 0.40870526 -0.06534475 0.13965514
0.056731768 0.31865472 -0.10574358 0.10627638 0.13748087 -0.027316064 -0.29693738 -0.07395522
-0.07312516 -0.21007018 0.26560754 0.1770121 -0.095973246 -0.11207289 -0.0042418772 -0.1860286
0.06286601 -0.314982 0.039894287 -0.3039971 0.027047956 0.27883112 -0.36366668 -0.18416907
-0.18640737 0.43978825 -0.4246937 0.41558102

Detokenizer.cat_recons.6.bias f4 [11]
00000000: 0c2e be3e 20c9 49be 90e5 a33e f889 a3be
00000010: 1039 bdbd f885 cdbd fc86 bebe 0010 f43d
00000020: e01b e4bc b08f 473d ac40 d5be
0.37144506 -0.1970563 0.3201108 -0.319412 -0.092393994 -0.10035318 -0.3721236 0.11917114
-0.027845323 0.048721015 -0.41650903

Detokenizer.cat_recons.7.weight f4 [11, 4]
00000000: 2023 89be afde c23e 8c03 aabe 51e6 223e
00000010: dce8 c8bd 087e b83d 479d 7bbe f0a3 773e
00000020: f6e0 3e3d 66db 3d3e 13aa 92be c74b e6bd
00000030: 5534 0e3e 9c55 96bd ae3a 90be 646c e03e
00000040: bb5d 813e adc7 723e 81b5 883e 5ed5 d03c
00000050: 4421 0b3d de7b c1bd 91ca b8be 5761 02bb
00000060: 2506 0f3e 2ba2 a7bd 5f4c b03e fbda b03d
00000070: 67c9 dfbc 2418 be3e 6842 d03e 6725 58be
00000080: 106c 8dbc d5a1 723d 1a0f 1e3d c7d4 bb3e
00000090: f512 5a3e 2466 0d3c 39a4 973e a769 65bc
000000a0: f6ad c43d c312 ddbe 3695 eabd d550 d93e
-0.2678461 0.3806052 -0.3320583 0.15908171 -0.098100394 0.090084136 -0.24571715 0.24183631
0.04660126 0.18540725 -0.2864538 -0.11244922 0.1388715 -0.073405474 -0.2816977 0.43832695
0.25266823 0.23708983 0.26700976 0.025492366 0.03396727 -0.09447454 -0.36092046 -0.0019894445
0.13967188 -0.08185228 0.34433267 0.08635517 -0.027317716 0.37127793 0.40675664 -0.21108018
-0.017263442 0.059236366 0.03858862 0.36685774 0.21296294 0.008630309 0.2961748 -0.01400224
0.09603493 -0.43178377 -0.11454241 0.42444482

Detokenizer.cat_recons.7.bias f4 [11]
00000000: 6622 ce3e 74cf 3e3e 228e d4be 3e4e bd3e
00000010: c03a 643e 8826 4abe e0bd 0c3e 36de e63e
00000020: 90d7 5fbd b49a 73be 08e9 34be
0.4026062 0.18633825 -0.4151469 0.36973757 0.22288036 -0.19741261 0.13744307 0.45091408
-0.054648936 -0.23789483 -0.1766702

Detokenizer.cat_recons.8.weight f4 [10, 4]
00000000: e1d7 113e 9893 d93d 2b71 983b 90b9 5b3e
00000010: d767 3fbe 5bf7 e93d 7313 443e 21c5 46be
00000020: 104c c43e 519c 323e b3b9 f13c 7ad8 c43d
00000030: 3c69 67be f65f 3dbe 2850 fc3c c827 8cbd
00000040: 68dc 28be a3a8 343e 2686 c83e b474 53bc
00000050: 5e08 763e cd2a ae3d 9f7f 243d fe10 cc3e
00000060: d39c 99be a182 b93e 1e3b cebe 8616 e1be
00000070: 8210 8a3e 97fa d8be 9516 c83e 2aea 62be
00000080: 1149 ec3e 5d29 9b3e 0614 afbe ea63 cbbe
00000090: 327f cbbe e481 843e 7704 a63d c76e 1bbe
0.14242508 0.106238544 0.0046521625 0.21457505 -0.18691956 0.114241324 0.19148044 -0.19411136
0.3833928 0.17442442 0.029507494 0.09611602 -0.22598737 -0.18493637 0.03079994 -0.06843525
-0.16490328 0.17642455 0.39164847 -0.012906242 0.2402663 0.08504257 0.04016077 0.39856714
-0.3000246 0.36232474 -0.40279478 -0.43962497 0.2696572 -0.42378685 0.3907973 -0.22159639
0.46149495 0.30304995 -0.34194964 -0.39724666 -0.3974548 0.2588035 0.0810632 -0.15178977

Detokenizer.cat_recons.8.bias f4 [10]
00000000: 6e1c de3e 74d6 3d3e 96b0 fa3e 00c8 85b9
00000010: 80a5 fdbe 38ad fc3d a416 f13e 7099 6fbe
00000020: aa95 f53e 0037 6abd
0.43381065 0.18538839 0.4896285 -0.00025516748 -0.4954033 0.12337726 0.47087586 -0.23398376
0.47965747 -0.05718136

Detokenizer.cat_recons.9.weight f4 [10, 4]
00000000: 04b1 e83e bfe3 a2bd 318d 8dbe 281b c3be
00000010: edc6 b8be 9634 81be 516d 8bbe c501 cf3d
00000020: 6787 8abe 0ef8 c4be e41e 953d f013 9c3d
00000030: 653b 833e 8346 9e3e b8e6 c13e ba29 31bd
00000040: 0eb9 bc3d 4cfd 1fbe af16 b7be 8ca7 09bd
00000050: ba75 47be 9cdd 02bd e6b6 dfbe 3658 513e
00000060: e3c2 c63e e7b3 aebe 7c61 073e c3a0 bbbe
00000070: 14dc b33e ecc4 03be 09db ab3e c4a6 6dbd
00000080: 4769 d03e c831 cb3e 38f6 863b d538 1abe
00000090: 2424 c5be 06bc 903e 361f c8be 21d8 c63e
0.45447552 -0.07953595 -0.27646783 -0.38106656 -0.36089268 -0.25235432 -0.2723184 0.101077594
-0.2705643 -0.384705 0.072812825 0.0762099 0.25631252 0.3091317 0.37871337 -0.043252684
0.09214984 -0.15623969 -0.35759494 -0.03360705 -0.19478503 -0.031949624 -0.43694228 0.20443806
0.38820562 -0.3412163 0.13220781 -0.3664609 0.35128844 -0.12868088 0.33565548 -0.05802037
0.4070532 0.39686418 0.004118707 -0.15060742 -0.38504136 0.2826845 -0.39086312 0.38836768

Detokenizer.cat_recons.9.bias f4 [10]
00000000: 001f 3b3e 4c51 d33e c040 13be b014 0a3e
00000010: 88ce ba3e 2e12 c13e 80e8 033e 8062 103e
00000020: 1806 8c3d be78 eabe
0.18273544 0.41272962 -0.14380169 0.13484454 0.36485696 0.37709183 0.1288166 0.14100075
0.068371 -0.45795244
