tabsyn/vae/ckpt/default/original/encoder.pt (torch, 23728 bytes, 33 tensors)

Tokenizer.weight f4 [15, 4]
000000 3c 2e 3d 3e e8 51 59 be 14 cd b6 3e fc f3 a3 3e
       0.18474668 -0.21222651 0.35703337 0.32022083
000010 ec b1 4a 3e ea e3 ed be c4 1b 31 3e a0 c7 9f be
       0.19794434 -0.46462947 0.17295748 -0.3120699
000020 fe 4e 9f be be a7 ec 3e 28 88 5f 3e 2e 18 b5 3e
       -0.31114954 0.46221727 0.21829283 0.3537001
000030 74 50 3a be 46 47 cc 3e b8 86 ac bd b2 3e 8a be
       -0.18194753 0.39898127 -0.08424133 -0.27000958
000040 48 16 5e 3e d0 c6 1c bd 86 9d a4 be e8 5d a1 3e
       0.21688187 -0.03827554 -0.3215143 0.31516957
000050 d0 28 1e bd 78 c5 de bd 90 8d 6b be 00 3d 52 3e
       -0.03861314 -0.10877508 -0.2300322 0.20531082
000060 94 e3 98 3e e8 90 43 be 72 5b a0 3e 2a 6d fa be
       0.29861128 -0.19098246 0.31319767 -0.4891141
000070 8a 7f ec be 02 cb de 3e d0 8c a3 3d 80 39 b5 bc
       -0.46191055 0.43514258 0.07985842 -0.022122145
000080 3c 0f e6 be 58 18 c6 be b2 5f ac be 14 53 3e 3e
       -0.44933498 -0.38690448 -0.3366676 0.1858638
000090 cc d3 1b 3e dc 31 43 3e 76 22 ea be 1a b3 b9 3e
       0.15217513 0.19061989 -0.45729417 0.36269456
0000a0 68 cd 2d 3e 32 34 c9 be 2c d0 2b be 8c 1d 31 be
       0.16972888 -0.39297634 -0.1677863 -0.17296427
0000b0 d0 2c d3 bd c8 01 cd be aa 38 f3 be 20 b3 b5 3d
       -0.10311282 -0.4004042 -0.4750417 0.08872056
0000c0 7e 92 a6 be 00 c8 4d ba c0 4f 08 3c 66 92 d0 be
       -0.3253364 -0.0007849932 0.008319795 -0.40736693
0000d0 24 a0 88 3e f4 7b 3a 3e 70 e5 dd 3e b0 82 6f bd
       0.26684678 0.18211347 0.4333911 -0.058474243
0000e0 88 75 0e be 04 43 6a be 70 bb ec 3d ca b1 9a be
       -0.13912022 -0.22877127 0.11559188 -0.30213767

Tokenizer.bias f4 [24, 4]
000000 c4 84 ef 3e 38 ec 12 3e f0 7d f2 3d f2 4c d7 be
       0.4678098 0.14347923 0.11840427 -0.42050892
000010 16 9a 84 be f0 83 ce be 80 98 1a 3c 80 fd 33 3c
       -0.25898808 -0.40335035 0.009435773 0.010985732
000020 98 89 79 be 94 85 12 3e 3a 6f 85 3e 0e 51 ad 3e
       -0.24368894 0.14308769 0.26061422 0.33850902
000030 34 3e 31 be 12 68 9a be 74 a8 e1 3e be 4b aa be
       -0.17308885 -0.30157524 0.44073832 -0.33260912
000040 20 1c f6 3e f4 48 d8 be 76 9a ef 3e 40 90 82 bd
       0.48068333 -0.4224316 0.46797532 -0.0637517
000050 9c 0f 0c 3e 40 db 57 3c 86 41 86 be 00 4f cb bc
       0.1367783 0.013174832 -0.26221865 -0.024817944
000060 f6 e4 c9 be e8 40 46 3e 58 6c d5 be ac 88 a7 3e
       -0.39432496 0.19360697 -0.41684222 0.3272146
000070 6e 67 c7 be bc 95 1e be ac 04 a9 3e e8 59 81 3d
       -0.38946098 -0.15486807 0.33011377 0.063159764
000080 86 d8 ce 3e 34 ed d3 be c0 be ee 3e c0 62 5f 3d
       0.4039957 -0.4139191 0.46629906 0.054537535
000090 58 4a 99 be 1a fd 8b 3e c0 32 d7 be d8 28 9b be
       -0.29939532 0.2734154 -0.42030907 -0.303046
0000a0 e8 2c a2 3e 98 2e 06 be 64 ca a9 3e 80 6c 3b be
       0.31674886 -0.13103712 0.33162224 -0.18303108
0000b0 d4 79 4f be e2 40 89 3e d0 68 03 bd bc fc 25 3e
       -0.20261317 0.26807314 -0.03208238 0.16209692
0000c0 80 5d f6 3e 78 8b f3 bd 10 55 d1 be 20 27 fd be
       0.4811821 -0.11891836 -0.4088521 -0.49443913
0000d0 9c 99 1c 3e 82 63 9a 3e 64 12 0a be 04 6d b0 3e
       0.15292972 0.30154043 -0.13483578 0.34458172
0000e0 44 bc 48 3e b0 c7 a1 be f0 2b ad 3d 8c fe c0 be
       0.19603068 -0.31597662 0.08455646 -0.37694204
0000f0 70 e4 ba 3d 00 21 9e be ec b9 ea be c0 f1 9e bd
       0.09125602 -0.30884552 -0.45844972 -0.07760954
000100 7e 1a e9 be ee 4b e0 be 30 75 34 bd 9c 2c c0 3e
       -0.45528024 -0.4380793 -0.04405707 0.37534034
000110 9c ea 4d 3e 90 ee 2d 3d fc cd 5e 3e 24 d7 c9 be
       0.20109028 0.04246384 0.21758264 -0.39421952
000120 c0 66 f9 be 40 22 e0 be ce b1 d4 be 70 e6 b6 be
       -0.48711205 -0.4377613 -0.41541904 -0.35722685
000130 42 f0 86 3e f6 4c c3 be 80 83 b3 be 0c 70 4e be
       0.26355177 -0.38144654 -0.35061264 -0.2015993
000140 24 69 70 3e 60 59 3a be d8 47 2f be 40 29 32 3d
       0.23477608 -0.18198156 -0.1711725 0.04349637
000150 e8 0d dc bd ae 97 e7 be 2a ae 95 be 44 64 7d be
       -0.1074484 -0.4523291 -0.2923444 -0.2474528
000160 ae 3e 9a 3e 20 48 e6 3e c8 6a 7b 3e 6c 94 71 be
       0.30125946 0.44976902 0.24552453 -0.23591775
000170 26 19 d9 3e 30 c5 75 bd 16 5b ff be 10 43 b5 3e
       0.42402 -0.060002506 -0.4987418 0.35402727

Tokenizer.category_embeddings.weight f4 [79, 4]
000000 14 76 6f be c0 50 69 be b4 a1 e3 be a0 53 34 bd
       -0.23384887 -0.2278471 -0.44459307 -0.044025064
000010 9e 76 fc 3e c8 1a a7 3d 88 9d 5b 3e 62 74 fa be
       0.49309248 0.08159405 0.21446812 -0.48916918
000020 74 b3 66 3e c8 e2 fc bd 6c 81 bd be 4c 94 b4 3e
       0.22529393 -0.123479426 -0.37012804 0.35269392
000030 a8 27 ec 3d 38 c0 69 3e 4e ff f5 be ec 4a 39 be
       0.11531001 0.22827232 -0.48046345 -0.18094987
000040 80 d6 1e 3e 44 e7 29 3e 28 30 f2 bd 10 76 4a 3e
       0.15511513 0.16592127 -0.11825591 0.197716
000050 f2 de bf 3e 02 65 ac 3e 60 f7 68 bd 26 39 8b be
       0.3747478 0.33670813 -0.05687654 -0.27192038
000060 1a e6 af be 6c b0 86 3e c0 b7 95 bd ec 52 e1 3e
       -0.3435524 0.26306474 -0.07310438 0.44008577
000070 00 7d 9a 3d d8 a4 b5 3d b8 65 43 be ba cb d1 be
       0.07543373 0.08869332 -0.19081771 -0.40975744
000080 fa 85 9b be 28 cf b7 be 92 87 e9 be c0 78 e9 bd
       -0.30375654 -0.35900235 -0.45611244 -0.11399984
000090 a4 48 43 3e 18 35 ca 3e 68 5c 9c bd 9c d9 c8 3e
       0.19070679 0.39493632 -0.076348126 0.39228523
0000a0 1c 4a 3b 3e 24 b4 40 3e ce cc 81 be 82 2f e5 be
       0.18289989 0.18818718 -0.25351566 -0.44762808
0000b0 50 90 a5 3e 60 3d 55 be b4 08 5f 3e b6 db e6 be
       0.32336664 -0.20824194 0.21780664 -0.450895
0000c0 9c 3c bd 3e 0c 20 56 be b8 a5 eb bd 7c 15 dd 3e
       0.36960304 -0.20910662 -0.11506218 0.43180454
0000d0 00 fa 77 bb 08 18 81 3d b8 db f0 3e 9e 82 95 be
       -0.003783822 0.06303412 0.47042632 -0.29201216
0000e0 ae 92 fe 3e 80 a7 84 bc a0 d5 01 bd f4 25 b6 be
       0.49721283 -0.016193151 -0.03169787 -0.3557583
0000f0 22 2c 87 3e 80 ba 94 be da 9a b6 3e e2 51 82 be
       0.26400858 -0.29048538 0.35665017 -0.25453097
000100 4c 3a 20 be 80 75 60 be 44 25 5f 3e 34 be 77 be
       -0.15647238 -0.21919823 0.2179156 -0.2419365
000110 bc 7d 87 be 78 58 f7 3d 20 b0 ff bc 80 43 77 bc
       -0.26463115 0.12077421 -0.031211913 -0.015091777
000120 28 40 dd 3d 80 27 87 3d a8 4a 28 be a0 06 fc bd
       0.108032525 0.06599331 -0.16434729 -0.12305951
000130 b0 2c 21 be 72 e1 b5 be 50 91 25 be 8e 21 9b 3e
       -0.15739703 -0.35523564 -0.16168714 0.30299038
000140 68 56 b9 be 08 a9 fa be d8 fc 8f bd d4 45 c3 be
       -0.36198735 -0.48957086 -0.07030648 -0.38139212
000150 56 9a ef be 0a a3 df 3e 1c f3 80 be 80 8f 9b 3c
       -0.46797436 0.43679076 -0.25185478 0.018989325
000160 a0 5f ef be 38 65 ad 3e 94 10 7a be 92 19 e4 be
       -0.46752644 0.33866286 -0.24420387 -0.4455076
000170 68 1d 68 be 50 ef 72 be 94 7c 88 3e 80 22 85 3d
       -0.22667468 -0.23724103 0.26657546 0.06500721
000180 64 72 52 3e 80 27 83 3c b4 ab 77 be 38 66 c4 be
       0.20551449 0.016010046 -0.24186593 -0.38359237
000190 fe 3c be be 26 49 89 be 06 d2 ee be 60 43 e4 3d
       -0.37155908 -0.2681362 -0.4664461 0.11145663
0001a0 42 7e c0 be 94 49 68 be 12 e4 cf 3e ba 49 b0 3e
       -0.37596327 -0.22684318 0.4060369 0.3443125
0001b0 50 dd 3b bd 68 f4 1c 3e e8 9b 30 be a6 d9 f0 be
       -0.045865357 0.15327609 -0.17246974 -0.47041053
0001c0 c0 50 cc 3e 5e c1 f1 be 50 b5 87 3e ba f4 9f be
       0.39905357 -0.4721784 0.26505518 -0.312414
0001d0 f8 01 a6 be 40 72 8c bd 80 c2 3b bc d2 fd bd be
       -0.32423377 -0.06857729 -0.011459947 -0.37107712
0001e0 c8 b2 e3 3d ac 88 e5 3e e4 63 fc 3e f8 05 70 be
       0.11118084 0.44830835 0.4929496 -0.23439777
0001f0 e0 cb e8 3c 6e 46 9d be 60 6f 5e be d6 43 8a be
       0.028417528 -0.30717796 -0.21722174 -0.2700488
000200 02 89 86 be e8 a2 ce 3e 6a 81 91 be 78 47 48 be
       -0.26276404 0.40358663 -0.28419048 -0.19558513
000210 12 5a fd 3e bc 11 b4 be 7c 81 1c be 5e a6 e4 3e
       0.4948278 -0.3516978 -0.1528377 0.44658178
000220 f0 a2 3f be 14 44 63 3e f8 09 6f 3e 20 1d 49 3e
       -0.187145 0.22193938 0.23343647 0.19640017
000230 40 6c 50 bc ca 22 d0 be 76 aa aa 3e 12 60 8c 3e
       -0.012721121 -0.40651542 0.33333176 0.27417046
000240 c8 97 02 be 48 7a 62 3e e0 f7 75 3d a8 2c 9d be
       -0.12753212 0.22116959 0.060050845 -0.30698133
000250 24 63 dd be 80 eb 39 3c b0 d8 11 3d e0 05 e4 bd
       -0.432397 0.0113476515 0.03560704 -0.11133933
000260 80 60 d7 3b e8 b6 84 3e d0 96 1a bd 04 49 40 be
       0.006572783 0.25920796 -0.037741482 -0.18777853
000270 e6 ec ea 3e f0 9f 04 bd d2 d8 f4 3e 08 d0 3d 3e
       0.45883864 -0.03237909 0.4782167 0.18536389
000280 e8 37 a6 bd 40 08 fd 3e a0 1c 35 bd 60 a8 fc be
       -0.08116132 0.49420357 -0.044216752 -0.4934721
000290 e2 67 ed be 90 25 bd 3d 30 c1 55 3d 64 5f b5 3e
       -0.4636832 0.0923568 0.05218619 0.3542434
0002a0 68 a9 92 bd 0a 36 a6 3e 70 d3 aa bd ae 76 9f 3e
       -0.07161218 0.32463104 -0.0834111 0.31145233
0002b0 34 6b ea 3e ec 81 aa 3e 98 e6 da bd f0 00 e8 bd
       0.45784914 0.33302248 -0.106885135 -0.11328304
0002c0 0c 40 0f 3e c8 7a c9 be fc c0 92 be 28 be f7 be
       0.13989276 -0.39351487 -0.2866286 -0.48387265
0002d0 4c 8e 56 3e fc c9 f4 be e6 97 fc 3e ac dd aa 3e
       0.2095272 -0.47810352 0.4933464 0.33372247
0002e0 a0 de 23 be 5c 13 32 be dc ca 16 be 1c af a4 be
       -0.16002893 -0.17390198 -0.14725822 -0.32164848
0002f0 d4 36 9f 3e 40 1d da 3e 2c b1 21 3e c2 1e c7 be
       0.31096518 0.4260044 0.15790242 -0.38890654
000300 7c 9a 52 3e 08 17 f3 bd 80 71 4d 3e 5c ea 16 be
       0.20566744 -0.11869627 0.20062828 -0.14737839
000310 58 eb df 3e 02 32 fc 3e fc f0 98 be 6e a1 d0 be
       0.4373424 0.49256903 -0.29871356 -0.4074816
000320 00 fc 70 3a ce aa ee 3e 38 3b 93 3d d8 c1 1a be
       0.00091928244 0.4661469 0.071890295 -0.15113008
000330 fe 2d de 3e 74 34 c7 3e f4 2c a9 3e 08 d4 7d be
       0.43394464 0.38907206 0.3304211 -0.24787915
000340 34 46 be 3e 00 7a fc 3b 3c a4 2d be d6 6f a4 be
       0.37162936 0.007704973 -0.16957182 -0.32116574
000350 2e c6 91 3e 64 52 d0 be a8 2b 32 3e aa 58 be be
       0.28471512 -0.4068786 0.17399466 -0.3717702
000360 4e 9d b1 be 20 7e 21 bd 2e 54 f0 3e 5a 77 a1 be
       -0.34690326 -0.039426923 0.46939224 -0.3153637
000370 70 da 6c bd 00 5f 16 be b8 f1 93 3e 50 83 57 be
       -0.057825506 -0.14684677 0.28895354 -0.21046185
000380 78 48 0f be 7e 69 8f 3e 30 07 25 bd 42 e4 e2 3e
       -0.13992488 0.28010172 -0.040290058 0.44314772
000390 0e eb b5 be c4 77 80 be c4 0b 23 be 6c c6 39 3e
       -0.35530895 -0.25091374 -0.15922457 0.18142098
0003a0 68 ca 0a be e0 68 6d 3e 70 61 e8 bd da 89 e4 3e
       -0.13553774 0.23184538 -0.1134671 0.44636422
0003b0 76 98 9a be b0 62 1a 3d 48 d6 70 be 30 e1 5d 3e
       -0.30194443 0.037691772 -0.23519242 0.21667933
0003c0 60 f0 39 be 3c a1 c4 3e 96 ff 87 3e 48 90 1c be
       -0.18158102 0.38404262 0.26562184 -0.15289414
0003d0 a6 b5 c7 3e c0 ce b4 3c 3c 5e 64 3e 4a 4a d9 3e
       0.39005774 0.022071242 0.22301573 0.4243949
0003e0 24 37 00 be 10 cb 12 3e dc eb 86 be ec f1 59 3e
       -0.12521034 0.14335275 -0.2635182 0.21283692
0003f0 38 82 c1 bd 4e 88 c1 be b0 46 82 3e 98 43 7c 3e
       -0.094486654 -0.37799305 0.25444555 0.2463516

VAE_Encoder.layers.0.attention.W_q.weight f4 [4, 4]
000000 f0 94 2a be 00 56 ee 3e 40 38 2e be 80 50 a7 3c
       -0.16658378 0.46549988 -0.17013645 0.020424128
000010 a0 62 48 bd 50 6f 60 be ea 02 e7 be ae d0 c8 3e
       -0.04892218 -0.21917462 -0.4511941 0.3922171
000020 9c fb 8c be 50 3f 80 3e 82 8b c9 3e b2 ba f7 3e
       -0.27535713 0.25048304 0.3936425 0.48384625
000030 d8 c9 1e be a4 51 eb 3e ea 4f c3 3e f0 57 d7 bd
       -0.15506685 0.45960724 0.38146907 -0.105148196

VAE_Encoder.layers.0.attention.W_q.bias f4 [4]
000000 00 00 00 00 00 00 00 00 00 00 00 00 00 00 00 00
       0.0 0.0 0.0 0.0

VAE_Encoder.layers.0.attention.W_k.weight f4 [4, 4]
000000 04 d9 9d be d0 3d 97 3d 78 f7 2f be a8 2b bc 3e
       -0.30829632 0.07384837 -0.17184246 0.36752057
000010 08 76 6d be fc e1 d8 be 80 05 46 3d 7c 6f 02 3e
       -0.23189557 -0.42359912 0.04834509 0.1273784
000020 8c 03 30 3e fe 1b df 3e e0 f2 fa be f8 2d 91 be
       0.17188853 0.43576044 -0.49013424 -0.28355384
000030 a0 aa f5 bd be a7 f3 3e c0 d7 6d be 70 a1 67 bd
       -0.11995435 0.47588915 -0.23226833 -0.056550443

VAE_Encoder.layers.0.attention.W_k.bias f4 [4]
000000 00 00 00 00 00 00 00 00 00 00 00 00 00 00 00 00
       0.0 0.0 0.0 0.0

VAE_Encoder.layers.0.attention.W_v.weight f4 [4, 4]
000000 40 1c e7 3d 00 b4 7d ba 04 38 7f 3e c8 0a e9 bd
       0.11284685 -0.0009678006 0.24923712 -0.113790095
000010 98 3f b5 bd 3e dc af be 0a 98 95 3e c0 91 08 3c
       -0.0885002 -0.3434772 0.2921756 0.008335531
000020 58 fe 9a be 1c b3 43 be ac 83 bb 3e e8 05 87 3d
       -0.30272174 -0.19111294 0.36623895 0.065929234
000030 4c 2c c7 3e b0 75 bb 3e 3c 02 cb 3e 20 22 76 3d
       0.38900983 0.36613226 0.39650142 0.060091138

VAE_Encoder.layers.0.attention.W_v.bias f4 [4]
000000 00 00 00 00 00 00 00 00 00 00 00 00 00 00 00 00
       0.0 0.0 0.0 0.0

VAE_Encoder.layers.0.linear0.weight f4 [128, 4]
000000 18 92 c0 3d 90 de 20 be 20 58 8e 3d d0 8a 9c 3d
       0.09402865 -0.15709901 0.06950402 0.07643664
000010 80 9b 4b bc 0a f6 8f be 14 57 53 be 66 e4 cf 3e
       -0.012427211 -0.281174 -0.20638686 0.40603942
000020 08 a7 81 3e 80 d1 f7 be ca 25 c8 be 60 10 fb be
       0.25322747 -0.48402023 -0.3909133 -0.4903593
000030 78 70 75 3e 98 95 27 be 4c 81 4e 3e c0 f9 8a bc
       0.23968685 -0.16365659 0.2016651 -0.016964793
000040 80 ae 24 3c 64 92 21 3e b0 7e cf 3d 0a 56 90 be
       0.01005137 0.157785 0.101315856 -0.28190643
000050 4a 49 d2 be 94 ed 1b 3e 56 70 ef 3e 56 f8 fa 3e
       -0.4107154 0.15227348 0.46765393 0.4901759
000060 58 a8 b9 3e 28 f5 db 3e 34 7c 62 3e de be bc be
       0.3626125 0.42960477 0.22117692 -0.3686437
000070 94 03 32 3e b0 02 ac bd 58 ab 90 3e 14 cf d2 be
       0.17384177 -0.0839895 0.28255725 -0.41173613
000080 da d7 c6 be f0 f8 33 3e 78 17 bf bd d8 80 33 be
       -0.38836557 0.17575431 -0.09330648 -0.17529619
000090 2c bf 3c 3e d6 63 ca 3e 9a aa a2 3e 06 ca cc 3e
       0.18432301 0.39529294 0.31770784 0.39997882
0000a0 dc 6f c9 3e 4c de 35 be 00 a5 0b 3e 68 4f a2 bd
       0.39343154 -0.17760581 0.13637161 -0.07925302
0000b0 00 2c f6 bc 58 2a 9a 3e b8 25 f7 3e f8 92 8e bd
       -0.030050278 0.3011043 0.48270965 -0.06961626
0000c0 58 b2 5a 3e 28 55 83 bd 50 a1 b0 be d2 90 b6 be
       0.21357095 -0.06412727 -0.34498072 -0.35657364
0000d0 7a b6 a1 3e 44 da d9 be 60 23 17 3d fc 0b ff be
       0.3158453 -0.42549336 0.03689897 -0.4981383
0000e0 d0 eb b2 be a2 9e f4 3e cc 65 f0 3e 34 41 e5 be
       -0.34945536 0.47777277 0.46952665 -0.4477631
0000f0 88 f9 3d 3e ca a9 ab be 54 de dc 3e 66 2b 8a 3e
       0.1855222 -0.33527976 0.43138373 0.26986235
000100 00 88 cf bb b0 01 e4 bd 52 de a7 be 5c 03 55 3e
       -0.006333351 -0.11133134 -0.32786804 0.20802063
000110 9a 21 d2 be 4e 46 90 be 48 cb 64 3e 52 3a a6 3e
       -0.4104126 -0.28178638 0.2234317 0.3246637
000120 a0 a1 12 3d e4 28 68 be 22 3f 88 3e f8 bf d5 3d
       0.03579867 -0.22671849 0.26610667 0.10437006
000130 e8 fb d4 bd 20 f3 95 3c 5c af 33 3e 5c 90 fe 3e
       -0.1039961 0.018304408 0.17547363 0.49719512
000140 76 83 f2 be 38 b9 ce 3e 0c 18 91 be 90 51 42 be
       -0.47365922 0.40375686 -0.2833866 -0.18976426
000150 d0 aa 14 3e 58 f5 e4 3d c0 08 2c 3c b8 00 f5 3d
       0.14518285 0.11179608 0.010500133 0.11963028
000160 18 64 a5 bd 00 41 65 3b a0 1d 1a 3e d8 af 72 be
       -0.08075732 0.003498137 0.15050364 -0.23699892
000170 58 b4 cf 3d 20 05 03 3e 54 94 df be 5e a6 ef 3e
       0.1014182 0.12794924 -0.43667853 0.46806616
000180 6e d7 b6 3e 1e 57 8e be 24 e1 47 3e 50 5a 2c 3e
       0.35711235 -0.2780084 0.19519478 0.16831326
000190 e8 40 b9 3d fa eb b8 be 56 59 99 3e 00 a8 d4 3e
       0.09045583 -0.36117536 0.2995097 0.41534424
0001a0 a8 bf f6 bd fc 41 70 be 8c 98 5a 3e 80 ed 20 bc
       -0.12048274 -0.23462671 0.21347255 -0.009822249
0001b0 c0 28 6a bd 9e 43 dd 3e e4 81 f2 3e 50 19 ef bd
       -0.05716777 0.4321565 0.47364724 -0.1167475
0001c0 16 5d ef be 28 06 fd be 34 ee e3 be 40 c1 62 bc
       -0.46750706 -0.4941876 -0.44517672 -0.01384002
0001d0 c0 9c 4f be 70 b9 ce be 30 ba 4c 3e 80 5a 8a 3c
       -0.20274639 -0.40375853 0.199929 0.016888857
0001e0 96 f3 a4 3e 4e 76 da be b4 79 71 be 80 3b d7 bd
       0.3221709 -0.42668384 -0.23581582 -0.105093956
0001f0 fa 04 ec 3e ea 92 b4 3e 24 17 55 be d0 03 4d bd
       0.46097547 0.35268337 -0.20809609 -0.050052464
000200 4e 88 f5 3e b4 ba 31 3e 38 21 02 3e 88 e5 99 bd
       0.47955555 0.17356378 0.12707984 -0.07514483
000210 d0 a8 58 be 32 76 9b 3e 00 b8 2a ba 34 9c f5 3e
       -0.21158147 0.30363613 -0.00065124035 0.47970736
000220 0c 1a c6 3e b8 ee fb 3d 40 b9 96 3d 86 3b eb 3e
       0.38691747 0.12301391 0.073595524 0.4594385
000230 12 d8 e6 3e 0c e8 fe be 34 81 7d be 50 64 d6 3d
       0.45086724 -0.49786413 -0.24756318 0.10468352
000240 d8 e6 5a be 7a 55 c7 be de 87 89 be 24 50 a2 be
       -0.21377122 -0.389324 -0.2686147 -0.31701767
000250 b0 b6 bb 3e d4 e5 f3 3e b0 23 f1 be cc 12 56 be
       0.36662817 0.47636282 -0.4709754 -0.20905608
000260 8c 57 e1 3e 44 7a 36 be c0 27 60 3c a8 c6 71 be
       0.44012105 -0.17820078 0.013681352 -0.23610938
000270 9c 91 b7 be 84 1b 9c 3e 80 bb 77 3c b0 4b ee bd
       -0.3585328 0.30489743 0.015120387 -0.1163553
000280 b0 53 41 3d 6a a7 ca be e8 0f f2 3e c6 5c d2 3e
       0.04719895 -0.39580852 0.4727776 0.41086406
000290 14 3e df be d4 2e be 3e 58 6c ff bd 04 0a 9d 3e
       -0.4360205 0.37145102 -0.12471837 0.30671704
0002a0 10 25 34 3d 64 a0 05 be 50 9e 4c be a0 38 78 be
       0.043980658 -0.13049465 -0.19982266 -0.2424035
0002b0 94 17 6f be 54 32 a7 3e 7e 7d ca 3e d0 a9 0a bd
       -0.23348838 0.32655585 0.39548868 -0.033853352
0002c0 1c db 0a be 14 f6 38 be 00 50 4c 3c 58 b5 ec 3d
       -0.13560146 -0.18062621 0.012470245 0.11558026
0002d0 88 de c6 be 30 e5 b2 be 40 c9 d8 bc 10 64 a3 bd
       -0.38841653 -0.3494048 -0.026463151 -0.0797807
0002e0 d2 ac 8a 3e 98 4c 15 be 1e 11 d4 3e f6 c7 9c 3e
       0.27084976 -0.1458 0.4141931 0.30621308
0002f0 74 ab 41 be c4 b7 62 3e c4 fd d5 be 28 15 b2 3e
       -0.1891306 0.22140414 -0.4179517 0.34781766
000300 90 32 fc 3e 36 f2 b1 3e 54 ca 6c 3e ba 1e c0 be
       0.49257326 0.34755105 0.23124057 -0.37523443
000310 28 2e 91 be ea ea ea 3e 70 6e 12 3e 10 3c 8e 3d
       -0.28355527 0.4588235 0.14299941 0.0694505
000320 b8 f3 f1 bd e4 70 86 be 14 66 64 be ec d7 70 3e
       -0.11814064 -0.26258004 -0.22304565 0.23519868
000330 6e e7 e0 3e 8c 35 86 be 0c c1 22 3e 38 8e 47 be
       0.43926567 -0.26212728 0.15893954 -0.19487846
000340 9a 87 8a be e0 0c e6 be ec af 35 3e 6c 02 f4 3e
       -0.2705658 -0.44931698 0.1774289 0.47658098
000350 14 0b b9 be b0 66 f5 3d aa b2 90 3e 80 8b 75 3c
       -0.36141264 0.11982477 0.2826131 0.014986873
000360 20 08 97 bc 56 93 b0 be 9c 5a d7 3e 60 e6 fc 3e
       -0.018436491 -0.34487408 0.42061317 0.49394512
000370 68 f0 d5 be 48 8d 86 3d 60 59 09 3e e6 dd ee be
       -0.41784978 0.06569916 0.13413 -0.4665367
000380 e4 86 26 3e cc 87 a2 3e e0 bd 85 3e c0 8b 93 be
       0.16262394 0.3174423 0.26121426 -0.28817558
000390 c8 84 8c 3e 74 a4 db 3e e8 19 8c 3e e0 85 ad 3e
       0.27445054 0.42898905 0.27363515 0.338912
0003a0 8e cd e9 3e e0 25 f5 3e d0 e4 8e be 48 e5 1b be
       0.45664638 0.4788046 -0.27908945 -0.15224183
0003b0 d0 9d 43 be b8 01 b6 bd 38 e3 63 3e a2 88 e0 3e
       -0.1910317 -0.088870466 0.22254646 0.43854243
0003c0 3e bc f7 3e fc de e1 3e 6e 42 aa 3e a8 9f f0 3e
       0.48385805 0.44115436 0.33253807 0.46996808
0003d0 a8 0b bc bd c8 89 de bd ac 14 e6 be 60 8c 0b 3e
       -0.09181911 -0.108661234 -0.44937646 0.13627768
0003e0 00 f4 05 3d d8 e5 8f 3e 74 41 ca be 4c f7 c1 3e
       0.0327034 0.28105044 -0.39503062 0.37883985
0003f0 aa 10 e4 3e d0 c0 c5 bd 88 a6 91 be 30 c6 5a 3e
       0.44543964 -0.09655917 -0.28447366 0.21364665

VAE_Encoder.layers.0.linear0.bias f4 [128]
000000 78 f6 23 be 00 71 18 3c a8 39 a0 3e b0 cd 76 3d
       -0.16011989 0.009304285 0.31293988 0.060254753
000010 56 96 c3 be d8 1f b2 3e 40 7e 14 bc c4 b3 0e be
       -0.38200635 0.3478992 -0.0090633035 -0.13935763
000020 72 bd af be a0 ed 83 3c bc e7 99 be 78 51 ad bd
       -0.34324223 0.01610452 -0.30059612 -0.084628046
000030 a6 f6 cf 3e 08 e3 45 3e 44 3b 15 be 28 65 b0 3d
       0.40617865 0.19324887 -0.1457339 0.08613044
000040 a0 f7 cc bc e4 75 2f be a2 1a cb 3e 8c 27 81 be
       -0.02502042 -0.17134815 0.39668757 -0.25225484
000050 cc 7d e5 be 20 00 b9 be 04 bf b3 be ac fe a3 be
       -0.44822538 -0.36132908 -0.3510667 -0.32030237
000060 32 fd b7 3e 6c f3 a9 3e b2 f5 d6 be 8c d4 8a 3e
       0.3593536 0.3319353 -0.41984326 0.27115285
000070 2e 72 95 3e aa c8 e9 3e a0 ab f3 bc 50 cc 7c bd
       0.29188675 0.45660907 -0.029744923 -0.061718285
000080 84 26 03 be c6 52 90 be 20 17 90 3e 50 d2 e3 be
       -0.12807661 -0.2818815 0.28142643 -0.44496393
000090 84 52 00 be 70 e6 62 bd fc 2b e2 3e 98 aa e7 3e
       -0.12531477 -0.055395544 0.44174182 0.4524734
0000a0 cc 4c 86 be b4 e6 e4 be c0 4a 51 bc 42 fc a5 be
       -0.26230466 -0.44707263 -0.012774169 -0.3241902
0000b0 12 b4 c1 3e 50 15 9f bd dc f7 09 be e0 6e f6 3c
       0.37832695 -0.07767737 -0.13473457 0.030082166
0000c0 38 e5 81 be d2 52 9f 3e 20 61 4a be e0 4c bf bd
       -0.25370193 0.31117874 -0.19763613 -0.093408346
0000d0 f0 2d 99 3e 90 cf 06 bd 48 47 c7 3e de 66 8c be
       0.2991786 -0.03291279 0.3892157 -0.2742223
0000e0 cc 92 70 3e 70 60 dd bd be 60 d9 3e d4 bd 38 be
       0.23493499 -0.108094096 0.4245662 -0.18041164
0000f0 d6 ac df be 10 e4 c2 3d 80 3c e9 bc 80 67 25 3e
       -0.4368655 0.09516156 -0.028471231 0.16152763
000100 78 7d d6 bd bc 23 18 be 64 26 a4 be 8c 63 47 3e
       -0.1047315 -0.14857382 -0.3206054 0.19471568
000110 c2 07 b8 3e 50 e3 a2 3e c4 ee 69 be 14 a7 3b 3e
       0.3594342 0.3181405 -0.22844988 0.18325454
000120 8a 4b d9 be 08 63 74 3e 46 74 8a be 6a 39 ca 3e
       -0.42440444 0.23865902 -0.27041835 0.39496928
000130 5a fd ac 3e 94 cb af 3e b4 8e 31 be 64 de e8 3e
       0.33787042 0.34335005 -0.17339593 0.4548217
000140 28 5d e7 3d d4 79 d9 3e 58 b1 db be a0 91 00 bd
       0.11297065 0.4247576 -0.4290874 -0.03138888
000150 5c 58 f8 be 5c 93 e2 3e 2c 45 2d 3e 40 a3 c7 3c
       -0.48504913 0.4425305 0.16920918 0.024369836
000160 60 ec d7 bc 44 f3 2d 3e a8 2e df be d8 9f 34 3e
       -0.02635783 0.1698733 -0.43590283 0.176391
000170 ae c8 aa be 40 fb 41 3e 68 43 b0 be fc ce dc be
       -0.3335623 0.189435 -0.34426427 -0.43126667
000180 e4 39 1c 3e 62 b8 ec 3e 38 81 d6 3d 8e 65 f2 be
       0.15256459 0.46234423 0.10473865 -0.47343105
000190 36 4a cc be 68 c5 f6 bd e0 7b ee 3e 60 0f 8a 3c
       -0.39900368 -0.12049371 0.46578884 0.016853034
0001a0 3a 8b b2 be e0 eb 28 bd 96 a8 c5 3e 28 11 0f be
       -0.34871846 -0.041240573 0.38605183 -0.13971388
0001b0 7c 8a b6 be c0 8f 96 be 50 1a 44 3e 50 18 dd 3d
       -0.3565253 -0.29406548 0.19150662 0.10795653
0001c0 0a f2 d2 3e fe be df 3e 20 b6 e5 3e 08 4e b0 bd
       0.41200286 0.43700403 0.44865513 -0.08608633
0001d0 50 79 b1 bd d4 21 5a 3e 34 22 3f be d0 fd 8f 3d
       -0.08665717 0.21301967 -0.18665391 0.07030833
0001e0 1c cd 8b be 94 48 fd 3e 70 de bb bd 5c bb eb 3e
       -0.27304924 0.49469435 -0.09173286 0.4604138
0001f0 74 17 51 be 96 44 af 3e a8 df 40 be 7e ab d2 3e
       -0.20419103 0.34232014 -0.18835318 0.41146463

VAE_Encoder.layers.0.linear1.weight f4 [4, 128]
000000 19 b6 c2 bc d6 00 3a bd ef 78 62 bd 0d c4 38 bc
       -0.023768472 -0.045410953 -0.055291113 -0.011277211
000010 81 a7 e2 bb be ee 8a 3c 22 4d 84 3d a4 28 73 3d
       -0.0069169407 0.016959544 0.064600244 0.05936493
000020 3b 05 c3 bc b7 e8 85 bd 8d 3b 9f bd c8 b3 24 3d
       -0.023806205 -0.065385275 -0.0777503 0.040210515
000030 22 e8 02 bc bd 2e 00 bd 45 6f 59 bc bb cf 79 bd
       -0.007989915 -0.031294573 -0.013271158 -0.060989123
000040 57 5c 7d 3d d0 b5 48 bd 55 4c af bc 16 d4 40 3d
       0.06185564 -0.049001515 -0.021398703 0.04707726
000050 93 4a 8f 3d b7 25 0c bc fa 1d 3d bd d9 ac 86 3b
       0.06996646 -0.008553914 -0.046171166 0.0041099605
000060 12 a5 b8 3c 30 2e 23 bd ea 7a 6a bd 40 c4 0e 3d
       0.02253965 -0.03983897 -0.057246126 0.034855127
000070 79 91 7d 3d 4d 77 a2 bd ea dc 48 bd db b6 24 3c
       0.06190631 -0.07932911 -0.049038805 0.010053362
000080 51 61 f0 3c b9 7f 8d 3d 4e f5 c9 3c 5a 21 16 bd
       0.02934328 0.06909127 0.024653103 -0.0366529
000090 7e 57 09 bd 96 c1 f1 bc 51 3b f7 3c 18 21 00 3c
       -0.033530705 -0.029511254 0.030179651 0.00782039
0000a0 8b 23 e5 3b 84 26 3d bd 4d 84 34 3c 11 55 cb 3c
       0.0069927624 -0.04617931 0.011017871 0.024820836
0000b0 33 55 fe bc 33 fb 8d bd 37 cf 8c 3d cf 9a 38 bd
       -0.031046486 -0.06932678 0.068754606 -0.045069512
0000c0 64 44 35 3d da b0 b3 3d 61 b0 72 3d e4 fb 90 3d
       0.044254676 0.08773966 0.05925024 0.07079294
0000d0 00 09 b4 3d ac 15 93 3d 80 41 90 bd 13 84 5b 3b
       0.08790779 0.07181868 -0.07043743 0.003349547
0000e0 79 c6 9b 3d a3 d0 77 3d fe 83 fb bc de ae 87 3d
       0.07606215 0.060501706 -0.030702587 0.0662515
0000f0 a1 26 30 bd e5 ca 07 bd 4a 3c af 3c 2e c5 fb 3c
       -0.04300559 -0.03315248 0.021391053 0.030733671
000100 63 d7 01 3d c2 18 22 3d 45 cc b2 3d d5 77 a1 3d
       0.03169955 0.039574392 0.087303676 0.07884184
000110 dc aa 5e 3d 83 c0 3d bc 1c cd 6b bd c6 d3 01 3d
       0.054362163 -0.011581543 -0.057568654 0.031696104
000120 e3 2a be 3b 83 8e 59 bd f6 42 23 3b d4 58 87 bc
       0.0058034523 -0.053114425 0.0024911738 -0.016521849
000130 b8 67 79 bd 02 13 5a 3c 16 26 e1 3c 54 8d dc 3b
       -0.06088993 0.013310196 0.027483981 0.006730715
000140 b4 ca 99 3d 48 d9 91 bd 90 3d 8c 3d 80 a2 4a 3d
       0.07509366 -0.07121521 0.068476796 0.04947138
000150 5a 3c 21 3d da 15 db bb d7 27 b3 bd 58 e3 89 3c
       0.039364196 -0.0066859545 -0.08747833 0.016832039
000160 17 f4 ef 3c cd ef a0 bd 3c 38 6a 3d 94 d6 60 bd
       0.029291196 -0.07858238 0.057182536 -0.054892138
000170 b7 b2 1b bd c7 d0 0c bd 2b 08 15 3d d3 d4 79 bd
       -0.038012233 -0.034378793 0.036384743 -0.06099398
000180 bf f3 5a bd 09 97 91 bd 89 17 83 bd 82 98 9d 3b
       -0.05345511 -0.07108886 -0.06400973 0.00480944
000190 9f a8 ad 3d 22 b4 a0 3c c6 a3 8f 3d 25 d3 bc 3b
       0.084794275 0.019617144 0.07013659 0.005762475
0001a0 bf 29 43 3d 09 10 8a bd e0 cc 41 3d e6 db a7 3d
       0.047647234 -0.0674134 0.047314525 0.08196239
0001b0 57 7e 8e bd 87 e2 0f 3d bd dc 59 3c 80 7a 38 bd
       -0.06957691 0.035128143 0.013297257 -0.0450387
0001c0 90 80 39 bd c1 27 63 bc 7a 83 6a bd 49 41 89 3c
       -0.045288622 -0.013864459 -0.057254292 0.016754763
0001d0 61 f5 6d bc 2d 6f 12 bc 66 1e 2c bd ea 89 66 bd
       -0.014523835 -0.008937639 -0.042021178 -0.05628387
0001e0 f7 20 53 3d 4a aa 5d bc 51 3e 67 bd 60 4a a5 3c
       0.05154511 -0.01352937 -0.056455914 0.020177066
0001f0 eb fe 01 3b 00 44 d1 bb cf 71 7f 3c 66 fb 93 bc
       0.001983578 -0.00638628 0.015591099 -0.018064212
000200 e4 8d 8a ba 09 a9 dc 3c 67 40 8d 3d b5 e7 59 3d
       -0.0010570851 0.026936071 0.068970494 0.05319949
000210 f3 15 ab bc 66 c0 46 bc d3 1f af 3d 7b c9 6e 3d
       -0.02088449 -0.012130832 0.08550992 0.058297615
000220 67 56 04 3d 14 e6 86 bc f4 99 89 bd 94 85 8f 3d
       0.032308962 -0.016467132 -0.06718817 0.070079
000230 c9 a9 69 bc 7a b8 9e ba aa 3e 93 3d 06 52 37 bd
       -0.014261671 -0.0012109422 0.071896866 -0.044755958
000240 bc c6 1f bd 92 19 04 bd 10 ae ad 3d 88 8d 42 3d
       -0.039007887 -0.03225095 0.084804654 0.047498256
000250 ce 25 ba 3c 36 6e 2a bd 41 d5 10 3d e4 97 f1 bb
       0.022723105 -0.04160901 0.035359625 -0.007372843
000260 dc 3d 8c 3d b5 6d 3c bd 42 9d 43 3c e1 49 6e 3d
       0.06847736 -0.046003062 0.011939349 0.058175925
000270 54 6d 7a 3d 1b 58 73 bb 56 b8 9a bd 84 f6 e3 bc
       0.06113942 -0.0037131372 -0.075546905 -0.027827509
000280 af ac 12 bd b0 c4 6b bd 05 16 6c 3d 3f 18 de 3c
       -0.035809215 -0.057560623 0.057638187 0.02711117
000290 de 74 8f 3d 01 59 e8 3c 6d f4 8b bd f4 5d 53 bd
       0.070047125 0.028362753 -0.0683373 -0.051603273
0002a0 69 3f e5 bc ac 7b 1f 3d f3 80 95 3d 28 5a 9f bd
       -0.027984338 0.038936302 0.07299986 -0.07780868
0002b0 6e 04 46 bd fb 40 0c bc e6 b4 1e bc a9 60 af 3d
       -0.04834407 -0.008560414 -0.009686684 0.08563358
0002c0 aa b5 b8 3c 54 4b 5b 3d c9 a7 2c bc 61 2a 64 3b
       0.022547562 0.053538635 -0.01053805 0.00348153
0002d0 21 d8 3e 3b 22 de 96 3d cc aa 05 bc 9c bc a5 bd
       0.0029120522 0.07366587 -0.008158397 -0.08092615
0002e0 d6 93 25 bd 0a 52 36 3d 6f f2 ad 3d 0a bb c8 bc
       -0.04042419 0.044511832 0.08493506 -0.02450325
0002f0 1d 99 93 3c ed dc 8c 3d ad 9f b0 3b 63 09 97 bd
       0.018017346 0.06878076 0.0053901286 -0.07374837
000300 8e ed 24 bd b5 34 9f 3d 55 88 f5 bc 66 ce 91 ba
       -0.040265612 0.07773725 -0.029972235 -0.0011124134
000310 44 ec 15 3d 24 1e 4c bd 63 3b 82 bd cd 19 47 bd
       0.036602274 -0.04983343 -0.06358983 -0.04860859
000320 37 98 9e 3d d4 82 08 3d ef 6a 5c bd 98 19 9c bd
       0.077438764 0.033327892 -0.053812917 -0.07622069
000330 32 af a4 bd 26 76 96 bd 84 a4 41 3c cc 2d a1 bd
       -0.08041228 -0.07346754 0.011819009 -0.07870063
000340 84 82 7f bd 25 0e 1b b9 e2 62 9c 3c d2 b9 e6 3c
       -0.06238033 -0.00014787221 0.01909012 0.028164778
000350 7b 05 5f bd 96 21 5b bd 6e eb 4f bd f8 be 51 3d
       -0.054448586 -0.053498827 -0.050761633 0.051207513
000360 17 62 e7 3c cd 97 8e bd 18 c6 10 3d 8d 70 f2 bc
       0.028245015 -0.069625475 0.035345167 -0.029594684
000370 df 7d fb 3c b4 2f 91 bd 3a c6 60 3b 76 60 af bd
       0.030699668 -0.07089177 0.003429784 -0.0856332
000380 02 e5 1d bd 52 1b 40 bc fc 09 b1 bc e8 99 3b 3d
       -0.038548477 -0.011725264 -0.021611206 0.045801073
000390 e7 83 99 3d 69 e9 6c bd 05 8c f2 3b 45 7f fa bc
       0.074958615 -0.057839785 0.0074019455 -0.030578265
0003a0 69 63 14 bd a7 bb ef bb 25 43 80 3d 3d d7 58 3c
       -0.036227617 -0.007316071 0.06262807 0.013234911
0003b0 73 94 78 3d 55 39 84 3c da 9d 22 bd 8b af 1b bd
       0.060688447 0.01614062 -0.03970132 -0.038009208
0003c0 0b a5 a8 3c f8 55 a9 bd 3c 68 98 bd ea 9e 41 bd
       0.020586511 -0.0826835 -0.07441756 -0.047270693
0003d0 ea 50 64 bb be df 53 3d 85 9f 24 3d 21 fd 21 bd
       -0.0034838268 0.05172705 0.040191192 -0.039548043
0003e0 77 4a 33 3d 62 c4 3a 3d b5 21 ad 3d 9e 9a 0a 3b
       0.043772187 0.04559744 0.08453695 0.0021149288
0003f0 b3 89 bf 3b 30 9b a6 bd f8 87 08 bd 59 a8 80 bd
       0.0058452724 -0.081350684 -0.033332795 -0.0628211

VAE_Encoder.layers.0.linear1.bias f4 [4]
000000 e6 3c 31 bd 10 b7 91 bc 36 b6 33 bd 1d 9a 6a 3a
       -0.043270968 -0.017787486 -0.04387494 0.0008949356

VAE_Encoder.layers.0.norm1.weight f4 [4]
000000 00 00 80 3f 00 00 80 3f 00 00 80 3f 00 00 80 3f
       1.0 1.0 1.0 1.0

VAE_Encoder.layers.0.norm1.bias f4 [4]
000000 00 00 00 00 00 00 00 00 00 00 00 00 00 00 00 00
       0.0 0.0 0.0 0.0

VAE_Encoder.layers.1.attention.W_q.weight f4 [4, 4]
000000 7c eb 03 3e cc 37 66 3e ba f2 f5 be 48 40 d8 bd
       0.12882799 0.22482222 -0.48036748 -0.10559136
000010 60 bf bc 3d 38 f0 bd 3d 92 d1 8c 3e 9c 51 79 be
       0.092161894 0.09274334 0.2750364 -0.24347538
000020 40 ec dc 3c c0 20 15 bd 60 0c e2 3c 40 a7 6e bc
       0.026968122 -0.036408186 0.027593791 -0.014566243
000030 d2 46 90 be 00 89 39 3c 20 e1 64 3d a0 e4 e4 3d
       -0.28179032 0.011324167 0.05587876 0.11176419

VAE_Encoder.layers.1.attention.W_q.bias f4 [4]
000000 00 00 00 00 00 00 00 00 00 00 00 00 00 00 00 00
       0.0 0.0 0.0 0.0

VAE_Encoder.layers.1.attention.W_k.weight f4 [4, 4]
000000 e6 74 b2 3e 60 a2 b3 3c 50 89 c3 bd 10 3b ac 3d
       0.3485481 0.021928012 -0.09547675 0.08409703
000010 4e 96 b2 be 7c f0 e7 be 84 e9 29 be 8a 2c a8 be
       -0.34880298 -0.45300663 -0.16592985 -0.3284648
000020 72 01 c0 3e d0 7e 21 3d d2 41 d9 be a0 b7 a2 bc
       0.37501103 0.03942758 -0.4243303 -0.01986295
000030 1a 32 ac be 8c 14 78 be fa c2 a2 3e bc 32 43 be
       -0.33631974 -0.24226588 0.3178938 -0.19062322

VAE_Encoder.layers.1.attention.W_k.bias f4 [4]
000000 00 00 00 00 00 00 00 00 00 00 00 00 00 00 00 00
       0.0 0.0 0.0 0.0

VAE_Encoder.layers.1.attention.W_v.weight f4 [4, 4]
000000 44 76 4a be 98 22 f9 be e0 73 65 bd 6a 73 f2 3e
       -0.19771677 -0.48659205 -0.05601871 0.4735368
000010 76 c6 e2 be a0 bd dd 3d c0 f3 6c 3c 88 b2 da bd
       -0.4429204 0.10827184 0.014462411 -0.106785834
000020 7e 0f 8b 3e c4 c2 08 3e 88 f8 69 3e c0 60 ae 3d
       0.27160257 0.13355547 0.22848713 0.08514547
000030 5e 62 87 be 5c 3f 06 be 8c 23 62 be 38 7f 39 be
       -0.26442236 -0.13110107 -0.22083873 -0.18114936

VAE_Encoder.layers.1.attention.W_v.bias f4 [4]
000000 00 00 00 00 00 00 00 00 00 00 00 00 00 00 00 00
       0.0 0.0 0.0 0.0

VAE_Encoder.layers.1.linear0.weight f4 [128, 4]
000000 d0 cd 8e 3d 50 4e 3c 3d 00 3a 61 3d b8 5c a7 be
       0.06972849 0.045973122 0.054986954 -0.32687926
000010 54 83 97 3e c6 8f 98 3e ac 25 b2 3e 72 94 b0 be
       0.29592383 0.2979719 0.34794366 -0.34488255
000020 8c 46 84 be 44 5e c8 be ca d4 cd 3e 58 8f 67 3e
       -0.25835073 -0.3913442 0.40201408 0.22613275
000030 98 29 d1 3e 88 9f d6 3d b4 de a1 be c4 74 28 be
       0.40852046 0.10479647 -0.31615222 -0.16450793
000040 48 1e 30 be 64 76 18 be 54 f0 77 be ca 03 97 3e
       -0.17199051 -0.14888912 -0.24212772 0.29495078
000050 74 4e 5d be 84 64 d0 be 08 fd a9 bd d4 77 0f 3e
       -0.21611959 -0.40701687 -0.08300215 0.14010555
000060 48 2c f5 3d 10 db 4b 3d 6c 79 48 3e 48 b2 ea bd
       0.119713366 0.04976946 0.19577569 -0.11459786
000070 88 49 21 3e 0e 5b 9f 3e 10 35 6a 3d 88 27 2f 3e
       0.15750706 0.31124157 0.05717951 0.17104924
000080 50 d1 44 bd 50 e6 8d be 2c 20 95 be 98 52 7d be
       -0.04805118 -0.27714777 -0.29126108 -0.24738538
000090 62 79 f5 be 48 0a 84 3e 52 99 d4 3e bc 86 fb be
       -0.4794417 0.25789094 0.41523224 -0.49126232
0000a0 c4 b4 99 be 38 94 f0 bd c8 f1 ac be 3c b7 d8 be
       -0.30020726 -0.117470205 -0.33778214 -0.42327297
0000b0 80 d7 a6 be 04 21 86 be 50 b3 97 be d6 4f fa be
       -0.32586288 -0.26197064 -0.29628992 -0.48889035
0000c0 64 fb 86 3e e0 0a be bd c0 cd 9c 3d 14 bb a3 be
       0.2636367 -0.09279418 0.07656431 -0.31978667
0000d0 ba 13 a0 be 2e 4a e3 3e 78 a5 b4 bd 7c 40 67 3e
       -0.3126505 0.44392532 -0.08820623 0.22583193
0000e0 18 77 20 3e dc 34 2f 3e 20 78 d9 3d 58 f3 d5 3e
       0.1567043 0.17110008 0.10618615 0.4178722
0000f0 e6 1b c0 3e 68 70 3a be 90 81 5e be 18 8d ca 3d
       0.37521285 -0.18206942 -0.21729112 0.09890193
000100 d8 c0 fc 3e fe 5c 98 3e 34 b6 f7 3e 48 f8 94 be
       0.49365878 0.29758447 0.48381197 -0.29095674
000110 18 85 87 3d 88 c8 76 be bc a5 27 be 00 c6 7b bc
       0.066171825 -0.24099934 -0.16371816 -0.015367031
000120 b0 19 11 3e ec 63 8a be ac 7a 40 be 9c 56 3f 3e
       0.14169955 -0.2702936 -0.18796796 0.18685383
000130 80 d5 f7 3d 8c 5f 33 be 58 e1 66 be 54 73 33 3e
       0.12101269 -0.17516917 -0.225469 0.17524463
000140 04 45 1d be 48 8a 3a 3e 50 53 e1 be 7a 15 ec 3e
       -0.15358359 0.18216813 -0.44008875 0.46110135
000150 38 fc bb bd d8 e7 bb 3e 1e ed 97 3e 80 91 83 bc
       -0.09178966 0.3670032 0.29673094 -0.01606059
000160 40 61 42 3c 2c 3c ef be 4c c2 0e 3e 52 68 dc be
       0.0118640065 -0.46725595 0.13941306 -0.4304834
000170 e0 8f c5 3d 12 ba a0 be 90 83 b0 bd 00 84 26 3a
       0.096465826 -0.3139196 -0.086188436 0.0006352067
000180 a0 95 2d 3d b8 ee ca bd 60 e8 8e 3e 08 5c a0 3d
       0.04237902 -0.09908813 0.27911663 0.078300536
000190 72 09 f4 3e 10 29 5c 3d 32 33 e4 3e 38 6e fb bd
       0.47663456 0.053750098 0.4457031 -0.12276882
0001a0 6e 4a bc be 98 75 20 be e6 6a a3 3e b2 ae bb 3e
       -0.36775535 -0.15669858 0.31917495 0.3665672
0001b0 cc 79 ee 3e 8e 9e 8c 3e d6 a8 80 3e 3c 8b 54 3e
       0.465773 0.27464718 0.25128812 0.20756239
0001c0 1c 82 52 be c6 65 a5 be a8 38 b0 3d 5a d3 85 3e
       -0.20557445 -0.3230421 0.08604556 0.2613781
0001d0 da 2e ed be 62 d3 db 3e f2 40 b9 3e 1e cb a0 3e
       -0.46324807 0.4293471 0.36182362 0.31404966
0001e0 5c 53 42 be f2 cf 9f be 00 b0 a3 bb b4 87 22 be
       -0.18977112 -0.31213337 -0.004995346 -0.15872079
0001f0 5c 1d 1d be 0e c2 a4 be 58 ab 8f 3e e4 57 5e 3e
       -0.15343231 -0.32179302 0.28060412 0.21713215
000200 28 73 bb 3d be d4 e7 be e6 ca 94 be 3e c6 ee be
       0.09152824 -0.45279497 -0.2906105 -0.46635622
000210 60 1c 8e 3e 14 08 6f 3e f6 39 a5 be 2c 68 8d be
       0.27756023 0.23342925 -0.32270783 -0.2761854
000220 94 da 5c 3e 7e ce 94 3e a0 64 6f 3e aa 40 b4 be
       0.21567756 0.2906379 0.23378229 -0.35205585
000230 a0 f9 89 3e 68 cd b6 3d ec f0 b4 be a4 eb 9f 3e
       0.2694826 0.08925897 -0.3534006 0.31234467
000240 30 8c 48 be 10 a9 ba be 08 32 06 3e 5a c7 89 3e
       -0.19584727 -0.3645711 0.13105023 0.26909906
000250 42 ef ce be 94 05 fb 3e e0 a2 09 3e ec 16 84 3e
       -0.40416914 0.49027693 0.13441038 0.25798738
000260 8c bc ba be 80 15 af bc 88 e1 af bd 64 aa 87 be
       -0.36471975 -0.021372557 -0.085879385 -0.26497185
000270 0a 76 8f be 2c 60 4d 3e e4 08 f9 be 24 83 05 be
       -0.28019744 0.20056218 -0.48639596 -0.13038307
000280 fa a5 b4 be f0 2f 4d be da 40 a5 be 58 48 6b 3e
       -0.3528288 -0.20037818 -0.3227604 0.22976816
000290 f6 ea a2 be ac 31 fa be b0 ae 53 bd c0 76 bb 3e
       -0.31819886 -0.48866022 -0.051680267 0.36614037
0002a0 92 7a a7 be 00 fa 26 bb 48 8a 94 3d f0 44 2f 3e
       -0.327107 -0.0025478601 0.072529376 0.17116141
0002b0 16 85 81 3e aa 87 c1 be 2c d1 2d be 20 0d 97 3e
       0.2529685 -0.37798816 -0.16974324 0.295022
0002c0 70 10 e6 3e 84 bb b8 3e 64 01 ab 3e e4 2c 3a be
       0.44934416 0.36080563 0.33399498 -0.18181187
0002d0 1c bc 54 be 90 01 bd 3e 2c d2 66 be 20 92 09 3e
       -0.20774883 0.36915255 -0.22541112 0.13434649
0002e0 74 54 96 be 4c cf ce 3e a0 68 ef be 18 75 8f bd
       -0.29361308 0.4039253 -0.4675951 -0.07004756
0002f0 04 d6 a8 be 24 bb c9 be 48 28 74 3e b4 ba 91 3e
       -0.3297578 -0.3940059 0.23843491 0.28462756
000300 c8 c3 8e 3e 64 55 c6 3e e4 a2 40 3e 68 40 42 3e
       0.27883744 0.38737023 0.18812138 0.18969882
000310 98 19 f6 be 38 e0 67 3e 18 b4 f0 3d c4 a8 a0 be
       -0.480664 0.22644126 0.117531 -0.31378758
000320 20 af ea 3c 18 38 d3 bd 88 f0 44 3e 04 59 63 3e
       0.02864796 -0.103134334 0.1923238 0.22201926
000330 9e f8 a6 be 30 3e 1a 3e ae 4c d0 be a0 59 2c 3d
       -0.32611555 0.15062785 -0.40683502 0.04207766
000340 e2 91 c6 3e 28 41 7b 3e 90 68 b4 be 84 20 0d 3e
       0.38783175 0.24536574 -0.35236025 0.13781935
000350 38 ba 6d be 5c ba 76 3e 8c 85 40 3e f4 3b 61 3e
       -0.23215568 0.24094528 0.18800944 0.21995527
000360 00 bc 34 bc e0 ab b7 3d 30 4d db bd 92 6e 95 3e
       -0.011031151 0.089683294 -0.10708082 0.2918592
000370 a0 99 ef 3c 08 b1 fa 3e 30 21 b0 3e b8 f9 fc be
       0.029248059 0.4896319 0.3440032 -0.4940927
000380 92 c8 fe 3e a0 df 5c 3e c0 46 e5 bc 80 02 a7 bb
       0.49762398 0.21569681 -0.027987838 -0.0050967336
000390 f6 be ad be 50 e8 83 be d8 e1 b8 bd e8 8d de be
       -0.33934754 -0.25763178 -0.09027451 -0.4346764
0003a0 f0 54 ed be 98 7a f0 be 20 a3 ed bc 08 51 ab bd
       -0.46353865 -0.46968532 -0.029008448 -0.08365065
0003b0 60 9b e3 bc 80 03 e5 3b 0c 50 0f 3e 20 1c ea bc
       -0.02778405 0.0069889426 0.13995379 -0.028577864
0003c0 14 21 0f be 70 7d 55 bd dc 4a 67 3e e8 25 8d 3d
       -0.13977462 -0.05212158 0.2258715 0.06891996
0003d0 b0 47 47 3d 72 f3 89 be ac 1d b2 be ec ca 4f 3e
       0.04865235 -0.26943547 -0.34788263 0.20292252
0003e0 08 8b 75 3e a0 44 96 3e 6c 12 8b 3e 64 1b 7c 3e
       0.23978817 0.29349232 0.27162492 0.24619824
0003f0 d0 a2 f8 3e 0c 96 c7 be aa a8 9f be 40 0f 6f 3e
       0.48561716 -0.38981664 -0.31183368 0.23345661

VAE_Encoder.layers.1.linear0.bias f4 [128]
000000 c4 04 c3 be 84 d2 0c 3e 0c ae 7d 3e 60 a6 df bc
       -0.38089573 0.1375218 0.24773425 -0.027301013
000010 c0 ab 8d bd e8 24 ff be a8 c5 95 be 70 a7 45 3d
       -0.06917524 -0.49832845 -0.29252362 0.048255384
000020 30 ab ae be ee 78 a4 3e 00 59 7d bb f0 96 a9 3e
       -0.3411498 0.32123512 -0.0038657784 0.3312297
000030 04 9d 89 3e 36 5d ac be e0 8c a2 be 58 7a 1c be
       0.26877606 -0.33664864 -0.31748104 -0.15281045
000040 bc 35 a7 3e 1e 77 d8 3e 8c 7c f9 be 8c f5 03 be
       0.32658184 0.4227838 -0.48727834 -0.12886637
000050 60 a6 8e bc b8 91 46 be 50 19 f0 be 7c bb bb be
       -0.017413318 -0.19391525 -0.46894312 -0.36666477
000060 b0 a3 25 3e 3e e4 e8 be 28 3f 9a be 00 78 2f 3c
       0.16175723 -0.45486635 -0.3012631 0.010709763
000070 e6 08 a4 be 16 bd e7 be f4 b1 16 be f0 d2 81 3e
       -0.3203804 -0.4526145 -0.14716321 0.25356245
000080 d0 ba 94 3d 3e 3b 94 3e 00 8c ab bd d4 44 f2 be
       0.07262194 0.28951448 -0.08376312 -0.47318137
000090 9c 05 14 be 40 d7 98 bd 00 a0 01 bc 20 ed 9a bd
       -0.14455265 -0.07462931 -0.007911682 -0.07564759
0000a0 2c 4b e2 3e 38 11 bd 3e 74 25 f4 3e e6 32 fa be
       0.44197977 0.369272 0.47684824 -0.48866957
0000b0 28 bf e2 3d c2 10 cb 3e e2 c2 d2 3e e2 7f d3 3e
       0.110716164 0.39661223 0.4116431 0.41308504
0000c0 10 f7 d8 3d b8 28 18 3e 0a 8b ec be 70 8f 26 be
       0.105939984 0.14859283 -0.46199828 -0.16265655
0000d0 0a 37 bf 3e a0 d2 45 bd 2c 83 72 3e 50 86 c2 bd
       0.3734668 -0.04829657 0.2368285 -0.09498274
0000e0 80 cd 22 be e0 b3 65 3d c0 76 e7 3e 24 d9 b0 3e
       -0.15898705 0.056079745 0.45207787 0.34540665
0000f0 20 3e b0 bc 80 a1 63 3d ea cb e0 be 00 e6 cf ba
       -0.021513999 0.05557394 -0.43905574 -0.0015861392
000100 f4 42 3d be 28 ef bd be a0 c2 60 be 00 52 1c bc
       -0.18482572 -0.37096524 -0.21949244 -0.009541035
000110 9e 22 d3 be 34 10 ae be a0 83 c6 3c a8 2d e3 be
       -0.41237348 -0.33996737 0.024232686 -0.4437077
000120 d0 81 41 bd 20 29 4b be a8 f0 9d be 60 c3 54 3d
       -0.04724294 -0.19839907 -0.3084767 0.051944137
000130 1e ff bc be 88 79 1c be 08 e6 a9 be d0 9b cd bd
       -0.3691339 -0.15280735 -0.33183312 -0.100394845
000140 68 fd a9 3e 04 c9 4c 3e d8 2d 7b be 2c 6e 59 be
       0.33201146 0.19998556 -0.24529207 -0.21233433
000150 98 37 31 3e ac f8 ec 3e bc a2 9e 3e ac 9d 05 3e
       0.17306364 0.46283472 0.3098353 0.13048428
000160 10 d6 c9 be c0 cf cd be 90 e8 88 3e d0 5d 08 3e
       -0.3942113 -0.40197563 0.2673993 0.13317037
000170 f8 32 cc 3d bc 1b cf be 18 5c 09 be 50 3a 0a bd
       0.09970659 -0.40450847 -0.13414037 -0.033747017
000180 f4 00 08 be 90 27 79 bd 54 7b bf 3e 28 90 61 3e
       -0.13281614 -0.060828745 0.3739878 0.22027647
000190 ea 95 a1 be d2 27 f4 be 6a b3 8a be 58 38 d3 be
       -0.31559688 -0.4768663 -0.27090007 -0.41253924
0001a0 ca 71 c4 be d6 55 cb 3e 92 3f c8 be 00 d9 58 bd
       -0.38368064 0.39713925 -0.39111 -0.052941322
0001b0 30 2d 5c 3e 88 81 b2 3d 1c 65 7b 3e 98 ce 0a be
       0.21501613 0.087161124 0.24550289 -0.13555372
0001c0 40 6b 37 be bc 61 c5 be 78 84 ea be 70 de 28 be
       -0.17912006 -0.38551128 -0.4580419 -0.16491103
0001d0 84 21 80 be 18 8b dd 3d 52 c3 ac be 8a c9 db be
       -0.2502557 0.10817546 -0.33742768 -0.429272
0001e0 c8 98 7a 3e ee 99 b8 3e 10 a2 31 3d 3e 69 ba be
       0.24472344 0.3605494 0.043367445 -0.36408418
0001f0 a4 b6 9d 3e d8 52 11 be 0c a4 c8 3e ec 51 cf be
       0.30803406 -0.14191759 0.39187658 -0.4049219

VAE_Encoder.layers.1.linear1.weight f4 [4, 128]
000000 69 8e f5 3c 38 8c 52 bd 60 07 f1 3b 86 a9 cb 3c
       0.029975133 -0.051403254 0.0073556155 0.024861109
000010 1a a5 c7 3c ee b7 cf bc 06 b5 ad bd f3 90 95 bb
       0.024370719 -0.02535626 -0.08481793 -0.0045643984
000020 12 21 93 3d 65 27 10 3d 19 69 ac 3c 55 14 63 3d
       0.07184042 0.03519382 0.021046208 0.055439312
000030 0b c2 86 3d 43 d2 6c bd 4b 8c 1a 3d 9e 1f 29 bd
       0.065799795 -0.05781771 0.03773145 -0.041289918
000040 46 12 09 3d ed 4b 65 3d 17 78 d4 bc e5 2b d9 bc
       0.033464693 0.05598061 -0.02593617 -0.026510188
000050 3d 82 a2 bd cd fa 74 bd 60 cd 88 3d 7e dc 81 bc
       -0.07934997 -0.059809495 0.06679797 -0.01585221
000060 66 ca 93 bd 54 fe 3f 3d 88 e8 34 bc 68 27 7d 3d
       -0.07216339 0.046873406 -0.011041768 0.06180516
000070 34 bb 03 bc ce d4 5d 3b 0d 00 a4 3d e9 6f 9a bd
       -0.008040238 0.0033848765 0.08007822 -0.075408764
000080 a7 50 05 3d fe 3b f0 3c 95 b6 b0 bd d7 ec 84 3d
       0.03254762 0.029325482 -0.08628575 0.06490486
000090 27 6b 6b 3d 2a 86 d8 3c 3c be ce 3a 30 0f f7 3c
       0.057475235 0.026431162 0.0015773247 0.03015861
0000a0 dd c4 b1 bd 9e eb 57 bd 4c dd 4b 3d 57 bc 9f 3a
       -0.08680127 -0.052714936 0.049771592 0.0012186867
0000b0 a8 d2 eb bc c2 fd 80 bd e7 ca a3 3d 5f cc e8 39
       -0.028786972 -0.062984005 0.07997685 0.00044402757
0000c0 e5 c7 1b 3d ad 5f 97 bd 6d d2 36 bd 54 ae 8a 3d
       0.03803243 -0.073912956 -0.04463427 0.06771532
0000d0 be e0 8c 3d 0e 98 45 3d 67 79 ca 3a 17 dc 28 3d
       0.06878804 0.048240714 0.0015447558 0.04122552
0000e0 a7 5e d0 3c bf 0f 80 3c fc 6b 7b 3d 64 f3 32 3d
       0.025435759 0.015632508 0.06138228 0.043689147
0000f0 4a 52 63 bd 74 43 84 bd 80 5e 11 bb 85 01 a5 bd
       -0.0554984 -0.06458178 -0.002218157 -0.080569305
000100 f3 bc 51 3d 09 c7 51 3d ea 5c 60 3c eb 82 e9 3c
       0.051205587 0.051215205 0.013694027 0.02850481
000110 35 39 95 3d f1 7a 5a 3d bb fb 8b bd 14 92 94 3d
       0.07286302 0.053339902 -0.06835123 0.07254425
000120 35 ff a6 3d d2 7f bb bc 94 b6 d4 3c 95 84 28 ba
       0.08154146 -0.022888098 0.025965966 -0.00064284477
000130 2e 06 a0 3d 9d 52 94 3d 6b dd 08 3d 3a fa 8c bd
       0.07813679 0.0724232 0.033414286 -0.068836644
000140 dd af aa 3d e2 e4 3b 3d 48 b2 6b bd 53 ef 4e 3d
       0.083343245 0.045872577 -0.05754307 0.050521206
000150 ca cd 5b 3d 63 56 37 bb 04 a8 8f bd a3 69 11 ba
       0.053663053 -0.0027975074 -0.07014468 -0.0005547052
000160 73 64 fd 3c ce ce 8d 3d 87 e0 91 3d a0 3c 63 bd
       0.030931687 0.069242105 0.07122903 -0.05547774
000170 7a 5a 90 bd 42 75 0b bd 58 41 15 3d fd 12 9a 3c
       -0.07048507 -0.034047373 0.03643927 0.018807882
000180 9e 7c a5 3d e7 a3 01 bd 4b 88 09 bd db 10 7d bd
       0.080804095 -0.03165045 -0.033577245 -0.061783653
000190 c6 10 b9 3b a6 b7 df 3c e7 fd 91 3d 27 24 61 bd
       0.0056477515 0.02730925 0.07128506 -0.05496612
0001a0 74 d9 e4 bc 20 62 5a 3d 70 50 b0 3d 6e 0c 74 3d
       -0.027935721 0.053316236 0.08609092 0.059582166
0001b0 3c 53 a9 3b 05 b2 cd 3c 31 d3 a1 bd 70 91 a5 bd
       0.005167393 0.0251093 -0.0790161 -0.080843806
0001c0 81 1a 89 bc 17 46 98 3a 13 1c a8 bd 23 04 9f bd
       -0.01673627 0.0011617568 -0.0820848 -0.07764461
0001d0 1a c0 2a bb 7f e4 65 3d 0c f4 ff ba 9f 21 90 bd
       -0.0026054443 0.056126114 -0.0019527688 -0.07037663
0001e0 a0 ea 87 3c 2a 42 a3 bd 41 b0 c4 bc 48 7a 83 ba
       0.01659137 -0.07971604 -0.024009826 -0.001003095
0001f0 86 14 ba bc b6 1a 93 3d 1d fc 27 ba 3d 2a 63 3d
       -0.022714864 0.07182829 -0.0006408112 0.055460203
000200 ea fb 94 bd e2 16 97 3d c5 5a 45 bd 8e 52 a8 3b
       -0.07274611 0.073774114 -0.048182268 0.0051367944
000210 47 a3 63 3c 64 d0 06 3d b0 ed 94 bd b3 19 7a bd
       0.013893909 0.03291358 -0.07271898 -0.061059665
000220 eb fe 12 3d 08 52 38 bc 5e d4 ed ba d6 26 7a 3d
       0.03588764 -0.0112500265 -0.0018144955 0.061072193
000230 ea f2 a0 bc 49 40 a2 bd 8f e2 9e bd 63 58 f4 bc
       -0.01964708 -0.07922418 -0.07758056 -0.029827302
000240 10 53 70 bd 5d 1c d8 bc bb c2 63 bd c5 c8 2d bc
       -0.058672965 -0.026380712 -0.05560563 -0.010606949
000250 26 7f 97 bc d8 af 91 bd 55 07 0e bd e3 4d 9c 3d
       -0.018493246 -0.07113618 -0.03467496 0.07632043
000260 c7 7b 72 3d 9c 92 0c bb 4d d1 d3 bc cc 19 22 bd
       0.059200075 -0.002144969 -0.025856638 -0.039575383
000270 eb b2 e8 39 83 07 af 3d 8a 61 17 bd 99 a1 26 3d
       0.00044383793 0.085463546 -0.036958255 0.040681455
000280 ff 93 76 3d 5c c1 dd 3b 2b 14 e9 3c ef a6 63 bd
       0.060199734 0.006767435 0.028452 -0.055579122
000290 4c bc 10 3d e9 bd 44 3d 4a bb 25 3c d8 d9 c8 bc
       0.035335824 0.048032675 0.010115454 -0.024517938
0002a0 13 d6 6c bd 0a c2 eb bc 43 df ac 3d f3 22 99 bc
       -0.057821345 -0.028779048 0.08441021 -0.018693423
0002b0 83 67 c4 bc 28 31 76 3d 23 c6 80 bc 05 82 5f 3d
       -0.02397514 0.060105473 -0.015719479 0.054567356
0002c0 46 02 27 bd 59 8e be bc 9a eb 80 3d 9f 15 a1 3d
       -0.040773652 -0.023261236 0.062949374 0.07865452
0002d0 a1 e2 8f 3d 58 f1 76 bd 72 8e 01 bc 9c 7f 2f bd
       0.07025648 -0.060288757 -0.007907497 -0.042846307
0002e0 0b c6 33 bd 2d eb 2b bd 84 0f ac 3c f2 2a 6c 3d
       -0.04389004 -0.041972328 0.021003492 0.057658143
0002f0 43 8d e8 bc df eb 27 bd 57 47 89 3d f5 47 4a 3d
       -0.028387671 -0.04099643 0.0670306 0.04938503
000300 8d 1c 8e 3d 57 ed 5e 3d 0c a5 0a 3b b1 cd 8f bd
       0.069390394 0.054425564 0.0021155505 -0.070216544
000310 85 f9 09 3d 33 42 ae 3d 2e 2a c2 3c 84 b8 8a bc
       0.033685226 0.0850872 0.023701753 -0.016933687
000320 03 76 84 bc 07 86 3c 3d 11 8a 97 3c 1f 9d 88 3d
       -0.016169554 0.046026256 0.018498452 0.066705935
000330 f6 32 3c 3d 28 a1 15 3d 40 44 95 3d e2 58 a6 bd
       0.045947038 0.036530644 0.07288408 -0.08122422
000340 de c7 98 bc ba 00 3c bd f3 cd a2 3d 8c 6a 25 3d
       -0.018649992 -0.04589913 0.07949438 0.040384814
000350 2d 2c 17 bc 46 a8 af 3d cd 80 68 3d ec 10 8c 3d
       -0.009226841 0.085770175 0.05676346 0.06839165
000360 56 93 32 3d b7 b8 a0 bd 3a 21 6d bd eb dc 9c 3d
       0.04359754 -0.078477316 -0.057893015 0.07659324
000370 41 f2 06 bd 94 af 88 bd d4 e5 a7 bd 07 77 65 bc
       -0.032945875 -0.06674114 -0.08198133 -0.014005429
000380 a1 ce 4e bc f9 19 d1 3c cf 0b ae 3d 45 bd ab 3d
       -0.012622506 0.02552508 0.08498346 0.0838571
000390 c8 62 96 bd cf 4e f6 bc 21 c8 16 3d cf 34 66 3d
       -0.0734306 -0.030066876 0.03681195 0.056202706
0003a0 b9 70 a5 3d 44 8e 6b bd 0f d7 8c 3d c0 61 81 3d
       0.08078141 -0.057508722 0.06876957 0.063174725
0003b0 da 97 39 bd 95 07 9d 3d 41 2d 2d bc e1 db 95 bd
       -0.045310833 0.07667462 -0.010569871 -0.07317329
0003c0 b8 eb c0 3c 97 1e 01 3b 29 2c 4c bd e3 58 5d 3c
       0.0235499 0.001970207 -0.049846802 0.013509962
0003d0 c5 6b 2c 3c 05 8b ad bd 64 c9 a0 bd 9c cb a4 bd
       0.010523741 -0.084737815 -0.07850912 -0.08046648
0003e0 34 30 40 3d 6d 4f a8 3d f3 d8 c6 bc 25 b5 67 3d
       0.04692097 0.08218274 -0.024273371 0.056569237
0003f0 8f a0 e7 3b 16 af 37 bd 82 49 7e bd 93 16 3b 3d
       0.0070687006 -0.04484471 -0.06208182 0.045675825

VAE_Encoder.layers.1.linear1.bias f4 [4]
000000 12 d2 5c 3d d9 17 1d 3d f4 69 44 3d 16 a8 9d bc
       0.053911276 0.03835282 0.047952607 -0.019245189

VAE_Encoder.layers.1.norm1.weight f4 [4]
000000 00 00 80 3f 00 00 80 3f 00 00 80 3f 00 00 80 3f
       1.0 1.0 1.0 1.0

VAE_Encoder.layers.1.norm1.bias f4 [4]
000000 00 00 00 00 00 00 00 00 00 00 00 00 00 00 00 00
       0.0 0.0 0.0 0.0

VAE_Encoder.layers.1.norm0.weight f4 [4]
000000 00 00 80 3f 00 00 80 3f 00 00 80 3f 00 00 80 3f
       1.0 1.0 1.0 1.0

VAE_Encoder.layers.1.norm0.bias f4 [4]
000000 00 00 00 00 00 00 00 00 00 00 00 00 00 00 00 00
       0.0 0.0 0.0 0.0

VAE_Encoder.last_normalization.weight f4 [4]
000000 00 00 80 3f 00 00 80 3f 00 00 80 3f 00 00 80 3f
       1.0 1.0 1.0 1.0

VAE_Encoder.last_normalization.bias f4 [4]
000000 00 00 00 00 00 00 00 00 00 00 00 00 00 00 00 00
       0.0 0.0 0.0 0.0
