tabsyn/vae/ckpt/default/original/model.pt (torch, 70942 bytes, 114 tensors)

VAE.Tokenizer.weight f4 [15, 4]
0.64082843 0.12396513 -0.22548151 -0.1353697 -0.22145538 -0.16578794 -0.044649966 -0.35533765
0.34408718 -0.20749632 0.3139116 0.01833808 -0.07078481 -0.048362505 -0.13803858 -0.11511198
-0.29864684 -0.25030082 -0.19710968 0.13951322 -0.103649184 -0.015419457 0.037561275 0.025121616
0.01982246 0.14731869 -0.062159326 0.19343267 0.2298064 0.40459684 -0.106918424 0.48763528
-0.15238802 -0.304957 -0.23834361 -0.29903287 -0.038357086 -0.21119453 0.39204007 0.04741896
0.39536297 0.029920679 0.27558094 0.35068277 0.08765254 0.36986414 0.1518712 -0.17945921
-0.122794636 0.35759866 0.11721847 0.066179454 0.23625427 0.41098765 -0.22019026 0.47726923
0.24595802 0.41663465 0.23013225 -0.23257679
00000000: 550d 243f 6ee1 fd3d a0e4 66be 5b9e 0abe
00000010: 33c5 62be 50c4 29be e2e2 36bd d1ee b5be
00000020: 322c b03e ea79 54be 05b9 a03e be39 963c
00000030: a0f7 90bd c317 46bd fc59 0dbe d4bf ebbd
00000040: 3de8 98be 6e27 80be 1fd7 49be 8edc 0e3e
00000050: 0646 d4bd e4a1 7cbc dad9 193d d9cb cd3c
00000060: b662 a23c b6da 163e c79a 7ebd 3713 463e
00000070: 5e52 6b3e 5127 cf3e 0cf8 dabd 55ab f93e
00000080: 9b0b 1cbe 5323 9cbe 5910 74be d61a 99be
00000090: 521c 1dbd 6143 58be 7ab9 c83e 623a 423d
000000a0: 046d ca3e 361c f53c f218 8d3e b18c b33e
000000b0: 2d83 b33d d55e bd3e 2084 1b3e 28c4 37be
000000c0: c17b fbbd 2c17 b73e 3d10 f03d 1889 873d
000000d0: a4ec 713e f96c d23e 8e79 61be a25c f43e
000000e0: 6bdc 7b3e 2351 d53e caa7 6b3e 9c28 6ebe

VAE.Tokenizer.bias f4 [24, 4]
0.3033355 0.116315395 0.18234 0.15133433 0.36979207 0.22994328 -0.10678645 -0.58120435
-0.30802834 0.2081284 0.09035217 -0.32014278 -0.6065938 -0.23217967 -0.31593597 -0.58333164
0.4828706 -0.34673533 -0.22199166 -0.19625053 0.5384203 -0.2838061 0.5303293 -0.41357467
0.28152043 0.69169503 0.22058408 -0.4052774 -0.42133108 0.25100717 0.15691352 -0.36475646
-0.39300787 -0.0045919963 0.29363585 -0.36664498 -0.61780435 0.1585717 0.1309373 0.57594913
-0.6532479 0.022701362 0.45199117 0.33935422 0.43033457 0.09937579 -0.41604802 0.31623608
0.6507565 0.0017343878 0.07737793 -0.6001524 -0.11278786 -0.13653204 -0.39199048 -0.14416927
-0.22502042 -0.4582787 0.034029204 -0.48612666 0.5065432 -0.3423897 0.09286298 0.027543243
0.2768173 -0.41754165 0.24529783 -0.27907288 -0.41435653 0.3386664 -0.2556741 0.24559003
0.334869 0.297035 -0.23581062 -0.30021423 -0.3231968 0.28701442 0.10134087 0.007923178
-0.3970032 0.0561481 -0.142709 0.26997387 -0.08946686 -0.56126064 0.18773738 -0.29328766
-0.23076427 0.26123762 -0.1386708 0.099506654 0.48212057 0.123879515 -0.34487414 0.30552295
00000000: ca4e 9b3e c436 ee3d 56b7 3a3e 63f7 1a3e
00000010: 6355 bd3e 4076 6b3e dbb2 dabd cfc9 14bf
00000020: e4b5 9dbe 9c1f 553e 8f0a b93d c1e9 a3be
00000030: bb49 1bbf 82c0 6dbe 5cc2 a1be 3955 15bf
00000040: d13a f73e 4b87 b1be c851 63be e6f5 48be
00000050: ead5 093f 084f 91be a9c3 073f 0fc0 d3be
00000060: 7223 903e ed12 313f cbe0 613e 8580 cfbe
00000070: b5b8 d7be 0384 803e f0ad 203e 5cc1 babe
00000080: 5438 c9be 7578 96bb 7057 963e e4b8 bbbe
00000090: 6d28 1ebf 9f60 223e 6d14 063e 6771 133f
000000a0: 413b 27bf 35f8 b93c 636b e73e d6bf ad3e
000000b0: d054 dc3e 8985 cb3d 3f04 d5be b2e9 a13e
000000c0: fa97 263f 6654 e33a 5278 9e3d 96a3 19bf
000000d0: 52fd e6bd 0ecf 0bbe fab2 c8be 1ca1 13be
000000e0: c16b 66be 81a3 eabe 3562 0b3d 98e5 f8be
000000f0: d1ac 013f b44d afbe f22e be3d 5ea2 e13c
00000100: ffba 8d3e 05c8 d5be 5b2f 7b3e a4e2 8ebe
00000110: 8a26 d4be af65 ad3e b7e7 82be f47b 7b3e
00000120: f373 ab3e f914 983e 5778 71be aeb5 99be
00000130: 0d7a a5be 8ef3 923e cd8b cf3d 38d0 013c
00000140: 0144 cbbe 8dfb 653d 4f22 12be 043a 8a3e
00000150: 673a b7bd c7ae 0fbf 3a3e 403e cd29 96be
00000160: 784d 6cbe f0c0 853e b8ff 0dbe 25ca cb3d
00000170: 82d8 f63e 8bb4 fd3d 5893 b0be 816d 9c3e

VAE.Tokenizer.category_embeddings.weight f4 [79, 4]
-0.25855777 -0.17105946 -0.33272046 -0.15521309 -0.22603069 -0.060396902 -0.383377 -0.07609619
-0.2184013 -0.54030776 0.46127936 0.35057864 -0.06920839 0.18039742 -0.35602668 -0.4347596
-0.51962924 -0.65073395 0.46594274 0.1764751 -0.0166415 -0.62127984 0.13117877 0.032531135
-0.18846111 0.0017482846 0.056163292 -0.02164452 0.15060022 0.19429027 -0.40707955 -0.16671476
-0.81757325 -0.28423995 0.30789703 0.1303989 -0.9405258 0.09648745 -0.28091648 0.7326266
-0.001905627 -0.29083598 -0.733726 -0.2960363 -0.4011707 0.43790406 -0.031056156 -0.44491735
-0.07540704 -0.49937642 -0.28452542 -0.17922422 0.36492378 -0.114212416 -0.013886325 -0.29599655
-0.36575216 -0.065281205 -0.21862493 0.18140772 -0.4352527 -0.25637853 -0.13091055 0.17815551
0.39588985 -0.053038575 -0.40728918 0.22006722 0.4124887 0.08123591 0.19621702 0.23449394
0.0374388 0.12979384 -0.15270923 0.16558926 0.50724566 -0.21981606 -0.50350755 0.05926276
-0.12803774 -0.24974349 -0.6653571 0.38946143 0.45603174 -0.7352047 -0.28591692 0.3449936
0.19623029 0.16429088 0.45005968 0.6103339 0.40984586 -0.3833517 0.15319052 0.28182584
-0.0562468 -0.6551978 0.1919615 0.15423186 -0.9004548 -0.23308438 0.14501123 -0.074278936
-0.30295157 0.27757007 -0.43806547 0.12969741 0.10135329 -0.15244323 -0.3547503 0.24790333
-0.23765026 0.012103524 -0.4890147 0.67007345 -0.0074301846 -0.21922135 -0.18176818 -0.057553075
0.006033878 -0.5760882 -0.11767244 -0.44521344 -0.29903212 0.8615736 0.68007463 -0.21744788
-0.056113183 -0.17396186 -0.09984763 -0.13739875 0.11471765 -0.6144336 -0.2354141 -0.21515895
0.08263002 0.72855085 -0.9922617 -0.35200658 -0.043896217 0.2551077 0.28944314 -0.312151
-0.026165424 -0.15929225 -0.19076018 -0.08539192 0.42011744 -0.39861903 0.34178853 -0.3169511
0.22177008 0.21414405 0.025649527 0.32012936 0.3400752 0.5407976 0.12099985 -0.2168147
0.4030321 0.3839592 -0.061133496 -0.14871424 0.07017577 0.52245563 0.084642574 0.28669915
0.14846766 0.021435922 -0.45745793 -0.6477791 0.20886852 -0.102495246 -0.31626633 -0.48857763
0.46381578 0.5225018 0.5201028 0.059741605 0.2009264 -0.22074804 0.16159298 -0.404448
-0.553453 0.09797954 1.2089857 -0.22387235 0.58527905 -0.07015169 -2.2766733 0.3086861
-0.5992351 0.3646301 -0.42131165 0.6973701 -0.17208764 0.3875895 0.026963837 0.14946398
0.28868735 -0.4444573 0.18498789 -0.04548796 0.06507552 -0.31457305 0.15446165 -0.08223994
-0.56292087 -0.3177419 -0.3912213 -0.58744335 0.13327569 -0.41250718 -0.86660314 -0.4139257
0.7938691 -0.2801597 -1.4179301 -1.0215609 0.14451043 0.5942557 0.19638224 0.7179498
-0.08729011 -0.45261455 0.73570365 0.14042403 -0.2523937 0.20396319 -0.5154904 -0.018346695
-0.22948915 -0.40072608 0.83620185 -0.028060498 0.6269442 0.18165182 0.50936073 0.33147132
-0.18744598 0.2941059 -0.30485934 -0.24694568 -0.45523307 0.2804305 -0.24866655 0.23015457
0.33135852 -0.159248 0.19355547 0.15898539 -0.11058246 0.14950706 -0.3151764 -0.18262178
00000000: af61 84be 362a 2fbe 565a aabe 2ef0 1ebe
00000010: 9774 67be be62 77bd fd49 c4be 52d8 9bbd
00000020: 97a4 5fbe 9c51 0abf cf2c ec3e 0b7f b33e
00000030: 21bd 8dbd 1aba 383e 2149 b6be cf98 debe
00000040: 6c06 05bf 8096 26bf 0c90 ee3e e3b5 343e
00000050: c153 88bc 320c 1fbf ba53 063e 5e3f 053d
00000060: f3fb 40be b226 e53a 7b0b 663d d94f b1bc
00000070: f236 1a3e 07f4 463e bb6c d0be 46b7 2abe
00000080: 7b4c 51bf e687 91be aea4 9d3e 4a87 053e
00000090: 4dc6 70bf 369b c53d 49d4 8fbe 6b8d 3b3f
000000a0: 3bc6 f9ba 74e8 94be 78d5 3bbf 1292 97be
000000b0: 3f66 cdbe f634 e03e 7b69 febc 35cc e3be
000000c0: 026f 9abd 44ae ffbe 51ad 91be 8e86 37be
000000d0: 4ad7 ba3e 33e8 e9bd 7883 63bc dc8c 97be
000000e0: de43 bbbe 27b2 85bd 37df 5fbe f2c2 393e
000000f0: 71d9 debe 0c44 83be 6a0d 06be 666e 363e
00000100: 13b2 ca3e fa3e 59bd 3588 d0be 4d59 613e
00000110: b831 d33e 035f a63d 1ded 483e 2e1f 703e
00000120: 6d59 193d ade8 043e cf5f 1cbe 3b90 293e
00000130: dada 013f 7617 61be dfe5 00bf 82bd 723d
00000140: 531c 03be c2bc 7fbe d854 2abf 7d67 c73e
00000150: fe7c e93e 6036 3cbf b463 92be 00a3 b03e
00000160: 98f0 483e de3b 283e 396e e63e d83e 1c3f
00000170: 51d7 d13e ad46 c4be fadd 1c3e 7a4b 903e
00000180: 0b63 66bd 0bbb 27bf 8e91 443e f5ee 1d3e
00000190: 3584 66bf acad 6ebe d37d 143e 8e1f 98bd
000001a0: 781c 9bbe aa1d 8e3e 1e4a e0be 66cf 043e
000001b0: 5092 cf3d 141a 1cbe d5a1 b5be 5fda 7d3e
000001c0: 975a 73be dc4d 463c 2260 fabe ef89 2b3f
000001d0: e878 f3bb 907b 60be 7021 3abe c6bc 6bbd
000001e0: d6b7 c53b 847a 13bf 40fe f0bd 04f3 e3be
000001f0: bd1a 99be 1690 5c3f 5f19 2e3f a8aa 5ebe
00000200: f0d6 65bd 0f23 32be ea7c ccbd 42b2 0cbe
00000210: 16f1 ea3d 854b 1dbf 6510 71be a152 5cbe
00000220: ee39 a93d 4f82 3a3f dd04 7ebf 353a b4be
00000230: 85cc 33bd 7a9d 823e e431 943e 42d2 9fbe
00000240: df58 d6bc 821d 23be a356 43be f5e1 aebd
00000250: a219 d73e cb17 ccbe e8fe ae3e 6a47 a2be
00000260: b217 633e 9448 5b3e f51e d23c ffe7 a33e
00000270: 561e ae3e b671 0a3f c5ce f73d ac04 5ebe
00000280: 395a ce3e 4d96 c43e 1e67 7abd 8c48 18be
00000290: 50b8 8f3d a7bf 053f 1659 ad3d 3bca 923e
000002a0: e807 183e 639a af3c ed37 eabe dad4 25bf
000002b0: a1e1 553e 07e9 d1bd a9ed a1be d926 fabe
000002c0: 4379 ed3e aec2 053f 7525 053f 9db3 743d
000002d0: a6bf 4d3e c60b 62be a178 253e cf13 cfbe
000002e0: 19af 0dbf 7fa9 c83d 0bc0 9a3f cb3e 65be
000002f0: d9d4 153f b0ab 8fbd 04b5 11c0 1b0c 9e3e
00000300: 7967 19bf ccb0 ba3e 29b6 d7be d986 323f
00000310: be37 30be 2272 c63e 44e3 dc3c 160d 193e
00000320: d4ce 933e e88f e3be 776d 3d3e 9551 3abd
00000330: 5046 853d b80f a1be 322b 1e3e 6a6d a8bd
00000340: 951b 10bf 11af a2be 294e c8be b062 16bf
00000350: 6c79 083e 2434 d3be b4d9 5dbf 12ee d3be
00000360: 013b 4b3f 1871 8fbe bc7e b5bf 82c2 82bf
00000370: 8bfa 133e 2421 183f 6d18 493e 8fcb 373f
00000380: 28c5 b2bd 18bd e7be 1357 3c3f 51cb 0f3e
00000390: bf39 81be badb 503e 2ef7 03bf cf4b 96bc
000003a0: 34ff 6abe f82b cdbe 5311 563f 21df e5bc
000003b0: 6a7f 203f ef02 3a3e 7765 023f 9cb6 a93e
000003c0: d7f1 3fbe 0c95 963e 8616 9cbe 54df 7cbe
000003d0: 4f14 e9be 9694 8f3e 72a2 7ebe a4ad 6b3e
000003e0: d3a7 a93e e811 23be 6833 463e 11cd 223e
000003f0: 0f79 e2bd 6118 193e cd5e a1be 3401 3bbe

VAE.encoder_mu.layers.0.attention.W_q.weight f4 [4, 4]
-0.26361898 0.1409334 0.10952697 0.26479393 0.31382182 0.07645173 0.3908079 0.26337776
0.061000742 0.13330552 0.32576177 0.31393698 0.3393537 -0.1110713 0.12944329 -0.07157121
00000000: 11f9 86be d850 103e ad4f e03d 1293 873e
00000010: 41ad a03e ba92 9c3d f917 c83e 73d9 863e
00000020: eadb 793d 3e81 083e 3fca a63e 59bc a03e
00000030: c5bf ad3e 5a79 e3bd c88c 043e ed93 92bd

VAE.encoder_mu.layers.0.attention.W_q.bias f4 [4]
0.13319363 -0.09962514 -0.3296453 0.15721737
00000000: e963 083e 4408 ccbd 45c7 a8be 97fd 203e

VAE.encoder_mu.layers.0.attention.W_k.weight f4 [4, 4]
-0.41194826 0.20815773 0.08189355 -0.058210455 -0.38663948 0.06339902 0.46758714 -0.30227128
-0.14779148 -0.7138521 0.35899135 -0.031965617 0.27083775 0.45037535 0.2201287 0.46571755
00000000: e2ea d2be 4d27 553e ceb7 a73d 166e 6ebd
00000010: 9cf5 c5be 58d7 813d 9567 ef3e 4dc3 9abe
00000020: a656 17be 03bf 36bf b7cd b73e 61ee 02bd
00000030: 3fab 8a3e 9997 e63e 6b69 613e 8872 ee3e

VAE.encoder_mu.layers.0.attention.W_k.bias f4 [4]
2.0628497e-05 8.97187e-05 5.1571227e-05 5.264554e-05
00000000: 5c0b ad37 5c27 bc38 2f4e 5838 b8cf 5c38

VAE.encoder_mu.layers.0.attention.W_v.weight f4 [4, 4]
-0.060666118 -0.099797145 0.11426138 -0.09187392 -0.059101902 -0.096416585 0.11212644 -0.086505204
-0.06090254 -0.09859925 0.113334276 -0.08946535 -0.058325514 -0.09574994 0.11488464 -0.088267565
00000000: 097d 78bd 7262 ccbd df01 ea3d 6528 bcbd
00000010: d614 72bd 0f76 c5bd 8ca2 e53d a429 b1bd
00000020: f174 79bd 67ee c9bd cd1b e83d 9c39 b7bd
00000030: bce6 6ebd 8b18 c4bd a348 eb3d a0c5 b4bd

VAE.encoder_mu.layers.0.attention.W_v.bias f4 [4]
0.012234715 0.015127372 0.013096843 -0.0153194005
00000000: 1d74 483c ccd8 773c 2494 563c 39fe 7abc

VAE.encoder_mu.layers.0.linear0.weight f4 [128, 4]
0.4981583 -0.17269944 0.2507565 -0.36465046 -0.45210746 0.14323294 0.33191657 0.091707245
0.018681647 0.14679977 -0.22688292 -0.13345116 0.41756058 -0.13865665 -0.32050523 -0.16334356
-0.27587894 0.474193 0.43553942 -0.17960867 0.46594518 0.4527744 0.50719076 0.032848217
0.35229465 -0.25348637 -0.13263094 -0.30763388 -0.071266524 0.3551044 -0.024978375 0.3435821
0.20681131 -0.022733552 0.395109 -0.015280962 -0.23479117 -0.116578266 -0.026541166 0.09277791
0.35142282 -0.36035937 0.1383501 0.24357481 -0.31300616 -0.48233697 -0.09076153 -0.38195327
-0.54853934 -0.20969668 0.18856758 -0.2945765 0.04210905 -0.25357324 -0.32591525 -0.41742632
-0.11334869 0.03004928 -0.078553125 0.47393492 0.29319543 -0.48590222 0.35030714 0.023173584
0.35279784 0.053730108 0.29945093 0.5673375 -0.23458156 0.49914464 0.035783328 0.23133571
-0.4624602 -0.337081 0.45038778 0.27615407 0.17538448 -0.31555384 0.096585125 -0.28228575
-0.02157642 -0.3001978 -0.20320557 -0.4739568 0.46855137 -0.047181435 -0.27502117 -0.4944064
0.12636839 -0.4744565 -0.12377117 0.415571 0.0558462 -0.1835202 -0.30091724 -0.14381137
-0.52155834 0.53525084 -0.084863655 -0.40782264 0.07980984 0.1428679 -0.009877047 -0.19711396
0.03948069 0.14671212 0.07178259 0.45707715 -0.13019793 0.11344616 -0.036455 -0.32258305
0.0591903 0.31725278 0.22401468 0.33669192 -0.26864332 0.15212485 -0.23218365 0.027624454
0.25209323 0.5167713 -0.105295435 0.019427031 -0.30157232 -0.38836607 -0.18130958 -0.4162543
-0.2838737 0.5168101 -0.35626277 0.4667466 -0.108383685 -0.18164049 0.23114477 0.11523642
-0.4622761 0.051076367 -0.014899725 0.40649942 -0.26661697 -0.023195803 -0.21844594 -0.34040663
0.23597753 -0.21024287 -0.43360752 -0.32206002 -0.4574733 0.33322337 0.2732573 -0.32288244
0.14132342 -0.31124854 -0.48419476 -0.19892608 -0.0966962 -0.08171538 -0.21363746 -0.30884528
-0.3479381 -0.4498066 0.23921606 -0.26450005 -0.49521294 0.44880554 0.34528866 0.3414296
0.15954079 -0.19780613 0.2949364 0.3217114 -0.091584764 0.22344649 -0.12399006 -0.17532782
-0.07136188 0.4157766 -0.3591058 0.13089511 -0.29644445 -0.26639938 0.4563472 0.21723858
0.28619057 -0.5758215 -0.41590652 -0.08380859 0.075853996 0.23760213 -0.25845805 0.64322203
-0.09909536 0.35286093 0.2369333 0.39828908 0.10478519 -0.12476171 -0.38258663 0.13865311
-0.31930652 -0.6342142 -0.321838 0.09871054 0.33115855 -0.044458434 0.16416799 0.17435147
-0.092707805 0.3906171 -0.40573174 -0.09298694 -0.5192151 0.20894942 0.34429145 -0.28992566
-0.10162676 -0.37688434 -0.022179043 -0.18654694 -0.14824338 -0.3909956 -0.2965351 -0.27160007
-0.21277304 0.43464848 -0.19570525 0.47159576 0.30078688 0.1502999 -0.377975 -0.15154843
0.39846623 -0.20938024 -0.3932895 -0.10286267 -0.31139413 -0.52606136 -0.29818767 0.062383115
-0.5474515 0.41456828 0.46131468 0.26341507 0.39497793 -0.07786033 0.13381384 -0.42735276
-0.5040875 0.38481155 -0.33720472 0.6392606 0.29376113 -0.3821564 -0.07906024 -0.26064947
00000000: 9b0e ff3e 1fd8 30be 2863 803e 77b3 babe
00000010: a17a e7be a8ab 123e f8f0 a93e 02d1 bb3d
00000020: 410a 993c ae52 163e ff53 68be 6ca7 08be
00000030: 80ca d53e 02fc 0dbe 4319 a4be 8943 27be
00000040: 0140 8dbe 6dc9 f23e 06ff de3e 56eb 37be
00000050: 5e90 ee3e 0cd2 e73e 41d7 013f da8b 063d
00000060: f75f b43e f7c8 81be 68d0 07be 3082 9dbe
00000070: 2ff4 91bd 3ed0 b53e 739f ccbc fee9 af3e
00000080: 58c6 533e b73b babc ba4b ca3e 005d 7abc
00000090: 196d 70be 96c0 eebd dc6c d9bc 5802 be3d
000000a0: b1ed b33e 0681 b8be a6ab 0d3e ad6b 793e
000000b0: 5842 a0be dff4 f6be 2ee1 b9bd 618f c3be
000000c0: 136d 0cbf baba 56be dc17 413e bbd2 96be
000000d0: 8a7a 2c3d 5ad4 81be 5dde a6be e7b8 d5be
000000e0: 5c23 e8bd e829 f63c 76e0 a0bd 99a7 f23e
000000f0: b61d 963e 2dc8 f8be 755b b33e 87d6 bd3c
00000100: eba1 b43e 1a14 5c3d a251 993e 083d 113f
00000110: 2636 70be e38f ff3e 8a91 123d 45e3 6c3e
00000120: 95c7 ecbe e195 acbe 3a99 e63e 1164 8d3e
00000130: fd97 333e 4690 a1be 6cce c53d c287 90be
00000140: 08c1 b0bc 87b3 99be 1f15 50be 77aa f2be
00000150: f7e5 ef3e 5241 41bd 93cf 8cbe d622 fdbe
00000160: b766 013e f6eb f2be bd7b fdbd b9c5 d43e
00000170: fcbe 643d b8ec 3bbe d311 9abe 4a43 13be
00000180: d984 05bf 3306 093f ffcc adbd 21ce d0be
00000190: 5773 a33d f64b 123e 56d3 21bc 3ed8 49be
000001a0: 81b6 213d b43b 163e c002 933d 0406 ea3e
000001b0: 9b52 05be 7656 e83d d751 15bd 9b29 a5be
000001c0: 8771 723d f56e a23e 1b64 653e e262 ac3e
000001d0: 9e8b 89be 9ec6 1b3e 8dc1 6dbe ae4c e23c
000001e0: 5d12 813e 204b 043f 22a5 d7bd 7025 9f3c
000001f0: b067 9abe ebd7 c6be 38a9 39be 491f d5be
00000200: e557 91be ab4d 043f 1368 b6be 69f9 ee3e
00000210: 44f8 ddbd f7ff 39be 37b1 6c3e 1201 ec3d
00000220: 74af ecbe 7435 513d fa1d 74bc b120 d03e
00000230: 0582 88be 2005 bebc 4bb0 5fbe c749 aebe
00000240: 18a4 713e e849 57be ce01 debe 0de5 a4be
00000250: f139 eabe 419c aa3e 61e8 8b3e d950 a5be
00000260: 16b7 103e f85b 9fbe 60e8 f7be 47b3 4bbe
00000270: a808 c6bd 655a a7bd c7c3 5abe f820 9ebe
00000280: f124 b2be 0d4d e6be 0ef5 743e 8d6c 87be
00000290: 8d8c fdbe d7c9 e53e adc9 b03e dccf ae3e
000002a0: a95e 233e b18d 4abe e701 973e 5bb7 a43e
000002b0: cb90 bbbd 28cf 643e 80ee fdbd 2389 33be
000002c0: 2d26 92bd ace0 d43e b7dc b7be 5e09 063e
000002d0: 91c7 97be 8065 88be 57a6 e93e ca73 5e3e
000002e0: 9287 923e 0a69 13bf b3f1 d4be d7a3 abbd
000002f0: 5759 9b3d f94d 733e 9d54 84be 33aa 243f
00000300: 82f2 cabd 30aa b43e a59e 723e 8cec cb3e
00000310: 9e99 d63d 1183 ffbd 65e2 c3be 15fb 0d3e
00000320: 257c a3be dd5b 22bf f3c7 a4be c028 ca3d
00000330: 9d8d a93e 0c1a 36bd a71b 283e 3189 323e
00000340: 97dd bdbd f7fe c73e 12bc cfbe f06f bebd
00000350: 48eb 04bf d6f6 553e f846 b03e 2371 94be
00000360: b121 d0bd fcf6 c0be d3b0 b5bc 2906 3fbe
00000370: 1dcd 17be 9330 c8be 73d3 97be 2a0f 8bbe
00000380: 2de1 59be 3f8a de3e f566 48be 0075 f13e
00000390: bd00 9a3e 38e8 193e f085 c1be 832f 1bbe
000003a0: c403 cc3e c667 56be 3e5d c9be aaa9 d2bd
000003b0: 0d6f 9fbe f5ab 06bf 0eac 98be 7085 7f3d
000003c0: c825 0cbf 4b42 d43e 7031 ec3e 57de 863e
000003d0: 8c3a ca3e 3d75 9fbd 7f06 093e fbcd dabe
000003e0: e10b 01bf 0506 c53e 19a6 acbe 95a6 233f
000003f0: dc67 963e 01aa c3be 56ea a1bd d973 85be

VAE.encoder_mu.layers.0.linear0.bias f4 [128]
-0.31098938 0.060605757 -0.11073802 -0.48028514 -0.14993227 0.3053033 -0.3303895 -0.013611864
0.14456213 0.25606757 -0.04378641 0.28703448 -0.3908678 0.107214585 -0.3554885 -0.2901186
-0.37635693 -0.106533356 -0.029058147 0.38405326 -0.017412791 -0.40003854 0.24727647 0.01015896
0.22145142 -0.3949209 0.3457958 -0.51956975 -0.46867418 -0.5554812 -0.08608946 0.45243576
0.46312135 0.18094951 -0.3244835 0.29164776 0.12531899 -0.0065341657 0.055708207 -0.2942942
0.44832784 -0.30446917 0.23939127 -0.45232624 0.4358276 0.0664673 -0.20749511 0.054446068
-0.4518105 0.43269274 -0.4400649 -0.4499747 0.17837635 -0.26980135 0.44123 0.17127031
-0.38492438 0.43359232 -0.026633507 0.22946921 -0.20939778 -0.4349899 0.29341635 -0.1314286
-0.2956019 0.3256968 0.25531337 0.34034127 0.021695325 0.38294655 -0.4788067 -0.12806532
0.33458778 0.16845861 -0.26793373 -0.33453572 0.16690879 -0.26886496 -0.031324018 -0.33044508
-0.027735 -0.01914985 -0.45110852 -0.37828034 -0.02041009 -0.33130804 0.13712233 0.21049929
-0.2555832 -0.34563 -0.31332883 0.4044404 0.2787879 -0.058171652 -0.092510775 -0.08694994
0.09080037 -0.18346588 0.2548484 0.44199437 0.2743181 0.33648214 -0.17210574 0.021701416
0.3794899 -0.103228964 -0.42608446 0.14588249 -0.32507968 -0.10045134 -0.39424965 0.34416395
-0.37181053 0.22380607 -0.35410315 0.08584054 -0.30777147 0.31958133 -0.15519635 0.26844487
0.3896253 -0.09535704 -0.5044926 0.2244733 0.48750573 -0.22068441 0.21077183 0.36654028
00000000: 003a 9fbe be3d 783d 9dca e2bd efe7 f5be
00000010: d887 19be b750 9c3e d028 a9be 4c04 5fbc
00000020: 1808 143e 4a1b 833e 6159 33bd 2ff6 923e
00000030: d31f c8be 5293 db3d 9702 b6be 6d8a 94be
00000040: dbb1 c0be 292e dabd 5a0b eebc a1a2 c43e
00000050: 45a5 8ebc dad1 ccbe 0b36 7d3e c471 263c
00000060: 29c4 623e 1233 cabe 260c b13e 8602 05bf
00000070: 10f6 efbe 0434 0ebf ac4f b0bd a9a5 e73e
00000080: 3e1e ed3e d44a 393e b422 a6be db52 953e
00000090: 9f53 003e 8e1c d6bb 4a2e 643d bbad 96be
000000a0: 3a8b e53e 62e3 9bbe fc22 753e 4e97 e7be
000000b0: cc24 df3e 0220 883d 9979 54be d702 5f3d
000000c0: b553 e7be e789 dd3e 3050 e1be 1563 e6be
000000d0: 4aa8 363e 6723 8abe e6e8 e13e 7c61 2f3e
000000e0: cf14 c5be d0ff dd3e 832e dabc faf9 6a3e
000000f0: 5f6c 56be ffb6 debe ab3a 963e 3895 06be
00000100: 2259 97be bbc1 a63e 6fb8 823e 3641 ae3e
00000110: 65ba b13c 9211 c43e 2726 f5be 8e23 03be
00000120: 174f ab3e 6a80 2c3e 9c2e 89be 4448 abbe
00000130: 23ea 2a3e aba8 89be 9d4d 00bd 1930 a9be
00000140: 8334 e3bc 25e0 9cbc b2f7 e6be f6ad c1be
00000150: 1033 a7bc 35a1 a9be cc69 0c3e 208d 573e
00000160: cddb 82be 6af6 b0be a36c a0be d012 cf3e
00000170: 4abd 8e3e 6645 6ebd 4a76 bdbd cf12 b2bd
00000180: 8bf5 b93d 7bde 3bbe 7d7b 823e 164d e23e
00000190: 6c73 8c3e 6347 ac3e 7d3c 30be 2bc7 b13c
000001a0: 804c c23e b569 d3bd be27 dabe 3862 153e
000001b0: d870 a6be 6fb9 cdbd 17db c9be 4236 b03e
000001c0: f35d bebe 6b2d 653e 024d b5be 2acd af3d
000001d0: 3994 9dbe 2aa0 a33e cbeb 1ebe 9b71 893e
000001e0: f87c c73e 8d4a c3bd 6d26 01bf 54dc 653e
000001f0: 5a9a f93e 18fb 61be 92d4 573e 2bab bb3e

VAE.encoder_mu.layers.0.linear1.weight f4 [4, 128]
-0.10047174 -0.10740212 -0.0324191 -0.02189271 0.13323553 0.076593265 0.0623513 0.00078258436
0.010787174 0.05548805 0.05120335 -0.059820436 -0.06989914 -0.09443093 0.33091992 -0.04936414
-0.08452948 0.03991796 0.037960924 -0.022000773 -0.027672954 -0.06114159 -0.05763576 -0.048528302
-0.08813965 -0.07061387 -0.06954894 -0.026225196 -0.054602925 -0.060170207 0.03519227 0.0070466045
0.08504544 -0.051260848 0.13011566 -0.060664576 -0.054990076 0.09018694 -0.08539566 -0.11352832
-0.013372565 -0.04541916 -0.072956614 0.050155234 0.0034372872 0.03540056 -0.050886776 -0.029273406
-0.01654956 0.045746207 -0.117093965 -0.011556779 -0.0042892867 0.02782215 -0.061588787 -0.014819816
0.04500666 0.023900758 -0.07426143 0.07737343 -0.050814904 0.017407686 -0.06938683 -0.073784195
0.14885524 -0.008951885 -0.07310707 0.033036802 -0.08686082 -0.084028766 0.10151455 -0.07320912
-0.0413829 -0.0039807903 0.12824011 -0.015336487 0.050411522 0.10734809 -0.07092804 0.18326628
-0.071267724 -0.0570251 -0.22333913 -0.19023067 -0.093704864 0.06381616 0.038835607 -0.028090537
0.05089746 0.06187568 0.009209275 -0.030542273 0.05611343 -0.024719834 -0.07067736 0.005607592
0.064320624 0.06366409 0.10083163 -0.104315855 -0.057455335 0.005227914 0.06428514 -0.10024446
0.040088937 -0.1663173 -0.088220045 -0.12866762 -0.12924029 0.08428169 -0.060296476 -0.015412626
0.089512266 -0.08363722 0.016288443 0.025761347 -0.060603626 0.0037600957 0.18058597 -0.022729697
-0.10873773 0.01540697 0.1520165 -0.06640825 0.038863234 -0.25166917 0.05633969 -0.08753708
-0.1057405 0.035218287 0.052286275 -0.11893776 -0.18859994 -0.13269347 -0.035596304 0.026304353
-0.0074157855 -0.0036640852 0.15405372 0.054134093 0.08849211 -0.057173952 -0.044177268 0.14180927
0.34653002 -0.12306132 0.017690083 0.09422897 -0.021278562 -0.086753815 0.020859854 0.07537291
0.03833 0.041607555 0.100421816 -0.037802655 -0.033623118 -0.026174141 0.012124617 0.010659262
-0.09960243 0.027733427 -0.12283623 0.057882313 0.03854756 -0.15064085 0.05372887 -0.026195982
0.08139619 0.13445742 0.12752867 -0.049505506 0.029042939 0.055802476 0.064982474 -0.034532428
0.12440641 0.006891597 0.05448899 0.26559702 -0.09225153 -0.012582788 0.05296298 -0.0063708983
0.06318882 -0.07375795 0.09035287 -0.034963463 0.09247935 -0.051973883 -0.07072247 -0.018917892
-0.17875656 -0.13671808 -0.060023088 -0.092769995 0.083235145 0.040862568 -0.008637129 -0.03700007
0.06967504 -0.09095293 -0.1295661 -0.09149797 0.06992304 -0.14442453 0.054910142 -0.042156734
0.024866968 -0.0068006734 0.0908051 0.16017608 -0.042134915 0.04706669 -0.09176855 -0.07340652
0.07465529 0.02293417 -0.13198759 -0.04230598 0.06403715 -0.05405766 0.13146833 -0.0006343803
-0.06327182 0.007804447 -0.10861443 0.05235255 0.003623041 0.060019758 -0.10376603 0.009240254
0.044246927 0.12618434 0.03737518 -0.0009811207 -0.06741552 0.044492826 -0.011936641 -0.019296056
-0.162009 0.01634399 -0.13566686 -0.019807927 -0.032743983 0.029979132 0.009274802 -0.09753376
-0.051869743 -0.06181689 -0.3493598 0.037671085 -0.12723936 0.0901384 -0.040174693 0.01193822
00000000: 21c4 cdbd a5f5 dbbd e4c9 04bd 5758 b3bc
00000010: e56e 083e eedc 9c3d 1464 7f3d 5926 4d3a
00000020: b0bc 303c 7047 633d 9bba 513d 4606 75bd
00000030: 4827 8fbd 0165 c1bd 566e a93e 0d32 4abd
00000040: cb1d adbd 0481 233d ea7c 1b3d f73a b4bc
00000050: 64b2 e2bc 9b6f 7abd 7a13 6cbd 9dc5 46bd
00000060: 9082 b4bd 019e 90bd ad6f 8ebd 39d6 d6bc
00000070: 51a7 5fbd 0975 76bd c525 103d 34e7 e63b
00000080: 4e2c ae3d e5f6 51bd 0a3d 053e 6b7b 78bd
00000090: 463d 61bd eeb3 b83d ebe3 aebd 8981 e8bd
000000a0: 9a18 5bbc 7109 3abd 476a 95bd 936f 4d3d
000000b0: 1c44 613b 2d00 113d a76e 50bd c8ce efbc
000000c0: f192 87bc 6060 3b3d f6ce efbd a558 3dbc
000000d0: 258d 8cbb 47eb e33c 8644 7cbd d0ce 72bc
000000e0: e758 383d 86cb c33c 6016 98bd f675 9e3d
000000f0: 4a23 50bd 909a 8e3c af1a 8ebd 2b1c 97bd
00000100: 826d 183e edaa 12bc 29b9 95bd 9951 073d
00000110: 16e4 b1bd 4617 acbd dce6 cf3d aaee 95bd
00000120: 1e81 29bd 4a71 82bb 6051 033e e445 7bbc
00000130: 507c 4e3d 51d9 db3d b842 91bd 28aa 3b3e
00000140: d0f4 91bd 2793 69bd 03b3 64be d4cb 42be
00000150: 56e8 bfbd 0cb2 823d 1612 1f3d 201e e6bc
00000160: db79 503d 5a71 7d3d 80e2 163c ca33 fabc
00000170: 32d7 653d 4081 cabc 4bbf 90bd e4bf b73b
00000180: 88ba 833d 5262 823d d080 ce3d 8da3 d5bd
00000190: 4956 6bbd ec4e ab3b eda7 833d f84c cdbd
000001a0: 4c34 243d 154f 2abe b6ac b4bd 72c1 03be
000001b0: 9157 04be e19b ac3d 70f9 76bd 3d85 7cbc
000001c0: 3552 b73d fe49 abbd 576f 853c 7609 d33c
000001d0: 823b 78bd f06b 763b 87eb 383e a133 babc
000001e0: e3b1 debd 846d 7c3c 37aa 1b3e 0c01 88bd
000001f0: 0e2f 1f3d c8da 80be 72c4 663d a446 b3bd
00000200: 7a8e d8bd 0d41 103d 222a 563d a495 f3bd
00000210: 5820 41be cce0 07be 6ecd 11bd 3a7c d73c
00000220: 1e00 f3bb 2621 70bb 42c0 1d3e b6bb 5d3d
00000230: 5a3b b53d 3c2f 6abd 39f3 34bd 7336 113e
00000240: 626c b13e 9307 fcbd cbea 903c 1efb c03d
00000250: 6150 aebc fcab b1bd 49e2 aa3c 1d5d 9a3d
00000260: ebff 1c3d af6c 2a3d f4a9 cd3d f5d6 1abd
00000270: 65b8 09bd 276b d6bc 54a6 463c 2fa4 2e3c
00000280: 5cfc cbbd 3631 e33c 9091 fbbd 0116 6d3d
00000290: 0ce4 1d3d 9841 1abe ce12 5c3d f598 d6bc
000002a0: 0cb3 a63d 35af 093e e096 023e 49c6 4abd
000002b0: 75eb ed3c 2391 643d 8815 853d e071 0dbd
000002c0: cac8 fe3d e8d2 e13b d92f 5f3d 55fc 873e
000002d0: 5fee bcbd 0a28 4ebc b6ef 583d f8c2 d0bb
000002e0: 2469 813d 680e 97bd ed0a b93d d935 0fbd
000002f0: d065 bd3d 91e2 54bd f1d6 90bd b2f9 9abc
00000300: f60b 37be d3ff 0bbe c5da 75bd 32fe bdbd
00000310: 3077 aa3d 825f 273d bf82 0dbc 638d 17bd
00000320: cab1 8e3d 8845 babd faac 04be 4a63 bbbd
00000330: d033 8f3d 06e4 13be 75e9 603d 8aac 2cbd
00000340: d0b5 cb3c 2fd8 debb 06f8 b93d 3305 243e
00000350: a995 2cbd 00c9 403d 26f1 bbbd 2856 96bd
00000360: dfe4 983d 71e0 bb3c c127 07be 0949 2dbd
00000370: e925 833d 916b 5dbd a29f 063e 8b4c 26ba
00000380: a894 81bd 72bc ff3b 3e71 debd a16f 563d
00000390: 8b70 6d3b 47d7 753d 4983 d4bd 6f64 173c
000003a0: 443c 353d 7836 013e b716 193d f398 80ba
000003b0: 2611 8abd 1c3e 363d e791 43bc c312 9ebc
000003c0: b0e5 25be d5e3 853c 41ec 0abe 3c44 a2bc
000003d0: 8e1e 06bd cc96 f53c 57f5 173c c8bf c7bd
000003e0: 5e75 54bd b533 7dbd 4adf b2be ff4c 1a3d
000003f0: 094b 02be 7b9a b83d 388e 24bd 8698 433c

VAE.encoder_mu.layers.0.linear1.bias f4 [4]
-0.10314594 0.07812659 0.13220653 -0.064611584
00000000: 2e3e d3bd d500 a03d 2661 073e 1453 84bd

VAE.encoder_mu.layers.0.norm1.weight f4 [4]
1.0639857 1.0656723 1.1600659 1.1124072
00000000: af30 883f f367 883f 0a7d 943f 5c63 8e3f

VAE.encoder_mu.layers.0.norm1.bias f4 [4]
0.064408645 -0.02000322 -0.0067616533 -0.08360115
00000000: aee8 833d cbdd a3bc dc90 ddbb 1437 abbd

VAE.encoder_mu.layers.1.attention.W_q.weight f4 [4, 4]
0.43257138 -0.2864724 0.47119895 -0.6002877 0.37292913 -0.090805694 -0.42349514 0.2264078
-0.10898195 0.21755275 0.23515968 0.08033658 0.75010115 -0.006200703 -0.7675693 0.341046
00000000: ff79 dd3e 83ac 92be fd40 f13e 74ac 19bf
00000010: 91f0 be3e 56f8 b9bd 5bd4 d8be 72d7 673e
00000020: ee31 dfbd 26c6 5e3e b3cd 703e 8187 a43d
00000030: a106 403f 442f cbbb 6c7f 44bf 959d ae3e

VAE.encoder_mu.layers.1.attention.W_q.bias f4 [4]
0.47760576 -0.56472534 0.13388652 -0.7138383
00000000: be88 f43e d791 10bf 8c19 093e 1bbe 36bf

VAE.encoder_mu.layers.1.attention.W_k.weight f4 [4, 4]
0.03666481 -0.36053354 0.33910665 -0.35474017 0.39472565 0.31833595 -0.78737277 0.42843238
0.10050869 -0.5022698 -0.09701473 -0.4606659 0.34251282 0.24399205 -0.78927135 0.23522039
00000000: d72d 163d da97 b8be 639f ad3e 81a0 b5be
00000010: 7b19 ca3e eefc a23e 4391 49bf 7d5b db3e
00000020: 80d7 cd3d c194 00bf a9af c6bd 67dc ebbe
00000030: d75d af3e 0dd9 793e b00d 4abf 9ddd 703e

VAE.encoder_mu.layers.1.attention.W_k.bias f4 [4]
0.0009940397 -0.0004901319 0.00013455495 -0.0008760488
00000000: 704a 823a 327c 00ba 5217 0d39 a4a6 65ba

VAE.encoder_mu.layers.1.attention.W_v.weight f4 [4, 4]
0.03549158 -0.063038036 0.14037937 -0.28203794 -0.033259608 -0.15985249 0.21137558 -0.19913435
0.08209958 0.016691428 -0.26773137 -0.33260483 -0.13841105 -0.21968456 0.25899255 -0.19306535
00000000: 9e5f 113d 161a 81bd 9cbf 0f3e 4767 90be
00000010: 3a3b 08bd 5fb0 23be d772 583e e0e9 4bbe
00000020: d323 a83d 76bc 883c 1614 89be 2e4b aabe
00000030: a0bb 0dbe fdf4 60be ac9a 843e ecb2 45be

VAE.encoder_mu.layers.1.attention.W_v.bias f4 [4]
0.012094218 -0.008697072 -0.08427002 0.010142432
00000000: d426 463c 2a7e 0ebc c395 acbd 712c 263c

VAE.encoder_mu.layers.1.linear0.weight f4 [128, 4]
0.57918185 -0.031878173 -0.049202066 -0.2995143 0.24677488 0.024869073 -0.14082752 -0.08573945
0.11865336 0.25254098 -0.66065854 -0.29363665 -0.38029757 0.3706347 0.032528866 -0.35296443
-0.38886783 0.35551894 0.52949095 -0.15319519 0.14386754 -0.3938962 0.25618553 0.013805439
0.42467758 0.20574597 0.18689859 0.14995638 -0.22568783 -0.27358043 -0.38367015 0.03894357
0.64172745 -0.016388778 -0.027772708 0.041475214 -0.3772775 0.10647382 0.260679 -0.4674433
0.05492945 -0.27570024 -0.1487498 -0.42348143 -0.08260591 -0.22526716 -0.34937334 -0.4728352
-0.39969763 0.2732224 0.11196736 -0.30217054 -0.32638323 -0.05709196 0.22572541 0.17577735
0.077306464 0.15096663 -0.07411211 0.49708104 0.5057832 -0.3681683 -0.114623904 -0.26248357
-0.11720383 0.029625682 0.19974348 -0.32430536 0.41116792 0.39141214 0.37074906 0.35673732
0.29589856 -0.3142449 -0.4082633 0.34576523 0.2861062 -0.26677823 0.1784285 0.40960002
-0.100296475 -0.58734995 -0.5387135 -0.33394358 0.31085417 -0.06938609 0.22045751 0.21190307
-0.19242059 0.18167502 -0.094450876 0.3133293 -0.35292336 -0.19287501 -0.20165975 -0.45076928
0.5330347 0.37570623 -0.058990028 0.047491316 0.13188 0.25808963 -0.04613297 -0.29274327
0.29460397 0.008723853 0.3885017 0.37558278 0.24827984 -0.37013888 -0.49355096 0.37801537
-0.18242434 -0.2067867 0.34312648 0.3143803 -0.2495486 0.3666537 0.19392161 -0.062195107
0.12855305 0.20731999 -0.37208563 0.06731739 -0.28654101 0.35929042 0.053343404 0.44770434
0.05000819 -0.57540524 0.458451 -0.4877768 -0.345478 0.28430545 -0.25447977 -0.278875
0.10058332 0.277442 0.10555964 0.30724138 -0.2162135 0.41028675 0.16334741 0.37245098
-0.4667302 0.32665512 0.32738099 0.16194302 -0.3607419 0.53879917 -0.07826598 -0.2053447
0.37119755 -0.3768842 0.27119255 -0.18796757 0.42710057 0.07303348 -0.39462745 -0.3671928
-0.12947585 0.053154584 -0.37630698 -0.07864959 0.57318443 -0.5024744 -0.3770773 -0.30747917
-0.40907946 -0.3609447 -0.4621919 -0.14347345 -0.4237754 0.34710255 0.26663908 0.26111177
0.37650377 0.4257596 -0.29508713 0.4231855 0.70008284 0.28961492 -0.32237884 0.27809933
-0.37653002 -0.12090252 -0.42212728 -0.5276996 0.02885048 0.29162708 -0.46713072 0.37722492
0.7582364 0.38774416 0.30609438 -0.058689646 -0.12466695 -0.14060709 0.24220261 -0.101257086
-0.56855667 0.55227685 0.290654 -0.14841667 0.4004344 -0.58708596 0.16095674 -0.48984593
-0.37198737 -0.30052996 0.00070074946 0.35034806 -0.04930574 0.015053908 -0.26898873 0.35719508
0.7895884 -0.516698 -0.40844837 0.031931125 0.1705235 -0.42538938 -0.16435221 0.26213762
0.1135844 -0.31775483 -0.032911327 -0.053274866 -0.17385207 0.44882903 0.41185415 0.27108508
-0.34832907 -0.18549748 0.24476963 0.38149756 0.27936447 0.3540142 0.13257635 0.50697666
0.23684996 -0.14968434 0.23303266 0.46257934 -0.54119563 -0.032658104 0.17518653 0.0009889794
-0.30681828 0.026768615 -0.3069198 0.065305606 0.50461006 -0.12306659 -0.34472114 0.22820684
00000000: 4345 143f b092 02bd 1b88 49bd f059 99be
00000010: 8eb2 7c3e 3aba cb3c 1735 10be 2a98 afbd
00000020: 8800 f33d 0d4d 813e eb20 29bf 8b57 96be
00000030: 5db6 c2be d5c3 bd3e fd3c 053d c1b7 b4be
00000040: af19 c7be 9406 b63e b88c 073f 33df 1cbe
00000050: 0352 133e c3ac c9be c02a 833e 3530 623c
00000060: 576f d93e 12af 523e 5862 3f3e 2a8e 193e
00000070: b61a 67be bc12 8cbe 6a70 c4be 4b83 1f3d
00000080: 4048 243f c241 86bc 9783 e3bc eae1 293d
00000090: 842a c1be f20e da3d b877 853e ba54 efbe
000000a0: b4fd 603d 9528 8dbe de51 18be 8fd2 d8be
000000b0: 4a2d a9bd 6fac 66be 10e1 b2be 7517 f2be
000000c0: 2ba5 ccbe cee3 8b3e 254f e53d 19b6 9abe
000000d0: b41b a7be 42d9 69bd 9024 673e fafe 333e
000000e0: da52 9e3d ff96 1a3e 17c8 97bd 6881 fe3e
000000f0: 027b 013f 8e80 bcbe f0bf eabd 3f64 86be
00000100: 9008 f0bd 8fb1 f23c 8e89 4c3e 5a0b a6be
00000110: 9a84 d23e 2c67 c83e d2d2 bd3e 46a6 b63e
00000120: 0480 973e b5e4 a0be e307 d1be 2408 b13e
00000130: 837c 923e 2897 88be f6b5 363e 18b7 d13e
00000140: 3d68 cdbd 915c 16bf 21e9 09bf a7fa aabe
00000150: 4728 9f3e 4b1a 8ebd 9dbf 613e 1efd 583e
00000160: e709 45be 0409 3a3e 766f c1bd b36c a03e
00000170: 5fb2 b4be 0781 45be e57f 4ebe 3bcb e6be
00000180: f674 083f 915c c03e 879f 71bd 4186 423d
00000190: 8d0b 073e 5324 843e edf5 3cbd 72e2 95be
000001a0: 55d6 963e 7eee 0e3c b2e9 c63e 634c c03e
000001b0: 123d 7e3e d882 bdbe b6b2 fcbe 3b8b c13e
000001c0: 72cd 3abe e5bf 53be 46ae af3e 74f6 a03e
000001d0: ab89 7fbe 09ba bb3e 6393 463e 4cc0 7ebd
000001e0: 69a3 033e b14b 543e 0282 bebe b3dd 893d
000001f0: 81b5 92be eaf4 b73e 9d7e 5a3d 8139 e53e
00000200: 63d5 4c3d c24d 13bf 17ba ea3e e1bd f9be
00000210: 7ee2 b0be 7c90 913e 2c4b 82be b4c8 8ebe
00000220: a1fe cd3d e10c 8e3e a72f d83d be4e 9d3e
00000230: 1267 5dbe 1b11 d23e 8b44 273e e5b1 be3e
00000240: 43f7 eebe 573f a73e 7b9e a73e 64d4 253e
00000250: 2ab3 b8be beee 093f ea49 a0bd e245 52be
00000260: 9b0d be3e f7f6 c0be c0d9 8a3e 927a 40be
00000270: edac da3e 9492 953d 9c0c cabe b200 bcbe
00000280: 5195 04be 9fb8 593d 4fab c0be 0913 a1bd
00000290: 37bc 123f 2aa2 00bf 4710 c1be e96d 9dbe
000002a0: dd72 d1be becd b8be 6ba4 ecbe b4ea 12be
000002b0: 17f9 d8be 6db7 b13e eb84 883e 71b0 853e
000002c0: 1ac5 c03e 2afd d93e a915 97be c5ab d83e
000002d0: a138 333f 6848 943e d70e a5be 0963 8e3e
000002e0: 8bc8 c0be be9b f7bd 1121 d8be 5217 07bf
000002f0: d857 ec3c 2550 953e c22b efbe a023 c13e
00000300: c81b 423f 6786 c63e 67b8 9c3e 8e64 70bd
00000310: 6351 ffbd 4efb 0fbe f603 783e e05f cfbd
00000320: ee8c 11bf 0462 0d3f 9ad0 943e 8afa 17be
00000330: bd05 cd3e 444b 16bf d8d1 243e 16cd fabe
00000340: 2175 bebe 10df 99be 80b2 373a d260 b33e
00000350: d1f4 49bd aba4 763c e4b8 89be 46e2 b63e
00000360: 7722 4a3f 5246 04bf 2520 d1be 36ca 023d
00000370: b69d 2e3e a3cc d9be f24b 28be e736 863e
00000380: f09e e83d c3b0 a2be 07ce 06bd bf36 5abd
00000390: 4706 32be ebcc e53e 8cde d23e aacb 8a3e
000003a0: 3058 b2be 0df3 3dbe e4a4 7a3e a653 c33e
000003b0: dc08 8f3e 5941 b53e 18c2 073e 39c9 013f
000003c0: cc88 723e da46 19be 1da0 6e3e 33d7 ec3e
000003d0: cc8b 0abf 81c4 05bd 1964 333e a4a0 813a
000003e0: 4917 9dbe db49 db3c 9824 9dbe f2be 853d
000003f0: 202e 013f 560a fcbd 4a7f b0be 0eaf 693e

VAE.encoder_mu.layers.1.linear0.bias f4 [128]
-0.138338 -0.14560694 -0.23505157 0.38102818 -0.24859284 -0.31097832 -0.47445527 -0.48788103
0.2551525 0.037041664 0.10281635 -0.12170544 -0.07883493 0.27604726 -0.06560907 -0.3763435
0.17309062 -0.43312782 0.41735458 0.42974705 -0.09968115 -0.061280932 -0.03359692 -0.168553
-0.192339 -0.14656772 0.07597059 -0.28483418 0.2765946 0.42064694 -0.4072194 0.21988733
0.14870602 0.2548461 0.4737969 -0.042418834 0.52600586 0.031961985 -0.24042965 0.351048
0.55281705 -0.2697282 0.41820347 -0.2393373 0.32573324 0.39653665 -0.038075406 0.06437427
-0.017691536 -0.14678837 0.32548928 -0.18520766 0.22171971 0.089428924 0.18944001 -0.22753896
0.12731418 -0.112422355 -0.38722363 0.10709171 0.39135832 -0.41671634 0.18628117 -0.25204468
0.15476373 -0.19302186 0.42086977 -0.17661484 0.055969417 0.27068478 0.35527182 0.29292664
0.07257859 0.4380639 0.34926432 -0.43680018 -0.087250605 -0.44327536 0.44021612 0.42977673
-0.0014601258 0.31798968 0.16127145 -0.42675513 -0.42277652 -0.26647693 0.25181815 -0.53642595
-0.23997849 0.40954772 0.29554027 -0.25836852 0.2097838 0.08701602 -0.40606722 0.08272823
0.48015702 0.067574926 0.5576577 0.00058328995 -0.24924722 0.11485921 0.07678964 -0.13043094
-0.35308316 0.5123153 0.46693307 -0.44765705 0.3229763 -0.43464684 0.20264174 0.44988465
-0.58971125 0.1844039 -0.28522253 0.22051391 -0.13047712 -0.26142025 -0.060820963 -0.2875042
0.050215412 0.06972808 -0.25404602 -0.1407035 0.4921777 0.45410594 0.10953075 0.5099025
00000000: 7aa8 0dbe fc19 15be 5cb1 70be 2016 c33e
00000010: 1f8f 7ebe 8d38 9fbe cdeb f2be 8bcb f9be
00000020: 59a3 823e 00b9 173d 6191 d23d b440 f9bd
00000030: 3574 a1bd 1156 8d3e 0c5e 86bd 18b0 c0be
00000040: ab3e 313e eec2 ddbe 80af d53e ce07 dc3e
00000050: a125 ccbd b701 7bbd ed9c 09bd 2899 2cbe
00000060: 84f4 44be d915 16be 7896 9b3d c9d5 91be
00000070: cf9d 8d3e 095f d73e 107f d0be 252a 613e
00000080: 6446 183e 307b 823e 8295 f23e 5fbf 2dbd
00000090: 52a8 063f 92ea 023d 3133 76be 90bc b33e
000000a0: 6b85 0d3f d119 8abe c41e d63e d614 75be
000000b0: 82c6 a63e da06 cb3e f5f4 1bbd a8d6 833d
000000c0: d7ed 90bc b14f 16be 88a6 a63e 14a7 3dbe
000000d0: 7e0a 633e 8326 b73d 90fc 413e f9ff 68be
000000e0: a65e 023e b13d e6bd 2d42 c6be e652 db3d
000000f0: 1e60 c83e d85b d5be 7ec0 3e3e 000c 81be
00000100: 627a 1e3e 86a7 45be 3e7c d73e 85da 34be
00000110: 3040 653d 3297 8a3e 30e6 b53e 7bfa 953e
00000120: 15a4 943d e949 e03e c6d2 b23e 46a4 dfbe
00000130: 72b0 b2bd fdf4 e2be 0264 e13e b20b dc3e
00000140: b161 bfba 8bcf a23e 5824 253e a67f dabe
00000150: 2a76 d8be aa6f 88be 4fee 803e 3653 09bf
00000160: ecbc 75be 3db0 d13e 0e51 973e e148 84be
00000170: 91d1 563e 7535 b23d 0be8 cfbe 6b6d a93d
00000180: 24d7 f53e b964 8a3d a8c2 0e3f ede7 183a
00000190: aa3a 7fbe 4e3b eb3d e343 9d3d b08f 05be
000001a0: 51c7 b4be 1827 033f da11 ef3e 4e33 e5be
000001b0: 265d a53e 088a debe 5181 4f3e 4857 e63e
000001c0: 51f7 16bf 60d4 3c3e b008 92be 66ce 613e
000001d0: cb9b 05be e0d8 85be 671f 79bd c033 93be
000001e0: adae 4d3d 98cd 8e3d 5212 82be 9414 10be
000001f0: b7fe fb3e 9380 e83e a851 e03d f888 023f

VAE.encoder_mu.layers.1.linear1.weight f4 [4, 128]
-0.079022534 0.05709132 0.08828182 -0.036431484 0.12841666 0.00119586 -0.078596264 0.25383767
-0.16262871 0.11962106 -0.06297324 -0.058638725 0.0641137 0.08936608 0.11443157 -0.16376676
0.09103296 -0.06349936 0.10358711 0.05763342 -0.23655131 0.07155635 -0.08570932 -0.031068295
0.13899237 -0.16634367 0.20671044 0.15746678 0.021659283 -0.007736846 0.035762478 -0.15266274
0.054590434 0.03884833 -0.02037479 -0.11780052 -0.062516205 0.049823303 0.0065540127 -0.11890316
0.011943825 -0.07150889 -0.089491546 -0.10042265 -0.06159083 0.01074206 0.1374238 -0.08952303
-0.13311815 0.024078997 -0.036852352 -0.00911491 -0.11110813 0.014119488 -0.18235663 0.2810609
0.042064298 -0.12738878 -0.15498498 0.013298949 -0.034133397 -0.27391857 0.015064661 -0.1744416
0.09671496 -0.13675632 0.038816385 -0.05841336 -0.05340729 -0.017004358 -0.04113185 0.10253824
0.021956963 0.08323105 -0.036579132 0.069462076 -0.017053269 -0.19098428 -0.084861726 0.054737553
-0.040589996 0.06955443 0.025626376 -0.006819398 0.11619981 -0.03326372 -0.09035581 -0.11204856
-0.07455766 -0.097527355 -0.09209588 -0.09237307 -0.007556953 -0.040395863 -0.79734427 0.03822236
-0.07458855 0.054573435 0.023734357 0.01410285 -0.11071461 0.10011921 0.07582591 0.18790513
-0.41947103 -0.06364201 0.081218846 -0.02989818 0.13755274 -0.03158953 -0.035758372 0.10853065
-0.10594037 0.06700638 -0.13047065 0.12544928 0.00962516 0.18246622 0.13884197 0.22667167
-0.031525355 -0.1819194 -0.21858665 0.1693696 -0.10280226 0.0421721 -0.018426294 0.10114904
-0.12916227 0.031021658 -0.1880179 0.06296737 0.034262683 0.016425788 -0.02187189 -0.07236645
-0.1948103 0.09208898 0.01709219 0.0052425005 0.079999074 0.11779808 -0.013423126 -0.3048832
0.0880891 -0.042624984 -0.088207595 -0.027834857 -0.12303195 -0.15902646 0.15013182 0.039529093
-0.17752402 0.19605112 -0.14956954 -0.055669576 0.008677278 0.023432484 -0.08808218 -0.052719906
-0.033188682 0.0939422 0.050199535 0.05134185 0.10968905 -0.039860625 -0.0055858097 -0.1135863
0.09862796 -0.17974938 0.03130861 0.041407783 0.14122288 -0.08596941 0.1526768 0.07017523
-0.07603624 0.050463583 0.092803515 -0.03352307 -0.08183114 -0.027046356 -0.18722272 -0.084308274
-0.026261508 0.016049085 -0.14836767 -0.0019172934 -0.088076055 -0.0061247116 0.12785667 -0.026822992
0.078909524 -0.20200324 -0.02458427 -0.024197416 -0.030519022 0.04165136 -0.007344183 -0.026905134
-0.14249927 -0.08599444 -0.059148263 -0.0878366 -0.016746301 -0.09825405 0.062135667 0.13400088
0.059198946 -0.0041690706 0.06824244 -0.12874474 -0.11179012 -0.23255979 -0.08023604 -0.15974899
0.0029745607 -0.045715705 -0.09249327 0.07646525 -0.13215463 -0.05563068 -0.1661163 0.03117994
-0.13276349 -0.028605813 -0.0833713 -0.13394618 -0.014012337 0.123333216 0.1124684 -0.05760355
-0.41358683 0.16317616 -0.037664205 -0.013316406 -0.02828929 0.14859658 -0.051884416 0.061586183
0.03995199 -0.06403244 0.19337219 0.08969794 -0.14748088 0.36981937 0.16736087 0.027813092
-0.12846775 -0.15469952 -0.21396568 -0.03700279 -0.066680685 -0.01957724 -0.17506672 0.011252712
00000000: 91d6 a1bd 97d8 693d 19cd b43d 2e39 15bd
00000010: a87f 033e 67be 9c3a 14f7 a0bd 03f7 813e
00000020: 2488 26be e3fb f43d 1df8 80bd 292f 70bd
00000030: 0b4e 833d 9005 b73d 195b ea3d 79b2 27be
00000040: 7d6f ba3d f40b 82bd 7b25 d43d 0511 6c3d
00000050: 823a 72be 238c 923d 5e88 afbd f082 febc
00000060: 0454 0e3e ff55 2abe e7ab 533e f93e 213e
00000070: cf6e b13c 5e85 fdbb ad7b 123d 9f53 1cbe
00000080: 389a 5f3d 6d1f 1f3d 08e9 a6bc 6641 f1bd
00000090: 7f08 80bd 8513 4c3d 0bc3 d63b 8083 f3bd
000000a0: 08b0 433c 4173 92bd 5847 b7bd 64aa cdbd
000000b0: ab46 7cbd 77ff 2f3c d3b8 0c3e da57 b7bd
000000c0: 2050 08be 5141 c53c 7ef2 16bd b456 15bc
000000d0: a98c e3bd 6d55 673c b2bb 3abe 37e7 8f3e
000000e0: 9d4b 2c3d 3472 02be 62b4 1ebe d6e3 593c
000000f0: 76cf 0bbd 0e3f 8cbe c5d1 763c d2a0 32be
00000100: 7e12 c63d d909 0cbe eefd 1e3d d942 6fbd
00000110: 9ac1 5abd b94c 8bbc df79 28bd 92ff d13d
00000120: 17df b33c 0a75 aa3d 00d4 15bd 2242 8e3d
00000130: 4cb3 8bbc 6291 43be fccb adbd 7c34 603d
00000140: b241 26bd 8e72 8e3d 68ee d13c 4275 dfbb
00000150: 2afa ed3d 8a3f 08bd 780c b9bd b779 e5bd
00000160: b0b1 98bd 6cbc c7bd c49c bcbd 182e bdbd
00000170: 51a0 f7bb 2276 25bd c11e 4cbf 0d8f 1c3d
00000180: e2c1 98bd 6588 5f3d 8e6e c23c a40f 673c
00000190: 57be e2bd 4d0b cd3d 9d4a 9b3d 346a 403e
000001a0: e8c4 d6be be56 82bd 1156 a63d 07ed f4bc
000001b0: a0da 0c3e 0664 01bd 5f77 12bd 5145 de3d
000001c0: 44f7 d8bd a43a 893d 199a 05be c775 003e
000001d0: d9b2 1d3c 6dd8 3a3e 972c 0e3e 9e1c 683e
000001e0: bb20 01bd 1449 3abe 2ed5 5fbe 396f 2d3e
000001f0: fe89 d2bd a7bc 2c3d bdf2 96bc 3a27 cf3d
00000200: 1d43 04be 2221 fe3c c487 40be 09f5 803d
00000210: 0757 0c3d 608f 863c ae2c b3bc dd34 94bd
00000220: 5a7c 47be 2699 bc3d ec04 8c3c 48c9 ab3b
00000230: 8ed6 a33d 1f40 f13d acec 5bbc a719 9cbe
00000240: 0f68 b43d 8997 2ebd 2fa6 b4bd ed05 e4bc
00000250: 2df8 fbbd d5d7 22be 28bc 193e 42e9 213d
00000260: dbc8 35be a0c1 483e c228 19be c805 64bd
00000270: 242b 0e3c 7bf5 bf3c 6e64 b4bd d4f0 57bd
00000280: dbf0 07bd c564 c03d 079e 4d3d d54b 523d
00000290: a7a4 e03d e544 23bd 2b09 b7bb ef9f e8bd
000002a0: 75fd c93d 3910 38be 753d 003d 359b 293d
000002b0: bb9c 103e bb10 b0bd 4f57 1c3e 08b8 8f3d
000002c0: e3b8 9bbd e7b2 4e3d c50f be3d 7d4f 09bd
000002d0: 1697 a7bd 5290 ddbc 50b7 3fbe d1a9 acbd
000002e0: 6022 d7bc 5f79 833c b2ed 17be b14d fbba
000002f0: 3861 b4bd ceb1 c8bb dcec 023e e4bb dbbc
00000300: 519b a13d f0d9 4ebe f364 c9bc a939 c6bc
00000310: 0703 fabc 9e9a 2a3d 79a7 f0bb 2868 dcbc
00000320: 54eb 11be da1d b0bd 7345 72bd ade3 b3bd
00000330: 8a2f 89bc 6b39 c9bd f881 7e3d 8737 093e
00000340: 987a 723d b39c 88bb b1c2 8b3d a9d5 03be
00000350: 38f2 e4bd 2724 6ebe cb52 a4bd 3d95 23be
00000360: d9f0 423b 6440 3bbd 1d6d bdbd d099 9c3d
00000370: 8b53 07be ffdc 63bd 641a 2abe 136d ff3c
00000380: 27f3 07be bd56 eabc 92be aabd 3029 09be
00000390: 0094 65bc 2096 fc3d d555 e63d b3f1 6bbd
000003a0: a7c1 d3be a717 273e c845 1abd 0e2d 5abc
000003b0: f1be e7bc b429 183e c184 54bd cb41 7c3d
000003c0: b3a4 233d 7123 83bd 5c03 463e 8eb3 b73d
000003d0: 3a05 17be f758 bd3e a660 2b3e 48d8 e33c
000003e0: 0d8d 03be 8d69 1ebe d219 5bbe 3d90 17bd
000003f0: e28f 88bd 7360 a0bc b144 33be 4c5d 383c

VAE.encoder_mu.layers.1.linear1.bias f4 [4]
0.06136867 -0.088901505 -0.06785009 0.087109864
00000000: b75d 7b3d fe11 b6bd fdf4 8abd a866 b23d

VAE.encoder_mu.layers.1.norm1.weight f4 [4]
1.1242722 1.0928818 1.0545179 1.128527
00000000: 27e8 8f3f 8de3 8b3f 71fa 863f 9373 903f

VAE.encoder_mu.layers.1.norm1.bias f4 [4]
-0.007851235 -0.023495484 -0.072341025 0.03479969
00000000: 77a2 00bc 9a79 c0bc 8827 94bd 1f8a 0e3d

VAE.encoder_mu.layers.1.norm0.weight f4 [4]
0.70584506 0.789271 1.0621634 0.9110681
00000000: 43b2 343f aa0d 4a3f f8f4 873f c23b 693f

VAE.encoder_mu.layers.1.norm0.bias f4 [4]
-0.004454319 -0.043454174 0.15027468 -0.028777562
00000000: 89f5 91bb 01fd 31bd 9be1 193e ecbe ebbc

VAE.encoder_mu.last_normalization.weight f4 [4]
1.0 1.0 1.0 1.0
00000000: 0000 803f 0000 803f 0000 803f 0000 803f

VAE.encoder_mu.last_normalization.bias f4 [4]
0.0 0.0 0.0 0.0
00000000: 0000 0000 0000 0000 0000 0000 0000 0000

VAE.encoder_mu.head.weight f4 [4, 4]
-0.07832682 0.3654238 0.25995684 -0.112311065 0.07032752 0.1947754 -0.0056048036 -0.079229474
-0.17889655 -0.28613985 0.0072262287 0.49917984 -2.1278858e-05 -0.24796915 0.26106417 -0.3406046
00000000: d069 a0bd d418 bb3e 1019 853e 5803 e6bd
00000010: e007 903d 3473 473e 80a8 b7bb 1043 a2bd
00000020: a830 37be ec80 92be 00ca ec3b 8094 ff3e
00000030: 0080 b2b7 a0eb 7dbe 34aa 853e ba63 aebe

VAE.encoder_mu.head.bias f4 [4]
0.14517242 -0.47139156 0.4244967 -0.415492
00000000: 14a8 143e 3c5a f1be a257 d93e 5ebb d4be

VAE.encoder_logvar.layers.0.attention.W_q.weight f4 [4, 4]
0.29592708 0.06293045 -0.014184923 0.05975351 -0.46877262 -0.25811502 -0.22357114 0.42146167
0.29670757 -0.3315557 0.32419744 -0.33966947 0.118135974 1.1002249 0.6928766 1.3807455
00000000: c183 973e aee1 803d e167 68bc 19c0 743d
00000010: f702 f0be a727 84be d5ef 64be d3c9 d73e
00000020: 0eea 973e abc1 a9be 35fd a53e 28e9 adbe
00000030: 46f1 f13d 2bd4 8c3f 5c60 313f 45bc b03f

VAE.encoder_logvar.layers.0.attention.W_q.bias f4 [4]
0.3145516 0.24896315 -0.025260804 0.037950102
00000000: e80c a13e 32f0 7e3e bfef cebc 9171 1b3d

VAE.encoder_logvar.layers.0.attention.W_k.weight f4 [4, 4]
-0.38981083 0.47191438 0.43014112 0.26273385 -0.14444871 0.5090538 0.23548438 0.3455081
0.3027143 -0.15166387 0.29520503 -0.18213484 -1.1582837 -0.21481459 -0.06588742 0.15832596
00000000: 4995 c7be c39e f13e 753b dc3e 0d85 863e
00000010: 5dea 13be 5a51 023f d122 713e 70e6 b03e
00000020: 5efd 9a3e c64d 1bbe 1d25 973e 8e81 3abe
00000030: a442 94bf 5bf8 5bbe fcef 86bd 3320 223e

VAE.encoder_logvar.layers.0.attention.W_k.bias f4 [4]
-5.5945166e-06 5.375608e-06 2.3003297e-05 -8.4713865e-06
00000000: 88b8 bbb6 1f60 b436 34f7 c037 5420 0eb7

VAE.encoder_logvar.layers.0.attention.W_v.weight f4 [4, 4]
0.23359947 0.11821086 0.08573259 0.12745993 0.30963755 0.08540222 0.071722 0.12002444
0.28504238 0.08892175 0.06506451 0.14902979 0.41698906 0.08027383 0.025085712 0.098180905
00000000: b334 6f3e 8918 f23d 9194 af3d db84 023e
00000010: d088 9e3e 5ce7 ae3d fce2 923d 60cf f53d
00000020: 13f1 913e 9b1c b63d 8b40 853d 449b 183e
00000030: 977f d53e 9b66 a43d 8d80 cd3c 1213 c93d

VAE.encoder_logvar.layers.0.attention.W_v.bias f4 [4]
-0.059240784 -0.06942767 -0.04677021 0.0036429106
00000000: 77a6 72bd 1830 8ebd 1f92 3fbd e6bd 6e3b
