tabsyn/vae/ckpt/adult/decoder.pt (torch, 28547 bytes, 49 tensors)

VAE_Decoder.layers.0.attention.W_q.weight f4 [4, 4]
0	0xbed89d90	-0.4230771
1	0x3e6844cd	0.22682495
2	0x3e2d9307	0.16950618
3	0xbe28ef19	-0.16497459
4	0x3e89d1c7	0.2691786
5	0x3ceb04d0	0.028688818
6	0xbe807074	-0.25085795
7	0x3ebc3543	0.36759385
8	0x3ee1b6c3	0.4408475
9	0x3e87023d	0.26368895
10	0x3f2c3e2c	0.67282367
11	0x3e27edef	0.16399358
12	0x3d67960a	0.056539573
13	0xbc87a24c	-0.016556881
14	0x3c0d4940	0.008623421
15	0x3eb2e0a2	0.34937006

VAE_Decoder.layers.0.attention.W_q.bias f4 [4]
0	0xbc8455d1	-0.016154202
1	0x3c1fce73	0.009753811
2	0x3c40b1aa	0.011761108
3	0x3de31aed	0.1108912

VAE_Decoder.layers.0.attention.W_k.weight f4 [4, 4]
0	0xbe18aba1	-0.14909221
1	0x3e204c1c	0.15654033
2	0xbee019cd	-0.43769684
3	0x3e4b5a2b	0.19858615
4	0x3eb17743	0.34661302
5	0x3eb63cbe	0.35593218
6	0xbe9a2524	-0.3010646
7	0xbf0c67c0	-0.5484581
8	0x3ec003e0	0.37502956
9	0x3e17825e	0.14795825
10	0xbd3b6521	-0.04575074
11	0xbf0fea72	-0.5621711
12	0xbd83c6ba	-0.064343885
13	0xbe2b5868	-0.16732943
14	0x3ea97da2	0.33103663
15	0xbee3a3a7	-0.44460794

VAE_Decoder.layers.0.attention.W_k.bias f4 [4]
0	0x38bd12a4	9.0156944e-05
1	0x396c39a2	0.00022528184
2	0xb9946c58	-0.00028309482
3	0x3908862f	0.00013019958

VAE_Decoder.layers.0.attention.W_v.weight f4 [4, 4]
0	0x3d9f07c7	0.07765155
1	0x3dcb7faf	0.09936463
2	0xbd103e0c	-0.035215423
3	0xbe9dd258	-0.30824542
4	0x3d1baeb1	0.038008396
5	0x3da6fe73	0.08154001
6	0xbcd8b015	-0.02645115
7	0xbe87bc99	-0.26511076
8	0xbda40f6d	-0.08010755
9	0x3d0f9f06	0.035063766
10	0xbddbb8f3	-0.10728636
11	0xbe99738c	-0.29970968
12	0x3da879b3	0.08226337
13	0x3de6b079	0.11264128
14	0xbd3d40ed	-0.046204496
15	0xbeb368e3	-0.3504096

VAE_Decoder.layers.0.attention.W_v.bias f4 [4]
0	0x3c2d5c12	0.010581033
1	0xbce82143	-0.028336173
2	0xbb0d50c8	-0.0021563042
3	0x3d181a40	0.03713441

VAE_Decoder.layers.0.linear0.weight f4 [128, 4]
0	0xbee8487e	-0.45367807
1	0x3ef08772	0.46978337
2	0xbea76e50	-0.3270135
3	0x3e510c70	0.20414901
4	0xbef32a74	-0.47493327
5	0xbe3dc689	-0.18532766
6	0x3ec49c0a	0.38400298
7	0xbe83cfc4	-0.2574445
8	0x3db90095	0.09033314
9	0x3dbfaf8b	0.09359654
10	0x3d90df04	0.07073787
11	0xbec32663	-0.38115224
12	0xbcae7f0f	-0.02130082
13	0xbe0d3140	-0.13788319
14	0xbe265e4e	-0.16246912
15	0x3dea9dc3	0.11455872
16	0x3f0c53d8	0.54815435
17	0xbe88cd68	-0.26719213
18	0xbe5b5ec1	-0.21422864
19	0xbe437f25	-0.1909147
20	0xbeb15827	-0.34637567
21	0x3eb9e598	0.3630798
22	0x3e5af89b	0.21383898
23	0xbefd1041	-0.49426463
24	0xbe3de8f9	-0.18545903
25	0xbe8e854c	-0.27836072
26	0x3c2b9f01	0.010474921
27	0x3ea48d74	0.3213917
28	0x3e042046	0.12902936
29	0x3dcae84a	0.09907587
30	0xbe557711	-0.20846201
31	0xbd480409	-0.048831973
32	0xbe60f7c4	-0.21969515
33	0xbbe14332	-0.0068744654
34	0x3e47732b	0.19477527
35	0xbdff5bcc	-0.12468681
36	0x3e060a3c	0.13089842
37	0x3db50310	0.08838475
38	0x3ea5f776	0.3241536
39	0x3ed174fb	0.40909562
40	0xbed5f81c	-0.41790855
41	0x3e59f301	0.21284105
42	0x3e9cd4e5	0.30631176
43	0x3ec0ceff	0.37657925
44	0x3f3e2fa6	0.74291456
45	0xbe1d0ba7	-0.15336476
46	0xbe3282dd	-0.17432733
47	0xbf4fad02	-0.81123364
48	0x3f049c86	0.51801336
49	0xbf04933b	-0.51787156
50	0xbe47e4be	-0.19520852
51	0xbe3a420c	-0.18189257
52	0x3efd1ba5	0.49435154
53	0x3d092b43	0.033488523
54	0xbecbc1be	-0.3979625
55	0x3ebdcb84	0.37069333
56	0xbe145474	-0.14485341
57	0xbef78d20	-0.48349857
58	0x3d82252a	0.06354745
59	0xbd9eaf15	-0.07748238
60	0x3edb3894	0.42816603
61	0x3e967921	0.2938929
62	0x3dd141f1	0.102176555
63	0x3ee48121	0.44629768
64	0xbea9d48f	-0.33169982
65	0x3f337598	0.7010131
66	0xbeeceb63	-0.46273336
67	0xbf527a88	-0.8221822
68	0xbec3309d	-0.38123026
69	0xbe33adb9	-0.17546739
70	0x3e1395ee	0.14412662
71	0xbe877b77	-0.26461384
72	0xbe889b64	-0.26681054
73	0x3e51ce1a	0.20488778
74	0xbeb9178c	-0.36150777
75	0x3ec70e11	0.3887792
76	0xbe29096b	-0.16507499
77	0xbd6d0e07	-0.057874706
78	0x3e50e197	0.20398556
79	0x3d26bc23	0.040706765
80	0x3e08e450	0.13368344
81	0x3f136dce	0.57589424
82	0x3ecb29bd	0.3968028
83	0x3eae9cb3	0.34103927
84	0x3ef4581a	0.47723466
85	0x3ec115d6	0.37711972
86	0x3e9c5a26	0.30537528
87	0x3ea684d0	0.32523203
88	0x3e4ca55f	0.19984959
89	0xbea74d34	-0.3267609
90	0x3e241946	0.16025266
91	0x3e435ca4	0.19078308
92	0xbf019e24	-0.5063193
93	0xbe6c4188	-0.23071873
94	0xbeec9e1c	-0.46214378
95	0x3e1e0420	0.15431261
96	0x3f1b7d8c	0.60738444
97	0xbea54bb0	-0.32284307
98	0xbf3efb75	-0.7460244
99	0x3e8a9903	0.27069864
100	0xbee160ed	-0.4401926
101	0x3e6b42d6	0.22974715
102	0x3ed2594f	0.41083762
103	0xbebab2f7	-0.36464664
104	0xbee815dd	-0.4532918
105	0x3da52606	0.08063893
106	0xbeb388c4	-0.3506528
107	0x3ee12c6c	0.43979204
108	0x3e137c83	0.14402966
109	0x3f12859f	0.5723514
110	0xbe3b04db	-0.18263571
111	0xbd80c659	-0.06287832
112	0x3f638574	0.8887551
113	0x3f883a65	1.0642821
114	0xbef62ccd	-0.48081055
115	0xbde954ce	-0.11393128
116	0xbefcbd3e	-0.4936313
117	0xbdfc6611	-0.12324155
118	0x3fb33d13	1.4003013
119	0xbfa0d144	-1.2563863
120	0x3f0c9aa3	0.54923457
121	0x3e1cf06a	0.15326086
122	0xbe68a196	-0.2271789
123	0x3eb506b1	0.35356668
124	0xbdb5ff8d	-0.08886633
125	0x3ea9e48f	0.3318219
126	0x3c915bab	0.017743906
127	0xbdd44f2c	-0.10366663
128	0x3e23d040	0.1599741
129	0xbd6bc768	-0.057563215
130	0x3ebdc3aa	0.37063342
131	0x3ebb434b	0.36574778
132	0x3daaad47	0.08333831
133	0xbbd1041f	-0.006378665
134	0x3ed1c80f	0.40972945
135	0xbe096edc	-0.13421196
136	0xbd4ad24d	-0.049516965
137	0xbe656a49	-0.22403826
138	0x3e9c0bc4	0.30477726
139	0x3d18e8f0	0.03733152
140	0xbe4b8481	-0.19874765
141	0xbefea2b1	-0.497335
142	0xbe69b517	-0.22822987
143	0x3e4e12fa	0.20124426
144	0x3d085bd9	0.033290718
145	0x3e99d0ca	0.30042106
146	0xbefab5d0	-0.48966837
147	0xbf1ca3fa	-0.6118771
148	0xbe5432f0	-0.20722556
149	0x3ed52b61	0.41634658
150	0x3eaa7189	0.33289745
151	0x3e25f7fd	0.16207881
152	0x3dc18c87	0.094506316
153	0xbea7e52d	-0.32792035
154	0xbed466f7	-0.41484806
155	0xbf0fab06	-0.56120336
156	0x3ebe25b3	0.37138137
157	0x3efe7e8f	0.49705932
158	0x3e2e9418	0.17048681
159	0xbd3b22ad	-0.045687366
160	0xbe5fd937	-0.21860205
161	0xbe5c6c1c	-0.21525615
162	0x3e1bc14a	0.15210453
163	0x3e44420e	0.19165823
164	0x3ebd3144	0.3695165
165	0xbec39bfd	-0.38204947
166	0x3d911dca	0.0708576
167	0x3eb4170b	0.3517383
168	0x3ea1b856	0.3158595
169	0x3eb13a26	0.34614676
170	0xbe3d8764	-0.18508679
171	0x3f1936b9	0.59849125
172	0xbe13f47e	-0.14448735
173	0xbef23a2c	-0.47310007
174	0x3e08fc1a	0.13377419
175	0x3eec4a9e	0.46150678
176	0x3f02e699	0.51133114
177	0xbf0693d5	-0.52569324
178	0xbf1cb9a2	-0.61220753
179	0x3e16028c	0.14649409
180	0xbe0e03ef	-0.13868688
181	0x3e941144	0.28919423
182	0x3ef76876	0.48321885
183	0xbdd06a1f	-0.10176491
184	0xbe5a2e0a	-0.21306625
185	0xbed54294	-0.41652358
186	0x3df700de	0.12060712
187	0x3e841931	0.2580047
188	0xbe71c877	-0.23611628
189	0xbf0ea94b	-0.5572707
190	0xbd91308b	-0.07089337
191	0xbee4fcd3	-0.4472414
192	0x3d06a7ea	0.03287498
193	0xbd8de9cd	-0.069293596
194	0x3ec5e915	0.3865439
195	0xbf32fad3	-0.6991398
196	0x3ed09517	0.40738747
197	0x3e1b668d	0.15175839
198	0xbdc88919	-0.09791774
199	0xbeb07fa1	-0.34472373
200	0xbe6f10fa	-0.2334632
201	0x3ded2d0c	0.11580858
202	0x3eb06352	0.34450775
203	0x3e24519b	0.16046755
204	0x3e8e7d8b	0.27830157
205	0xbe183408	-0.14863598
206	0x3ec1827c	0.37794864
207	0xbe712134	-0.23547822
208	0x3ded6980	0.11592388
209	0x3e334e85	0.17510422
210	0xbe4e19bf	-0.20127009
211	0x3e8f6e06	0.2801363
212	0xbef7070f	-0.48247573
213	0x3ef6d634	0.482103
214	0x3f0ee2d0	0.5581484
215	0x3ecf74d3	0.40518817
216	0x3e43d1dc	0.19123024
217	0xbdd97d0b	-0.10619553
218	0x3f105fc4	0.56396127
219	0xbe8b30fc	-0.2718581
220	0xbdd4dace	-0.10393296
221	0xbec75515	-0.389321
222	0x3ee59a04	0.44844067
223	0xbe333ce3	-0.17503695
224	0x3e737e07	0.23778544
225	0xbeb558ed	-0.35419407
226	0x3e608038	0.21923912
227	0x3e19ab31	0.1500671
228	0x3f2562e6	0.6460403
229	0xbf1b1b19	-0.6058822
230	0x3e27050b	0.16310517
231	0x3e56ccc3	0.20976548
232	0xbdb67019	-0.089081
233	0x3cdc3e66	0.026885223
234	0xbe32a49c	-0.17445606
235	0xbec5ad0b	-0.38608584
236	0x3ededc2e	0.4352736
237	0xbc1d3ccb	-0.009597014
238	0xbf189253	-0.59598273
239	0x3de6f2c6	0.11276774
240	0x3ce4ec18	0.02794461
241	0x3e3e9585	0.18611725
242	0xbcfc3be7	-0.030790282
243	0x3f0bc0aa	0.5459086
244	0xbe5dbc5d	-0.21653886
245	0xbe2b8850	-0.16751218
246	0xbed19f47	-0.4094183
247	0x3f11a73a	0.5689579
248	0x3e90759b	0.28214726
249	0x3ecfb2bf	0.4056606
250	0xbdc85d0a	-0.09783371
251	0xbead4e8a	-0.33848983
252	0x3f106664	0.56406236
253	0x3e3430ff	0.17596816
254	0x3d7e61f8	0.06210515
255	0xbf0bcc8b	-0.5460898

VAE_Decoder.layers.0.linear0.bias f4 [128]
0	0xbe326fb9	-0.17425431
1	0x3ebff2c7	0.37489912
2	0xbdd6fd10	-0.104974866
3	0x3d0780cf	0.033081826
4	0x3efceebc	0.4940089
5	0x3e73df90	0.23815751
6	0xbf08afb0	-0.5339308
7	0x3e9290bf	0.28626058
8	0xbe4a8704	-0.19778067
9	0x3ea16a86	0.31526583
10	0xbea6c089	-0.32568768
11	0xbea82b5a	-0.32845575
12	0x3eddf86a	0.43353587
13	0x3d253efb	0.040343266
14	0x3d37e81b	0.044899087
15	0xbc869f09	-0.016433256
16	0xbe83853b	-0.25687584
17	0x3e16e2b7	0.14734922
18	0xbef33a7b	-0.47505555
19	0x3ed694d8	0.41910434
20	0xbe229143	-0.15875725
21	0xbec50812	-0.3848272
22	0xbf0be513	-0.54646415
23	0xbd464353	-0.04840405
24	0xbe644aa0	-0.22294092
25	0xbe6dffe1	-0.23242141
26	0xbec65181	-0.38734058
27	0x3eac5b85	0.33663574
28	0x3e18d930	0.149266
29	0x3ede9ab7	0.43477413
30	0xbd5d32e5	-0.054003615
31	0xbe8e0f0c	-0.27745855
32	0x3ed11f14	0.40844023
33	0x3e22f11c	0.15912288
34	0x3e8214e0	0.2540655
35	0xbeb406d8	-0.3516147
36	0x3e6713f0	0.225662
37	0x3e4e80b8	0.2016629
38	0xbe8d4acc	-0.27596128
39	0x3e6ec77d	0.23318286
40	0x3ed4e9b7	0.4158456
41	0xbda0260a	-0.078197554
42	0x3ee001aa	0.4375127
43	0x3e959608	0.29216027
44	0xbea50c67	-0.32236025
45	0x3e8b2eb3	0.27184066
46	0x3ee7921d	0.45228663
47	0x3daa7a1c	0.08324072
48	0x3eace43d	0.33767882
49	0x3bed6f24	0.007245915
50	0xbd7460cd	-0.05966263
51	0xbe3b20bc	-0.18274206
52	0x3e83801b	0.25683674
53	0x3d8e0153	0.06933846
54	0x3ee03c5c	0.4379605
55	0xbe8ccf9c	-0.27502143
56	0x3ea565c8	0.32304215
57	0xbeba3cde	-0.36374563
58	0xbd2f60b0	-0.042816818
59	0x3ec045d9	0.3755329
60	0x3d1efd87	0.038816
61	0x3e8c1940	0.27363014
62	0xbde618d3	-0.112352036
63	0xbec75b48	-0.3893683
64	0x3e50fa4d	0.20407982
65	0x3e2a9e5d	0.16661973
66	0x3ecd0a19	0.40046766
67	0xbe2e4fe4	-0.17022663
68	0x3e92a185	0.28638855
69	0x3eddaa6c	0.43294084
70	0xbdaa509e	-0.08316158
71	0x3efafe08	0.49021935
72	0x3db63d73	0.08898439
73	0x3f00ac42	0.50262845
74	0x3d895305	0.06705288
75	0x3f0057ab	0.5013377
76	0xbeb595f6	-0.35465974
77	0xbe9f7d00	-0.31150055
78	0x3e951a24	0.29121506
79	0x3ebb3bf2	0.36569172
80	0xbe5b9250	-0.21442533
81	0x3ecb2789	0.396786
82	0x3f0afcbd	0.542919
83	0x3daa66d7	0.083203964
84	0x3b1621e2	0.002290838
85	0x3e24a92b	0.16080157
86	0xbe8b2a4b	-0.27180704
87	0xbe7d2a0b	-0.2472307
88	0xbea7f143	-0.32801256
89	0x3e562562	0.20912698
90	0x3d6bbdef	0.05755418
91	0xbe101644	-0.14070994
92	0x3e8cbb5b	0.2748669
93	0xbd2e6fe0	-0.04258716
94	0xbe37ddfa	-0.17955771
95	0x3ec9fdef	0.39451548
96	0xbe4468c6	-0.19180593
97	0xbea047bc	-0.3130473
98	0xbe68e401	-0.22743227
99	0xbeb1f84e	-0.34759754
100	0x3f224394	0.63384366
101	0xbe21dcff	-0.1580696
102	0xbda013d9	-0.07816286
103	0x3e9d8e99	0.30772856
104	0x3e8cf47f	0.27530286
105	0xbd5e1b3d	-0.054225195
106	0xbedfd47e	-0.43716806
107	0x3f08d70d	0.5345314
108	0x3ec46358	0.38357043
109	0x3e0a849c	0.13527149
110	0xbe53acba	-0.20671359
111	0xbe80008d	-0.2500042
112	0x3e97abf6	0.29623383
113	0xbc042766	-0.008066034
114	0x3cad5a46	0.02116121
115	0xbe1e2664	-0.15444332
116	0x3ed9720e	0.4246983
117	0x3e869342	0.26284224
118	0x3ebdd555	0.37076822
119	0x3e47454b	0.19460027
120	0xbef15ae8	-0.47139668
121	0x3d4df5be	0.050283186
122	0x3e2b30c2	0.16717818
123	0xbd63d7d7	-0.055625763
124	0xbe43443e	-0.19069001
125	0x3eff9005	0.49914566
126	0x3d018d04	0.031628624
127	0xbb61e230	-0.0034467094

VAE_Decoder.layers.0.linear1.weight f4 [4, 128]
0	0x3d6c6e10	0.05772215
1	0xbe12ad14	-0.14323837
2	0x3cb33ee2	0.02188057
3	0x3db06e8d	0.08614836
4	0x3df7d641	0.121014126
5	0xbcea6a8f	-0.028615264
6	0xbdd22b10	-0.1026212
7	0x3db7d53c	0.08976218
8	0xbc322ef9	-0.010875457
9	0xbda2f945	-0.07957701
10	0xbdb038af	-0.086045615
11	0x3e1ebb72	0.15501192
12	0x3e306ca5	0.17228945
13	0x3d058f17	0.032607164
14	0xbd3aa445	-0.045566816
15	0x3dbdeccb	0.0927368
16	0xbd660629	-0.05615822
17	0xbe4869da	-0.19571629
18	0xbdba9071	-0.09109581
19	0xbd9d9abd	-0.076955296
20	0x3c14c4d9	0.009080135
21	0x3bd1efea	0.006406774
22	0x3db7225b	0.089421
23	0xbe24e4d9	-0.16102923
24	0x3e3b21d4	0.18274623
25	0xbd9fd286	-0.07803826
26	0xbdeb5507	-0.11490827
27	0x3ca8b87c	0.020595782
28	0x3ef2c5b9	0.47416475
29	0xbf2e345a	-0.6804863
30	0x3e583eb8	0.21117675
31	0xbd3ad7cc	-0.045615956
32	0xbc7899a5	-0.01517335
33	0x3cb36731	0.021899791
34	0xbd9a95b8	-0.07548088
35	0x3d2ffe16	0.042966925
36	0x3c246516	0.010033866
37	0xbd94ed80	-0.07271862
38	0x3dddfa1e	0.10838722
39	0xbccd6025	-0.02507026
40	0xbd55ab78	-0.05216548
41	0x3dc67b81	0.09691525
42	0x3d9d3ead	0.0767797
43	0x3d417a56	0.04723581
44	0x3e65936b	0.22419517
45	0xbd13964f	-0.036032017
46	0xbd120ebf	-0.035658594
47	0xbd5cb852	-0.05388672
48	0xbd87edaa	-0.06637128
49	0x3e204647	0.15651809
50	0xbd8f2514	-0.06989494
51	0xbe37a408	-0.17933667
52	0xbbcb761c	-0.006209148
53	0xbde077dd	-0.10960362
54	0xbdbd6fb8	-0.09249824
55	0xbd2360f7	-0.039887395
56	0x3d5c970d	0.05385499
57	0x3c8db289	0.017297046
58	0x3d061fc9	0.032745156
59	0x3e3a41b2	0.18189123
60	0xbc945d86	-0.018111002
61	0xbc004512	-0.007828968
62	0x3c46c65b	0.012132253
63	0x3df9f17f	0.12204265
64	0xbc7bd23e	-0.01536995
65	0xbe059e08	-0.13048565
66	0xbd1f1d75	-0.03884645
67	0xbe75dc32	-0.24009779
68	0xbe0192cf	-0.1265366
69	0xbdbbc011	-0.09167493
70	0xbc645f23	-0.013938698
71	0x3d4d09aa	0.050058044
72	0xbd9aa535	-0.07551042
73	0xbdf11c0d	-0.117729284
74	0x3dca9290	0.09891236
75	0xbdd93904	-0.10606578
76	0xbd1b5f59	-0.037932727
77	0x3e1a7a2f	0.15085672
78	0xbddb3f28	-0.107054055
79	0xbd9918ee	-0.07475458
80	0xbe157c84	-0.1459828
81	0x3ea809c6	0.32819957
82	0x3d877bf3	0.06615438
83	0x3db7f46c	0.08982167
84	0x3d547977	0.05187365
85	0x3e211bc0	0.15733242
86	0xbdeb8616	-0.11500184
87	0xbd63f455	-0.055652935
88	0xbd749384	-0.059710994
89	0x3e1036de	0.1408343
90	0x3e2612d0	0.16218114
91	0x3cbcf79f	0.023067294
92	0x3e3ae6d6	0.1825212
93	0xbe03e48a	-0.1288015
94	0x3da577f2	0.080795184
95	0xbd0979af	-0.033563312
96	0x3e87ceb1	0.2652488
97	0xbe088460	-0.13331747
98	0xbe606326	-0.21912822
99	0x3d2212e7	0.039568808
100	0x3e2f4ccb	0.17119138
101	0x3ea0f9b0	0.31440496
102	0x3e2874f9	0.16450872
103	0xbd07297e	-0.032998554
104	0xbe3c6811	-0.18399073
105	0x3d6d962d	0.058004547
106	0xbd1456eb	-0.036215704
107	0xbd2f1110	-0.04274088
108	0x3d1ee1dc	0.038789615
109	0x3d059d5c	0.032620773
110	0x3da11b0b	0.07866486
111	0x3de3299c	0.11091921
112	0x3db5740e	0.08860026
113	0xbe648630	-0.22316813
114	0xbe510b20	-0.204144
115	0xbbc808c6	-0.0061045615
116	0xbdf15118	-0.117830455
117	0xbabb2337	-0.0014277463
118	0xbe08d0cc	-0.133609
119	0x3cae3172	0.021263812
120	0x3ecae11b	0.39624867
121	0xbcad0e13	-0.021124875
122	0xbe1a2554	-0.15053302
123	0xbbc2b81f	-0.005942359
124	0x3cbddf26	0.023177695
125	0x3d8c4f66	0.068510816
126	0xbe1fbfdc	-0.15600532
127	0xbe3ad05b	-0.18243544
128	0xbd83d5ec	-0.06437287
129	0x3b8d818b	0.0043184212
130	0xbccbf689	-0.02489783
131	0x3d96b534	0.073587805
132	0xbcbb005f	-0.022827325
133	0x3d8c2fcd	0.06845055
134	0x3db90861	0.09034801
135	0x3e0d0eef	0.13775228
136	0xbd9fc786	-0.07801728
137	0xbdd9006e	-0.10595785
138	0xbc2ba990	-0.010477439
139	0xbc41bfbe	-0.0118255
140	0xbde5b909	-0.11216933
141	0x3e1552cd	0.14582367
142	0xbb77a456	-0.003778716
143	0xbc8c392f	-0.017117111
144	0x3e58a889	0.21158041
145	0xbccafc4b	-0.024778506
146	0xbd806979	-0.06270117
147	0xbb8e821f	-0.0043490077
148	0xbeb5cb8c	-0.35506856
149	0xbd17990c	-0.03701119
150	0xbda29c65	-0.07939986
151	0xbdd5812a	-0.10425027
152	0x3db900b8	0.0903334
153	0x3c8c3f8b	0.017120143
154	0xbd9bcbb8	-0.07607216
155	0x3dbaaf77	0.091154985
156	0x3f771499	0.96515805
157	0xbf731c68	-0.9496522
158	0x3d9d635f	0.07684969
159	0x3de77f9b	0.11303636
160	0xbda5203d	-0.080627896
161	0xbd01d12f	-0.031693634
162	0x3d0a48f1	0.03376097
163	0x3dedc582	0.11609937
164	0x3e69f1b1	0.22846104
165	0xbd57bb46	-0.052668832
166	0x3d73f4e4	0.059559718
167	0x3dda8210	0.10669339
168	0xbe0cdc4e	-0.13755915
169	0xbd6807ab	-0.056647938
170	0xbbc37091	-0.0059643467
171	0xbc519add	-0.01279327
172	0x3cd2118f	0.025643138
173	0xbc9121c3	-0.017716294
174	0xbe038c2b	-0.12846439
175	0xbec826ef	-0.39092204
176	0xbda33ef1	-0.079709895
177	0xbbfd0bc7	-0.0077223512
178	0xbde11549	-0.10990388
179	0xbdfe996b	-0.12431606
180	0x3dbe2c15	0.09285752
181	0xbd8c5843	-0.06852772
182	0xbe155649	-0.14583696
183	0xbddf8868	-0.10914689
184	0xbe075152	-0.13214615
185	0xbe86021f	-0.26173493
186	0x3e0a4563	0.13503031
187	0x3df47203	0.119358085
188	0xbdd65a50	-0.104664445
189	0xbca92153	-0.020645773
190	0x3e0cab69	0.13737263
191	0x3e8e1f81	0.2775841
192	0xbe94dc70	-0.2907443
193	0xbdc26b66	-0.09493141
194	0x3cac2222	0.02101237
195	0xbdb907dd	-0.09034703
196	0xbdc2b899	-0.095078655
197	0xbe0875b1	-0.13326146
198	0xbe0acae6	-0.13553962
199	0xbdab1744	-0.08354047
200	0x3b4cde93	0.0031260594
201	0xbdd9f91e	-0.106432185
202	0x3cd6a00e	0.026199367
203	0x3d1016b3	0.035177898
204	0xbdc5002a	-0.09619172
205	0x3dc4a404	0.09601596
206	0xbda16e0c	-0.07882318
207	0xbd897c5f	-0.06713175
208	0xbcd8ce1f	-0.026465474
209	0x3f4ef598	0.80843496
210	0xbb9efa08	-0.0048515834
211	0xbd9509c2	-0.07277252
212	0xbdf41d63	-0.119196676
213	0xbc10382d	-0.008802456
214	0x3cc1f55b	0.023676565
215	0xbdb41ca0	-0.08794522
216	0x3c18987b	0.009313698
217	0x3d4ef8ee	0.050530367
218	0x3dc612f2	0.09671582
219	0x3c1ab8a4	0.009443436
220	0x3d929b9c	0.071585864
221	0xbea53f49	-0.32274845
222	0xbd9b6aa7	-0.07588702
223	0xbd9b42e2	-0.07581116
224	0x3d6b6c29	0.057476196
225	0x3d9e69b6	0.077350065
226	0xbd9994be	-0.074990734
227	0xbc5e3d6c	-0.013564449
228	0x3df9f03c	0.12204024
229	0xbe2eefc0	-0.17083645
230	0x3dcb4ad4	0.09926382
231	0xbb550147	-0.0032501982
232	0x3e5ea45e	0.21742389
233	0xbb94e3b3	-0.0045437454
234	0x3d2c568a	0.042074718
235	0xbd8da224	-0.069156915
236	0xbc3b7360	-0.011441082
237	0x3cbf48da	0.023350168
238	0xbde847d3	-0.113418244
239	0x3e3a54dc	0.18196434
240	0x3cae1a61	0.021252813
241	0x3d28bc06	0.041194938
242	0xbe4ba8b3	-0.19888572
243	0xbd9b9242	-0.07596256
244	0xbd2fe8a6	-0.04294648
245	0xbd87a393	-0.06622996
246	0xbdecb894	-0.11558643
247	0x3dc152a9	0.09439594
248	0x3ca18226	0.01971538
249	0x3d3c89c1	0.04602981
250	0xbd96203d	-0.07330368
251	0xbdb6487e	-0.089005455
252	0x3e9477e6	0.28997725
253	0xbe38572a	-0.18002
254	0xba351787	-0.0006908108
255	0x3d9460d0	0.07245028

VAE_Decoder.layers.0.linear1.bias f4 [4]
0	0xbd346342	-0.044039972
1	0xbcd53386	-0.026025545
2	0xbd9ab390	-0.0755378
3	0x3c03f883	0.008054855

VAE_Decoder.layers.0.norm1.weight f4 [4]
0	0x3faa8864	1.3322873
1	0x3fa1469f	1.2599677
2	0x3fac83dc	1.347774
3	0x3fbd892a	1.4807484

VAE_Decoder.layers.0.norm1.bias f4 [4]
0	0x3d4bfb28	0.04980007
1	0xbd331b29	-0.043727074
2	0x3d8a7696	0.067609
3	0x3dadef15	0.08492867

VAE_Decoder.layers.1.attention.W_q.weight f4 [4, 4]
0	0xbe69d619	-0.22835578
1	0x3d37476d	0.04474585
2	0x3ea0434c	0.31301343
3	0xbe6717d3	-0.22567682
4	0xbe7d44e9	-0.24733318
5	0xbe25401e	-0.1613774
6	0xbd4b2324	-0.04959406
7	0x3e2db42b	0.1696326
8	0xbe6a8166	-0.22900924
9	0xbe28e85b	-0.16494887
10	0x3e98c11c	0.2983483
11	0xbdec30f1	-0.11532772
12	0x3e487899	0.19577254
13	0xbed3a138	-0.41333938
14	0xbea61612	-0.32438713
15	0xbe9f729f	-0.31142136

VAE_Decoder.layers.1.attention.W_q.bias f4 [4]
0	0x3bfaedee	0.007657758
1	0x3df21164	0.11819723
2	0x3db90a70	0.09035194
3	0x3d4cc347	0.04999092

VAE_Decoder.layers.1.attention.W_k.weight f4 [4, 4]
0	0x3d9336ff	0.07188224
1	0xbe615f11	-0.22008921
2	0x3e2aff06	0.16698846
3	0xbdd61438	-0.10453075
4	0xbe9e8695	-0.30962053
5	0xbea7dbdf	-0.32784936
6	0xbd8a6ca6	-0.06759004
7	0x3e06e29a	0.13172379
8	0x3e14c81b	0.14529459
9	0xbf01d922	-0.50721943
10	0xbea87dd5	-0.32908502
11	0xbe6af8f3	-0.22946529
12	0x3e15209d	0.14563222
13	0xbe110ccc	-0.14165038
14	0x3eae8165	0.34083095
15	0x3e957baf	0.29195926

VAE_Decoder.layers.1.attention.W_k.bias f4 [4]
0	0xb89479c5	-7.079871e-05
1	0x3803dbb9	3.1437467e-05
2	0xb86994a4	-5.568996e-05
3	0xb92a588a	-0.00016245447

VAE_Decoder.layers.1.attention.W_v.weight f4 [4, 4]
0	0x3d87e932	0.06636275
1	0xbe9ab383	-0.30215082
2	0xbe4bc5b9	-0.19899644
3	0x3d85f5c9	0.065410204
4	0xbdaf8440	-0.085701466
5	0xbe918ac6	-0.28426188
6	0xbe58e8a2	-0.21182492
7	0xb80bff53	-3.337797e-05
8	0xbc356b31	-0.01107292
9	0xbe6391b1	-0.22223546
10	0xbe24a59d	-0.16078801
11	0x3d491a61	0.049097423
12	0xbd351603	-0.044210445
13	0xbee8bf78	-0.4545858
14	0xbe9e108a	-0.30871993
15	0xbda275a0	-0.079325914

VAE_Decoder.layers.1.attention.W_v.bias f4 [4]
0	0xbc5af444	-0.0133639015
1	0xbc33c1b6	-0.010971477
2	0x3bc6d76e	0.0060681617
3	0x3ceea140	0.029129624

VAE_Decoder.layers.1.linear0.weight f4 [128, 4]
0	0x3eb771cf	0.35829017
1	0x3f3c6278	0.7358775
2	0xbf19d022	-0.6008321
3	0xbf24b901	-0.64344794
4	0x3e727d29	0.23680557
5	0xbecc24f6	-0.3987195
6	0xbb2e6e3c	-0.0026615998
7	0x3efac179	0.48975733
8	0x3e832771	0.2561603
9	0x3ec47604	0.3837129
10	0xbec23942	-0.3793431
11	0x3db465ad	0.088084556
12	0xbea42fbe	-0.32067674
13	0xbe8d770e	-0.27629894
14	0x3f01380e	0.5047616
15	0xbe006d1d	-0.12541623
16	0xbde5d0c3	-0.11221459
17	0x3ee0dc42	0.43918043
18	0xbeeb8e76	-0.46007127
19	0x3e7c09cf	0.24613117
20	0x3f13d4ec	0.5774677
21	0xbf822f03	-1.0170597
22	0x3f70077b	0.93761414
23	0xbefd21f2	-0.4943996
24	0xbe7c19aa	-0.24619165
25	0xbd988af4	-0.07448378
26	0x3f06894e	0.5255326
27	0xbdc1a8a5	-0.094559945
28	0xbe9fb133	-0.3118988
29	0xbe57c804	-0.21072394
30	0x3cc08d6e	0.023504939
31	0x3e2b4e68	0.16729128
32	0xbe8c6fb9	-0.27428988
33	0x3f06d3eb	0.5266711
34	0xbd6415f7	-0.05568501
35	0xbe4dd475	-0.20100577
36	0xbe4df8fb	-0.2011451
37	0x3f25565a	0.6458489
38	0xbe805014	-0.25061095
39	0x3f175377	0.5911173
40	0xbf24d27c	-0.64383674
41	0x3d5e1448	0.05421856
42	0xbe50f008	-0.20404065
43	0x3dbf0e3a	0.093288854
44	0xbe9628ad	-0.29327908
45	0x3c137477	0.008999935
46	0xbe919035	-0.28430334
47	0x3ebfe164	0.37476647
48	0x3e529dca	0.20568004
49	0x3e3318fa	0.17489997
50	0xbebf9bfe	-0.374237
51	0x3f10829d	0.564493
52	0x3e789283	0.2427464
53	0x3f0a679e	0.5406436
54	0xbd614e7f	-0.0550065
55	0x3ed3add6	0.41343564
56	0x3ee2af3b	0.44274315
57	0xbe96fbb3	-0.29488906
58	0xbf39034c	-0.72270656
59	0xbe774531	-0.24147488
60	0xbebb0bad	-0.36532345
61	0xbdfa46a4	-0.12220505
62	0x3f032f4e	0.51244056
63	0x3e1efd81	0.15526392
64	0xbe69e0b0	-0.22839618
65	0x3ed153e6	0.40884322
66	0xbea3bb81	-0.31978992
67	0xbd09a5db	-0.033605438
68	0xbdc465f4	-0.095897585
69	0x3f02e016	0.5112318
70	0x3ecb38a7	0.3969166
71	0xbe78fd5e	-0.24315402
72	0xbe90a4c6	-0.28250712
73	0x3f1bdaac	0.6088054
74	0xbe6fea10	-0.23429132
75	0xbf1361bb	-0.57571
76	0xbf18943a	-0.59601176
77	0xbe75a1d0	-0.23987508
78	0xbd927854	-0.07151857
79	0x3f1521a0	0.5825443
80	0x3e11ed2a	0.14250627
81	0x3ed96031	0.424562
82	0x3e965524	0.29361832
83	0xbef35d31	-0.47532037
84	0x3f207281	0.6267472
85	0x3d34329c	0.043993577
86	0xbf4e15ec	-0.805022
87	0x3e2f6936	0.17129979
88	0x3d9d4d65	0.076807775
89	0xbdbd3d49	-0.09240205
90	0x3e82488f	0.25445983
91	0x3e8b7e20	0.27244663
92	0x3e829c28	0.25509763
93	0x3dbc06f9	0.091810174
94	0x3dc3a1df	0.09552359
95	0xbf27cb2d	-0.65544397
96	0xbf0c5a0d	-0.54824907
97	0x3ec49923	0.38398084
98	0xbe88c12f	-0.26709887
99	0x3eeb80d9	0.4599674
100	0x3f001505	0.50032073
101	0x3ebe7e63	0.372058
102	0xbeaf207e	-0.34204477
103	0xbdf03b8f	-0.1173011
104	0x3e1f3675	0.15548117
105	0xbe861723	-0.26189527
106	0xbc2fb963	-0.010725352
107	0x3f18d93e	0.59706485
108	0xbe81658a	-0.2527278
109	0x3c411922	0.011785777
110	0x3ecedf8e	0.40404934
111	0x3eafca54	0.34334052
112	0x3f43704f	0.76343244
113	0xbe83f846	-0.25775355
114	0xbf378f50	-0.7170305
115	0xbe6c9aff	-0.23106001
116	0x3f163e6f	0.58689016
117	0xbe336aa8	-0.17521155
118	0xbf035f58	-0.5131736
119	0x3eca7fe5	0.395507
120	0xbe7d892b	-0.24759357
121	0x3f1c581a	0.6107193
122	0xbf26cfe4	-0.65160966
123	0xbe5643fe	-0.20924374
124	0x3eb79171	0.3585315
125	0xbdf36c82	-0.118859306
126	0x3e068a74	0.13138753
127	0xbe80f619	-0.25187758
128	0xbee34431	-0.44387963
129	0x3ec63c68	0.3871796
130	0x3e80a203	0.25123605
131	0x3e69d31b	0.22834437
132	0xbe26607e	-0.16247746
133	0x3f251a8f	0.6449365
134	0xbf20865f	-0.62705034
135	0x3eb01677	0.3439214
136	0xbd8a4ac3	-0.06752541
137	0xbe1ac3a3	-0.15113692
138	0x3e007337	0.12543951
139	0xbd18d746	-0.037314676
140	0x3f050bf7	0.5197138
141	0x3ebafe2b	0.3652204
142	0x3f3162e1	0.692915
143	0xbf188626	-0.59579694
144	0x3ebf1743	0.37322435
145	0xbeea97bc	-0.4581889
146	0x3e2b35be	0.1671972
147	0xbe18e5df	-0.14931439
148	0xbdaa5cea	-0.08318503
149	0x3e70d625	0.2351919
150	0xbeb5caff	-0.35506436
151	0xbe965867	-0.2936432
152	0x3f432c6b	0.7623965
153	0xbf277f08	-0.6542821
154	0x3ef4ff27	0.47850916
155	0xbd976aaf	-0.07393395
156	0x3e63641c	0.22206157
157	0x3e93929e	0.28822798
158	0x3e7d3b6c	0.24729699
159	0x3e56bd91	0.20970751
160	0xbe88648c	-0.2663921
161	0xbeabbed2	-0.33544022
162	0x3eb7338c	0.35781515
163	0x3e934519	0.28763655
164	0x3f319425	0.69366676
165	0xbd90467f	-0.07044696
166	0xbe84d48b	-0.25943407
167	0xbdc83abb	-0.09776827
168	0xbf01426d	-0.5049198
169	0x3e3480ee	0.17627308
170	0x3e280862	0.16409448
171	0xbf6baea2	-0.92063344
172	0xbdffb205	-0.124851264
173	0xbe34cc6e	-0.17656109
174	0x3dc732c2	0.09726478
175	0xbe80586d	-0.25067464
176	0x3f20fcb1	0.62885576
177	0x3ebf8fbe	0.37414354
178	0xbeff6e12	-0.49888664
179	0xbd2556cd	-0.040365983
180	0xbedf792e	-0.4364714
181	0x3e38e634	0.18056566
182	0xbd0384db	-0.032109123
183	0x3e985d09	0.2975848
184	0x3e189b29	0.14902939
185	0x3f0a5528	0.5403619
186	0xbe29479c	-0.16531223
187	0xbe17f55e	-0.14839694
188	0x3e8bfa80	0.27339554
189	0xbef232b1	-0.473043
190	0xbe749bce	-0.2388756
191	0x3f0823a8	0.5317941
192	0x3f0689f9	0.5255428
193	0xbdf5bec5	-0.11999277
194	0x3ed390a8	0.413213
195	0x3e92dcdc	0.28684127
196	0xbf16d557	-0.5891928
197	0x3ea90ebc	0.33019054
198	0x3f924e8e	1.1430223
199	0xbf3abc31	-0.7294341
200	0x3f8ac9a7	1.084279
201	0x3f261775	0.6487954
202	0xbf7ac2d7	-0.9795355
203	0xbf181460	-0.5940609
204	0xbe7e5948	-0.24838746
205	0x3eea4598	0.4575622
206	0xbe998001	-0.29980472
207	0xbeeba069	-0.4602082
208	0xbd462e13	-0.048383784
209	0x3eb07944	0.34467518
210	0x3ecf58b5	0.40497366
211	0x3eb99541	0.36246684
212	0x3fa8177e	1.3132169
213	0xbea30a32	-0.31843716
214	0x3fa61401	1.2974855
215	0xbf7d121b	-0.9885575
216	0x3f1f7ce8	0.62299967
217	0x3d5c963e	0.05385422
218	0x3e89209f	0.267827
219	0xbf7ee54f	-0.9956865
220	0x3f383309	0.71952873
221	0x3d32b634	0.043630794
222	0xbf39c714	-0.72569394
223	0x3dc628a3	0.096757196
224	0xbe367eb1	-0.17821766
225	0x3ea98261	0.33107284
226	0xbe4037af	-0.18771242
227	0x3eb6c582	0.35697562
228	0x3f125f65	0.5717681
229	0xbf94f042	-1.1635821
230	0x3e7d76a4	0.24752289
231	0x3dc5c99d	0.09657595
232	0x3ebb5d37	0.36594555
233	0xbe944be5	-0.28964153
234	0x3f0bb28b	0.5456931
235	0x3edae516	0.42752904
236	0xbdd0f31e	-0.10202621
237	0x3e9d2b63	0.30697164
238	0xbc66953f	-0.014073669
239	0x3ceb280e	0.028705623
240	0x3d364cdc	0.044506893
241	0x3ed9812b	0.4248136
242	0x3ebf53fb	0.3736876
243	0xbe7667af	-0.2406299
244	0x3e6d9c70	0.23204207
245	0x3e811e6b	0.2521852
246	0xbd809383	-0.06278136
247	0xbef3b109	-0.47596005
248	0x3e6ea7d2	0.23306206
249	0xbf11ef60	-0.5700588
250	0x3e673057	0.22577034
251	0x3eb73287	0.35780737
252	0xbf51103d	-0.816654
253	0x3f411415	0.7542127
254	0x3f392fe3	0.72338694
255	0xbf1c69d0	-0.6109896

VAE_Decoder.layers.1.linear0.bias f4 [128]
0	0x3e6cf5a2	0.23140576
1	0x3eab79c6	0.33491343
2	0xbbc01d4d	-0.005862868
3	0x3e3e9cbf	0.18614481
4	0x3f10d609	0.5657659
5	0x3ebd2109	0.36939266
6	0x3ee08bce	0.43856663
7	0x3f04eb58	0.51921606
8	0xbe922ff0	-0.28552198
9	0x3d9abbf8	0.075553834
10	0x3e4053f6	0.18782029
11	0xbe222946	-0.15836057
12	0x3ec66086	0.38745517
13	0x3e608217	0.21924625
14	0xbe2ccf8a	-0.16876045
15	0x3ef7ffb9	0.48437288
16	0xbecee6ab	-0.4041036
17	0xbe3f0e38	-0.18657768
18	0x3f16deb0	0.58933544
19	0xbe008924	-0.12552315
20	0xbdd9089f	-0.105973475
21	0x3f20a5be	0.627529
22	0xbcd26228	-0.02568157
23	0x3ed776a3	0.420827
24	0x3e267ef0	0.1625936
25	0x3e684273	0.22681598
26	0xbdf7163d	-0.120647885
27	0xbdba74d0	-0.091043115
28	0xbc8b2537	-0.016985519
29	0x3d1d76f6	0.038443528
30	0x3f1e8861	0.6192685
31	0xbe02c194	-0.12769157
32	0x3ded5227	0.11587935
33	0x3dcee80d	0.10102854
34	0x3e8a1a32	0.2697311
35	0x3dd5bb3c	0.10436103
36	0x3e9345af	0.28764102
37	0xbee4859c	-0.44633186
38	0xbd4318d8	-0.047631115
39	0xbedc80ea	-0.43067104
40	0xbebfde74	-0.37474406
41	0x3e326a51	0.17423369
42	0xbe87e87c	-0.2654456
43	0x3eafc91a	0.34333116
44	0xbe5fa52c	-0.21840352
45	0xbe9d7c6f	-0.30758998
46	0x3c32d60b	0.01091529
47	0x3e86ab10	0.26302385
48	0x3d10a49f	0.035313245
49	0xbddc7877	-0.10765164
50	0x3d6a98f4	0.057274774
51	0xbe60a8f1	-0.21939446
52	0x3f167a3d	0.5878027
53	0x3ef140ef	0.47119853
54	0xbe65d37a	-0.22443953
55	0x3e21eee4	0.15813786
56	0x3e9f5e95	0.31126848
57	0xbc5e73f0	-0.013577446
58	0x3eade5c6	0.33964366
59	0x3eef47bb	0.46734414
60	0x3cbccff2	0.023048375
61	0x3e9ac45d	0.30227938
62	0xbd06b502	-0.032887466
63	0x3c700bfa	0.014651293
64	0xbefafea1	-0.4902239
65	0x3e10d828	0.14144957
66	0x3e919763	0.2843581
67	0x3d87ebdb	0.06636783
68	0xbeab029c	-0.33400428
69	0x3f15f220	0.5857258
70	0xbd65d7f1	-0.05611414
71	0x3ec55187	0.38538763
72	0x3e793ef9	0.24340428
73	0x3ea2ff20	0.3183527
74	0xbf00aec4	-0.5026667
75	0x3d845234	0.064609915
76	0x3bcad027	0.0061893645
77	0x3ee6e9e5	0.45100322
78	0xbea36351	-0.3191171
79	0xbdcc2355	-0.099676766
80	0x3e00a17f	0.12561606
81	0x3f01fc6c	0.5077579
82	0x3ec95720	0.39324284
83	0xbdacf5a7	-0.08445292
84	0x3ef3ea06	0.47639483
85	0xbe6d56a8	-0.23177588
86	0x3e06f1ea	0.1317822
87	0x3d259430	0.040424526
88	0x3e989502	0.29801184
89	0x3d73ce7a	0.059523083
90	0xbb9d0506	-0.0047918586
91	0x3e8a8820	0.2705698
92	0x3f05d093	0.52271384
93	0xbe83dab3	-0.25752792
94	0x3ebb034d	0.36525956
95	0xbedf7d23	-0.4365016
96	0x3e6fd176	0.23419747
97	0x3f0a5818	0.5404067
98	0x3de6a79f	0.1126244
99	0x3e5cee91	0.21575381
100	0xbd522848	-0.051307946
101	0x3eac4fb5	0.33654562
102	0xbdfc87b9	-0.123305745
103	0x3e8c4604	0.27397168
104	0x3da7c58a	0.081919745
105	0xbe058128	-0.1303755
106	0x3e7fd351	0.24982955
107	0xbdb57e96	-0.08862035
108	0xbe3035b2	-0.17207983
109	0xbe842dc5	-0.2581617
110	0x3ec0a786	0.3762781
111	0x3bb3b666	0.00548439
112	0xbf2494d4	-0.64289594
113	0xbe5a9c88	-0.21348774
114	0x3e187006	0.14886484
115	0x3e200949	0.15628542
116	0xbe9bc293	-0.30421886
117	0x3eb5e662	0.3552733
118	0xba5aca3e	-0.00083461765
119	0x3f47f640	0.7811012
120	0x3eefe678	0.4685552
121	0xbc88d90e	-0.016705062
122	0x3ece52fc	0.40297687
123	0x3ef4a3f8	0.47781348
124	0x3f066904	0.5250399
125	0x3e686305	0.22694023
126	0xbd0de6c0	-0.03464389
127	0xbec28864	-0.37994683

VAE_Decoder.layers.1.linear1.weight f4 [4, 128]
0	0x3c461ccc	0.012091827
1	0x3d1a6311	0.037692133
2	0x3c938485	0.018007526
3	0xbe1a1c65	-0.15049894
4	0xbcf3965d	-0.029734785
5	0x3f114692	0.56748307
6	0xbe2c995a	-0.16855374
7	0xbdd8df7c	-0.10589501
8	0xbdca6b93	-0.098837994
9	0xbeb452da	-0.3521946
10	0xbdbaaeb7	-0.091153555
11	0xbdcbd8a9	-0.09953434
12	0x3c9cd8ea	0.019146401
13	0xbd6c33e9	-0.057666693
14	0x3e7b5f7c	0.24548143
15	0xbdd9404c	-0.10607967
16	0xbdcc2760	-0.09968448
17	0xbea01b6a	-0.31270915
18	0xbd8157f5	-0.063156046
19	0xbd909d2b	-0.070612274
20	0xbdd5faa9	-0.104482
21	0x3e21b458	0.15791452
22	0xbc8dea5c	-0.017323665
23	0x3d8e59dc	0.06950733
24	0xbe3440ea	-0.17602888
25	0x3d7cbca7	0.06170335
26	0x3db0484c	0.086075395
27	0xbe2617f1	-0.1622007
28	0x3e982218	0.2971351
29	0x3e72a69f	0.23696373
30	0xbd5a0b63	-0.053233515
31	0x3d87c964	0.06630209
32	0xbe03209a	-0.12805405
33	0xbd8a26ed	-0.06745706
34	0xbd2a66fd	-0.041602124
35	0x3cf60271	0.030030461
36	0x3df148de	0.117814764
37	0xbd5c2fce	-0.053756528
38	0x3eaff3d6	0.3436572
39	0xbcc49ec1	-0.024001481
40	0xbc3126aa	-0.010812441
41	0x3e7bbef9	0.24584569
42	0xbee3216e	-0.44361442
43	0xbdf6f671	-0.12058724
44	0x3e2cfdda	0.16893712
45	0xbe06fdea	-0.13182798
46	0xbd1aa2b1	-0.03775281
47	0x3d9a8f63	0.0754688
48	0x3e05ce31	0.13066937
49	0xbe5401e3	-0.20703845
50	0x3e2ac509	0.16676725
51	0xbd5a6873	-0.053322267
52	0xbe6043dc	-0.21900886
53	0x3fa8ef60	1.3198051
54	0x3eca4ba1	0.39510825
55	0x3f21785e	0.6307429
56	0xbd088a63	-0.0333351
57	0x3f6e8554	0.9317219
58	0xbd58e218	-0.052949995
59	0xbe1be184	-0.15222746
60	0xbe20e47f	-0.15712164
61	0x3cfaf7f5	0.030635813
62	0x3e01f176	0.12689766
63	0xbe31956f	-0.1734216
64	0xbd9b965a	-0.07597037
65	0xbfd689ad	-1.6760765
66	0xbde4b25f	-0.11166834
67	0xbd403e74	-0.04693456
68	0xbe2226e5	-0.1583515
69	0x3dfdc034	0.123901755
70	0xbec6a7be	-0.38799852
71	0xbd0c24a8	-0.034214646
72	0xbe1ab8f6	-0.1510962
73	0x3d85cdc6	0.06533389
74	0x3d058f81	0.03260756
75	0x3d1c8d16	0.038220488
76	0x3de1b65a	0.11021109
77	0xbf1deb40	-0.6168709
78	0x3e5ffd36	0.21873936
79	0xbcd0ad8e	-0.025473382
80	0x3eb55ba9	0.35421494
81	0xbe291745	-0.16512783
82	0xbc8fa894	-0.017536439
83	0x3d29e637	0.041479316
84	0x3db7062c	0.08936724
85	0xbe0d2635	-0.13784106
86	0xbc5b1eb1	-0.013374017
87	0xbd977faf	-0.073974006
88	0xbdca51f3	-0.09878912
89	0x3e6941c8	0.22779
90	0x3eaff470	0.3436618
91	0x3e657a6a	0.22409979
92	0xbe2d21da	-0.16907445
93	0x3e9a8d5b	0.3018597
94	0x3b8c6386	0.004284325
95	0xbdf9aede	-0.121915564
96	0xbdf50f5c	-0.1196582
97	0x3c0a7e95	0.008453031
98	0x3e5c8bb7	0.21537672
99	0x3e943e1a	0.2895363
100	0xbe0e9300	-0.13923264
101	0xbdb76327	-0.08954459
102	0x3e485d81	0.19566919
103	0x3e1a0fc5	0.15045078
104	0xbd8661da	-0.065616325
105	0xbe34fded	-0.1767499
106	0x3c02a6e0	0.007974356
107	0xbd209fe5	-0.039214987
108	0xbe181b47	-0.14854155
109	0xbd16b8c2	-0.036797293
110	0x3ecf5323	0.40493116
111	0xbe09c389	-0.13453497
112	0x3fa8ebde	1.3196981
113	0xbddded61	-0.10836292
114	0x3d6fedbc	0.05857633
115	0xbe61b9e6	-0.22043571
116	0x3e22ff3c	0.15917677
117	0xbd148d23	-0.03626741
118	0x3e4bb224	0.19892174
119	0xbf7e4d87	-0.9933705
120	0xbd0ef985	-0.03490593
121	0xbd0a9152	-0.033829994
122	0xbd74b98d	-0.059747268
123	0x3c4e8b6b	0.012606482
124	0xbce0e8da	-0.027454782
125	0xbd6ca062	-0.05777014
126	0x3ea3fd96	0.32029408
127	0xbc8ce17c	-0.017197363
128	0x3eef9662	0.4679442
129	0xbd8511a8	-0.06497508
130	0x3de57f59	0.1120593
131	0xbdf0e16d	-0.117617466
132	0x3e0f37d1	0.13986136
133	0xbf524f13	-0.8215191
134	0xbe0c9756	-0.13729605
135	0xbd7953a2	-0.060870774
136	0x3d6d93ea	0.05800239
137	0x3e3a97aa	0.18221918
138	0xbdcf39bb	-0.10118433
139	0x3d370b94	0.044688776
140	0x3d5c6fe3	0.05381764
141	0x3dd55e0b	0.10418328
142	0x3e3f9bcb	0.18711774
143	0xbd1fcf90	-0.039016306
144	0x3e71c7e8	0.23611414
145	0x3e9eeb0f	0.3103871
146	0x3e06f6db	0.13180105
147	0xbd22a0ec	-0.03970425
148	0x3e65f5d7	0.22457062
149	0x3e576c9f	0.2103753
150	0xbd8a72c9	-0.06760175
151	0x3dfebf1c	0.12438795
152	0xbd96dfe9	-0.07366926
153	0x3e7edd4a	0.24889103
154	0xbaf0f474	-0.00183834
155	0xbe06073b	-0.13088696
156	0x3dfdf0b6	0.123994276
157	0x3dc38a98	0.09547919
158	0x3e3d789c	0.1850304
159	0x3c2e1013	0.01062395
160	0xbd993daf	-0.07482468
161	0x3e4957ce	0.19662401
162	0xbce349de	-0.027745184
163	0x3dbfffc8	0.09374958
164	0xbe18da78	-0.14927089
165	0x3d298fea	0.041397013
166	0xbeba8fb7	-0.3643777
167	0xbd752465	-0.05984916
168	0xbcad5e86	-0.021163236
169	0x3db2c4ce	0.08728944
170	0x3ea4d2d9	0.32192114
171	0x3c3a8efe	0.011386631
172	0x3eb0e176	0.34547013
173	0x3d08b9e1	0.033380393
174	0x3d9dd79a	0.07707138
175	0xbbe4664c	-0.0069702026
176	0xbe144d08	-0.1448251
177	0xbcd8cb2e	-0.026464071
178	0x3e9d85b3	0.30766067
179	0x3e1a97d0	0.15096974
180	0xbc9bc0c1	-0.01901281
181	0xbfad7719	-1.3551971
182	0x3e533c4c	0.2062847
183	0x3e458b16	0.19291338
184	0x3c84d282	0.01621366
185	0xbf9cc246	-1.2246788
186	0xbe46af51	-0.19402815
187	0x3da25296	0.07925908
188	0x3dda56b3	0.10661068
189	0x3df274df	0.11838698
190	0xbe2aecdf	-0.16691922
191	0x3d4dc3ad	0.05023544
192	0xbd9faa25	-0.07796124
193	0x3f8df0e1	1.1089135
194	0xbdf31b67	-0.11870461
195	0x3df072c9	0.117406435
196	0x3dc67877	0.096909456
197	0x3afbc119	0.0019207328
198	0xbca3de33	-0.020003414
199	0xbe083bbe	-0.1330404
200	0xbcedc877	-0.029026253
201	0x3d299fe2	0.04141224
202	0xbc6ebdf0	-0.014571652
203	0xbe1d6e5a	-0.15374127
204	0x3e063233	0.13105087
205	0xbdcd2277	-0.10016339
206	0x3d8c5ab4	0.06853238
207	0xbdaa30c0	-0.083100796
208	0x3e6fbb14	0.23411208
209	0xbd973efc	-0.0738506
210	0x3d68b4be	0.056812994
211	0x3e6d154a	0.23152652
212	0x3e0591e2	0.13043931
213	0x3cb33488	0.021875635
214	0x3c7927d0	0.015207246
215	0xbdff407f	-0.124634735
216	0x3d9d1fda	0.07672091
217	0xbe09a0d7	-0.13440262
218	0x3dd34a83	0.10316946
219	0x3c2137b6	0.009839943
220	0xbd0ccc6f	-0.03437465
221	0xbd7bd78f	-0.06148487
222	0xbc86fec8	-0.016478911
223	0x3e136cb1	0.14396931
224	0xbc845de7	-0.016158057
225	0x3e71e298	0.23621595
226	0x3e314972	0.17313173
227	0xbe92d344	-0.28676808
228	0xbe1236a9	-0.14278664
229	0x3e29713f	0.16547106
230	0xba8dd277	-0.001082017
231	0xbbbf855b	-0.0058447546
232	0xbe5242a0	-0.20533228
233	0x3decbe2a	0.115597084
234	0xbe5f978a	-0.21835151
235	0xbc0e4578	-0.008683555
236	0xbdd68ef6	-0.104764864
237	0x3e83a051	0.2570825
238	0x3f684083	0.9072344
239	0xbe15aff9	-0.1461791
240	0xbe40641a	-0.18788186
241	0x3c2115f4	0.009831894
242	0xbe237f32	-0.1596649
243	0xbc69b1a1	-0.014263541
244	0x3e7b97e1	0.24569656
245	0x3da49eea	0.08038123
246	0x3e581e83	0.2110539
247	0x3ea10410	0.31448412
248	0xbc31f815	-0.01086237
249	0x3e67b997	0.2262939
250	0x3dd9a5c1	0.10627318
251	0x3e7aae26	0.24480495
252	0x3db41025	0.08792142
253	0xbd190ed7	-0.037367668
254	0x3efe58f7	0.4967725
255	0x3d446be3	0.04795445

VAE_Decoder.layers.1.linear1.bias f4 [4]
0	0xbb8fbf5f	-0.004386827
1	0xbd9a49d2	-0.07533611
2	0x3dcf321c	0.101169795
3	0x3c69066d	0.014222723

VAE_Decoder.layers.1.norm1.weight f4 [4]
0	0x3fe5ff49	1.7968532
1	0x3fd4230c	1.6573195
2	0x3fcd7ff6	1.6054676
3	0x3fa75e70	1.3075695

VAE_Decoder.layers.1.norm1.bias f4 [4]
0	0x3e8d1b23	0.27559766
1	0x3e098d72	0.13432863
2	0x3d9847e0	0.07435584
3	0xbc9baf52	-0.019004498

VAE_Decoder.layers.1.norm0.weight f4 [4]
0	0x3f387ff2	0.7207023
1	0x3f726adc	0.94694304
2	0x3f91936a	1.1373112
3	0x3f320dc7	0.6955227

VAE_Decoder.layers.1.norm0.bias f4 [4]
0	0xbd4f53eb	-0.05061714
1	0xbd011a7d	-0.0315194
2	0xbc9f7442	-0.019464616
3	0xbd3d1746	-0.046164773

VAE_Decoder.last_normalization.weight f4 [4]
0	0x3f800000	1.0
1	0x3f800000	1.0
2	0x3f800000	1.0
3	0x3f800000	1.0

VAE_Decoder.last_normalization.bias f4 [4]
0	0x00000000	0.0
1	0x00000000	0.0
2	0x00000000	0.0
3	0x00000000	0.0

VAE_Decoder.head.weight f4 [4, 4]
0	0xbdee14f8	-0.11625093
1	0x3ed249a2	0.41071802
2	0x3eae1c90	0.34006166
3	0x3e910f24	0.28331864
4	0xbdf83d50	-0.121210694
5	0x3ebed384	0.3727075
6	0x3e21171c	0.15731472
7	0xbe948d18	-0.29013896
8	0xbeb9b938	-0.36274123
9	0x3e71f6fc	0.23629373
10	0x3ef04628	0.46928525
11	0x3edcf22c	0.43153512
12	0xbe991c44	-0.29904377
13	0xbe42ad5c	-0.19011444
14	0xbe5b742c	-0.21431035
15	0x3e2085a0	0.15675974

VAE_Decoder.head.bias f4 [4]
0	0xbd121fb0	-0.03567475
1	0xbb9ecc00	-0.004846096
2	0xbee0827a	-0.43849546
3	0xbe2859f0	-0.16440558

Detokenizer.weight f4 [6, 4]
0	0x3e16d6b9	0.14730348
1	0xbeb743ea	-0.35794002
2	0xbec192e0	-0.3780737
3	0xbd0ff68a	-0.035147227
4	0xbdd1b836	-0.102402136
5	0xbe7af6b1	-0.24508168
6	0xbed6e69c	-0.41972816
7	0x3ec1a137	0.3781831
8	0xbde2e033	-0.11077919
9	0xbdfb96b0	-0.12284601
10	0xbe829f99	-0.25512388
11	0x3e09221d	0.1339192
12	0x3e9a4e91	0.30138066
13	0x3e381f83	0.17980771
14	0xbe8f88ab	-0.28033957
15	0xbed89f42	-0.42309004
16	0xbd9e6011	-0.07733167
17	0x3eba090d	0.3633503
18	0x3ef36a34	0.47541964
19	0xbe766c2e	-0.24064705
20	0xbd511814	-0.051048353
21	0xbd793381	-0.060840134
22	0x3ea39a9e	0.319539
23	0x3daad3b6	0.08341162

Detokenizer.cat_recons.0.weight f4 [2, 4]
0	0x3f0b6684	0.544533
1	0xbe497b26	-0.19675884
2	0x3e827b71	0.25484803
3	0xbebf85b1	-0.37406686
4	0x3f38d836	0.7220491
5	0xbbf3921b	-0.0074331886
6	0xbf42895b	-0.7599084
7	0x3f2bd2b8	0.67118406

Detokenizer.cat_recons.0.bias f4 [2]
0	0xbe15ff9e	-0.14648291
1	0xbed82774	-0.422176

Detokenizer.cat_recons.1.weight f4 [9, 4]
0	0xbf334ffc	-0.7004392
1	0xbe4cdc4f	-0.20005916
2	0x3e821127	0.2540371
3	0xbd4bd5a5	-0.049764294
4	0xbdef8b56	-0.11696498
5	0x3eabab40	0.3352909
6	0xbeb65f9e	-0.35619825
7	0xbee47275	-0.44618574
8	0xbef13cbb	-0.47116646
9	0xbef9196e	-0.48652214
10	0xbf0f2933	-0.5592224
11	0x3f679b04	0.9047091
12	0x3ec85264	0.3912536
13	0xbe34b5ff	-0.17647551
14	0xbdd49cef	-0.10381495
15	0x3f0cb964	0.54970384
16	0x3e3922e9	0.18079723
17	0xbf0c067e	-0.54697406
18	0xbc0cc58f	-0.0085920235
19	0xbe18bdf1	-0.14916207
20	0xbf19986c	-0.599982
21	0x3f24723e	0.6423682
22	0xbcf2a1c6	-0.029618155
23	0x3e87432f	0.26418445
24	0x3e3cdd64	0.18443829
25	0x3f256f22	0.646227
26	0xbf5ad2fa	-0.85478175
27	0x3f1fe7ad	0.62462884
28	0x3f2343c9	0.63775307
29	0x3e7a1d65	0.24425276
30	0xbe32e6b7	-0.17470823
31	0x3e7a9380	0.2447033
32	0x3ec87308	0.39150262
33	0xbe0ad2ea	-0.1355702
34	0xbf021b88	-0.5082326
35	0xbe833ccd	-0.25632325

Detokenizer.cat_recons.1.bias f4 [9]
0	0xbe57f20f	-0.21088432
1	0xbebf08bf	-0.3731136
2	0xbe0aa3f0	-0.135391
3	0xbdcca0a4	-0.09991577
4	0xbdf3ec95	-0.11910359
5	0x3afe1b4e	0.00193868
6	0x3e42ef40	0.19036579
7	0x3d4334cc	0.047657773
8	0xbf1f2360	-0.6216335

Detokenizer.cat_recons.2.weight f4 [16, 4]
0	0x3f6ec9a7	0.9327645
1	0x3e068e60	0.13140249
2	0x3d8268d5	0.063676514
3	0xbb9a03fd	-0.0047001825
4	0xbe27b3ac	-0.16377133
5	0xbe9d7892	-0.3075605
6	0xbf51b2f1	-0.8191367
7	0x3f9b8bf9	1.2152091
8	0xbf686745	-0.90782577
9	0x3d8e07b0	0.0693506
10	0xbf0f9da9	-0.56099945
11	0xbeb133b1	-0.3460975
12	0x3e4e6fbf	0.20159815
13	0x3f79f75a	0.97643054
14	0x3f3313e8	0.6995225
15	0x3f182725	0.5943473
16	0x3f393b0d	0.7235573
17	0x3e79a247	0.2437831
18	0xbdf87bd0	-0.1213299
19	0x3f6a4840	0.91516495
20	0xbf1fe68c	-0.6246116
21	0x3f1dab1e	0.6158923
22	0x3e671a23	0.22568564
23	0xbf1d7308	-0.6150365
24	0x3f2f8938	0.68568754
25	0x3effe4b2	0.49979168
26	0xbf96ffea	-1.1796849
27	0x3bf4cf9c	0.007471038
28	0x3e8cba0b	0.2748569
29	0xbe87e25c	-0.26539886
30	0x3f4a67a0	0.7906437
31	0xbec73953	-0.38910922
32	0xbeac29cf	-0.33625647
33	0xbc89609d	-0.016769702
34	0x3e226ba8	0.1586138
35	0xbf586bbc	-0.8453939
36	0x3e402dda	0.18767491
37	0x3f67fb3f	0.90617746
38	0xbed47b5e	-0.41500372
39	0xbf21ef11	-0.6325541
40	0xbf6c5572	-0.9231788
41	0x3ea7c71a	0.3276909
42	0xbe1d3729	-0.15353073
43	0x3f07291f	0.5279712
44	0x3f196603	0.5992128
45	0xbedb258b	-0.4280208
46	0x3f08b6be	0.5340384
47	0x3f19d4b8	0.6009021
48	0x3f07db80	0.53069305
49	0x3e5bdcb8	0.21470916
50	0xbd8b670f	-0.06806766
51	0xbf336f16	-0.7009138
52	0xbf121b58	-0.57072973
53	0x3f67b8a3	0.9051611
54	0x3e19f566	0.15035018
55	0x3dd35349	0.1031862
56	0xbcdc681e	-0.026905116
57	0x3f11d9dc	0.5697305
58	0xbf95ac7a	-1.1693261
59	0x3f631ea6	0.8871864
60	0xbecbf8a0	-0.39838123
61	0xbf398545	-0.7246898
62	0xbe6ab3ab	-0.229201
63	0x3dafd8ad	0.085862495

Detokenizer.cat_recons.2.bias f4 [16]
0	0xbf17006f	-0.58985037
1	0x3ed3c6b6	0.41362542
2	0xbee98a7b	-0.45613465
3	0x3e61ead4	0.22062236
4	0xbf2e070d	-0.6797951
5	0x3eb5f262	0.35536486
6	0xbf1580a6	-0.58399427
7	0xbec2e66c	-0.38066423
8	0xbd8ec227	-0.06970625
9	0xbe031cad	-0.12803908
10	0x3e85e206	0.26149005
11	0x3e8a37de	0.26995748
12	0xbe751dc8	-0.23937142
13	0xbbf08a4c	-0.007340705
14	0xbf38d0ed	-0.72193795
15	0x3e46cdcb	0.19414441

Detokenizer.cat_recons.3.weight f4 [7, 4]
0	0x3ec78632	0.3896957
1	0x3eaf71dc	0.34266555
2	0x3e745e94	0.23864204
3	0xbedac0c7	-0.42725202
4	0xbe082568	-0.1329552
5	0xbe29801a	-0.16552773
6	0xbef7b8d8	-0.48383212
7	0xbeafef44	-0.34362233
8	0xbf169bba	-0.5883137
9	0x3f22c80e	0.6358651
10	0x3eb5b96c	0.35493028
11	0x3e98aa03	0.2981721
12	0xbf4da28b	-0.80326146
13	0xbdce3003	-0.10067751
14	0xbefb5ff3	-0.4909664
15	0xbddf1afe	-0.1089382
16	0x3f1d694e	0.6148881
17	0x3e077d07	0.13231288
18	0xbec21349	-0.37905338
19	0x3ea2a9d0	0.31770182
20	0xbf412fbc	-0.7546346
21	0xbe64d599	-0.22347106
22	0xbefa2b26	-0.48861045
23	0x3f3a1581	0.7268906
24	0x3d7f3f98	0.062316507
25	0xbeec36cb	-0.46135554
26	0xbedcfd55	-0.43162027
27	0x3e08c74b	0.13357274

Detokenizer.cat_recons.3.bias f4 [7]
0	0xbb3d6d51	-0.002890427
1	0x3e6cd5f5	0.23128493
2	0x3eed0896	0.46295613
3	0xbf049ffe	-0.5180663
4	0xbcdf3bfe	-0.027250286
5	0xbe98e038	-0.29858565
6	0x3ec2ab9b	0.3802155

Detokenizer.cat_recons.4.weight f4 [15, 4]
0	0x3ee27b31	0.44234613
1	0xbeb1261d	-0.3459939
2	0x3ebd8a27	0.37019464
3	0x3f40dda5	0.753382
4	0x3df01c49	0.11724145
5	0x3f4d9369	0.80303055
6	0xbd900502	-0.07032205
7	0x3ef6a104	0.4816972
8	0xbf630499	-0.8867889
9	0x3e8ab508	0.2709124
10	0x3f4c5c65	0.7982848
11	0xbebb370e	-0.3656544
12	0xbeaa78a7	-0.33295175
13	0x3f527082	0.82202923
14	0x3ee09a5a	0.4386776
15	0xbec5bab0	-0.38618994
16	0x3f08bcdf	0.53413194
17	0x3eeff0ff	0.46863553
18	0xbf555e17	-0.83346695
19	0xbf02488b	-0.5089194
20	0xbe5dae1d	-0.2164845
21	0x3e20a685	0.15688522
22	0xbe947f30	-0.29003286
23	0x3fa43a2d	1.2830254
24	0xbf319f79	-0.6938396
25	0xbf5473fb	-0.8298947
26	0xbf53b533	-0.82698363
27	0x3f37a88f	0.71741575
28	0xbf85468d	-1.0412155
29	0x3e8a98b0	0.27069616
30	0x3e26f481	0.16304208
31	0x3ed94397	0.4243438
32	0x3da0ddac	0.078547806
33	0xbe8ec53e	-0.2788486
34	0x3eff8d08	0.49912286
35	0xbf36dd48	-0.714314
36	0xbf81f965	-1.0154234
37	0xbe9d1180	-0.30677414
38	0xbf1b5942	-0.6068307
39	0xbe31b299	-0.17353286
40	0xbf385b05	-0.72013885
41	0xbe465aff	-0.1937065
42	0x3eb4981f	0.3527231
43	0xbf4531e1	-0.77029234
44	0xbd8d5734	-0.06901398
45	0xbf51263f	-0.81698984
46	0xbe53c810	-0.20681787
47	0xbe16215f	-0.14661168
48	0x3f3d0278	0.7383189
49	0xbe0d2b6a	-0.13786092
50	0xbd915f0a	-0.070982054
51	0xbe801ebf	-0.25023457
52	0x3f2f4f1e	0.684801
53	0x3cf866e1	0.030322494
54	0xbfa6332c	-1.2984366
55	0x3f27abbb	0.65496415
56	0x3df6187c	0.12016389
57	0x3eaeef72	0.34167057
58	0x3d51074c	0.05103235
59	0xbf6c83a9	-0.923884

Detokenizer.cat_recons.4.bias f4 [15]
0	0x3ed617ee	0.41815132
1	0xbe743ffc	-0.23852533
2	0xbf07d8e0	-0.530653
3	0x3e79e2c8	0.24402916
4	0xbe27b9b6	-0.16379437
5	0x3e93a601	0.28837588
6	0xbdf090d5	-0.117463745
7	0xbcdc01b9	-0.02685629
8	0xbeb39989	-0.35078076
9	0xbea3697d	-0.3191642
10	0xbe23e74f	-0.16006206
11	0xbe469908	-0.19394314
12	0xbecc398c	-0.39887655
13	0xbee8079d	-0.45318308
14	0x3cb1ffad	0.021728361

Detokenizer.cat_recons.5.weight f4 [6, 4]
0	0xbf14899d	-0.5802248
1	0x3f0af9e5	0.5428756
2	0x3f202b56	0.62566125
3	0x3e9ddb81	0.3083153
4	0x3f0eaad1	0.55729395
5	0x3edcc0ad	0.4311575
6	0x3e98d51d	0.29850093
7	0xbe173e6f	-0.1476991
8	0x3f01197b	0.50429505
9	0x3d24f513	0.040272783
10	0xbf8b3f84	-1.0878758
11	0x3f0166f7	0.50547737
12	0x3e2b4649	0.1672603
13	0xbf4a2458	-0.78961706
14	0xbf0f4260	-0.55960655
15	0x3f5c871d	0.86143667
16	0xbf47f2f0	-0.7810507
17	0xbec3bd7c	-0.38230503
18	0xbebca6b1	-0.36845925
19	0x3e9d79c4	0.30756962
20	0x3f19c352	0.6006366
21	0xbf082abe	-0.5319022
22	0xbf15224e	-0.5825547
23	0xbdf16e49	-0.11788613

Detokenizer.cat_recons.5.bias f4 [6]
0	0x3e9a6c8a	0.30160934
1	0xbd0bd535	-0.034138877
2	0xbeeea7c4	-0.4661237
3	0x3c8f3414	0.017480887
4	0x3e8a005d	0.26953402
5	0x3ebe0396	0.3711211

Detokenizer.cat_recons.6.weight f4 [5, 4]
0	0x3e41de2a	0.18932405
1	0x3ee1469d	0.43999186
2	0x3db374b7	0.08762496
3	0xbe848dba	-0.2588938
4	0xbe491ad3	-0.19639139
5	0xbc2658ea	-0.010153035
6	0xbd78b124	-0.06071581
7	0xbed9b50f	-0.4252095
8	0x3e214585	0.15749176
9	0x3f1c0a42	0.6095315
10	0xbd930470	-0.07178581
11	0x3effbc30	0.49948263
12	0x3ecb2530	0.3967681
13	0x3d6be912	0.05759532
14	0xbe88228c	-0.26588857
15	0xbe7f215f	-0.24915074
16	0xbdf42a2c	-0.11922106
17	0xbee5bc1d	-0.44870082
18	0xbebe2856	-0.3714015
19	0x3ed630a6	0.4183399

Detokenizer.cat_recons.6.bias f4 [5]
0	0x3cc238ad	0.023708666
1	0xbf2809d3	-0.6563999
2	0xbed91c4a	-0.42404395
3	0xbe9d4d76	-0.3072316
4	0xbe32e602	-0.17470554

Detokenizer.cat_recons.7.weight f4 [2, 4]
0	0xbf20c274	-0.6279671
1	0x3f003caa	0.50092566
2	0x3f174937	0.5909609
3	0xbf4c3cbc	-0.79780173
4	0x3ea9f6d7	0.33196136
5	0x3f0d234f	0.55132
6	0x3ef381d3	0.47559986
7	0x3eacb4ac	0.33731592

Detokenizer.cat_recons.7.bias f4 [2]
0	0xbe873d40	-0.26413918
1	0xbea99071	-0.33118013
