tabsyn/vae/ckpt/adult/encoder.pt (torch, 23856 bytes, 33 tensors)

Tokenizer.weight f4 [7, 4]
-0.44890207 0.23447613 -0.26566938 0.02202589 -0.01395323 0.16515328 0.27291906 -0.10445351
0.09324978 0.093205586 0.016369063 0.1807622 -0.14493507 -0.19859938 -0.06559399 0.030878255
0.21844095 -0.23530672 -0.118138395 0.30940962 0.38756597 0.42812884 0.118256055 -0.05937125
-0.19654997 -0.1514245 0.19943711 0.016085237
00000000: 7ed6 e5be 831a 703e d105 88be a46f b43c
00000010: 179c 64bc f11d 293e 0cbc 8b3e b9eb d5bd
00000020: bef9 be3d 92e2 be3d 6a18 863c ba19 393e
00000030: dc69 14be a35d 4bbe 2456 86bd 65f4 fc3c
00000040: fcae 5f3e 3ff4 70be 8bf2 f1bd f06a 9e3e
00000050: 0c6f c63e b433 db3e 3b30 f23d 452f 73bd
00000060: 6544 49be 060f 1bbe 3e39 4c3e 30c5 833c

Tokenizer.bias f4 [15, 4]
-0.40750018 -0.5961343 -0.18161653 0.38800108 0.19947271 0.29249528 -0.15648308 -0.40768877
-0.29759943 0.19236335 0.49788892 0.040055636 0.251764 -0.29236898 -0.284709 0.20383106
-0.070250876 0.24666403 0.15134764 0.17924534 0.37448436 -0.34521517 0.42766786 -0.85892004
0.34046116 -0.61515856 0.06508808 -0.05796665 0.44135755 -0.31172046 -0.12587492 -0.21020982
0.4066495 -0.53995067 -0.022022711 -0.2054501 0.34276047 0.32614753 0.2635477 0.21060543
0.34774125 -0.5054952 -0.069883645 -0.23517655 -0.3117589 0.18362105 0.19230786 0.23640463
0.34360385 -0.02453105 0.18977913 -0.3999635 -0.0861305 -0.116964184 0.17155306 0.05630576
0.47342739 0.051381126 -0.019253233 -0.43631098
00000000: dda3 d0be 429c 18bf aff9 39be 14a8 c63e
00000010: 9342 4c3e f1c1 953e 1a3d 20be 95bc d0be
00000020: f45e 98be e6fa 443e 4ceb fe3e 6111 243d
00000030: 36e7 803e 63b1 95be 61c5 91be 17b9 503e
00000040: b1df 8fbd 7f95 7c3e e0fa 1a3e 178c 373e
00000050: 6abc bf3e 0bc0 b0be 48f7 da3e 2fe2 5bbf
00000060: ed50 ae3e 087b 1dbf e64c 853d 706e 6dbd
00000070: 9ef9 e13e d399 9fbe 5be5 00be 3e41 57be
00000080: 5d34 d03e 353a 0abf f968 b4bc 8361 52be
00000090: 4d7e af3e cffc a63e b9ef 863e f3a8 573e
000000a0: 240b b23e 2268 01bf 281f 8fbd 1fd2 70be
000000b0: dd9e 9fbe 2807 3c3e 5aec 443e 0e14 723e
000000c0: d8ec af3e 57f5 c8bc 7655 423e 04c8 ccbe
000000d0: 3065 b0bd eb8a efbd 9bab 2f3e dea0 663d
000000e0: 1365 f23e 0475 523d f5b8 9dbc 2764 dfbe

Tokenizer.category_embeddings.weight f4 [104, 4]
0.4015621 0.23158148 0.3924878 -0.012579004 0.20529014 -0.118161015 -0.3692236 0.26662213
-0.14830571 0.20711893 0.5738562 -0.22142784 -0.10121031 -0.065017916 -0.04267474 -0.20644052
-0.5000508 0.19012453 0.42131 -0.059535183 -0.26999977 -0.4225972 0.26806837 0.35971498
0.17762494 -0.21674828 0.4221479 0.03275486 -0.34339398 -0.0712196 -0.13903916 0.1749163
0.303766 0.3480755 0.036072362 -0.007686424 0.44318306 -0.1601125 0.06574774 0.37160367
-0.07795616 -0.551468 -0.3126862 -0.47610518 0.31984165 -0.5956574 -0.187721 0.4294665
-0.629389 0.43313688 0.2396708 0.2965543 -0.41123956 0.20839985 -0.05641142 -0.23369619
-0.3855928 0.8851715 0.08621503 -0.11062091 0.3421715 -0.9114205 0.12717406 1.4873099
-0.1604689 0.1698062 -0.12264853 -0.33569646 0.4442288 0.14532138 -0.3709489 0.06302193
0.14804679 -0.0768097 0.11744383 -0.0034037353 -0.20989421 -0.22441782 -0.020379439 -0.6567548
0.26580834 0.29409865 -0.1158038 -0.20881361 -0.54498905 0.40892205 -0.25281793 0.5139698
-0.052966338 -0.3955443 0.3996312 0.17606923 0.22391106 -0.08071484 -0.14935312 -0.31914186
-0.48592484 0.016917001 -0.42219874 -0.04510238 -0.5717451 0.4470414 -0.8695026 0.6032421
-0.23646702 0.04428892 0.54945594 -0.3624834 -0.40993497 0.09176645 -0.24726035 0.016792702
-0.10779467 -0.5268426 -0.31098577 -0.23758912 -0.3376558 0.03705758 -0.35555604 0.15317118
0.058358625 -0.31145698 -0.0029227575 -0.25179932 -0.24125871 0.07914017 0.20907736 -0.0026277266
-0.29971552 -0.25520164 -0.07302513 0.105032496 0.23414563 -0.77793527 0.06501794 0.012210712
0.059749547 -0.32342315 0.42969686 0.3518253 -0.28427094 0.8206049 -0.066536166 0.5183144
-0.21110271 0.9306762 0.38186055 0.0058545847 0.26240924 0.5440148 0.13098876 0.06278567
0.35665601 -0.00848752 -0.26881084 -0.14326292 -0.28042284 -0.61770386 -0.52014524 0.80783373
-0.54910606 0.07702891 -0.05338619 -0.14458671 -0.75417435 0.14723404 -0.51906854 0.11305124
0.1952029 0.06639477 0.13964826 0.07143872 -0.5683214 0.13307415 -0.0071910494 -0.48121032
0.0466871 0.05910902 0.30025432 -0.42997634 -0.35845506 -0.55165756 -0.19534409 -0.32340744
0.39065617 -0.5459816 -0.06766457 0.40892756 0.48246232 -0.06749419 -0.7251162 0.4338228
0.24020684 0.0023912326 -0.044113234 -0.45720914 0.07388741 0.35379583 -0.37878132 0.18379779
0.0034974196 0.43192223 -0.31819615 -0.16313864 0.06568466 -0.09514667 0.01260347 -0.21991402
0.29138643 -0.44641227 -0.05473593 -0.37830955 -0.018633597 -0.14324959 -0.25907192 -0.11146513
-0.109882824 0.3813411 0.005780264 -0.4691454 0.8079338 0.18452147 0.13925889 0.10932219
0.076389976 -0.448371 0.022062376 -0.14341986 -0.32567096 0.44509697 -0.07751523 -0.06384247
0.1200386 -0.5142849 -0.2690317 0.357423 -0.24959084 -0.3270904 0.47965038 0.079447635
0.3686978 -0.2951829 0.0019709275 -0.3775237 -0.33115432 -0.1496861 0.06740763 -0.41193312
-0.3726352 0.22574505 0.117941946 0.45904732 0.702062 -0.5033453 -0.33296332 -0.8890786
00000000: 8c99 cd3e b223 6d3e 29f4 c83e 2b18 4ebc
00000010: 9437 523e 67fe f1bd e00a bdbe b282 883e
00000020: 74dd 17be fc16 543e 3de8 123f fbbd 62be
00000030: 5a47 cfbd 1d28 85bd b5cb 2ebd 2565 53be
00000040: 5403 00bf 01b0 423e f2b5 d73e 2adb 73bd
00000050: 693d 8abe a95e d8be 4240 893e 902c b83e
00000060: 50e3 353e 43f3 5dbe c523 d83e f629 063d
00000070: 56d1 afbe 95db 91bd 4860 0ebe 421d 333e
00000080: 3887 9b3e f436 b23e 9dc0 133d 66de fbbb
00000090: e4e8 e23e 88f4 23be c0a6 863d d642 be3e
000000a0: 7ba7 9fbd 022d 0dbf 6818 a0be 0fc4 f3be
000000b0: 49c2 a33e 017d 18bf ef39 40be 08e3 db3e
000000c0: a31f 21bf 1ec4 dd3e 436c 753e f7d5 973e
000000d0: fe8d d2be c566 553e a90f 67bd 0e4e 6fbe
000000e0: 6b6c c5be 999a 623f 8191 b03d 378d e2bd
000000f0: 1a31 af3e db52 69bf eb39 023e 2c60 be3f
00000100: f651 24be ade1 2d3e 272f fbbd 68e0 abbe
00000110: f571 e33e 21cf 143e 04ed bdbe a411 813d
00000120: 9499 173e 674e 9dbd 6486 f03d 3411 5fbb
00000130: 82ee 56be c9cd 65be c8f2 a6bc 1521 28bf
00000140: 0818 883e 1994 963e 8b2a edbd 3cd3 55be
00000150: 6784 0bbf 3b5e d13e 5a71 81be 8693 033f
00000160: 3bf3 58bd c884 cabe 769c cc3e 7e4b 343e
00000170: f148 653e d24d a5bd 06f0 18be 9066 a3be
00000180: 24cb f8be 8695 8a3c 6f2a d8be 46bd 38bd
00000190: e35d 12bf 9ce2 e43e b997 5ebf 136e 1a3f
000001a0: 6924 72be 4c68 353d 25a9 0c3f 6d97 b9be
000001b0: ffe2 d1be 0cf0 bb3d d131 7dbe d990 893c
000001c0: 74c3 dcbd 28df 06bf 8739 9fbe 904a 73be
000001d0: 39e1 acbe b0c9 173d 710b b6be e8d8 1c3e
000001e0: 7409 6f3d 4a77 9fbe bc8b 3fbb d7eb 80be
000001f0: 860c 77be 3e14 a23d 6018 563e f035 2cbb
00000200: 5074 99be caa9 82be 338e 95bd 471b d73d
00000210: dfc3 6f3e c426 47bf 2028 853d 700f 483c
00000220: f1bb 743d b897 a5be 3a01 dc3e 7222 b43e
00000230: f68b 91be 2a13 523f 1d44 88bd 41b0 043f
00000240: 4f2b 58be cc40 6e3f 3a83 c33e d1d7 bf3b
00000250: 815a 863e 8e44 0b3f eb21 063e c695 803d
00000260: 9e9b b63e 3d0f 0bbc 93a1 89be 84b3 12be
00000270: 9593 8fbe d721 1ebf 3d28 05bf 31ce 4e3f
00000280: 3792 0cbf 55c1 9d3d 7aab 5abd 8a0e 14be
00000290: 9211 41bf 85c4 163e ade1 04bf 6987 e73d
000002a0: 45e3 473e fbf9 873d f4ff 0e3e 774e 923d
000002b0: 837d 11bf 9744 083e e5a2 ebbb 3361 f6be
000002c0: f93a 3f3d 4d1c 723d efba 993e dc25 dcbe
000002d0: 6c87 b7be 6e39 0dbf 4808 48be a995 a5be
000002e0: 1604 c83e 73c5 0bbf b993 8abd f45e d13e
000002f0: 4d05 f73e 653a 8abd 37a1 39bf 061e de3e
00000300: c8f8 753e 3ab6 1c3b 14b0 34bd 5117 eabe
00000310: 4852 973d ba24 b53e a0ef c1be 7d35 3c3e
00000320: f734 653b e924 dd3e 9bea a2be d10d 27be
00000330: ae85 863d 42dc c2bd c97e 4e3c 2431 61be
00000340: 9a30 953e 2690 e4be c832 60bd cab1 c1be
00000350: 7ca5 98bc 05b0 12be 13a5 84be d447 e4bd
00000360: 3f0a e1bd 243f c33e 5e68 bd3b d333 f0be
00000370: c0d4 4e3f 32f3 3c3e e299 0e3e 50e4 df3d
00000380: 5972 9c3d e290 e5be 28bc b43c a8dc 12be
00000390: 58be a6be c0e3 e33e 4ec0 9ebd d7bf 82bd
000003a0: ccd6 f53d 2da8 03bf 86be 89be 2600 b73e
000003b0: be94 7fbe 6578 a7be bc94 f53e 71b5 a23d
000003c0: f5c5 bc3e 3722 97be ad2a 013b c94a c1be
000003d0: 0f8d a9be 5047 19be 030d 8a3d e6e8 d2be
000003e0: 0aca bebe b629 673e 8c8b f13d 4008 eb3e
000003f0: 56ba 333f 3ddb 00bf 2b7a aabe a89a 63bf

VAE_Encoder.layers.0.attention.W_q.weight f4 [4, 4]
0.18758948 -0.31630015 0.12104829 0.4261035 0.12773415 0.5291289 0.6083061 0.6224635
0.41613334 -0.44050995 0.3877453 0.2648653 0.56639737 -0.20066988 -0.24553798 0.23915932
00000000: 7517 403e 18f2 a1be 2ae8 f73d 3d2a da3e
00000010: becc 023e fe74 073f f3b9 1b3f c559 1f3f
00000020: 6e0f d53e 858a e1be 8d86 c63e 6d9c 873e
00000030: 6bff 103f 687c 4dbe 4f6e 7bbe 2ee6 743e

VAE_Encoder.layers.0.attention.W_q.bias f4 [4]
-0.015487245 -0.35472742 0.015137645 0.0773861
00000000: 37be 7dbc d59e b5be e303 783c 9b7c 9e3d

VAE_Encoder.layers.0.attention.W_k.weight f4 [4, 4]
0.4940253 -0.21052891 -0.02237052 -0.29909188 0.11528648 0.68902 -0.026752118 0.3208223
-0.1795019 0.016900558 0.21980955 -0.09478048 0.29634658 -0.43684906 0.19864745 -0.35522717
00000000: e2f0 fc3e e494 57be 6142 b7bc 9222 99be
00000010: 511b ec3d 9d63 303f 4227 dbbc d242 a43e
00000020: 59cf 37be 0a73 8a3c c115 613e 451c c2bd
00000030: bdba 973e aeaa dfbe 3d6a 4b3e 56e0 b5be

VAE_Encoder.layers.0.attention.W_k.bias f4 [4]
0.00013363836 0.00029948918 7.98547e-05 0.00017115634
00000000: 4621 0c39 c204 9d39 aa77 a738 6e78 3339

VAE_Encoder.layers.0.attention.W_v.weight f4 [4, 4]
-0.03887882 -0.13943344 -0.15708761 0.10201572 -0.045570277 -0.1566808 -0.1505901 0.11455892
-0.026397163 -0.15096818 -0.14042182 0.10230184 -0.0434689 -0.15826768 -0.16871056 0.12252413
00000000: 663f 1fbd a4c7 0ebe 93db 20be 9eed d03d
00000010: e6a7 3abd ee70 20be 4b34 1abe de9d ea3d
00000020: dd3e d8bc 6797 1abe bdca 0fbe a183 d13d
00000030: 720c 32bd ec10 22be 76c2 2cbe eeed fa3d

VAE_Encoder.layers.0.attention.W_v.bias f4 [4]
-0.039485723 -0.049922112 0.14454177 -0.045096256
00000000: c8bb 21bd 217b 4cbd c202 143e dab6 38bd

VAE_Encoder.layers.0.linear0.weight f4 [128, 4]
0.52174777 0.36505124 -0.36402076 0.38942835 -0.41986284 0.21628334 -0.28253725 -0.5465226
-0.13282472 -0.43881792 -0.52972627 0.369573 0.49114665 -0.19009946 0.42267686 0.09690746
0.30694506 -0.26908305 -0.00013460856 -0.27468854 0.7051861 -0.26673716 0.33843985 0.08349404
-0.055529967 0.21782689 0.22248971 0.016577097 0.2503683 -0.20427263 -0.3174148 -0.46541253
-0.66441864 -0.109452315 -0.25160253 -0.12122416 0.13437556 -0.46299243 -0.3783702 0.21556889
-0.10033151 0.34770307 0.14530632 0.6559957 0.5840464 0.25506195 0.4930302 -0.33812466
0.5060988 -0.46426418 0.21180914 -0.24009767 -0.2892186 -0.11714786 -0.1475749 -0.08162844
-0.34608334 -0.18282002 -0.018985897 -0.24907528 -0.51418686 0.37281525 -0.1378791 -0.32076937
-0.51106733 0.4520941 -0.2694268 -0.5053766 -0.26407194 -0.28093114 0.30772367 -0.29694292
0.13641627 -0.29122803 0.12862587 0.44943544 -0.41834113 0.19640568 -0.046949547 0.37851423
-0.5524912 0.23102456 -0.1452305 0.11017031 0.34444153 0.33536124 -0.22200806 0.042371552
0.078476876 -0.2443982 -0.11754489 0.36901197 0.14708172 0.32783812 -0.20609662 -0.309197
-0.21445693 0.12218643 -0.50655365 -0.2710498 -0.41878983 -0.3099109 -0.20555522 0.6852528
0.23436753 0.021265576 -0.49443012 -0.21343634 -0.57126045 0.2503541 0.03804539 -0.37613887
0.37174925 0.37855273 0.11892874 -0.30698937 0.08166714 -0.30646718 0.36347702 -0.04449302
-0.4520932 0.46023667 -0.41252714 -0.3427496 0.42054838 0.27018002 -0.51293766 0.30306855
0.5358937 0.4888704 -0.614298 0.40162528 -0.07326492 0.20502962 -0.12649389 0.19062743
-0.06967048 0.19095205 0.17412826 0.2598662 -0.47007445 -0.4479222 0.3532897 0.07982455
-0.42229176 -0.4230164 -0.29714635 0.6945839 0.38752064 0.29244936 -0.40918207 0.33234978
-0.31467903 0.1472977 -0.36064455 0.40826333 -0.27748483 -0.28297815 -0.21575904 -0.19911855
0.14055221 -0.09558493 0.3542603 0.1889091 0.16806126 0.09534093 0.15938385 0.05316435
-0.08108806 -0.29572964 0.2691988 -0.09842216 -0.34803423 0.3337192 0.49247265 0.47037354
0.28790215 -0.33017287 -0.35377747 -0.13099578 0.53099585 0.035900656 0.028957764 0.20703387
-0.18412039 0.4353429 -0.10536498 -0.01871884 -0.06712198 0.047886457 -0.06948982 -0.030554306
0.53471285 -0.22268148 0.20410359 -0.27007732 0.17474243 -0.069324404 0.13294788 0.24629316
0.1781735 0.005854468 0.016082559 -0.56346416 -0.11321578 0.16540438 0.48117474 0.26609522
0.41411093 0.38827154 -0.29875547 -0.21170592 -0.5319939 0.34072918 -0.03155403 0.36681616
0.28997183 -0.016204823 -0.37990233 -0.18010965 0.24917252 -0.016607713 -0.37616983 -0.17582524
-0.35143656 -0.03558305 0.25000033 -0.09046954 -0.49459264 0.29330683 0.113155514 0.4031762
0.3262771 0.045974903 -0.5080508 -0.26214036 -0.014649291 -0.33340874 -0.29610077 0.095976405
-0.1163405 0.46608245 0.048251305 0.04182708 -0.42535326 0.17358299 -0.077601515 0.028666664
0.43595284 0.3729585 -0.22045612 0.37030864 -0.1658042 -0.4825628 0.50792724 -0.32664177
00000000: 4391 053f ffe7 ba3e ee60 babe 2763 c73e
00000010: 43f8 d6be 6179 5d3e b9a8 90be e8e8 0bbf
00000020: 3403 08be beac e0be 249c 07bf ac38 bd3e
00000030: 9377 fb3e 6fa9 42be 1a69 d83e 6b77 c63d
00000040: e727 9d3e 41c5 89be b625 0db9 faa3 8cbe
00000050: 1487 343f c691 88be fd47 ad3e ecfe aa3d
00000060: 6473 63bd 030e 5f3e 58d4 633e b1cc 873c
00000070: 4630 803e d82c 51be 3184 a2be 8d4a eebe
00000080: 5717 2abf 8928 e0bd 0cd2 80be 5f44 f8bd
00000090: bf99 093e 580d edbe bdb9 c1be 17be 5c3e
000000a0: 9b7a cdbd 2306 b23e 2ecb 143e 56ef 273f
000000b0: 1184 153f 7b97 823e 746e fc3e ad1e adbe
000000c0: b18f 013f 09b4 edbe 7fe4 583e 2adc 75be
000000d0: 7614 94be 38eb efbd e01d 17be d02c a7bd
000000e0: d631 b1be 2c35 3bbe 5088 9bbc 970d 7fbe
000000f0: c0a1 03bf a4e1 be3e 2e30 0dbe e23b a4be
00000100: 4fd5 02bf e178 e73e 4ff2 89be 5c60 01bf
00000110: 7034 87be 35d6 8fbe f58d 9d3e e708 98be
00000120: b5b0 0b3e d71b 95be 80b6 033e 671c e63e
00000130: cf30 d6be 921e 493e 2b4e 40bd 9ecc c13e
00000140: 1070 0dbf b491 6c3e 4eb7 14be f9a0 e13d
00000150: a45a b03e 78b4 ab3e 1556 63be cb8d 2d3d
00000160: 7cb8 a03d 8643 7abe 60bb f0bd 23ef bc3e
00000170: 979c 163e 66da a73e fe0a 53be 124f 9ebe
00000180: 999a 5bbe e13c fa3d 80ad 01bf 0ac7 8abe
00000190: 9f6b d6be a4ac 9ebe 117d 52be ba6c 2f3f
000001a0: 0bfe 6f3e 2535 ae3c f225 fdbe 0e8f 5abe
000001b0: 203e 12bf 6a2e 803e 7cd5 1b3d 4695 c0be
000001c0: eb55 be3e aad1 c13e e990 f33d b62d 9dbe
000001d0: 1a41 a73d 44e9 9cbe a919 ba3e 503e 36bd
000001e0: c378 e7be 24a4 eb3e c236 d3be e07c afbe
000001f0: 1e52 d73e 0955 8a3e e24f 03bf cd2b 9b3e
00000200: 5430 093f 394d fa3e a242 1dbf d4a1 cd3e
00000210: eb0b 96bd 49f3 513e 9d87 01be d633 433e
00000220: 66af 8ebd ef88 433e ae4e 323e 2f0d 853e
00000230: 99ad f0be 0f56 e5be 63e2 b43e 0e7b a33d
00000240: a036 d8be 9b95 d8be 9123 98be 40d0 313f
00000250: 1b69 c63e ecbb 953e 5080 d1be c029 aa3e
00000260: 9c1d a1be 35d5 163e 67a6 b8be e407 d13e
00000270: 7e12 8ebe 83e2 90be f0ef 5cbe bce5 4bbe
00000280: ebec 0f3e 08c2 c3bd 9b61 b53e 6371 413e
00000290: 4018 2c3e 1b42 c33d 8535 233e ddc2 593d
000002a0: 7f11 a6bd e069 97be 6dd4 893e 8f91 c9bd
000002b0: 8b31 b2be 3edd aa3e 6025 fc3e cdd4 f03e
000002c0: e967 933e 6b0c a9be 5222 b5be c223 06be
000002d0: 58ef 073f 910c 133d d538 ed3c b000 543e
000002e0: 0e8a 3cbe 44e5 de3e 98c9 d7bd 4158 99bc
000002f0: 4077 89bd 9724 443d ae50 8ebd 064d fabc
00000300: f1e2 083f 9d06 64be 8800 513e 9347 8abe
00000310: aeef 323e f4f9 8dbd 7d23 083e 4634 7c3e
00000320: 1d73 363e d6d6 bf3b 92bf 833c 303f 10bf
00000330: addd e7bd c45f 293e 895c f63e a23d 883e
00000340: 5906 d43e 87cb c63e 7af6 98be 70c9 58be
00000350: c130 08bf 0e74 ae3e cc3e 01bd 54cf bb3e
00000360: 3077 943e fabf 84bc 8f82 c2be aa6e 38be
00000370: 1527 7f3e e60c 88bc 5599 c0be 880b 34be
00000380: 7eef b3be 88bf 11bd 0b00 803e 1848 b9bd
00000390: 3f3b fdbe 502c 963e 14be e73d 1c6d ce3e
000003a0: cb0d a73e 2e50 3c3d 9e0f 02bf 4337 86be
000003b0: 9403 70bc 8db4 aabe 859a 97be 478f c43d
000003c0: ee43 eebd 5ca2 ee3e 29a3 453d df52 2b3d
000003d0: e7c7 d9be bdbf 313e 8bed 9ebd 5ad6 ea3c
000003e0: 3635 df3e 6bf4 be3e 40bf 61be 1899 bd3e
000003f0: 94c8 29be 7912 f7be 8507 023f 973d a7be

VAE_Encoder.layers.0.linear0.bias f4 [128]
-0.46320206 -0.33511493 -0.20927185 0.49490967 0.36889434 -0.3274793 0.25932363 0.11485081
0.06230163 0.3975062 -0.19828244 0.2641262 0.45447993 -0.44620436 0.19252226 -0.1347663
0.22739512 0.47029257 -0.32503095 -0.612875 -0.016954169 0.08471917 0.03954909 -0.26127413
0.23750189 0.48768768 0.29022238 0.29143724 0.005450608 0.47346872 0.275912 -0.44642827
-0.33835748 -0.3797458 0.46560535 0.39315745 0.38497493 0.006670571 0.41600212 0.28726274
0.5249173 0.29784477 -0.16916429 0.09868212 -0.29966277 -0.13648246 0.50125796 0.30752376
-0.07370829 -0.44598934 -0.38851026 -0.09443192 -0.17797995 0.17263104 0.32651356 0.27219772
0.17930907 0.30132222 0.27432787 -0.059264094 -0.44773325 0.1085671 -0.24677604 0.18793328
-0.27317506 -0.2967753 -0.11517585 -0.37416548 -0.3057073 0.2918353 -0.053397607 0.32358643
0.50223804 -0.08395639 0.12544839 0.30824202 -0.097420804 0.5187785 0.21703406 -0.036226917
-0.21436836 0.43453768 0.12765127 -0.08736226 0.11525819 -0.3141025 -0.33681878 0.44977167
-0.027595956 0.18430114 -0.118447654 0.15997268 -0.010789426 -0.202306 0.40817693 0.059756495
0.3165571 0.47743714 0.26936552 0.3555792 0.29733333 -0.04902804 -0.05672123 0.07375881
0.29826042 0.4874332 0.003816436 0.35140422 -0.3458887 -0.29027316 -0.33602268 0.12213042
-0.074932344 0.27329937 -0.26082557 0.49570307 -0.18985507 0.28567034 0.20172054 -0.0030680501
0.010847311 0.4154666 -0.15590729 0.49911898 0.23832658 0.13130596 0.27999303 -0.14808203
00000000: d228 edbe 2f94 abbe 5c4b 56be cd64 fd3e
00000010: b8df bc3e 5eab a7be 11c6 843e e736 eb3d
00000020: fe2f 7f3d ef85 cb3e 8d0a 4bbe 8d3b 873e
00000030: 98b1 e83e e674 e4be 8e24 453e 2d00 0abe
00000040: 44da 683e 30ca f03e 756a a6be 60e5 1cbf
00000050: 78e3 8abc 3f81 ad3d 3afe 213d b9c5 85be
00000060: b233 733e 33b2 f93e 0798 943e 4337 953e
00000070: 049b b23b 7e6a f23e 5644 8d3e 3f92 e4be
00000080: 313d adbe 0b6e c2be d363 ee3e ef4b c93e
00000090: 6f1b c53e ce94 da3b 3bfe d43e 1a14 933e
000000a0: fb60 063f 1c7f 983e 6739 2dbe da19 ca3d
000000b0: 666d 99be 0fc2 0bbe 7152 003f c173 9d3e
000000c0: 5ff4 96bd b758 e4be d1ea c6be 8665 c1bd
000000d0: 6040 36be 31c6 303e c92c a73e 805d 8b3e
000000e0: cc9c 373e e846 9a3e b474 8c3e e8be 72bd
000000f0: 4b3d e5be 6d58 de3d dcb2 7cbe 9571 403e
00000100: 9add 8bbe eff2 97be 51e1 ebbd 9e92 bfbe
00000110: ab85 9cbe 706b 953e 73b7 5abd 1fad a53e
00000120: ac92 003f 54f1 abbd 8b75 003e e6d1 9d3e
00000130: 8f84 c7bd abce 043f 2d3e 5e3e ad62 14bd
00000140: 6183 5bbe b97b de3e 04b7 023e fcea b2bd
00000150: 7c0c ec3d 0bd2 a0be 8373 acbe 7948 e63e
00000160: ea10 e2bc 70b9 3c3e af94 f2bd e1cf 233e
00000170: 22c6 30bc 4e29 4fbe 91fc d03e 3ac3 743d
00000180: c613 a23e a472 f43e 47ea 893e 7a0e b63e
00000190: 133c 983e a0d1 48bd 8554 68bd dc0e 973d
000001a0: 97b5 983e d890 f93e 2c1d 7a3b 41eb b33e
000001b0: 5318 b1be af9e 94be 2a0b acbe 831f fa3d
000001c0: 2176 99bd e5ed 8b3e ee8a 85be cbcc fd3e
000001d0: 5e69 42be 6243 923e d48f 4e3e 5711 49bb
000001e0: ebb8 313c 0ab8 d43e 29a6 1fbe 868c ff3e
000001f0: e20b 743e 1275 063e 3f5b 8f3e d1a2 17be

VAE_Encoder.layers.0.linear1.weight f4 [4, 128]
0.2240661 0.08740212 -0.05185639 -0.027982341 0.03703381 -0.14223461 -0.053750493 -0.031968493
0.0019874533 0.11004895 0.22027223 0.02883703 0.07066263 -0.07445509 -0.070774116 0.07406004
0.13313027 -0.054257765 0.11456798 0.19059128 0.062707596 0.06773978 -0.11931892 0.015870713
0.15077887 -0.008254605 0.07103091 0.06782317 0.021117646 -0.073414825 0.003842576 0.13160281
0.037187237 -0.03733254 -0.044882376 -0.06535882 0.051222917 -0.013970349 0.054599363 -0.072533675
0.013212358 0.021251922 -0.004645438 -0.055772185 0.05654525 0.13610078 0.117519416 0.028418027
0.007204384 -0.0043110223 -0.035718095 0.0488541 0.0027024266 0.035544835 0.0005436053 -0.051167075
-0.017041218 0.051433 0.05473464 -0.06902188 0.1449168 0.08449496 0.034342635 -0.10153677
0.05024339 -0.019220047 -0.0077128867 -0.065393455 -0.020368261 0.07017371 -0.13581479 0.01458205
-0.04005057 -0.07725286 -0.03745533 0.005686221 -0.06591159 -0.009532377 -0.094329186 0.020741295
0.01057582 -0.06766889 0.08702433 0.09197027 -0.02554287 0.055872664 -0.0107220905 -0.028390495
-0.024007268 0.053892847 0.062712505 -0.022194033 0.010651381 -0.010361713 0.09243008 -0.060887992
-0.08930931 0.021243647 -0.09910634 -0.0056734453 0.10797167 -0.06419033 0.062000677 0.03988002
-0.05862665 0.03297106 -0.10961077 -0.0053009433 -0.015001099 0.13471037 0.2767366 0.1252466
-0.006666152 -0.1015851 -0.032628357 0.012661993 0.23602636 -0.030961432 -0.016633146 -0.044930287
-0.09451441 -0.0060092933 -0.060039006 0.0636778 -0.0115571525 0.0065432894 0.06378011 0.024378859
-0.17745295 0.069322586 0.13469015 0.0776518 0.049494892 -0.10157528 -0.007099644 0.015809681
-0.0024496072 -0.04733531 0.0017615387 0.10501569 0.14274363 -0.018325534 -0.06484107 -0.089085296
-0.07187915 -0.040564485 0.2104855 -0.0645048 -0.011315466 -0.077262335 0.14634833 0.080033496
-0.015640544 0.17723277 0.05686447 -0.0153553635 0.084257305 0.027634263 0.019207355 -0.18582754
-0.15522642 -0.04775012 0.061673097 -0.061810337 0.14000237 -0.031641267 0.007440016 0.11356434
0.12741444 0.064262114 0.012084448 -0.06371079 -0.19881123 -0.052147094 -0.052706327 0.05920403
0.07465506 -0.17011647 0.26722974 -0.082404375 0.030983942 0.016074423 0.04203924 0.0065149534
-0.04515238 0.005528659 -0.029223127 0.01835986 -0.010548436 0.036181387 -0.10055405 -0.07478153
-0.009258166 -0.017441211 -0.07718228 -0.008065224 -0.10612895 -0.02996674 -0.022435125 0.0056123934
0.11013464 -0.060340326 -0.024076855 0.051613912 0.088072345 0.093587235 -0.012485368 0.050641265
0.20254314 0.06063489 -0.06701841 0.0049960115 0.045475177 -0.13838473 -0.050828572 0.13143213
0.039709467 0.0713974 0.11889245 0.06774382 -0.015466264 -0.07910222 0.03777722 -0.019029232
-0.014093278 0.081078015 -0.036157507 -0.054228257 -0.056975678 0.10402438 0.030118017 0.1301249
0.17378572 -0.07570347 0.026421292 0.020303704 0.012286095 -0.050236966 -0.5241376 -0.015291079
-0.25421068 0.17307131 -0.10280814 0.004927253 0.014528843 -0.057357207 0.007369118 0.007880591
-0.055230383 0.10250038 -0.059520744 0.14601055 0.06524235 0.022953244 0.011237317 0.17722307
00000000: 9571 653e e2ff b23d 5e67 54bd 393b e5bc
00000010: c4b0 173d f3a5 11be 7a29 5cbd 65f1 02bd
00000020: ef3f 023b 5861 e13d 0b8f 613e a33b ec3c
00000030: 92b7 903d e97b 98bd 05f2 90bd caac 973d
00000040: 4d53 083e 643d 5ebd 9ea2 ea3d 5c2a 433e
00000050: d76c 803d 27bb 8a3d 7a5d f4bd 4c03 823c
00000060: c765 1a3e 533e 07bc a778 913d e0e6 8a3d
00000070: eafe ac3c 835a 96bd bad3 7b3b e3c2 063e
00000080: a551 183d 01ea 18bd 95d6 37bd d8da 85bd
00000090: 1fcf 513d e4e3 64bc 95a3 5f3d 898c 94bd
000000a0: a578 583c 8318 ae3c c238 98bb 6071 64bd
000000b0: fe9b 673d 015e 0b3e 05ae f03d eccc e83c
000000c0: c112 ec3b 7a43 8dbb 234d 12bd 3d1b 483d
000000d0: 321b 313b 7697 113d bc80 0e3a 9194 51bd
000000e0: 069a 8bbc 69ab 523d 6e31 603d 585b 8dbd
000000f0: 1265 143e b20b ad3d ddaa 0c3d 83f2 cfbd
00000100: 03cc 4d3d 5c73 9dbc 62bc fcbb 01ed 85bd
00000110: 57db a6bc 3cb7 8f3d 0813 0bbe 8de9 6e3c
00000120: 110c 24bd bf36 9ebd c36a 19bd 7b53 ba3b
00000130: a8fc 86bd b02d 1cbc a92f c1bd a6e9 a93c
00000140: 3446 2d3c fd95 8abd d039 b23d e95a bc3d
00000150: 483f d1bc bcda 643d b5ab 2fbc 2f93 e8bc
00000160: e4aa c4bc bfbe 5c3d 6a6f 803d 43d0 b5bc
00000170: 2183 2e3c 2dc4 29bc fb4b bd3d b065 79bd
00000180: cde7 b6bd 2807 ae3c 44f8 cabd 4fe8 b9bb
00000190: 4020 dd3d 3876 83bd 6cf4 7d3d 3b59 233d
000001a0: 8022 70bd aa0c 073d 9d7b e0bd 89b3 adbb
000001b0: 2bc7 75bc 84f1 093e 6bb0 8d3e a540 003e
000001c0: bc6f dabb d90b d0bd 50a5 05bd 3f74 4f3c
000001d0: e5b0 713e d4a2 fdbc 3c42 88bc d208 38bd
000001e0: c590 c1bd 9be9 c4bb 76eb 75bd 8269 823d
000001f0: 365a 3dbc 1769 d63b 259f 823d 2cb6 c73c
00000200: 3ab6 35be 00f9 8d3d 37ec 093e e807 9f3d
00000210: 28bb 4a3d b306 d0bd 21a4 e8bb 4e83 813c
00000220: 9789 20bb ace2 41bd 6ee3 e63a 7712 d73d
00000230: 632b 123e 6e1f 96bc 65cb 84bd 5a72 b6bd
00000240: 6035 93bd f226 26bd 8389 573e 181b 84bd
00000250: 8164 39bc b73b 9ebd 56dc 153e 9ae8 a33d
00000260: 9920 80bc 827c 353e b8ea 683d 1095 7bbc
00000270: 188f ac3d 4061 e23c be58 9d3c 9349 3ebe
00000280: adf3 1ebe a195 43bd ee9c 7c3d d62c 7dbd
00000290: c85c 0f3e 469a 01bd 61cb f33b 6c94 e83d
000002a0: ee78 023e db9b 833d d9fd 453c cd7a 82bd
000002b0: 2c95 4bbe 3198 55bd 97e2 57bd ed7f 723d
000002c0: c1e4 983d 0333 2ebe 56d2 883e a0c3 a8bd
000002d0: 09d2 fd3c 82ae 833c 5731 2c3d 647b d53b
000002e0: b4f1 38bd c129 b53b 5765 efbc 6b67 963c
000002f0: 59d3 2cbc ef32 143d 48ef cdbd 0f27 99bd
00000300: 90af 17bc dfe0 8ebc be11 9ebd 0024 04bc
00000310: 235a d9bd cf7c f5bc dec9 b7bc 2be8 b73b
00000320: 458e e13d 6b27 77bd d33c c5bc 1c69 533d
00000330: 465f b43d aaaa bf3d 6e8f 4cbc 376d 4f3d
00000340: 7867 4f3e 4a5c 783d f340 89bd 95b5 a33b
00000350: 2e44 3a3d bab4 0dbe 9f31 50bd 2596 063e
00000360: 65a6 223d cd38 923d e37d f33d 46bd 8a3d
00000370: 3766 7dbc 5800 a2bd 49bc 1a3d 31e3 9bbc
00000380: 7ee7 66bc 3b0c a63d e519 14bd 731e 5ebd
00000390: 545f 69bd bc0a d53d 0fba f63c 763f 053e
000003a0: e2f4 313e 6c0a 9bbd 7771 d83c f453 a63c
000003b0: 9e4b 493c 47c5 4dbd e22d 06bf 6f87 7abc
000003c0: e727 82be 9b39 313e 138d d2bd cb74 a13b
000003d0: 620a 6e3c 64ef 6abd a478 f13b 981d 013c
000003e0: 4139 62bd b8eb d13d 06cc 73bd ca83 153e
000003f0: c89d 853d 7108 bc3c b91c 383c f779 353e

VAE_Encoder.layers.0.linear1.bias f4 [4]
-0.06871229 -0.06041318 -0.022222737 -0.05158577
00000000: 07b9 8cbd d073 77bd 750c b6bc 9a4b 53bd

VAE_Encoder.layers.0.norm1.weight f4 [4]
1.1465331 1.091906 1.1740571 1.1749047
00000000: 99c1 923f 93c3 8b3f 8147 963f 4763 963f

VAE_Encoder.layers.0.norm1.bias f4 [4]
-0.002850019 -0.084372714 0.009213316 -0.015432908
00000000: 62c7 3abb 9acb acbd 73f3 163c 4fda 7cbc

VAE_Encoder.layers.1.attention.W_q.weight f4 [4, 4]
0.27361766 0.5989486 -0.49305353 -0.103804894 0.15347014 -0.5770705 -0.19608386 0.048381723
-0.27990177 -0.19294754 -0.012827969 0.25940183 0.36062807 0.17649418 -0.22989175 -0.37978986
00000000: 9d17 8c3e b254 193f 8371 fcbe a997 d4bd
00000010: 4727 1d3e e4ba 13bf 35ca 48be ea2b 463d
00000020: 494f 8fbe 0a94 45be 672c 52bc 51d0 843e
00000030: 3ea4 b83e e4ba 343e be68 6bbe d173 c2be

VAE_Encoder.layers.1.attention.W_q.bias f4 [4]
-0.0028783162 -0.14585082 -0.056779873 0.18782239
00000000: 22a2 3cbb eb59 15be 0392 68bd 8354 403e

VAE_Encoder.layers.1.attention.W_k.weight f4 [4, 4]
-0.38683024 -0.058668528 0.33941513 0.19727696 0.49097273 -0.5013151 -0.78328806 0.2286311
-0.2945282 -0.16667238 -0.45199797 0.10149615 0.22946967 0.071384184 0.5620965 0.066447124
00000000: 9d0e c6be 694e 70bd d2c7 ad3e f902 4a3e
00000010: c760 fb3e 3056 00bf 9185 48bf 451e 6a3e
00000020: 66cc 96be 2aac 2abe 476c e7be 37dd cf3d
00000030: 19fa 6a3e df31 923d 8ee5 0f3f 6e15 883d

VAE_Encoder.layers.1.attention.W_k.bias f4 [4]
0.0013850965 0.00029131369 0.0003718961 -0.0002670134
00000000: 208c b53a 76bb 9839 0dfb c239 effd 8bb9

VAE_Encoder.layers.1.attention.W_v.weight f4 [4, 4]
0.1782833 0.15667464 0.17754234 0.05973762 -0.10408712 -0.29048264 -0.08759568 0.2695904
0.008333838 -0.17260346 0.001009162 0.37251687 0.2313013 0.49287778 0.3637044 -0.3155371
00000000: e68f 363e 516f 203e a9cd 353e 6faf 743d
00000010: a12b d5bd 24ba 94be 5d65 b3bd c107 8a3e
00000020: a68a 083c f6be 30be dc45 843a 88ba be3e
00000030: 3fda 6c3e 7a5a fc3e 7737 ba3e 148e a1be

VAE_Encoder.layers.1.attention.W_v.bias f4 [4]
-0.05929453 -0.023843098 -0.03227779 0.09857152
00000000: d2de 72bd 9a52 c3bc b735 04bd dddf c93d

VAE_Encoder.layers.1.linear0.weight f4 [128, 4]
0.30120337 -0.47999752 0.3608562 -0.30130512 0.29036918 -0.22757997 0.52587855 0.33016273
-0.006906172 0.13605574 0.03158169 -0.08585851 -0.49744418 -0.51012665 -0.05524578 -0.39499602
0.50699997 0.10269978 0.27807224 0.022691129 0.05913589 -0.54627454 0.14833294 0.12687925
-0.36931038 -0.4049954 0.2479324 0.41866046 0.29085657 -0.13873956 -0.048839085 -0.22406843
-0.42647326 0.3619694 -0.23825541 -0.26375744 -0.35572642 0.17485982 -0.03270416 0.3147507
-0.21103963 -0.46124837 0.49770865 0.51859415 0.25556234 -0.42166552 -0.19573635 0.46022132
-0.35971364 -0.094522774 0.50557846 -0.322612 0.4085509 0.06610391 -0.25487283 0.14993341
-0.058819756 0.47262838 0.3354667 0.21885848 -0.34852257 0.023356015 0.61577064 0.08754341
-0.22005197 -0.02266925 0.53989744 -0.22045588 0.07001355 0.5313641 -0.023901975 -0.53029656
-0.35402906 -0.29284385 0.094525844 0.22828935 -0.28881747 0.19374023 0.19138438 0.4482535
0.45888647 0.32323006 0.041360214 0.07926413 0.103832886 -0.13829233 0.1792218 -0.21826673
-0.319474 0.43768468 -0.013536115 0.3945261 0.19651012 -0.17504962 -0.024428306 0.24306989
0.39829528 -0.17519367 0.33216375 0.107957676 0.16527954 0.31276456 -0.5590038 0.31181502
-0.14413622 0.10428693 -0.49144372 0.3862067 -0.24595822 0.21885821 0.33388335 0.41701502
0.08130882 -0.041809015 -0.3397418 -0.34352005 0.32285246 0.82323027 -0.26962355 0.31955683
0.43708512 0.18982345 -0.4081626 0.3043604 -0.061955385 -0.19511627 -0.30355784 -0.3644998
-0.47248614 0.104902744 0.06415027 -0.005590224 -0.22770333 -0.30839634 0.4406334 -0.41814592
0.11288248 0.34399843 0.41812456 0.23962536 -0.090636395 -0.4270698 -0.033002168 0.27134565
0.07959332 0.112871826 -0.49587494 -0.106827766 0.15626912 -0.110977866 -0.29262936 0.4321556
0.42116114 -0.32054308 -0.02306527 -0.17402004 -0.052994493 -0.149041 0.07033437 -0.1809949
0.16584769 0.16574809 0.025245855 0.40025154 0.40871042 -0.119248286 0.61354494 0.04510843
-0.22309212 0.16106783 0.048379436 0.3993646 -0.27790055 -0.5060006 0.39582264 0.31000805
0.24642372 0.38160703 0.044822317 0.4712796 -0.022315338 0.4781312 -0.24582084 -0.3010213
-0.3447769 -0.32968652 0.23681949 0.22097637 -0.11573862 -0.19719255 0.44400236 0.37640148
0.33654037 0.46460766 0.0734193 -0.25588807 0.35429108 -0.25702435 0.010819784 -0.19029556
-0.46395314 -0.04207496 0.26154956 0.20321983 0.27176756 -0.35401395 0.067445576 -0.19259328
0.03403865 -0.53842425 0.4082711 -0.39984128 -0.15187186 0.32168418 0.077277035 -0.30391824
0.17587906 -0.13361156 0.38759917 -0.11598027 0.35753107 0.19925505 0.3754717 0.47121862
0.4557757 0.34955257 0.31900418 -0.5339912 -0.21548387 -0.25058034 0.4808078 0.467266
-0.049407125 0.33202538 0.29356465 0.45644793 0.2344729 0.31998247 -0.189826 0.2898271
0.14769748 0.18870918 0.039699633 -0.18697613 0.3554787 0.34449625 -0.06537165 -0.28498584
0.3920619 -0.055810463 -0.39020848 0.20915572 0.27378592 -0.1665038 -0.06427051 0.18700129
00000000: 5437 9a3e 3cc2 f5be 25c2 b83e aa44 9abe
00000010: 45ab 943e b90a 69be fa9f 063f 170b a93e
00000020: 2b4d e2bb 3252 0b3e cd5b 013d 96d6 afbd
00000030: 01b1 febe a997 02bf 6649 62bd eb3c cabe
00000040: c0ca 013f 4354 d23d 7c5f 8e3e bfe2 b93c
00000050: 7a38 723d a6d8 0bbf 97e4 173e a2ec 013e
00000060: 4016 bdbe 8f5b cfbe fee1 7d3e aa5a d63e
00000070: 27eb 943e be11 0ebe 7e0b 48bd 3272 65be
00000080: b45a dabe 0e54 b93e 3af9 73be 370b 87be
00000090: c621 b6be 740e 333e ccf4 05bd 0127 a13e
000000a0: c61a 58be bf28 ecbe abd3 fe3e 96c2 043f
000000b0: 11d9 823e 8be4 d7be 1c6f 48be 21a2 eb3e
000000c0: 632c b8be 2895 c1bd 976d 013f 662d a5be
000000d0: 952d d13e 7d61 873d b17e 82be 2588 193e
000000e0: fcec 70bd 59fc f13e 4bc2 ab3e 701c 603e
000000f0: 8d71 b2be 1d55 bf3c 25a3 1d3f f649 b33d
00000100: 4e55 61be ddb4 b9bc b836 0a3f 30bf 61be
00000110: 4463 8f3d 7a07 083f 13ce c3bc 84c1 07bf
00000120: 4c43 b5be a1ef 95be c496 c13d afc4 693e
00000130: e2df 93be d763 463e 44fa 433e 7c81 e53e
00000140: 2bf3 ea3e 697e a53e 5469 293d 3b55 a23d
00000150: 56a6 d43d 819c 0dbe eb85 373e 5081 5fbe
00000160: 1992 a3be 3518 e03e 95c6 5dbc 53ff c93e
00000170: f339 493e 3540 33be df1d c8bc 50e7 783e
00000180: 5ced cb3e f865 33be 5e11 aa3e ea18 dd3d
00000190: 0a3f 293e ad22 a03e df1a 0fbf 38a6 9f3e
000001a0: 7298 13be 6394 d53d 839e fbbe e2bc c53e
000001b0: 79dc 7bbe 5e1c 603e c2f2 aa3e fe82 d53e
000001c0: 3d85 a63d ee3f 2bbd a3f2 adbe dce1 afbe
000001d0: eb4c a53e 38bf 523f 190c 8abe f49c a33e
000001e0: 9fc9 df3e 1461 423e b0fa d0be 20d5 9b3e
000001f0: eec4 7dbd 8fcc 47be ef6b 9bbe b89f babe
00000200: b4e9 f1be 40d7 d63d 3761 833d 332e b7bb
00000210: 102b 69be 20e6 9dbe b39a e13e 3917 d6be
00000220: ee2e e73d 9020 b03e 6c14 d63e 5a60 753e
00000230: 939f b9bd e5a8 dabe 482d 07bd d1ed 8a3e
00000240: d301 a33d 5829 e73d 52e3 fdbe 84c8 dabd
00000250: 0305 203e 5d48 e3bd 84d3 95be 8043 dd3e
00000260: 6fa2 d73e 391e a4be 61f3 bcbc 4f32 32be
00000270: c110 59bd 349e 18be 770b 903d ba56 39be
00000280: fad3 293e deb9 293e 65d0 ce3c c5ed cc3e
00000290: 7e42 d13e 7238 f4bd 4811 1d3f 9ec3 383d
000002a0: 4372 64be f7ee 243e 8429 463d 8479 cc3e
000002b0: fb48 8ebe 4189 01bf 44a9 ca3e 60b9 9e3e
000002c0: 8056 7c3e ff61 c33e 9b97 373d 8f4b f13e
000002d0: a8ce b6bc 9dcd f43e 75b8 7bbe 771f 9abe
000002e0: 9986 b0be accc a8be cf80 723e a147 623e
000002f0: 5f08 edbd d8ec 49be 4754 e33e b2b7 c03e
00000300: 054f ac3e 0ee1 ed3e dc5c 963d c303 83be
00000310: a465 b53e b298 83be 7745 313c d7dc 42be
00000320: 448b edbe cb56 2cbd d3e9 853e dc18 503e
00000330: 1e25 8b3e 5141 b5be e820 8a3d 2c37 45be
00000340: 1d6c 0b3d 2cd6 09bf e908 d13e ffb7 ccbe
00000350: 4c84 1bbe cab3 a43e 6c43 9e3d 2c9b 9bbe
00000360: a419 343e 78d1 08be 6673 c63e 1087 edbd
00000370: 500e b73e 8409 4c3e d43d c03e 9143 f13e
00000380: 6f5b e93e 8ef8 b23e 8454 a33e a6b3 08bf
00000390: cea7 5cbe 114c 80be 712c f63e 7d3d ef3e
000003a0: 205f 4abd 3bff a93e 1b4e 963e 8bb3 e93e
000003b0: aa19 703e bed4 a33e bf61 42be 3864 943e
000003c0: 023e 173e fb3c 413e 159c 223d ac76 3fbe
000003d0: 4e01 b63e d061 b03e 92e1 85bd aae9 91be
000003e0: 56bc c83e 8399 64bd 68c9 c7be eb2c 563e
000003f0: ab2d 8c3e f97f 2abe 42a0 83bd 447d 3f3e

VAE_Encoder.layers.1.linear0.bias f4 [128]
-0.15381871 -0.37321958 -0.12962899 0.32649016 -0.06064063 -0.017188204 0.15141572 0.05898182
0.16688621 -0.015650151 -0.10369512 0.42197436 -0.0301676 0.344074 0.07334804 -0.36679935
0.13877678 -0.28298134 0.08037059 0.31742847 0.122522384 -0.46866447 0.45163903 -0.37677002
0.25354972 -0.40028983 0.23986723 -0.3413168 0.3225273 -0.41224658 -0.3848855 0.24051532
0.05474179 0.41592917 0.31843892 0.3833664 0.44465017 0.06505873 -0.356374 -0.36907053
0.09908953 0.3434234 -0.16664791 0.32732126 0.25007996 -0.44212988 -0.2019267 0.37629902
-0.015793594 -0.2663264 0.120412186 -0.19802366 0.17919481 -0.25667575 -0.010005091 0.4208572
-0.13285087 -0.35891318 -0.4073513 -0.11884797 0.08326692 -0.41022915 -0.18954106 0.37921706
0.25323358 -0.29167265 0.24576811 -0.10516277 0.30063283 -0.17792273 -0.48340827 -0.1575291
-0.39610934 0.29965514 0.07960274 -0.38212034 0.0130688865 -0.50140953 -0.061924305 0.115048535
0.44836858 0.0107296035 0.40828037 -0.0704982 -0.3211599 0.40290233 -0.1207694 0.45407978
-0.47928596 0.12508067 0.053531513 0.05255704 0.13436967 0.3563925 -0.047158144 -0.22889744
-0.36688223 0.45880222 0.4418302 -0.33097747 -0.007338994 0.45703954 -0.4025176 0.36407855
0.42461133 0.43853694 0.3608032 -0.042521488 -0.18836278 0.07433477 0.11668157 -0.19508459
0.31663436 0.32526892 -0.37637445 -0.41201922 -0.02971827 -0.4691187 -0.34056503 0.54168963
-0.14242706 -0.14540887 -0.11323236 -0.26896524 -0.14208096 0.263876 -0.2318084 0.3184837
00000000: a782 1dbe a316 bfbe 76bd 04be b829 a73e
00000010: 4f62 78bd 47ce 8cbc b90c 1b3e ec96 713d
00000020: 38e4 2a3e bf34 80bc 1b5e d4bd 060d d83e
00000030: 0b22 f7bc 782a b03e 7f37 963d 20cd bbbe
00000040: 801b 0e3e eee2 90be 5699 a43d fc85 a23e
00000050: 04ed fa3d caf4 efbe 3b3d e73e 00e8 c0be
00000060: 45d1 813e caf2 ccbe c19f 753e 13c1 aebe
00000070: 4c22 a53e fc11 d3be b60f c5be a649 763e
00000080: ed38 603d abf4 d43e 6d0a a33e 9a48 c43e
00000090: 30a9 e33e 833d 853d a776 b6be d0f6 bcbe
000000a0: 74ef ca3d 31d5 af3e c0a5 2abe a796 a73e
000000b0: 7b0a 803e d95e e2be dfc5 4ebe 44aa c03e
000000c0: 9161 81bc ef5b 88be aa9a f63d b7c6 4abe
000000d0: d87e 373e 016b 83be 65ec 23bc 987a d73e
000000e0: 0f0a 08be 78c3 b7be 5990 d0be 9166 f3bd
000000f0: d987 aa3d 8e09 d2be 0d17 42be bd28 c23e
00000100: d5a7 813e 1e56 95be a3aa 7b3e 945f d7bd
00000110: 8cec 993e 6031 36be 4a81 f7be 4f4f 21be
00000120: d8ce cabe 666c 993e c306 a33d 47a5 c3be
00000130: e21e 563c 605c 00bf 57a4 7dbd 919e eb3d
00000140: 9190 e53e 38cb 2f3c 200a d13e 5c61 90bd
00000150: 126f a4be 3749 ce3e f255 f7bd 257d e83e
00000160: f864 f5be 2615 003e dc43 5b3d 0d46 573d
00000170: 3498 093e 1479 b63e e628 41bd 1764 6abe
00000180: fdd7 bbbe 20e8 ea3e 9137 e23e e175 a9be
00000190: f27b f0bb 1601 ea3e c916 cebe 8168 ba3e
000001a0: a866 d93e ea87 e03e 32bb b83e 032b 2ebd
000001b0: 2ce2 40be d43c 983d bff6 ee3d 41c4 47be
000001c0: e61d a23e a689 a63e 27b4 c0be 2ff4 d2be
000001d0: bb73 f3bc 5430 f0be 8a5e aebe 2cac 0a3f
000001e0: 66d8 11be 10e6 14be 5ee6 e7bd d0b5 89be
000001f0: ac7d 11be c11a 873e 2e5f 6dbe 4c10 a33e

VAE_Encoder.layers.1.linear1.weight f4 [4, 128]
-0.075965665 0.097987115 0.050317787 0.070038326 -0.02362449 0.10284087 0.11518907 -0.024593225
0.04339412 -0.033331104 0.0950309 -0.0115009155 0.011046835 0.038495127 0.027638918 0.15399966
-0.028255012 -0.12490617 0.08459628 0.106221415 -0.10075601 -0.11071529 -0.04687656 -0.007903771
0.011442423 -0.14099206 -0.05975296 0.024670113 0.041711695 -0.48884484 -0.017980866 -0.08197454
-0.04121052 0.0538569 0.021628756 0.10349685 -0.028633233 -0.042509068 -0.041056115 -0.04114752
-0.04858752 -0.011952031 0.049521897 0.15239842 -0.017748011 -0.093084276 0.016542407 0.11722461
-0.09733291 -0.020409534 0.16355447 -0.004813019 -0.023847781 -0.10439238 0.006140549 0.101740554
-0.06783486 0.10839182 0.08179417 -0.1112875 0.010970464 -0.022764256 0.009247379 -0.030547544
-0.08875286 0.060485773 0.04606915 0.05986325 -0.07131099 0.08636465 0.040697146 0.05132858
-0.54941684 0.018822635 0.038767453 0.0062027164 0.07964943 0.07381402 -0.050457273 0.07034699
0.1042866 0.08918551 0.063035905 0.046095084 0.07844398 -0.1713072 0.072616756 0.018393252
0.10743086 0.00032429103 -0.08909939 0.016372418 -0.05547083 0.047884144 -0.06287854 0.042467467
0.088447936 0.052265838 -0.054394692 0.016905233 -0.04510528 0.07770758 -0.022863697 -0.06642396
-0.06339496 0.037619364 0.05133014 -0.04525772 0.045141943 -0.12687539 -0.195245 -0.05846142
-0.038132783 -0.109751366 -0.0019574917 0.12164519 -0.009609844 0.015774583 -0.21849024 0.07617463
0.14505446 -0.058342457 -0.029375069 -0.087483786 0.072945975 -0.019101858 0.10083433 -0.02684047
-0.07085852 -0.06342652 0.01255211 -0.007383155 -0.058930542 -0.11889415 -0.07310561 -0.0344858
-0.047695827 0.010100599 -0.026948504 -0.03501008 -0.11842638 0.05875369 -0.05137291 -0.008974012
0.014843167 0.048641454 -0.09023534 -0.06379754 0.010820374 -0.08981406 -0.10899176 0.0737944
-0.13195722 0.12835012 0.0056837415 -0.07254224 0.011522616 -0.05491769 0.03468722 0.036763687
-0.10033128 -0.03282741 0.010215903 -0.06346773 0.025229853 0.022027137 -0.13059373 -0.0004198193
0.088709064 -0.11624733 -0.09521895 0.05711524 -0.051879264 0.031722717 0.056787208 0.029834008
-0.027285105 -0.16922455 0.010291181 -0.07381409 -0.123766996 -0.034242313 0.014581321 0.0168877
-0.021957431 0.002330227 0.055336803 0.101470545 0.0057117157 0.005964452 0.009259681 -0.046449628
-0.0023480044 -0.11076775 -0.09740287 0.04709242 0.049150582 -0.0051638833 -0.02087702 -0.06658047
0.90992856 0.06639106 -0.006767193 0.066818304 -0.07374622 0.016998395 -0.036873654 0.00449806
0.0770009 -0.029427754 -0.08522791 -0.063302316 0.054071706 0.03546271 0.09459575 -0.06489579
0.1009311 0.10485846 0.12812527 0.10951166 -0.015591313 -0.12333274 0.013134379 -0.017679902
-0.062950216 -0.022502637 0.033083715 -0.06306827 0.0054323752 0.115154944 -0.026515443 -0.12474568
0.043111067 0.044986255 0.06002945 -0.035507154 -0.02089172 -0.055437006 -0.031802747 -0.08875408
0.05842991 0.004130143 0.06425006 -0.017299404 0.03360383 0.033557475 -0.25052276 -0.042407308
-0.0014657431 -0.082099825 -0.027853027 -0.22184122 -0.021436274 0.11502958 -0.01928275 -0.031913564
00000000: e393 9bbd 78ad c83d 061a 4e3d 4170 8f3d
00000010: 2588 c1bc 3c9e d23d 3fe8 eb3d bb77 c9bc
00000020: 08be 313d 3286 08bd 8f9f c23d 566e 3cbc
00000030: c9fd 343c 11ad 1d3d 036b e23c 16b2 1d3e
00000040: 0e77 e7bc cece ffbd d040 ad3d 9d8a d93d
00000050: 2b59 cebd b3be e2bd a301 40bd d17e 01bc
00000060: 0079 3b3c 3960 10be 85bf 74bd fa18 ca3c
00000070: e2d9 2a3d df49 fabe 9c4c 93bc 45e2 a7bd
00000080: 5dcc 28bd 0e99 5c3d ca2e b13c 28f6 d33d
00000090: 3e90 eabc fd1d 2ebd 752a 28bd 4d8a 28bd
000000a0: b503 47bd 74d2 43bc 79d7 4a3d 550e 1c3e
000000b0: 4764 91bc f8a2 bebd f183 873c 7513 f03d
000000c0: 7a56 c7bd e531 a7bc d37a 273e 88b6 9dbb
000000d0: 6c5c c3bc accb d5bd a936 c93b 5a5d d03d
000000e0: 01ed 8abd 88fc dd3d b483 a73d b3ea e3bd
000000f0: 76bd 333c 1b7c babc 5282 173c d83e fabc
00000100: 0fc4 b5bd eebf 773d 01b3 3c3d 2b33 753d
00000110: 7f0b 92bd f3df b03d 0db2 263d eb3d 523d
00000120: 95a6 0cbf ed31 9a3c 9fca 1e3d 2840 cb3b
00000130: 3e1f a33d ce2b 973d 49ac 4ebd 1512 903d
00000140: 3794 d53d e5a6 b63d f818 813d 33ce 3c3d
00000150: 3da7 a03d 286b 2fbe 18b8 943d 72ad 963c
00000160: b604 dc3d 9b05 aa39 be79 b6bd 731f 863c
00000170: 6235 63bd 2a22 443d 77c6 80bd 5ef2 2d3d
00000180: 3124 b53d b414 563d f8cc 5ebd d87c 8a3c
00000190: 50c0 38bd 2725 9f3d a64c bbbc 4909 88bd
000001a0: 37d5 81bd c316 1a3d 8e3f 523d 2960 39bd
000001b0: c2e6 383d 9feb 01be 4eee 47be 3e75 6fbd
000001c0: 1f31 1cbd 53c5 e0bd 4349 00bb 1d21 f93d
000001d0: 9b72 1dbc b339 813c e8bb 5fbe 7201 9c3d
000001e0: 2889 143e 80f8 6ebd fca3 f0bc b32a b3bd
000001f0: b364 953d 807b 9cbc 3b82 ce3d 8ce0 dbbc
00000200: 461e 91bd c3e5 81bd 5da7 4d3c 65ee f1bb
00000210: 2761 71bd c77e f3bd 65b8 95bd fb40 0dbd
00000220: b35c 43bd fc7c 253c 1cc3 dcbc bb66 0fbd
00000230: 8889 f2bd b6a7 703d 676c 52bd bc07 13bc
00000240: c130 733c 433c 473d 4ecd b8bd 49a8 82bd
00000250: f047 313c 6ff0 b7bd 1237 dfbd 8521 973d
00000260: cb1f 07be 376e 033e ae3e ba3b 0791 94bd
00000270: 5bc9 3c3c 5ff1 60bd 3014 0e3d 8595 163d
00000280: 7c7a cdbd 0976 06bd 9a60 273c 5ffb 81bd
00000290: d6ae ce3c 4172 b43c 5dba 05be 311b dcb9
000002a0: 19ad b53d 1513 eebd 2702 c3bd abf1 693d
000002b0: 5a7f 54bd aeef 013d b499 683d 7366 f43c
000002c0: 0385 dfbc 3349 2dbe 579c 283c d72b 97bd
000002d0: 8d79 fdbd ab41 0cbd 7ee6 6e3c 1358 8a3c
000002e0: 12e0 b3bc b9b6 183b d8a8 623d cacf cf3d
000002f0: 5829 bb3b 7371 c33b ebb5 173c f741 3ebd
00000300: fae0 19bb 34da e2bd 287b c7bd fbe3 403d
00000310: 1f52 493d cb35 a9bb 4906 abbc 575b 88bd
00000320: 14f1 683f 09f8 873d 54bf ddbb 09d8 883d
00000330: 4208 97bd 3840 8b3c d408 17bd 7664 933b
00000340: a6b2 9d3d 7912 f1bc f88b aebd a5a4 81bd
00000350: 4b7a 5d3d 5941 113d 6bbb c13d 15e8 84bd
00000360: f7b4 ce3d 08c0 d63d 4533 033e a647 e03d
00000370: b572 7fbc e095 fcbd 9431 573c 71d5 90bc
00000380: 0bec 80bd 7357 b8bc ca82 073d f029 81bd
00000390: 1102 b23b 5bd6 eb3d ea36 d9bc aa7a ffbd
000003a0: 3b95 303d 8243 383d 71e1 753d f36f 11bd
000003b0: 1d25 abbc ea11 63bd 9943 02bd b3c4 b5bd
000003c0: 3454 6f3d 2756 873b 8995 833d 7bb7 8dbc
000003d0: 2ba4 093d 9073 093d 8544 80be 49b3 2dbd
000003e0: 2d1e c0ba f423 a8bd 082c e4bc 582a 63be
000003f0: 209b afbc a194 eb3d dcf6 9dbc ccb7 02bd

VAE_Encoder.layers.1.linear1.bias f4 [4]
-0.067057855 -0.012288686 0.064839944 0.027922155
00000000: a155 89bd 7c56 49bc ceca 843d 01bd e43c

VAE_Encoder.layers.1.norm1.weight f4 [4]
1.1185328 1.0680505 1.1034026 1.0260646
00000000: 152c 8f3f e1b5 883f 4c3c 8d3f 1656 833f

VAE_Encoder.layers.1.norm1.bias f4 [4]
-0.028207762 -0.02155219 0.035488635 0.09946264
00000000: f713 e7bc 388e b0bc 885c 113d 12b3 cb3d

VAE_Encoder.layers.1.norm0.weight f4 [4]
0.74192524 1.210609 1.2440615 0.8985886
00000000: d0ee 3d3f 3cf5 9a3f 683d 9f3f e709 663f

VAE_Encoder.layers.1.norm0.bias f4 [4]
0.043018047 0.15018441 0.09239111 -0.05726991
00000000: b133 303d f1c9 193e 8d37 bd3d da93 6abd

VAE_Encoder.last_normalization.weight f4 [4]
1.0 1.0 1.0 1.0
00000000: 0000 803f 0000 803f 0000 803f 0000 803f

VAE_Encoder.last_normalization.bias f4 [4]
0.0 0.0 0.0 0.0
00000000: 0000 0000 0000 0000 0000 0000 0000 0000

VAE_Encoder.head.weight f4 [4, 4]
0.4307257 -0.046170354 0.0009534955 -0.2933895 -0.49915648 -0.4705968 0.43605644 0.4335199
-0.13014889 -0.41222835 0.31202763 -0.23418307 -0.37858534 -0.39685637 0.043384016 -0.30287725
00000000: 1488 dc3e 201d 3dbd 00f4 793a 2637 96be
00000010: 7091 ffbe 10f2 f0be ca42 df3e 52f6 dd3e
00000020: c045 05be 980f d3be 16c2 9f3e b0cd 6fbe
00000030: f0d5 c1be c230 cbbe 70b3 313d ba12 9bbe

VAE_Encoder.head.bias f4 [4]
0.02466309 0.39438015 0.27655703 -0.4732287
00000000: 400a ca3c 32ec c93e e298 8d3e 084b f2be
