tabsyn/vae/ckpt/adult/model.pt (torch, 70886 bytes, 112 tensors)

VAE.Tokenizer.weight f4 [7, 4]
0	0xbee5d640	-0.44890022
1	0x3e701afa	0.2344779
2	0xbe880631	-0.26567224
3	0x3cb46dd3	0.022025025
4	0xbc649a17	-0.0139527535
5	0x3e291de5	0.1651531
6	0x3e8bbc07	0.2729189
7	0xbdd5ebdf	-0.104453795
8	0x3dbef99b	0.09324952
9	0x3dbee2cd	0.093206026
10	0x3c8617bb	0.016368737
11	0x3e3919d1	0.18076254
12	0xbe1469da	-0.14493504
13	0xbe4b5db4	-0.19859964
14	0xbd865637	-0.06559413
15	0x3cfcf455	0.030878225
16	0x3e5faf0b	0.21844117
17	0xbe70f440	-0.23530674
18	0xbdf1f2a4	-0.11813858
19	0x3e9e6ae1	0.30940917
20	0x3ec66f22	0.38756663
21	0x3edb33e0	0.42813015
22	0x3df2303b	0.118256055
23	0xbd732fed	-0.059371877
24	0xbe49447e	-0.19655034
25	0xbe1b0f15	-0.15142472
26	0x3e4c396e	0.19943783
27	0x3c83c54f	0.016085295

VAE.Tokenizer.bias f4 [15, 4]
0	0xbed0a3e3	-0.40750036
1	0xbf189c39	-0.59613377
2	0xbe39f9b1	-0.18161656
3	0x3ec6a815	0.3880011
4	0x3e4c428f	0.19947265
5	0x3e95c1ee	0.2924952
6	0xbe203d21	-0.15648319
7	0xbed0bc8b	-0.40768847
8	0xbe985ef4	-0.29759943
9	0x3e44fae5	0.19236334
10	0x3efeeb4e	0.49788898
11	0x3d241171	0.040055696
12	0x3e80e732	0.25176388
13	0xbe95b173	-0.29236946
14	0xbe91c55a	-0.2847088
15	0x3e50b927	0.2038313
16	0xbd8fdff8	-0.070251405
17	0x3e7c9559	0.24666347
18	0x3e1afb03	0.15134816
19	0x3e378c1a	0.17924538
20	0x3ebfbc6a	0.37448436
21	0xbeb0c01c	-0.34521568
22	0x3edaf748	0.42766786
23	0xbf5be234	-0.85892034
24	0x3eae514d	0.34046403
25	0xbf1d7b08	-0.61515856
26	0x3d854b68	0.06508523
27	0xbd6d7159	-0.057969425
28	0x3ee1f9c3	0.44135866
29	0xbe9f9a16	-0.31172246
30	0xbe00e57f	-0.12587546
31	0xbe5740ef	-0.21020864
32	0x3ed0346c	0.40664995
33	0xbf0a3a4e	-0.53995216
34	0xbcb468b8	-0.02202259
35	0xbe526179	-0.20544995
36	0x3eaf7e97	0.34276268
37	0x3ea6fca4	0.32614625
38	0x3e86ef90	0.26354647
39	0x3e57a908	0.21060574
40	0x3eb20b30	0.3477416
41	0xbf01681d	-0.5054949
42	0xbd8f1f99	-0.06988449
43	0xbe70d24c	-0.23517722
44	0xbe9f9ece	-0.31175846
45	0x3e3c070c	0.18362063
46	0x3e44ec1c	0.19230694
47	0x3e72144b	0.23640554
48	0x3eafecfe	0.34360498
49	0xbcc8efb8	-0.02452837
50	0x3e42551a	0.18977776
51	0xbeccc85b	-0.3999661
52	0xbdb065af	-0.086131446
53	0xbdef8a70	-0.11696327
54	0x3e2fac1a	0.17155495
55	0x3d669fe4	0.056304827
56	0x3ef26513	0.47342739
57	0x3d52750a	0.05138115
58	0xbc9db8c5	-0.019253144
59	0xbedf6430	-0.43631124

VAE.Tokenizer.category_embeddings.weight f4 [104, 4]
0	0x3ecd99ec	0.40156496
1	0x3e6d242b	0.23158328
2	0x3ec8f44b	0.3924888
3	0xbc4e2445	-0.0125818895
4	0x3e523854	0.205293
5	0xbdf1ffef	-0.118163936
6	0xbebd0b40	-0.36922646
7	0x3e888301	0.26662448
8	0xbe17dcb7	-0.1483029
9	0x3e5417c2	0.20712188
10	0x3f12e85a	0.5738579
11	0xbe62beba	-0.22143069
12	0xbdcf48ab	-0.10121282
13	0xbd8528b2	-0.06501903
14	0xbd2ec9ee	-0.042673044
15	0xbe5365bb	-0.20644276
16	0xbf00036a	-0.5000521
17	0x3e42af68	0.19012225
18	0x3ed7b598	0.42130733
19	0xbd73dae2	-0.059534915
20	0xbe8a3d29	-0.26999786
21	0xbed85e66	-0.4225952
22	0x3e894005	0.26806656
23	0x3eb82c4f	0.35971305
24	0x3e35e30c	0.17762393
25	0xbe5df3fd	-0.21675105
26	0x3ed823b1	0.4221473
27	0x3d062cf8	0.03275773
28	0xbeafd15f	-0.34339425
29	0xbd91dd02	-0.07122232
30	0xbe0e5ff2	-0.13903788
31	0x3e331d2b	0.17491595
32	0x3e9b8794	0.30376875
33	0x3eb23759	0.34807852
34	0x3d13be71	0.03607029
35	0xbbfbf508	-0.007689122
36	0x3ee2e940	0.4431858
37	0xbe23f3ed	-0.16011019
38	0x3d86a70b	0.0657483
39	0x3ebe4281	0.37160113
40	0xbd9fa7c3	-0.0779567
41	0xbf0d2d04	-0.55146813
42	0xbea0185c	-0.31268585
43	0xbef3c41e	-0.47610563
44	0x3ea3c1f7	0.3198392
45	0xbf187d31	-0.59566027
46	0xbe403ab7	-0.18772398
47	0x3edbe30a	0.42946655
48	0xbf211f73	-0.6293861
49	0x3eddc3be	0.43313402
50	0x3e756c6c	0.23967141
51	0x3e97d5a0	0.2965517
52	0xbed28e4b	-0.41124186
53	0x3e556773	0.20840244
54	0xbd6712db	-0.056414466
55	0xbe6f4db0	-0.23369479
56	0xbec56c66	-0.38559264
57	0x3f629aa1	0.88517195
58	0x3db09113	0.08621421
59	0xbde28d45	-0.11062101
60	0x3eaf30be	0.34216875
61	0xbf6952b4	-0.9114182
62	0x3e023951	0.12717177
63	0x3fbe603c	1.4873118
64	0xbe2452a7	-0.16047154
65	0x3e2de231	0.16980816
66	0xbdfb3002	-0.12265016
67	0xbeabe054	-0.33569586
68	0x3ee37201	0.44422916
69	0x3e14cfbc	0.1453237
70	0xbebded64	-0.37095177
71	0x3d811282	0.06302358
72	0x3e1799c0	0.14804745
73	0xbd9d4faa	-0.0768121
74	0x3df08532	0.11744155
75	0xbb5f20dc	-0.0034046685
76	0xbe56ef00	-0.20989609
77	0xbe65cd69	-0.22441639
78	0xbca6f909	-0.020382421
79	0xbf282145	-0.65675765
80	0x3e881868	0.2658112
81	0x3e969453	0.29410037
82	0xbded2ba6	-0.11580591
83	0xbe55d3f3	-0.20881633
84	0xbf0b844f	-0.5449876
85	0x3ed15e51	0.4089227
86	0xbe817159	-0.2528179
87	0x3f0393a3	0.5139715
88	0xbd58f0dc	-0.052964076
89	0xbeca8529	-0.39554718
90	0x3ecc9cd7	0.3996341
91	0x3e344c2b	0.17607181
92	0x3e654910	0.22391152
93	0xbda54e96	-0.0807163
94	0xbe18f0c4	-0.14935595
95	0xbea366ef	-0.3191447
96	0xbef8cb27	-0.48592493
97	0x3c8a95d7	0.016917152
98	0xbed82a76	-0.42219895
99	0xbd38bcf4	-0.045102075
100	0xbf125de5	-0.5717452
101	0x3ee4e2e6	0.4470436
102	0xbf5e979b	-0.8695008
103	0x3f1a6e02	0.6032411
104	0xbe72252b	-0.23646991
105	0x3d356b57	0.04429182
106	0x3f0ca8f5	0.5494531
107	0xbeb99729	-0.3624814
108	0xbed1e318	-0.4099357
109	0x3dbbf0ae	0.091767654
110	0xbe7d3298	-0.24726331
111	0x3c8995ae	0.016795006
112	0xbddcc45b	-0.10779639
113	0xbf06df21	-0.5268422
114	0xbe9f394d	-0.31098405
115	0xbe734ac8	-0.23758996
116	0xbeace0f9	-0.3376539
117	0x3d17c8eb	0.037056845
118	0xbeb60bab	-0.35555777
119	0x3e1cd8ec	0.15317124
120	0x3d6f0a08	0.058359176
121	0xbe9f76ec	-0.31145418
122	0xbb3f9298	-0.0029231664
123	0xbe80ec04	-0.25180066
124	0xbe770c13	-0.241257
125	0x3da213b4	0.07913914
126	0x3e561866	0.20907745
127	0xbb2c3337	-0.0026275644
128	0xbe9973f0	-0.29971266
129	0xbe82aa2a	-0.2552045
130	0xbd958d51	-0.073023446
131	0x3dd719e3	0.105029844
132	0x3e6fc397	0.23414455
133	0xbf472695	-0.77793247
134	0x3d852836	0.0650181
135	0x3c480524	0.012208257
136	0x3d74b957	0.059747066
137	0xbea59758	-0.3234203
138	0x3edc019a	0.42969972
139	0x3eb42286	0.3518259
140	0xbe918bde	-0.28427023
141	0x3f521350	0.8206072
142	0xbd884436	-0.06653635
143	0x3f04b051	0.5183154
144	0xbe582b34	-0.2111023
145	0x3f6e40cb	0.93067616
146	0x3ec3832d	0.38186017
147	0x3bbfd4fd	0.0058542476
148	0x3e865ae1	0.2624121
149	0x3f0b44aa	0.5440165
150	0x3e0622ab	0.13099162
151	0x3d809753	0.06278863
152	0x3eb69c01	0.35665897
153	0xbc0b1bbf	-0.008490502
154	0xbe89a1f4	-0.26881373
155	0xbe12b427	-0.14326535
156	0xbe8f93c0	-0.28042412
157	0xbf1e21a7	-0.617701
158	0xbf052869	-0.52014786
159	0x3f4ece61	0.8078366
160	0xbf0c9233	-0.5491058
161	0x3d9dc03f	0.07702684
162	0xbd5aae8f	-0.05338913
163	0xbe140ee9	-0.14458813
164	0xbf4111a3	-0.75417536
165	0x3e16c4f6	0.14723572
166	0xbf04e1b4	-0.51906896
167	0x3de785f7	0.11304849
168	0x3e47e331	0.1952026
169	0x3d87fab4	0.06639615
170	0x3e0f00a5	0.1396509
171	0x3d924dd9	0.071437545
172	0xbf117da1	-0.5683232
173	0x3e0844e2	0.13307527
174	0xbbebac2a	-0.0071921544
175	0xbef66101	-0.48120883
176	0x3d3f3a9a	0.046686746
177	0x3d721f6c	0.059111997
178	0x3e99bb22	0.30025584
179	0xbedc2597	-0.4299743
180	0xbeb787c0	-0.35845757
181	0xbf0d3991	-0.55165964
182	0xbe480910	-0.19534707
183	0xbea59553	-0.32340488
184	0x3ec8045f	0.39065835
185	0xbf0bc5a3	-0.54598445
186	0xbd8a9436	-0.0676655
187	0x3ed15e94	0.4089247
188	0x3ef7053e	0.48246187
189	0xbd8a3bb2	-0.06749667
190	0xbf39a130	-0.7251158
191	0x3ede1da8	0.43382
192	0x3e75f98b	0.24020974
193	0x3b1c883c	0.0023884913
194	0xbd34ade5	-0.04411115
195	0xbeea17b1	-0.457212
196	0x3d975288	0.073887885
197	0x3eb524be	0.35379595
198	0xbec1efc0	-0.37878227
199	0x3e3c34f5	0.18379577
200	0x3b656090	0.0035000183
201	0x3edd2549	0.4319251
202	0xbea2eaee	-0.31819862
203	0xbe270e5f	-0.16314076
204	0x3d86842f	0.06568181
205	0xbdc2db5a	-0.09514494
206	0x3c4e73b6	0.01260083
207	0xbe61307e	-0.21991155
208	0x3e953059	0.2913845
209	0xbee48fc2	-0.44640929
210	0xbd6034c1	-0.05473781
211	0xbec1b1c4	-0.37830937
212	0xbc98a95f	-0.01863545
213	0xbe12b0ae	-0.1432521
214	0xbe84a4b3	-0.25906906
215	0xbde447b0	-0.11146486
216	0xbde108dd	-0.10988019
217	0x3ec33ec9	0.3813384
218	0x3bbd593d	0.0057784603
219	0xbef03373	-0.46914253
220	0x3f4ed4e1	0.8079358
221	0x3e3cf270	0.18451858
222	0x3e0e9aa7	0.13926183
223	0x3ddfe2e5	0.109319486
224	0x3d9c70fb	0.07638737
225	0xbee590d4	-0.44837058
226	0x3cb4b883	0.022060638
227	0xbe12dc26	-0.14341792
228	0xbea6be54	-0.32567084
229	0x3ee3e420	0.44509983
230	0xbd9ebf35	-0.077513136
231	0xbd82c156	-0.06384532
232	0x3df5d69b	0.12003823
233	0xbf03a849	-0.5142866
234	0xbe89be8c	-0.26903188
235	0x3eb70019	0.35742262
236	0xbe7f942f	-0.24958871
237	0xbea77821	-0.3270884
238	0x3ef5946d	0.47964802
239	0x3da2b440	0.07944536
240	0x3ebcc60e	0.36869854
241	0xbe972216	-0.29518193
242	0x3b010664	0.0019687647
243	0xbec14afe	-0.37752527
244	0xbea98d35	-0.33115545
245	0xbe19472e	-0.14968559
246	0x3d8a0e26	0.0674098
247	0xbed2e8f7	-0.41193363
248	0xbebeca24	-0.37263596
249	0x3e67298d	0.22574444
250	0x3df18c80	0.117943764
251	0x3eeb0837	0.45904705
252	0x3f33ba45	0.702061
253	0xbf00db2c	-0.5033443
254	0xbeaa79ef	-0.33296153
255	0xbf639a86	-0.8890766

VAE.encoder_mu.layers.0.attention.W_q.weight f4 [4, 4]
0	0x3e4016de	0.18758723
1	0xbea1f275	-0.31630293
2	0x3df7e69b	0.121045314
3	0x3eda2a96	0.42610615
4	0x3e02cc82	0.12773326
5	0x3f0774eb	0.5291278
6	0x3f1bb9d3	0.6083042
7	0x3f1f59f0	0.6224661
8	0x3ed50fab	0.41613516
9	0xbee18a41	-0.44050792
10	0x3ec686d6	0.38774747
11	0x3e879c11	0.26486257
12	0x3f10ff3b	0.5663945
13	0xbe4d7d20	-0.20067263
14	0xbe7b6f02	-0.24554065
15	0x3e74e6b8	0.23916137

VAE.encoder_mu.layers.0.attention.W_q.bias f4 [4]
0	0xbc7db3f3	-0.015484798
1	0xbeb59e9c	-0.35472572
2	0x3c77f822	0.015134843
3	0x3d9e7d8a	0.077387884

VAE.encoder_mu.layers.0.attention.W_k.weight f4 [4, 4]
0	0x3efcf13b	0.49402794
1	0xbe57946c	-0.21052712
2	0xbcb73e72	-0.022368643
3	0xbe9922b0	-0.29909277
4	0x3dec19f2	0.11528386
5	0x3f30638c	0.68901896
6	0xbcdb2a85	-0.026753673
7	0x3ea442ee	0.32082313
8	0xbe37ceda	-0.17950001
9	0x3c8a7554	0.01690165
10	0x3e6115cb	0.2198097
11	0xbdc21c31	-0.09478033
12	0x3e97bb1c	0.2963494
13	0xbedfaa67	-0.43684694
14	0x3e4b6a14	0.19864684
15	0xbeb5e088	-0.35522866

VAE.encoder_mu.layers.0.attention.W_k.bias f4 [4]
0	0x390c2146	0.00013363836
1	0x399d04c2	0.00029948918
2	0x38a777ab	7.9854704e-05
3	0x3933786e	0.00017115634

VAE.encoder_mu.layers.0.attention.W_v.weight f4 [4, 4]
0	0xbd1f3fc9	-0.03887919
1	0xbe0ec7cf	-0.13943408
2	0xbe20dbaf	-0.15708803
3	0x3dd0ed7a	0.10201545
4	0xbd3aa7fb	-0.045570355
5	0xbe2070fe	-0.15668103
6	0xbe1a34a4	-0.15059143
7	0x3dea9e27	0.114559464
8	0xbcd83ec4	-0.026397116
9	0xbe1a979b	-0.15096895
10	0xbe0fcabf	-0.14042185
11	0x3dd18359	0.10230131
12	0xbd320cc7	-0.043469217
13	0xbe221118	-0.15826833
14	0xbe2cc2ac	-0.16871136
15	0x3dfaee3d	0.122524716

VAE.encoder_mu.layers.0.attention.W_v.bias f4 [4]
0	0xbd21bbcb	-0.039485734
1	0xbd4c7b65	-0.049922366
2	0x3e1402c5	0.14454181
3	0xbd38b6b8	-0.04509613

VAE.encoder_mu.layers.0.linear0.weight f4 [128, 4]
0	0x3f059144	0.5217478
1	0x3ebae803	0.36505136
2	0xbeba60ea	-0.36402065
3	0x3ec76321	0.38942817
4	0xbed6f854	-0.41986334
5	0x3e5d795e	0.21628329
6	0xbe90a8cd	-0.28253785
7	0xbf0be8e2	-0.54652226
8	0xbe08033a	-0.13282481
9	0xbee0acc0	-0.43881798
10	0xbf079c1a	-0.5297257
11	0x3ebd38a9	0.3695729
12	0x3efb778e	0.4911465
13	0xbe42a972	-0.19009951
14	0x3ed8691d	0.42267695
15	0x3dc67774	0.096907526
16	0x3e9d27df	0.30694482
17	0xbe89c549	-0.2690833
18	0xb90d2a0b	-0.0001346247
19	0xbe8ca3f2	-0.2746883
20	0x3f34870d	0.7051857
21	0xbe8891c6	-0.26673716
22	0x3ead47fc	0.33843982
23	0x3daaff1c	0.083494395
24	0xbd63734a	-0.05552987
25	0x3e5f0de5	0.21782644
26	0x3e63d469	0.22248997
27	0x3c87ccd2	0.016577158
28	0x3e803045	0.25036827
29	0xbe512cdc	-0.20427269
30	0xbea28433	-0.31741485
31	0xbeee4a89	-0.4654124
32	0xbf2a1750	-0.6644182
33	0xbde028a2	-0.1094525
34	0xbe80d20f	-0.25160262
35	0xbdf8445b	-0.12122413
36	0x3e0999d5	0.13437589
37	0xbeed0d5a	-0.4629925
38	0xbec1b9c0	-0.37837029
39	0x3e5cbe0c	0.21556872
40	0xbdcd7a7d	-0.100331284
41	0x3eb20622	0.34770304
42	0x3e14cb2b	0.14530627
43	0x3f27ef51	0.6559954
44	0x3f158410	0.58404636
45	0x3e82977b	0.25506195
46	0x3efc6e6f	0.49303004
47	0xbead1eaa	-0.33812457
48	0x3f018faf	0.5060987
49	0xbeedb409	-0.46426418
50	0x3e58e483	0.2118092
51	0xbe75dc2a	-0.24009767
52	0xbe941476	-0.2892186
53	0xbdefeb38	-0.11714786
54	0xbe171de0	-0.1475749
55	0xbda72cd0	-0.08162844
56	0xbeb131de	-0.34608358
57	0xbe3b3530	-0.18282008
58	0xbc9b8845	-0.018985877
59	0xbe7f0d8d	-0.24907513
60	0xbf03a1c1	-0.5141869
61	0x3ebee1a8	0.37281537
62	0xbe0d302c	-0.13787907
63	0xbea43be4	-0.32076943
64	0xbf02d551	-0.51106745
65	0x3ee778e5	0.45209423
66	0xbe89f24e	-0.26942676
67	0xbf01605e	-0.5053767
68	0xbe873471	-0.26407197
69	0xbe8fd63a	-0.2809313
70	0x3e9d8df9	0.3077238
71	0xbe9808e5	-0.29694286
72	0x3e0bb0bd	0.13641639
73	0xbe951bbe	-0.29122728
74	0x3e03b667	0.1286255
75	0x3ee61c56	0.44943494
76	0xbed630b6	-0.41834038
77	0x3e491e91	0.19640566
78	0xbd404e98	-0.046949953
79	0x3ec1cc96	0.378514
80	0xbf0d700b	-0.5524909
81	0x3e6c91b3	0.23102455
82	0xbe14b761	-0.14523079
83	0x3de1a0ff	0.11017036
84	0x3eb05a99	0.3444412
85	0x3eabb47d	0.3353614
86	0xbe635618	-0.22200811
87	0x3d2d8dc7	0.042371538
88	0x3da0b874	0.07847682
89	0xbe7a4379	-0.24439801
90	0xbdf0bb68	-0.11754495
91	0x3ebcef1f	0.36901185
92	0x3e169c9d	0.1470818
93	0x3ea7da61	0.32783797
94	0xbe530b09	-0.20609678
95	0xbe9e4f0c	-0.30919683
96	0xbe5b9ac5	-0.21445759
97	0x3dfa3d08	0.12218672
98	0xbf01ad7e	-0.50655353
99	0xbe8ac708	-0.27104974
100	0xbed66ba2	-0.41878992
101	0xbe9eac8a	-0.30991012
102	0xbe527d2b	-0.2055556
103	0x3f2f6cb9	0.6852527
104	0x3e6ffe14	0.23436767
105	0x3cae34b9	0.021265374
106	0xbefd25ef	-0.49443004
107	0xbe5a8f0c	-0.2134363
108	0xbf123e23	-0.57126063
109	0x3e802e6d	0.2503542
110	0x3d1bd57c	0.03804539
111	0xbec09549	-0.37613896
112	0x3ebe55ea	0.37174922
113	0x3ec1d1a4	0.37855256
114	0x3df390f5	0.11892883
115	0xbe9d2db3	-0.30698928
116	0x3da74104	0.081666976
117	0xbe9ce943	-0.30646715
118	0x3eba19a9	0.36347702
119	0xbd363e32	-0.044492908
120	0xbee778be	-0.45209306
121	0x3eeba41f	0.46023652
122	0xbed336c1	-0.4125271
123	0xbeaf7ce1	-0.34274963
124	0x3ed7521b	0.4205483
125	0x3e8a5509	0.27018002
126	0xbf034fdd	-0.51293737
127	0x3e9b2bc7	0.30306837
128	0x3f09304e	0.5358933
129	0x3efa4d3a	0.48887044
130	0xbf1d4298	-0.6142974
131	0x3ecda1cd	0.40162507
132	0xbd960a6b	-0.07326206
133	0x3e51f2a0	0.2050271
134	0xbe0187ed	-0.12649508
135	0x3e433464	0.19062954
136	0xbd8eaf6d	-0.069670536
137	0x3e4388e9	0.19095196
138	0x3e324eb6	0.17412838
139	0x3e850d30	0.25986624
140	0xbef0ada8	-0.4700749
141	0xbee55605	-0.4479219
142	0x3eb4e266	0.35328978
143	0x3da37b03	0.07982447
144	0xbed836a9	-0.42229202
145	0xbed89581	-0.42301562
146	0xbe98238e	-0.29714626
147	0x3f31d034	0.6945832
148	0x3ec6690d	0.38752022
149	0x3e95bbf5	0.29244962
150	0xbed18031	-0.40918115
151	0x3eaa29b8	0.33234954
152	0xbea11d98	-0.3146789
153	0x3e16d53b	0.14729778
154	0xbeb8a66f	-0.3606448
155	0x3ed107e6	0.4082634
156	0xbe8e1281	-0.27748492
157	0xbe90e285	-0.2829782
158	0xbe5cefef	-0.21575902
159	0xbe4be5b5	-0.19911845
160	0x3e0fece5	0.14055212
161	0xbdc3c20a	-0.095584944
162	0x3eb5619d	0.35426036
163	0x3e417164	0.18890911
164	0x3e2c1844	0.16806132
165	0x3dc3421f	0.09534096
166	0x3e23357c	0.15938371
167	0x3d59c2e9	0.053164396
168	0xbda611a4	-0.081088334
169	0xbe9769ce	-0.2957291
170	0x3e89d471	0.26919892
171	0xbdc991a8	-0.09842235
172	0xbeb23184	-0.34803402
173	0x3eaadd3d	0.33371916
174	0x3efc2559	0.49247244
175	0x3ef0d4ce	0.47037357
176	0x3e9367f1	0.28790238
177	0xbea90c69	-0.3301728
178	0xbeb52248	-0.35377717
179	0xbe0623da	-0.13099614
180	0x3f07ef5b	0.530996
181	0x3d130c89	0.035900626
182	0x3ced390c	0.028957866
183	0x3e5400a1	0.20703365
184	0xbe3c8a00	-0.18412018
185	0x3edee54f	0.43534324
186	0xbdd7c9b8	-0.10536522
187	0xbc995881	-0.01871896
188	0xbd89774c	-0.06712207
189	0x3d4424a4	0.047886506
190	0xbd8e50b5	-0.069489874
191	0xbcfa4cf5	-0.030554274
192	0x3f08e2ed	0.5347126
193	0xbe64069e	-0.2226815
194	0x3e510087	0.20410357
195	0xbe8a4790	-0.27007723
196	0x3e32ef8d	0.17474194
197	0xbd8dfa44	-0.069325
198	0x3e082392	0.13294819
199	0x3e7c3476	0.24629387
200	0x3e36731e	0.17817351
201	0x3bbfd53b	0.0058542765
202	0x3c83bfdd	0.016082698
203	0xbf103f30	-0.56346416
204	0xbde7dd93	-0.11321559
205	0x3e295fc3	0.16540436
206	0x3ef65c8a	0.48117477
207	0x3e883da1	0.2660952
208	0x3ed40655	0.4141108
209	0x3ec6cb87	0.38827154
210	0xbe98f675	-0.29875532
211	0xbe58c971	-0.21170594
212	0xbf0830bb	-0.53199357
213	0x3eae740f	0.3407292
214	0xbd013ee5	-0.03155412
215	0x3ebbcf51	0.36681607
216	0x3e947730	0.28997183
217	0xbc84c01a	-0.016204882
218	0xbec2828d	-0.37990227
219	0xbe386eaa	-0.18010965
220	0x3e7f2717	0.24917255
221	0xbc880d32	-0.016607855
222	0xbec09957	-0.3761699
223	0xbe340b83	-0.17582516
224	0xbeb3ef90	-0.3514371
225	0xbd11bf0e	-0.035582595
226	0x3e800005	0.25000015
227	0xbdb94812	-0.090469494
228	0xbefd3b32	-0.49459225
229	0x3e962c53	0.29330692
230	0x3de7bdf7	0.1131553
231	0x3ece6d19	0.4031761
232	0x3ea70dd1	0.3262773
233	0x3d3c4fe2	0.04597462
234	0xbf020f9f	-0.50805086
235	0xbe86373b	-0.26214013
236	0xbc700521	-0.01464966
237	0xbeaab48e	-0.33340877
238	0xbe979a71	-0.29610017
239	0x3dc48f40	0.09597635
240	0xbdee4408	-0.1163407
241	0x3eeea25a	0.4660824
242	0x3d45a362	0.048251517
243	0x3d2b52d9	0.041827057
244	0xbed9c7e9	-0.42535332
245	0x3e31bfb1	0.1735828
246	0xbd9eed83	-0.077601455
247	0x3cead698	0.02866678
248	0x3edf3531	0.4359527
249	0x3ebef473	0.37295875
250	0xbe61bf2a	-0.2204558
251	0x3ebd990e	0.37030834
252	0xbe29c8a9	-0.16580452
253	0xbef71278	-0.48256278
254	0x3f020787	0.50792736
255	0xbea73d96	-0.32664174

VAE.encoder_mu.layers.0.linear0.bias f4 [128]
0	0xbeed28cf	-0.46320197
1	0xbeab9432	-0.33511502
2	0xbe564b5f	-0.2092719
3	0x3efd64cb	0.4949096
4	0x3ebcdfbd	0.3688945
5	0xbea7ab63	-0.32747945
6	0x3e84c615	0.25932375
7	0x3deb36d1	0.11485065
8	0x3d7f2ff0	0.062301576
9	0x3ecb85f1	0.39750627
10	0xbe4b0a92	-0.19828251
11	0x3e873b8c	0.26412618
12	0x3ee8b191	0.45447972
13	0xbee474e6	-0.44620436
14	0x3e452497	0.19252239
15	0xbe0a0028	-0.13476622
16	0x3e68da4a	0.2273952
17	0x3ef0ca35	0.47029272
18	0xbea66a88	-0.32503152
19	0xbf1ce567	-0.6128754
20	0xbc8ae38e	-0.01695421
21	0x3dad8146	0.084719226
22	0x3d21fe01	0.039548878
23	0xbe85c5be	-0.26127428
24	0x3e7333b6	0.23750195
25	0x3ef9b234	0.4876877
26	0x3e949808	0.2902224
27	0x3e953747	0.29143736
28	0x3bb29b73	0.00545066
29	0x3ef26a82	0.47346884
30	0x3e8d4457	0.27591202
31	0xbee49243	-0.4464284
32	0xbead3d3e	-0.33835787
33	0xbec26e46	-0.37974757
34	0x3eee63d1	0.4656053
35	0x3ec94bf3	0.39315757
36	0x3ec51b83	0.38497552
37	0x3bda8c9c	0.006669594
38	0x3ed4fe35	0.41600195
39	0x3e931418	0.28726268
40	0x3f0660fa	0.52491724
41	0x3e987f18	0.29784465
42	0xbe2d3970	-0.16916442
43	0x3dca19d4	0.098682076
44	0xbe996d5d	-0.2996625
45	0xbe0bc1fe	-0.13648221
46	0x3f00526f	0.50125784
47	0x3e9d73bc	0.3075236
48	0xbd96f477	-0.07370847
49	0xbee458a0	-0.44598866
50	0xbec6ead2	-0.3885103
51	0xbdc16578	-0.09443182
52	0xbe364061	-0.17797996
53	0x3e30c636	0.17263111
54	0x3ea72cc6	0.32651347
55	0x3e8b5d7e	0.27219766
56	0x3e379cce	0.1793091
57	0x3e9a46ea	0.30132228
58	0x3e8c74b1	0.27432778
59	0xbd72bf0c	-0.059264228
60	0xbee53d4a	-0.44773322
61	0x3dde5848	0.10856682
62	0xbe7cb2e4	-0.24677616
63	0x3e4071a1	0.18793346
64	0xbe8bdd98	-0.273175
65	0xbe97f2ef	-0.2967753
66	0xbdebe13a	-0.11517568
67	0xbebf92ab	-0.37416586
68	0xbe9c85a3	-0.30570707
69	0x3e956b72	0.29183537
70	0xbd5ab77c	-0.05339764
71	0x3ea5ad1e	0.3235864
72	0x3f0092ad	0.5022381
73	0xbdabf14c	-0.08395633
74	0x3e007591	0.12544848
75	0x3e9dd1dd	0.30824175
76	0xbdc784a2	-0.097420946
77	0x3f04ceab	0.5187785
78	0x3e5e3e2d	0.21703406
79	0xbd146268	-0.03622666
80	0xbe5b836d	-0.21436854
81	0x3ede7ba2	0.434537
82	0x3e02b704	0.12765127
83	0xbdb2eb11	-0.087362416
84	0x3dec0c7c	0.11525819
85	0xbea0d208	-0.3141024
86	0xbeac737d	-0.3368186
87	0x3ee64875	0.44977155
88	0xbce210f8	-0.027595982
89	0x3e3cb96a	0.18430105
90	0xbdf294ce	-0.118447885
91	0x3e23cfde	0.15997264
92	0xbc30c6f0	-0.010789618
93	0xbe4f2961	-0.20230629
94	0x3ed0fc93	0.408177
95	0x3d74c35c	0.05975662
96	0x3ea213c4	0.31655705
97	0x3ef472a1	0.47743705
98	0x3e89ea35	0.26936498
99	0x3eb60e7b	0.35557923
100	0x3e983c14	0.29733336
101	0xbd48d165	-0.04902782
102	0xbd685467	-0.056721117
103	0x3d970ee1	0.07375885
104	0x3e98b593	0.2982603
105	0x3ef990d9	0.48743322
106	0x3b7a1bf0	0.0038163625
107	0x3eb3eb43	0.35140428
108	0xbeb1184c	-0.3458885
109	0xbe949eac	-0.29027307
110	0xbeac0b36	-0.33602303
111	0x3dfa1f83	0.12213042
112	0xbd997641	-0.07493258
113	0x3e8beddf	0.2732992
114	0xbe858af4	-0.26082575
115	0x3efdccc9	0.495703
116	0xbe426963	-0.18985514
117	0x3e924362	0.28567034
118	0x3e4e8fbe	0.20172021
119	0xbb49138d	-0.003068182
120	0x3c31ba5a	0.010847652
121	0x3ed4b809	0.41546658
122	0xbe1fa612	-0.15590695
123	0x3eff8c81	0.49911883
124	0x3e740be6	0.23832664
125	0x3e06750e	0.1313059
126	0x3e8f5b2e	0.27999252
127	0xbe17a2c9	-0.14808191

VAE.encoder_mu.layers.0.linear1.weight f4 [4, 128]
0	0x3e657192	0.22406605
1	0x3db2ffee	0.08740221
2	0xbd54674e	-0.05185633
3	0xbce53b32	-0.027982328
4	0x3d17b0d7	0.037033882
5	0xbe11a5df	-0.14223431
6	0xbd5c2976	-0.053750478
7	0xbd02f14d	-0.031968404
8	0x3b023dd1	0.0019873271
9	0x3de1615c	0.11004898
10	0x3e618ecb	0.22027127
11	0x3cec3bc7	0.028837098
12	0x3d90b79a	0.07066269
13	0xbd987be9	-0.07445509
14	0xbd90f209	-0.070774145
15	0x3d97acd8	0.07406014
16	0x3e085352	0.13313034
17	0xbd5e3d6c	-0.054257795
18	0x3deaa2a4	0.114568025
19	0x3e4329b9	0.19058885
20	0x3d806cc6	0.06270747
21	0x3d8abb3c	0.067739934
22	0xbdf45d73	-0.119318865
23	0x3c820366	0.015870761
24	0x3e1a65d1	0.15077902
25	0xbc073f4d	-0.008254838
26	0x3d9178b8	0.071031034
27	0x3d8ae6e5	0.06782321
28	0x3cacff09	0.021117704
29	0xbd965a8b	-0.073414885
30	0x3b7bd60e	0.0038427147
31	0x3e06c2e3	0.13160281
32	0x3d1851e7	0.037187483
33	0xbd18e844	-0.03733088
34	0xbd37d6a4	-0.04488243
35	0xbd85daeb	-0.06535896
36	0x3d51cee1	0.051222686
37	0xbc64e288	-0.013970025
38	0x3d5fa365	0.054599185
39	0xbd948c89	-0.072533675
40	0x3c58783d	0.013212261
41	0x3cae189d	0.02125197
42	0xbb983908	-0.0046454705
43	0xbd64719d	-0.055772413
44	0x3d679c01	0.05654526
45	0x3e0b5e02	0.1361008
46	0x3df0ae12	0.11751951
47	0x3ce8cd10	0.028418094
48	0x3bec1315	0.007204423
49	0xbb8d43d7	-0.0043110657
50	0xbd124d15	-0.035718042
51	0x3d481afc	0.04885386
52	0x3b311d11	0.0027025382
53	0x3d119733	0.035544585
54	0x3a0e88e6	0.00054372696
55	0xbd519471	-0.051166955
56	0xbc8b9a25	-0.017041275
57	0x3d52ab35	0.051432807
58	0x3d60318c	0.05473475
59	0xbd8d5b4c	-0.06902179
60	0x3e14650e	0.14491674
61	0x3dad0baf	0.08449494
62	0x3d0caaf5	0.034342725
63	0xbdcff28b	-0.10153683
64	0x3d4dcc1f	0.050243493
65	0xbc9d72fa	-0.019219864
66	0xbbfcbb26	-0.0077127395
67	0xbd85ed7d	-0.06539438
68	0xbca6dae9	-0.020368056
69	0x3d8fb747	0.07017379
70	0xbe0b1302	-0.1358147
71	0x3c6ee9ef	0.014582141
72	0xbd240bfd	-0.040050495
73	0xbd9e36df	-0.077253096
74	0xbd196abd	-0.03745531
75	0x3bba544c	0.0056863185
76	0xbd86fcd8	-0.06591195
77	0xbc1c2d5c	-0.009532299
78	0xbdc12fa7	-0.09432917
79	0x3ca9e8ed	0.02074095
80	0x3c2d465b	0.010575856
81	0xbd8a95c9	-0.067668505
82	0x3db239db	0.08702441
83	0x3dbc5af6	0.09197037
84	0xbcd13f1f	-0.025542794
85	0x3d64dac1	0.055872682
86	0xbc2fab9c	-0.010722067
87	0xbce8929e	-0.028390225
88	0xbcc4abb6	-0.02400766
89	0x3d5cbece	0.053892903
90	0x3d806f29	0.06271202
91	0xbcb5d05d	-0.022194082
92	0x3c2e8357	0.010651431
93	0xbc29c26d	-0.010361296
94	0x3dbd4c05	0.09243015
95	0xbd7965d1	-0.060888115
96	0xbdb6e7df	-0.08930945
97	0x3cae07a3	0.021243876
98	0xbdcaf805	-0.09910587
99	0xbbb9e7b9	-0.0056733754
100	0x3ddd2045	0.107971705
101	0xbd83763a	-0.06419034
102	0x3d7df456	0.062000595
103	0x3d2358f6	0.03987976
104	0xbd7022cc	-0.058626935
105	0x3d070c94	0.03297098
106	0xbde07bd7	-0.109611206
107	0xbbadb40c	-0.0053010043
108	0xbc75c70c	-0.01500107
109	0x3e09f187	0.13471042
110	0x3e8db06c	0.27673662
111	0x3e00409a	0.12524644
112	0xbbda69aa	-0.006665428
113	0xbdd00bfb	-0.10158535
114	0xbd05a4a5	-0.03262772
115	0x3c4f7457	0.012662015
116	0x3e71b0e7	0.23602639
117	0xbcfda2b9	-0.030961381
118	0xbc884238	-0.016633138
119	0xbd3808b4	-0.044930175
120	0xbdc190b8	-0.09451431
121	0xbbc4eabe	-0.0060094288
122	0xbd75eb5f	-0.06003892
123	0x3d826980	0.06367779
124	0xbc3d5b7e	-0.011557458
125	0x3bd6695f	0.006543323
126	0x3d829f36	0.06378023
127	0x3cc7b5fc	0.02437877
128	0xbe35b622	-0.1774526
129	0x3d8df8ef	0.06932246
130	0x3e09ec2b	0.13468997
131	0x3d9f07e0	0.07765174
132	0x3d4abb09	0.049494777
133	0xbdd006cf	-0.10157549
134	0xbbe8a474	-0.0070996825
135	0x3c818311	0.015809568
136	0xbb208801	-0.0024495127
137	0xbd41e2df	-0.0473355
138	0x3ae6e0c8	0.0017614597
139	0x3dd7126a	0.10501559
140	0x3e122b5d	0.14274354
141	0xbc961f6e	-0.018325534
142	0xbd84cb69	-0.0648411
143	0xbdb67266	-0.089085385
144	0xbd93356d	-0.071879245
145	0xbd2626fa	-0.040564515
146	0x3e578964	0.21048504
147	0xbd841b1c	-0.06450483
148	0xbc3963ac	-0.0113152675
149	0xbd9e3bc4	-0.07726243
150	0x3e15dc3d	0.14634795
151	0x3da3e881	0.08003331
152	0xbc8020db	-0.015640667
153	0x3e357c7a	0.17723265
154	0x3d68ea9c	0.056864366
155	0xbc7b9541	-0.015355409
156	0x3dac8f0b	0.08425721
157	0x3ce2612d	0.027634228
158	0x3c9d5881	0.019207241
159	0xbe3e4981	-0.18582727
160	0xbe1ef39e	-0.1552262
161	0xbd43936b	-0.04774801
162	0x3d7c9ce5	0.061673064
163	0xbd7d2cd0	-0.061810315
164	0x3e0f5cbe	0.14000222
165	0xbd019a4e	-0.031641297
166	0x3bf3cccd	0.0074401856
167	0x3de89463	0.113564275
168	0x3e0278eb	0.12741439
169	0x3d839bd0	0.06426203
170	0x3c45fe67	0.01208458
171	0xbd827ab5	-0.06371061
172	0xbe4b9527	-0.19881116
173	0xbd55982a	-0.052147068
174	0xbd57e2aa	-0.052706398
175	0x3d727fd8	0.059203953
176	0x3d98e4bc	0.074655026
177	0xbe2e32ec	-0.17011613
178	0x3e88d254	0.26722968
179	0xbda8c380	-0.08240414
180	0x3cfdd1ab	0.030983767
181	0x3c83aefd	0.016074652
182	0x3d2c3140	0.042039156
183	0x3bd57ac5	0.0065148794
184	0xbd38f1b5	-0.045152385
185	0x3bb52aaa	0.0055287676
186	0xbcef6594	-0.02922324
187	0x3c96670e	0.018359687
188	0xbc2cd3cc	-0.010548543
189	0x3d1432f3	0.0361814
190	0xbdcdef29	-0.10055382
191	0xbd99270b	-0.0747815
192	0xbc17b013	-0.009258288
193	0xbc8ee158	-0.017441437
194	0xbd9e11c0	-0.07718229
195	0xbc0423cf	-0.008065178
196	0xbdd95a37	-0.1061291
197	0xbcf57cee	-0.029966798
198	0xbcb7c9e5	-0.022435138
199	0x3bb7e776	0.005612309
200	0x3de18e32	0.1101345
201	0xbd772724	-0.06034006
202	0xbcc53cec	-0.024076901
203	0x3d5368fd	0.051613797
204	0x3db45f2f	0.08807217
205	0x3dbfaa9c	0.09358713
206	0xbc4c8fae	-0.012485428
207	0x3d4f6d60	0.050641418
208	0x3e4f6772	0.20254305
209	0x3d785c58	0.06063494
210	0xbd8940f5	-0.06701843
211	0x3ba3b46c	0.004995873
212	0x3d3a4406	0.04547503
213	0xbe0db4b8	-0.1383847
214	0xbd50318c	-0.0508285
215	0x3e069618	0.13143194
216	0x3d22a689	0.0397096
217	0x3d9238c3	0.07139733
218	0x3df37dd4	0.11889234
219	0x3d8abd45	0.067743815
220	0xbc7d6653	-0.0154662905
221	0xbda20072	-0.07910241
222	0x3d1abc32	0.037777133
223	0xbc9be31b	-0.01902919
224	0xbc66e74e	-0.014093233
225	0x3da60c23	0.08107784
226	0xbd1419e2	-0.036157496
227	0xbd5e1e8a	-0.054228343
228	0xbd695f63	-0.056975733
229	0x3dd50ab2	0.104024306
230	0x3cf6ba4e	0.030118134
231	0x3e053f68	0.13012469
232	0x3e31f4dc	0.17378563
233	0xbd9b0a6d	-0.07570348
234	0x3cd87149	0.026421206
235	0x3ca653e4	0.020303674
236	0x3c494bb1	0.012286113
237	0xbd4dc52f	-0.050236877
238	0xbf062de0	-0.5241375
239	0xbc7a878b	-0.015291105
240	0xbe8227d6	-0.25421017
241	0x3e313998	0.17307127
242	0xbdd28d19	-0.102808185
243	0x3ba1745a	0.0049272003
244	0x3c6e093c	0.014528569
245	0xbd6aef79	-0.057357285
246	0x3bf17645	0.007368835
247	0x3c011d22	0.007880481
248	0xbd623988	-0.055230647
249	0x3dd1ebb3	0.10250034
250	0xbd73cc76	-0.05952116
251	0x3e1583c8	0.14601052
252	0x3d859dc8	0.06524235
253	0x3cbc0858	0.022953197
254	0x3c381ca8	0.011237301
255	0x3e3579f4	0.17722303

VAE.encoder_mu.layers.0.linear1.bias f4 [4]
0	0xbd8cb903	-0.06871226
1	0xbd7773e5	-0.06041326
2	0xbcb60c53	-0.022222674
3	0xbd534b9a	-0.05158577

VAE.encoder_mu.layers.0.norm1.weight f4 [4]
0	0x3f92c199	1.1465331
1	0x3f8bc395	1.0919062
2	0x3f964781	1.1740571
3	0x3f966347	1.1749047

VAE.encoder_mu.layers.0.norm1.bias f4 [4]
0	0xbb3ac894	-0.0028500902
1	0xbdaccb9e	-0.084372744
2	0x3c16f53b	0.009213741
3	0xbc7cda9c	-0.01543298

VAE.encoder_mu.layers.1.attention.W_q.weight f4 [4, 4]
0	0x3e8c17f0	0.27362013
1	0x3f1954d2	0.5989505
2	0xbefc71b5	-0.49305502
3	0xbdd498be	-0.10380696
4	0x3e1d2759	0.15347041
5	0xbf13bac8	-0.5770688
6	0xbe48ca51	-0.19608428
7	0x3d462b7a	0.048381306
8	0xbe8f4f06	-0.27989978
9	0xbe459353	-0.19294481
10	0xbc522ec7	-0.012828535
11	0x3e84cffd	0.25939932
12	0x3eb8a420	0.36062717
13	0x3e34ba36	0.17649159
14	0xbe6b68cf	-0.229892
15	0xbec27381	-0.37978747

VAE.encoder_mu.layers.1.attention.W_q.bias f4 [4]
0	0xbb3caf38	-0.0028790962
1	0xbe155946	-0.14584836
2	0xbd688f1c	-0.056777105
3	0x3e4053cb	0.18781964

VAE.encoder_mu.layers.1.attention.W_k.weight f4 [4, 4]
0	0xbec60ef9	-0.38683298
1	0xbd704e62	-0.0586685
2	0x3eadc799	0.33941343
3	0x3e4a03b0	0.19727969
4	0x3efb611d	0.4909753
5	0xbf005660	-0.501318
6	0xbf488561	-0.7832852
7	0x3e6a1d95	0.22862847
8	0xbe96cc0c	-0.2945255
9	0xbe2aaccd	-0.16667481
10	0xbee76bfc	-0.45199573
11	0x3dcfdbca	0.10149343
12	0x3e6af962	0.22946694
13	0x3d92329b	0.071385585
14	0x3f0fe56c	0.56209445
15	0x3d8816df	0.06644987

VAE.encoder_mu.layers.1.attention.W_k.bias f4 [4]
0	0x3ab58c20	0.0013850965
1	0x3998bb7a	0.0002913138
2	0x39c2fb0e	0.00037189614
3	0xb98bfdec	-0.00026701333

VAE.encoder_mu.layers.1.attention.W_v.weight f4 [4, 4]
0	0x3e368ff4	0.17828351
1	0x3e206f50	0.15667462
2	0x3e35cd9d	0.17754216
3	0x3d74af85	0.0597377
4	0xbdd52bb8	-0.10408729
5	0xbe94ba26	-0.2904827
6	0xbdb3653a	-0.08759542
7	0x3e8a07c1	0.2695904
8	0x3c088741	0.008333028
9	0xbe30beef	-0.17260335
10	0x3a84410b	0.0010090185
11	0x3ebeba8c	0.372517
12	0x3e6cda68	0.2313019
13	0x3efc5a7c	0.49287784
14	0x3eba376c	0.3637041
15	0xbea18e15	-0.31553712

VAE.encoder_mu.layers.1.attention.W_v.bias f4 [4]
0	0xbd72decd	-0.05929451
1	0xbcc35278	-0.023843035
2	0xbd043599	-0.032277677
3	0x3dc9dfad	0.09857116

VAE.encoder_mu.layers.1.linear0.weight f4 [128, 4]
0	0x3e9a3741	0.3012028
1	0xbef5c240	-0.47999763
2	0x3eb8c244	0.36085713
3	0xbe9a44a7	-0.30130503
4	0x3e94aaf4	0.29036677
5	0xbe690a86	-0.2275792
6	0x3f06a004	0.52587914
7	0x3ea90b2e	0.33016342
8	0xbbe250ae	-0.0069065904
9	0x3e0b5223	0.13605551
10	0x3d015c5f	0.031582233
11	0xbdafd691	-0.08585847
12	0xbefeb109	-0.49744442
13	0xbf029797	-0.5101256
14	0xbd624899	-0.055245016
15	0xbeca3d10	-0.39499712
16	0x3f01cac6	0.5070003
17	0x3dd2540b	0.10269936
18	0x3e8e5f6f	0.27807185
19	0x3cb9e460	0.022691905
20	0x3d723845	0.059135694
21	0xbf0bd88a	-0.5462729
22	0x3e17e486	0.14833269
23	0x3e01ec9b	0.12687914
24	0xbebd1632	-0.36930996
25	0xbecf5ba1	-0.40499595
26	0x3e7de1f4	0.24793226
27	0x3ed65ab0	0.41866064
28	0x3e94eb38	0.29085708
29	0xbe0e11d6	-0.13873991
30	0xbd480c11	-0.048839632
31	0xbe6571fc	-0.22406763
32	0xbeda5aaf	-0.4264731
33	0x3eb95409	0.36196926
34	0xbe73f947	-0.2382556
35	0xbe870b2b	-0.26375708
36	0xbeb621cd	-0.35572663
37	0x3e330e6f	0.17485975
38	0xbd05f48b	-0.032703917
39	0x3ea12702	0.31475073
40	0xbe581ae4	-0.21104008
41	0xbeec2898	-0.4612472
42	0x3efed3cb	0.4977096
43	0x3f04c286	0.5185932
44	0x3e82d922	0.25556284
45	0xbed7e47f	-0.42166516
46	0xbe486f46	-0.19573697
47	0x3eeba221	0.46022132
48	0xbeb82c60	-0.35971355
49	0xbdc19508	-0.094522536
50	0x3f016d9d	0.5055788
51	0xbea52d73	-0.32261238
52	0x3ed12d9c	0.4085511
53	0x3d876130	0.06610334
54	0xbe827eb4	-0.25487292
55	0x3e198834	0.14993364
56	0xbd70ec1e	-0.05881893
57	0x3ef1fc67	0.4726288
58	0x3eabc23e	0.33546633
59	0x3e601c1c	0.21885723
60	0xbeb27176	-0.3485219
61	0x3cbf52c1	0.02335489
62	0x3f1da328	0.6157708
63	0x3db349d4	0.08754316
64	0xbe615548	-0.22005188
65	0xbcb9b5c4	-0.02266968
66	0x3f0a36c1	0.539898
67	0xbe61bf31	-0.2204559
68	0x3d8f6345	0.07001356
69	0x3f08077c	0.5313642
70	0xbcc3ce28	-0.023902014
71	0xbf07c184	-0.53029656
72	0xbeb54347	-0.3540289
73	0xbe95efa6	-0.292844
74	0x3dc196b2	0.09452571
75	0x3e69c4bd	0.22828956
76	0xbe93dfd9	-0.2888172
77	0x3e4663d3	0.19374017
78	0x3e43fa2f	0.19138406
79	0x3ee58180	0.44825363
80	0x3eeaf334	0.45888674
81	0x3ea57e4a	0.32322913
82	0x3d296930	0.04136008
83	0x3da25544	0.079264194
84	0x3dd4a6f0	0.10383403
85	0xbe0d9d08	-0.13829434
86	0x3e3785fa	0.17922202
87	0xbe5f815d	-0.21826692
88	0xbea39220	-0.31947422
89	0x3ee01842	0.43768507
90	0xbc5dc65b	-0.013536061
91	0x3ec9ff51	0.39452603
92	0x3e4939fc	0.19651026
93	0xbe334062	-0.17505029
94	0xbcc81d7e	-0.024428125
95	0x3e78e763	0.24307017
96	0x3ecbed63	0.3982955
97	0xbe3365f4	-0.17519361
98	0x3eaa1157	0.33216354
99	0x3ddd18ee	0.107957706
100	0x3e293efc	0.16527933
101	0x3ea022bd	0.31276503
102	0xbf0f1adf	-0.5590038
103	0x3e9fa63d	0.31181517
104	0xbe139874	-0.14413625
105	0x3dd5948d	0.104287244
106	0xbefb9e83	-0.49144372
107	0x3ec5bcdb	0.38620648
108	0xbe7bdc76	-0.24595818
109	0x3e601c07	0.21885692
110	0x3eaaf2c1	0.33388332
111	0x3ed5833b	0.41701683
112	0x3da68537	0.081308775
113	0xbd2b3f8a	-0.041808642
114	0xbeadf2a1	-0.33974174
115	0xbeafe1e6	-0.34352034
116	0x3ea54cec	0.3228525
117	0x3f52bf36	0.82323015
118	0xbe8a0c1b	-0.2696236
119	0x3ea39cf6	0.3195569
120	0x3edfc99f	0.43708512
121	0x3e42613f	0.18982409
122	0xbed0faae	-0.40816253
123	0x3e9bd510	0.3043599
124	0xbd7dc50b	-0.061955493
125	0xbe47cc71	-0.19511582
126	0xbe9b6be8	-0.30355763
127	0xbeba9fc2	-0.3645001
128	0xbef1e9b6	-0.4724862
129	0x3dd6d74d	0.10490284
130	0x3d83610a	0.06414993
131	0xbbb72ce9	-0.0055900705
132	0xbe692b0b	-0.22770326
133	0xbe9de61a	-0.30839616
134	0x3ee19aaa	0.44063312
135	0xbed6173c	-0.418146
136	0x3de72efc	0.112882584
137	0x3eb0207b	0.3439978
138	0x3ed6146f	0.41812465
139	0x3e756073	0.23962574
140	0xbdb99f85	-0.09063629
141	0xbedaa8cc	-0.42706907
142	0xbd072d82	-0.033002384
143	0x3e8aedca	0.27134544
144	0x3da301d9	0.07959337
145	0x3de7293b	0.11287161
146	0xbefde345	-0.49587455
147	0xbddac8f1	-0.10682858
148	0x3e200505	0.15626915
149	0xbde34854	-0.1109778
150	0xbe95d37e	-0.29262918
151	0x3edd4371	0.43215516
152	0x3ed7a270	0.42116117
153	0xbea41e46	-0.32054347
154	0xbcbcf317	-0.023065133
155	0xbe323246	-0.1740199
156	0xbd590e84	-0.05299236
157	0xbe189edb	-0.14904349
158	0x3d900ce6	0.0703371
159	0xbe39576c	-0.18099755
160	0x3e29d401	0.1658478
161	0x3e29b9e8	0.16574824
162	0x3cced06a	0.025245864
163	0x3eccedb9	0.40025118
164	0x3ed14289	0.40871075
165	0xbdf437ec	-0.11924729
166	0x3f1d1141	0.6135445
167	0x3d38c298	0.045107454
168	0xbe647242	-0.22309211
169	0x3e24eef3	0.16106777
170	0x3d4628d4	0.04837878
171	0x3ecc799b	0.39936528
172	0xbe8e48f9	-0.2779005
173	0xbf018940	-0.5060005
174	0x3ecaa936	0.39582223
175	0x3e9eb964	0.31000817
176	0x3e7c5671	0.2464235
177	0x3ec36201	0.3816071
178	0x3d3797b8	0.044822425
179	0x3ef14b92	0.47127968
180	0xbcb6cfb2	-0.022315834
181	0x3ef4cdb2	0.47813183
182	0xbe7bb876	-0.24582085
183	0xbe9a1f75	-0.30102125
184	0xbeb08683	-0.34477624
185	0xbea8ccc9	-0.3296874
186	0x3e72807a	0.23681822
187	0x3e6247d6	0.22097716
188	0xbded0814	-0.115738064
189	0xbe49ed0d	-0.19719334
190	0x3ee3544d	0.44400254
191	0x3ec0b7ae	0.37640136
192	0x3eac4f00	0.33654022
193	0x3eede114	0.46460783
194	0x3d965ce9	0.0734194
195	0xbe8303c1	-0.25588802
196	0x3eb5659d	0.35429087
197	0xbe839897	-0.25702354
198	0x3c3145a1	0.0108198235
199	0xbe42dcff	-0.19029616
200	0xbeed8b44	-0.46395314
201	0xbd2c5645	-0.04207446
202	0x3e85e9d7	0.26154968
203	0x3e5018b7	0.20321928
204	0x3e8b2509	0.27176693
205	0xbeb54140	-0.35401344
206	0x3d8a2127	0.067446046
207	0xbe453744	-0.19259363
208	0x3d0b6a55	0.034036953
209	0xbf09d621	-0.5384236
210	0x3ed10915	0.40827242
211	0xbeccb802	-0.39984137
212	0xbe1b8434	-0.1518715
213	0x3ea4b3c9	0.32168415
214	0x3d9e431c	0.07727644
215	0xbe9b9b2b	-0.3039182
216	0x3e34195b	0.17587797
217	0xbe08d14c	-0.1336109
218	0x3ec6739d	0.3876008
219	0xbded8776	-0.11598103
220	0x3eb70e51	0.3575311
221	0x3e4c0982	0.19925502
222	0x3ec03dd9	0.37547186
223	0x3ef1438d	0.4712185
224	0x3ee95b6f	0.4557757
225	0x3eb2f88f	0.3495526
226	0x3ea35485	0.3190042
227	0xbf08b3aa	-0.53399146
228	0xbe5ca7d1	-0.21548392
229	0xbe804c10	-0.2505803
230	0x3ef62c88	0.4808085
231	0x3eef3d6c	0.4672655
232	0xbd4a5e85	-0.049406547
233	0x3ea9ff24	0.3320247
234	0x3e964e11	0.29356435
235	0x3ee9b383	0.4564477
236	0x3e7019a6	0.23447284
237	0x3ea3d4ab	0.3199819
238	0xbe4261b8	-0.18982589
239	0x3e946442	0.2898274
240	0x3e173e0d	0.14769764
241	0x3e413d16	0.18870959
242	0x3d229bcd	0.039699364
243	0xbe3f76af	-0.18697618
244	0x3eb60151	0.3554788
245	0x3eb061d0	0.34449625
246	0xbd85e1bd	-0.06537197
247	0xbe91e99e	-0.28498548
248	0x3ec8bc5d	0.3920621
249	0xbd6499e1	-0.055810813
250	0xbec7c965	-0.3902084
251	0x3e562ce4	0.20915562
252	0x3e8c2da5	0.27378574
253	0xbe2a7ffc	-0.16650385
254	0xbd83a02a	-0.06427033
255	0x3e3f7d36	0.18700108

VAE.encoder_mu.layers.1.linear0.bias f4 [128]
0	0xbe1d829a	-0.15381852
1	0xbebf16b6	-0.37322015
2	0xbe04bd6d	-0.12962885
3	0x3ea729bf	0.32649037
4	0xbd786212	-0.060640402
5	0xbc8ccf59	-0.017188715
6	0x3e1b0cbb	0.15141575
7	0x3d71974e	0.058982186
8	0x3e2ae453	0.16688661
9	0xbc80346f	-0.015650002
10	0xbdd45dcf	-0.10369455
11	0x3ed80d08	0.42197442
12	0xbcf721c9	-0.030167477
13	0x3eb02a7e	0.3440742
14	0x3d963732	0.073347464
15	0xbebbcd1b	-0.3667992
16	0x3e0e1b9f	0.13877724
17	0xbe90e2ec	-0.28298128
18	0x3da499aa	0.080371216
19	0x3ea28602	0.31742865
20	0x3dfaed0a	0.12252243
21	0xbeeff4bb	-0.46866402
22	0x3ee73d31	0.45163873
23	0xbec0e7fb	-0.37676987
24	0x3e81d144	0.2535497
25	0xbeccf2ca	-0.40028983
26	0x3e759fbd	0.23986717
27	0xbeaec0fb	-0.34131607
28	0x3ea52258	0.32252765
29	0xbed311f9	-0.4122465
30	0xbec50fb7	-0.38488552
31	0x3e7649a6	0.24051532
32	0x3d60392f	0.054742035
33	0x3ed4f4ac	0.4159292
34	0x3ea30a69	0.3184388
35	0x3ec448ac	0.38336694
36	0x3ee3a928	0.44464993
37	0x3d853d6e	0.065058574
38	0xbeb676a6	-0.35637397
39	0xbebcf679	-0.36906794
40	0x3dcaef75	0.09908954
41	0x3eafd538	0.3434236
42	0xbe2aa5ba	-0.16664782
43	0x3ea79697	0.32732078
44	0x3e800a72	0.2500797
45	0xbee25ec0	-0.44212914
46	0xbe4ec5d3	-0.20192651
47	0x3ec0aa35	0.37629858
48	0xbc816188	-0.015793577
49	0xbe885c00	-0.2663269
50	0x3df69a8a	0.12041195
51	0xbe4ac6d2	-0.19802406
52	0x3e377e9d	0.17919393
53	0xbe836b13	-0.2566763
54	0xbc23ece5	-0.0100052105
55	0x3ed77a99	0.42085722
56	0xbe080a07	-0.13285075
57	0xbeb7c363	-0.35891256
58	0xbed09062	-0.40735155
59	0xbdf366ba	-0.11884828
60	0x3daa87f3	0.083267115
61	0xbed2098c	-0.4102291
62	0xbe42170e	-0.18954107
63	0x3ec228b4	0.3792168
64	0x3e81a7dc	0.2532338
65	0xbe95560c	-0.2916721
66	0x3e7baabf	0.24576853
67	0xbdd75f60	-0.10516238
68	0x3e99ec8e	0.3006329
69	0xbe363174	-0.17792302
70	0xbef7814e	-0.4834084
71	0xbe214f28	-0.15752852
72	0xbecacede	-0.39610952
73	0x3e996c62	0.29965502
74	0x3da306c0	0.07960272
75	0xbec3a547	-0.38212034
76	0x3c561ea1	0.013068826
77	0xbf005c60	-0.50140953
78	0xbd7da499	-0.06192455
79	0x3deb9e65	0.11504821
80	0x3ee5908d	0.44836846
81	0x3c2fca10	0.010729328
82	0x3ed10a1f	0.40828034
83	0xbd9061b6	-0.07049887
84	0xbea46f08	-0.3211596
85	0x3ece4933	0.40290222
86	0xbdf75628	-0.1207698
87	0x3ee87d04	0.4540788
88	0xbef564f8	-0.47928596
89	0x3e001509	0.12508024
90	0x3d5b438e	0.053531222
91	0x3d5745f3	0.052556943
92	0x3e099827	0.13436948
93	0x3eb67919	0.35639265
94	0xbd4128ee	-0.047158174
95	0xbe6a6455	-0.22889836
96	0xbebbd800	-0.36688232
97	0x3eeae82d	0.4588026
98	0x3ee23798	0.4418304
99	0xbea97611	-0.3309789
100	0xbbf07859	-0.0073385653
101	0x3eea0104	0.457039
102	0xbece16ae	-0.40251678
103	0x3eba687d	0.36407843
104	0x3ed966a8	0.42461133
105	0x3ee087e8	0.43853688
106	0x3eb8bb2c	0.360803
107	0xbd2e2b72	-0.0425219
108	0xbe40e21d	-0.18836255
109	0x3d983cc5	0.07433466
110	0x3deef6ab	0.11668142
111	0xbe47c433	-0.19508438
112	0x3ea21de3	0.31663427
113	0x3ea689b5	0.32526937
114	0xbec0b426	-0.37637442
115	0xbed2f426	-0.41201895
116	0xbcf37485	-0.029718647
117	0xbef03066	-0.46911925
118	0xbeae5e7c	-0.3405646
119	0x3f0aac2c	0.54168963
120	0xbe11d854	-0.14242679
121	0xbe14e628	-0.14540923
122	0xbde7e634	-0.11323205
123	0xbe89b5cb	-0.2689651
124	0xbe117db2	-0.14208105
125	0x3e871aca	0.26387626
126	0xbe6d5f4c	-0.23180884
127	0x3ea3104a	0.31848365

VAE.encoder_mu.layers.1.linear1.weight f4 [4, 128]
0	0xbd9b9402	-0.075965896
1	0x3dc8ad6f	0.09798705
2	0x3d4e1a1b	0.050317865
3	0x3d8f7031	0.07003821
4	0xbcc18831	-0.023624511
5	0x3dd29e52	0.102841035
6	0x3debe84b	0.11518916
7	0xbcc977ba	-0.024593223
8	0x3d31be10	0.04339415
9	0xbd088667	-0.0333313
10	0x3dc29f92	0.09503092
11	0xbc3c6df6	-0.011500826
12	0x3c34fd8d	0.011046779
13	0x3d1dad1c	0.038495168
14	0x3ce26a4f	0.027638583
15	0x3e1db20e	0.15399954
16	0xbce77716	-0.028255027
17	0xbdffced9	-0.12490625
18	0x3dad40d2	0.08459629
19	0x3dd98a8d	0.106221296
20	0xbdce5929	-0.100756
21	0xbde2bfcd	-0.11071739
22	0xbd4001d4	-0.046876743
23	0xbc017d14	-0.007903356
24	0x3c3b7924	0.011442456
25	0xbe106038	-0.14099205
26	0xbd74bf80	-0.05975294
27	0x3cca18a6	0.024669956
28	0x3d2ad9e6	0.04171171
29	0xbefa49e0	-0.48884487
30	0xbc934ca0	-0.017980874
31	0xbda7e244	-0.081974536
32	0xbd28cc9b	-0.041210752
33	0x3d5c98f5	0.05385681
34	0x3cb12e67	0.021628572
35	0x3dd3f630	0.10349691
36	0xbcea9030	-0.028633207
37	0xbd2e1ddc	-0.042508945
38	0xbd282a97	-0.04105624
39	0xbd288d0c	-0.041150138
40	0xbd4703a2	-0.04858745
41	0xbc43d1e9	-0.011951902
42	0x3d4ad73e	0.049521677
43	0x3e1c0e55	0.15239842
44	0xbc91644c	-0.01774802
45	0xbdbea2f6	-0.09308426
46	0x3c8783cf	0.016542343
47	0x3df01372	0.11722459
48	0xbdc75673	-0.09733286
49	0xbca731f4	-0.020409562
50	0x3e277ac5	0.16355427
51	0xbb9db64f	-0.0048129926
52	0xbcc35c14	-0.023847617
53	0xbdd5cb98	-0.10439223
54	0x3bc9346d	0.006140283
55	0x3dd05d5d	0.10174058
56	0xbd8aed0d	-0.06783495
57	0x3dddfc75	0.10839168
58	0x3da7838a	0.08179386
59	0xbde3eab5	-0.11128751
60	0x3c33bd86	0.010970479
61	0xbcba7bf8	-0.022764191
62	0x3c178279	0.009247416
63	0xbcfa3eb5	-0.03054748
64	0xbdb5c40f	-0.08875286
65	0x3d77bfc5	0.06048562
66	0x3d3cb2c7	0.046068933
67	0x3d75332d	0.05986326
68	0xbd920b7e	-0.07131098
69	0x3db0dfe1	0.086364515
70	0x3d26b1ff	0.040697094
71	0x3d523de0	0.05132854
72	0xbf0ca696	-0.5494169
73	0x3c9a31f8	0.018822655
74	0x3d1eca9d	0.038767446
75	0x3bcb40c3	0.0062027886
76	0x3da31f44	0.07964948
77	0x3d972bce	0.07381402
78	0xbd4eacbf	-0.050457712
79	0x3d901218	0.07034701
80	0x3dd59440	0.10428667
81	0x3db6a6c9	0.089185305
82	0x3d8118e2	0.06303574
83	0x3d3cce57	0.04609522
84	0x3da0a750	0.07844412
85	0xbe2f6b2f	-0.17130731
86	0x3d94b817	0.07261675
87	0x3c96ad81	0.01839328
88	0x3ddc04bf	0.10743093
89	0x39aa07b1	0.00032430657
90	0xbdb679bc	-0.08909938
91	0x3c861f6f	0.01637241
92	0xbd633558	-0.055470794
93	0x3d442224	0.04788412
94	0xbd80c677	-0.06287854
95	0x3d2df2b7	0.0424678
96	0x3db52429	0.088447876
97	0x3d5614bd	0.05226587
98	0xbd5eccfb	-0.054394703
99	0x3c8a7cef	0.016905276
100	0xbd38c04d	-0.045105267
101	0x3d9f2529	0.077707596
102	0xbcbb4d18	-0.02286391
103	0xbd880955	-0.06642405
104	0xbd81d53b	-0.063394986
105	0x3d1a16d0	0.037619412
106	0x3d523fa5	0.051330227
107	0xbd39603c	-0.045257792
108	0x3d38e6ce	0.045141988
109	0xbe01eba0	-0.1268754
110	0xbe47ee4e	-0.195245
111	0xbd6f754d	-0.058461476
112	0xbd1c3153	-0.038132977
113	0xbde0c553	-0.109751366
114	0xbb0046fe	-0.0019573565
115	0x3df92119	0.12164516
116	0xbc1d71c7	-0.009609646
117	0x3c813946	0.01577438
118	0xbe5fbbed	-0.21849032
119	0x3d9c0178	0.07617468
120	0x3e148922	0.14505437
121	0xbd6ef92b	-0.058343094
122	0xbcf0a3c7	-0.02937497
123	0xbdb32ab7	-0.087483816
124	0x3d9564c3	0.072946094
125	0xbc9c7b85	-0.019101867
126	0x3dce8221	0.10083414
127	0xbcdbe0a6	-0.02684052
128	0xbd911e05	-0.07085804
129	0xbd81e542	-0.063425556
130	0x3c4daa0e	0.012552751
131	0xbbf1edb2	-0.007383072
132	0xbd716140	-0.058930635
133	0xbdf37e2d	-0.118893005
134	0xbd95b865	-0.07310561
135	0xbd0d4115	-0.034485895
136	0xbd435c91	-0.0476957
137	0x3c257c45	0.010100429
138	0xbcdcc30a	-0.02694847
139	0xbd0f66c3	-0.03501011
140	0xbdf2897d	-0.1184263
141	0x3d70a798	0.05875358
142	0xbd526c54	-0.05137284
143	0xbc1307dd	-0.008974043
144	0x3c733151	0.014843301
145	0x3d473cc3	0.04864193
146	0xbdb8cd50	-0.09023535
147	0xbd82a84e	-0.06379758
148	0x3c314764	0.0108202435
149	0xbdb7f1f5	-0.089816965
150	0xbddf3717	-0.108991794
151	0x3d9721c8	0.0737949
152	0xbe071fca	-0.1319572
153	0x3e036e26	0.12834987
154	0x3bba3be6	0.00568341
155	0xbd94911b	-0.07254239
156	0x3c3cc8cf	0.011522486
157	0xbd60f1a9	-0.054917965
158	0x3d0e13de	0.034686916
159	0x3d169568	0.03676358
160	0xbdcd7a79	-0.100331254
161	0xbd0675dd	-0.032827247
162	0x3c2760a6	0.010215914
163	0xbd81fb6c	-0.06346783
164	0x3cceae7b	0.025229683
165	0x3cb471fd	0.02202701
166	0xbe05ba5b	-0.1305937
167	0xb9dd8570	-0.00042251823
168	0x3db5acee	0.08870874
169	0xbdee12e7	-0.11624699
170	0xbdc30248	-0.095219195
171	0x3d69f1a9	0.05711523
172	0xbd547fa1	-0.05187953
173	0x3d01efab	0.031722706
174	0x3d689965	0.056786913
175	0x3cf466b5	0.02983413
176	0xbcdf8487	-0.027284874
177	0xbe2d4930	-0.1692245
178	0x3c289c0e	0.010291113
179	0xbd972bb2	-0.07381381
180	0xbdfd7964	-0.12376669
181	0xbd0c4114	-0.03424175
182	0x3c6ee699	0.014581346
183	0x3c8a57e2	0.016887609
184	0xbcb3dfc1	-0.02195728
185	0x3b18b501	0.0023301246
186	0x3d62a88d	0.055336524
187	0x3dcfcf9b	0.101470195
188	0x3bbb2bd8	0.0057120137
189	0x3bc3726c	0.005964568
190	0x3c17b4f7	0.009259454
191	0xbd3e4204	-0.046449676
192	0xbb19e27e	-0.0023480947
193	0xbde2da20	-0.1107676
194	0xbdc77b29	-0.09740288
195	0x3d40e3c0	0.0470922
196	0x3d495227	0.049150612
197	0xbba93699	-0.0051639793
198	0xbcab06cf	-0.02087727
199	0xbd885b46	-0.06658034
200	0x3f68f110	0.9099283
201	0x3d87f7f3	0.066390894
202	0xbbddbf26	-0.0067671714
203	0x3d88d80d	0.066818334
204	0xbd970852	-0.07374634
205	0x3c8b4038	0.016998395
206	0xbd1708b5	-0.036873538
207	0x3b936286	0.004497829
208	0x3d9db2a1	0.077000864
209	0xbcf112a0	-0.029427826
210	0xbdae8bef	-0.08522784
211	0xbd81a42e	-0.06330143
212	0x3d5d7a05	0.054071445
213	0x3d11411d	0.035462487
214	0x3dc1bb59	0.09459562
215	0xbd84e7ec	-0.06489548
216	0x3dceb4b9	0.10093064
217	0x3dd6bfda	0.104858115
218	0x3e033328	0.12812483
219	0x3de04782	0.10951139
220	0xbc7f73b4	-0.015591551
221	0xbdfc95df	-0.12333273
222	0x3c5733a6	0.013134873
223	0xbc90d31c	-0.01767879
224	0xbd80ec13	-0.062950276
225	0xbcb85781	-0.022502663
226	0x3d0782b9	0.03308365
227	0xbd81295a	-0.06306715
228	0x3bb200ae	0.00543221
229	0x3debd641	0.11515475
230	0xbcd93694	-0.026515283
231	0xbdff7a9f	-0.1247456
232	0x3d309581	0.043111328
233	0x3d38436e	0.04498618
234	0x3d75e127	0.060029175
235	0xbd11703d	-0.03550743
236	0xbcab24ae	-0.020891514
237	0xbd631187	-0.055436637
238	0xbd0243f8	-0.0318031
239	0xbdb5c488	-0.08875376
240	0x3d6f5417	0.058429804
241	0x3b875715	0.004130254
242	0x3d83958d	0.06425009
243	0xbc8db7b4	-0.01729951
244	0x3d09a407	0.033603694
245	0x3d097298	0.03355655
246	0xbe80447d	-0.25052252
247	0xbd2db333	-0.042407226
248	0xbac01f5e	-0.0014657786
249	0xbda823ed	-0.08209977
250	0xbce42c54	-0.027853169
251	0xbe632a5c	-0.22184128
252	0xbcaf9b81	-0.021436455
253	0x3deb947c	0.115029305
254	0xbc9df80b	-0.019283315
255	0xbd02b7db	-0.03191362

VAE.encoder_mu.layers.1.linear1.bias f4 [4]
0	0xbd8955a0	-0.06705785
1	0xbc4956a8	-0.012288727
2	0x3d84cb01	0.064840324
3	0x3ce4bcca	0.027922053

VAE.encoder_mu.layers.1.norm1.weight f4 [4]
0	0x3f8f2c15	1.1185328
1	0x3f88b5e1	1.0680505
2	0x3f8d3c4c	1.1034026
3	0x3f835616	1.0260646

VAE.encoder_mu.layers.1.norm1.bias f4 [4]
0	0xbce713fd	-0.028207773
1	0xbcb08e55	-0.021552244
2	0x3d115c95	0.035488684
3	0x3dcbb2c9	0.0994621

VAE.encoder_mu.layers.1.norm0.weight f4 [4]
0	0x3f3deee0	0.7419262
1	0x3f9af53e	1.2106092
2	0x3f9f3d61	1.2440606
3	0x3f6609e6	0.89858854

VAE.encoder_mu.layers.1.norm0.bias f4 [4]
0	0x3d30336a	0.043017782
1	0x3e19c9cc	0.15018386
2	0x3dbd375b	0.09239074
3	0xbd6a9321	-0.05726922

VAE.encoder_mu.last_normalization.weight f4 [4]
0	0x3f800000	1.0
1	0x3f800000	1.0
2	0x3f800000	1.0
3	0x3f800000	1.0

VAE.encoder_mu.last_normalization.bias f4 [4]
0	0x00000000	0.0
1	0x00000000	0.0
2	0x00000000	0.0
3	0x00000000	0.0

VAE.encoder_mu.head.weight f4 [4, 4]
0	0x3edc8814	0.4307257
1	0xbd3d1d20	-0.046170354
2	0x3a79f400	0.0009534955
3	0xbe963726	-0.2933895
4	0xbeff9170	-0.49915648
5	0xbef0f210	-0.4705968
6	0x3edf42ca	0.43605644
7	0x3eddf652	0.4335199
8	0xbe0545c0	-0.13014889
9	0xbed30f98	-0.41222835
10	0x3e9fc216	0.31202763
11	0xbe6fcdb0	-0.23418307
12	0xbec1d5f0	-0.37858534
13	0xbecb30c2	-0.39685637
14	0x3d31b370	0.043384016
15	0xbe9b12ba	-0.30287725

VAE.encoder_mu.head.bias f4 [4]
0	0x3cca0a40	0.02466309
1	0x3ec9ec32	0.39438015
2	0x3e8d98e2	0.27655703
3	0xbef24b08	-0.4732287

VAE.encoder_logvar.layers.0.attention.W_q.weight f4 [4, 4]
0	0xbca579a3	-0.020199602
1	0x3db71388	0.08939272
2	0x3e2aeed3	0.16692667
3	0xbeb576d4	-0.3544222
4	0xbf0bed8e	-0.54659355
5	0xbf105742	-0.56383145
6	0xbf128e22	-0.5724813
7	0xbf2c7965	-0.67372733
8	0x3f0faf5d	0.5612696
9	0x3f6d972f	0.9280881
10	0x3fa54ffe	1.2915037
11	0x3c6877d8	0.014188729
12	0x3f2cdeee	0.67527664
13	0x3e5a9698	0.2134651
14	0xbe21e3a9	-0.15809502
15	0x3ea9feb5	0.3320214

VAE.encoder_logvar.layers.0.attention.W_q.bias f4 [4]
0	0x3dc0a931	0.09407271
1	0x3d8eaf42	0.069670215
2	0x3db2ee9a	0.08736916
3	0x3c402c69	0.011729338

VAE.encoder_logvar.layers.0.attention.W_k.weight f4 [4, 4]
0	0xbebc27d2	-0.3674913
1	0xbdde17b0	-0.10844362
2	0xbded61a2	-0.115908876
3	0xbebc6522	-0.36795908
4	0xbf087e88	-0.5331807
5	0xbe375d4b	-0.17906682
6	0xbde7dca0	-0.11321378
7	0x3f3cec7d	0.7379835
8	0x3eb4fd1a	0.3534935
9	0xbf157b56	-0.5839132
10	0x3ed69451	0.4191003
11	0xbf647299	-0.8923736
12	0x3ede2725	0.4338924
13	0xbd8b7581	-0.068095215
14	0xbe9af96b	-0.30268416
15	0xbf038e08	-0.513886

VAE.encoder_logvar.layers.0.attention.W_k.bias f4 [4]
0	0xb6595da4	-3.2390026e-06
1	0xb8259295	-3.947558e-05
2	0x388b2855	6.635549e-05
3	0x38271e66	3.9844213e-05

VAE.encoder_logvar.layers.0.attention.W_v.weight f4 [4, 4]
0	0x3c53a390	0.012917414
1	0xbba55940	-0.00504604
2	0x3e178254	0.1479581
3	0x3dc7e810	0.09761059
4	0xbe3327b4	-0.17495614
5	0x3e1ca030	0.15295482
6	0x3d06eca3	0.032940518
7	0x3eb8d855	0.36102548
8	0x3d8db430	0.06919134
9	0x3d74e122	0.059785016
10	0x3de28d87	0.110621504
11	0x3dcde92a	0.10054238
12	0xbcb242b3	-0.02176032
13	0x3d512234	0.05105801
14	0x3e286b8d	0.16447277
15	0x3e46cbd9	0.19413699

VAE.encoder_logvar.layers.0.attention.W_v.bias f4 [4]
0	0x3caf50b7	0.021400793
1	0xbcec3bff	-0.028837202
2	0xbda88854	-0.082291275
3	0xbe7d2f7c	-0.24725145
