tabsyn/vae/ckpt/default/major_finetune_on_minor/model.pt (torch, 70246 bytes, 112 tensors)

VAE.Tokenizer.weight f4 [15, 4]
0.15293822 -0.2749146 -0.0008719553 -0.40177009 -0.1299937 -0.24724112 0.18876974 -0.10508434
0.08762116 0.05449325 -0.13791165 0.07244745 0.04558692 -0.1435946 -0.12649834 0.15591642
0.10084472 -0.0615048 -0.21261647 0.089121565 0.11618048 0.10435444 0.112434566 -0.21630071
0.025252087 -0.08950336 0.3746911 0.077450186 0.17774627 0.23195976 0.20175663 -0.114522
-0.22620223 -0.20367593 0.18841764 -0.22184433 -0.25150806 -0.28988412 -0.2592531 0.11906678
-0.19238319 -0.28187475 0.4269763 -0.2401028 0.0020119366 -0.3620284 -0.25395703 -0.114493616
-0.30080864 -0.40617424 -0.29991132 0.08731063 -0.22361255 -0.12437685 0.08922534 -0.17597741
-0.18121846 0.21287808 -0.3012469 -0.059314474
00000000: d69b 1c3e 9bc1 8cbe ee93 64ba cfb4 cdbe
00000010: 121d 05be c72c 7dbe db4c 413e 7536 d7bd
00000020: b972 b33d 5034 5f3d b638 0dbe 545f 943d
00000030: 5ab9 3a3d 760a 13be c888 01be 8ea8 1f3e
00000040: ad87 ce3d 75ec 7bbd 22b8 59be 5e85 b63d
00000050: 08f0 ed3d c8b7 d53d 1844 e63d ef7d 5dbe
00000060: 77dd ce3c 8a4d b7bd 83d7 bf3e 349e 9e3d
00000070: 1e03 363e dc86 6d3e 4a99 4e3e 838a eabd
00000080: 8fa1 67be 6c90 50be 8ef0 403e 292b 63be
00000090: aac5 80be b16b 94be d3bc 84be 49d9 f33d
000000a0: 1900 45be e351 90be a39c da3e 82dd 75be
000000b0: b2da 033b c95b b9be a806 82be a17b eabd
000000c0: 9703 9abe 12f6 cfbe fa8d 99be eacf b23d
000000d0: b0fa 64be 4ab9 febd c6bb b63d 6c33 34be
000000e0: 5591 39be b6fc 593e 093d 9abe bcf3 72bd

VAE.Tokenizer.bias f4 [23, 4]
-0.46980292 0.39463657 -0.005703902 0.4354314 -0.4144267 -0.25196445 -0.010418887 0.5158172
-0.5910259 0.12854451 0.6187303 0.36240405 -0.5720379 -0.017944504 -0.3657029 0.35292053
0.09144157 0.010105728 -0.5341665 -0.44549477 -0.36764202 0.5260138 -0.18534018 0.45423996
-0.009791062 -0.19783166 0.1823552 -0.060234983 -0.65555036 -0.20275274 -0.49369216 0.5649932
0.35126132 0.0079624625 0.49093717 0.22324996 -0.6316993 -0.18371645 0.5628285 -0.40120673
-0.12625247 0.48449594 -0.44126093 0.5329366 0.096092865 -0.24442452 0.22198148 -0.17799078
-0.32788444 -0.36012563 0.22911061 0.45389047 0.038848385 0.15677404 -0.29909447 0.60196084
0.28836018 0.16719262 0.2578501 -0.20256707 0.37428987 0.1912633 0.3207377 -0.15516986
-0.004359775 0.3459832 -0.24375865 0.2661649 -0.24170697 0.082792394 -0.43595344 -0.03906904
-0.11881549 -0.21643256 -0.20861682 -0.17871779 0.003611966 0.0345991 0.14992028 0.33530763
0.030512463 0.3470002 -0.14556271 0.16369626 0.13807757 0.03100279 -0.44977847 -0.43925446
-0.21135344 -0.1086007 -0.20092952 0.09481582
00000000: 028a f0be ce0d ca3e cce7 babb ddf0 de3e
00000010: bd2f d4be 7c01 81be fbb3 2abc 990c 043f
00000020: 794d 17bf 2ca1 033e 1c65 1e3f 068d b93e
00000030: 1371 12bf 5a00 93bc 693d bbbe 00b2 b43e
00000040: b845 bb3d 7f92 253c 23bf 08bf e417 e4be
00000050: 933b bcbe d7a8 063f d1c9 3dbe 2492 e83e
00000060: b16a 20bc 6294 4abe 52bb 3a3e f5b8 76bd
00000070: 26d2 27bf 6a9e 4fbe 38c5 fcbe 65a3 103f
00000080: 86d8 b33e fd74 023c 1e5c fb3e a39b 643e
00000090: 0cb7 21bf 2a20 3cbe 8715 103f f86a cdbe
000000a0: 5448 01be da0f f83e f4ec e1be 886e 083f
000000b0: 56cc c43d 6c4a 7abe 1d4f 633e 3743 36be
000000c0: 78e0 a7be 6362 b8be f99b 6a3e 5564 e83e
000000d0: 7c1f 1f3d 6089 203e e922 99be 1b1a 1a3f
000000e0: f2a3 933e 8b34 2b3e ee04 843e be6d 4fbe
000000f0: eca2 bf3e 87da 433e bb37 a43e d9e4 1ebe
00000100: 72dc 8ebb b624 b13e de9b 79be c446 883e
00000110: 0882 77be 0f8f a93d 4a35 dfbe dc06 20bd
00000120: 8955 f3bd 7fa0 5dbe a69f 55be cc01 37be
00000130: bcb6 6c3b c9b7 0d3d b484 193e 71ad ab3e
00000140: 46f5 f93c 03aa b13e 640e 15be fe9f 273e
00000150: 3564 0d3e 90f9 fd3c 5d49 e6be f6e5 e0be
00000160: 096d 58be 0b6a debd 78c0 4dbe cc2e c23d

VAE.Tokenizer.category_embeddings.weight f4 [77, 4]
0.1706645 -0.40073672 0.12533583 0.1666495 -0.2615765 0.09637732 -0.14463212 0.02695354
0.5054345 -1.1604729 0.2304285 0.0010967352 -0.35424656 -0.34309545 0.45630896 0.2622369
-0.30086312 0.08115413 -0.030372899 -0.05281513 0.14052826 -0.026407966 -0.20184374 0.19451185
0.33766592 0.14896117 -0.28512335 -0.69267356 -0.1716181 -0.39497513 -0.394736 0.47424564
0.07396564 -0.36091042 0.20076416 0.27325812 -0.30591932 -0.30763996 -0.030927768 -0.5643157
-0.20730592 -0.1039917 -0.03772988 0.0011995803 -0.018476663 -0.1303017 0.2699026 -0.5140299
0.27643207 -0.0029385206 0.073333584 -0.09381324 -0.016927091 -0.27393565 0.94539714 -0.120868355
0.49191076 -0.33389595 0.06752041 -0.47686306 -0.48695868 0.06298633 -0.32755452 -0.1894196
-0.10989047 -0.17577955 0.077762 -0.5996776 0.30051816 -0.48362905 0.26587433 0.31921807
0.21437177 -0.024773328 -0.2568547 0.5833012 -0.0025621653 -0.30618122 0.021272432 -0.3299801
-0.07139786 -0.026180577 0.09961607 -0.23890038 0.32825616 -0.3971809 0.19934295 0.19396153
0.25599208 -0.3353206 -0.058459487 0.2511663 0.066449605 -0.24118482 -0.015334591 -0.39910477
0.14532103 0.31643873 -0.45005342 0.28161302 -0.26634958 0.25015157 -0.2219897 -0.2470545
0.3212807 -0.3457474 0.29542586 -0.1193573 -0.08672903 -0.12829895 -0.2239719 -0.17966102
0.036216967 -0.65216875 -0.16558124 0.33920634 0.0026447424 -0.0045451904 -0.102070555 -0.021634921
-0.20834638 0.1487454 -0.3544985 -0.60541797 -0.07701926 0.06492947 -0.34995347 -0.30433616
0.112703525 0.9191167 0.02081501 -0.067090146 0.29768205 0.48110175 0.07939297 0.012852052
-0.47917017 -0.13047883 0.13023467 -0.22077785 0.28367132 -0.6720382 1.1394444 -0.27776402
0.040132586 0.0055970545 0.7258395 -0.07572156 -0.16343798 0.074579164 -0.14472513 0.22969255
0.33315197 0.04500776 -0.10064944 -0.032235757 0.26852015 0.8458062 0.3453516 -0.2927186
-0.60964394 1.0041741 -1.1340618 -0.062405568 0.30441368 0.8364092 -0.7760381 -0.02886076
0.17391495 0.11026459 0.08523051 -0.26385906 0.045891736 -0.04841786 -0.09488304 -0.8766394
0.48124656 0.3757931 0.049279094 -0.061236296 0.38842767 0.07544496 -0.27916715 -0.011537883
0.46024114 -0.47955155 0.21165387 0.17102876 -0.20774074 0.110784575 0.02519251 -0.14399719
0.22024095 0.4399751 -0.5491382 -0.3070542 -0.12325601 0.13513649 0.18993147 -0.3091979
0.06556583 0.109287255 -0.20771372 0.041390054 0.27855495 0.2857148 0.011150388 -0.5148251
-1.1058415 1.0153309 -0.8451024 0.77017593 0.40326592 -0.28085485 0.12083874 0.28475836
0.45259747 0.38279283 0.5350403 0.21595089 -0.34860432 0.6237643 -0.46502087 -0.44069073
0.16064946 -0.53252935 0.0071689105 -0.040965892 -0.30076364 0.29369035 0.07144986 -0.20596498
0.21326897 -0.23848416 0.1360366 -0.07377098 -0.30750972 0.29136327 -0.16549581 0.43864256
-0.26257774 -0.68804514 0.04245182 0.44811153 -0.37393066 -0.29203826 0.31124374 0.48643726
-0.93365026 1.0588373 -0.5496934 0.59782773 -0.056982532 0.16757658 0.14698707 0.15676512
00000000: adc2 2e3e 5d2d cdbe 0958 003e 2ba6 2a3e
00000010: 5bed 85be 7961 c53d 711a 14be accd dc3c
00000020: 2864 013f 608a 94bf 73f5 6b3e 54c0 8f3a
00000030: ce5f b5be 35aa afbe 54a1 e93e ea43 863e
00000040: bb0a 9abe 2334 a63d 96d0 f8bc ae54 58bd
00000050: a4e6 0f3e 8555 d8bc 20b0 4ebe 1d2e 473e
00000060: 8ce2 ac3e 4789 183e b0fb 91be 0e53 31bf
00000070: a8bc 2fbe 2e3a cabe d61a cabe 53d0 f23e
00000080: 4c7b 973d 40c9 b8be 1f95 4d3e 7de8 8b3e
00000090: 75a1 9cbe fc82 9dbe 3b5c fdbc fe76 10bf
000000a0: 0148 54be 9af9 d4bd a68a 1abd 3c3b 9d3a
000000b0: 5f5c 97bc cf6d 05be ac30 8a3e 7797 03bf
000000c0: 8188 8d3e 3294 40bb eb2f 963d 2821 c0bd
000000d0: afaa 8abc 4b41 8cbe 8c05 723f d489 f7bd
000000e0: badb fb3e 69f4 aabe 2448 8a3d 6527 f4be
000000f0: a652 f9be fafe 803d 3ab5 a7be 36f7 41be
00000100: 410e e1bd 8eff 33be af41 9f3d 7984 19bf
00000110: 84dd 993e 3a9e f7be ae20 883e 8d70 a33e
00000120: 4684 5b3e 6ff1 cabc 7682 83be 3a53 153f
00000130: 00ea 27bb c9c3 9cbe 8643 ae3c 27f3 a8be
00000140: 0b39 92bd a678 d6bc 8303 cc3d 4da2 74be
00000150: 3111 a83e 4c5b cbbe 8f20 4c3e da9d 463e
00000160: 6511 833e 24af abbe 3773 6fbd df98 803e
00000170: bb16 883d 27f9 76be f03d 7bbc 7657 ccbe
00000180: 09cf 143e 4204 a23e 676d e6be 952f 903e
00000190: f95e 88be de13 803e 4551 63be dbfb 7cbe
000001a0: e77e a43e ce05 b1be 0f42 973e 9a71 f4bd
000001b0: fd9e b1bd cd60 03be e458 65be 0ff9 37be
000001c0: 3e58 143d 88f4 26bf 218e 29be 74ac ad3e
000001d0: 6a53 2d3b d2ef 94bb 5e0a d1bd b83b b1bc
000001e0: c158 55be b750 183e d480 b5be acfc 1abf
000001f0: 46bc 9dbd bef9 843d 1a2d b3be f3d1 9bbe
00000200: 1bd1 e63d 3b4b 6b3f 3d84 aa3c 8f66 89bd
00000210: c869 983e f852 f63e c898 a23d 6a91 523c
00000220: cb55 f5be 3e9c 05be 3d5c 053e 9713 62be
00000230: 5e3d 913e b20a 2cbf 50d9 913f 1637 8ebe
00000240: 1162 243d 7f67 b73b 9ed0 393f e813 9bbd
00000250: 495c 27be f6bc 983d d332 14be 8634 6b3e
00000260: e592 aa3e 0f5a 383d 4b21 cebd a409 04bd
00000270: 797b 893e c186 583f edd1 b03e 36df 95be
00000280: a011 1cbf c788 803f f028 91bf fb9c 7fbd
00000290: 1cdc 9b3e ea1e 563f 6faa 46bf 676d ecbc
000002a0: c316 323e 67d2 e13d 558d ae3d 8918 87be
000002b0: f9f8 3b3d ce51 46bd 0a52 c2bd 716b 60bf
000002c0: f365 f63e f467 c03e e0d8 493d e9d2 7abd
000002d0: fedf c63e e382 9a3d ffee 8ebe 6409 3dbc
000002e0: baa4 eb3e c887 f5be cbbb 583e 2a22 2f3e
000002f0: fdb9 54be 06e3 e23d 8660 ce3c 0074 13be
00000300: d886 613e 6b44 e13e 5294 0cbf 3536 9dbe
00000310: a66d fcbd 3861 0a3e 657d 423e 304f 9ebe
00000320: 6147 863d ffd1 df3d e8b2 54be 9e88 293d
00000330: c19e 8e3e 3649 923e 1eb0 363c 94cb 03bf
00000340: 378c 8dbf 5df6 813f a258 58bf 402a 453f
00000350: df78 ce3e 35cc 8fbe 4d7a f73d d9cb 913e
00000360: dbba e73e 6cfd c33e 67f8 083f 3b22 5d3e
00000370: 447c b2be 04af 1f3f 3717 eebe 37a2 e1be
00000380: 4b81 243e d853 08bf 2ee9 ea3b dacb 27bd
00000390: b1fd 99be 955e 963e 4e54 923d 7ce8 52be
000003a0: 2e63 5a3e 3135 74be 2e4d 0b3e 3d15 97bd
000003b0: ea71 9dbe 912d 953e bc77 29be c295 e03e
000003c0: 9770 86be ba23 30bf f6e1 2d3d e06e e53e
000003d0: d773 bfbe 0a86 95be 575b 9f3e 4e0e f93e
000003e0: b403 6fbf fb87 873f b5b8 0cbf 3d0b 193f
000003f0: 8466 69bd 3299 2b3e c783 163e 0987 203e

VAE.encoder_mu.layers.0.attention.W_q.weight f4 [4, 4]
-0.5077063 0.40391934 0.23373844 0.02498972 -0.02567578 -0.12034022 -0.24553272 -0.011236284
0.04479905 0.002083016 -0.11183912 0.17572023 -0.111243755 -0.3293279 0.33245263 0.36830184
00000000: 0af9 01bf 84ce ce3e 2159 6f3e 3eb7 cc3c
00000010: 0356 d2bc ef74 f6bd ee6c 7bbe 6418 38bc
00000020: 357f 373d 3683 083b e90b e5bd 01f0 333e
00000030: c4d3 e3bd ab9d a8be 3b37 aa3e 0f92 bc3e

VAE.encoder_mu.layers.0.attention.W_q.bias f4 [4]
-0.2612196 -0.18060823 0.122922026 0.17379983
00000000: 93be 85be 5df1 38be 8bbe fb3d 95f8 313e

VAE.encoder_mu.layers.0.attention.W_k.weight f4 [4, 4]
0.31808895 0.2057348 0.044677734 0.077667564 0.51019216 -0.048890032 0.13498329 0.2029763
0.3296289 -0.289337 -0.20330282 -0.22606987 0.33979076 -0.34425592 -0.20802039 -0.5592203
00000000: 8edc a23e 25ac 523e 0000 373d 2c10 9f3d
00000010: f49b 023f ea40 48bd 0f39 0a3e 05d9 4f3e
00000020: 1fc5 a83e fb23 94be 9d2e 50be dc7e 67be
00000030: 0ef9 ad3e 5042 b0be 4c03 55be 1029 0fbf

VAE.encoder_mu.layers.0.attention.W_k.bias f4 [4]
0.00025502063 0.00015725133 -5.409274e-05 -0.000169924
00000000: 4ab4 8539 d5e3 2439 a3e1 62b8 a02d 32b9

VAE.encoder_mu.layers.0.attention.W_v.weight f4 [4, 4]
-0.059175987 0.10599626 0.05290842 0.014435527 -0.05990611 0.10777369 0.055597603 0.016509444
-0.0648132 0.09634993 0.05502674 0.013289936 -0.05727847 0.10678995 0.057293806 0.0077312216
00000000: 8562 72bd 9114 d93d 80b6 583d fd82 6c3c
00000010: 1c60 75bd 74b8 dc3d 50ba 633d d03e 873c
00000020: c8bc 84bd 1d53 c53d b863 613d 08be 593c
00000030: d49c 6abd b0b4 da3d e9ac 6a3d 3056 fd3b

VAE.encoder_mu.layers.0.attention.W_v.bias f4 [4]
-0.17184822 0.031223094 0.126483 -0.057475824
00000000: fbf8 2fbe 93c7 ff3c c284 013e c56b 6bbd

VAE.encoder_mu.layers.0.linear0.weight f4 [128, 4]
-0.31390688 -0.13255988 0.20463452 0.16009083 -0.26063737 0.066395886 0.25555775 0.16352439
-0.00022383571 -0.08171299 0.14397858 -0.36278248 0.65257126 -0.4624795 -0.17392771 -0.09081734
-0.39356205 -0.21905068 0.4860539 0.22400473 -0.0434782 0.07062258 0.39443564 0.3618238
-0.32252312 0.37517735 -0.5070842 -0.25107816 0.068279415 -0.17203659 -0.10524378 -0.26944423
-0.018746734 -0.3632558 0.39978772 0.28910318 -0.19326074 0.21400043 -0.28663126 -0.12269888
-0.097082295 0.10338033 -0.25797066 0.44699758 0.10102368 -0.11071907 -0.122968264 -0.4596125
-0.36607578 -0.007446395 0.27085677 -0.4597557 -0.13413952 0.115349464 -0.12656048 0.5573368
-0.088713735 -0.37205398 -0.38571718 0.13576585 0.46043378 -0.18060426 -0.66689986 0.30205357
0.21650013 -0.36381954 0.31632325 0.49487162 0.655894 -0.35869092 0.3212713 -0.36797014
0.5580408 -0.46890792 -0.42833072 0.27489597 -0.2553214 0.028249433 0.054709587 -0.4867359
0.52696943 -0.29168445 -0.15138163 -0.20908669 0.08240948 0.2984098 0.4684516 -0.119646035
0.31370226 0.39788157 -0.11872861 -0.06395252 0.53090405 0.3025031 -0.2550683 -0.32167852
0.38027668 -0.32107165 -0.2513878 0.33800262 -0.12573057 -0.47981238 0.5265698 -0.22482695
0.08092569 -0.52269375 0.25418168 -0.086692244 -0.29926696 0.21459341 0.06542593 0.4098546
0.3129529 0.004288921 -0.08329557 0.37218788 -0.25744295 0.3478793 -0.28509384 -0.3209156
0.34547144 -0.3885087 0.59875166 -0.26197752 -0.19132304 -0.09097755 -0.03278649 -0.024424314
0.19712704 -0.37785545 0.5236781 -0.22896251 0.23943064 0.26057655 -0.022782564 -0.20769338
-0.07671278 -0.085768305 0.09215196 0.36889172 0.42458087 -0.3856909 0.45562196 -0.34060588
-0.2598956 -0.3357159 0.22171172 -0.031643886 0.22570175 -0.3252371 -0.27315173 0.3128391
-0.006284136 0.47885838 0.03441214 -0.3234144 0.073673345 -0.50283676 -0.09981854 -0.38228822
-0.18142532 -0.16282655 -0.19280255 -0.3524431 0.100092486 0.0938632 -0.5281048 0.065247074
0.4342766 -0.16104002 -0.070983276 -0.64183164 0.24761367 0.18074685 0.3023066 -0.23880608
0.33027175 -0.24251664 0.067389175 0.49628222 -0.4596352 0.50153995 0.27310944 0.4249914
-0.38799012 0.23634383 -0.09129348 -0.20741963 0.45623016 0.37769997 -0.48662025 0.12736756
-0.34128487 -0.17939907 -0.3196504 -0.23116189 -0.39896977 -0.26468256 0.15539801 -0.42607936
0.10885907 -0.4648952 -0.43997526 -0.17394017 -0.07944558 0.32020012 -0.16807304 0.21234398
0.32371345 -0.16983236 -0.033045113 -0.4508805 0.11000939 0.0023005593 0.29920074 -0.17631392
-0.24749847 0.1335221 -0.3067708 0.02418335 -0.26343504 0.049900454 0.45940295 -0.103818156
0.038070623 0.4567411 0.07421274 0.42163092 0.082780726 0.40556273 -0.2994241 0.32315257
-0.021672683 0.36109495 -0.12681206 0.17250028 0.43744162 0.07626371 -0.5660995 -0.1919533
-0.42924517 0.41479766 -0.18242526 -0.38081977 0.15301722 -0.45178744 0.06471233 0.24978076
-0.33542484 -0.5684678 -0.15041746 0.31424108 0.44422588 0.04901384 0.56476563 0.10144837
00000000: 67b8 a0be c7bd 07be b68b 513e daee 233e
00000010: 4372 85be 91fa 873d 77d8 823e f072 273e
00000020: 71b5 6ab9 2459 a7bd 1f6f 133e a0be b9be
00000030: e90e 273f 1dca ecbe 1b1a 32be 71fe b9bd
00000040: f780 c9be d24e 60be 0fdc f83e 7f61 653e
00000050: 3216 32bd 92a2 903d 78f3 c93e f840 b93e
00000060: c021 a5be 3f17 c03e 45d0 01bf 518d 80be
00000070: 14d6 8b3d 5c2a 30be 0d8a d7bd 98f4 89be
00000080: c092 99bc aafc b9be fab0 cc3e 5505 943e
00000090: 25e6 45be ee22 5b3e 55c1 92be 8d49 fbbd
000000a0: 15d3 c6bd 11b9 d33d bb14 84be dedc e43e
000000b0: 81e5 ce3d aec0 e2bd c9d6 fbbd 5452 ebbe
000000c0: 496e bbbe e300 f4bb bdad 8a3e 1965 ebbe
000000d0: df5b 09be 573c ec3d 1299 01be a0ad 0e3f
000000e0: 8caf b5bd dc7d bebe b97c c5be 3406 0b3e
000000f0: fabd eb3e 53f0 38be f3b9 2abf c4a6 9a3e
00000100: 36b2 5d3e 8e46 babe 1ff5 a13e d05f fd3e
00000110: abe8 273f 56a6 b7be ac7d a43e 9566 bcbe
00000120: c3db 0e3f b314 f0be 2a4e dbbe 2abf 8c3e
00000130: 7db9 82be 5b6b e73c 2917 603d 7335 f9be
00000140: 78e7 063f aa57 95be c903 1bbe d21a 56be
00000150: 4dc6 a83d 2bc9 983e e3d8 ef3e fb08 f5bd
00000160: 959d a03e 22b7 cb3e fc27 f3bd 8af9 82bd
00000170: 54e9 073f b0e1 9a3e 5098 82be 0cb3 a4be
00000180: a0b3 c23e 8163 a4be e7b5 80be ae0e ad3e
00000190: 84bf 00be f8a9 f5be 47cd 063f 0939 66be
000001a0: 5ebc a53d 42cf 05bf 1a24 823e b48b b1bd
000001b0: 8539 99be 60be 5b3e 08fe 853d 76d8 d13e
000001c0: 5d3b a03e 148a 8c3b de96 aabd 698f be3e
000001d0: 90cf 83be 3c1d b23e d2f7 91be 0d4f a4be
000001e0: a2e1 b03e 9dea c6be ca47 193f eb21 86be
000001f0: 30ea 43be 7052 babd 204b 06bd 8015 c8bc
00000200: acdb 493e 4576 c1be c50f 063f 2675 6abe
00000210: 4e2d 753e 4a6a 853e 80a2 babc 93ad 54be
00000220: 971b 9dbd 4ba7 afbd 2bba bc3d 60df bc3e
00000230: aa62 d93e 4779 c5be 4847 e93e e563 aebe
00000240: 0911 85be f4e2 abbe 6608 633e 059d 01bd
00000250: 5c1e 673e 7a85 a6be 8bda 8bbe 722c a03e
00000260: 27eb cdbb ed2c f53e bef3 0c3d 9296 a5be
00000270: 0de2 963d e9b9 00bf aa6d ccbd 48bb c3be
00000280: 8fc7 39be 01bc 26be 086e 45be 6c73 b4be
00000290: 4afd cc3d 593b c03d e031 07bf 42a0 853d
000002a0: 8159 de3e ade7 24be ae5f 91bd 144f 24bf
000002b0: 708e 7d3e b415 393e eec7 9a3e 9589 74be
000002c0: 6119 a93e 4856 78be 5603 8a3d b418 fe3e
000002d0: 4e55 ebbe ec64 003f 00d5 8b3e 7998 d93e
000002e0: a4a6 c6be 1e04 723e 13f8 babd d065 54be
000002f0: 0097 e93e e461 c13e 4a26 f9be a46c 023e
00000300: e4bc aebe 64b4 37be 38a9 a3be b4b5 6cbe
00000310: c445 ccbe 7984 87be a820 1f3e 1327 dabe
00000320: 81f1 de3d be06 eebe 7044 e1be 5f1d 32be
00000330: 5db4 a2bd 45f1 a33e 571b 2cbe b370 593e
00000340: c5bd a53e 89e8 2dbe 505a 07bd cfd9 e6be
00000350: 9a4c e13d fbc4 163b d730 993e a38b 34be
00000360: 3d70 7dbe 04ba 083e 1011 9dbe 291c c63c
00000370: f5e0 86be 6b64 4c3d dd36 eb3e 9d9e d4bd
00000380: f1ef 1b3d f8d9 e93e d9fc 973d 02e0 d73e
00000390: f188 a93d eba5 cf3e 1e4e 99be 4174 a53e
000003a0: e98a b1bc 70e1 b83e 05db 01be eaa3 303e
000003b0: 59f8 df3e 2630 9c3d e6eb 10bf 688f 44be
000003c0: 06c6 dbbe 5c60 d43e b0cd 3abe cffa c2be
000003d0: 8cb0 1c3e af50 e7be e687 843d 87c6 7f3e
000003e0: cebc abbe 1b87 11bf 0907 1abe 35e4 a03e
000003f0: 9371 e33e bcc2 483d 7b94 103f 2ac4 cf3d

VAE.encoder_mu.layers.0.linear0.bias f4 [128]
-0.20359738 -0.23195726 0.16881877 -0.22714198 -0.1363223 -0.09637397 -0.44954708 0.084397554
0.43982908 0.04563284 -0.28507087 -0.1672977 -0.18286829 0.2996201 -0.25365847 -0.22300774
0.01933871 0.17741792 -0.1701952 -0.0603603 0.4701804 -0.44271147 -0.01668985 -0.07980783
-0.40052557 0.109288216 0.27571824 -0.05037683 0.4577286 0.454477 0.41771594 -0.48629862
0.3859495 0.4503415 0.53219086 0.29028794 0.12529437 -0.03059829 -0.12681058 -0.19564019
-0.06114577 -0.0013753852 -0.11001668 0.26488137 -0.21741596 0.48621362 0.27077138 -0.12997793
-0.3748119 -0.4266026 -0.1363112 -0.104154535 0.08764302 0.036942624 0.36509043 -0.17488703
0.3138027 -0.37962785 0.18372053 -0.0043921936 0.4521313 -0.28661957 -0.042542465 0.26018733
-0.03910521 -0.21486707 -0.087202854 -0.0244405 0.0369432 0.2811804 -0.34145552 0.29785052
0.04418729 -0.087715276 0.27599198 -0.027798528 -0.10992222 -0.13991772 0.11074296 0.33208352
-0.015474737 -0.42639616 0.48748955 -0.005698959 -0.45051324 -0.0766503 0.30961648 0.48446006
0.013483748 -0.45136717 0.023767397 -0.28514048 -0.24098799 0.3386114 -0.2721587 0.14730093
0.050859626 0.15513606 0.34900525 0.48210645 0.2556816 0.16160071 0.0034893986 -0.060859203
0.19375485 0.11235899 0.32872447 -0.38846892 -0.019368717 -0.18639456 0.051467244 0.3638825
0.22275606 -0.30243337 -0.1750353 0.3972784 -0.4645233 0.085016645 0.10561893 0.39046857
0.34033173 -0.28107086 -0.3774429 -0.4732787 0.44317803 -0.15268171 -0.21872441 0.25790623
00000000: d57b 50be 3486 6dbe d4de 2c3e e897 68be
00000010: 1398 0bbe b75f c5bd 092b e6be a0d8 ac3d
00000020: 4731 e13e 80e9 3a3d cff4 91be 1750 2bbe
00000030: d341 3bbe ce67 993e 86df 81be 245c 64be
00000040: 376c 9e3c 0bad 353e a747 2ebe 5d3c 77bd
00000050: 7cbb f03e 14ab e2be 27b9 88bc 4a72 a3bd
00000060: b011 cdbe 80d2 df3d f12a 8d3e ef57 4ebd
00000070: 675b ea3e 36b1 e83e ddde d53e 22fc f8be
00000080: 2c9b c53e 2993 e63e a93d 083f 9fa0 943e
00000090: 2b4d 003e 44a9 fabc a2da 01be e755 48be
000000a0: fd73 7abd 4546 b4ba 6d50 e1bd 889e 873e
000000b0: 4aa2 5ebe fef0 f83e 8ca2 8a3e ef18 05be
000000c0: 58e7 bfbe a86b dabe 2a95 0bbe f94e d5bd
000000d0: 2f7e b33d 2651 173d 22ed ba3e 9615 33be
000000e0: bfaa a03e 955e c2be 3c21 3c3e 64ec 8fbb
000000f0: c17d e73e cdbf 92be 0241 2ebd 4637 853e
00000100: c92c 20bd 1d06 5cbe 6997 b2bd 7237 c8bc
00000110: c151 173d e1f6 8f3e 42d3 aebe dd7f 983e
00000120: bbfd 343d 11a4 b3bd d24e 8d3e bdb9 e3bc
00000130: e71e e1bd 9746 0fbe 34cd e23d da06 aa3e
00000140: c089 7dbc 9950 dabe 3b98 f93e 55be babb
00000150: aca9 e6be d5fa 9cbd 0d86 9e3e 260b f83e
00000160: f0ea 5c3c 9919 e7be d8b3 c23c effd 91be
00000170: 8ec5 76be 795e ad3e 6358 8bbe 0ed6 163e
00000180: 2f52 503d fddb 1e3e d1b0 b23e a8d6 f63e
00000190: b3e8 823e a87a 253e 65ae 643b 8047 79bd
000001a0: ac67 463e 781c e63d 934e a83e 66e5 c6be
000001b0: 25ab 9ebc 37de 3ebe 51cf 523d cf4e ba3e
000001c0: 2a1a 643e 8cd8 9abe 743c 33be 1368 cb3e
000001d0: ffd5 edbe 351d ae3d bd4e d83d 7feb c73e
000001e0: f63f ae3e 85e8 8fbe 3240 c1be 9651 f2be
000001f0: 3be8 e23e 9858 1cbe 4bf9 5fbe 490c 843e

VAE.encoder_mu.layers.0.linear1.weight f4 [4, 128]
0.07563207 -0.038393844 0.08125873 0.038080327 0.028368417 -0.064457245 0.14342767 0.053032856
-0.01214454 -0.0771479 0.08513646 -0.08099955 -0.063755915 -0.024753572 0.049736675 0.13184819
0.008145983 -0.069219455 0.09365998 0.0009314147 -0.033345763 -0.0663629 0.06834772 -0.10528928
0.088516444 -0.1221357 -0.04624164 -0.07711547 0.02715815 0.041224107 -0.15270588 -0.010504396
-0.018375285 -0.064398095 -0.06251955 0.040114168 0.03401463 -0.02100055 0.09511072 0.089894645
-0.04402294 -0.115227625 0.044203226 -0.018508254 -0.05005999 -0.052342452 -0.043446347 0.023632478
-0.08488273 -0.052279636 0.14904328 -0.15608881 -0.02181118 -0.0017131445 -0.06921391 0.14244877
0.070653446 -0.023641314 0.009389303 0.035180032 -0.03628321 -0.17796014 0.017569387 -0.1220397
-0.054046087 0.067240946 -0.027305974 -0.06265071 0.11091719 -0.07293982 0.091442406 0.09642777
-0.078772925 0.07702877 -0.0781495 0.0500891 -0.07853663 0.019352423 -0.025518427 0.066183425
-0.025560029 -0.007383239 -0.027481623 0.11576539 -0.11999379 0.091135435 -0.14848903 -0.051654074
-0.06530406 0.14025514 0.029976875 -0.007222561 -0.055592567 -0.09466115 0.08896878 -0.014062022
0.018929005 0.011003577 0.0017459202 0.024247007 -0.036768142 -0.11252531 -0.10402847 -0.024362614
0.03551592 -0.14182948 -0.09444234 -0.14627191 -0.07486222 -0.14184132 -0.15171345 0.05405827
-0.057010002 0.13687095 0.050215315 0.031325787 0.20025015 0.01814758 -0.01590392 -0.0022525822
-0.022752877 -0.12088029 -0.09882362 -0.011436094 -0.07309007 0.08141426 0.017908616 -0.06846751
0.04646201 0.07720653 0.10312728 -0.09035278 0.001377982 0.075058416 -0.042829845 -0.053890835
0.0012460366 -0.006497623 0.057637494 0.06291356 0.117614895 -0.016431848 -0.13619602 -0.15703724
0.020705929 -0.083030365 0.034731857 -0.0142493015 -0.041139133 0.010569315 -0.030008245 0.10310362
0.020668378 0.030706085 -0.10293767 -0.0151677085 0.020603973 0.024257591 0.016478557 0.042069614
0.045721933 -0.06973371 -0.06142125 -0.04487342 0.029410452 0.08985551 -0.13763489 -0.20505881
0.096876465 -0.07715101 0.16763712 -0.042106356 0.09074838 -0.012529334 -0.01579126 -0.12948772
0.0019841366 0.10379509 -0.115860395 0.03871054 -0.057507195 0.08729261 -0.117792964 -0.09020468
-0.047847986 -0.015283328 -0.055660985 0.13674414 0.112744756 0.18994507 -0.15591255 0.08068954
0.06886585 0.014596296 0.03442047 0.021718664 -0.1020606 0.01453365 -0.059767514 -0.103872165
0.008737247 -0.0956965 -0.04381218 -0.14296347 -0.09570347 0.076762244 0.04854791 0.0773474
-0.0808776 -0.17367877 -0.090151116 -0.022660734 0.102657594 -0.06828966 0.0051520015 0.0021127905
-0.118169166 0.035002433 0.11620302 0.09368065 0.05244047 0.037968732 0.02767343 0.11889759
0.07951337 -0.098041266 -0.09866243 0.11452717 0.15318605 -0.10852311 0.033260915 -0.020427786
0.055517826 -0.038019415 -0.014842566 0.25339592 0.030512337 0.1928581 -0.055732965 -0.067795575
-0.07888432 -0.1859144 0.07897371 -0.109210536 -0.06706966 -0.025914557 0.03534774 -0.048984896
0.038370024 0.06509762 -0.026100136 -0.13100018 0.12596029 0.05431127 0.2964074 0.064528435
00000000: fde4 9a3d dd42 1dbd fa6a a63d 1efa 1b3d
00000010: e264 e83c 2902 84bd b4de 123e fb38 593d
00000020: e5f9 46bc b8ff 9dbd 065c ae3d 18e3 a5bd
00000030: 7692 82bd 01c8 cabc afb8 4b3d 3603 073e
00000040: bb76 053c eec2 8dbd ced0 bf3d 2f2a 743a
00000050: 9195 08bd 46e9 87bd e4f9 8b3d e8a1 d7bd
00000060: 1c48 b53d 4822 fabd e067 3dbd b7ee 9dbd
00000070: c57a de3c 9cda 283d ee5e 1cbe a11a 2cbc
00000080: c487 96bc 26e3 83bd 400a 80bd c14e 243d
00000090: ed52 0b3d 5809 acbc 69c9 c23d af1a b83d
000000a0: 6651 34bd 76fc ebbd 710e 353d 9f9e 97bc
000000b0: b40b 4dbd 0a65 56bd ccf4 31bd e698 c13c
000000c0: ffd6 adbd 2c23 56bd cd9e 183e bfd5 1fbe
000000d0: 5cad b2bc 978b e0ba 06c0 8dbd 17de 113e
000000e0: c1b2 903d 6eab c1bc 97d5 193c f018 103d
000000f0: b49d 14bd 2f3b 36be aded 8f3c f3ef f9bd
00000100: 6e5f 5dbd 9fb5 893d c7b0 dfbc 044f 80bd
00000110: 8d28 e33d 7961 95bd 2846 bb3d ec7b c53d
00000120: b353 a1bd 43c1 9d3d d80c a0bd 3a2a 4d3d
00000130: d0d7 a0bd f988 9e3c 050c d1bc 2d8b 873d
00000140: 4463 d1bc 19ef f1bb 2421 e1bc 6816 ed3d
00000150: 4ebf f5bd 37a5 ba3d 820d 18be 3993 53bd
00000160: 23be 85bd 0b9f 0f3e 1092 f53c 3cab ecbb
00000170: 08b5 63bd b4dd c1bd 4435 b63d 6564 66bc
00000180: 0011 9b3c 5948 343c 5cd7 e43a a9a1 c63c
00000190: 319a 16bd ab73 e6bd e10c d5bd 1b94 c7bc
000001a0: 2479 113d bf3b 11be fc6a c1bd 4ec8 15be
000001b0: 5d51 99bd da3e 11be c55a 1bbe 346c 5d3d
000001c0: 5283 69bd e627 0c3e 93ae 4d3d 784f 003d
000001d0: 600e 4d3e 3caa 943c f048 82bc 0fa0 13bb
000001e0: 3e64 babc 1690 f7bd 0a64 cabd 745e 3bbc
000001f0: 3fb0 95bd 85bc a63d 17b5 923c b238 8cbd
00000200: f34e 3e3d 751e 9e3d 6534 d33d e10a b9bd
00000210: 679d b43a 3ab8 993d 596e 2fbd a3bc 5cbd
00000220: 0d52 a33a 03ea d4bb 4b15 6c3d d3d8 803d
00000230: 14e0 f03d 159c 86bc f876 0bbe 5fce 20be
00000240: 7b9f a93c d30b aabd fe42 0e3d e775 69bc
00000250: 8281 28bd ec2a 2d3c dad3 f5bc fe27 d33d
00000260: bb50 a93c 548b fb3c fcd0 d2bd fb81 78bc
00000270: aac9 a83c dbb7 c63c 0afe 863c 3051 2c3d
00000280: ec46 3b3d 8cd0 8ebd d994 7bbd 31cd 37bd
00000290: 30ee f03c 2a06 b83d 29f0 0cbe f0fa 51be
000002a0: 2b67 c63d 5901 9ebd 11a9 2b3e b777 2cbd
000002b0: 49da b93d d647 4dbc ac5c 81bc 6e98 04be
000002c0: 4a08 023b 8592 d43d 3748 edbd f18e 1e3d
000002d0: aa8c 6bbd 78c6 b23d 703d f1bd 3bbd b8bd
000002e0: 40fc 43bd ec66 7abc c6fc 63bd a806 0c3e
000002f0: b9e6 e63d f680 423e 8aa7 1fbe 8f40 a53d
00000300: 8a09 8d3d 4d25 6f3c 7bfc 0c3d 57eb b13c
00000310: 2605 d1bd 8c1e 6e3c c8ce 74bd eeba d4bd
00000320: ac26 0f3c 87fc c3bd 6774 33bd 0465 12be
00000330: 2e00 c4bd 8635 9d3d 2cda 463d 5068 9e3d
00000340: 28a3 a5bd d9d8 31be 26a1 b8bd 01a3 b9bc
00000350: 253e d23d 73db 8bbd 1fd2 a83b be76 0a3b
00000360: ad02 f2bd b65e 0f3d d9fb ed3d a4db bf3d
00000370: d1cb 563d 1a85 1b3d 64b3 e23c 9480 f33d
00000380: e8d7 a23d dcc9 c8bd 870f cabd 398d ea3d
00000390: cedc 1c3e 5d41 debd 993c 083d 2c58 a7bc
000003a0: a966 633d 3fba 1bbd 3c2e 73bc 1cbd 813e
000003b0: 02f5 f93c 987c 453e 4048 64bd 68d8 8abd
000003c0: 1a8e a1bd 5860 3ebe f8bc a13d c6a9 dfbd
000003d0: d15b 89bd c44a d4bc cbc8 103d 63a4 48bd
000003e0: e329 1d3d e751 853d f4cf d5bc e924 06be
000003f0: bcfb 003e 7f75 5e3d b6c2 973e 7c27 843d

VAE.encoder_mu.layers.0.linear1.bias f4 [4]
-0.03294464 -0.07617404 0.022866834 0.011836416
00000000: f5f0 06bd 2301 9cbd 3a53 bb3c 87ed 413c

VAE.encoder_mu.layers.0.norm1.weight f4 [4]
1.1590674 1.0916015 1.1556438 1.0683084
00000000: 525c 943f 99b9 8b3f 23ec 933f 54be 883f

VAE.encoder_mu.layers.0.norm1.bias f4 [4]
-0.008147584 -0.050612874 0.015168657 0.08551209
00000000: 727d 05bc 724f 4fbd f585 783c f620 af3d

VAE.encoder_mu.layers.1.attention.W_q.weight f4 [4, 4]
-0.3220144 -0.10549929 -0.08669196 0.52778524 -0.26208162 -0.33290392 -0.47557703 -0.20219654
-0.54619944 0.33573082 -0.16104938 0.4246503 -0.23677443 -0.10307865 0.32341212 -0.52017146
00000000: 12df a4be 0310 d8bd 8e8b b1bd ef1c 073f
00000010: 902f 86be 6272 aabe d57e f3be 9c0c 4fbe
00000020: bad3 0bbf e9e4 ab3e 21ea 24be c46b d93e
00000030: ff74 72be e61a d3bd 4696 a53e f529 05bf

VAE.encoder_mu.layers.1.attention.W_q.bias f4 [4]
0.13060698 -0.20935796 0.27647126 -0.09987309
00000000: d6bd 053e ef61 56be a48d 8d3e 438a ccbd

VAE.encoder_mu.layers.1.attention.W_k.weight f4 [4, 4]
-0.48066455 0.2570735 0.053272124 0.43227163 -0.35800216 0.11196557 0.0252971 -0.48173848
-0.24453463 -0.29402155 0.22345302 0.56397986 0.45472917 0.28447127 -0.3970946 -0.12240605
00000000: aa19 f6be 239f 833e df33 5a3d b552 dd3e
00000010: 0f4c b7be 344e e53d dd3b cf3c 6da6 f6be
00000020: 4967 7abe fe89 96be ded0 643e fc60 103f
00000030: 43d2 e83e 38a6 913e fc4f cbbe 06b0 fabd

VAE.encoder_mu.layers.1.attention.W_k.bias f4 [4]
0.00024690243 -4.7370057e-05 0.00013196733 0.00040271593
00000000: af72 8139 36af 46b8 b660 0a39 9e23 d339

VAE.encoder_mu.layers.1.attention.W_v.weight f4 [4, 4]
0.43854228 -0.13077147 0.46713293 0.49824727 0.21996114 0.061130825 0.3706802 0.15377076
0.2628059 -0.10804082 0.298962 0.102929145 -0.18386908 -0.215084 0.1353138 -0.023291107
00000000: 9d88 e03e f5e8 05be 0c2c ef3e 441a ff3e
00000010: 7e3d 613e 5164 7a3d ccc9 bd3e 1576 1d3e
00000020: 7f8e 863e 8144 ddbd 8c11 993e 84cc d23d
00000030: 2d48 3cbe fb3e 5cbe b38f 0a3e fecc bebc

VAE.encoder_mu.layers.1.attention.W_v.bias f4 [4]
0.023872165 -0.038318317 0.0026989584 -0.025378814
00000000: 8f8f c33c abf3 1cbd 02e1 303b 3be7 cfbc

VAE.encoder_mu.layers.1.linear0.weight f4 [128, 4]
-0.21935323 0.77528834 -0.4127566 -0.1258985 -0.24535866 0.26292273 -0.4782534 0.04752846
-0.5305853 -0.47594512 0.58496785 -0.2780736 0.25763586 0.21682474 -0.26449314 -0.04562168
-0.217955 0.5848278 -0.25671798 0.0074053113 0.4475116 0.028941581 0.21293649 -0.16164623
-0.16023587 -0.45039725 -0.1717409 0.49565497 -0.484215 -0.64473915 -0.3782091 0.016085254
-0.43521523 0.2467682 0.025166437 -0.5401258 -0.12477348 -0.38651457 0.38773346 -0.3761184
0.25636593 0.45347962 -0.16966787 -0.18654352 0.16194327 -0.11853291 0.36221156 -0.38015074
-0.16294254 -0.04979046 0.25412253 -0.21897468 0.28120723 0.4819169 -0.5214226 -0.23850617
-0.09033969 0.23479691 0.4511755 -0.29101777 0.12657918 0.5071284 0.04354692 -0.4243592
0.3727205 -0.22486824 -0.14078388 0.27051467 -0.33526847 0.58667856 -0.19308452 -0.108350314
0.18947619 -0.34961057 -0.4275216 0.07329877 -0.20555146 0.028615946 -0.23983784 0.36454296
-0.16019753 -0.13931344 0.4589262 -0.107913755 0.3351457 -0.5032469 -0.068106264 0.52509564
0.39464334 0.019176204 0.38941947 -0.5430257 0.006258727 -0.2387938 -0.424178 0.097073965
0.20096901 -0.37213907 0.60928714 -0.5337502 0.3680512 0.21489576 0.43410715 -0.5652947
-0.22017284 -0.478174 -0.48991966 0.10762179 0.31267446 0.19609486 -0.27918094 0.39138347
-0.33200845 0.41853496 0.23098807 0.13934669 -0.50320977 -0.51473427 -0.06470279 -0.04459252
0.16149276 0.49242482 -0.36520588 -0.34478322 0.18668737 0.3461873 0.2739053 -0.3085893
-0.3511167 0.1076999 -0.3732559 -0.24043737 -0.036084127 0.9488109 -0.5023325 -0.47938547
0.20310493 0.096228346 0.19224323 -0.062959366 0.5343755 0.04045215 0.20743746 0.44896868
0.47476667 0.52792376 0.37269676 -0.30500355 -0.25741172 0.18739474 0.142665 0.3749222
0.18189189 -0.18905205 -0.35643223 0.26635692 -0.26237726 -0.21433868 -0.2860716 0.05079272
0.082781754 0.54909337 0.039309427 0.19662435 0.030021528 0.34532514 -0.04652755 -0.2358711
-0.417034 0.004443893 0.5570236 -0.04601587 0.5513595 0.5659396 -0.2901895 -0.4675388
0.436157 0.27811489 -0.16703747 0.17069338 -0.5420908 -0.25366652 -0.58697623 -0.0924245
-0.4685723 0.26886946 -0.096185714 -0.059316985 -0.43496662 0.0016856486 -0.5081332 0.20542817
0.3342064 -0.447378 -0.40030375 0.3472834 0.3079223 0.3374889 -0.47130796 0.12439109
0.48590586 0.1790091 -0.5185188 -0.14103884 0.35350218 -0.20601131 -0.24635671 0.4042696
0.16621092 0.16510661 0.22504424 -0.46975803 0.22617757 0.4892424 -0.49648246 0.15335889
-0.03416869 -0.21013495 0.10746778 -0.34852147 0.085254356 -0.4530159 -0.35312513 -0.3129858
0.37208605 -0.09828237 -0.47209534 0.3699366 -0.24032512 0.18391389 -0.3479922 0.28726336
-0.3554518 -0.12757735 0.3380643 -0.35073414 0.31265852 0.5922689 0.10773426 0.33565214
0.3334119 0.3595348 0.20777607 0.06114681 0.11534767 -0.26641965 -0.08921111 0.33160704
0.42527 0.116405025 0.28675136 0.27038488 0.010669887 0.49065694 0.41494155 -0.26990634
00000000: 229e 60be 4c79 463f d554 d3be 89eb 00be
00000010: 4d3f 7bbe cf9d 863e a1dd f4be 34ad 423d
00000020: 70d4 07bf 14af f3be 74c0 153f aa5f 8ebe
00000030: d9e8 833e 4e07 5e3e a56b 87be ccdd 3abd
00000040: 982f 5fbe 46b7 153f 8a70 83be 41a8 f23b
00000050: 3e20 e53e e516 ed3c 060c 5a3e 9786 25be
00000060: df14 24be 789a e6be d9dc 2fbe 7dc6 fd3e
00000070: 07eb f7be a00d 25bf a0a4 c1be 39c5 833c
00000080: 88d4 debe ceb0 7c3e d829 ce3c af45 0abf
00000090: 3d89 ffbd 3de5 c5be 0085 c63e 9792 c0be
000000a0: 6542 833e 7b2e e83e 6abd 2dbe 4405 3fbe
000000b0: 75d4 253e 62c1 f2bd cb73 b93e 1ea3 c2be
000000c0: 69da 26be 15f1 4bbd 591c 823e e63a 60be
000000d0: 65fa 8f3e d0bd f63e f47b 05bf f63a 74be
000000e0: 0404 b9bd 9a6e 703e 7a00 e73e 4800 95be
000000f0: f99d 013e 2bd3 013f 415e 323d 9c45 d9be
00000100: 39d5 be3e dc43 66be a629 10be e680 8a3e
00000110: 4fa8 abbe 9130 163f f3b7 45be c5e6 ddbd
00000120: 0c06 423e 2800 b3be 1ce4 dabe aa1d 963d
00000130: 157c 52be fd6b ea3c 0d98 75be 60a5 ba3e
00000140: d20a 24be 2fa8 0ebe 60f8 ea3e e301 ddbd
00000150: 3898 ab3e cad4 00bf 4c7b 8bbd ab6c 063f
00000160: b10e ca3e 6a17 9d3c fd61 c73e bb03 0bbf
00000170: 0216 cd3b 5d86 74be dc2d d9be b7ce c63d
00000180: d2ca 4d3e 0389 bebe 3efa 1b3f daa3 08bf
00000190: 3571 bc3e a20d 5c3e 4b43 de3e 27b7 10bf
000001a0: fd74 61be 39d3 f4be c0d6 fabe d068 dc3d
000001b0: de16 a03e 17cd 483e cef0 8ebe 6a63 c83e
000001c0: 03fd a9be 374a d63e 2388 6c3e e6b0 0e3e
000001d0: 5bd2 00bf a0c5 03bf e582 84bd a5a6 36bd
000001e0: 5c5e 253e 1b1f fc3e 44fc babe 6d87 b0be
000001f0: f92a 3f3e 763f b13e 513d 8c3e 6bff 9dbe
00000200: 91c5 b3be c491 dc3d 661b bfbe 3735 76be
00000210: f3cc 13bd 45e5 723f dd98 00bf 0372 f5be
00000220: bdfa 4f3e 5e13 c53d 69db 443e d7f0 80bd
00000230: d5cc 083f 27b1 253d 7c6a 543e 39df e53e
00000240: 9e14 f33e 0326 073f 1cd2 be3e 6d29 9cbe
00000250: 78cb 83be 68e4 3f3e c616 123e cdf5 bf3e
00000260: de41 3a3e dc96 41be 497e b6be ef5f 883e
00000270: 5056 86be 997b 5bbe fa77 92be 070c 503d
00000280: 7b89 a93d 6291 0c3f ec02 213d e557 493e
00000290: b5ef f53c 75ce b03e ac93 3ebd 3288 71be
000002a0: 7b85 d5be 149e 913b 1999 0e3f 237b 3cbd
000002b0: e525 0d3f 6be1 103f b893 94be 3f61 efbe
000002c0: f84f df3e 1365 8e3e df0b 2bbe 3fca 2e3e
000002d0: 76c6 0abf 94e0 81be 1344 16bf 0e49 bdbd
000002e0: b5e8 efbe 42a9 893e 04fd c4bd 5ef6 72bd
000002f0: f2b3 debe fbf0 dc3a 0415 02bf c35b 523e
00000300: 1a1d ab3e bb0e e5be 9df4 ccbe 21cf b13e
00000310: fea7 9d3e 58cb ac3e 474f f1be c1c0 fe3d
00000320: a7c8 f83e 294e 373e a6bd 04bf 7c6c 10be
00000330: 3dfe b43e a1f4 52be ef44 7cbe 6dfc ce3e
00000340: 3233 2a3e b511 293e ff71 663e 2084 f0be
00000350: 189b 673e fb7d fa3e f332 febe 1d0a 1d3e
00000360: 78f4 0bbd 9e2d 57be 1118 dc3d 6871 b2be
00000370: d699 ae3d b3f1 e7be d1cc b4be ad3f a0be
00000380: 1082 be3e 4448 c9bd 7bb6 f1be 5468 bd3e
00000390: ca17 76be ec53 3c3e 092c b2be 2f14 933e
000003a0: c7fd b5be a3a3 02be c416 ad3e 6d93 b3be
000003b0: c714 a03e ef9e 173f c8a3 dc3d 99da ab3e
000003c0: f7b4 aa3e f214 b83e 40c3 543e 1475 7a3d
000003d0: 663b ec3d 2868 88be 50b4 b6bd 66c8 a93e
000003e0: fdbc d93e c265 ee3d 13d1 923e e36f 8a3e
000003f0: c0d0 2e3c 6337 fb3e 3873 d43e 2a31 8abe

VAE.encoder_mu.layers.1.linear0.bias f4 [128]
0.3102248 0.20502688 -0.39499265 0.41661137 0.33992812 0.47271657 0.23663662 -0.24457759
-0.14138784 -0.54023945 -0.02418718 -0.06380342 -0.36289856 -0.06393984 0.01487982 -0.009935059
0.0022406764 -0.36525917 -0.02863339 0.4499534 0.23571031 -0.37094864 -0.15112828 0.47634223
-0.27940035 -0.1528022 -0.42108274 -0.014810635 -0.006302834 0.010190621 0.522949 0.27704918
0.21037441 -0.31357807 -0.22323221 0.36150897 -0.28986508 0.23085476 0.35810953 0.38734102
0.24325109 -0.22586179 0.070407495 0.04947741 0.4018553 -0.24308003 0.14442442 -0.32075584
0.12890601 0.21405992 0.10823021 0.09757792 0.13155384 0.061031263 -0.06008348 0.46058676
-0.09747953 0.27529517 -0.057681497 0.3968328 0.16165152 0.23880239 0.3503119 0.15855192
-0.12327931 -0.13011378 -0.22083423 0.35675335 0.1231714 -0.4878411 0.10562044 -0.33524588
0.5931359 0.12455447 0.10097698 0.37716016 -0.20860346 -0.056085482 -0.4573195 -0.15821894
0.10469863 0.045680832 -0.5183566 0.37180352 -0.38962492 0.32465774 0.4032566 0.20454961
-0.25117555 0.3740319 0.017444098 0.32380977 -0.21049352 -0.090725884 -0.44492927 0.42259714
-0.19414555 0.39521194 -0.20047545 -0.13650833 -0.21223693 0.38974324 0.13130721 0.531658
-0.23990776 -0.040138066 0.56171364 -0.038434856 0.05291141 0.25185612 0.46910974 0.24208947
-0.4145088 -0.44541183 0.22041067 0.46056515 0.13343322 -0.23546761 0.21227953 0.21931602
0.4832384 -0.019850396 0.2878906 -0.06975687 0.36460847 -0.3218584 0.50451565 0.3249512
00000000: c9d5 9e3e 91f2 513e 7a3c cabe 164e d53e
00000010: 0f0b ae3e e807 f23e df50 723e 8c72 7abe
00000020: f9c7 10be 224d 0abf 3124 c6bc 5eab 82bd
00000030: d7cd b9be e4f2 82bd 7dca 733c a8c6 22bc
00000040: 50d8 123b 4003 bbbe 9290 eabc 4b60 e63e
00000050: 0b5e 713e fbec bdbe 5fc1 1abe 21e3 f33e
00000060: 900d 8fbe 2e78 1cbe 2898 d7be 4ea8 72bc
00000070: 0188 cebb 90f6 263c fcdf 053f 64d9 8d3e
00000080: 646c 573e 4e8d a0be fc96 64be b417 b93e
00000090: 3269 94be 3165 6c3e 225a b73e 9051 c63e
000000a0: d016 793e 5048 67be ce31 903d d3a8 4a3d
000000b0: fabf cd3e f9e9 78be ffe3 133e 1c3a a4be
000000c0: f0ff 033e 8632 5b3e cda7 dd3d efd6 c73d
000000d0: 0db6 063e ebfb 793d 181a 76bd 07d2 eb3e
000000e0: 59a3 c7bd 7df3 8c3e 6f43 6cbd ab2d cb3e
000000f0: fa87 253e 9d88 743e 155c b33e 6f5b 223e
00000100: dd79 fcbd 8c3c 05be 5e22 62be 60a8 b63e
00000110: 4941 fc3d 4fc6 f9be 874f d83d 59a5 abbe
00000120: c1d7 173f 6a16 ff3d 05cd ce3d 231b c13e
00000130: 259c 55be e4b9 65bd c825 eabe 2504 22be
00000140: 3c6c d63d d31b 3b3d 05b3 04bf 085d be3e
00000150: eb7c c7be 8a39 a63e a677 ce3e 7475 513e
00000160: 159a 80be 1c81 bf3e ede6 8e3c 65ca a53e
00000170: 9d8b 57be 7ece b9bd c5cd e3be a75e d83e
00000180: 17ce 46be 3859 ca3e 7049 4dbe d7c8 0bbe
00000190: a354 59be 6d8c c73e 6675 063e bd1a 083f
000001a0: 61aa 75be d067 24bd 77cc 0f3f de6d 1dbd
000001b0: a2b9 583d 49f3 803e 272f f03e 4de6 773e
000001c0: 7f3a d4be 050d e4be 56b3 613e 32cf eb3e
000001d0: b8a2 083e 6c1e 71be ce5f 593e 6194 603e
000001e0: 066b f73e 4c9d a2bc 6666 933e b1dc 8ebd
000001f0: f6ad ba3e a0ca a4be f027 013f 0160 a63e

VAE.encoder_mu.layers.1.linear1.weight f4 [4, 128]
-0.06963675 -0.02092615 0.23667412 0.07584436 -0.048310887 -0.1357167 0.0224411 -0.021310622
-0.07820227 0.057391614 -0.1294753 0.034529693 0.09630065 -0.15648375 -0.006996192 0.003544894
0.1390257 0.39425492 0.051487602 0.09311881 0.075952955 0.0806202 -0.022641359 0.09986608
-0.016086582 -0.09501868 0.06355205 0.06220646 -0.015187795 -0.11032774 0.00068666233 0.0073347734
-0.056982003 0.2747638 -0.02537604 -0.026961895 -0.11361493 0.06546719 0.112674594 0.087272026
-0.09092803 -0.06763821 0.009316702 -0.1397613 0.10206988 -0.13603263 0.014483847 -0.16230924
0.024430338 0.14122285 0.0163387 0.12836556 -0.13685393 0.15240966 0.011236698 -0.013862057
0.16110525 -0.07674014 0.104463615 0.014413428 -0.022575827 0.042318743 -0.005579121 -0.106446855
0.23491465 -0.22638032 0.43364963 -0.07305121 0.01580277 0.122116126 -0.050023895 0.13044043
-0.032861985 0.022776077 -0.07069062 0.052451372 0.13283911 -0.046400998 0.1440471 0.10702555
-0.08005278 -0.058969688 0.19419573 -0.008428386 0.3248579 -0.07545243 0.11082305 0.048787925
0.49476227 -0.07916696 -0.0988505 0.071659155 0.1370204 -0.06864307 0.0677886 0.079311125
-0.0031790475 -0.08510442 0.07158129 -0.02476651 0.013992243 -0.14904031 -0.0018025262 0.007799846
0.64800406 -0.11224013 0.06851648 -0.024576614 -0.1842215 -0.14790274 -0.004278586 -0.0075112823
0.28677592 0.07256002 -0.08344425 0.094566025 -0.09020962 0.1515343 0.061195157 -0.06101595
0.026539205 -0.026476897 0.10415741 -0.1374652 -0.09610367 -0.020943625 -0.036772694 0.06908714
0.014454334 0.0892617 -0.14611506 0.02897572 0.15472831 -0.12379466 -0.067991294 -0.11329872
0.06827919 -0.071165174 -0.06720442 -0.10242723 -0.15656285 0.07535874 0.10616483 -0.13307376
-0.057604115 -0.21645337 -0.078167245 -0.027418353 -0.04077878 -0.1657418 0.040536035 -0.060644235
-0.055075046 0.1388432 -0.0048753796 -0.05964419 -0.051698487 -0.02239704 0.11131457 -0.17120656
0.02170152 -0.28024396 0.067234844 -0.021008488 0.004342853 0.010416781 0.037787993 -0.025549714
0.11480753 0.056069158 -0.027989043 -0.050740454 -0.0030973386 0.1009774 0.07713774 0.15169278
-0.043413732 -0.00826197 0.14173797 -0.0006601938 -0.10710451 0.043057665 -0.044367425 -0.021873754
-0.016056526 0.042214304 0.001686842 0.026977511 -0.046863686 -0.07440293 -0.09993668 0.09489289
-0.00857944 0.2125497 -0.2788519 0.17143881 -0.08378705 -0.23727837 -0.19308822 -0.34804514
-0.00058811926 0.056117237 -0.044104874 0.012912553 -0.1267099 -0.050735522 -0.024907408 0.07332208
0.07070867 -0.15997927 0.0020406845 0.0040514357 -0.10785459 -0.018867943 -0.061660793 0.10821335
-0.055418532 -0.015257274 -0.035351954 0.057811487 -0.2186675 0.07737816 -0.0010415136 0.0042542154
-0.021482708 0.044251915 0.108714834 0.01019711 0.016870163 0.005080796 0.03734678 -0.12002634
0.10743155 0.009102842 -0.02778929 -0.15578027 0.09439696 0.1308747 0.008297335 0.08763799
-0.11969723 -0.041590866 0.056020312 -0.10014021 0.060804434 -0.03554907 0.01957136 -0.021946771
-0.044787977 -0.016523734 -0.032941066 -0.039520543 0.069432065 0.007032938 0.07084693 0.0783811
00000000: b69d 8ebd 516d abbc b35a 723e 4a54 9b3d
00000010: a3e1 45bd 52f9 0abe 66d6 b73c 9d93 aebc
00000020: 8328 a0bd 7813 6b3d 2c95 04be 026f 0d3d
00000030: 4639 c53d 473d 20be 5040 e5bb 7451 683b
00000040: c15c 0e3e c8db c93e aae4 523d 13b5 be3d
00000050: 398d 9b3d 341c a53d 5f7a b9bc 9686 cc3d
00000060: 02c8 83bc 2799 c2bd 9427 823d 33cc 7e3d
00000070: 3bd6 78bc 83f3 e1bd 2101 343a 8a58 f03b
00000080: f665 69bd d7ad 8c3e 6ae1 cfbc 31df dcbc
00000090: f2ae e8bd aa13 863d f0c1 e63d adbb b23d
000000a0: 7a38 babd e785 8abd 15a5 183c 961d 0fbe
000000b0: 030a d13d 234c 0bbe a84d 6d3c 6534 26be
000000c0: 2222 c83c b99c 103e bdd8 853c 4372 033e
000000d0: 7023 0cbe 4711 1c3e 211a 383c ae1d 63bc
000000e0: c6f8 243e ef29 9dbd 05f1 d53d 4c26 6c3c
000000f0: f1f0 b8bc 6b56 2d3d 0fd1 b6bb cf00 dabd
00000100: 778d 703e 3ed0 67be 5307 de3e df9b 95bd
00000110: d074 813c 0518 fa3d dbe5 4cbd 2d92 053e
00000120: 4a9a 06bd e594 ba3c 3ec6 90bd 40d7 563d
00000130: fa06 083e f90e 3ebd 1581 133e 3630 db3d
00000140: b6f2 a3bd 338a 71bd 3fdb 463e 3717 0abc
00000150: c653 a63e ce86 9abd 32f7 e23d d9d5 473d
00000160: 7b51 fd3e 4a22 a2bd 2272 cabd 09c2 923d
00000170: 134f 0c3e bd94 8cbd c0d4 8a3d df6d a23d
00000180: 9157 50bb 3a4b aebd 3699 923d 23e3 cabc
00000190: b93f 653c 069e 18be be42 ecba da95 ff3b
000001a0: 98e3 253f 27de e5bd 5e52 8c3d e554 c9bc
000001b0: 90a4 3cbe d173 17be 6133 8cbb 3421 f6bb
000001c0: 4bd4 923e 599a 943d d2e4 aabd d5ab c13d
000001d0: d2bf b8bd cf2b 1b3e c6a7 7a3d dceb 79bd
000001e0: bf68 d93c 14e6 d8bc 7b50 d53d adc3 0cbe
000001f0: 00d2 c4bd f791 abbc f79e 16bd 8f7d 8d3d
00000200: dfd1 6c3c d7ce b63d 309f 15be 7d5e ed3c
00000210: 1971 1e3e 0e88 fdbd 053f 8bbd 2909 e8bd
00000220: f6d5 8b3d 0cbf 91bd 79a2 89bd 5ec5 d1bd
00000230: 0352 20be af55 9a3d f26c d93d 7d44 08be
00000240: 4bf2 6bbd f4a5 5dbe 2616 a0bd 749c e0bc
00000250: a607 27bd 38b8 29be 1d09 263d 1766 78bd
00000260: 5f96 61bd e92c 0e3e a6c1 9fbb 774d 74bd
00000270: cbc1 53bd ff79 b7bc e5f8 e33d c650 2fbe
00000280: 63c7 b13c 237c 8fbe 6cb2 893d fe19 acbc
00000290: 7e4e 8e3b 25ab 2a3c 95c7 1a3d a24d d1bc
000002a0: 3620 eb3d c6a8 653d 4749 e5bc 39d5 4fbd
000002b0: b8fc 4abb 3dcd ce3d 64fa 9d3d 5a55 1b3e
000002c0: 99d2 31bd 375d 07bc c223 113e db10 2dba
000002d0: 9c59 dbbd 3c5d 303d 9eba 35bd 9630 b3bc
000002e0: fa88 83bc e8e8 2c3d 0619 dd3a f1ff dc3c
000002f0: 23f4 3fbd 9060 98bd 9aab ccbd 3457 c23d
00000300: c890 0cbc a1a6 593e adc5 8ebe a88d 2f3e
00000310: 8b98 abbd 1af9 72be ebb8 45be f932 b2be
00000320: 042c 1aba 30db 653d 50a7 34bd 2c8f 533c
00000330: 3dc0 01be 0dd0 4fbd 9f0a ccbc e329 963d
00000340: b5cf 903d 9bd1 23be 01bd 053b e8c1 843b
00000350: dee2 dcbd f290 9abc 0790 7cbd f69e dd3d
00000360: 8bfe 62bd a5f9 79bc 36cd 10bd bdcb 6c3d
00000370: 60ea 5fbe 7178 9e3d 6683 88ba f266 8b3b
00000380: 81fc afbc 7f41 353d e2a5 de3d c711 273c
00000390: 4c33 8a3c ce7c a63b f0f8 183d 5fd0 f5bd
000003a0: 1305 dc3d 1624 153c 5da6 e3bc dd84 1fbe
000003b0: 3253 c13d 0404 063e 8cf1 073c 8c7b b33d
000003c0: d223 f5bd 2f5b 2abd 8e75 653d 4f16 cdbd
000003d0: 120e 793d e79b 11bd 1e54 a03c b7c9 b3bc
000003e0: 9973 37bd c85c 87bc 36ed 06bd 4be0 21bd
000003f0: 6632 8e3d 8f74 e63b 3218 913d 4586 a03d

VAE.encoder_mu.layers.1.linear1.bias f4 [4]
-0.06004113 -0.09651913 0.09857252 -0.036422454
00000000: b0ed 75bd d2ab c5bd 64e0 c93d b62f 15bd

VAE.encoder_mu.layers.1.norm1.weight f4 [4]
1.1085465 1.110199 1.1474357 1.0680534
00000000: dae4 8d3f 001b 8e3f 2cdf 923f f9b5 883f

VAE.encoder_mu.layers.1.norm1.bias f4 [4]
0.049718864 0.07884118 -0.029827239 -0.08384754
00000000: 02a6 4b3d 7c77 a13d 4158 f4bc 42b8 abbd

VAE.encoder_mu.layers.1.norm0.weight f4 [4]
0.7587498 0.74707997 0.9767531 0.9743013
00000000: 6d3d 423f a240 3f3f 7e0c 7a3f cf6b 793f

VAE.encoder_mu.layers.1.norm0.bias f4 [4]
0.02525895 0.017918812 -0.040727686 0.03805451
00000000: dceb ce3c 79ca 923c 13d2 26bd 0cdf 1b3d

VAE.encoder_mu.last_normalization.weight f4 [4]
1.0 1.0 1.0 1.0
00000000: 0000 803f 0000 803f 0000 803f 0000 803f

VAE.encoder_mu.last_normalization.bias f4 [4]
0.0 0.0 0.0 0.0
00000000: 0000 0000 0000 0000 0000 0000 0000 0000

VAE.encoder_mu.head.weight f4 [4, 4]
-0.3405435 -0.10848373 0.11128217 -0.23393804 0.1817171 -0.2526266 -0.47724736 -0.28441763
0.13590002 -0.34347486 -0.25218827 -0.39644927 0.08769387 0.23735774 -0.055325925 0.44520777
00000000: b85b aebe b82c debd e8e7 e33d 748d 6fbe
00000010: 0c14 3a3e 4658 81be c459 f4be 309f 91be
00000020: 6029 0b3e f0db afbe d21e 81be 66fb cabe
00000030: d898 b33d e80d 733e 709d 62bd 46f2 e33e

VAE.encoder_mu.head.bias f4 [4]
-0.11973244 -0.40938735 0.22656304 0.3370018
00000000: 4836 f5bd 389b d1be 2400 683e 808b ac3e

VAE.encoder_logvar.layers.0.attention.W_q.weight f4 [4, 4]
-0.046516992 -0.58446676 -0.09481548 -0.25680205 0.059274357 -0.36399314 -0.17301013 0.12857212
0.35598147 -0.60675436 0.44743806 -0.49389127 -0.20816015 -0.47739112 0.20010841 -0.45004722
00000000: 9a88 3ebd 9d9f 15bf 9e2e c2bd 8f7b 83be
00000010: abc9 723d 4f5d babe 9129 31be 69a8 033e
00000020: 3443 b63e 4154 1bbf 9a16 e53e 51df fcbe
00000030: ef27 55be 9c6c f4be 38e9 4c3e 976c e6be

VAE.encoder_logvar.layers.0.attention.W_q.bias f4 [4]
-0.09892942 0.14140081 0.09466046 0.19200508
00000000: 829b cabd 60cb 103e 58dd c13d fb9c 443e

VAE.encoder_logvar.layers.0.attention.W_k.weight f4 [4, 4]
0.6981891 -0.11498072 0.5356411 -0.18163773 -0.24022883 -0.27688974 0.46031854 -0.04673671
0.6548948 -0.50183004 -0.3581455 -0.065351315 -0.19528817 -0.5526528 -0.19669315 -0.59436005
00000000: 85bc 323f 037b ebbd c61f 093f 3eff 39be
00000010: 8cfe 75be 7ec4 8dbe dfae eb3e fe6e 3fbd
00000020: 30a7 273f ef77 00bf d95e b7be e9d6 85bd
00000030: 9ff9 47be a77a 0dbf ee69 49be fb27 18bf

VAE.encoder_logvar.layers.0.attention.W_k.bias f4 [4]
-0.000102884376 3.9404535e-05 2.5921607e-05 -3.7694266e-05
00000000: a1c3 d7b8 4c46 2538 3a72 d937 e919 1eb8

VAE.encoder_logvar.layers.0.attention.W_v.weight f4 [4, 4]
0.19797242 0.08960731 -0.15036552 -0.51446426 0.19744533 0.045424573 -0.18478931 -0.47617128
-0.03149238 0.10302308 -0.024426619 -0.1315117 0.20768958 0.10094877 -0.13723162 -0.480715
00000000: 48b9 4a3e 0a84 b73d 6bf9 19be eeb3 03bf
00000010: 1c2f 4a3e 1e0f 3a3d 6939 3dbe b9cc f3be
00000020: 27fe 00bd c4fd d23d 551a c8bc 01ab 06be
00000030: 94ac 543e 3bbe ce3d 7286 0cbe 4720 f6be

VAE.encoder_logvar.layers.0.attention.W_v.bias f4 [4]
-0.039674953 -0.09010535 0.0111860605 0.03834336
00000000: 3482 22bd 2789 b8bd bd45 373c ed0d 1d3d
