tabsyn/vae/ckpt/default/minor_only/decoder.pt (torch, 27971 bytes, 49 tensors)

VAE_Decoder.layers.0.attention.W_q.weight f4 [4, 4]
00000000: 0d6f ba3e 4a36 a63d 65df 47be 9d03 c9be
00000010: fd79 0e3e 4de1 a43e a3f4 f93e 9e13 5dbd
00000020: 9f74 a73e e1b1 9b3d 2c72 dc3e 3ee5 a93e
00000030: aedb 1b3c a923 e63e 8335 c9be 9357 eabe
0.3641285 0.081158236 -0.19518812 -0.3926057 0.13913722 0.3220314 0.48819456 -0.053973787
0.32706162 0.07602287 0.43055856 0.3318271 0.009512825 0.44949082 -0.3929864 -0.4576994

VAE_Decoder.layers.0.attention.W_q.bias f4 [4]
00000000: d0e9 273e 5c94 813e 99c0 7dbd 475d 053e
0.16397786 0.25308502 -0.061951254 0.13023864

VAE_Decoder.layers.0.attention.W_k.weight f4 [4, 4]
00000000: dc91 dcbe 83ce 33be d459 003f 4b26 ce3e
00000010: ba69 d1be f77e 003f 311a c23e 7aef e93e
00000020: f451 3ebe 70cc 88be fb2d 27bf 6e64 b4be
00000030: bfbf 8abe e07d 4cbc 3eb6 3e3e d040 493d
-0.43080032 -0.17559247 0.50137067 0.4026359 -0.40900975 0.5019373 0.37910607 0.4569052
-0.1858595 -0.26718473 -0.65304536 -0.35232872 -0.27099416 -0.012481183 0.18624207 0.049134076

VAE_Decoder.layers.0.attention.W_k.bias f4 [4]
00000000: ca02 0039 32da c238 14dd 053a f17d f1b9
0.0001220807 9.291283e-05 0.00051064906 -0.00046060936

VAE_Decoder.layers.0.attention.W_v.weight f4 [4, 4]
00000000: 07ad 60be fb13 27bd 742b febd c9a9 c13d
00000010: e1a5 c4be da4b bd3c dfd0 fb3d 021f 3f3e
00000020: 4f10 8dbd bbfa 88bd 604c 3bbe df67 023a
00000030: 924a 6e3d 0d50 04be 5be4 5abe 1d1f 9abd
-0.21941005 -0.04079054 -0.12410632 0.09456212 -0.38407806 0.023107458 0.122956984 0.18664172
-0.06887876 -0.06688448 -0.18290854 0.00049745844 0.058176585 -0.12921162 -0.21376173 -0.07525466

VAE_Decoder.layers.0.attention.W_v.bias f4 [4]
00000000: d3ca 92bd 94bf c13d e9d8 80bc 98a3 82bb
-0.07167592 0.09460369 -0.01572843 -0.003986787

VAE_Decoder.layers.0.linear0.weight f4 [128, 4]
00000000: 5013 463e f4ca 063f d250 1a3e 0a18 ab3e
00000010: 712e fe3e 66dd dcbe fee6 363e 3b57 2d3d
00000020: f2f5 f43d 946c 153d 57f9 c3be 70b8 12be
00000030: 60ab e4bd 481a 023d a0b4 df3e 421e 85be
00000040: 580c 303f 0442 85be d21e 02bf 1f07 11bf
00000050: 44e9 463e 16a4 c43e 9a89 643b 71b0 92be
00000060: eb8e bd3e f6db 86be c13c ddbe bd04 8d3b
00000070: a3a6 1ebf 54e1 d0bd 20fe 873e 6baf 353e
00000080: 4a32 16bd 7ddd ae3e cf08 e9be 9ab7 c7be
00000090: 9a6f 38be fb78 503d f70c 193f 658e 1bbf
000000a0: 8017 8fbe 9433 79be 4ea6 90bc 90f8 683e
000000b0: b88a c33d 3ca3 e9be 230e 1a3f 6b36 30bf
000000c0: 6101 de3e de1c f0be a491 d73e 6b39 3e3e
000000d0: abd8 f63e bf1b e43d 84ea 0bbe bf0c 7dbe
000000e0: 6029 0dbe 842a 17bf 508a 133e b750 1bbf
000000f0: 63ce 8e3e 4d21 b83d 908c bb3e dde9 03be
00000100: 96ac 083f f51c d9be 24af fb3e 00c0 a23b
00000110: d1c0 4dbd 8908 a53e b381 0c3f 4ea1 ddbe
00000120: fc4a 3a3f 0937 f6bd 3a8a 88be e13a 87be
00000130: 8141 b0be b0f0 b1bc 79dd 883e f580 ff3e
00000140: 3e54 01bf 2ada d43e f668 bc3e d09f 83be
00000150: 02e7 223e eaf8 083f 2af1 febe d475 87be
00000160: 008f 053e ff92 17bc bc31 0c3f 4607 71bf
00000170: f24b 023f 0186 ea3e e0ca 11bf 564c cdbe
00000180: d83f 023f 5340 1abe 4666 d93e 282f 2c3e
00000190: 54b2 2a3d cf28 26be c321 89bd 6b57 803e
000001a0: c166 c73e f3a8 b73e cb29 03bf 2e22 8dbe
000001b0: 9d60 01bf 77c7 9cbe fb6c d33e 1759 963e
000001c0: 017e f03e 0b96 1cbf dacc 7d3e 18fb 00bf
000001d0: 54c8 533e bd9c da3e 5b8f 983c 8f7b 893e
000001e0: 8a5b 09be 625e 08be 0755 eabe 7d78 e73e
000001f0: 290d 0a3f d807 abbe a3a8 d53e 7fb0 b7be
00000200: c242 103f ec57 0cbf f13e 3b3e aa00 213e
00000210: 797e d53e e289 bdbd d572 aabe e745 6d3e
00000220: 9fc9 92be 0d35 bdbd bed9 813e 1a09 473e
00000230: b712 38bf 6dc8 15bf 7db2 963e 36a2 653e
00000240: 73e5 eabe f0a0 fcbe b493 b73e 982b 793e
00000250: 5c4c 92be 151f 763e 0a33 8a3e f699 d63e
00000260: 210f ad3d b35e c33d a2d5 c4bc ebb7 9b3d
00000270: 13d9 e73e de2a 51be 8585 69bd e3e0 4e3e
00000280: b5c2 b13e 8cbc a7bd cc0c bbbd 1c3c 143e
00000290: d6d6 f63d 12e8 093e e123 8ebe bb4c ee3e
000002a0: fd05 3cbf e696 2dbf 0eac 443e cdf5 073e
000002b0: 52a9 d83e 8f8a 62bc d36f 13bf a9ea 4cbe
000002c0: f3a4 a8bc b581 92be f589 e0be 44ea 46be
000002d0: 9ae7 00bf 24fe dfbe b5bf fa3e c435 15bf
000002e0: 19ff e13e d2eb 35be 159a b73d 0b3a e13e
000002f0: c456 83be 6859 47be fcaf 92be 12ce f83e
00000300: 9d57 c4be 42b5 933e b0b4 19bf 4a5a ccbd
00000310: 179c cebe 8086 1dbe 1eb5 a13e 3458 bd3e
00000320: 28c6 d6be 990c e63e 0048 17bd 9925 0fbf
00000330: d859 96be 2bd0 b7be 6321 84bd 90a8 a13e
00000340: ec32 9dbe 07e6 10bd 4546 46be 9bad ebbe
00000350: 0560 b93c 9df3 e4be e207 8f3d 20f2 c83e
00000360: b445 0d3f d055 1a3f 5b38 d73c 39ee 773e
00000370: 7eff 0dbf 736a debc b7d2 f73e ddbf 08bf
00000380: c37f 02bf 622b e53e f7a8 2b3e b458 10be
00000390: 188c c4be 3931 b9be 06aa e33d f125 d83e
000003a0: b0b9 dc3e 0b65 92be 3271 0ebf 825c c4be
000003b0: 7235 04bf 432e e23e d91b c83e 9c7d 8f3e
000003c0: eba0 ab3d 76d6 f33e 056f ca3e 71b8 ec3d
000003d0: 3299 b73e 74f9 df3d bf65 44bd ef05 953e
000003e0: 4959 c7be f159 0e3e a8e2 62be 93dd ff3e
000003f0: 9cbf 043f 36ce c83e 4467 1fbe af6b 3ebe
0.19343305 0.5265343 0.15069893 0.33416778 0.49644807 -0.43137664 0.17861554 0.042319518
0.11960973 0.0364805 -0.3827617 -0.1432817 -0.111655 0.031763345 0.43692493 -0.25999647
0.68768835 -0.26026928 -0.5082828 -0.5665149 0.19424921 0.38406438 0.0034872056 -0.2865024
0.370231 -0.26339692 -0.43210414 0.0043035434 -0.6197302 -0.10199228 0.2656107 0.17742698
-0.036669053 0.34153357 -0.45514533 -0.39007264 -0.18011323 0.050896626 0.5978541 -0.6076415
-0.27947617 -0.24336082 -0.017657425 0.22751069 0.09547943 -0.4563235 0.6017782 -0.68833035
0.43360427 -0.46897024 0.42103302 0.1857659 0.4821218 0.11138105 -0.1366368 -0.24711893
-0.13785315 -0.5904925 0.14408231 -0.60670036 0.27891836 0.089907266 0.36630678 -0.1288218
0.53388345 -0.42404905 0.4915706 0.004966736 -0.050232712 0.32233074 0.54885405 -0.43287128
0.7277067 -0.12022216 -0.26667958 -0.2641211 -0.34424976 -0.021721214 0.2673147 0.49903074
-0.5051917 0.41572696 0.3679883 -0.25707865 0.15908435 0.5350481 -0.4979337 -0.26457083
0.13042831 -0.009251355 0.5476339 -0.94151723 0.50897133 0.45805362 -0.5695019 -0.40097302
0.5087867 -0.150636 0.4246084 0.16814864 0.041673973 -0.16226505 -0.06695893 0.25066695
0.38945583 0.35871086 -0.51235646 -0.2756514 -0.50538045 -0.3062093 0.41294083 0.29364845
0.46971133 -0.6116645 0.24785176 -0.5038314 0.20681888 0.42697707 0.018623045 0.2685208
-0.13413826 -0.13317254 -0.45767996 0.45209113 0.5392633 -0.33404422 0.41730222 -0.35876843
0.56351864 -0.5482166 0.18285729 0.1572291 0.41698053 -0.09254815 -0.33290735 0.23171197
-0.2866945 -0.09238634 0.25361437 0.19437066 -0.71903557 -0.5850895 0.2943305 0.2242516
-0.4587818 -0.49341536 0.35854876 0.24333036 -0.28573883 0.24035294 0.26992065 0.41914338
0.08450151 0.09539547 -0.02402765 0.07603439 0.45282802 -0.20426509 -0.0570121 0.20202975
0.34718862 -0.08190259 -0.091333 0.14476055 0.120526955 0.13467434 -0.27761748 0.46542916
-0.7344664 -0.6780838 0.19206259 0.1327736 0.4231668 -0.01382698 -0.57592505 -0.20011391
-0.020586466 -0.28614584 -0.43855253 -0.19425303 -0.50353396 -0.4374858 0.48974386 -0.58285165
0.44139937 -0.1776574 0.08964936 0.43989596 -0.25652134 -0.194677 -0.2864989 0.4859472
-0.38348094 0.28849226 -0.6004133 -0.09978159 -0.40353462 -0.15383339 0.31583494 0.36981356
-0.41948056 0.44931486 -0.0369339 -0.55916744 -0.2936542 -0.35901007 -0.064516805 0.31573915
-0.30702913 -0.03537562 -0.19362743 -0.46030888 0.022628793 -0.44717112 0.069839254 0.39247227
0.55184484 0.6028719 0.02627199 0.24211968 -0.55467975 -0.027150368 0.4840295 -0.5341776
-0.509762 0.4475966 0.16763674 -0.14096338 -0.38388133 -0.36170366 0.11116414 0.42216447
0.43110418 -0.28592715 -0.5564147 -0.38351828 -0.5164405 0.4417592 0.39083746 0.2802552
0.08380302 0.47624558 0.39537826 0.11558617 0.35859066 0.10936251 -0.047948595 0.2910609
-0.38935307 0.13901497 -0.22156775 0.49973735 0.5185487 0.39219826 -0.15566736 -0.18595766

VAE_Decoder.layers.0.linear0.bias f4 [128]
00000000: 049f 1d3e 9846 ee3d 4fdd cdbd b73f 233e
00000010: 5da7 a7be 1be1 b7be b333 d93d 9b47 80be
00000020: 5528 813e c34f 1a3e 401d d8be d89e 9d3e
00000030: 6db1 93be a044 813e b43e cc3e 841b 03bf
00000040: bd5f 053e 8aad 993e 9a94 21be 08b3 babe
00000050: ef8b 273f 13e4 bebd c162 40be 9d38 7cbe
00000060: 062b 4a3e aec1 6b3e 8814 1e3c f784 a2be
00000070: 1106 863e eb9c 98be fa68 643e 3202 893e
00000080: d4e9 383e a685 023f 0634 37be 05b5 77be
00000090: de0b 5ebe 6f6f 7f3e 81bb 453e 308d 03bf
000000a0: 5bb4 f43e c4d5 3bbf 41e0 5cbe e1dc e8bb
000000b0: 0d27 d03e e436 a63e c1f2 83be f36f 293e
000000c0: f6d0 cebe d405 aa3e 257a a8be 6915 32be
000000d0: bb71 5a3d 1baa a03e 7c6e ebbd d96c 5f3d
000000e0: 4ecb a1bd 9cc4 a73e 9324 563e 6e66 7abd
000000f0: ace0 0d3e 4f41 d9be 6b81 61be 66a4 0e3e
00000100: 7be8 af3e 14cd 5cbe 8be3 b9be 8f88 e93e
00000110: 6713 b43c 0894 e93e 01e7 df3e 775d aebe
00000120: d369 d83e d262 83be cfd0 7b3e 7f0d d33c
00000130: 8c43 55bd 4802 33be 4a23 553e 0ea2 47be
00000140: 2e9a 143f 4578 ac3c a045 743e 122b 8fbe
00000150: 71f5 113e f658 94bc daca d93e 2346 36be
00000160: b2d2 05bd 2ccd 2a3e 2daa 59be 1cab d13d
00000170: ade1 7c3e 45e5 81be 1dca dabd ace4 88bd
00000180: e539 96be 2a71 ae3e 5826 aa3e 5f52 a6be
00000190: 8797 c63e 7fb4 2ebe b428 96be 6dd9 36be
000001a0: 008e babc 01e7 003e 5504 91bd 66b5 da3e
000001b0: 9595 b73e c531 0e3f b071 ecbe ad85 9b3e
000001c0: e9f8 dd3e 832c 413a f7f8 e93d 5725 c8be
000001d0: 593a d73e f496 e73e ffe1 3d3d f9ba 19be
000001e0: 111a 2e3e 17d7 d5be 4eaf 93be 8c01 a2be
000001f0: f439 8bbe c0a8 e73e eef5 60be 87c9 49bd
0.15392691 0.116345584 -0.10051977 0.15942274 -0.32744876 -0.3591393 0.10605564 -0.2505463
0.25226083 0.15069489 -0.42209816 0.3078525 -0.28846303 0.2524767 0.3989159 -0.5121386
0.13024803 0.30015212 -0.15779343 -0.36464715 0.65447897 -0.093208455 -0.18787672 -0.24630971
0.19742975 0.23023102 0.00964845 -0.3174207 0.26176503 -0.2980722 0.2230567 0.26759487
0.18057948 0.5098518 -0.17890939 -0.24190147 -0.21684214 0.24944852 0.19309808 -0.5138731
0.4779385 -0.73373055 -0.21569921 -0.007106409 0.40654793 0.32463753 -0.25771144 0.16546611
-0.403938 0.33207572 -0.3290569 -0.1739098 0.053331118 0.3137978 -0.114956826 0.054547165
-0.079001054 0.3276719 0.2091239 -0.06113284 0.13855237 -0.4243264 -0.22022025 0.139299
0.34357056 -0.21562606 -0.36306414 0.45611998 0.021981908 0.4562075 0.4373093 -0.34055683
0.42268237 -0.2566133 0.24591373 0.025763271 -0.05206637 -0.17481339 0.20814243 -0.19495413
0.5804776 0.021053443 0.23854685 -0.27962548 0.14253785 -0.018108826 0.42537576 -0.17800193
-0.032671638 0.1667983 -0.21256323 0.10237715 0.24695463 -0.2537023 -0.10683081 -0.06684241
-0.29341045 0.34070712 0.3323238 -0.3248472 0.3878748 -0.17061041 -0.2932793 -0.17856379
-0.022772789 0.12588121 -0.070809044 0.4271652 0.3585631 0.5554469 -0.46180487 0.30375424
0.43353966 0.00073689985 0.114244394 -0.39090988 0.42036703 0.45232356 0.046358105 -0.1501273
0.17002131 -0.41765663 -0.28844684 -0.31641805 -0.27192652 0.45245934 -0.21968815 -0.049264457

VAE_Decoder.layers.0.linear1.weight f4 [4, 128]
00000000: e02f f0bd 78c8 833e 1625 083b a81e a6bd
00000010: 1415 953e b7d0 2e3d 3df8 013e 3c93 7bbd
00000020: dbaf 2ebd 437f e4bd d83a fbbc 22c9 52bd
00000030: 5430 803e 3d15 d63d 5d75 71bc 2e80 79bd
00000040: 7a83 383e a81a 05be c066 7d3e 79ea 0a3d
00000050: c8f3 5abe 006a 2abe 80f4 ccbd f509 213e
00000060: df94 693e 7406 e23d ec01 c83c 3f0d 78bc
00000070: ad6b 7a3e 4370 f8bd c4bf ebbd 92c1 5a3e
00000080: 2e89 3e3e 69c6 a93d efba e9bd 7534 19be
00000090: 20ff ef3c 0b0c ba3c fea9 803d f066 a13d
000000a0: e1b3 083e 50ad a33e a1d1 07be e6de 0a3e
000000b0: 3602 f53d 5c31 1cbe d22a 673e 25d0 a93c
000000c0: 49dc 51be 10c5 6abd 0634 a2be edf1 303d
000000d0: a830 47be 1f54 693d 3b49 293d 68bc a7be
000000e0: 2751 89bd 26ef 703d a6e7 6c3e abda 8fbd
000000f0: 09c2 62be 377c 7a3d f202 053d 3e76 cf3d
00000100: b8ec 9dbd c432 8dbd b6e6 1ebd ee5b 67bd
00000110: f4cf afbd e1cb 283e 5f57 033e f57c f3bb
00000120: 0394 33bd c6f5 bdbe 7ed7 42be f5d3 813e
00000130: 8b53 5e3e a75c c43d b3c6 b7bc 22e4 473e
00000140: 0cc8 443e bd6a 88be 3b3e 033e e643 9dbd
00000150: 6e9e 1abd 1c8a 45bc 7d7e f6bd e345 75bd
00000160: 35c9 6cbe f535 7cbe b98c 31be 9bad acbd
00000170: 63f5 dfbd eee3 253d 7550 52bc a212 383d
00000180: 92c8 50bd 0ef3 0cbe e764 32be 4fae ef3d
00000190: 7e98 a2bd af3d bbbd 78b1 473d 67a6 2a3d
000001a0: 6131 a8bd 42ec a73c 40d9 05be 47ab 9ebd
000001b0: e914 22bc 2bd4 f6bc 38a8 37be 9e15 633d
000001c0: c593 71bd b07d 01be 47c7 a83c f1d2 3e3e
000001d0: cedd a5bd ae21 b5bd 5cda 243e 9f25 1abd
000001e0: c882 e33d 0d73 c4bd 4fe0 eebd 63ca 033e
000001f0: 8cb2 8fbd 7d67 103e 5933 643e 490b 10be
00000200: 83ef cc3d 02cd 35bd 5524 043e 5a3a 8c3d
00000210: 2016 2dbd de51 3a3d 3ad0 8d3d 0593 2ebe
00000220: bfab 0b3d 6fc5 903d 0301 a5bd 7d8c 0d3e
00000230: 0400 833c efee 85bc 9e6a ad3c f6a3 103f
00000240: 9a4c 12bd 156c cc3d 66ed 00be b584 73bb
00000250: e2d5 babd b0f8 b23d 2f2b e83e 51da 333e
00000260: b76f 0cbd 9a44 073d eb5b ca3c 841f 4fbe
00000270: 40b3 e93d 0708 453e b65a ff3d f4a0 333e
00000280: 5f63 613c a42e 363d 8800 05be 7a85 98be
00000290: ede5 34be 7565 36bd 130b 883d 058d 033d
000002a0: 9b65 963d 0f21 a53d 6fd0 9abe a389 013d
000002b0: 0c9c 493d f60e b4bc c057 3abd 5dfd 893d
000002c0: 8938 df3d 04c2 3d3d 02db 653d ceb8 f1bb
000002d0: 294c 933d 92e4 71bd d4c0 c13d 9787 833a
000002e0: 9f00 d0bd bf76 92bd 04c2 e03b 57b5 17bd
000002f0: 208b 263d 94b1 073e 078f 1a3e 3fe9 583d
00000300: b700 993c 96c0 253e 3f90 1fbd bbb4 9f3d
00000310: 0610 41be 0570 803d bd2a 8f3d d745 95bd
00000320: f4fd a53d c125 6f3e a511 f03d e31b ebbd
00000330: 10c7 493c fba3 d43c d8ca 96bb d254 1c3c
00000340: b6e5 d23c 2b5a 493d 9997 f83d 9b5f 143d
00000350: 220c 9e3d a14b e5bd 0059 163d 5bbe 123e
00000360: 6484 d7bd c0f2 993b c5bd d4be e413 69bd
00000370: 0b8e d73c b0c0 c8bd 5c51 0f3d 9f95 0fbe
00000380: c0bb e03d 8a84 b3bd fc5a aabd e6ef e6bd
00000390: 7bb7 ff3d 8840 87bb 6870 d2bd 4911 fe3e
000003a0: 7396 433e 9e2a eeba 4df0 31bd 82f0 ac3d
000003b0: cdb6 73bd 3b17 c13d 22f1 993d 6ceb ddbd
000003c0: 52ca 0a3e b994 cf3d 05b2 283e 46ec 71bd
000003d0: 701c 13ba 181d fe3d ad56 f23d 28e3 22be
000003e0: e80e debc 1916 c33d afe8 8c3d d64d d337
000003f0: 435a 3e3e 4ad2 883d f965 d03e a111 1a3e
-0.117278814 0.25738883 0.0020774058 -0.08111316 0.29117644 0.042679515 0.12692352 -0.06141971
-0.042648178 -0.11157086 -0.030667707 -0.051461346 0.2503687 0.1045327 -0.014737454 -0.060913257
0.18018904 -0.1299845 0.24746227 0.033915017 -0.21382058 -0.16641998 -0.10007572 0.15726455
0.22810696 0.11036387 0.024414979 -0.015139877 0.24455138 -0.12130787 -0.11511186 0.21362904
0.18607017 0.08289797 -0.11412608 -0.14961417 0.029296458 0.02271082 0.062824234 0.07880962
0.13349868 0.31968164 -0.13263561 0.13561592 0.11963312 -0.15253204 0.22574928 0.020729134
-0.20494188 -0.05731684 -0.31680316 0.04319947 -0.19452155 0.05696499 0.041329604 -0.3276093
-0.06704932 0.05882182 0.23135242 -0.070241295 -0.22144331 0.061153617 0.032473512 0.10129975
-0.07711166 -0.068944484 -0.03879424 -0.056484155 -0.08584586 0.16484024 0.12826298 -0.0074306675
-0.043842327 -0.37101573 -0.19027516 0.25357023 0.21711557 0.095879845 -0.022433614 0.1952062
0.19216937 -0.26643935 0.12816708 -0.07678966 -0.037748747 -0.012056854 -0.120358445 -0.059881102
-0.2312363 -0.24629958 -0.17338838 -0.0843155 -0.10935476 0.040500574 -0.012836565 0.044939645
-0.05097253 -0.13764593 -0.17421304 0.117031686 -0.07939242 -0.091426246 0.04875323 0.0416626
-0.08212543 0.020498399 -0.13071156 -0.07747512 -0.009892681 -0.030130466 -0.17935264 0.055440538
-0.058978815 -0.12645602 0.020602835 0.18635155 -0.080989465 -0.088443145 0.16098922 -0.037633535
0.11108929 -0.09592257 -0.11663877 0.12870173 -0.07016477 0.14101978 0.22285213 -0.14066805
0.10006621 -0.044384964 0.12904485 0.06847067 -0.04225743 0.04548823 0.06924482 -0.17048271
0.034099337 0.070689075 -0.080568336 0.13823123 0.015991218 -0.016349284 0.021169003 0.56500185
-0.035717584 0.099815525 -0.1259056 -0.0037157957 -0.09122826 0.087388396 0.45345446 0.1756375
-0.034286227 0.033024408 0.024702033 -0.20226866 0.11411142 0.19241343 0.124684736 0.17541867
0.013756602 0.044478074 -0.12988484 -0.29789335 -0.17665835 -0.04453035 0.06642737 0.03211691
0.073435985 0.08062946 -0.30237147 0.0316254 0.049221084 -0.02197979 -0.04549384 0.06737778
0.10899455 0.046327606 0.056117065 -0.0073767668 0.07192261 -0.059055872 0.09460607 0.0010034916
-0.101563685 -0.07151555 0.006859066 -0.037038174 0.040660024 0.13251334 0.15093623 0.052956816
0.018677099 0.16186747 -0.038955923 0.077981435 -0.18853769 0.06271366 0.069905736 -0.072887115
0.08105078 0.23354246 0.117221154 -0.11479928 0.012315527 0.025957098 -0.0046018176 0.009541707
0.0257443 0.049158257 0.1213829 0.03622399 0.07717158 -0.11196066 0.03670597 0.14330427
-0.105232984 0.0046981275 -0.41551033 -0.056903735 0.026312849 -0.09802377 0.0349897 -0.1402192
0.109733105 -0.08765514 -0.08318135 -0.11276226 0.12486168 -0.004127566 -0.10275346 0.49622563
0.1910036 -0.001817066 -0.04344206 0.08444311 -0.059500504 0.09428259 0.075166956 -0.10835919
0.13553742 0.101357885 0.16474159 -0.05906322 -0.00056118425 0.12407893 0.11832938 -0.15906966
-0.027106717 0.09525699 0.068803184 2.5189405e-05 0.1858912 0.066807345 0.407028 0.15045787

VAE_Decoder.layers.0.linear1.bias f4 [4]
00000000: c008 d13d 2107 82bc d01a 6bbb c5e0 86bd
0.10206747 -0.01587254 -0.0035874136 -0.0658584

VAE_Decoder.layers.0.norm1.weight f4 [4]
00000000: a8c6 b83f 2322 983f aa09 a33f a93a b93f
1.4435625 1.1885418 1.2737324 1.4471027

VAE_Decoder.layers.0.norm1.bias f4 [4]
00000000: 9077 e53c 3291 453e d2fd 76bd 9251 1abe
0.028011113 0.19293669 -0.060300656 -0.15070179

VAE_Decoder.layers.1.attention.W_q.weight f4 [4, 4]
00000000: 3eb4 e0be 177d a4be 7544 17be d248 c33e
00000010: 3c53 99be b9cf 153e cc1a 813e 480a 8e3e
00000020: fdd3 883e 3d94 74be 304f 073f f32d 853d
00000030: 75a8 62be 2705 8d3c 2717 9fbe 79a0 803e
-0.43887514 -0.32126686 -0.14772208 0.38141495 -0.29946315 0.14630021 0.25215757 0.2774222
0.26724234 -0.23884673 0.52855206 0.06502905 -0.22134574 0.01721437 -0.3107235 0.2512243

VAE_Decoder.layers.1.attention.W_q.bias f4 [4]
00000000: 0c0d 553c bcff 6f3c 57a2 adbc 2fc4 d5bb
0.013003599 0.014648374 -0.021195574 -0.006523631

VAE_Decoder.layers.1.attention.W_k.weight f4 [4, 4]
00000000: c0af 8c3e 4aa0 863d 9ef2 853d ad1e 403d
00000010: 4590 7e3e 8658 263d 93d8 0c3d beb1 28bc
00000020: 988e 963e a62a a0be 8352 96bd c0a0 af3e
00000030: 41c4 acbc f969 0c3f 25da d3be 5a49 cabe
0.27477837 0.065735415 0.06540416 0.046904255 0.24859722 0.040611766 0.03438623 -0.010296283
0.29405665 -0.31282538 -0.073399566 0.3430233 -0.021089675 0.548492 -0.4137737 -0.39509088

VAE_Decoder.layers.1.attention.W_k.bias f4 [4]
00000000: 28a4 31b8 a5c4 2bb7 3f31 a4b8 f3d7 bb36
-4.235297e-05 -1.0238179e-05 -7.829302e-05 5.598174e-06

VAE_Decoder.layers.1.attention.W_v.weight f4 [4, 4]
00000000: 0869 bfbd 8f20 c8bd 483e 403d dede 52be
00000010: f77e afbc 3e01 a1bd 2927 e7bd 2f93 ca3b
00000020: 45ba 12be 6cc4 35be a1c9 423e 2337 fdbd
00000030: e378 053e aa16 e83d 4a54 613e 1abd 683e
-0.09346205 -0.09771835 0.046934396 -0.2059283 -0.021422846 -0.07861565 -0.11286766 0.0061820964
-0.14328869 -0.1775071 0.19022228 -0.12364032 0.13034396 0.11332448 0.2200481 0.22728387

VAE_Decoder.layers.1.attention.W_v.bias f4 [4]
00000000: d03e f83c 9bf2 463d 6883 c9bc e551 67bd
0.030303389 0.04857121 -0.024598792 -0.056474585

VAE_Decoder.layers.1.linear0.weight f4 [128, 4]
00000000: ce4b 003f a2f7 32bf 38de 283c ff2c c6be
00000010: 6032 b9be 5977 dc3e 9540 7d3d b81b bcbe
00000020: d489 ca3e b7a1 44be 5da9 853d 7c30 24be
00000030: c436 a2be 95a9 85be fbdf eb3e 51a8 9b3e
00000040: 4867 81be 9a48 cf3e 861c e8be eea7 fe3d
00000050: 9410 a13d a45a bebe 5b6f a73e b632 f23e
00000060: 200e 043d d60e 303e 2947 88be 7a50 75be
00000070: 80c8 34bd a253 1b3e f6dc ffbe 186d 863e
00000080: c813 0d3d b14e 0b3e d36c d0be 3dce 9cbe
00000090: 0460 553e da4b a9be 2bb7 fc3e b43b c23e
000000a0: 420a 4a3d 80cb 193e da63 80be 6071 62bd
000000b0: 7e85 b8be 018e 86bc 0ec5 ccbe 4af5 913e
000000c0: 2cdc b13d e848 063f 980f 123e fdee 6c3e
000000d0: c55d 29bd 2706 06bf 1ef7 61be 2112 2a3e
000000e0: 84d6 06bd 0b55 d03e 2fea 2d3e 8944 4bbe
000000f0: ce79 68be cee2 b03e 6364 823c 96b9 b7be
00000100: c612 a5bb 86f7 913e a544 f63e 0514 b8be
00000110: 2585 083f 7844 3e3e 56f0 f63d faea e8be
00000120: 9233 1bbe e34a 61be 57c9 0bbf b6eb b1bc
00000130: d943 f33e af2f c63e b378 4bbe a94a 3f3e
00000140: c414 e23e f3be 123f bb7a 09bd 74cf 49bc
00000150: 27d2 e63e 546e b43e 88b7 eb3d bd44 0cbe
00000160: 501e a13e 7708 48be d605 05bf 51b9 d33e
00000170: ef28 b13e 32e7 babe 0cff ab3e 3d03 a4be
00000180: 8bb4 05bf a92d 013f 1f37 c03e 6eda 4a3e
00000190: 5c8b c83e 8832 2ebd b021 12bf cec0 833e
000001a0: 8f73 c5be b4d0 263f cdf3 dcbe db41 9b3e
000001b0: ba19 0cbf e2b2 703e e286 c33e bf87 033e
000001c0: 02ce 803f e89a 92bf 7083 b0bd bf12 003e
000001d0: e7ec 973d d7f5 18be 6e9f cdbe 3db0 f1be
000001e0: a147 fb3e bc41 10bf f2b2 a73e 8773 1f3d
000001f0: ea78 29be c3f1 203e cddd 373f 13f9 c0be
00000200: fb5e 0e3d 2fe6 3d3e 0016 d2bd 6661 8abe
00000210: 1a54 a13d 979a 21bf 049f 82be 3097 0dbf
00000220: 7fbb c6be 7773 98be 991d 8c3e e926 573d
00000230: f5be f1be 7444 46bf 7195 d93e a005 c43e
00000240: 99f6 003f e44d 453e 1b2f bd3e d397 9cbe
00000250: 67c8 0c3f 765c 3dbf 1ee8 81bd 9965 fdbe
00000260: 59c3 dd3e 57cd f53e 8a8b 3b3e 28ce ba3e
00000270: 8f71 a83d d314 943e 200c 9fbd 1d58 b23e
00000280: c26a 1ebf c9bd a3be 2c97 353c 1f32 c03e
00000290: 0ffd 97be 7f13 c23e cdae 2d3e f0de 8a3e
000002a0: fdb3 20bd c4a3 d9be 0fce e13e 812e 27be
000002b0: 2fcc 843e 42ba e53e a75d 343e 63e2 46be
000002c0: 2166 a63e 8cc0 9ebe 1058 2dbd 33be cbbe
000002d0: b535 313e 16b0 bd3d fc62 bcbe 147f 59be
000002e0: 2396 b1be 07b0 b0be f509 903d a862 fcbb
000002f0: 4e63 90be 6196 133e 2ffa 913e c4b5 a5be
00000300: 5ae2 033f ec33 a43e 259a 0fbf e1e3 f4be
00000310: 7fcb bbbe 5a15 a3bc 4295 f6bd afe4 313e
00000320: 8d4d 813e e5f4 28be 0c5d 64bd 0dd3 873c
00000330: b453 8dbe d4cd 8a3e c425 09be 547b afbe
00000340: 504e dabe 8691 cdbe 48b0 d8bd c685 98be
00000350: 43e6 d43e 5c93 13bf 352d d6be 8287 033e
00000360: f056 f13e 16d0 9fbe 4799 993e 4384 873e
00000370: 592d 953e 8ad9 52bd 3899 22be 2937 bc3e
00000380: e3bf 85be ac9d df3d 4bb5 df3e 92a1 613f
00000390: 720b db3e 647e cebe d9e6 2ebf 928a d0be
000003a0: 5ef9 33bd 114d eebd bdeb 353e b192 7b3e
000003b0: dc29 233f 6c31 d8be d10f 5bbd 53e1 12be
000003c0: 9409 c33e 740f b0be ac46 b7bd 74e6 e5be
000003d0: d5f9 d23e 987f 563e ffa2 c53e 7425 df3e
000003e0: 0935 e8be 15f2 9d3d 388d c93e 78c7 36bf
000003f0: aa39 a03e f518 a5bd c494 f73e 7857 c1bd
0.5011567 -0.6990911 0.010306887 -0.38706204 -0.36171246 0.43059805 0.06182917 -0.36739898
0.3955828 -0.19202314 0.06526444 -0.1603412 -0.31682408 -0.26105943 0.4606932 0.30401853
-0.2527411 0.40485078 -0.45334262 0.12434374 0.0786449 -0.37178528 0.32702145 0.47304314
0.032240033 0.1719316 -0.2661679 -0.2395648 -0.044136524 0.15168622 -0.49973267 0.26255107
0.034442693 0.13604237 -0.40708026 -0.30626097 0.20837408 -0.33065683 0.49358496 0.37936175
0.04932619 0.15019035 -0.2507618 -0.055283904 -0.36039346 -0.016425135 -0.3999409 0.28507453
0.086845726 0.52454996 0.14263761 0.23138042 -0.04134919 -0.5235314 -0.22066924 0.16608478
-0.03291942 0.40689883 0.16983865 -0.19850363 -0.22702715 0.34548038 0.015917009 -0.35883778
-0.0050376384 0.28509158 0.48099247 -0.35952774 0.5332816 0.18580806 0.12057559 -0.45491773
-0.15156391 -0.22001223 -0.54604095 -0.021718841 0.475127 0.38708255 -0.19870262 0.18680824
0.44156468 0.57322615 -0.03356431 -0.012317527 0.4508221 0.35240424 0.11509615 -0.13698097
0.3146844 -0.19534479 -0.5196203 0.41352323 0.34601542 -0.36504513 0.33593023 -0.3203372
-0.5222861 0.50460297 0.37542054 0.19809887 0.39168823 -0.04252866 -0.57082653 0.25733036
-0.38564727 0.65162206 -0.43154755 0.3032368 -0.54726756 0.23505738 0.38188845 0.12844752
1.0062869 -1.1453524 -0.0861882 0.12507151 0.074182324 -0.1493753 -0.40160698 -0.47204772
0.49078086 -0.563503 0.32753712 0.038928535 -0.16550031 0.15717225 0.71822816 -0.3769003
0.03475855 0.1854484 -0.102581024 -0.27027434 0.07877369 -0.6312651 -0.25511944 -0.5530882
-0.38814923 -0.29775593 0.2736633 0.052527342 -0.47216 -0.774482 0.42496827 0.38285542
0.5037628 0.19267994 0.3695 -0.30584583 0.5499329 -0.7396921 -0.06343101 -0.49491575
0.433131 0.48008224 0.18314949 0.3648541 0.082247846 0.28922138 -0.077659845 0.3483285
-0.6188165 -0.31980732 0.011083405 0.3753824 -0.29685256 0.379055 0.16961212 0.27123213
-0.03923415 -0.42507756 0.44102523 -0.16326334 0.2593703 0.44868666 0.1761385 -0.19422297
0.32499793 -0.31006277 -0.04232031 -0.39793548 0.17305644 0.09262101 -0.3679427 -0.21239883
-0.34684858 -0.34509298 0.07033149 -0.0077021904 -0.28200763 0.14412834 0.28511187 -0.3236524
0.5151726 0.32070863 -0.5609458 -0.47830108 -0.36678693 -0.019907642 -0.120401874 0.17372392
0.2525448 -0.1649967 -0.0557528 0.016580129 -0.27602923 0.2711016 -0.13393313 -0.3427378
-0.42637873 -0.40150088 -0.10580498 -0.2978956 0.41581926 -0.5764673 -0.41831365 0.12844661
0.4713664 -0.31213444 0.29999754 0.26468095 0.2913616 -0.051476993 -0.15878761 0.36760834
-0.2612296 0.109187454 0.43693003 0.8813716 0.4278217 -0.40330803 -0.68320996 -0.4073072
-0.043938987 -0.11635793 0.17765708 0.24567677 0.6373575 -0.42225206 -0.05348188 -0.14343767
0.38093245 -0.3438679 -0.089490265 -0.44902384 0.41206232 0.2094711 0.3860092 0.43583262
-0.45352963 0.07712189 0.39365554 -0.71398115 0.31293994 -0.08061401 0.48355687 -0.094405115

VAE_Decoder.layers.1.linear0.bias f4 [128]
00000000: 8a08 fc3e be16 e9bb 1eb9 323c 58d8 203e
00000010: 9b9b cbbd de27 d7bd 9e53 963c 3879 f0bd
00000020: ed7b 0e3e 33f0 ccbe 309d 0cbd 950d 513e
00000030: 9fe9 86be c277 483e e8bb d5be d25d 0c3f
00000040: 5713 d03e 2f00 12bd 92e0 fa3c ec0a 82be
00000050: 699c 9cbe e305 02bf 4a3e d43c 2212 f33d
00000060: 2679 da3e 3efd 2bbe efa6 35be c430 593e
00000070: 9500 0ebe b57c a83e 97f9 4f3e 777d 90be
00000080: e688 f03e 6120 683e c022 113e 35ce 89be
00000090: 3b95 89be 6f15 b03e 47fc 1c3f 59b1 a73e
000000a0: 5a66 31bd 5d95 06bf dded f0be 07d9 ba3c
000000b0: 0ddf bf3e 5f99 253e 5827 873e 6307 81bc
000000c0: 25b4 b03d 0a85 2cbe 12fc a93e 0fcd 9abc
000000d0: 6ae3 883d f563 6d3b a3c5 493e 0e95 81be
000000e0: 7a08 1dbe 7994 ccbd bf04 fb3e cd67 82bc
000000f0: 9ff2 0c3e 4634 063f 01da 0f3e ef9d 11be
00000100: 2a82 383e 7267 8fbd 2654 afbd 9589 d7bd
00000110: 9c83 9a3e 88ce 21be 801f 22be 1357 943b
00000120: ecf6 4cbe 909d ba3e bb90 da3e 7c29 acbe
00000130: 0edb 793e 4b15 9dbe 0849 c53e 8821 053f
00000140: 091a c2be ab91 ddbd 01cd 913e 21f2 d83d
00000150: 6d5b a83e 239b 77be bc91 433d 356b 84be
00000160: b1fd 0a3f 4b4d 053f 3943 cd3e e317 d4be
00000170: 3a9e ab3e 2c6b 30be 11dc 9f3e 6ff5 603e
00000180: 5fc5 573d 714c a63e 8715 8f3e de38 ad3e
00000190: c584 9e3e 45db 82be 684e f23b b5a0 313e
000001a0: 03a9 08be e8f9 6fbe b7c9 ee3e bab9 913e
000001b0: a704 103e 6f2d b73d 77db 69bc 9116 cb3e
000001c0: 964d a73e fd9c bcbd ced8 153d 2e3e 90be
000001d0: 238d 3f3e e9e4 543c c3b1 073f 2746 ef3d
000001e0: f49b 143e f041 d33e 7b4b 033f 1cce 7d3e
000001f0: f9be 753e 6c25 e03e 1478 a5be 4150 b83e
0.49225265 -0.007113307 0.010908393 0.15707529 -0.09941789 -0.10505651 0.018350419 -0.11741871
0.13914461 -0.40027007 -0.034329593 0.20415337 -0.26350114 0.19576934 -0.41744924 0.5483066
0.40639755 -0.035644706 0.030624662 -0.25398958 -0.3058808 -0.5079023 0.025908608 0.11868693
0.42670554 -0.16795823 -0.17739461 0.21210009 -0.1386741 0.32907644 0.20310055 -0.28220722
0.46979445 0.22668602 0.14173412 -0.26915136 -0.26871666 0.34391353 0.61322445 0.32752493
-0.0433105 -0.5257166 -0.47056475 0.022808565 0.37474862 0.16171788 0.26397204 -0.015750593
0.0862811 -0.16847625 0.33200127 -0.018896608 0.06684001 0.003622291 0.19704299 -0.25309032
-0.15335265 -0.099892564 0.49027058 -0.015918637 0.13764428 0.5242351 0.14048006 -0.14220403
0.18018404 -0.070021525 -0.08560972 -0.105242886 0.30178535 -0.15801442 -0.15832329 0.0045269816
-0.20016068 0.36448336 0.42688546 -0.336254 0.24399969 -0.30680308 0.3853228 0.5200429
-0.37910488 -0.108187996 0.28476718 0.105930574 0.32882252 -0.24180274 0.047746405 -0.25863042
0.5429335 0.52071065 0.4009035 -0.41424474 0.33519155 -0.17228383 0.31222585 0.21968625
0.052678462 0.32480195 0.27946112 0.3383245 0.3096067 -0.25557914 0.0073946007 0.17346461
-0.13345723 -0.23435175 0.4663827 0.2846201 0.14064275 0.08944213 -0.014273516 0.39665654
0.3267638 -0.09209631 0.036583714 -0.2817244 0.18706183 0.01299403 0.5300562 0.116833024
0.14512616 0.41261244 0.5128705 0.24785656 0.23998632 0.4377855 -0.32318175 0.3599873

VAE_Decoder.layers.1.linear1.weight f4 [4, 128]
00000000: 8e8d 323e 3f6c 0dbd c9df ab3e 8359 c7bb
00000010: f891 63bd bc32 a13b d03b 68bc 3e41 d13b
00000020: de33 793d 745c d03d 43db 9bbd 7fcb fa3d
00000030: c1f5 79bd d13e 06bd bfb8 fdbd 21db 9ebd
00000040: c4c9 d7bd 96a6 223e c8f5 fdbc f90f 8e3d
00000050: 1b5f 193d 5cbe 9c3d de90 07bd ca2d f83d
00000060: 48ec 94bc 8c09 e6bd 57cb 74bd 8284 a4bd
00000070: c868 923e 1f47 d43d 7f44 d93d 72b1 77be
00000080: 34ce debb 7671 a73e 2f56 e5bc 78a6 59bd
00000090: d1c0 3b3e c385 623e 7002 323e 0a49 343c
000000a0: ac71 563d 6bbe 683d e16b 47be 6ddf 453d
000000b0: a9d9 213e 6323 323e 47a3 52bd a3d6 89be
000000c0: 9cc4 363e fa42 1d3e 8f5d 253e e5f7 49be
000000d0: 16bb 03be 518c 763d 3041 f23d 889a 4f3d
000000e0: 8b06 393e b358 d83d d8b7 d43d 9381 2c3e
000000f0: 6aaf 8f3e 8f6f 833d 37d8 81be 3301 4f3d
00000100: 3fea 683d 60fd 86be e983 a8bd a4cc 82bd
00000110: 4802 ccbd 780f 843d 7927 20bd 8825 95be
00000120: d9fe 973d 0039 f53d c0f0 6abd c0b3 ad3d
00000130: 042f 283e 47c5 dd3d 0af7 183d 10dd 4c3e
00000140: 83b6 1f3d ba75 233e c84f 203d 922d 4c3e
00000150: 23ac ec3c df1b 20be cd60 de3d d417 783a
00000160: f0eb b93d d472 5f3e 066f 633d 46bb 193e
00000170: 58c0 463e 4c76 1e3d 8407 f53d 1be3 bb3d
00000180: 577c 9b3e 9531 223e 96a5 1b3e ddf9 123e
00000190: 71b7 63bd 2897 c53e 54ec a7bc a7d9 8abd
000001a0: f9d7 2e3c 8cb6 92bd b2c4 02bd 4b7a f63e
000001b0: 7662 483e 028b 6ebd 8211 bcbe f51e 4a3e
000001c0: 517e 3e3d 1189 913a abe5 15bd 2f54 2a3e
000001d0: 0328 c73d aba9 423d d767 0e3e 261a 42bc
000001e0: 8fad 813d 6098 42bd 650f 383d 1109 d53d
000001f0: 120e fe3d 6ea6 433e 6b2d ef3d e45c 753d
00000200: d3ae c1bd 266a e53d 3283 fabd 9a4d b63c
00000210: 550e 19bd 9a70 17be 19f0 77bd fb3c 1f3e
00000220: f710 ab3d 75e0 46bd a932 943d 3bc2 013a
00000230: ed43 bf3b 1f4e 56bd 0a34 8abd 3c9e f63d
00000240: 2c54 e23b fb29 86bc c434 0a3e b0bc f63d
00000250: 96ea 0c3e 3960 ddbc d790 e03d 145d 253d
00000260: 8429 3cbd 4017 fe3c 5b79 aa3a 46f3 edbd
00000270: 7ed3 68bf dcd2 623c 38f8 49bd 6363 af3e
00000280: b372 ad3d bcde e1bd a93e 0cbe fdce 51be
00000290: bad1 f6bd 9b0e 10be 5603 a63d 99cc 6b3d
000002a0: 3569 14be 383d cbbb 296b b1bd 7d6a be3d
000002b0: 9dc3 84bc bdd7 0a3d b18b 36bd e9e3 013e
000002c0: fe3a 973c 315a 86bd d018 2a3d b6b3 6a3d
000002d0: 1f2b c7bd 63e4 2e3d c27d bc39 a056 6e3d
000002e0: d9b4 a2be 45e9 17be b219 4e3d 2573 f8bd
000002f0: f114 08be a8f3 92bb 2c83 883e ab86 083e
00000300: 394a 6bbd 445e 0f3e 78ec c53d edb2 923c
00000310: 0f13 cf3d 1ba8 8e3d 377e 90be 6342 f73b
00000320: e263 2a3d a670 c03d ae72 c13d 853d 11be
00000330: 8933 9c3d 02d2 14be b25a 203d d501 213c
00000340: ba56 2e3e 6ee6 2a3d b7de 843d 8106 a3bd
00000350: c6ac 87bd 13df 5e3d 0fa7 8b3c 4a67 ef3d
00000360: 235d 0d3e fdd1 84bd 3963 d5bd caba 0abe
00000370: 9f2d dc3c 50d3 77bd c3ca 443d 9d1b b93c
00000380: 1948 90bd e6f2 743c 045c eb3d bc1d 0cbb
00000390: a960 9d3d 1cdc 80be 1c88 fabd 8f38 bcbb
000003a0: 902f 893d 3c1c 9fbd afbc 263d 81dc dbbe
000003b0: 3778 87bc 5d1e e73d 7773 893e 10cb e83d
000003c0: ca9c 76bc 3fd7 653c d6ef 433d a8e8 0f3e
000003d0: 4e2c a6bc a9e1 afbd a18c 48b8 62e6 da3d
000003e0: f801 0abe f96f f3bd 8771 e33d 3931 c23c
000003f0: ae82 ec3b 640e 68bc 8137 c43d 5cd8 c23a
0.17436811 -0.03452706 0.33569172 -0.0060836687 -0.05555913 0.004919378 -0.014174417 0.0063859513
0.06084048 0.10173884 -0.0761018 0.12245845 -0.061025385 -0.03277475 -0.12388753 -0.07756639
-0.105365306 0.1588386 -0.031000987 0.0693664 0.037444215 0.07653496 -0.03309714 0.121181086
-0.018179074 -0.1123229 -0.059764232 -0.08033086 0.28595567 0.10365128 0.10608768 -0.24188784
-0.0067994837 0.3270375 -0.027995197 -0.053137273 0.18335272 0.22121339 0.17383742 0.011003742
0.0523545 0.05682222 -0.19474746 0.04830878 0.15805687 0.17396311 -0.051425245 -0.26921567
0.17848438 0.15357581 0.16148971 -0.1972347 -0.12864336 0.06019241 0.1182884 0.05068448
0.18068902 0.10563793 0.10386628 0.16846304 0.28063518 0.064177625 -0.2536027 0.050538253
0.05686402 -0.26365185 -0.08228285 -0.06386688 -0.099613726 0.06448263 -0.039100144 -0.29130197
0.07421655 0.119737625 -0.057358503 0.0848155 0.16424185 0.10828643 0.03734497 0.20006204
0.038992416 0.15962878 0.039138585 0.19939259 0.028890675 -0.15635632 0.10858307 0.0009464
0.09078205 0.21821147 0.055525802 0.15012845 0.19409311 0.038687035 0.11964324 0.09174176
0.303683 0.15839227 0.15199885 0.14353128 -0.055594865 0.38591886 -0.020498432 -0.06779795
0.010671609 -0.07163724 -0.031925865 0.48140177 0.1956881 -0.058238037 -0.36732107 0.19738372
0.046507183 0.0011103471 -0.03659598 0.16633676 0.097244285 0.04752509 0.139068 -0.011847055
0.06331932 -0.047508597 0.044936556 0.1040212 0.124050274 0.19106457 0.11678585 0.05990304
-0.09457173 0.11201887 -0.12232055 0.0222538 -0.037367184 -0.14789048 -0.06053171 0.15550606
0.08352845 -0.048553903 0.07236225 0.0004949902 0.005836955 -0.052320596 -0.06748207 0.120418996
0.0069070067 -0.01637744 0.13496691 0.12047708 0.13761362 -0.027023422 0.10965126 0.04037197
-0.04593803 0.031016946 0.0013006137 -0.11618666 -0.9094771 0.013844218 -0.049308985 0.34255514
0.08469143 -0.11028811 -0.13695778 -0.20489116 -0.12051721 -0.14068072 0.08106105 0.057568166
-0.14493258 -0.006202366 -0.08663017 0.09297655 -0.016206557 0.03389715 -0.044566814 0.12684597
0.018460747 -0.065601714 0.04152757 0.057300292 -0.097250216 0.042698275 0.0003595185 0.05818808
-0.317786 -0.14835079 0.050317474 -0.12131337 -0.13289239 -0.0044846125 0.26662576 0.13332622
-0.05744383 0.14000803 0.096642435 0.017907584 0.10111057 0.06965657 -0.28221294 0.0075457557
0.041599162 0.09396486 0.094457015 -0.14183624 0.07627017 -0.14533237 0.039148994 0.009827097
0.17025271 0.04172366 0.06487792 -0.07960225 -0.06624751 0.05441196 0.017047433 0.11689623
0.1380506 -0.064853646 -0.10419316 -0.13547817 0.026877223 -0.060504258 0.04804493 0.022596175
-0.070450015 0.01495049 0.1149216 -0.0021380028 0.07684452 -0.2516793 -0.12232992 -0.005744047
0.06698525 -0.07769057 0.040707286 -0.4294167 -0.016536815 0.11285088 0.26845905 0.11366856
-0.01505203 0.014028369 0.047836147 0.14053595 -0.020284798 -0.08587963 -4.7814687e-05 0.10688473
-0.13477314 -0.118865915 0.11105638 0.023705112 0.0072177267 -0.014163587 0.09580899 0.0014865506

VAE_Decoder.layers.1.linear1.bias f4 [4]
00000000: e015 0e3e f62c 893d 6363 e33c 2b09 a0bd
0.13875532 0.06698029 0.027757352 -0.07814249

VAE_Decoder.layers.1.norm1.weight f4 [4]
00000000: 4e3e af3f e001 a33f d594 913f af70 973f
1.3690889 1.2734947 1.1373545 1.1831263

VAE_Decoder.layers.1.norm1.bias f4 [4]
00000000: aa7e 0b3e ec53 e7bd fc2a 41bd d7a3 f2bb
0.13622537 -0.11295304 -0.047160134 -0.007404785

VAE_Decoder.layers.1.norm0.weight f4 [4]
00000000: c7a6 543f 8033 803f 8fcf 893f aca8 733f
0.8306698 1.0015717 1.0766467 0.9517925

VAE_Decoder.layers.1.norm0.bias f4 [4]
00000000: a78c 57bd 458c c73b 590f c7bb 0b7d 61bb
-0.05262437 0.0060897195 -0.0060748276 -0.0034406807

VAE_Decoder.last_normalization.weight f4 [4]
00000000: 0000 803f 0000 803f 0000 803f 0000 803f
1.0 1.0 1.0 1.0

VAE_Decoder.last_normalization.bias f4 [4]
00000000: 0000 0000 0000 0000 0000 0000 0000 0000
0.0 0.0 0.0 0.0

VAE_Decoder.head.weight f4 [4, 4]
00000000: 1472 29be 6095 87be f8fb fd3e 7c67 35be
00000010: 1af4 acbe 80f8 1e3c d077 61be 9a1a ed3e
00000020: fab4 9ebe 44ee 803e 8846 19be a6cd f7be
00000030: 9c90 d33e 1207 f03e f8a9 8f3d ecec ecbe
-0.16547424 -0.26481152 0.496063 -0.17715257 -0.33779985 0.009702802 -0.22018361 0.46309358
-0.3099745 0.25181782 -0.14968312 -0.48399085 0.41321266 0.46880394 0.07014841 -0.46274507

VAE_Decoder.head.bias f4 [4]
00000000: b602 a83e 9212 9dbe 407e cb3d c012 35be
0.32814568 -0.3067823 0.0993619 -0.17682934

Detokenizer.weight f4 [14, 4]
00000000: cdb9 643d c11e 8f3e 4348 debd 94bf d73e
00000010: a259 81be 4fe6 48be 160e dd3d b75e c23d
00000020: 684f 2c3e dfca a1bc fd6d ae3e d5f8 44bd
00000030: 4ef4 a6bc 295a 373d 3033 93be 858d a23d
00000040: 7c42 e9bc 3a7d 883e 3844 7ebe 8b4e 913e
00000050: 1a7b e4bd f875 debb 4346 593e 1595 78bd
00000060: 012e 923d b527 203e 78e3 8a3e 9972 053e
00000070: 37e6 5b3d be66 6d3e 8ed6 01be 638c b93e
00000080: f0a0 91be 7105 ce3d 420f 0a3e cc4f b03e
00000090: 88d2 053d 0d54 b9be c7cd 9a3e 890b c8be
000000a0: dbcf 65be f49c 1bbe accd 313e d20c 30be
000000b0: 4d72 833e d874 90be 61c4 693e d929 213e
000000c0: f3b7 05be 1ab0 40be 9be2 743d 2e30 6c3e
000000d0: a4ab 22bc 72f7 133e 3df3 373e 7223 d53e
0.055841256 0.2795315 -0.108536266 0.4213835 -0.25263697 -0.19619106 0.10793702 0.09490722
0.16827166 -0.019750057 0.3406829 -0.048088867 -0.020380165 0.044763718 -0.2874999 0.07937149
-0.028474085 0.2665804 -0.24830711 0.28380236 -0.11156292 -0.0067889653 0.21218209 -0.06068905
0.07137681 0.15640147 0.2712667 0.13031997 0.053686347 0.23183724 -0.12679502 0.3623992
-0.28443098 0.100596316 0.13482383 0.3443588 0.03267148 -0.36196938 0.3023512 -0.390713
-0.22442572 -0.15196592 0.17363614 -0.1719239 0.25673142 -0.28214145 0.22828819 0.1573862
-0.13058452 -0.18817177 0.05978642 0.23065254 -0.009928618 0.14449862 0.17963882 0.41628605

Detokenizer.cat_recons.0.weight f4 [2, 4]
00000000: fb2c 173e c66b 313e 86d5 07bf 3b89 773e
00000010: 078f b73e 2a44 de3e adf3 16be 9565 1ebf
0.14763252 0.17326269 -0.53060186 0.24173443 0.3585131 0.4341138 -0.14741392 -0.6187375

Detokenizer.cat_recons.0.bias f4 [2]
00000000: 9ea0 673d 72e6 57be
0.05654966 -0.21084002

Detokenizer.cat_recons.1.weight f4 [7, 4]
00000000: 0a42 0abc ed6b 2dbf b995 43be 94e7 d53e
00000010: 8b6f 8fbe 4d18 ae3e b3b5 9d3c 4a53 1dbf
00000020: 3b84 0f3f 958d c9bd 490d 50be 0031 22bf
00000030: 0cf1 f63e f60a 5c3e 0bf1 fb3e 97a5 a73d
00000040: b136 f1be 695e 1cbf f131 cbbd e26c 29be
00000050: 5f90 63bd 0346 613e 3826 32bf 8bc8 003c
00000060: f3bf 503e 983a a5be 7754 a7be 6f33 003f
-0.0084385965 -0.67742807 -0.19100083 0.41778243 -0.28014788 0.34002915 0.01925168 -0.61455214
0.5606114 -0.09841458 -0.20317568 -0.6335602 0.4823078 0.21488556 0.4920734 0.08185881
-0.4711204 -0.6108156 -0.09921635 -0.16545442 -0.055557605 0.21999364 -0.6958957 0.007860313
0.20385723 -0.32271266 -0.3268163 0.5007848

Detokenizer.cat_recons.1.bias f4 [7]
00000000: 4937 813d 9653 943e 1b89 9a3d 90b6 933e
00000010: 6e9f 923d 3ce8 be3d 17fd 3f3e
0.06309373 0.2897002 0.07545682 0.28850222 0.07159315 0.09321639 0.1874889

Detokenizer.cat_recons.2.weight f4 [4, 4]
00000000: 8b3c a6bc 929f 4bbf 2229 013e 21eb cb3e
00000010: 3d4a 3e3f f151 d0bd cbc9 b9bd 28c8 243e
00000020: 4aa9 b53e bbee 633d 3b61 5ebf 7e26 8ebe
00000030: e719 5cbe 86a1 cbbd 2de3 23bf 14f7 4bbe
-0.020292541 -0.7954036 0.12613347 0.39827827 0.7433203 -0.10171879 -0.09071692 0.16091979
0.3548072 0.055647593 -0.8686711 -0.27763742 -0.21494256 -0.099429175 -0.6401852 -0.19918472

Detokenizer.cat_recons.2.bias f4 [4]
00000000: 599b 10bf 2c7c 3bbe 5ec4 a63d 49f0 23be
-0.5648704 -0.18309087 0.08142923 -0.1600963

Detokenizer.cat_recons.3.weight f4 [11, 4]
00000000: bf85 cebe 6c49 0fbf 38c8 103f 81d0 6e3f
00000010: 7856 c0be b374 483f 7ffd 733e ade9 f93e
00000020: 963b ec3e 6aa7 293d 82b9 37bf 42e4 d3bd
00000030: 3423 073f d20e a8bd e8e7 cc3d 4e56 253f
00000040: a941 30bf d30e 8f3e fcda 2dbf b8ea abbe
00000050: c279 ed3e 1fa6 ba3e 7bfc 06bb a306 c1be
00000060: 23f5 143f 6784 c63d 7e09 193f 61bf 2f3d
00000070: dd04 e0bd ce64 ef3e a67c 173d 440f a3be
00000080: cb46 3c3e c910 eebe 0a55 b7be ab67 553e
00000090: dec9 04bf 9188 94be 8ad7 263e 790b 07be
000000a0: e29f aabd 791d 1bbf 5024 dbbe ffea 783e
-0.40336415 -0.5597141 0.5655551 0.932869 -0.3756597 0.7830307 0.2382717 0.48811093
0.4613921 0.041419424 -0.7176744 -0.10346271 0.5278809 -0.08205952 0.1000517 0.64584816
-0.6885019 0.27940997 -0.6791227 -0.33577514 0.46381956 0.36454865 -0.0020597267 -0.37700376
0.5818655 0.096932225 0.5978011 0.042907123 -0.109384276 0.46756595 0.03698411 -0.31847584
0.1838638 -0.4649718 -0.35807067 0.20840327 -0.51870525 -0.29010442 0.16293159 -0.1318797
-0.083312765 -0.60591847 -0.42801142 0.24308394

Detokenizer.cat_recons.3.bias f4 [11]
00000000: e003 fcbd 5191 8f3e 4668 ef3d b5bd c23e
00000010: 405f 73bd ffe7 883e 9938 96be 7700 6cbe
00000020: cd7a f2be 544d 983e bf2d 1ebe
-0.123054266 0.28040555 0.116898105 0.3803536 -0.05941701 0.267395 -0.29340056 -0.23047052
-0.47359315 0.29746497 -0.15447138

Detokenizer.cat_recons.4.weight f4 [11, 4]
00000000: 3a2f 3cbf dcdd f1be 027c 3dbe 7f60 85bd
00000010: 58eb be3e 9816 ec3d 4af2 b43c 07d3 d8be
00000020: c20e 163f dcc4 8fbe 9f46 fdbe 1289 833e
00000030: 3ec6 59be 7229 ab3e 65fb 823e 84a1 903e
00000040: d3f7 f0be 77d8 203f 5dbc 26bf 4bc3 4c3e
00000050: f979 133f f183 c03e e63b 6e3e 852e 1a3f
00000060: 948f 07bf 8ee7 a93e c529 00bd c736 9eba
00000070: 0ba2 dfbc 77c8 ff3e ce2c 173e 4169 093e
00000080: ad04 013e e8a5 e8be 2edb 013f a83f dd3e
00000090: 4e99 103e ce86 213e e065 1e3f a5eb fa3e
000000a0: f281 af3e e92b dabe 4e58 b03e 5d83 b2bd
-0.7350956 -0.47239578 -0.18504336 -0.06512546 0.37288928 0.11527747 0.022088189 -0.423485
0.5861627 -0.2807988 -0.49467942 0.25690514 -0.2126703 0.33430058 0.25582424 0.28248227
-0.47064075 0.628303 -0.6513117 0.19996373 0.5760799 0.37600663 0.23265037 0.60227233
-0.5295346 0.33184475 -0.031289835 -0.0012070768 -0.027298948 0.4995763 0.14763185 0.13419057
0.1259944 -0.45439076 0.50725067 0.43212628 0.14120981 0.1577408 0.618742 0.49007908
0.34278828 -0.42611626 0.3444237 -0.08716462

Detokenizer.cat_recons.4.bias f4 [11]
00000000: e963 c53e 40aa 2f3f 7898 31bd e70c 863d
00000010: c3d1 c03d 8830 d53d de23 34bd 9260 b93e
00000020: 0547 19bd d61b 18bf 3947 d6be
0.38552788 0.68619156 -0.043358296 0.0654543 0.09415009 0.10409647 -0.043979518 0.3620649
-0.037421245 -0.59417474 -0.41851214

Detokenizer.cat_recons.5.weight f4 [11, 4]
00000000: 5c12 c93e 9869 0f3e 01f8 0fbf 6c51 f6be
00000010: 278a 2b3f d556 8b3e 7f99 79bd 4007 343c
00000020: 388a 4e3e ba73 c6be 18db 123f 522f 013f
00000030: 6de2 19bd ab93 7f3d e2b7 c63d 6941 0abe
00000040: a50a 36bf 2757 1d3d f3dd ba3e 106a 79bd
00000050: 588d 49be f0e2 84bf ce36 f8bd 1e4e 82be
00000060: 0da5 a83c 4c84 a53e 6aae aebd a725 f2be
00000070: 9aa1 713e e6ed c5be 0f8a 11bf 70c6 15bd
00000080: 1c08 c9be 02f1 cd3d 4979 2fbf f836 bbbe
00000090: 1fde 38bf 54a8 0abf fa40 66be e817 17bf
000000a0: b6e4 fabe 8cfd c53e 78fb 07bf b4ff 393e
0.3927182 0.14005125 -0.562378 -0.48108995 0.6700768 0.27214685 -0.0609374 0.010988057
0.20169914 -0.38760167 0.5736556 0.5046283 -0.037569452 0.062396687 0.097030416 -0.13501514
-0.7110999 0.038413193 0.3649746 -0.060892165 -0.19682825 -1.0381756 -0.12119828 -0.25450224
0.020586515 0.32327497 -0.085293606 -0.4729435 0.23596802 -0.38658065 -0.56851286 -0.036566198
-0.39264 0.10055734 -0.6854444 -0.36565375 -0.7221393 -0.541631 -0.22485724 -0.59020853
-0.49002618 0.38670003 -0.53118086 0.18163949

Detokenizer.cat_recons.5.bias f4 [11]
00000000: c59e 36be af57 b2bc d52f 85bc 2c5a 24be
00000010: 5bd0 b93e 5391 5c3e e512 383e 7b2e 80be
00000020: b8b3 f7be 4352 0abf 07a2 9f3e
-0.17834003 -0.021770326 -0.01625816 -0.16050023 0.36291775 0.21539812 0.17975958 -0.25035462
-0.48379302 -0.5403177 0.31178305

Detokenizer.cat_recons.6.weight f4 [11, 4]
00000000: bbab 1a3f b1dc 40be c392 f83c 38a0 80be
00000010: 0fbd 07bf 9b98 fa3e 18af ddbe 4d9c f2be
00000020: 10b4 6f3e 130c a2be 91e8 15bf ebc8 1c3f
00000030: 6123 a93d 7303 b8be a183 fcbe 5a7b 08bf
00000040: 222e ffbc 8e11 1d3f 041a 653e 045d 833e
00000050: 4e6f 9f3e 0a74 29bd b8fc 0cbf 9bd1 05bf
00000060: 3b6c 403d 87cb f9be 0c59 7f3e 4f01 f7bd
00000070: 9470 c13d ef2b 30bf e4f1 9ebe fd8a bfbd
00000080: 73b5 2dbe 666c a63c d30b c4bd eae8 743e
00000090: 08d6 23bf cbc8 93be f0f0 46bf 6306 0ebe
000000a0: b8a2 dcbe 9f3b ba3d a3db 73be 0ec5 003d
0.6041829 -0.18834187 0.030343419 -0.25122237 -0.53022856 0.48944554 -0.43297648 -0.47384873
0.23408532 -0.31649837 -0.58557993 0.61244076 0.08258701 -0.35940132 -0.49319175 -0.5331322
-0.031149928 0.6135491 0.22373205 0.25656903 0.31139606 -0.04137043 -0.5507312 -0.5227296
0.046978217 -0.48788092 0.24936312 -0.120607965 0.09445301 -0.6881704 -0.31043923 -0.09352682
-0.16963749 0.02031536 -0.09572568 0.23916975 -0.6399846 -0.2886413 -0.7771139 -0.13869624
-0.43092895 0.09093403 -0.23814254 0.031437926

Detokenizer.cat_recons.6.bias f4 [11]
00000000: dc12 783e 672c 683e 7396 abbe 4412 b63d
00000010: 3bcb 3f3e 885f 8bbe e922 a63e 0a65 b33e
00000020: 0404 17bf 9e06 ff3d d797 193e
0.24225944 0.22673188 -0.3351322 0.08890203 0.1872987 -0.27221322 0.3244851 0.35038024
-0.589905 0.12452434 0.14999329

Detokenizer.cat_recons.7.weight f4 [10, 4]
00000000: 2e80 113f 2235 1abe b6d8 cb3e ea2a 933e
00000010: 68b7 eabe 2074 90be a0b1 2fbf c8c4 07bf
00000020: 5f07 903e bc01 9e3e 1a9f 1cbf 7820 1f3e
00000030: ea11 23bf 9b19 43be 3423 143f 2241 45be
00000040: ab7d 3fbf 1910 3dbf de82 82be 966f f13e
00000050: fb3f aabd 8d5c a23e 2308 093d 576b 87be
00000060: 9033 c13d 3874 aabe 52d4 1e3f 3ad7 113f
00000070: 1258 fe3d 321e aebd 20ae d8bb a095 cb3e
00000080: 16b6 8a3d 7d63 003f 868e b83e edd6 093f
00000090: 21c2 66be 7ad9 6bbe 89be cabd 1e4d 58bc
0.5683621 -0.15059331 0.39813775 0.28743678 -0.45843053 -0.28213596 -0.6863041 -0.5303464
0.28130624 0.30860698 -0.6118027 0.1553973 -0.6369921 -0.19052736 0.57866216 -0.19263127
-0.7480113 -0.7385269 -0.2549047 0.47155446 -0.083129846 0.31711236 0.033455025 -0.2644908
0.09433663 -0.33291793 0.62042725 0.56969035 0.12419142 -0.08501853 -0.006612554 0.39762592
0.067730114 0.5015181 0.36046237 0.53843576 -0.22534992 -0.2303218 -0.09899623 -0.01320198

Detokenizer.cat_recons.7.bias f4 [10]
00000000: 2dcc 003f fa78 c63c e687 b43e d52b 19be
00000010: 4e63 d33d 9532 12be 03cf 9dbd 9915 ecbe
00000020: 084f 36bd 976e 9b3c
0.5031155 0.024227608 0.35259932 -0.14958127 0.10321675 -0.14277108 -0.077055 -0.46110228
-0.044508964 0.018973632

Detokenizer.cat_recons.8.weight f4 [10, 4]
00000000: b139 b53e b9a0 a93e fb12 d63e e544 5a3d
00000010: 292f 293e 9233 71be fed1 a73e 368c 163f
00000020: 4859 fbbe 7caf 153f 3995 0dbe 8596 62be
00000030: e53b 4dbd 14d5 093f 8bc2 29bf c448 103e
00000040: 2eca 5abf 1d42 f83c 2cbf 3dbf b35e 89bd
00000050: 884b 16bf cc68 82be a8f2 633e 3b7d 243e
00000060: e34d a93e bc9b 61be 2c12 313d 1b45 97be
00000070: 5125 82be 9d16 e8bd 727c 09bf 1ac6 053f
00000080: 1d3c b9bd 66b8 49bf ae83 f6bd 1a8d 31bd
00000090: 3305 fdbd 30dd d4bd d474 91be cb05 943e
0.35395578 0.33130434 0.41811356 0.05328836 0.16521896 -0.23554829 0.327774 0.58807695
-0.49091554 0.5847089 -0.13826455 -0.22127731 -0.050105948 0.53840756 -0.66312474 0.14090258
-0.8546475 0.030304963 -0.7411983 -0.067075156 -0.58709 -0.2547058 0.22260535 0.16063397
0.33067235 -0.22032064 0.04323022 -0.2954491 -0.25419095 -0.11332438 -0.53705513 0.52255404
-0.09044669 -0.78796995 -0.12036835 -0.043347456 -0.12354507 -0.10393751 -0.28409445 0.2891067

Detokenizer.cat_recons.8.bias f4 [10]
00000000: 8384 dcbd c010 0f3f b0ec 123f 6611 f5ba
00000010: 7297 103e 287a 2fbf be8a 8ebe bf44 49bd
00000020: 62b7 b4be f144 d6be
-0.10767462 0.55884933 0.57392406 -0.0018697202 0.14120272 -0.6854577 -0.27840227 -0.049137827
-0.3529616 -0.41849473
