tabsyn/vae/ckpt/default/minor_only/encoder.pt (torch, 23664 bytes, 33 tensors)

Tokenizer.weight f4 [15, 4]
0.50487316 -0.2998119 0.17293411 0.21424729 0.28634304 -0.051718134 -0.0642917 0.5500903
-0.03743861 -0.006868453 -0.14758806 -0.04017089 -0.26318353 0.025356466 0.058010332 -0.17186423
-0.04180523 0.06469992 -0.26424414 0.17862192 0.599524 -0.21689554 -0.23664106 -0.010750349
-0.1747795 0.26842967 0.060772825 -0.16389097 -0.41107407 -0.17671552 0.3388146 0.14291681
0.2939973 -0.11886494 -0.11342146 0.544862 0.004907539 0.24334933 0.29805958 0.068017066
0.19733386 0.35978225 0.279148 -0.45202133 -0.3255431 0.0721542 -0.16002102 -0.19048373
-0.104099445 -0.014395022 0.065931164 -0.10163967 0.036002707 -0.09191247 -0.011376495 -0.34078398
0.3202105 -0.027951604 0.35828128 0.022070233
00000000: 5e3f 013f f280 99be a415 313e a463 5b3e
00000010: 8e9b 923e 65d6 53bd 5eab 83bd b8d2 0c3f
00000020: 3a59 19bd c310 e1bb 5321 17be 3b8a 24bd
00000030: febf 86be 5db8 cf3c 3e9c 6d3d 2dfd 2fbe
00000040: f63b 2bbd 6481 843d 024b 87be aae8 363e
00000050: 687a 193f dd19 5ebe 0952 72be 3b22 30bc
00000060: 66f9 32be 9d6f 893e edec 783d 09d3 27be
00000070: 4d78 d2be eaf4 34be 1b79 ad3e c958 123e
00000080: d086 963e 766f f3bd 8349 e8bd 137c 0b3f
00000090: 6ccf a03b 9130 793e 449b 983e 884c 8b3d
000000a0: e311 4a3e 6135 b83e 7dec 8e3e 576f e7be
000000b0: 96ad a6be 95c5 933d 8ddc 23be 2b0e 43be
000000c0: 1732 d5bd 19d9 6bbc eb06 873d 7628 d0bd
000000d0: 9377 133d 9b3c bcbd 7a64 3abc 3d7b aebe
000000e0: a1f2 a33e c3fa e4bc a570 b73e a2cc b43c

Tokenizer.bias f4 [23, 4]
-0.403517 0.06185915 -0.54390985 0.58982015 0.11533446 -0.13651451 0.53360575 -0.30899528
0.31114486 -0.49705893 -0.124960355 -0.5749709 0.10444438 0.33995402 -0.2787695 -0.21095736
-0.2343694 -0.3240325 0.43411952 0.26391706 0.4133334 0.35686392 -0.72214603 -0.19236267
0.45546937 -0.60734665 0.37400213 0.30849275 -0.17604658 0.46321648 -0.078395456 0.5934965
0.45792317 -0.33535567 -0.14424562 -0.4159835 -0.112983026 -0.38224682 0.33286342 -0.29492784
0.57572794 -0.19320595 -0.5655423 -0.26476553 0.47311756 0.026826318 -0.20232646 -0.176686
0.1792364 0.52662903 -0.3488333 -0.0067083845 -0.29902935 0.025510784 -0.24326193 -0.5309058
-0.029675707 -0.5585837 -0.17026326 -0.37737012 -0.52484906 -0.24959151 0.12601025 -0.062187117
-0.27894714 -0.32929727 0.09210934 0.20688854 -0.40473917 -0.30150673 0.35942435 -0.054870274
-0.30952817 0.12458431 0.014031672 0.07844207 -0.27318218 -0.33709323 0.24549128 -0.33303246
0.06428557 0.020080933 0.30592605 0.22811595 -0.1989168 0.18980901 0.03266551 0.20321655
-0.063876875 0.4827609 0.366369 -0.010904423
00000000: c899 cebe 0560 7d3d ad3d 0bbf 74fe 163f
00000010: 7934 ec3d 76ca 0bbe 639a 083f a134 9ebe
00000020: 614e 9f3e 827e febe 37eb ffbd 4b31 13bf
00000030: efe6 d53d 740e ae3e e0ba 8ebe 3505 58be
00000040: 88fe 6fbe 96e7 a5be ea44 de3e 2320 873e
00000050: 6fa0 d33e deb6 b63e 90de 38bf b8fa 44be
00000060: 4833 e93e 127b 1bbf 357d bf3e c3f2 9d3e
00000070: 8e45 34be b62a ed3e cc8d a0bd 63ef 173f
00000080: e874 ea3e bdb3 abbe 20b5 13be cafb d4be
00000090: a563 e7bd dbb5 c3be 136d aa3e c800 97be
000000a0: e862 133f c8d7 45be 61c7 10bf 598f 87be
000000b0: 773c f23e dec2 db3c ab2e 4fbe 2ded 34be
000000c0: bf89 373e 29d1 063f 479a b2be 02d2 dbbb
000000d0: 601a 99be fefb d03c a819 79be 71e9 07bf
000000e0: 781a f3bc 57ff 0ebf 7e59 2ebe a836 c1be
000000f0: 825c 06bf eb94 7fbe d508 013e ebb7 7ebd
00000100: 29d2 8ebe a799 a8be d2a3 bc3d 97da 533e
00000110: f939 cfbe 175f 9abe 7806 b83e a7bf 60bd
00000120: 7a7a 9ebe 0f26 ff3d 19e5 653c 3ca6 a03d
00000130: 89de 8bbe 7c97 acbe 1162 7b3e 3b83 aabe
00000140: 27a8 833d c580 a43c 57a2 9c3e 3a97 693e
00000150: d8b0 4bbe 4b5d 423e 45cc 053d 0018 503e
00000160: e1d1 82bd 702c f73e b894 bb3e 77a8 32bc

Tokenizer.category_embeddings.weight f4 [77, 4]
-0.011795768 -0.16621074 0.36037517 0.20011587 -0.010878951 -0.088774815 0.16225204 0.33880898
-0.3782949 -0.35937762 -0.30533522 0.35366184 -0.54983705 0.27585182 0.12358253 0.036699865
-0.41778865 -0.017295048 -0.16914259 -0.34260973 -0.15046228 -0.5112658 0.24410401 -0.08815439
-0.89192605 -0.22295094 -0.09026427 0.29314566 0.66720575 -0.005289247 -0.8914416 0.4157923
0.2851493 -0.46584833 0.41318464 0.63575006 -0.07260207 0.1496091 0.09599007 0.0661037
0.1504872 0.11815923 0.1493906 -0.32443616 -0.1513165 -0.35104138 -0.16065314 0.38604322
-0.030132744 0.4168775 -0.38435793 -0.33028063 -0.19256315 0.17159949 0.16755761 0.7283676
-0.16676562 -0.5472411 -0.6462709 -0.3147164 -0.048780933 0.39066973 -0.2607271 0.20186216
0.067590274 -0.40062654 -0.17282827 0.046184782 -0.3233541 0.639451 -0.595578 -0.25264958
-0.45363376 0.35705018 -0.0069581247 -0.40895435 0.25630915 -0.06217768 0.6399141 -0.58322275
-0.53045845 0.66137356 0.11939632 -0.42489585 1.1751965 -0.3177521 -0.42623022 -0.19607331
-0.6506019 0.42593697 -0.23953858 0.36514425 0.6706266 -0.2241085 -0.8611953 -0.59657866
0.22630173 0.19711302 -0.3121343 -0.73287743 0.2434105 0.5642042 0.23169692 0.22799443
0.15830903 0.08278515 0.16879505 0.030302577 -0.52641636 -0.4571288 0.34736523 0.11116085
0.34095964 -0.34749714 -0.51577896 0.12636271 0.0061456272 -0.53045005 0.5954602 -0.0058369637
-0.15879199 0.24549668 -0.17940806 -0.3085566 0.008394939 0.3822723 0.71068084 -0.6516809
-0.57838345 -0.5401261 0.42150706 0.58552265 -0.17330621 -0.4495246 0.75565034 0.4149281
0.4908498 0.49531478 -0.28155565 0.2541203 -0.14946416 0.029894928 -0.5144556 0.5377794
0.025755428 -0.3730404 0.036205586 0.57033056 0.4421304 0.23287687 0.16709296 0.39880008
0.03383866 0.17046843 0.26150575 -0.4488 -0.025303748 0.35666025 -0.18894604 -0.31192473
0.6909214 0.008692101 -0.58794004 -0.503079 -0.46496332 0.6348919 0.027992785 -0.44055665
1.1693298 -0.24031614 -0.45301774 -0.22079308 -0.27366853 0.3760334 -1.0713509 0.22014229
0.0094478605 0.18032652 -0.44218662 0.25190192 -0.23150896 0.6640626 -0.2621236 -0.13872008
-0.20538142 0.002234665 0.3633652 -0.35214743 0.10361246 -0.28862014 -0.18831906 0.03537374
0.37111497 -0.5665739 0.08832322 -0.31508493 -0.48190886 0.26802155 -0.035298884 0.128728
0.37781087 0.45885825 0.5559166 -0.13360761 -0.23110154 -0.7332583 -0.24748416 0.21951033
0.12592643 0.009386316 -0.002052678 -0.64856714 0.46643722 -0.0076652667 -0.21657111 -0.4744351
0.12850615 0.0074651996 0.13495597 0.11970214 -0.26303893 -0.17806199 -0.6185446 -0.38576654
-0.52826184 -0.023433054 -0.113068044 0.11595848 0.14605267 -0.38139275 0.47417006 -0.36067745
-0.29090753 0.4517732 0.06548487 -0.24937683 -0.2572761 -0.013952702 0.18239488 -0.040702
-0.52784044 -0.15552783 0.12396527 0.2203227 0.18448271 -0.31370988 -0.15285312 -0.419873
-0.06595188 0.3699498 -0.01717384 -0.13678941 -0.41408253 -0.6355643 0.08589728 -0.014073258
00000000: 0943 41bc 2633 2abe 1883 b83e 2deb 4c3e
00000010: a13d 32bc 92cf b5bd 6625 263e 5f78 ad3e
00000020: deaf c1be 5800 b8be e654 9cbe 2a13 b53e
00000030: 1fc2 0cbf 733c 8d3e d618 fd3d 9952 163d
00000040: 65e8 d5be 58ae 8dbc b733 2dbe 8b6a afbe
00000050: c912 1abe 51e2 02bf 67f6 793e 4a8a b4bd
00000060: 4455 64bf 404d 64be 79dc b8bd 3017 963e
00000070: ffcd 2a3f 6b51 adbb 8435 64bf bae2 d43e
00000080: 17ff 913e ac83 eebe f08c d33e 84c0 223f
00000090: 65b0 94bd 2133 193e 7196 c43d 6061 873d
000000a0: 5119 1a3e 77fd f13d d9f9 183e 7f1c a6be
000000b0: b6f2 1abe b2bb b3be 4282 24be 75a7 c53e
000000c0: f2d8 f6bc f870 d53e 90ca c4be 8b1a a9be
000000d0: 462f 45be c7b7 2f3e 3994 2b3e 4d76 3a3f
000000e0: 9bc4 2abe fe17 0cbf 0272 25bf 8222 a1be
000000f0: 84ce 47bd dd05 c83e 067e 85be f4b4 4e3e
00000100: c56c 8a3d ec1e cdbe e5f9 30be 412c 3d3d
00000110: ab8e a5be 10b3 233f cd77 18bf 495b 81be
00000120: af42 e8be 48cf b63e fb00 e4bb 7762 d1be
00000130: f43a 833e 06ae 7ebd 69d1 233f 164e 15bf
00000140: 20cc 07bf c74f 293f 0f86 f43d f38b d9be
00000150: d76c 963f 67b0 a2be d93a dabe 71c7 48be
00000160: d98d 26bf 6914 da3e 9a49 75be 30f4 ba3e
00000170: 2fae 2b3f b37c 65be 4c77 5cbf 61b9 18bf
00000180: a4bb 673e ffd7 493e 11d0 9fbe db9d 3bbf
00000190: 9a40 793e b06f 103f f541 6d3e 5f77 693e
000001a0: c31b 223e 438b a93d 9cd8 2c3e 1c3d f83c
000001b0: 39c3 06bf c90c eabe dbd9 b13e 4da8 e33d
000001c0: 4392 ae3e 25eb b1be 170a 04bf 3a65 013e
000001d0: 4261 c93b 93cb 07bf 1470 183f 0044 bfbb
000001e0: 5e9a 22be 7b63 7b3e bfb6 37be 21fb 9dbe
000001f0: ed8a 093c 32b9 c33e 2eef 353f 8fd4 26bf
00000200: f010 14bf b445 0abf c6cf d73e d0e4 153f
00000210: 2f77 31be 1728 e6be 4d72 413f 7571 d43e
00000220: aa50 fb3e e699 fd3e 1028 90be 0e1c 823e
00000230: 220d 19be 35e6 f43c 5db3 03bf e9ab 093f
00000240: 0cfd d23c 27ff bebe 4f4c 143d 2f01 123f
00000250: ea5e e23e 4677 6e3e 6b1a 2b3e 862f cc3e
00000260: 689a 0a3d 478f 2e3e 15e4 853e 1dc9 e5be
00000270: ce49 cfbc 2c9c b63e 127b 41be 99b4 9fbe
00000280: 3ae0 303f 5069 0e3c 3d83 16bf c9c9 00bf
00000290: ac0f eebe 4788 223f 2051 e53c a490 e1be
000002a0: 99ac 953f 6f15 76be f1f1 e7be 9517 62be
000002b0: 481e 8cbe 7387 c03e 0722 89bf fb6c 613e
000002c0: 33cb 1a3c 84a7 383e 4966 e2be 4af9 803e
000002d0: af10 6dbe 0200 2a3f 1135 86be a30c 0ebe
000002e0: 824f 52be 7573 123b 010b ba3e ab4c b4be
000002f0: c532 d43d 05c6 93be b6d6 40be 0ee4 103d
00000300: c802 be3e fd0a 11bf cee2 b43d d052 a1be
00000310: c2bc f6be 1f3a 893e 9095 10bd 46d1 033e
00000320: 6d70 c13e 78ef ea3e 8d50 0e3f 6fd0 08be
00000330: e2a5 6cbe d1b6 3bbf 7d6c 7dbe 51c7 603e
00000340: dcf2 003e 10c9 193c 3986 06bb 7f08 26bf
00000350: dcd0 ee3e eb2c fbbb d1c4 5dbe 28e9 f2be
00000360: 1e97 033e a29e f43b e631 0a3e 6526 f53d
00000370: 0aad 86be e255 36be f058 1ebf 3183 c5be
00000380: 2b3c 07bf adf6 bfbc 3890 e7bd a47b ed3d
00000390: d58e 153e e945 c3be 6bc6 f23e b7aa b8be
000003a0: d5f1 94be d14e e73e ee1c 863d a45c 7fbe
000003b0: b1b9 83be e099 64bc b9c5 3a3e 24b7 26bd
000003c0: 8d20 07bf b042 1fbe 81e1 fd3d 469c 613e
000003d0: 09e9 3c3e 959e a0be 8785 1cbe 98f9 d6be
000003e0: c711 87bd 0f6a bd3e 27b0 8cbc 8612 0cbe
000003f0: a002 d4be 58b4 22bf eaea af3d 8693 66bc

VAE_Encoder.layers.0.attention.W_q.weight f4 [4, 4]
-0.066779844 0.4520619 0.119772814 -0.030434484 -0.055597626 -0.13824478 0.37502304 0.20919003
-0.46718684 0.092391096 0.22237511 0.09357918 0.2285088 0.2877409 0.22724983 -0.28004822
00000000: dfc3 88bd a874 e73e 734b f53d bd51 f9bc
00000010: 56ba 63bd 0a90 0dbe 0503 c03e e935 563e
00000020: 1d33 efbe 8b37 bd3d 4db6 633e 71a6 bf3d
00000030: 36fe 693e c652 933e 2eb4 683e 7b62 8fbe

VAE_Encoder.layers.0.attention.W_q.bias f4 [4]
0.047813684 0.14142972 0.15113272 -0.17536576
00000000: 48d8 433d f4d2 103e 89c2 1a3e 1593 33be

VAE_Encoder.layers.0.attention.W_k.weight f4 [4, 4]
-0.036955494 -0.49985832 0.43517268 -0.16174045 0.35862598 0.17757808 -0.11578134 -0.16077071
-0.014634144 0.34563872 0.17995714 -0.21228768 -0.15091167 -0.4768473 0.11706767 0.34026083
00000000: a55e 17bd 6eed ffbe f4ce de3e 4a9f 25be
00000010: d39d b73e 07d7 353e c41e edbd 14a1 24be
00000020: 0cc4 6fbc 8ff7 b03e af46 383e f161 59be
00000030: 9788 1abe 5425 f4be 2dc1 ef3d ab36 ae3e

VAE_Encoder.layers.0.attention.W_k.bias f4 [4]
3.5775767e-05 -3.071611e-06 9.3971656e-05 0.00012059557
00000000: f00d 1638 e021 4eb6 a612 c538 41e8 fc38

VAE_Encoder.layers.0.attention.W_v.weight f4 [4, 4]
-0.08845572 0.019614613 -0.32411295 0.023201134 -0.027355399 0.098891884 -0.41844985 0.06932618
-0.079290494 0.023128409 -0.28001097 0.041816086 -0.07966838 -0.10659898 -0.29411533 0.08074693
00000000: 4628 b5bd d3ae a03c 22f2 a5be 4e10 be3c
00000010: 6e18 e0bc d487 ca3d 0f3f d6be e2fa 8d3d
00000020: 0e63 a2bd ca77 bd3c 995d 8fbe 5847 2b3d
00000030: 2d29 a3bd 9150 dabd 4996 96be a55e a53d

VAE_Encoder.layers.0.attention.W_v.bias f4 [4]
0.14155594 0.11436438 -0.011483983 -0.08911552
00000000: 0af4 103e df37 ea3d 5127 3cbc 3382 b6bd

VAE_Encoder.layers.0.linear0.weight f4 [128, 4]
0.35745096 -0.02811151 0.38880417 0.22571424 0.20862378 -0.570627 0.22033727 -0.11198431
-0.030410986 -0.25371468 -0.04296042 -0.57673305 -0.08074691 0.032800954 -0.57295644 0.32348463
-0.113363065 0.15995798 0.5577806 -0.50136834 -0.42479566 0.45682737 0.47905588 -0.28572688
-0.4155425 0.138732 -0.2083519 -0.11809506 0.2983368 -0.2437479 -0.34185922 -0.4273769
0.31692517 -0.035911314 0.106622726 -0.08886973 0.07093818 0.2717819 0.5625415 -0.095465414
0.33513 0.5055926 0.47359616 -0.38640597 0.449331 -0.19153327 -0.158697 -0.2620552
0.1527153 0.40644827 0.09906846 -0.26749408 0.13281636 0.49692577 0.058383968 0.23949671
-0.31631967 -0.4188467 -0.08555106 0.12396908 0.4820667 -0.29798827 -0.56080866 0.07059772
-0.42829892 -0.32109082 0.094248965 0.034153294 -0.119458884 0.15612976 0.25895327 -0.22671384
-0.23710448 -0.23722033 -0.33463997 0.4457972 0.28994647 -0.4523507 0.4303509 -0.3068067
-0.061367687 0.21621302 0.10346639 0.15178664 -0.20758918 0.639306 0.16911197 -0.089789666
-0.16333626 0.022114918 0.52751136 -0.28595254 -0.19691284 0.19967286 0.06956232 0.12962097
-0.03294988 -0.38064083 0.526647 -0.108431175 0.35935014 0.24003293 -0.20316839 -0.49154335
0.2579483 -0.36839277 -0.3672613 -0.065468855 -0.118668355 0.4641397 -0.39402008 -0.2698054
-0.2688925 -0.097652525 -0.45870706 -0.5282569 0.3128168 -0.33760434 -0.4075083 -0.28918636
-0.18343793 -0.09841219 -0.39963487 0.18196456 0.46078175 0.17182519 0.2448413 -0.6893914
0.10614276 -0.22789538 -0.094123565 0.46642324 -0.16680941 -0.07946483 0.47618896 -0.3120975
-0.43740872 -0.20679007 0.02937257 -0.34426358 0.5869391 0.23214965 -0.35446677 0.38135436
-0.15920863 -0.35338512 0.1578659 0.40176505 -0.045773063 -0.21163678 0.24637055 -0.16472757
-0.21060418 -0.16493142 -0.13970761 0.22808328 0.17042765 0.27457672 -0.28867862 -0.13818638
-0.50371945 0.47407952 -0.25204703 -0.00025375283 -0.58752966 -0.10206402 0.25958452 0.13768576
-0.08771951 -0.35791916 0.044075347 0.004050756 -0.2426242 -0.4363193 0.36200202 -0.39752004
-0.1759095 0.32093203 -0.41036397 -0.28824258 0.3862811 0.24429056 0.28008193 0.49845508
0.44551334 -0.26119366 -0.3459059 -0.18669178 -0.22696064 -0.41333777 -0.4308206 0.2324633
0.042442538 -0.24732696 0.5183919 -0.010460199 -0.40067622 -0.25956628 0.33303463 -0.43448415
-0.40165076 -0.24852075 0.21637005 -0.217055 0.13564739 0.36699143 -0.5182036 -0.02920944
-0.39071047 0.4599327 -0.027430385 0.12026623 0.28164545 0.19141784 0.22659825 -0.09918724
-0.5366422 0.006083977 -0.19541562 0.44650307 0.40691596 -0.22118734 0.06736147 -0.2652684
-0.101938054 0.2573644 -0.17985642 0.06313948 0.29777488 -0.32655874 -0.21515617 -0.110651754
-0.19498034 -0.019637402 -0.02786622 -0.26925176 0.07119053 -0.20923957 0.059474815 0.26608953
-0.109608434 0.0057417424 0.27476922 -0.44220784 -0.07807235 -0.20486026 -0.17849973 0.52932924
0.44639796 -0.4855683 -0.14759682 -0.26614928 -0.10288149 0.25261953 -0.5293756 -0.23747595
00000000: d003 b73e 1c4a e6bc 5711 c73e a221 673e
00000010: 79a1 553e 9c14 12bf 18a0 613e 0858 e5bd
00000020: 7620 f9bc e4e6 81be 44f7 2fbd c7a4 13bf
00000030: a35e a5bd 4b5a 063d 46ad 12bf c79f a53e
00000040: e52a e8bd 06cc 233e b6ca 0e3f ad59 00bf
00000050: d17e d9be 47e5 e93e d046 f53e cb4a 92be
00000060: fdc1 d4be c30f 0e3e 335a 55be d3db f1bd
00000070: 9abf 983e 0d99 79be 2c08 afbe 25d1 dabe
00000080: 0444 a23e be17 13bd 045d da3d 5501 b6bd
00000090: 0948 913d ff26 8b3e b802 103f 5f83 c3bd
000000a0: 2996 ab3e 846e 013f 327b f23e 01d7 c5be
000000b0: b60e e63e 4c21 44be 7781 22be 192c 86be
000000c0: 6661 1c3e fd19 d03e 68e4 ca3d fcf4 88be
000000d0: 0301 083e 0e6d fe3e 0724 6f3d a03e 753e
000000e0: a7f4 a1be 1373 d6be 6535 afbd 80e3 fd3d
000000f0: 72d1 f63e eb91 98be 2891 0fbf 8a95 903d
00000100: ff49 dbbe 0466 a4be 9a05 c13d 53e4 0b3d
00000110: dca6 f4bd 7be0 1f3e 8695 843e ac27 68be
00000120: 84cb 72be e3e9 72be ee55 abbe 883f e43e
00000130: dd73 943e 839a e7be f456 dc3e c515 9dbe
00000140: af5c 7bbd f266 5d3e 30e6 d33d f56d 1b3e
00000150: 4292 54be 8fa9 233f b02b 2d3e a5e3 b7bd
00000160: 9f41 27be 582a b53c fc0a 073f 5f68 92be
00000170: 85a3 49be 0b77 4c3e b176 8e3d 5cbb 043e
00000180: 74f6 06bd 5be3 c2be 56d2 063f 2a11 debd
00000190: befc b73e 31cb 753e 600b 50be 92ab fbbe
000001a0: cd11 843e fa9d bcbe ac09 bcbe 8914 86bd
000001b0: 6508 f3bd b8a3 ed3e 00bd c9be ef23 8abe
000001c0: 47ac 89be 0cfe c7bd a7db eabe d83b 07bf
000001d0: 8629 a03e 7ada acbe eea4 d0be 3c10 94be
000001e0: 27d7 3bbe 558c c9bd f19c ccbe eb54 3a3e
000001f0: 96eb eb3e f1f2 2f3e aeb7 7a3e f47b 30bf
00000200: 6061 d93d 685d 69be dbc3 c0bd 07cf ee3e
00000210: 16d0 2abe 75be a2bd 0acf f33e 3ecb 9fbe
00000220: 09f4 dfbe c7c0 53be be9e f03c 5143 b0be
00000230: a441 163f a3b8 6d3e ab7c b5be e140 c33e
00000240: 9607 23be e5ee b4be 99a7 213e 26b4 cd3e
00000250: 897c 3bbd 50b7 58be 9048 7c3e 58ae 28be
00000260: 9fa8 57be c8e3 28be 830f 0fbe aa8e 693e
00000270: 9684 2e3e 5295 8c3e afcd 93be bb80 0dbe
00000280: c2f3 00bf 8dba f23e 4f0c 81be 210a 85b9
00000290: 5868 16bf f106 d1bd 43e8 843e 7ffd 0c3e
000002a0: 49a6 b3bd 2e41 b7be 5a88 343d 34bc 843b
000002b0: 7a72 78be 3e65 dfbe 5458 b93e bf87 cbbe
000002c0: 9f21 34be 3451 a43e 3a1b d2be 8894 93be
000002d0: a3c6 c53e 4e27 7a3e e666 8f3e 8135 ff3e
000002e0: 531a e43e 2dbb 85be 941a b1be 212c 3fbe
000002f0: 5f68 68be 02a1 d3be 8594 dcbe dc0a 6e3e
00000300: 3ad8 2d3d 4743 7dbe 55b5 043f 4161 2bbc
00000310: 6f25 cdbe dfe5 84be 8483 aa3e b574 debe
00000320: 2ba5 cdbe 397c 7ebe 1c90 5d3e aa43 5ebe
00000330: 26e7 0a3e 4de6 bb3e fea8 04bf a348 efbc
00000340: 340b c8be 4d7c eb3e b0b5 e0bc 244e f63d
00000350: d533 903e 0a03 443e 5f09 683e ae22 cbbd
00000360: 6261 09bf 195c c73b 081b 48be 0d9c e43e
00000370: 4a57 d03e ef7e 62be cff4 893d 42d1 87be
00000380: e6c4 d0bd 44c5 833e 482c 38be 464f 813d
00000390: f375 983e b532 a7be e651 5cbe 639d e2bd
000003a0: eda8 47be 9ede a0bc b347 e4bc 5edb 89be
000003b0: 57cc 913d e642 56be dd9b 733d e33c 883e
000003c0: 637a e0bd 3a25 bc3b 8dae 8c3e 1169 e2be
000003d0: 65e4 9fbd e3c6 51be a2c8 36be 1f82 073f
000003e0: 468e e43e 699c f8be 9f23 17be b844 88be
000003f0: 88b3 d2bd 5957 813e 2985 07bf e52c 73be

VAE_Encoder.layers.0.linear0.bias f4 [128]
-0.01684195 0.35820857 0.07134491 0.43016964 -0.12395708 0.30007225 -0.048881657 -0.18330584
-0.40777612 -0.14166377 -0.512725 0.5212191 -0.16868885 0.36421013 0.47404927 0.18012659
0.30052078 -0.41960946 -0.23439527 -0.36403617 0.34541568 -0.26832113 0.40260637 0.32044438
-0.40030125 0.19705117 0.47100854 -0.1381172 0.30777574 -0.06961804 0.08796148 -0.38591304
0.029510729 -0.13740945 0.07223416 -0.10353459 0.08317037 0.44643483 0.3974213 -0.17052181
-0.09950822 -0.45692575 0.070922926 0.51254654 -0.26982117 0.01327748 0.39696947 -0.33411357
-0.28357407 0.07638326 0.41463515 -0.04145236 0.13212714 -0.36801228 -0.31823117 -0.3123515
0.40077862 -0.2805784 0.29786304 -0.33550787 0.22176117 -0.11024644 -0.43798974 0.24483019
0.1327347 0.22928537 -0.34997633 0.45018905 -0.39058426 0.34824035 0.21526626 0.17951389
-0.29338023 0.05448849 -0.0044628056 0.34207377 -0.26056546 -0.3275039 -0.49601343 0.47957036
-0.20369166 -0.20409866 -0.12905835 -0.5110756 -0.11829354 -0.35128778 0.15828581 0.15960963
-0.1390507 -0.3227195 0.15434773 -0.2862977 -0.41534066 -0.10040663 -0.11103733 -0.29632232
-0.5899292 -0.27129388 0.022538714 0.14642619 -0.54289925 0.18449976 -0.21108346 0.18807779
0.5565481 0.36364788 -0.22010949 -0.4098111 -0.16938087 -0.28562602 -0.021961339 0.1633716
-0.35598806 0.34909034 0.10664038 0.55322295 -0.31022844 0.11412359 0.40263346 -0.061668873
-0.15546662 -0.006394379 0.53859603 0.027657185 0.36096126 -0.37447208 -0.060097393 -0.102663584
00000000: 21f8 89bc 1d67 b73e 481d 923d 323f dc3e
00000010: 36dd fdbd 12a3 993e 2238 48bd 87b4 3bbe
00000020: 08c8 d0be 4f10 11be f241 03bf 9d6e 053f
00000030: c5bc 2cbe c079 ba3e 96b6 f23e 1b73 383e
00000040: dcdd 993e 0dd7 d6be 5005 70be f362 babe
00000050: 53da b03e 6361 89be 6c22 ce3e 4911 a43e
00000060: 49f4 ccbe c8c7 493e 0828 f13e 986e 0dbe
00000070: c894 9d3e e793 8ebd 2625 b43d 6596 c5be
00000080: 7cc0 f13c 10b5 0cbe 81ef 933d f109 d4bd
00000090: 3a55 aa3d 1b93 e43e ce7a cb3e 459d 2ebe
000000a0: f7ca cbbd 2cf2 e9be 0a40 913d 4036 033f
000000b0: 0026 8abe ca89 593c 953f cb3e ef10 abbe
000000c0: 9f30 91be d46e 9c3d 0f4b d43e f3c9 29bd
000000d0: 564c 073e 1b6c bcbe 32ef a2be 89ec 9fbe
000000e0: db32 cd3e f9a7 8fbe 8181 983e b0c7 abbe
000000f0: 5c15 633e e3c8 e1bd 3140 e0be c4b4 7a3e
00000100: 9beb 073e c9c9 6a3e 1930 b3be 2e7f e63e
00000110: a9fa c7be 8f4c b23e c26e 5c3e 7dd2 373e
00000120: ef35 96be 532f 5f3d ba3c 92bb 4b24 af3e
00000130: d668 85be 97ae a7be 79f5 fdbe 3f8a f53e
00000140: 8c94 50be 3dff 50be df27 04be dad5 02bf
00000150: e243 f2bd fedb b3be ad15 223e b570 233e
00000160: 4f63 0ebe 7e3b a5be 550d 1e3e 9d95 92be
00000170: 88a7 d4be fea1 cdbd 8a67 e3bd 8fb7 97be
00000180: 9a05 17bf 08e7 8abe 1ca3 b83c bff0 153e
00000190: 72fb 0abf 81ed 3c3e 4326 58be 7797 403e
000001a0: f079 0e3f 0e30 ba3e 6264 61be c3d2 d1be
000001b0: 2e72 2dbe 933d 92be 44e8 b3bc e24a 273e
000001c0: 1144 b6be f8bb b23e 4666 da3d 05a0 0d3f
000001d0: 43d6 9ebe a1b9 e93d f925 ce3e 8098 7cbd
000001e0: a432 1fbe f087 d1bb 6ee1 093f 5291 e23c
000001f0: eacf b83e ceba bfbe af28 76bd 4941 d2bd

VAE_Encoder.layers.0.linear1.weight f4 [4, 128]
0.0956417 0.010109521 -0.009487799 -0.16859429 0.08364032 0.036442887 0.016430235 0.019577667
-0.02392316 0.18846765 -0.18800417 -0.144751 -0.10557338 -0.06827042 -0.03070806 -0.13116516
0.061824914 0.18398215 0.05787746 0.09729589 -0.04817083 0.16224262 0.13610348 0.043991067
0.09032635 -0.15689406 -0.05533146 -0.123551525 0.010082979 0.045102965 -0.0863004 -0.032900218
0.08575245 0.076267704 0.029344294 -0.039207555 0.04811325 0.018967407 -0.070086084 0.01094785
0.079203345 -0.13442034 0.007633853 0.05042712 -0.023551725 -0.15418379 -0.16397105 0.037531745
0.12963298 0.07825736 -0.039118964 -0.058762547 0.021849876 -0.3112105 0.051953442 -0.14624481
-0.031515267 -0.0029631236 0.04663155 0.035497084 0.012303965 0.018218577 -0.11173544 -0.06255527
-0.16479596 -0.111822695 0.025180588 -0.091101766 -0.052607395 -0.035911962 -0.05177852 -0.06704142
-0.16591337 -0.112658985 -0.1776485 0.06613375 -0.1056412 -0.020806035 -0.16025299 -0.11838687
0.12789884 0.11699915 0.11905222 -0.122426316 0.005781496 -0.13979563 -0.022409262 -0.20760705
-0.023338662 -0.02045702 -0.012382522 0.09707955 -0.06766922 0.039690554 -0.13827573 -0.010839348
-0.25224274 -0.0908163 -0.1016693 0.0020498158 0.15403369 -0.08324786 -0.16870114 0.012228875
-0.031479105 0.120525256 0.07910063 0.083449766 -0.09414633 -0.15149908 -0.023321401 -0.08465472
-0.081204355 0.043865416 0.010798245 -0.00045766134 -0.03040587 -0.0063486984 0.035861265 0.090837166
0.17118238 0.017762866 0.0061389813 0.16151012 0.09601711 0.045231164 0.022036899 0.018102301
-3.2511856e-05 0.09884061 -0.12603411 0.06339298 -0.06556489 0.0085605085 -0.012821391 -0.03168549
-0.0008678692 -0.019136319 -0.0958548 0.08609574 0.092910364 -0.14763881 0.14111018 0.09131496
-0.04598657 0.02741294 0.058088828 0.02542565 0.02004884 0.019601904 0.022650283 0.027745605
-0.18354526 0.021567486 0.12955327 0.05235794 -0.09611433 -0.10325277 0.021267498 -0.19773406
0.026931718 0.052426007 0.17300278 0.019712776 -0.01598953 0.071094766 0.08739453 0.021039989
0.0034143182 0.095055364 0.07963922 0.05298234 0.07439561 0.12868592 0.052391645 -0.008495885
-0.048289545 0.070668876 0.11291274 -0.057258815 0.033059806 0.261037 0.0027788337 -0.03510633
-0.06037314 -0.06655464 -0.071602955 -0.02900313 -0.0062610516 -0.017632637 0.046249058 -0.08605656
-0.0126174865 -0.031161685 -0.029724354 -0.118692614 -0.10909895 -0.042894877 0.01090037 -0.05178128
0.06874443 0.0025871391 -0.00616366 0.009110023 0.12226591 -0.014307976 0.2822859 -0.053902842
0.036414497 -0.020339364 -0.0037460572 -0.06325509 -0.13119619 -0.060507454 0.09030927 -0.02994404
-0.018119775 -0.003304279 -0.08299433 0.040910076 -0.12497185 -0.16083072 -0.030253341 -0.055314805
0.022979466 -0.04857215 -0.119315654 0.11192295 0.04039065 -0.13277434 0.04339562 0.033696227
0.1105295 0.023124777 0.047289267 0.0036095683 0.08506934 -0.04761208 -0.14892316 -0.0036887028
-0.13401376 -0.041894507 0.026874853 -0.09089224 0.008992686 0.072683714 0.039512623 0.113830805
-0.040831964 0.0897316 0.118275784 -0.018474964 0.08478814 0.09315389 -0.04729156 0.09000131
00000000: ccdf c33d 68a2 253c b772 1bbc fba3 2cbe
00000010: 9e4b ab3d 2345 153d b398 863c 5861 a03c
00000020: 81fa c3bc aafd 403e 2a84 40be 9b39 14be
00000030: db36 d8bd 5dd1 8bbd 788f fbbc 2950 06be
00000040: 1f3c 7d3d d165 3c3e ea10 6d3d 1143 c73d
00000050: c74e 45bd ee22 263e b65e 0b3e fa2f 343d
00000060: 05fd b83d d6a8 20be 3ea3 62bd 9508 fdbd
00000070: 1433 253c e3bd 383d 44be b0bd 61c2 06bd
00000080: fb9e af3d 3e32 9c3d 7263 f03c 1a98 20bd
00000090: 6612 453d 8961 9b3c 4b89 8fbd 9c5e 333c
000000a0: 5d35 a23d 7ca5 09be 6625 fa3b ab8c 4e3d
000000b0: 8cef c0bc 5be2 1dbe 07e8 27be e3ba 193d
000000c0: 82be 043e 6545 a03d 353b 20bd ffb0 70bd
000000d0: 83fe b23c fc56 9fbe 22cd 543d 33c1 15be
000000e0: 2716 01bd f730 42bb b900 3f3d 6465 113d
000000f0: 9296 493c 203f 953c 8dd5 e4bd fa1c 80bd
00000100: 46c0 28be 4c03 e5bd 8547 ce3c 9093 babd
00000110: da7a 57bd 6c18 13bd b715 54bd 034d 89bd
00000120: 32e5 29be c1b9 e6bd 7de9 35be 2271 873d
00000130: 6a5a d8bd 6b71 aabc 5c19 24be d174 f2bd
00000140: eaf7 023e 409d ef3d a6d1 f33d a6ba fabd
00000150: b472 bd3b 9626 0fbe a193 b7bc f196 54be
00000160: b930 bfbc 7b95 a7bc 10e0 4abc a5d1 c63d
00000170: 2996 8abd 9092 223d 2798 0dbe 8597 31bc
00000180: f625 81be e5fd b9bd fe37 d0bd 3456 063b
00000190: 02bb 1d3e db7d aabd febf 2cbe 9f5b 483c
000001a0: 3cf0 00bd f2d5 f63d 83ff a13d b6e7 aa3d
000001b0: cbcf c0bd 9322 1bbe 860c bfbc 745f adbd
000001c0: 784e a6bd 39ac 333d 1feb 303c 44f2 efb9
000001d0: bb15 f9bc be08 d0bb 43e3 123d d608 ba3d
000001e0: 6f4a 2f3e 6e83 913c 8229 c93b e962 253e
000001f0: 9ea4 c43d 5044 393d ba86 b43c 474b 943c
00000200: 575d 08b8 f26c ca3d 160f 01be 2ed4 813d
00000210: e346 86bd 6041 0c3c d010 52bc a5c8 01bd
00000220: b781 63ba c5c3 9cbc 854f c4bd f752 b03d
00000230: ca47 be3d a12e 17be 307f 103e 5603 bb3d
00000240: 6a5c 3cbd 1a91 e03c 8dee 6d3d 7449 d03c
00000250: 773d a43c 2c94 a03c 168d b93c c04a e33c
00000260: 4af3 3bbe 4cae b03c 9da9 043e 4775 563d
00000270: 97d7 c4bd 3076 d3bd 2d39 ae3c cc7a 4abe
00000280: e89f dc3c a7bc 563d a427 313e b07c a13c
00000290: 7afc 82bc 229a 913d e7fb b23d 0e5c ac3c
000002a0: c1c2 5f3b 63ac c23d e319 a33d 0304 593d
000002b0: ba5c 983d 3ec6 033e 9f98 563d 5332 0bbc
000002c0: 42cb 45bd d8ba 903d cb3e e73d 3888 6abd
000002d0: b869 073d a4a6 853e 181d 363b a8cb 0fbd
000002e0: d349 77bd cd4d 88bd 92a4 92bd f997 edbc
000002f0: 8229 cdbb 5272 90bc a76f 3d3d 6c3e b0bd
00000300: 93b9 4ebc ca46 ffbc 7d80 f3bc 1d15 f3bd
00000310: 456f dfbd 8ab2 2fbd 7797 323c 9c18 54bd
00000320: e1c9 8c3d fe8c 293b 87f8 c9bb 3542 153c
00000330: 8d66 fa3d 006c 6abc c787 903e 3ac9 5cbd
00000340: 5e27 153d bd9e a6bc 6980 75bb e28b 81bd
00000350: 4b58 06be aad6 77bd 11f4 b83d 344d f5bc
00000360: ec6f 94bc 9a8c 58bb eef8 a9bd 5391 273d
00000370: 3ef1 ffbd cfb0 24be dbd5 f7bc c791 62bd
00000380: 6f3f bc3c 97f3 46bd c45b f4bd dc37 e53d
00000390: ab70 253d fff5 07be 9bbf 313d 0e05 0a3d
000003a0: 4a5d e23d 2c70 bd3c 64b2 413d 828e 6c3b
000003b0: d638 ae3d e204 43bd 507f 18be 2abe 71bb
000003c0: e73a 09be 9399 2bbd a728 dc3c b625 babd
000003d0: 0f56 133c 33db 943d fdd7 213d 2020 e93d
000003e0: 6b3f 27bd 33c5 b73d 933a f23d cf58 97bc
000003f0: 68a5 ad3d 77c7 be3d cbb4 41bd 9b52 b83d

VAE_Encoder.layers.0.linear1.bias f4 [4]
-0.050011046 0.08649761 -0.02165957 0.04604933
00000000: 62d8 4cbd a925 b13d 696f b1bc 399e 3c3d

VAE_Encoder.layers.0.norm1.weight f4 [4]
1.1244125 1.103312 1.1479629 1.0244962
00000000: c0ec 8f3f 5439 8d3f 73f0 923f b122 833f

VAE_Encoder.layers.0.norm1.bias f4 [4]
-0.062517576 -0.05474851 -0.1369323 0.033836804
00000000: 3709 80bd f93f 60bd fb37 0cbe 7698 0a3d

VAE_Encoder.layers.1.attention.W_q.weight f4 [4, 4]
-0.29957542 0.21175158 0.17238644 -0.26926854 0.48726004 -0.027473418 -0.15001279 -0.3515441
-0.57539773 -0.067026444 0.52911407 -0.39400285 0.27756882 0.010764921 -0.0629283 -0.39401427
00000000: f361 99be 68d5 583e 1286 303e 91dd 89be
00000010: 267a f93e ef0f e1bc f49c 19be 97fd b3be
00000020: 444d 13bf 2945 89bd 0574 073f beba c9be
00000030: 801d 8e3e 5a5f 303c 8de0 80bd 3dbc c9be

VAE_Encoder.layers.1.attention.W_q.bias f4 [4]
0.04183804 -0.103359535 0.09389416 -0.06727323
00000000: 5d5e 2b3d 2aae d3bd 954b c03d 8cc6 89bd

VAE_Encoder.layers.1.attention.W_k.weight f4 [4, 4]
0.2539486 -0.42289695 -0.26509467 0.04801198 -0.06650599 -0.2845804 0.2328525 -0.5791404
0.4081527 0.5030757 -0.18535933 0.31623355 -0.063378684 0.061168175 -0.035332605 -0.38948816
00000000: 8d05 823e f385 d8be 7dba 87be 36a8 443d
00000010: 4b34 88bd 86b4 91be e370 6e3e 8c42 14bf
00000020: 64f9 d03e 92c9 003f d6ce 3dbe 5de9 a13e
00000030: afcc 81bd 7b8b 7a3d ecb8 10bd fe6a c7be

VAE_Encoder.layers.1.attention.W_k.bias f4 [4]
-0.00027347787 0.00010411613 -0.0003449117 -0.00013340692
00000000: 9461 8fb9 ec58 da38 44d5 b4b9 26e3 0bb9

VAE_Encoder.layers.1.attention.W_v.weight f4 [4, 4]
-0.39464197 0.008010787 0.079572946 -0.27839395 -0.2876404 0.3310975 0.3563479 -0.25806087
-0.07774675 -0.06550401 0.14730144 0.31782496 -0.40531218 0.18795925 0.20932028 -0.19373636
00000000: 830e cabe ad3f 033c 24f7 a23d a789 8ebe
00000010: 9a45 93be 9d85 a93e 3b73 b63e 8e20 84be
00000020: b039 9fbd f726 86bd 30d6 163e f4b9 a23e
00000030: 1485 cfbe 6478 403e 0e58 563e d362 46be

VAE_Encoder.layers.1.attention.W_v.bias f4 [4]
0.011632976 0.0028055743 -0.017054545 -0.018078875
00000000: 3d98 3e3c badd 373b f9b5 8bbc 261a 94bc

VAE_Encoder.layers.1.linear0.weight f4 [128, 4]
0.28633106 0.016445495 -0.48275515 0.17897078 -0.35762113 0.06241391 0.07387245 -0.37609994
0.332128 -0.503162 -0.01566381 -0.2658995 0.33362284 -0.3823225 0.06091595 0.36429146
0.20298122 -0.084708035 -0.042524867 -0.17657831 0.40715373 -0.37015486 -0.42447 -0.27634367
-0.51811516 -0.072271876 0.27829963 -0.31315148 0.059141476 -0.4894142 0.74346036 -0.19457863
0.14422919 -0.40272626 -0.1339997 -0.46071222 0.28655335 -0.14492293 0.27945414 -0.3571497
0.2884437 -0.08176794 -0.31835368 0.38404593 0.42092413 -0.4022518 0.21691026 -0.5487245
-0.059082158 -0.0028962449 -0.37083617 0.36961466 0.22988136 -0.18883173 0.5661388 -0.38900995
0.2857941 0.12541085 0.56617564 0.3972121 0.28908074 0.45381463 -0.55126697 -0.40797225
-0.15185326 0.44317248 0.23167261 -0.06945886 -0.2271547 0.059764188 0.5783955 0.34454617
0.12977245 -0.11371813 -0.4762816 -0.29508528 -0.38329974 -0.35717672 0.042904843 0.44460946
-0.016609207 0.15234691 -0.23436412 0.4773617 0.34515235 0.19347025 -0.37160873 0.03867481
-0.4457222 0.6244432 0.30737054 0.19812672 0.0006972584 0.3958867 -0.3140222 0.36133233
-0.14645715 0.17268787 -0.41507718 -0.4454359 -0.46674597 0.26077572 0.00940641 -0.26913345
-0.08870028 -0.53166866 0.004204912 0.2888881 -0.12688053 -0.26345608 0.14593935 -0.009875272
-0.3380627 0.48865494 -0.25641954 -0.2478434 -0.10163711 0.40858835 0.39361998 -0.3985578
0.11696243 0.075629905 0.63647294 -0.24179924 -0.07826279 -0.30021054 0.040514126 0.32506427
-0.38560334 -0.05800284 -0.23957185 -0.3796087 0.44014618 -0.1271276 -0.058236133 -0.029268553
0.12906925 -0.4418546 -0.5403579 0.03131657 -0.36984113 0.12277118 0.34682202 0.1804654
-0.34168595 0.5628551 0.049947247 0.309775 -0.16440843 0.05577043 -0.5583721 0.2743918
-0.12902361 0.10034557 0.529898 -0.49180195 -0.276537 -0.15596743 -0.04702076 0.12919927
-0.56518763 0.4213613 0.36718097 0.27799612 0.10695694 0.4404882 -0.20312382 0.22844417
0.3760688 -0.36238682 -0.32292512 0.05571298 0.42238492 -0.13024247 -0.04112909 0.1664263
0.63989127 -0.58286947 -0.1231395 -0.4719582 -0.31172097 0.21474457 -0.33722776 -0.2998443
0.28933132 -0.31883496 0.39790213 0.25343278 -0.3404303 -0.3858417 0.21139097 0.49988967
0.16208455 -0.20493253 0.16952379 0.068234436 0.41345406 -0.12254544 0.009258246 -0.17464435
-0.18962397 0.2987358 0.100241795 -0.3421191 -0.5609524 -0.12269232 0.26177853 -0.2748013
-0.32833377 -0.19644673 0.6009059 0.48946 -0.0038425094 -0.30912453 0.23654331 0.22465353
-0.5568498 0.02986257 0.26250896 -0.24701056 -0.44030404 0.001297881 0.2974927 0.21958922
-0.36559013 0.039234757 0.33586854 0.282763 -0.3501073 0.4459587 0.32071716 -0.018764837
0.3682882 0.04287689 -0.08676635 0.2807314 -0.3526617 0.31862608 0.05209457 -0.46455514
0.3406016 -0.18911505 -0.018276062 0.47620216 0.30540323 -0.03795872 0.43894368 0.094164856
-0.14875859 0.45203856 0.31263268 0.26775151 -0.5281619 -0.24083303 0.23947856 0.4571366
00000000: fc99 923e b4b8 863c af2b f7be 1e44 373e
00000010: 1e1a b7be baa5 7f3d 704a 973d 2c90 c0be
00000020: ae0c aa3e 3acf 00bf 6451 80bc fb23 88be
00000030: 9dd0 aa3e c6bf c3be 0183 793d 6984 ba3e
00000040: 4fda 4f3e 687b adbd 8e2e 2ebd f2d0 34be
00000050: 7476 d03e f084 bdbe 2254 d9be eb7c 8dbe
00000060: 32a3 04bf 4703 94bd 4a7d 8e3e 6455 a0be
00000070: 553e 723d 7f94 fabe 6b53 3e3f 9f3f 47be
00000080: d1b0 133e 2332 cebe 3837 09be 79e2 ebbe
00000090: 1fb7 923e ad66 14be 9d14 8f3e 53dc b6be
000000a0: e5ae 933e f375 a7bd 41ff a2be aba1 c43e
000000b0: 5e83 d73e f3f3 cdbe b91d 5e3e 3579 0cbf
000000c0: 2200 72bd edce 3dbb 3dde bdbe 223e bd3e
000000d0: 0566 6b3e 1b5d 41be 79ee 103f 502c c7be
000000e0: 9b53 923e b46b 003e e3f0 103f 625f cb3e
000000f0: 6402 943e 645a e83e d51f 0dbf bde1 d0be
00000100: 6c7f 1bbe 81e7 e23e 963b 6d3e 7240 8ebd
00000110: 3e9b 68be 4bcb 743d ba11 143f 5b68 b03e
00000120: 12e3 043e 0de5 e8bd 2fdb f3be 6b15 97be
00000130: dd3f c4be dedf b6be fdbc 2f3d daa3 e33e
00000140: 0810 88bc d400 1c3e 26fd 6fbe c168 f43e
00000150: cfb7 b03e 111d 463e 8043 bebe 7a69 1e3d
00000160: b335 e4be 82db 1f3f ac5f 9d3e bbe1 4a3e
00000170: 38c8 363a a9b1 ca3e 85c7 a0be 8d00 b93e
00000180: ddf8 15be 17d5 303e ff84 d4be 2d10 e4be
00000190: 54f9 eebe 6584 853e 581d 1a3c dccb 89be
000001a0: 7ea8 b5bd 701b 08bf 5cc9 893b 24e9 933e
000001b0: f8ec 01be b7e3 86be 2071 153e e5cb 21bc
000001c0: 8e16 adbe fb30 fa3e 6c49 83be a9ca 7dbe
000001d0: 1e27 d0bd 7e32 d13e 8f88 c93e c50f ccbe
000001e0: 008a ef3d dae3 9a3d e4ef 223f 389a 77be
000001f0: 3e48 a0bd 32b5 99be 24f2 253d d36e a63e
00000200: cd6d c5be 6394 6dbd 5352 75be 125c c2be
00000210: d75a e13e bd2d 02be 0389 6ebd 9bc4 efbc
00000220: bb2a 043e c43a e2be e554 0abf ce45 003d
00000230: d15b bdbe 756f fb3d a892 b13e eccb 383e
00000240: 76f1 aebe 4617 103f 7c95 4c3d d49a 9e3e
00000250: af5a 28be 896f 643d 79f1 0ebf 157d 8c3e
00000260: c41e 04be fa81 cd3d 65a7 073f 77cd fbbe
00000270: 4296 8dbe edb5 1fbe d798 40bd d04c 043e
00000280: 23b0 10bf abbc d73e 25ff bb3e 8255 8e3e
00000290: 3d0c db3d ab87 e13e b1ff 4fbe 45ed 693e
000002a0: 178c c03e c48a b9be 7156 a5be 4b33 643d
000002b0: d642 d83e 485e 05be fa76 28bd a86b 2a3e
000002c0: eacf 233f ef36 15bf 9030 fcbd 81a4 f1be
000002d0: e499 9fbe 00e6 5b3e 1ea9 acbe 3185 99be
000002e0: 3c23 943e 563e a3be d4b9 cb3e f1c1 813e
000002f0: e14c aebe 0b8d c5be e076 583e 8af1 ff3e
00000300: 7ef9 253e d5d9 51be a597 2d3e 7fbe 8b3d
00000310: 40b0 d33e 1bf9 fabd e6af 173c f8d5 32be
00000320: c92c 42be e6f3 983e 924b cd3d 3c2a afbe
00000330: 949a 0fbf 1c46 fbbd d607 863e c2b2 8cbe
00000340: 5d1b a8be 5529 49be f8d4 193f 809a fa3e
00000350: 9cd2 7bbb 9245 9ebe 6938 723e 930b 663e
00000360: b58d 0ebf 59a2 f43c 9367 863e 56f0 7cbe
00000370: 886f e1be a91d aa3a f750 983e ffdb 603e
00000380: a12e bbbe a0b4 203d f6f6 ab3e 50c6 903e
00000390: 4441 b3be b354 e43e 0a35 a43e b7b8 99bc
000003a0: 4590 bc3e ae9f 2f3d 8eb2 b1bd 07bc 8f3e
000003b0: 1390 b4be f522 a33e 1e61 553d 2cda edbe
000003c0: 5563 ae3e 60a7 41be aeb7 95bc c5d0 f33e
000003d0: d05d 9c3e 9a7a 1bbd 3abd e03e 81d9 c03d
000003e0: 2c54 18be 9971 e73e 6411 a03e ba16 893e
000003f0: 9e35 07bf ef9c 76be de39 753e cf0d ea3e

VAE_Encoder.layers.1.linear0.bias f4 [128]
-0.3505603 0.030052666 -0.3091391 -0.30324528 0.3491261 -0.25707352 -0.0808552 -0.18816015
-0.3455337 0.37363446 -0.4368409 -0.14593184 0.12685037 -0.05518024 -0.057885252 0.34293297
0.01887409 -0.17843722 0.31355324 0.107886806 0.11807518 0.02727609 0.16673498 0.26270506
0.05476751 0.025203208 0.33255035 0.13018346 0.43101567 -0.4511172 0.016084623 -0.29288897
0.3377902 -0.23940673 -0.072199374 0.4493185 0.42296663 -0.48931447 0.107024126 0.039507177
-0.04283485 0.2386299 -0.41535178 0.014703035 -0.3838961 0.49603108 -0.16140255 0.18166403
0.2853341 -0.099846184 0.03485195 -0.43675953 -0.30382186 0.34630072 -0.3144727 -0.25003803
0.28746012 -0.23168534 -0.09887675 0.34319168 -0.39882976 0.3050901 0.2344826 0.37139198
-0.3104187 -0.34829402 -0.21820274 0.113196805 0.097972244 -0.19950433 -0.11120427 -0.32896376
0.01820752 0.20169264 -0.109395266 0.099734336 0.16020332 0.34924313 -0.31873366 0.24122007
-0.09103373 -0.20224792 0.10907937 0.35610962 0.22098526 0.083987266 -0.33699834 -0.2021283
0.08212241 0.40683383 -0.057526052 -0.19439816 -0.056689255 0.019053234 -0.049162403 -0.046213765
0.4027357 -0.020785857 0.34424698 -0.24014491 -0.09197194 -0.35797858 -0.13436502 0.27509314
-0.00018662153 0.38627014 -0.13059954 -0.1522407 0.38338646 0.29303572 0.24458194 0.20447946
0.3355741 0.15888475 0.5150222 -0.1892639 -0.45763248 -0.546453 -0.39884013 0.0977933
0.021834794 -0.08614847 0.21667935 0.2450245 0.32758707 -0.05579458 -0.08903516 0.2918161
00000000: a47c b3be 0231 f63c 7b47 9ebe f742 9bbe
00000010: a8c0 b23e 249f 83be 6997 a5bd 0ead 40be
00000020: cbe9 b0be 044d bf3e 9ca9 dfbe 286f 15be
00000030: 10e5 013e ad04 62bd 1619 6dbd e994 af3e
00000040: d69d 9a3c 3fb8 36be 0d8a a03e c2f3 dc3d
00000050: 66d1 f13d 1b72 df3c 93bc 2a3e 4781 863e
00000060: e653 603d f576 ce3c 0a44 aa3e d04e 053e
00000070: 16ae dc3e d5f8 e6be e6c3 833c 8bf5 95be
00000080: d6f2 ac3e 0a27 75be 44dd 93bd 130d e63e
00000090: 158f d83e 6d87 fabe 772f db3d 47d2 213d
000000a0: 9873 2fbd 665b 743e fda8 d4be 00e5 703c
000000b0: 088e c4be c9f7 fd3e b646 25be 2306 3a3e
000000c0: 5017 923e 287c ccbd ebc0 0e3d f29e dfbe
000000d0: 8a8e 9bbe 544e b13e 9102 a1be fc04 80be
000000e0: f92d 933e ec3e 6dbe e57f cabd d2b6 af3e
000000f0: 6a33 ccbe c534 9c3e 351c 703e 1727 be3e
00000100: 33ef 9ebe 9853 b2be 8a70 5fbe bad3 e73d
00000110: aca5 c83d dd4a 4cbe 10bf e3bd f06d a8be
00000120: f027 953c 8488 4e3e a00a e0bd 8441 cc3d
00000130: 570c 243e ffcf b23e 0f31 a3be 6502 773e
00000140: e46f babd 141a 4fbe 0165 df3d 0054 b63e
00000150: f649 623e 8401 ac3d 0c8b acbe b9fa 4ebe
00000160: cb2f a83d 864c d03e 70a0 6bbd 5010 47be
00000170: fe32 68bd 8715 9c3c 845e 49bd a54a 3dbd
00000180: 6033 ce3e 1a47 aabc 2441 b03e 8ce8 75be
00000190: c95b bcbd f848 b7be fc96 09be 02d9 8c3e
000001a0: d6af 43b9 33c5 c53e e3bb 05be fce4 1bbe
000001b0: 3b4b c43e c708 963e b073 7a3e 1063 513e
000001c0: 5ed0 ab3e afb2 223e 7fd8 033f 65ce 41be
000001d0: ce4e eabe 58e4 0bbf c634 ccbe db47 c83d
000001e0: e2de b23c 9c6e b0bd 31e1 5d3e b4e7 7a3e
000001f0: 7eb9 a73e dc88 64bd 1158 b6bd eb68 953e

VAE_Encoder.layers.1.linear1.weight f4 [4, 128]
0.06839773 -0.12225217 0.04688917 -0.019176591 -0.010193309 0.054549705 -0.046746198 0.2184982
0.07731759 0.118796535 -0.08134113 0.09498444 0.038212348 0.07912188 0.044256195 -0.036151256
-0.15245213 -0.08335805 -0.029550407 -0.015777154 0.0024756421 0.0018784809 -0.11629083 0.08464707
0.08990355 -0.14769708 0.14511684 0.24018109 -0.07279141 -0.15597749 0.21186602 0.116204664
-0.030467989 -0.049826574 -0.03310386 -0.085319236 -0.056673232 0.2949059 0.04572359 0.018946817
-0.13782306 0.10496777 0.023511244 -0.05360747 0.073781826 -0.122926995 0.02781141 0.046260152
0.09201164 -0.025076708 -0.15204689 -0.057186007 0.054424044 0.10679412 -0.066809915 -0.0038934953
-0.01965601 -0.18551303 -0.025530577 -0.16123965 -0.08142001 0.2026062 0.007270624 0.054851037
0.13722673 -0.113762856 -0.003954651 -0.10407292 0.07134194 0.16791989 -0.008326124 0.06795281
-0.0544991 -0.17646575 -0.1509412 -0.17444673 0.05225491 -0.028089443 -0.021823226 0.14323434
0.04463318 -0.25306517 -0.021929089 0.18601118 -0.036276557 -0.17791179 -0.05018911 -0.0018061938
-0.0465939 -0.064620614 -0.09479923 0.0888063 0.21314985 -0.13789077 -0.13976164 0.03392619
0.01623876 0.16959687 -0.14969783 -0.35941347 0.06338197 -0.06727057 -0.13957305 -0.07335574
0.08711986 -0.042213265 0.0052877297 0.09619097 0.03745397 0.04879484 0.14071028 -0.011517543
-0.028131483 -0.06338648 -0.112028755 -0.010025657 0.0049380194 0.109227926 0.0910699 -0.17191958
0.026254505 -0.02743914 0.07703064 0.13198158 -0.00271956 0.09963746 -0.017755633 0.09515081
-0.21221572 -0.016496234 -0.104964465 0.016171345 0.10412674 -0.05440527 -0.016195334 0.017018398
-0.1728832 0.1254416 0.12604484 0.067625284 0.07323072 0.026380185 -0.2766806 -0.09499622
0.032588676 -0.08263071 0.055165507 0.046038136 0.072581604 -0.08697521 0.028093379 -0.004962755
0.022245163 0.0058313115 0.03105104 -0.01585627 -0.043201197 0.20539825 0.23170365 0.039344292
-0.017450035 -0.036084555 0.09165675 -0.10903008 0.03448352 0.011190561 0.08208892 -0.03196709
-0.11089665 -0.035565 0.025106864 0.06784677 -0.42508215 -0.036977604 -0.00069783005 0.049004715
-0.08917112 -0.09521622 -0.10651305 -0.11092977 -0.20185074 -0.057085928 0.009641923 -0.017790558
0.01690246 0.050057173 0.050397888 0.014743113 0.078583896 -0.08221565 0.051752966 0.011562092
-0.0033420343 -0.117187515 -0.021252118 -0.0841835 -0.05265451 -0.16478758 -0.07246591 -0.1755006
0.040406667 0.021468973 -0.08320603 -0.075700134 -0.010529701 0.024984399 0.094867386 0.003151305
-0.03954168 0.09852064 0.026534233 0.12445412 -0.078743875 -0.08273499 -0.20732886 -0.096359946
0.064276725 -0.0074511208 0.107633695 -0.06767209 0.16591318 0.028133793 -0.007746059 0.110512026
-0.06530603 0.07329454 0.025346389 0.05943859 0.040877968 0.06521073 -0.085710555 -0.0069991644
-0.056728713 -0.11972759 -0.10408537 0.05513126 0.078223675 -0.0759379 0.016257491 0.074220255
-0.04275654 0.040696044 -0.058962453 0.00866757 -0.030626545 -0.28190064 -0.13114944 0.0045174337
-0.056015827 -0.03207473 -0.097416684 0.12291379 -0.10666141 0.08470541 -0.029433446 0.06158921
00000000: 1c14 8c3d 595f fabd dc0e 403d 3a18 9dbc
00000010: d601 27bc 836f 5f3d f178 3fbd febd 5f3e
00000020: af58 9e3d 994b f33d 2e96 a6bd 3487 c23d
00000030: 8d84 1c3d a70a a23d fc45 353d 5713 14bd
00000040: 691c 1cbe a0b7 aabd b213 f2bc 173f 81bc
00000050: 623e 223b 5c37 f63a e329 eebd 715b ad3d
00000060: 5a1f b83d e73d 17be 8299 143e 08f2 753e
00000070: aa13 95bd 90b8 1fbe 68f3 583e b6fc ed3d
00000080: 0198 f9bc f316 4cbd ea97 07bd dabb aebd
00000090: 3122 68bd e8fd 963e a948 3b3d 5b36 9b3c
000000a0: 7d21 0dbe 58f9 d63d a79a c03c 8293 5bbd
000000b0: ed1a 973d 26c1 fbbd c1d4 e33c 497b 3d3d
000000c0: 9970 bc3d ab6d cdbc 2eb2 1bbe e03b 6abd
000000d0: bfeb 5e3d e0b6 da3d a3d3 88bd 032a 7fbb
000000e0: a405 a1bc 21f7 3dbe 8025 d1bc 021c 25be
000000f0: 89bf a6bd 0078 4f3e 6a3e ee3b 7bab 603d
00000100: 2a85 0c3e 80fc e8bd 0496 81bb 2f24 d5bd
00000110: b91b 923d 31f3 2b3e 4c6a 08bc d82a 8b3d
00000120: 733a 5fbd 70b3 34be 5490 1abe 2aa2 32be
00000130: 3f09 563d d51b e6bc 9fc6 b2bc 06ac 123e
00000140: 48d1 363d c291 81be a2a4 b3bc b779 3e3e
00000150: ba96 14bd 822e 36be 1993 4dbd cfbd ecba
00000160: 3fd9 3ebd d057 84bd 1926 c2bd 14e0 b53d
00000170: f443 5a3e 3d33 0dbe ad1d 0fbe 30f6 0a3d
00000180: 2607 853c cdaa 2d3e 634a 19be 0b05 b8be
00000190: 68ce 813d 27c5 89bd 3dec 0ebe 893b 96bd
000001a0: e66b b23d d1e7 2cbd b144 ad3b c5ff c43d
000001b0: 5669 193d 19dd 473d 5b16 103e 14b4 3cbc
000001c0: ff73 e6bc c5d0 81bd 556f e5bd a742 24bc
000001d0: 1ccf a13b e4b2 df3d db82 ba3d b00b 30be
000001e0: b013 d73c 0cc8 e0bc 3dc2 9d3d 2e26 073e
000001f0: a53a 32bb ba0e cc3d 4374 91bc 6ede c23d
00000200: 144f 59be 1c23 87bc 9cf7 d6bd c579 843c
00000210: 6640 d53d 0fd8 5ebd 14ac 84bc 2b6a 8b3c
00000220: 4b08 31be c373 003e e611 013e 207f 8a3d
00000230: fdf9 953d 421b d83c 14a9 8dbe 618d c2bd
00000240: b47b 053d 4a3a a9bd 3af5 613d 7c92 3c3d
00000250: aaa5 943d 0f20 b2bd 1624 e63c 9b9e a2bb
00000260: 7d3b b63c 9614 bf3b c05e fe3c 02e5 81bc
00000270: bdf3 30bd eb53 523e b943 6d3e 7b27 213d
00000280: 60f3 8ebc 66cd 13bd 89b6 bb3d 2a4b dfbd
00000290: 973e 0d3d 9d58 373c 3c1e a83d ecef 02bd
000002a0: c81d e3bd 9bac 11bd e9ac cd3c 3ff3 8a3d
000002b0: 5ea4 d9be d475 17bd 95ee 36ba 2bb9 483d
000002c0: 599f b6bd b900 c3bd 8423 dabd 262f e3bd
000002d0: f6b1 4ebe efd2 69bd 28f9 1d3c 81bd 91bc
000002e0: 0777 8a3c c008 4d3d 046e 4e3d 198d 713c
000002f0: 98f0 a03d ae60 a8bd ebfa 533d ee6e 3d3c
00000300: 0806 5bbb 0200 f0bd ec18 aebc 6668 acbd
00000310: 41ac 57bd 13be 28be 0269 94bd 6eb6 33be
00000320: 7681 253d b3df af3c ec67 aabd ac08 9bbd
00000330: c484 2cbc 15ac cc3c d549 c23d 2086 4e3b
00000340: 75f6 21bd 30c5 c93d 525e d93c cde1 fe3d
00000350: 7844 a1bd f670 a9bd 044e 54be 5d58 c5bd
00000360: 84a3 833d 8828 f4bb 0e6f dc3d aa97 8abd
00000370: 25e5 293e d778 e63c a7d2 fdbb 2154 e23d
00000380: 2bbf 85bd 731b 963d 3ba3 cf3c e175 733d
00000390: a86f 273d 348d 853d 0489 afbd 3f59 e5bb
000003a0: 5e5c 68bd bd33 f5bd b62a d5bd 51d1 613d
000003b0: bc33 a03d 5485 9bbd 6e2e 853c ca00 983d
000003c0: 7b21 2fbd e5b0 263d 9d82 71bd 6c02 0e3c
000003d0: 85e4 fabc 4855 90be 0a4c 06be fb06 943b
000003e0: da70 65bd cb60 03bd 6682 c7bd 3aba fb3d
000003f0: 4c71 dabd 087a ad3d 691e f1bc f844 7c3d

VAE_Encoder.layers.1.linear1.bias f4 [4]
0.056479793 -0.015234805 -0.095300116 -0.061880425
00000000: 5b57 673d 679b 79bc b52c c3bd 5476 7dbd

VAE_Encoder.layers.1.norm1.weight f4 [4]
1.0905089 1.1433734 1.1585177 1.1267102
00000000: cc95 8b3f 0f5a 923f 4f4a 943f 0a38 903f

VAE_Encoder.layers.1.norm1.bias f4 [4]
-0.06209695 0.09764677 0.13684855 0.018823784
00000000: 5f59 7ebd 08fb c73d 0722 0c3e 5634 9a3c

VAE_Encoder.layers.1.norm0.weight f4 [4]
1.0153632 0.9663357 0.9573159 0.9079774
00000000: 6cf7 813f c761 773f a812 753f 3571 683f

VAE_Encoder.layers.1.norm0.bias f4 [4]
-0.053464256 -0.023952287 0.04027353 -0.014826243
00000000: 56fd 5abd 9637 c4bc dbf5 243d c5e9 72bc

VAE_Encoder.last_normalization.weight f4 [4]
1.0 1.0 1.0 1.0
00000000: 0000 803f 0000 803f 0000 803f 0000 803f

VAE_Encoder.last_normalization.bias f4 [4]
0.0 0.0 0.0 0.0
00000000: 0000 0000 0000 0000 0000 0000 0000 0000

VAE_Encoder.head.weight f4 [4, 4]
0.34958595 -0.13093346 -0.06017798 0.48440504 -0.14574474 0.4194942 -0.08085489 0.23819566
-0.26981694 0.41496933 0.33264095 0.3662511 -0.020653307 -0.010869503 -0.37957543 0.43626153
00000000: eefc b23e 6c13 06be 307d 76bd f003 f83e
00000010: 1c3e 15be f2c7 d63e 4097 a5bd 90e9 733e
00000020: 7225 8abe dc76 d43e ea4f aa3e 4485 bb3e
00000030: 2031 a9bc 0016 32bc b657 c2be ac5d df3e

VAE_Encoder.head.bias f4 [4]
-0.29805517 -0.47886735 -0.4420939 0.0752005
00000000: b09a 98be 1a2e f5be 225a e2be b802 9a3d
