tabsyn/vae/ckpt/default/minor_only/model.pt (torch, 70246 bytes, 112 tensors)

VAE.Tokenizer.weight f4 [15, 4]
0.5048665 -0.2997959 0.17293403 0.21424289 0.2863532 -0.0517277 -0.0642911 0.5500892
-0.03743876 -0.006866333 -0.1475954 -0.040166695 -0.26319146 0.02534923 0.058020953 -0.17186002
-0.04179405 0.06471035 -0.26425993 0.17862765 0.59953797 -0.21690878 -0.2366524 -0.010745802
-0.17479207 0.26843685 0.060780898 -0.16389361 -0.41109282 -0.17671438 0.33882368 0.14292026
0.29399732 -0.11887233 -0.11342479 0.5448617 0.0049018865 0.24335794 0.29806817 0.068016894
0.1973377 0.35979286 0.27914754 -0.452028 -0.32555538 0.07216922 -0.16002853 -0.19048779
-0.10410018 -0.014396159 0.065937415 -0.10164149 0.036009755 -0.09191173 -0.011376033 -0.34079036
0.32020992 -0.027964076 0.35829812 0.022078365
00000000: ee3e 013f d97e 99be 9e15 313e 7d62 5b3e
00000010: e39c 923e 6de0 53bd 0dab 83bd a5d2 0c3f
00000020: 6359 19bd fafe e0bb 4023 17be d585 24bd
00000030: 08c1 86be 30a9 cf3c 61a7 6d3d 13fc 2fbe
00000040: 3d30 2bbd dc86 843d 144d 87be 2bea 363e
00000050: 527b 193f 561d 5ebe 0255 72be 290f 30bc
00000060: b1fc 32be 8e70 893e 64f5 783d bad3 27be
00000070: c27a d2be 9df4 34be 4c7a ad3e b059 123e
00000080: d186 963e 5673 f3bd 424b e8bd 0e7c 0b3f
00000090: 01a0 a03b d332 793e 649c 983e 714c 8b3d
000000a0: e512 4a3e c536 b83e 6dec 8e3e 3770 e7be
000000b0: 32af a6be 75cd 933d 85de 23be 3b0f 43be
000000c0: 7a32 d5bd dedd 6bbc 320a 873d 6a29 d0bd
000000d0: f77e 133d 383c bcbd 8a62 3abc 137c aebe
000000e0: 8ef2 a33e eb14 e5bc da72 b73e b0dd b43c

VAE.Tokenizer.bias f4 [23, 4]
-0.40350705 0.061856803 -0.54390985 0.58981746 0.11533825 -0.13651899 0.53360087 -0.30899432
0.3111455 -0.4970634 -0.12495602 -0.57497054 0.10443306 0.3399458 -0.27876288 -0.21095067
-0.23436448 -0.32402018 0.43410793 0.26391932 0.41333127 0.35686797 -0.7221375 -0.19237003
0.45545816 -0.6073427 0.37400472 0.30848634 -0.17603678 0.46321172 -0.07838918 0.59348977
0.45791462 -0.33536062 -0.14423372 -0.41598645 -0.11298083 -0.38223958 0.33286113 -0.29493016
0.57571673 -0.19320439 -0.5655252 -0.2647669 0.4731175 0.02682165 -0.20233138 -0.17668016
0.17923269 0.52662903 -0.34881622 -0.0067172507 -0.29902884 0.025509756 -0.24326861 -0.5308995
-0.029667776 -0.5585703 -0.17027831 -0.37736544 -0.5248424 -0.24958844 0.12600558 -0.062189747
-0.2789338 -0.3293039 0.09210001 0.20688517 -0.40473923 -0.30149674 0.35942158 -0.054871246
-0.30952504 0.124586955 0.014041372 0.07843675 -0.2731802 -0.33709496 0.24548963 -0.33302587
0.06427734 0.02009558 0.30591843 0.22811443 -0.1989178 0.1898159 0.032666933 0.20321715
-0.06387414 0.4827657 0.36636603 -0.010900237
00000000: 7a98 cebe 8f5d 7d3d ad3d 0bbf 47fe 163f
00000010: 7636 ec3d a2cb 0bbe 119a 083f 8134 9ebe
00000020: 774e 9f3e 187f febe f1e8 ffbd 4531 13bf
00000030: 00e1 d53d 600d ae3e 02ba 8ebe 7403 58be
00000040: 3efd 6fbe f9e5 a5be 6543 de3e 6f20 873e
00000050: 28a0 d33e 66b7 b63e 01de 38bf a6fc 44be
00000060: d031 e93e d07a 1bbf 8c7d bf3e ecf1 9d3e
00000070: fc42 34be 162a ed3e 828a a0bd f2ee 173f
00000080: c973 ea3e 63b4 abbe 01b2 13be 2dfc d4be
00000090: 7e62 e7bd e8b4 c3be c66c aa3e 1601 97be
000000a0: 2c62 133f 5fd7 45be 42c6 10bf 878f 87be
000000b0: 753c f23e 14b9 db3c f52f 4fbe a5eb 34be
000000c0: c688 373e 29d1 063f 0a98 b2be 621c dcbb
000000d0: 4f1a 99be d6f9 d03c 681b 79be 08e9 07bf
000000e0: d609 f3bc 77fe 0ebf 705d 2ebe 0b36 c1be
000000f0: 125c 06bf 1d94 7fbe 9b07 013e adba 7ebd
00000100: 69d0 8ebe 859a a8be ee9e bc3d b5d9 533e
00000110: fb39 cfbe c85d 9abe 1b06 b83e acc0 60bd
00000120: 117a 9ebe 7227 ff3d c80d 663c 72a3 a03d
00000130: 46de 8bbe b697 acbe a261 7b3e 5e82 aabe
00000140: d7a3 833d 7c9f a43c 57a1 9c3e d496 693e
00000150: 1cb1 4bbe 195f 423e c3cd 053d 2818 503e
00000160: 72d0 82bd 112d f73e 5494 bb3e e896 32bc

VAE.Tokenizer.category_embeddings.weight f4 [77, 4]
-0.011788715 -0.16620575 0.36037183 0.20010597 -0.010875763 -0.08876232 0.16223657 0.338819
-0.3782949 -0.35937762 -0.30533522 0.35366184 -0.54983705 0.27585182 0.12358283 0.036703657
-0.417779 -0.017290572 -0.16914862 -0.34262308 -0.15045656 -0.5112658 0.24410568 -0.08815732
-0.8919127 -0.22295511 -0.09025259 0.29313913 0.667186 -0.0053026956 -0.89142156 0.41580313
0.2851556 -0.4658451 0.4131785 0.63575447 -0.07259955 0.14960647 0.09599581 0.06609839
0.15050337 0.118157186 0.14937718 -0.3244479 -0.15131816 -0.35104576 -0.16065073 0.38604325
-0.03013843 0.41687417 -0.38436794 -0.3302707 -0.19256485 0.17160448 0.16757235 0.7283676
-0.16675699 -0.54722756 -0.64627784 -0.31472006 -0.048790522 0.39066306 -0.2607159 0.2018605
0.06758594 -0.40061986 -0.17282835 0.046180863 -0.32335076 0.63945746 -0.5955849 -0.2526431
-0.4536316 0.35703635 -0.0069508357 -0.40896422 0.25629008 -0.06217185 0.63990074 -0.5832161
-0.5304548 0.66136336 0.11940829 -0.42488658 1.1751837 -0.31773785 -0.42623273 -0.19606777
-0.6505951 0.42593008 -0.2395389 0.36515042 0.6706466 -0.2241284 -0.8611753 -0.596567
0.22628492 0.19713305 -0.31212425 -0.73287076 0.24341331 0.5642129 0.2316861 0.22800255
0.15830238 0.082776286 0.16881007 0.030300178 -0.5264035 -0.45713404 0.34737667 0.11114223
0.34096965 -0.3474938 -0.51577306 0.12635437 0.0061302674 -0.5304367 0.5954602 -0.005832742
-0.15878013 0.2454845 -0.17941472 -0.30855244 0.008409496 0.38226146 0.7106712 -0.65169
-0.5783968 -0.5401066 0.42150372 0.5855076 -0.17329606 -0.44951698 0.7556304 0.41491944
0.4908498 0.49531478 -0.28155565 0.2541203 -0.14945044 0.029893331 -0.5144555 0.5377661
0.025755854 -0.37305543 0.036216345 0.5703369 0.44214356 0.2328752 0.16708331 0.3988034
0.03384362 0.17045945 0.26150686 -0.44879937 -0.02531796 0.3566541 -0.18893954 -0.31190804
0.69091713 0.008708158 -0.58795613 -0.503079 -0.46495542 0.63488984 0.027975177 -0.44055068
1.1693177 -0.24030888 -0.45300475 -0.22079723 -0.27365214 0.37604278 -1.0713376 0.22013825
0.009453107 0.18032645 -0.4421817 0.2519054 -0.23150687 0.6640666 -0.26212895 -0.13872123
-0.20538776 0.0022353274 0.36335853 -0.35213742 0.10363083 -0.28860524 -0.18833575 0.035377793
0.37111163 -0.56656724 0.0883198 -0.31509593 -0.48190582 0.26803622 -0.035291623 0.12872213
0.37781078 0.4588616 0.55590326 -0.1336026 -0.23111488 -0.7332383 -0.24747373 0.21949197
0.12592806 0.009370008 -0.0020606383 -0.64855826 0.46644488 -0.0076519973 -0.21655303 -0.47441602
0.12849353 0.0074718706 0.13496406 0.119706064 -0.26302135 -0.1780494 -0.61855054 -0.3857609
-0.5282685 -0.02344262 -0.113060005 0.11596235 0.14604266 -0.3813894 0.47418007 -0.36066744
-0.29090452 0.45177597 0.06548282 -0.24936515 -0.2572761 -0.013947967 0.18239553 -0.04071181
-0.52783376 -0.15552256 0.12396454 0.2203152 0.18448605 -0.31370988 -0.15286501 -0.41986966
-0.06594642 0.36995006 -0.017187083 -0.13678795 -0.41407472 -0.6355682 0.08589683 -0.014076594
00000000: 7425 41bc d731 2abe a882 b83e 94e8 4c3e
00000010: 4230 32bc 05c9 b5bd 5821 263e af79 ad3e
00000020: deaf c1be 5800 b8be e654 9cbe 2a13 b53e
00000030: 1fc2 0cbf 733c 8d3e ff18 fd3d 9356 163d
00000040: 21e7 d5be f5a4 8dbc 4c35 2dbe 4b6c afbe
00000050: 4911 1abe 51e2 02bf d7f6 793e d38b b4bd
00000060: 6454 64bf 584e 64be 5ad6 b8bd 5516 963e
00000070: b4cc 2a3f 3cc2 adbb 3434 64bf 26e4 d43e
00000080: eaff 913e 4083 eebe 228c d33e cec0 223f
00000090: 13af 94bd 7032 193e 7499 c43d 985e 873d
000000a0: 8e1d 1a3e 65fc f13d 55f6 183e 091e a6be
000000b0: 26f3 1abe 45bc b3be a081 24be 76a7 c53e
000000c0: dee4 f6bc 8870 d53e e0cb c4be 3e19 a9be
000000d0: b82f 45be 16b9 2f3e 1698 2b3e 4d76 3a3f
000000e0: 58c2 2abe 1b17 0cbf 7772 25bf fd22 a1be
000000f0: 92d8 47bd fd04 c83e 8e7c 85be 85b4 4e3e
00000100: 7f6a 8a3d 0c1e cdbe eaf9 30be 2528 3d3d
00000110: 3b8e a5be 7cb3 233f 4178 18bf 705a 81be
00000120: 6742 e8be 78cd b63e d6c3 e3bb c263 d1be
00000130: 7438 833e e9a7 7ebd 89d0 233f a64d 15bf
00000140: e3cb 07bf 1c4f 293f 558c f43d bc8a d9be
00000150: 6b6c 963f 89ae a2be 2d3b dabe fdc5 48be
00000160: 678d 26bf 8213 da3e af49 75be fff4 ba3e
00000170: 7faf 2b3f ea81 65be fc75 5cbf 9db8 18bf
00000180: 3cb7 673e 3fdd 493e c0ce 9fbe 6b9d 3bbf
00000190: 5741 793e 4270 103f 1f3f 6d3e 8079 693e
000001a0: 051a 223e 9d86 a93d 8cdc 2c3e 1438 f83c
000001b0: 61c2 06bf 790d eabe 5bdb b13e 8a9e e33d
000001c0: 9393 ae3e b5ea b1be b409 04bf 0a63 013e
000001d0: 69e0 c83b b3ca 07bf 1470 183f 9620 bfbb
000001e0: 4297 22be 4a60 7b3e 7eb8 37be 96fa 9dbe
000001f0: fcc7 093c c6b7 c33e 8cee 353f 28d5 26bf
00000200: d011 14bf 6d44 0abf 56cf d73e d3e3 153f
00000210: 8674 31be 1727 e6be fe70 413f 5270 d43e
00000220: aa50 fb3e e699 fd3e 1028 90be 0e1c 823e
00000230: 8909 19be dce2 f43c 5bb3 03bf 0aab 093f
00000240: f1fd d23c 1f01 bfbe 9757 143d 9901 123f
00000250: a460 e23e d676 6e3e e317 2b3e f62f cc3e
00000260: 9c9f 0a3d ec8c 2e3e 3ae4 853e 08c9 e5be
00000270: 9c67 cfbc 5e9b b63e 5e79 41be 69b2 9fbe
00000280: f2df 303f a9ac 0e3c 4b84 16bf c9c9 00bf
00000290: a30e eebe 2488 223f 332c e53c dc8f e1be
000002a0: 34ac 953f 8813 76be 3df0 e7be ab18 62be
000002b0: 221c 8cbe ae88 c03e 9721 89bf ec6b 613e
000002c0: 34e1 1a3c 7fa7 383e a465 e2be bff9 803e
000002d0: 2310 6dbe 4500 2a3f c435 86be f00c 0ebe
000002e0: 2b51 52be 927e 123b 210a ba3e 5b4b b4be
000002f0: 673c d43d 11c4 93be 16db 40be 4ee8 103d
00000300: 5802 be3e 8d0a 11bf 03e1 b43d 4154 a1be
00000310: 5cbc f6be 0b3c 893e f38d 10bd bccf 033e
00000320: 6a70 c13e e8ef ea3e ad4f 0e3f 1fcf 08be
00000330: 61a9 6cbe 81b5 3bbf c169 7dbe 81c2 603e
00000340: 49f3 003e a984 193c c60b 07bb ea07 26bf
00000350: ddd1 ee3e 9bbd fabb 14c0 5dbe a8e6 f2be
00000360: cf93 033e 98d6 f43b 0534 0a3e 7428 f53d
00000370: bcaa 86be 9552 36be 5459 1ebf 7482 c5be
00000380: 9b3c 07bf bd0a c0bc 018c e7bd ab7d ed3d
00000390: 358c 153e 7945 c3be bbc7 f23e 67a9 b8be
000003a0: 70f1 94be 2e4f e73e db1b 863d 9459 7fbe
000003b0: b1b9 83be 0486 64bc e5c5 3a3e 6dc1 26bd
000003c0: 1d20 07bf 4e41 1fbe 1fe1 fd3d 4f9a 613e
000003d0: e9e9 3c3e 959e a0be a588 1cbe 28f9 d6be
000003e0: eb0e 87bd 186a bd3e edcb 8cbc 2412 0cbe
000003f0: 9a01 d4be 99b4 22bf adea af3d 84a1 66bc

VAE.encoder_mu.layers.0.attention.W_q.weight f4 [4, 4]
-0.06678264 0.45206833 0.11977191 -0.030430213 -0.055607304 -0.13824043 0.37501976 0.20919336
-0.46719018 0.09239284 0.22237344 0.09358324 0.22851568 0.28774413 0.22725241 -0.2800549
00000000: 56c5 88bd 8075 e73e fa4a f53d c848 f9bc
00000010: 7cc4 63bd e68e 0dbe 9702 c03e c936 563e
00000020: 8d33 efbe 7538 bd3d ddb5 633e 92a8 bf3d
00000030: 0400 6a3e 3353 933e dbb4 683e 5b63 8fbe

VAE.encoder_mu.layers.0.attention.W_q.bias f4 [4]
0.047801875 0.14142546 0.15113102 -0.17536432
00000000: e6cb 433d d6d1 103e 17c2 1a3e b492 33be

VAE.encoder_mu.layers.0.attention.W_k.weight f4 [4, 4]
-0.036948986 -0.4998626 0.4351827 -0.16173525 0.35862258 0.1775749 -0.115785524 -0.16077572
-0.01462631 0.34564257 0.17996311 -0.21228756 -0.15091 -0.47685403 0.11707 0.3402675
00000000: d257 17bd feed ffbe 44d0 de3e ed9d 25be
00000010: 619d b73e 32d6 353e f620 edbd 64a2 24be
00000020: 31a3 6fbc 10f8 b03e 4048 383e e961 59be
00000030: 2788 1abe 3626 f4be 65c2 ef3d 8b37 ae3e

VAE.encoder_mu.layers.0.attention.W_k.bias f4 [4]
3.5775924e-05 -3.0720166e-06 9.397161e-05 0.00012059552
00000000: 1b0e 1638 d828 4eb6 a012 c538 3ae8 fc38

VAE.encoder_mu.layers.0.attention.W_v.weight f4 [4, 4]
-0.08846912 0.019630712 -0.32412547 0.023186076 -0.027340285 0.09891118 -0.41846883 0.06933421
-0.079303086 0.023126934 -0.27999762 0.041803848 -0.07968399 -0.10661616 -0.29411882 0.08075553
00000000: 4c2f b5bd 96d0 a03c c6f3 a5be baf0 bd3c
00000010: bcf8 dfbc f291 ca3d 8c41 d6be 18ff 8d3d
00000020: a869 a2bd b274 bd3c d95b 8fbe 833a 2b3d
00000030: 5c31 a3bd 9359 dabd be96 96be 2863 a53d

VAE.encoder_mu.layers.0.attention.W_v.bias f4 [4]
0.14155948 0.11436981 -0.011485433 -0.08911918
00000000: f8f4 103e b83a ea3d 662d 3cbc 1e84 b6bd

VAE.encoder_mu.layers.0.linear0.weight f4 [128, 4]
0.35745296 -0.028110797 0.38880184 0.22571617 0.20862332 -0.570622 0.22033344 -0.111988746
-0.03041616 -0.2537142 -0.042962078 -0.5767284 -0.080744855 0.032798927 -0.5729497 0.32347724
-0.11334433 0.15994336 0.55778265 -0.5013707 -0.42480552 0.45682275 0.479064 -0.28571787
-0.4155436 0.13873145 -0.20834193 -0.11810322 0.2983387 -0.24375536 -0.3418459 -0.42738712
0.31693015 -0.035911158 0.10661626 -0.088875376 0.07094342 0.2717735 0.5625429 -0.09546165
0.33512264 0.50559384 0.4735981 -0.38640413 0.44932666 -0.19153464 -0.1586977 -0.26204932
0.15271066 0.40644452 0.09907321 -0.26749226 0.13282387 0.4969125 0.058388457 0.23949893
-0.3163244 -0.41884512 -0.085551016 0.12397025 0.48207173 -0.29799798 -0.56079936 0.07059887
-0.4282983 -0.32109103 0.09424549 0.03416031 -0.11946833 0.15613037 0.2589551 -0.22671238
-0.2371034 -0.23721832 -0.33464342 0.44579875 0.2899551 -0.45234707 0.43035012 -0.30681494
-0.061363142 0.21621029 0.10346734 0.15178657 -0.20759365 0.6393119 0.16909876 -0.08978193
-0.16333006 0.022118248 0.5275096 -0.28595868 -0.19690327 0.1996722 0.06956708 0.129612
-0.032945212 -0.38064027 0.52664506 -0.108430594 0.3593472 0.24003245 -0.20316717 -0.49154225
0.25794414 -0.36839297 -0.36725533 -0.06547826 -0.11866505 0.4641327 -0.3940158 -0.2698025
-0.26888698 -0.097655915 -0.4587114 -0.52825505 0.3128142 -0.3376066 -0.40751132 -0.28917712
-0.1834399 -0.09842295 -0.39962265 0.18197009 0.46077868 0.17182007 0.24484275 -0.68938446
0.10614453 -0.22789648 -0.09412032 0.46641523 -0.16681664 -0.0794544 0.47618523 -0.31210724
-0.43740883 -0.20678732 0.029371804 -0.3442706 0.58693576 0.23214892 -0.35446414 0.38135734
-0.1592126 -0.35338464 0.15786962 0.40175775 -0.045776583 -0.21163186 0.24636804 -0.16473179
-0.21060738 -0.16493365 -0.1397025 0.22808297 0.17043437 0.27457002 -0.28867593 -0.13819441
-0.50371855 0.47407955 -0.25204727 -0.00025521748 -0.5875249 -0.102068156 0.25958595 0.13769051
-0.087722294 -0.35791564 0.04407402 0.0040466366 -0.24263605 -0.43631494 0.36200732 -0.39751965
-0.17591394 0.32092378 -0.4103544 -0.2882376 0.3862779 0.24428941 0.28008708 0.49844828
0.4455117 -0.26119366 -0.3459069 -0.1866893 -0.22695556 -0.4133424 -0.4308276 0.23246962
0.042445477 -0.2473248 0.51839054 -0.010463856 -0.40067732 -0.25956112 0.33303326 -0.43449676
-0.40165684 -0.24851732 0.21636929 -0.2170568 0.13563743 0.36699364 -0.51820624 -0.029200645
-0.39071223 0.4599304 -0.02741951 0.12026189 0.28164795 0.19141215 0.22659844 -0.09918613
-0.53664297 0.006088716 -0.19541511 0.44649917 0.4069208 -0.22118138 0.06735476 -0.26527184
-0.101938464 0.2573532 -0.17985024 0.0631496 0.29777497 -0.32656202 -0.21514435 -0.11066376
-0.19497743 -0.019639503 -0.027866475 -0.26924965 0.071196154 -0.20923923 0.0594692 0.266095
-0.10960007 0.0057402244 0.2747637 -0.44220835 -0.07806901 -0.20485683 -0.17850731 0.5293318
0.44640708 -0.48556632 -0.14760111 -0.2661524 -0.102885 0.25261456 -0.52937424 -0.23746662
00000000: 1304 b73e 9d48 e6bc 0911 c73e 2422 673e
00000010: 5aa1 553e 4914 12bf 179f 613e 5b5a e5bd
00000020: 502b f9bc d4e6 81be 01f9 2fbd 79a4 13bf
00000030: 8f5d a5bd 2b58 063d d5ac 12bf cf9e a53e
00000040: 1221 e8bd 31c8 233e d8ca 0e3f d559 00bf
00000050: 1c80 d9be ace4 e93e e047 f53e 9d49 92be
00000060: 21c2 d4be 9e0f 0e3e 9657 55be 1ae0 f1bd
00000070: dabf 983e 019b 79be 6d06 afbe 7cd2 dabe
00000080: ab44 a23e 9417 13bd a059 da3d 4b04 b6bd
00000090: c94a 913d e525 8b3e d002 103f 6681 c3bd
000000a0: 3295 ab3e 996e 013f 737b f23e c3d6 c5be
000000b0: 250e e63e a821 44be a681 22be 542b 86be
000000c0: 2f60 1c3e 7f19 d03e e5e6 ca3d bff4 88be
000000d0: fb02 083e 516b fe3e bc28 6f3d 353f 753e
000000e0: 46f5 a1be de72 d6be 5f35 afbd 1de4 fd3d
000000f0: 1bd2 f63e 3193 98be 8c90 0fbf 2496 903d
00000100: ea49 dbbe 0b66 a4be c803 c13d aeeb 0b3d
00000110: d0ab f4bd a4e0 1f3e c395 843e 4a27 68be
00000120: 3ccb 72be 5ce9 72be 6256 abbe bc3f e43e
00000130: ff74 943e 099a e7be da56 dc3e d916 9dbe
00000140: eb57 7bbd 3b66 5d3e afe6 d33d f06d 1b3e
00000150: 6e93 54be f2a9 233f 3a28 2d3e 97df b7bd
00000160: ff3f 27be 5431 b53c df0a 073f 2d69 92be
00000170: 03a1 49be df76 4c3e 2f79 8e3d 02b9 043e
00000180: 8ff1 06bd 48e3 c2be 36d2 063f dc10 debd
00000190: 5bfc b73e 11cb 753e 0e0b 50be 6dab fbbe
000001a0: 4111 843e 019e bcbe e408 bcbe 7719 86bd
000001b0: a906 f3bd cda2 ed3e 70bc c9be 8e23 8abe
000001c0: 8eab 89be d3ff c7bd 38dc eabe b93b 07bf
000001d0: 2f29 a03e c6da acbe 53a5 d0be 060f 94be
000001e0: abd7 3bbe f991 c9bd 579b ccbe 5e56 3a3e
000001f0: 2feb eb3e 9af1 2f3e 0fb8 7a3e 807b 30bf
00000200: 4e62 d93d b25d 69be 28c2 c0bd facd ee3e
00000210: fbd1 2abe fdb8 a2bd 8dce f33e 85cc 9fbe
00000220: 0df4 dfbe 0ec0 53be 239d f03c 3c44 b0be
00000230: 6c41 163f 72b8 6d3e 537c b5be 4541 c33e
00000240: a108 23be d5ee b4be 93a8 213e 31b3 cd3e
00000250: 3a80 3bbd 06b6 58be e747 7c3e 73af 28be
00000260: 76a9 57be 5ee4 28be 2c0e 0fbe 958e 693e
00000270: 5986 2e3e 7194 8c3e 55cd 93be d682 0dbe
00000280: b3f3 00bf 8eba f23e 570c 81be b6ce 85b9
00000290: 0868 16bf 1c09 d1bd 73e8 843e befe 0c3e
000002a0: bfa7 b3bd b840 b7be f686 343d a699 843b
000002b0: 9675 78be ac64 dfbe 0659 b93e b287 cbbe
000002c0: c922 34be 1f50 a43e f919 d2be e193 93be
000002d0: 38c6 c53e 0127 7a3e 9367 8f3e 9d34 ff3e
000002e0: 1c1a e43e 2dbb 85be b61a b1be 7b2b 3fbe
000002f0: 0a67 68be 9da1 d3be 6f95 dcbe 840c 6e3e
00000300: 4fdb 2d3d b642 7dbe 3eb5 043f 9870 2bbc
00000310: 9425 cdbe 32e5 84be 5683 aa3e 5c76 debe
00000320: f7a5 cdbe 537b 7ebe e98f 5d3e 2344 5ebe
00000330: 8ae4 0a3e 97e6 bb3e 2aa9 04bf 3136 efbc
00000340: 6f0b c8be ff7b eb3e e19e e0bc de4b f63d
00000350: 2934 903e 8c01 443e 6c09 683e 1922 cbbd
00000360: 6f61 09bf da83 c73b e61a 48be 8a9b e43e
00000370: ec57 d03e 5f7d 62be 4bf1 893d b6d1 87be
00000380: 1dc5 d0bd ccc3 833e a92a 38be 9454 813d
00000390: f675 983e 2333 a7be cd4e 5cbe aea3 e2bd
000003a0: 2aa8 47be 06e3 a0bc 3c48 e4bc 17db 89be
000003b0: 4acf 913d cf42 56be fa95 733d 9b3d 883e
000003c0: 0076 e0bd 7e18 bc3b d4ad 8c3e 2269 e2be
000003d0: a5e2 9fbd fdc5 51be 9fca 36be 4a82 073f
000003e0: 788f e43e 269c f8be bf24 17be 2145 88be
000003f0: 5fb5 d2bd b256 813e 1285 07bf 732a 73be

VAE.encoder_mu.layers.0.linear0.bias f4 [128]
-0.016843027 0.35821125 0.071348295 0.43017024 -0.12395696 0.30006894 -0.048887055 -0.18330273
-0.407772 -0.14166822 -0.51272744 0.52122045 -0.168694 0.36421454 0.47404605 0.18012044
0.300521 -0.4196056 -0.23439452 -0.36403242 0.34541672 -0.26830843 0.40260696 0.32045192
-0.40030372 0.1970509 0.47101188 -0.1381162 0.30777505 -0.06961706 0.08795256 -0.38592255
0.029507235 -0.13741231 0.07223893 -0.10353899 0.083174415 0.44643706 0.39741975 -0.1705118
-0.09951018 -0.4569261 0.07092269 0.51254153 -0.26983255 0.013279543 0.3969682 -0.33410043
-0.2835755 0.07638852 0.41463628 -0.0414548 0.13211781 -0.36801302 -0.31823504 -0.3123445
0.4007824 -0.28058276 0.29786393 -0.33550656 0.22176719 -0.11023619 -0.43798617 0.24482293
0.13273476 0.229284 -0.34996796 0.45019826 -0.3905838 0.34823123 0.2152705 0.17951143
-0.2933837 0.05448439 -0.004471083 0.34207585 -0.26057202 -0.32750046 -0.49600968 0.47956827
-0.20369765 -0.20409186 -0.1290654 -0.5110629 -0.11829454 -0.3512856 0.15828389 0.15961479
-0.13906102 -0.32271346 0.15434319 -0.28630295 -0.4153396 -0.10039664 -0.11104398 -0.2963265
-0.5899295 -0.2712899 0.022535421 0.14642182 -0.5428984 0.18449098 -0.21107598 0.18808122
0.55654377 0.36364368 -0.22010505 -0.40980732 -0.16937913 -0.28562894 -0.021962717 0.16335914
-0.35598758 0.3490985 0.10663269 0.5532143 -0.31022412 0.11411194 0.40264106 -0.06167239
-0.15546021 -0.0064018597 0.5385898 0.0276564 0.36094594 -0.3744778 -0.06009663 -0.10266192
00000000: 63fa 89bc 7767 b73e 0e1f 923d 463f dc3e
00000010: 26dd fdbd a3a2 993e cb3d 48bd b6b3 3bbe
00000020: 7ec7 d0be 7911 11be 1b42 03bf b46e 053f
00000030: 1fbe 2cbe 547a ba3e 2ab6 f23e 7e71 383e
00000040: e3dd 993e 8cd6 d6be 1e05 70be 7562 babe
00000050: 76da b03e b95f 89be 8022 ce3e 4612 a43e
00000060: 9cf4 ccbe b6c7 493e 7828 f13e 556e 0dbe
00000070: b194 9d3e 6493 8ebd 7920 b43d a497 c5be
00000080: 28b9 f13c d0b5 0cbe 01f2 933d 400c d4bd
00000090: 5957 aa3d 6693 e43e 9a7a cb3e a59a 2ebe
000000a0: fecb cbbd 38f2 e9be ea3f 913d ec35 033f
000000b0: 7e27 8abe 7192 593c 6a3f cb3e 360f abbe
000000c0: cf30 91be 9671 9c3d 354b d43e 82cc 29bd
000000d0: e449 073e 346c bcbe b4ef a2be 9eeb 9fbe
000000e0: 5a33 cd3e 8ba8 8fbe 9f81 983e 84c7 abbe
000000f0: f016 633e 83c3 e1bd b93f e0be ddb2 7a3e
00000100: 9feb 073e 6dc9 6a3e 002f b3be 6380 e63e
00000110: 9afa c7be 5d4b b23e df6f 5c3e d8d1 373e
00000120: 6336 96be 062b 5f3d 2a82 92bb 9124 af3e
00000130: b269 85be 24ae a7be fbf4 fdbe f989 f53e
00000140: 1e96 50be 75fd 50be b829 04be 05d5 02bf
00000150: 6844 f2bd b5db b3be 2c15 223e 0f72 233e
00000160: 0366 0ebe b33a a5be 240c 1e3e 4d96 92be
00000170: 64a7 d4be c19c cdbd 076b e3bd 1bb8 97be
00000180: 9f05 17bf 83e6 8abe 349c b83c 9aef 153e
00000190: 64fb 0abf 34eb 3c3e 4d24 58be 5d98 403e
000001a0: a779 0e3f 812f ba3e 3863 61be 44d2 d1be
000001b0: b971 2dbe f53d 92be 28eb b3bc 9e47 273e
000001c0: 0144 b6be 0abd b23e 3d62 da3d 749f 0d3f
000001d0: b2d5 9ebe 85b3 e93d f826 ce3e 309c 7cbd
000001e0: f630 1fbe b1c6 d1bb 05e1 093f ad8f e23c
000001f0: e8cd b83e 8ebb bfbe e227 76bd 6a40 d2bd

VAE.encoder_mu.layers.0.linear1.weight f4 [4, 128]
0.09564019 0.010109891 -0.009487063 -0.16859366 0.08363952 0.03643983 0.01643047 0.019581096
-0.023918409 0.18846665 -0.18800382 -0.14474961 -0.10556805 -0.068269424 -0.03070736 -0.13116843
0.061824534 0.18397915 0.05787448 0.09729607 -0.048169486 0.16224101 0.13610339 0.043992758
0.090324976 -0.15688999 -0.055331387 -0.123545825 0.010085021 0.04510231 -0.08629893 -0.032895975
0.08575232 0.0762671 0.029343156 -0.0392082 0.048112627 0.018967627 -0.07008616 0.010950504
0.07920452 -0.1344171 0.007634587 0.050427753 -0.0235495 -0.15418111 -0.16396978 0.03753079
0.12963167 0.078257024 -0.039119758 -0.058762375 0.021851553 -0.31120467 0.051960412 -0.14624348
-0.03151367 -0.0029693486 0.046632767 0.035495993 0.012303752 0.018220339 -0.11173521 -0.06255311
-0.16479208 -0.11181815 0.025180068 -0.09110023 -0.052610554 -0.035911262 -0.051778533 -0.06704156
-0.16591227 -0.11265372 -0.17764358 0.06613141 -0.10564657 -0.02080688 -0.16024128 -0.118385024
0.12789652 0.11699831 0.11904934 -0.1224287 0.005781331 -0.13979302 -0.022406297 -0.2076033
-0.023341011 -0.020457702 -0.012381256 0.09707733 -0.06766255 0.03968859 -0.13827084 -0.01084059
-0.252238 -0.0908146 -0.101665206 0.0020492142 0.1540299 -0.08324413 -0.16870648 0.012226629
-0.031481393 0.12052509 0.07909821 0.083445415 -0.094145924 -0.15149923 -0.023325961 -0.084653564
-0.08120446 0.043867987 0.010798547 -0.00045475538 -0.030406576 -0.0063468884 0.035861474 0.09083386
0.17118002 0.017763551 0.006137066 0.16150863 0.09601749 0.045229346 0.022036057 0.018102344
-3.3143875e-05 0.09883928 -0.12603155 0.06338589 -0.06556022 0.008568327 -0.012821341 -0.031684797
-0.0008703271 -0.019133922 -0.09585021 0.08609603 0.09291156 -0.14763825 0.14110847 0.09131357
-0.045986395 0.027413968 0.058088064 0.025424765 0.020049 0.019603528 0.02265182 0.027745416
-0.18354523 0.021570291 0.1295512 0.052351404 -0.09611273 -0.10325218 0.021261498 -0.19773145
0.026927434 0.052426472 0.17300494 0.01970757 -0.01598986 0.07109496 0.08739274 0.021042064
0.0034119172 0.09506134 0.07963703 0.05298215 0.07439099 0.12867776 0.052390434 -0.008499312
-0.048289508 0.07066925 0.11291346 -0.057260443 0.03305851 0.26104265 0.0027768381 -0.035104655
-0.06037394 -0.06654957 -0.07160082 -0.029005587 -0.0062582036 -0.0176376 0.046248455 -0.08605811
-0.012616002 -0.031163167 -0.029735629 -0.11868985 -0.10909409 -0.042893156 0.010898391 -0.05178212
0.068738304 0.002580905 -0.0061640553 0.0091090165 0.122268155 -0.014309098 0.28228205 -0.053900637
0.036418688 -0.020334847 -0.0037479918 -0.06325045 -0.13119644 -0.060504243 0.090306215 -0.029942337
-0.018121101 -0.0033055511 -0.08299612 0.04091428 -0.124979675 -0.16082682 -0.030250946 -0.055308525
0.022984514 -0.048572052 -0.11931208 0.11192374 0.040394604 -0.13277212 0.043393243 0.033690266
0.11052627 0.023124656 0.047288567 0.0036096168 0.085066766 -0.047609556 -0.14892155 -0.0036952219
-0.13401268 -0.041893724 0.026875198 -0.09089046 0.008991536 0.07268471 0.03951148 0.11382789
-0.040825423 0.08972745 0.11827193 -0.018470649 0.08478685 0.09314942 -0.04729135 0.09000251
00000000: 01df c33d f5a3 253c a06f 1bbc d1a3 2cbe
00000010: 324b ab3d ee41 153d 3199 863c 8968 a03c
00000020: 8af0 c3bc 67fd 403e 1384 40be 3e39 14be
00000030: 1034 d8bd d7d0 8bbd 008e fbbc 0451 06be
00000040: b93b 7d3d 0865 3c3e ca0d 6d3d 2943 c73d
00000050: 5e4d 45bd 8222 263e b05e 0b3e c031 343d
00000060: 4dfc b83d c5a7 20be 2aa3 62bd 9805 fdbd
00000070: a53b 253c 33bd 383d 7ebd b0bd eebd 06bd
00000080: ea9e af3d ed31 9c3d 0f61 f03c c798 20bd
00000090: bf11 453d ff61 9b3c 5589 8fbd be69 333c
000000a0: fb35 a23d a3a4 09be 8f2b fa3b 558d 4e3d
000000b0: e2ea c0bc a7e1 1dbe b2e7 27be e3b9 193d
000000c0: 2abe 043e 3845 a03d 0a3c 20bd d1b0 70bd
000000d0: 0702 b33c 3856 9fbe 71d4 543d dac0 15be
000000e0: 7a14 01bd 6799 42bb 0002 3f3d 3f64 113d
000000f0: ad95 493c d242 953c 6ed5 e4bd d81b 80bd
00000100: 41bf 28be ea00 e5bd 6e46 ce3c c292 babd
00000110: 2a7e 57bd b017 13bd ba15 54bd 164d 89bd
00000120: e8e4 29be feb6 e6bd 33e8 35be e86f 873d
00000130: 3b5d d8bd 3173 aabc 4a16 24be d973 f2bd
00000140: 4ef7 023e cf9c ef3d 24d0 f33d e6bb fabd
00000150: 5271 bd3b e725 0fbe 698d b7bc f695 54be
00000160: a635 bfbc e996 a7bc c0da 4abc 7bd0 c63d
00000170: aa92 8abd 8190 223d df96 0dbe bb9c 31bc
00000180: 5725 81be 01fd b9bd d935 d0bd 1c4c 063b
00000190: 04ba 1d3e e67b aabd 64c1 2cbe 3352 483c
000001a0: a2f2 00bd dcd5 f63d 3efe a13d 6ee5 aa3d
000001b0: 94cf c0bd 9d22 1bbe 1616 bfbc d95e adbd
000001c0: 864e a6bd ebae 333d 64ec 303c 3c6c eeb9
000001d0: 3617 f9bc 8ff9 cfbb 7be3 123d 1a07 ba3d
000001e0: d149 2f3e de84 913c 7119 c93b 8562 253e
000001f0: d1a4 c43d 6842 393d f684 b43c 5e4b 943c
00000200: f703 0bb8 406c ca3d 6a0e 01be 76d0 813d
00000210: 7044 86bd 2b62 0c3c 9a10 52bc ebc7 01bd
00000220: aa26 64ba bebe 9cbc 1d4d c4bd 1e53 b03d
00000230: 6a48 be3d 7b2e 17be bd7e 103e 9c02 bb3d
00000240: 3b5c 3cbd 4293 e03c c0ed 6d3d 9947 d03c
00000250: cd3d a43c 9497 a03c 4f90 b93c 5b4a e33c
00000260: 48f3 3bbe 2eb4 b03c 12a9 043e 6d6e 563d
00000270: c0d6 c4bd e175 d3bd 982c ae3c 1d7a 4abe
00000280: ec96 dc3c 24bd 563d 3528 313e c571 a13c
00000290: 2bfd 82bc 3c9a 913d f7fa b23d 6860 ac3c
000002a0: 799a 5f3b 85af c23d bd18 a33d d003 593d
000002b0: 4e5a 983d 1ac4 033e 5a97 563d b340 0bbc
000002c0: 38cb 45bd 0abb 903d 2c3f e73d ed89 6abd
000002d0: 5c68 073d 62a7 853e 9dfb 353b e6c9 0fbd
000002e0: aa4a 77bd 244b 88bd 73a3 92bd 209d edbc
000002f0: 9e11 cdbb ba7c 90bc 056f 3d3d 3c3f b0bd
00000300: 59b3 4ebc e649 ffbc 2298 f3bc aa13 f3bd
00000310: b96c dfbd bcb0 2fbd 2a8f 323c 7d19 54bd
00000320: abc6 8c3d 6724 293b d8fb c9bb fc3d 153c
00000330: ba67 fa3d b570 6abc 4687 903e eac6 5cbd
00000340: c32b 153d 4495 a6bc dea0 75bb 7489 81bd
00000350: 5c58 06be 4cd3 77bd 77f2 b83d a249 f5bc
00000360: b472 94bc f2a1 58bb dff9 a9bd bb95 273d
00000370: 58f5 ffbd c9af 24be d5d0 f7bc 318b 62bd
00000380: 054a bc3c 7df3 46bd e459 f4bd 4638 e53d
00000390: d074 253d 6af5 07be 1dbd 313d cefe 093d
000003a0: 995b e23d eb6f bd3c a8b1 413d 528f 6c3b
000003b0: 7c37 ae3d 3d02 43bd e47e 18be 892b 72bb
000003c0: 9f3a 09be c198 2bbd 6029 dc3c c724 babd
000003d0: 3c51 133c b9db 943d cad6 213d 991e e93d
000003e0: 8f38 27bd 06c3 b73d 8e38 f23d c24f 97bc
000003f0: baa4 ad3d 20c5 be3d 93b4 41bd 3c53 b83d

VAE.encoder_mu.layers.0.linear1.bias f4 [4]
-0.050010324 0.08649742 -0.021659974 0.046049174
00000000: a0d7 4cbd 8f25 b13d 4270 b1bc 0f9e 3c3d

VAE.encoder_mu.layers.0.norm1.weight f4 [4]
1.1244118 1.1032989 1.1479598 1.0244921
00000000: baec 8f3f e638 8d3f 59f0 923f 8f22 833f

VAE.encoder_mu.layers.0.norm1.bias f4 [4]
-0.0625196 -0.05474667 -0.13693126 0.033837702
00000000: 470a 80bd 0b3e 60bd b537 0cbe 6799 0a3d

VAE.encoder_mu.layers.1.attention.W_q.weight f4 [4, 4]
-0.29957542 0.21175152 0.17238659 -0.2692662 0.48725665 -0.027472759 -0.15000805 -0.3515443
-0.57539773 -0.06702867 0.52911407 -0.39400056 0.27756548 0.010765169 -0.062924586 -0.39401388
00000000: f361 99be 64d5 583e 1c86 303e 42dd 89be
00000010: b479 f93e 8d0e e1bc b69b 19be 9dfd b3be
00000020: 444d 13bf 5446 89bd 0574 073f 71ba c9be
00000030: 101d 8e3e 6460 303c 9bde 80bd 30bc c9be

VAE.encoder_mu.layers.1.attention.W_q.bias f4 [4]
0.04184202 -0.10335161 0.09390417 -0.06726287
00000000: 8a62 2b3d 02aa d3bd d450 c03d 1ec1 89bd

VAE.encoder_mu.layers.1.attention.W_k.weight f4 [4, 4]
0.25395194 -0.42289695 -0.26509467 0.04800904 -0.06651641 -0.28458276 0.23285225 -0.57913375
0.40815938 0.5030757 -0.1853585 0.31622726 -0.06339003 0.061166342 -0.035332296 -0.38948172
00000000: fd05 823e f385 d8be 7dba 87be 21a5 443d
00000010: c139 88bd d5b4 91be d270 6e3e 1c42 14bf
00000020: 44fa d03e 92c9 003f 9ece 3dbe 8ae8 a13e
00000030: a2d2 81bd 8f89 7a3d 99b8 10bd 266a c7be

VAE.encoder_mu.layers.1.attention.W_k.bias f4 [4]
-0.00027347787 0.00010411596 -0.00034491182 -0.00013340726
00000000: 9461 8fb9 d558 da38 48d5 b4b9 3de3 0bb9

VAE.encoder_mu.layers.1.attention.W_v.weight f4 [4, 4]
-0.3946457 0.008014409 0.07958062 -0.278397 -0.28763983 0.3310965 0.3563514 -0.2580631
-0.07774906 -0.06551696 0.14729004 0.3178376 -0.4053107 0.18796913 0.20931709 -0.19374017
00000000: 000f cabe de4e 033c 2afb a23d 0d8a 8ebe
00000010: 8745 93be 7b85 a93e b173 b63e d920 84be
00000020: e63a 9fbd c22d 86bd 33d3 163e 9cbb a23e
00000030: e284 cfbe fb7a 403e 3857 563e d363 46be

VAE.encoder_mu.layers.1.attention.W_v.bias f4 [4]
0.011632115 0.0028064856 -0.017056298 -0.018076492
00000000: a094 3e3c 04ed 373b a6b9 8bbc 2715 94bc

VAE.encoder_mu.layers.1.linear0.weight f4 [128, 4]
0.2863391 0.016438577 -0.48275334 0.17896757 -0.35762528 0.062414225 0.07387423 -0.37610072
0.33212113 -0.5031634 -0.01565663 -0.26590347 0.33360815 -0.38233608 0.060929395 0.36429918
0.2029687 -0.084703885 -0.042527463 -0.176575 0.40715748 -0.37015536 -0.42447 -0.276347
-0.5181063 -0.07226725 0.27829918 -0.31316388 0.059144624 -0.48940948 0.7434561 -0.19457741
0.14421232 -0.40272468 -0.13399345 -0.46070793 0.28654292 -0.14492366 0.27945536 -0.35713845
0.28844738 -0.08176042 -0.31835687 0.38404202 0.42093801 -0.4022367 0.21689895 -0.54873216
-0.059081275 -0.0028996575 -0.37083155 0.36961317 0.22987662 -0.18883698 0.5661395 -0.3889994
0.28579888 0.12542596 0.56616676 0.3972067 0.28908196 0.45381126 -0.55126613 -0.40797302
-0.15185533 0.44317734 0.23166412 -0.0694515 -0.22715247 0.059758063 0.57839406 0.34455115
0.12977454 -0.113722704 -0.47628438 -0.29508147 -0.38330257 -0.35717887 0.042907003 0.44461295
-0.01660659 0.15235016 -0.23436576 0.47735828 0.3451494 0.19346783 -0.37160894 0.038679454
-0.44572267 0.62443984 0.30737075 0.19812895 0.00069706497 0.39589316 -0.3140216 0.36132684
-0.14645936 0.17269072 -0.4150819 -0.44543207 -0.46673685 0.26077357 0.009406446 -0.26914284
-0.088697925 -0.5316676 0.004204293 0.28888515 -0.12687814 -0.26344576 0.14593776 -0.009885122
-0.33806598 0.4886492 -0.25641719 -0.24783863 -0.1016536 0.40857255 0.39363277 -0.39854085
0.1169653 0.07562633 0.6364702 -0.24179018 -0.07825935 -0.3002225 0.040529136 0.3250576
-0.3856052 -0.058001194 -0.23957199 -0.3796073 0.44013616 -0.12713094 -0.058235116 -0.02925464
0.12906204 -0.44185656 -0.54035753 0.031321086 -0.3698359 0.12277613 0.34682295 0.18045789
-0.34168646 0.56285083 0.04994749 0.30977732 -0.16441284 0.055775966 -0.5583675 0.27439055
-0.12903099 0.10035 0.529893 -0.4917901 -0.27653936 -0.15596274 -0.047028836 0.12920251
-0.5651862 0.42135614 0.3671784 0.2780005 0.1069521 0.44049445 -0.20312105 0.22844194
0.37606546 -0.36238682 -0.32292178 0.055713814 0.4223844 -0.13024274 -0.041124005 0.1664234
0.6398789 -0.58285296 -0.12313701 -0.47197032 -0.31171373 0.21474022 -0.33723664 -0.2998401
0.28933617 -0.31883907 0.39790362 0.25343072 -0.3404336 -0.3858385 0.21138969 0.49989066
0.16209665 -0.20493408 0.16952252 0.06822399 0.41345406 -0.12253742 0.009251584 -0.174647
-0.18961425 0.29872924 0.10024412 -0.3421252 -0.56094277 -0.12269612 0.26177716 -0.27480525
-0.32832602 -0.19645128 0.6009019 0.48945653 -0.0038396746 -0.30911848 0.2365409 0.2246482
-0.5568473 0.029864429 0.26250952 -0.24701633 -0.44030276 0.0012985592 0.29749233 0.2195883
-0.36558986 0.039233923 0.33587208 0.28276256 -0.35010558 0.44595283 0.32071674 -0.018763525
0.36828902 0.04288161 -0.086765125 0.2807271 -0.35265768 0.31862634 0.052087862 -0.46454874
0.34059304 -0.18911433 -0.01827739 0.47620723 0.30540177 -0.037957817 0.4389426 0.09416744
-0.14876272 0.45203856 0.31263065 0.2677543 -0.5281649 -0.24082455 0.23947449 0.45713684
00000000: 0a9b 923e 32aa 863c 722b f7be 4643 373e
00000010: a91a b7be 0fa6 7f3d 5f4b 973d 4690 c0be
00000020: c80b aa3e 51cf 00bf 5542 80bc 8024 88be
00000030: b0ce aa3e 8ec1 c3be 1a91 793d 6c85 ba3e
00000040: 07d7 4f3e 3b79 adbd 4731 2ebd 14d0 34be
00000050: f276 d03e 0185 bdbe 2254 d9be 5b7d 8dbe
00000060: 9da2 04bf da00 94bd 3b7d 8e3e 0457 a0be
00000070: a241 723d e193 fabe 2453 3e3f 4d3f 47be
00000080: 65ac 133e ee31 cebe 9435 09be e9e1 ebbe
00000090: c1b5 923e de66 14be c614 8f3e dada b6be
000000a0: 60af 933e 0272 a7bd acff a2be 28a1 c43e
000000b0: 3085 d73e f8f1 cdbe c21a 5e3e b679 0cbf
000000c0: 35ff 71bd 2e08 3ebb a2dd bdbe f03d bd3e
000000d0: c764 6b3e 7b5e 41be 85ee 103f ee2a c7be
000000e0: 3b54 923e aa6f 003e 4ef0 103f ad5e cb3e
000000f0: 8d02 943e f359 e83e c71f 0dbf d7e1 d0be
00000100: f77f 1bbe 24e8 e23e 5c39 6d3e 973c 8ebd
00000110: a89a 68be dfc4 743d a211 143f 0269 b03e
00000120: 9ee3 043e 73e7 e8bd 8cdb f3be eb14 97be
00000130: 3c40 c4be 26e0 b6be 41bf 2f3d 4fa4 e33e
00000140: 8b0a 88bc ae01 1c3e 94fd 6fbe 4e68 f43e
00000150: 6cb7 b03e 6e1c 463e 8743 bebe 596e 1e3d
00000160: c335 e4be 4adb 1f3f b35f 9d3e 51e2 4a3e
00000170: 3dbb 363a 82b2 ca3e 70c7 a0be d5ff b83e
00000180: 71f9 15be d6d5 303e 9d85 d4be ac0f e4be
00000190: 22f8 eebe 1d84 853e 7e1d 1a3c 17cd 89be
000001a0: 42a7 b5bd 5e1b 08bf 2ac4 893b c1e8 933e
000001b0: 58ec 01be 5de2 86be b570 153e 35f5 21bc
000001c0: fc16 adbe 3a30 fa3e 1d49 83be 69c9 7dbe
000001d0: c32f d0bd 6c30 d13e 3c8a c93e 8c0d ccbe
000001e0: 818b ef3d fae1 9a3d b6ef 223f d897 77be
000001f0: 7046 a0bd c3b6 99be e101 263d f36d a63e
00000200: 0b6e c5be a992 6dbd 5c52 75be e35b c2be
00000210: 8759 e13e 9d2e 02be f287 6ebd 6da7 efbc
00000220: d728 043e 063b e2be df54 0abf 8a4a 003d
00000230: 225b bdbe 0d72 fb3d c792 b13e f4c9 383e
00000240: 87f1 aebe fe16 103f bd95 4c3d 229b 9e3e
00000250: d75b 28be 5775 643d 2cf1 0ebf eb7c 8c3e
00000260: b320 04be 4d84 cd3d 11a7 073f e9cb fbbe
00000270: 9196 8dbe b2b4 1fbe 4fa1 40bd aa4d 043e
00000280: 0bb0 10bf febb d73e cffe bb3e 1556 8e3e
00000290: b409 db3d 7d88 e13e f7fe 4fbe afec 693e
000002a0: a78b c03e c48a b9be 0156 a5be 2b34 643d
000002b0: c542 d83e 5a5e 05be a571 28bd e56a 2a3e
000002c0: 1bcf 233f da35 15bf 422f fcbd 18a6 f1be
000002d0: f198 9fbe dce4 5b3e 48aa acbe a484 99be
000002e0: df23 943e e03e a3be 06ba cb3e acc1 813e
000002f0: 504d aebe a08c c5be 8a76 583e abf1 ff3e
00000300: aafc 253e 3dda 51be 5097 2d3e 05b9 8b3d
00000310: 40b0 d33e e6f4 fabd f593 173c aad6 32be
00000320: 3d2a 42be 0af3 983e ca4c cd3d 092b afbe
00000330: f299 0fbf 1a48 fbbd a807 863e 46b3 8cbe
00000340: 591a a8be 862a 49be b5d4 193f 0c9a fa3e
00000350: 0da3 7bbb c744 9ebe c737 723e 2e0a 663e
00000360: 8b8d 0ebf 3fa6 f43c a667 863e d9f1 7cbe
00000370: 5d6f e1be 6b34 aa3a ea50 983e c1db 603e
00000380: 982e bbbe c0b3 203d 6df7 ab3e 41c6 903e
00000390: 0a41 b3be ee53 e43e fc34 a43e f7b5 99bc
000003a0: 6190 bc3e a1a4 2f3d eab1 b1bd 76bb 8f3e
000003b0: 8c8f b4be fe22 a33e 155a 553d 55d9 edbe
000003c0: 3662 ae3e 30a7 41be 77ba 95bc 6fd1 f33e
000003d0: 9f5d 9c3e a879 1bbd 16bd e03e dcda c03d
000003e0: 4155 18be 9971 e73e 2011 a03e 1717 893e
000003f0: d135 07bf b69a 76be cd38 753e d70d ea3e

VAE.encoder_mu.layers.1.linear0.bias f4 [128]
-0.35055947 0.030053763 -0.30913466 -0.303233 0.3491234 -0.25707018 -0.080860555 -0.1881629
-0.34553897 0.37363997 -0.4368426 -0.1459382 0.12684795 -0.05517681 -0.057885017 0.34293073
0.018873043 -0.1784318 0.31354994 0.107888594 0.11807228 0.027279804 0.16673562 0.26270497
0.05476548 0.025191827 0.33254844 0.13017988 0.4310186 -0.451109 0.016084313 -0.29288548
0.33779198 -0.23941511 -0.07219793 0.44932517 0.42296612 -0.4893121 0.10702398 0.0395039
-0.04283508 0.23863323 -0.41535178 0.014698984 -0.3838906 0.49602312 -0.16140193 0.18166184
0.28532815 -0.099847004 0.034841012 -0.43676066 -0.30382782 0.3462988 -0.3144713 -0.25004035
0.28746235 -0.23169315 -0.0988831 0.34319383 -0.39882308 0.30509043 0.23448117 0.3713897
-0.31041512 -0.34829724 -0.21819946 0.11319646 0.09797494 -0.19949262 -0.11120495 -0.32897142
0.018208856 0.20168269 -0.10939176 0.09972391 0.16020453 0.34924608 -0.31873935 0.24121998
-0.09103535 -0.2022618 0.1090864 0.35610864 0.22097766 0.08397545 -0.33699414 -0.20211437
0.082123645 0.4068361 -0.05752915 -0.19440088 -0.0566819 0.019041145 -0.049166597 -0.046215747
0.40273443 -0.020777227 0.34424853 -0.24015602 -0.091964714 -0.35797858 -0.13437985 0.27509555
-0.00018844163 0.38626942 -0.13060202 -0.15223265 0.38338035 0.29303584 0.24457829 0.20447358
0.33557498 0.15888605 0.5150178 -0.18926637 -0.45763248 -0.546457 -0.398837 0.09778814
0.02183313 -0.08615429 0.21668518 0.24502939 0.3275877 -0.055790637 -0.08903818 0.29182023
00000000: 887c b3be 4f33 f63c e646 9ebe 5b41 9bbe
00000010: 4dc0 b23e b49e 83be 389a a5bd c6ad 40be
00000020: 7cea b0be bd4d bf3e d5a9 dfbe d370 15be
00000030: 6ee4 013e 1401 62bd d718 6dbd 9e94 af3e
00000040: a49b 9a3c d3b6 36be 9e89 a03e b2f4 dc3d
00000050: e1cf f13d e579 df3c bebc 2a3e 4481 863e
00000060: c551 603d 175f ce3c ca43 aa3e e04d 053e
00000070: 78ae dc3e c2f7 e6be 40c3 833c 16f5 95be
00000080: 12f3 ac3e 3c29 75be 82dc 93bd f30d e63e
00000090: 048f d83e 1e87 fabe 632f db3d d7ce 213d
000000a0: d673 2fbd 455c 743e fda8 d4be 02d4 703c
000000b0: 4f8d c4be bef6 fd3e 8c46 25be 9005 3a3e
000000c0: 8816 923e 967c ccbd 73b5 0e3d 189f dfbe
000000d0: 528f 9bbe 144e b13e 6202 a1be 4a05 80be
000000e0: 442e 933e f840 6dbe 3983 cabd 1ab7 af3e
000000f0: 8a32 ccbe d034 9c3e d51b 703e ca26 be3e
00000100: bbee 9ebe 0454 b2be ae6f 5fbe 8cd3 e73d
00000110: 16a7 c83d cb47 4cbe 6cbf e3bd f16e a8be
00000120: bd2a 953c e885 4e3e c908 e0bd 0d3c cc3d
00000130: a80c 243e 62d0 b23e ce31 a3be 5f02 773e
00000140: be70 babd b81d 4fbe b168 df3d df53 b63e
00000150: f847 623e 52fb ab3d 7f8a acbe 12f7 4ebe
00000160: 7130 a83d d24c d03e b0a3 6bbd 0611 47be
00000170: 482b 68bd 2dfc 9b3c ea62 49bd b94c 3dbd
00000180: 3533 ce3e 0135 aabc 5841 b03e 76eb 75be
00000190: ff57 bcbd f848 b7be df9a 09be 53d9 8c3e
000001a0: 6a98 45b9 1bc5 c53e 89bc 05be e0e2 1bbe
000001b0: 6e4a c43e cb08 963e bb72 7a3e 8661 513e
000001c0: 7cd0 ab3e 06b3 223e 35d8 033f 0bcf 41be
000001d0: ce4e eabe 9be4 0bbf 5d34 ccbe 2645 c83d
000001e0: 64db b23c a971 b0bd b8e2 5d3e fce8 7a3e
000001f0: 93b9 a73e b984 64bd a659 b6bd 7669 953e

VAE.encoder_mu.layers.1.linear1.weight f4 [4, 128]
0.068393975 -0.12225424 0.046892602 -0.019180587 -0.010190127 0.054556288 -0.046748035 0.21849503
0.07732488 0.118794985 -0.081346795 0.09498455 0.038208287 0.079118386 0.044251375 -0.03614376
-0.15244249 -0.083361916 -0.029544255 -0.015782133 0.0024722612 0.0018840907 -0.11628751 0.084647395
0.0899111 -0.14768712 0.1451082 0.24017617 -0.07278404 -0.15598524 0.21186218 0.11619124
-0.030462518 -0.049822252 -0.033106487 -0.08532166 -0.05667054 0.2949026 0.045720372 0.018943572
-0.13782044 0.104969904 0.023511453 -0.05360438 0.07379491 -0.1229203 0.027806794 0.04625346
0.092007555 -0.025070593 -0.15204652 -0.05718726 0.054417282 0.106787905 -0.06680959 -0.0038954006
-0.01965849 -0.18550421 -0.0255342 -0.16123211 -0.08142005 0.20260347 0.007271164 0.054846525
0.13721338 -0.11375736 -0.003952241 -0.10406446 0.071348585 0.1679293 -0.008318737 0.06795015
-0.054501113 -0.17646691 -0.15093915 -0.17443834 0.05225203 -0.02809289 -0.021829644 0.14323197
0.04463402 -0.2530552 -0.021927942 0.18600622 -0.036269214 -0.17791152 -0.050190944 -0.0017960499
-0.04659606 -0.0646227 -0.09479955 0.0887967 0.2131469 -0.1378808 -0.139764 0.033923164
0.016231207 0.16959451 -0.1496941 -0.35939917 0.06338426 -0.06727057 -0.13956279 -0.07335167
0.08711676 -0.042204175 0.0052895406 0.09618774 0.037454236 0.048787974 0.14071205 -0.011516276
-0.02813381 -0.063384645 -0.11202739 -0.010033486 0.0049380194 0.10922773 0.091066256 -0.17191072
0.026250642 -0.027441315 0.07703944 0.13197999 -0.0027213255 0.09963041 -0.01775642 0.09514883
-0.21221611 -0.01649577 -0.104958326 0.01617254 0.104121365 -0.054401673 -0.01619396 0.01701003
-0.17287284 0.12543231 0.12604256 0.067616776 0.0732298 0.026370782 -0.2766692 -0.094997294
0.032584887 -0.08262338 0.05516708 0.046039093 0.0725811 -0.086972065 0.028095294 -0.004965647
0.022244234 0.005830797 0.031051919 -0.015852446 -0.04320386 0.20538697 0.2316922 0.039347086
-0.017452275 -0.036081113 0.091655634 -0.10902809 0.034485 0.011183887 0.082080424 -0.031965714
-0.11089317 -0.035569835 0.02510603 0.06784677 -0.42506427 -0.036981147 -0.00069968076 0.04900616
-0.0891676 -0.09521632 -0.10651506 -0.11091858 -0.20184323 -0.057084084 0.009648961 -0.017785182
0.01690584 0.050059687 0.050396044 0.014739769 0.07858357 -0.08221962 0.051754132 0.01156393
-0.0033344992 -0.117186405 -0.021254191 -0.084183745 -0.052657347 -0.16478373 -0.07246402 -0.1755007
0.04040585 0.021463566 -0.08320537 -0.07570235 -0.010533274 0.024985965 0.09486637 0.003149421
-0.039541475 0.09852359 0.026533851 0.12445317 -0.078745246 -0.0827431 -0.20732006 -0.09635972
0.06427623 -0.007449607 0.107629746 -0.06766783 0.16591041 0.02813157 -0.007750616 0.11050993
-0.06530467 0.07329089 0.025344735 0.059431024 0.040877502 0.06521073 -0.085711345 -0.007000168
-0.05672769 -0.11973103 -0.104083404 0.055127963 0.07822217 -0.07593601 0.0162495 0.07421976
-0.042754114 0.0406963 -0.058965866 0.008670942 -0.030626545 -0.28189102 -0.13114904 0.0045154924
-0.056009073 -0.03207266 -0.09742837 0.12290987 -0.10665828 0.08470637 -0.029435547 0.06158632
00000000: 2412 8c3d 6e60 fabd 7512 403d 9b20 9dbc
00000010: 7ef4 26bc 6a76 5f3d de7a 3fbd 29bd 5f3e
00000020: 825c 9e3d c94a f33d 2699 a6bd 4287 c23d
00000030: 4b80 1c3d d208 a23d ee40 353d 7b0b 14bd
00000040: e219 1cbe a7b9 aabd cb06 f2bc 8849 81bc
00000050: a905 223b 98f3 f63a 2528 eebd 9d5b ad3d
00000060: 5023 b83d 4b3b 17be 3e97 143e bef0 753e
00000070: cc0f 95bd 98ba 1fbe 66f2 583e acf5 ed3d
00000080: 888c f9bc 6b12 4cbd ab9a 07bd 1fbd aebd
00000090: 5e1f 68bd 79fd 963e 4945 3b3d 8d2f 9b3c
000000a0: cd20 0dbe 76fa d63d 179b c03c 4490 5bbd
000000b0: c921 973d a3bd fbbd 13cb e33c 4574 3d3d
000000c0: 756e bc3d d860 cdbc 15b2 1bbe 303d 6abd
000000d0: a8e4 5e3d 9eb3 da3d 77d3 88bd fa49 7fbb
000000e0: d70a a1bc d1f4 3dbe 192d d1bc 081a 25be
000000f0: 8ebf a6bd 4977 4f3e f242 ee3b c0a6 603d
00000100: aa81 0c3e 9ef9 e8bd cd81 81bb bf1f d5bd
00000110: 351f 923d a9f5 2b3e 504b 08bc 7329 8b3d
00000120: 8f3c 5fbd beb3 34be cb8f 1abe f79f 32be
00000130: 3906 563d 0f23 e6bc 15d4 b2bc 67ab 123e
00000140: 2ad2 363d 7490 81be 3aa2 b3bc 6a78 3e3e
00000150: 078f 14bd 702e 36be 0595 4dbd 6f69 ebba
00000160: 83db 3ebd e858 84bd 4426 c2bd 0bdb b53d
00000170: 2e43 5a3e a030 0dbe 4b1e 0fbe 04f3 0a3d
00000180: 4ff7 843c 2faa 2d3e 6949 19be 2b03 b8be
00000190: 9bcf 813d 27c5 89bd 8ce9 0ebe 6639 96bd
000001a0: 466a b23d 49de 2cbd e253 ad3b 14fe c43d
000001b0: 9d69 193d e6d5 473d d216 103e c3ae 3cbc
000001c0: e078 e6bc cfcf 81bd 9e6e e5bd 7e63 24bc
000001d0: 1ccf a13b cab2 df3d f280 ba3d 5d09 30be
000001e0: 960b d73c 9ccc e0bc dbc6 9d3d c325 073e
000001f0: 4458 32bb 070b cc3d e975 91bc 64dd c23d
00000200: 2e4f 59be 2322 87bc 64f4 d6bd 467c 843c
00000210: 953d d53d 4ad4 5ebd 32a9 84bc 9e58 8b3c
00000220: 9405 31be 5471 003e 4d11 013e aa7a 8a3d
00000230: 81f9 953d 8a07 d83c 96a7 8dbe f18d c2bd
00000240: bb77 053d 7236 a9bd e0f6 613d 7d93 3c3d
00000250: 66a5 943d 691e b2bd 1a28 e63c deb6 a2bb
00000260: 8a39 b63c 4510 bf3b 9860 fe3c fddc 81bc
00000270: 88f6 30bd f650 523e b840 6d3e 692a 213d
00000280: 13f8 8ebc cac9 13bd f3b5 bb3d 1f4a dfbd
00000290: 2540 0d3d 9f3c 373c c819 a83d 7bee 02bd
000002a0: f51b e3bd adb1 11bd 29ab cd3c 3ff3 8a3d
000002b0: 06a2 d9be 8b79 17bd c86a 37ba afba 483d
000002c0: 819d b6bd c600 c3bd 9124 dabd 4829 e3bd
000002d0: feaf 4ebe 00d1 69bd ad16 1e3c 3bb2 91bc
000002e0: 1e7e 8a3c 630b 4d3d 156c 4e3d 127f 713c
000002f0: 6cf0 a03d c362 a8bd 24fc 533d a376 3d3c
00000300: 9d87 5abb 6dff efbd 451d aebc 8768 acbd
00000310: 3baf 57bd 11bd 28be 0468 94bd 75b6 33be
00000320: 9b80 253d 5cd4 af3c 9467 aabd d509 9bbd
00000330: c193 2cbc 5eaf cc3c 4d49 c23d 8466 4e3b
00000340: 3ef6 21bd bcc6 c93d 855d d93c 4ee1 fe3d
00000350: 3045 a1bd 3775 a9bd b64b 54be 3f58 c5bd
00000360: 42a3 833d d51b f4bb fc6c dc3d 6e95 8abd
00000370: 6be4 293e 2e74 e63c e1f8 fdbb 0853 e23d
00000380: 74be 85bd 8919 963d c39f cf3c f26d 733d
00000390: 2b6f 273d 348d 853d 6e89 afbd aa61 e5bb
000003a0: 4b5b 68bd 8b35 f5bd ae29 d5bd dccd 613d
000003b0: f232 a03d 5784 9bbd ac1d 853c 8800 983d
000003c0: f01e 2fbd 2ab1 263d 3186 71bd 9110 0e3c
000003d0: 85e4 fabc 0554 90be ef4b 06be b2f6 933b
000003e0: c569 65bd 9f5e 03bd 8688 c7bd 2cb8 fb3d
000003f0: a86f dabd 897a ad3d d122 f1bc f041 7c3d

VAE.encoder_mu.layers.1.linear1.bias f4 [4]
0.056478355 -0.015235977 -0.09529911 -0.061878424
00000000: d955 673d 52a0 79bc 2e2c c3bd 3b74 7dbd

VAE.encoder_mu.layers.1.norm1.weight f4 [4]
1.090505 1.1433691 1.1585175 1.126709
00000000: ab95 8b3f eb59 923f 4d4a 943f 0038 903f

VAE.encoder_mu.layers.1.norm1.bias f4 [4]
-0.06209295 0.09764363 0.13684356 0.018829709
00000000: 2d55 7ebd 62f9 c73d b820 0c3e c340 9a3c

VAE.encoder_mu.layers.1.norm0.weight f4 [4]
1.0153662 0.9663413 0.95731753 0.90798724
00000000: 85f7 813f 2562 773f c312 753f da71 683f

VAE.encoder_mu.layers.1.norm0.bias f4 [4]
-0.05346519 -0.02394907 0.040275387 -0.014828764
00000000: 51fe 5abd d730 c4bc cef7 243d 58f4 72bc

VAE.encoder_mu.last_normalization.weight f4 [4]
1.0 1.0 1.0 1.0
00000000: 0000 803f 0000 803f 0000 803f 0000 803f

VAE.encoder_mu.last_normalization.bias f4 [4]
0.0 0.0 0.0 0.0
00000000: 0000 0000 0000 0000 0000 0000 0000 0000

VAE.encoder_mu.head.weight f4 [4, 4]
0.34958595 -0.13093346 -0.06017798 0.48440504 -0.14574474 0.4194942 -0.08085489 0.23819566
-0.26981694 0.41496933 0.33264095 0.3662511 -0.020653307 -0.010869503 -0.37957543 0.43626153
00000000: eefc b23e 6c13 06be 307d 76bd f003 f83e
00000010: 1c3e 15be f2c7 d63e 4097 a5bd 90e9 733e
00000020: 7225 8abe dc76 d43e ea4f aa3e 4485 bb3e
00000030: 2031 a9bc 0016 32bc b657 c2be ac5d df3e

VAE.encoder_mu.head.bias f4 [4]
-0.29805517 -0.47886735 -0.4420939 0.0752005
00000000: b09a 98be 1a2e f5be 225a e2be b802 9a3d

VAE.encoder_logvar.layers.0.attention.W_q.weight f4 [4, 4]
0.18652323 -0.44851768 -0.068030976 0.41943893 0.36401582 -0.13151844 0.021459414 0.6131007
-0.1136692 -0.10034406 -0.2702446 0.43881047 0.26065797 -0.2290131 -0.26321325 -0.20518148
00000000: f2ff 3e3e 1ca4 e5be d353 8bbd b3c0 d63e
00000010: 4860 ba3e c5ac 06be a7cb af3c 2bf4 1c3f
00000020: 66cb e8bd 3081 cdbd 805d 8abe c4ab e03e
00000030: f674 853e 6982 6abe e3c3 86be 181b 52be

VAE.encoder_logvar.layers.0.attention.W_q.bias f4 [4]
-0.04296968 -0.046789274 0.013030512 0.03599312
00000000: fa00 30bd 1ca6 3fbd ee7d 553c 866d 133d

VAE.encoder_logvar.layers.0.attention.W_k.weight f4 [4, 4]
-0.2394053 -0.21994336 -0.34845248 0.5011573 -0.4199917 0.27433482 -0.46252245 0.282819
-0.29408953 -0.60919976 0.09171356 0.51760656 -0.4906934 -0.20434529 0.44198948 -0.118480556
00000000: aa26 75be d538 61be 5d68 b2be d84b 003f
00000010: 2709 d7be 9d75 8c3e becf ecbe a7cd 903e
00000020: e792 96be 84f4 1bbf 52d4 bb3d dd81 043f
00000030: 2a3c fbbe e43f 51be 724c e23e efa5 f2bd

VAE.encoder_logvar.layers.0.attention.W_k.bias f4 [4]
-4.975752e-05 -1.3537195e-05 2.5087018e-05 -2.6954562e-05
00000000: bbb2 50b8 cf1d 63b7 f671 d237 7b1c e2b7

VAE.encoder_logvar.layers.0.attention.W_v.weight f4 [4, 4]
0.14892659 0.14074816 0.19002683 -0.12554492 0.028864289 0.29797783 0.272793 -0.054230615
-0.3152454 0.4271228 0.2866795 0.24690928 0.08838173 0.2734825 0.16832922 -0.1703958
00000000: 3680 183e 4920 103e 6596 423e d98e 00be
00000010: cd74 ec3c 8d90 983e 86ab 8b3e ec20 5ebd
00000020: d867 a1be d7af da3e a8c7 923e c9d5 7c3e
00000030: 7b01 b53d e605 8c3e 7f5e 2c3e 3d7c 2ebe

VAE.encoder_logvar.layers.0.attention.W_v.bias f4 [4]
-0.054389495 -0.031807385 -0.011655695 -0.06272057
00000000: 85c7 5ebd 7648 02bd 87f7 3ebc a473 80bd
