tabsyn/vae/ckpt/default/major_only_1_dim_z/decoder.pt (torch, 27971 bytes, 49 tensors)

VAE_Decoder.layers.0.attention.W_q.weight f4 [4, 4]
000000 fd c9 48 3f 97 f6 19 bb 6c 7c cb be b6 83 b9 be
       0.7843321 -0.0023492926 -0.39743364 -0.362333
000010 79 9e 94 bd a7 77 10 bf 5b 60 a3 3d f3 c6 e4 3c
       -0.07256789 -0.56432575 0.07977363 0.027926898
000020 6c bc 5c bc 16 a6 58 3e 78 4e 59 bd 9b e0 8b 3e
       -0.013472658 0.21157107 -0.05305335 0.27319798
000030 61 6c f3 be 2e 75 1b bf 14 89 1c bf fc 0c 7d be
       -0.47543624 -0.60725677 -0.61146665 -0.24711984

VAE_Decoder.layers.0.attention.W_q.bias f4 [4]
000000 1d bd de 3d 76 48 60 3d 48 ee 2f bd 49 e9 67 3d
       0.10875914 0.054756604 -0.042951852 0.056618962

VAE_Decoder.layers.0.attention.W_k.weight f4 [4, 4]
000000 9a 89 b2 3d 58 0b 0f bf 49 74 6c 3e e6 c1 00 bf
       0.08717652 -0.55876684 0.23091234 -0.50295866
000010 9c c9 f8 3d 2b a2 db be dc 28 60 3d ed d2 0b 3f
       0.12147829 -0.42897162 0.054726467 0.5461872
000020 f9 22 55 3a ea 27 39 3e af d5 02 bf 73 cc a1 be
       0.00081305165 0.18081632 -0.51107305 -0.31601295
000030 a4 89 fe 3e 3d 75 ac be ae 10 1b be 14 e6 c8 3e
       0.49714386 -0.33683196 -0.15143082 0.39238036

VAE_Decoder.layers.0.attention.W_k.bias f4 [4]
000000 a2 5e 35 ba 74 b7 5c 3b c8 7f 62 b9 0e 4f 47 3b
       -0.00069187034 0.0033678683 -0.00021600642 0.003041211

VAE_Decoder.layers.0.attention.W_v.weight f4 [4, 4]
000000 99 1f 8f 3d 16 95 0c 3f 13 96 ef 3d 96 25 11 be
       0.06988449 0.5491499 0.11698546 -0.14174494
000010 15 79 04 bf fb 17 ff be 3e 97 12 3f 4c 5e 14 3e
       -0.51747257 -0.49822983 0.5726203 0.14489096
000020 65 1b 2e 3e 27 35 4d 3e f5 da 26 bf a0 30 c3 3d
       0.17002638 0.20039807 -0.6517785 0.09530759
000030 ac 4e ef be 4e ed 1b 3f a0 d0 cb bd 68 e1 96 3e
       -0.4673971 0.60908973 -0.099519014 0.29468846

VAE_Decoder.layers.0.attention.W_v.bias f4 [4]
000000 78 ac 36 3d 4e ff 62 bb f8 05 db 3d 26 2b 7e bd
       0.044598073 -0.0034637037 0.10694498 -0.06205287

VAE_Decoder.layers.0.linear0.weight f4 [128, 4]
000000 86 94 90 3e b7 85 d0 3e 4d 56 d7 be 11 25 e1 be
       0.28238314 0.40727016 -0.4205803 -0.43973592
000010 8e ee b8 be 48 13 db 3e ea ac 8f 3d 66 f3 4f 3e
       -0.36119503 0.42788148 0.070154026 0.20307693
000020 3d cc 08 bf ac 9f 6a 3e 00 04 4c 3e 5b 31 7f 3d
       -0.5343664 0.22912472 0.19923401 0.06230293
000030 74 4b 28 3d 8c b9 d5 be e4 c3 c0 3d b9 01 99 be
       0.041087583 -0.41743124 0.09412363 -0.29884127
000040 32 21 81 3e e3 22 37 bd 1d fd 86 be 42 9f ea 3e
       0.2522064 -0.044711005 -0.26364985 0.4582463
000050 fc 05 fb be 8d 84 0b 3f 74 69 03 be c5 68 c3 be
       -0.49028003 0.5449913 -0.12833196 -0.3816587
000060 e6 92 0a bf 05 e1 0c bf 6d 90 d4 3e 74 69 a5 3e
       -0.541304 -0.5503085 0.41516438 0.32307017
000070 d5 6d 22 be c5 46 fe be a7 f0 1b 3f cf 6e 91 bd
       -0.1586221 -0.49663368 0.6091408 -0.07101213
000080 1d 17 63 be 4f 69 00 3e ab f5 1f 3f 1d 43 d3 be
       -0.22176786 0.12540172 0.62484235 -0.4126214
000090 c2 46 ad be 91 5f f6 be 75 6d 01 3f 47 0e 9f be
       -0.33843046 -0.48119786 0.50557643 -0.3106558
0000a0 15 32 0b 3f 54 97 bb bc bc c3 39 3e cb 2c ea 3e
       0.54373294 -0.022899307 0.18141073 0.457373
0000b0 97 e7 ca be 94 27 df be 52 4d 36 3e 9d cf 05 3f
       -0.39629814 -0.43584883 0.17802933 0.5226992
0000c0 53 44 98 3d c1 18 fe be 39 fc ae 3e 7f f3 0e 3f
       0.07434907 -0.4962826 0.34176806 0.55840296
0000d0 52 8c 55 be d9 fc cd bb b8 14 55 3e 81 4e 06 bf
       -0.20854309 -0.0062862453 0.20808685 -0.5246354
0000e0 0b 35 a0 3e 05 a1 c7 3d 06 1b 9c 3e 80 f6 d3 be
       0.3129047 0.09747509 0.30489367 -0.41399002
0000f0 1a a5 b7 be f0 9e 78 3e 4d 47 8d be f3 fe da be
       -0.3586815 0.2427938 -0.2759346 -0.42772636
000100 14 de 07 3e 3c 4f 36 3e 80 3f 8a 3b f0 51 a0 3d
       0.1326831 0.17803663 0.0042189956 0.07828128
000110 ba 9b f9 3e b3 dc 9a be 63 d1 0e bf a7 2a 44 be
       0.48751622 -0.30246505 -0.5578825 -0.19156896
000120 92 2b 08 3f fb 02 80 3e 92 70 43 3e 4a ef 5d 3e
       0.53191483 0.25002274 0.19085911 0.21673313
000130 89 34 46 be 9e 5d 23 bf c4 eb e1 bc 0d e2 f1 3c
       -0.19355978 -0.63814723 -0.027578242 0.029526735
000140 87 a6 09 3e d6 3a 97 bc d9 53 90 be 8c ec 8b 3e
       0.13442431 -0.018460672 -0.2818897 0.27328908
000150 54 1c e5 3e 8f 44 71 bd 84 a8 b1 be 32 d9 9f bd
       0.44748175 -0.058903273 -0.3469888 -0.078050986
000160 3c 64 ae 3c e5 ed 1e 3e 23 64 a6 3d 70 40 39 3e
       0.02128803 0.15520437 0.08124568 0.18090987
000170 11 d0 b2 3d 11 98 09 3f 56 8c e3 bd ca 70 1c be
       0.08731092 0.5374766 -0.11110751 -0.152774
000180 0d cf 56 3e 1a 75 a7 3e ee 8a f3 be 27 f9 a8 be
       0.20977421 0.3270653 -0.47566932 -0.33002588
000190 d6 af ed be 69 de 96 3c d6 78 f6 3e c9 82 52 be
       -0.46423215 0.0184166 0.48139066 -0.20557703
0001a0 cd 51 6e 3e 61 dc b7 be 4e 2c f6 be 80 5a 32 3c
       0.23273392 -0.35910323 -0.48080677 0.010885835
0001b0 e9 3f 16 bf 8e a9 d8 be 1d 46 54 bd df 69 f0 3e
       -0.5869127 -0.4231686 -0.051824678 0.46955773
0001c0 8b 2b ec be e1 03 aa 3e a2 ea 0c bf 6c 23 d1 3e
       -0.4612697 0.33206084 -0.5504552 0.40847337
0001d0 3d 65 bd be ea dd 6f be 1b 9d c6 be cb 6d 5a be
       -0.369913 -0.23424497 -0.38791737 -0.21330945
0001e0 b3 11 27 bf 39 39 03 3f 09 ed 94 be 17 85 a0 3e
       -0.6526138 0.5125919 -0.29087093 0.3135154
0001f0 2c 72 02 be 44 52 90 be ee fe a0 be fb f3 9f 3e
       -0.12738866 -0.28187764 -0.31444496 0.3124083
000200 88 17 ed 3c 99 55 56 bd 10 ce dc bd 6f c5 db be
       0.028941885 -0.052327726 -0.10781491 -0.42924067
000210 e4 15 c4 3e eb fb 1b be 14 8b 03 3f 50 e4 14 3e
       0.3829795 -0.15232818 0.5138409 0.1454022
000220 2c 95 b4 3e c0 71 7f be f9 a4 7e be d7 0b c1 3d
       0.3527006 -0.24945736 -0.2486762 0.094260864
000230 b5 04 d6 be c2 27 cf 3e b0 e3 5e 3e 83 8c 14 3e
       -0.41800466 0.4046002 0.21766543 0.14506726
000240 3d f0 09 3f f8 7b 7a 3d 18 35 43 3e 23 5d 10 3e
       0.538822 0.061153382 0.19063222 0.14098029
000250 5b c5 ef be b9 41 40 3d c9 82 ee 3e cc 02 22 be
       -0.46830258 0.046937678 0.46584156 -0.1582138
000260 35 14 b5 bd c2 de b3 be 42 e8 fd 3d 0f d4 66 be
       -0.08841745 -0.35130888 0.12397815 -0.22541831
000270 36 d9 8a be 2a c4 c5 be d5 b2 04 be 24 0d ab be
       -0.27118844 -0.38626224 -0.12958844 -0.33408463
000280 c9 e7 4c be ee d1 c9 3e a6 76 89 be 77 db 38 be
       -0.20010294 0.39417976 -0.26848334 -0.18052469
000290 1b 0a ce 3e 4f 24 b1 be db 65 9d be 83 ce c4 3e
       0.40242085 -0.34598014 -0.30741772 0.38438806
0002a0 b9 20 5b be c6 82 35 3e 54 08 fa 3e a4 9d 0a bf
       -0.21399201 0.17725667 0.4883448 -0.5414679
0002b0 3b 4e 09 bf 27 fd 94 be 7c b3 f6 be 2b 98 ac 3e
       -0.53634995 -0.2909939 -0.4818381 0.33709845
0002c0 d7 da 08 3d c5 fa 65 be 0d b0 6a 3e 3e 55 4a 3d
       0.033411827 -0.22458942 0.2291872 0.0493977
0002d0 65 76 8c 3e cf 4d f9 3e ff eb 19 3d 1f 4b f0 be
       0.27434078 0.48692176 0.03757858 -0.46932313
0002e0 74 34 cd 3e 35 a6 8c be c2 3f 70 3d 09 0b 26 be
       0.4007908 -0.27470556 0.058654554 -0.16215147
0002f0 99 bf 4c bd a2 fd 97 be 3c 59 9a be 37 72 54 3e
       -0.04998741 -0.29685694 -0.30146205 0.20746695
000300 53 84 0a be 01 8d 1f bf 46 d3 ac 3e f6 32 6b bd
       -0.1352704 -0.6232453 0.3375494 -0.057421647
000310 55 a7 c6 3e 62 7c ee bc 7d 4b 22 bd 5a e2 73 bc
       0.3879954 -0.029112045 -0.039622772 -0.014885509
000320 40 67 59 be 27 0c e1 bc a5 b2 07 bf f7 1b 83 3e
       -0.21230793 -0.027471615 -0.53006965 0.25607273
000330 20 e9 27 3d 6f 02 16 be d9 24 bc be ec aa 95 be
       0.04099381 -0.14649366 -0.36746863 -0.29231966
000340 e1 99 32 bf 2d 3b 0c be 18 4a 2a be b3 0e c7 be
       -0.6976605 -0.13694449 -0.16629827 -0.38878402
000350 92 de 68 be 24 30 2b 3d 74 fe 84 3d 9c 8e ad 3e
       -0.22741154 0.041793957 0.064938456 0.33897865
000360 f5 02 00 bf 97 2e 6a 3d 2a 7b e0 3e 7e be c9 bd
       -0.5000451 0.057173338 0.43843967 -0.098507866
000370 59 e4 f3 bd d5 c2 9f 3e 2a 21 db 3e ff 11 e5 be
       -0.11908788 0.31203333 0.4279874 -0.44740292
000380 d6 a0 f6 3e ef 23 92 3e a1 7e 9c be 60 8c 97 bd
       0.48169583 0.2854304 -0.3056536 -0.07399821
000390 57 4e 71 be 0d 6c 12 3f dd 25 a4 be b6 42 85 be
       -0.2356504 0.5719612 -0.32060137 -0.2602746
0003a0 d6 5e 73 3e 44 cf be be 1a d5 bb bd 90 68 aa be
       0.23766646 -0.37267506 -0.09171505 -0.332829
0003b0 eb 7e bf 3e 29 d0 da be a6 bc ab bd 2d af 81 3e
       0.37401518 -0.4273694 -0.08385591 0.2532896
0003c0 e6 d7 ca be ff df fc 3e 35 88 b7 bd ac 33 8e 3e
       -0.39617842 0.49389645 -0.08961526 0.27773798
0003d0 a8 57 f4 be a4 35 2b 3d df d3 33 3e a8 2d 4b be
       -0.47723126 0.041799203 0.17561291 -0.19841635
0003e0 f2 97 0c 3f 2d 6c a1 be 87 df 0a bf 45 4d 4c 3e
       0.5491935 -0.31527844 -0.54247326 0.19951351
0003f0 bd d4 f5 be 85 02 0e bf c9 9e 2f 3f 6a f0 68 be
       -0.4801387 -0.55472594 0.6860166 -0.2274796

VAE_Decoder.layers.0.linear0.bias f4 [128]
000000 6d fd 85 be 03 97 9b be 47 cb 82 3e 73 af 9a 3e
       -0.2616991 -0.3038865 0.25545713 0.30211982
000010 7e 92 6d 3e 84 f0 59 3e b6 6c a5 be 9a c2 29 3f
       0.23200414 0.21283156 -0.32309502 0.66312563
000020 e8 95 44 3d 7f 9d 2c 3e 01 2c de be ad 14 9f 3c
       0.047994524 0.16856955 -0.43392947 0.019419039
000030 a7 9d 13 be 3f f5 b0 3e 86 32 b2 3e d2 88 1c be
       -0.14415608 0.34562108 0.3480417 -0.15286568
000040 fc 00 e2 be a8 cc df 3e ea ed 11 bd 38 6f 0d bb
       -0.44141376 0.43710828 -0.035627283 -0.0021581184
000050 a4 01 4b 3c 2d 1f fc 3d 65 e7 e4 3e 62 4f b3 be
       0.012390528 0.12310634 0.4470779 -0.35021502
000060 fc 2a 31 3e a9 3e c0 3e 74 6a c5 bd 84 a6 1e 3e
       0.17301553 0.37547806 -0.09639445 0.15493208
000070 15 95 2f be bb 02 c4 3e ad ab b2 3e 26 07 de 3e
       -0.17146714 0.38283333 0.34896603 0.4336483
000080 d5 87 21 3c fd 2a 56 be 36 77 a5 3e c6 5e e8 3d
       0.009859045 -0.20914836 0.32317513 0.113462016
000090 cc 31 0f 3e f5 43 ef 3e f6 11 af be 3f 07 c4 be
       0.1398384 0.46731535 -0.3419339 -0.38286778
0000a0 b7 31 55 3e 54 32 83 be 1f 11 b2 be ef 9d 5f 3e
       0.20819746 -0.25624335 -0.34778687 0.2183759
0000b0 47 01 41 3e 4f 74 fc be 06 28 c1 3d e8 bf b4 3e
       0.18848144 -0.49307486 0.09431462 0.35302663
0000c0 1a f0 02 3f 61 a9 58 be 05 ed 68 bc fe 9e aa 3e
       0.51147616 -0.21158363 -0.014216666 0.33324426
0000d0 32 ed 4e 3d 61 67 c6 be 32 c4 99 3e 2f 9d de be
       0.050519176 -0.38750747 0.30032498 -0.43479297
0000e0 80 ac a3 be 03 eb cb bd 5b 8d 81 be 25 1a 14 3c
       -0.31967545 -0.09956934 -0.25303158 0.0090394365
0000f0 3c 51 89 3e 83 da a6 3d ac e4 0a be 68 1f 9a bd
       0.2681979 0.081471466 -0.13563794 -0.075255215
000100 cf e2 fe bc 86 a1 8a be 0d a2 29 be 36 2a 96 be
       -0.03111401 -0.27076358 -0.16565724 -0.2932908
000110 7f 26 d1 be bf d4 28 be 9a 1d 0f be 48 53 d1 3e
       -0.40849683 -0.16487406 -0.13976136 0.4088385
000120 b6 56 fa be 31 28 f4 bc 75 7f 06 be 73 84 e5 be
       -0.4889428 -0.029804321 -0.13134558 -0.44827613
000130 ef a8 bc bd 34 df f0 bd 9b a3 9d 3e 15 a3 c6 be
       -0.09211909 -0.117613226 0.30788884 -0.38796297
000140 ee bd 3d be 63 36 f7 3d ac e2 c9 be 9c 40 42 3e
       -0.18529484 0.1207092 -0.3943075 0.18969959
000150 5e 1e 92 be c7 c4 09 be 0e 19 8d be bc 2d 44 be
       -0.28538793 -0.13453971 -0.27558178 -0.19158071
000160 1d 5d 8e be 9a 2a 9b be 99 c0 96 3e 39 ef e2 3e
       -0.27805415 -0.3030594 0.29443815 0.44323137
000170 3e 3f c9 be 8e f2 d2 3e 65 cb c5 3e 91 d5 3c be
       -0.39306062 0.4120068 0.3863174 -0.18440844
000180 f3 e2 21 3e 4d 0a b2 be a3 51 07 3e 61 b1 38 3e
       0.1580923 -0.34773484 0.13214736 0.18036415
000190 0a de da 3e 0f ad c3 3d 63 28 aa 3e 5f d6 be 3e
       0.42747527 0.09554493 0.33233938 0.37272927
0001a0 84 08 ca 3c 54 7d b5 3e 7c f2 e3 3e d5 38 a7 3e
       0.024662264 0.3544718 0.44520938 0.32660547
0001b0 80 f6 19 3e 13 3f 79 bc 1b 4f 41 3e 0d 30 94 bd
       0.15035439 -0.015212792 0.18877833 -0.072357275
0001c0 47 27 86 3e 5b e4 09 be f7 6b 14 bf 9a 92 ed be
       0.2620184 -0.13466017 -0.5797724 -0.4640091
0001d0 05 76 ec be 6b 8c f5 be de 8c 92 be a6 31 c4 bd
       -0.46183792 -0.47958693 -0.28623098 -0.09579782
0001e0 4b f5 73 3e 26 91 d6 3e 1e e5 fc 3e 59 b5 36 3e
       0.2382404 0.41907614 0.49393553 0.17842616
0001f0 0a aa 4b bd b4 a1 d5 be 63 a7 0c 3f 9a e7 8b 3e
       -0.04972271 -0.41724932 0.5494291 0.27325135

VAE_Decoder.layers.0.linear1.weight f4 [4, 128]
000000 e7 67 30 3c 48 81 a1 3d 04 fc a1 3c d9 7a 1c bb
       0.01076696 0.078859866 0.01977349 -0.0023876934
000010 e4 f7 33 bd 05 be 10 be 81 0c dd 3c a4 39 b1 3d
       -0.04393758 -0.14134987 0.026983501 0.08653572
000020 52 e7 4f 3e 85 e8 3e 3e a9 61 ad bd 30 74 7c 3c
       0.20303085 0.18643387 -0.08465893 0.015408561
000030 89 94 9e 3d 99 53 f7 bc f4 0c de bc 7d 65 24 bd
       0.077431746 -0.03019123 -0.027105786 -0.04013585
000040 4a 58 bb bc b2 bd e3 bd 22 8f f5 3d 5b 3b 04 3e
       -0.022869248 -0.11120166 0.11990191 0.12913267
000050 57 58 ba bc 5b 58 17 be 72 f8 91 bc b6 0e 32 be
       -0.022747202 -0.14779799 -0.017818663 -0.17388424
000060 23 32 e8 bd 46 ac 0e 3d 51 2f c3 bd 62 ad 8b bc
       -0.11337688 0.03483226 -0.09530509 -0.017050449
000070 af 9a a1 bd 4b 86 10 bd b3 6e 81 bd 6c fc 29 3c
       -0.07890832 -0.03528432 -0.06319942 0.0103751235
000080 7c 7c 47 3d e8 2d 1d 3d 17 a5 3f bb 71 f0 89 bc
       0.048702702 0.038373858 -0.0029242688 -0.016838284
000090 e9 3f 19 3d 17 14 f7 bd 6b 83 cc 3d aa e7 ba 3d
       0.037414465 -0.12064379 0.099860035 0.09126218
0000a0 7b ec 7f 3c 29 5c e2 3c cd 5a 11 3e 00 5a 0d be
       0.015620346 0.027631836 0.14194794 -0.13803864
0000b0 46 3d 31 3e 43 39 96 bd 84 0f 49 3d a1 64 97 bc
       0.1730853 -0.073351406 0.049087062 -0.0184806
0000c0 31 59 89 3d 68 b9 b5 3d f4 95 4e 3d 25 09 c6 bc
       0.06706465 0.08873254 0.050435975 -0.024174282
0000d0 63 d3 47 be af d3 b7 be 75 14 70 3b fd 0f 3f 3d
       -0.19514231 -0.3590369 0.0036633287 0.046646107
0000e0 97 0a 1e be 93 54 70 3e d6 15 7c 3c f8 94 c3 3b
       -0.15433727 0.23469763 0.0153860655 0.005968686
0000f0 90 75 dc bd 37 5c e1 bd 4c c9 b3 bd 70 b1 24 3e
       -0.10764611 -0.11003917 -0.08778629 0.16083312
000100 4a c6 31 3e 14 bd 94 3d ad 0d bc 3d 73 14 93 3d
       0.17360798 0.07262626 0.09182296 0.07181635
000110 4e d3 ce 3d 54 b2 8b bd 9c 40 54 bd 59 ef 0b bd
       0.10098897 -0.06821123 -0.05181943 -0.034163807
000120 ee a0 0f bd 75 e0 1e bd ba 4a 06 be 68 57 2d 3e
       -0.035065584 -0.038788278 -0.13114443 0.16927874
000130 73 39 26 bd d4 4b ad bd 60 c3 de bd ae aa 21 be
       -0.04058213 -0.08461729 -0.108771086 -0.15787765
000140 a2 4c 0e 3e 02 3f ab bb 38 85 76 3e 4b ed 6b be
       0.1389642 -0.005226017 0.24074256 -0.23039739
000150 35 42 00 be 07 0c 75 3d 50 ac 08 bd d1 4a 75 bd
       -0.12525256 0.059825923 -0.033367455 -0.059885804
000160 66 4a df bd 3b 2d 01 be 58 30 2e bb e3 a1 30 3d
       -0.10902862 -0.1261491 -0.0026579108 0.043123137
000170 bc 43 57 3e ed a3 cd 3d ff 1b a1 3d 7d 12 c6 3c
       0.21021932 0.10041032 0.07866668 0.024178738
000180 11 1e b8 bc c1 6b aa bd 96 f6 1a 3e e6 ae 51 bb
       -0.022475274 -0.08321334 0.15133128 -0.0031995117
000190 53 ab da 3d 8d 2e ac bd 27 3f f6 3d 7c eb 7c bb
       0.10677209 -0.08407316 0.12023764 -0.0038592508
0001a0 72 84 c7 3d 55 7d 68 3c 64 ae 1d bd df 24 44 3d
       0.09742059 0.014190038 -0.03849639 0.047886726
0001b0 86 43 06 3d 7d 22 1a be d9 5b 70 bd 43 e2 ea bd
       0.03277924 -0.15052219 -0.058681343 -0.11468937
0001c0 ee 79 d6 3d e2 0e 4d bc c9 df b3 bd 4d f1 32 3b
       0.10472475 -0.012515755 -0.08782918 0.002730447
0001d0 52 c0 64 bc 85 cb 02 3d 59 32 d6 bd fd 5b 6d bd
       -0.013961868 0.031932373 -0.10458822 -0.057949055
0001e0 97 98 f1 bd 74 85 36 bc e6 44 97 3c c1 3e fa 3c
       -0.11796682 -0.011140216 0.01846547 0.030547502
0001f0 21 87 c4 bd 8b 6a e8 3c 8a 26 ff bc 33 92 1b 3d
       -0.09596086 0.028371116 -0.031146307 0.037981223
000200 fa fa 02 be 34 dd 9a 3d 3a 9e 4b 3d 8f 98 47 3d
       -0.12791052 0.075617224 0.049711443 0.048729476
000210 c7 b6 9e bd e5 31 b2 3d a2 15 3a bd fa 9b b7 3d
       -0.07749706 0.08700923 -0.045430787 0.08965297
000220 e2 0a 34 3e b8 0e d8 3d fa 9a c7 3d ec fa 31 bd
       0.17582276 0.105496824 0.09746356 -0.04345219
000230 e1 a2 1c 3e 84 50 9b 3c a9 3a f9 bc 03 1e 21 3e
       0.15296508 0.018959291 -0.03042348 0.15734105
000240 54 45 6e 3c 62 a6 1f bc aa 1b 65 3d b6 b1 ad 3d
       0.014542896 -0.009744259 0.055934586 0.08481161
000250 f2 5f d3 bc ff 13 8d bd 11 5a 91 3d 1c 59 10 3b
       -0.025802586 -0.068885796 0.07097257 0.002202577
000260 e7 1f 1f be 8a f3 14 3e 85 f8 b3 3d 59 3b 31 3d
       -0.15539514 0.14546028 0.08787636 0.04326949
000270 02 c4 b6 bd 68 d4 0d bd d3 4e 34 bd 70 77 e7 bd
       -0.08924104 -0.034626395 -0.044020485 -0.11302078
000280 e7 f8 b1 bd 38 73 9f 3d f8 66 b8 bc 91 04 27 be
       -0.086900525 0.07785648 -0.022510037 -0.16310336
000290 b9 d5 e6 3c 4e e4 26 3e 37 df cd bd 75 32 34 3e
       0.028178083 0.16298029 -0.100523405 0.17597373
0002a0 f6 59 d0 bc d7 cd ed 3c 32 97 0e 3e ce 97 2a bd
       -0.025433522 0.029028816 0.13924864 -0.04164868
0002b0 44 a7 16 3e b1 f8 36 bd 3e 71 31 bd 0c 93 77 bd
       0.14712244 -0.044670764 -0.043320887 -0.06044297
0002c0 b3 71 a8 3d fd 19 d4 3d 59 33 58 be 67 18 a8 bc
       0.082248114 0.10356519 -0.21113338 -0.020519448
0002d0 2e 4d bb bc 88 bc dc be ed f5 50 3e 6f ff 6d 3d
       -0.02286395 -0.43112588 0.20406313 0.05810493
0002e0 a3 5c 5b bc a7 d8 b5 bd 0b 36 93 3d fb 74 10 3e
       -0.0133887855 -0.08879214 0.07188042 0.14107125
0002f0 3f e8 37 3d e9 65 94 3d 43 65 11 3e 3b d4 e0 3d
       0.04489922 0.07246 0.14198785 0.1097798
000300 4a 98 2f be d2 98 db bd 24 fb 6f 3d 12 b4 dc 3d
       -0.17147937 -0.107225075 0.058589116 0.10776533
000310 41 54 75 bd 48 86 39 bd e8 4e 2e 3e 18 76 e9 3c
       -0.059894804 -0.045294076 0.17022288 0.028498694
000320 fc e2 cd 3d 8f ad e4 3c e6 c4 a1 3d c9 c6 6e 3e
       0.100530595 0.02791479 0.078988835 0.23318018
000330 34 68 db 3d a4 bd 23 be d6 63 c0 bd 10 6c c2 3d
       0.107132345 -0.15990311 -0.09394042 0.094932675
000340 32 83 7d bd 28 a6 c2 3b be 82 f7 bc 8d 7e d0 bd
       -0.061892696 0.0059402175 -0.03021371 -0.10180388
000350 95 9d e7 bd 46 ae 05 bd f2 ae a9 bd de a8 0d 3c
       -0.11309353 -0.032636903 -0.08285321 0.008646218
000360 a0 c0 0d 3d c2 21 fc 3d 86 20 49 3c fb 40 06 bd
       0.03460753 0.12311126 0.012275821 -0.032776814
000370 36 87 ec bd 06 de dd bc 82 ed 35 be ec ef ae 3b
       -0.11549227 -0.027083408 -0.17766383 0.0053386595
000380 b8 5f b2 3d 38 46 30 3d 8e 02 a3 3d 3e d0 82 bd
       0.08709663 0.043035716 0.07959472 -0.06387375
000390 9c c0 01 3e 85 7e 3e 3d 1e 45 02 3e 52 da 2b be
       0.12671131 0.046507377 0.12721679 -0.16782501
0003a0 4b 78 d5 bd a1 ff be bd 3f 1e c5 3d f3 0e 10 3e
       -0.10423335 -0.09326101 0.096249096 0.14068203
0003b0 d7 06 cd 3c 9d f8 dd 3d 52 1a 08 3c ac 40 aa bd
       0.025027676 0.10838435 0.0083070565 -0.083131164
0003c0 5b 1f 01 be d8 34 19 3e 4f e2 d8 be 10 7e b8 be
       -0.12609617 0.14961565 -0.4236016 -0.36033678
0003d0 3e 58 43 be 3e df 14 3e 15 3a 47 be f4 dd 84 3e
       -0.1907663 0.14538285 -0.1945575 0.25950587
0003e0 3c ca ce bd f4 3a ae 3d 4f ac f3 3d b3 b1 34 3e
       -0.10097167 0.08507338 0.118981 0.17645912
0003f0 15 dd 23 3c 72 23 5a be dd c3 cc bd ac d5 7f 3c
       0.0100014405 -0.21302584 -0.099982955 0.015614908

VAE_Decoder.layers.0.linear1.bias f4 [4]
000000 5e c1 dc 3a e8 d0 8f 3d 57 24 30 bd b9 25 b7 bc
       0.0016842296 0.070222676 -0.043003406 -0.022356855

VAE_Decoder.layers.0.norm1.weight f4 [4]
000000 b0 47 9e 3f 90 34 a1 3f 6f e9 9d 3f 15 d4 92 3f
       1.2365627 1.2594166 1.2336863 1.1470972

VAE_Decoder.layers.0.norm1.bias f4 [4]
000000 aa d0 c8 bc b9 bb 6b 3b 05 21 d6 3c 49 6f 9c bd
       -0.024513561 0.0035970046 0.026138792 -0.076384135

VAE_Decoder.layers.1.attention.W_q.weight f4 [4, 4]
000000 e4 7e 04 3d b6 8f fa be 5d 4c 93 bd 3a 59 7e bd
       0.032347575 -0.48937768 -0.071922995 -0.06209681
000010 33 0e f3 3c 8a 52 a3 3d f9 68 ec be 83 e6 c9 3e
       0.029669857 0.079747275 -0.46173838 0.3943368
000020 9e 19 fd be 29 e7 26 be cb 5d d7 3e ca 67 7e be
       -0.49433607 -0.16299118 0.42063746 -0.2484428
000030 aa ed 1b be c1 78 ae 3d 6c 9e ab 3e 07 d3 c8 be
       -0.1522738 0.08519126 0.33519304 -0.392235

VAE_Decoder.layers.1.attention.W_q.bias f4 [4]
000000 80 fa 94 3c 4a 37 3c 3c f3 f7 49 3d 06 96 1b 3d
       0.018185854 0.011487791 0.04930873 0.03798487

VAE_Decoder.layers.1.attention.W_k.weight f4 [4, 4]
000000 a6 db ff 3d 99 ad 05 bf 3c 9b 2c be 69 8e 0a be
       0.124930665 -0.52218014 -0.16856092 -0.13530888
000010 f7 ec 53 be 35 8b 35 3e f9 8d 00 3f 1c a6 73 3d
       -0.20695864 0.17728885 0.50216633 0.059484586
000020 0f 3d 42 be a8 17 aa be af ac 93 3d ec 44 f9 3e
       -0.18968605 -0.33221173 0.07210671 0.48685396
000030 5d 7e af be 01 7a de bb 54 1b a7 be 45 a5 92 3e
       -0.34276095 -0.0067894463 -0.32638037 0.28641716

VAE_Decoder.layers.1.attention.W_k.bias f4 [4]
000000 50 8f 8a ba 28 d6 48 bb 33 d2 0f 3a 3f 94 f2 b9
       -0.0010571275 -0.0030645225 0.0005486339 -0.0004626829

VAE_Decoder.layers.1.attention.W_v.weight f4 [4, 4]
000000 5e e4 20 be e2 28 17 be 05 49 54 3e 98 47 00 be
       -0.15712115 -0.1476169 0.2073098 -0.12527311
000010 34 aa 08 3f 09 8e 0e 3d c9 a8 6b bd df 35 ae be
       0.5338471 0.034803424 -0.057534013 -0.34025475
000020 92 43 82 be cf a4 f4 3e 31 05 ce 3e 1c 69 f0 be
       -0.25442177 0.4778199 0.40238336 -0.46955192
000030 7e b4 b2 be 7e ac 81 3e a3 58 d4 bd 7e 83 2c bd
       -0.3490333 0.25326914 -0.103684686 -0.04211759

VAE_Decoder.layers.1.attention.W_v.bias f4 [4]
000000 d0 c4 5c 3d 8b 2d 8d bd ab 05 5c 3d f0 25 2f 3c
       0.053898633 -0.06893452 0.053716343 0.010690197

VAE_Decoder.layers.1.linear0.weight f4 [128, 4]
000000 64 54 e8 3e 0b 06 b0 bb ed 5a c0 3e 0b 3a 28 bf
       0.45376885 -0.005371814 0.3756937 -0.65713567
000010 bf 35 9c be b7 8c a6 3e e5 a1 e7 3b d3 d7 35 be
       -0.30509755 0.32529232 0.00706886 -0.17758112
000020 bd 1c fb bd 6d 42 93 3e 0f c1 30 3f bc 43 f3 3d
       -0.12261341 0.28761616 0.69044584 0.11878154
000030 81 af 43 3f 22 9b 81 bd 2c cc d4 be c1 32 d1 be
       0.7643967 -0.06328417 -0.4156202 -0.40859035
000040 0d d8 f8 3e 18 e3 c5 be fb 70 00 3e 54 ee e4 bd
       0.48602334 -0.3864982 0.12543099 -0.1117827
000050 fb 15 56 3f aa cb 6c bf d9 00 07 3e 74 43 90 3e
       0.8362729 -0.92498267 0.13183917 0.28176463
000060 8a b2 06 3f 47 f1 82 3e 60 76 a3 be f7 d6 0c bf
       0.5261618 0.25574705 -0.3192625 -0.5501551
000070 e0 6c 84 3e 11 c4 d1 3e 7d bd 41 be c0 4c 1f 3e
       0.25864315 0.409699 -0.1891994 0.15556622
000080 0c 23 18 bf c3 cd d2 3e 5b a8 9a bd 83 24 8d 3d
       -0.5942848 0.4117261 -0.075516425 0.0689173
000090 d0 05 0d 3e 79 85 c8 3e 2d c8 ed 3e b7 e5 c9 be
       0.13771749 0.39164332 0.46441785 -0.3943307
0000a0 21 6a c3 3e b3 c7 45 3e 57 f6 09 bf 39 ef 22 3e
       0.38166907 0.1931446 -0.5389151 0.15911569
0000b0 62 0b a6 be fb 77 91 3e 39 f5 0f 3f bb 2c 41 be
       -0.3243056 0.2841185 0.56233555 -0.1886472
0000c0 46 db 22 3f f9 cb 3c bf f3 7e 78 be 95 02 d3 be
       0.63615835 -0.7374874 -0.24267177 -0.41212907
0000d0 3d 4b 93 3e ac 1c 02 be 2e fd 0b bf d2 0c dc 3e
       0.2876834 -0.1270625 -0.54683197 0.4297853
0000e0 a5 ed a7 3e a8 70 98 bd 2f 3b cf be 01 88 2e 3f
       0.32798496 -0.074433625 -0.4047484 0.68176275
0000f0 5a 23 06 bf 89 8e 84 3b 46 25 dc 3e 97 d0 a5 3e
       -0.5239769 0.004045312 0.42997187 0.32385704
000100 33 82 49 be 47 8c 91 bd 67 05 21 3f 2a 98 3a bf
       -0.19678573 -0.07106834 0.6289887 -0.72888434
000110 fd 5c 94 3e 25 08 3d 3e ca 55 5e 3e c0 75 ff bd
       0.28977194 0.18460138 0.21712413 -0.12473631
000120 df 74 40 3e 18 24 f0 bd 7e 58 35 3f ea 03 8c be
       0.18794583 -0.11725634 0.70838153 -0.27346736
000130 b1 bd 00 bf e9 9a d3 be 50 66 d5 3e b6 bb 0e 3f
       -0.50289446 -0.41329125 0.4167962 0.55755174
000140 63 2b 0b 3f f2 7a 55 3e b4 67 d9 bd 6d 46 20 3f
       0.5436308 0.20847681 -0.10615483 0.6260746
000150 c1 97 6c 3c 8a b2 e7 be 1c 14 2f 3f 65 24 32 3f
       0.014440478 -0.45253402 0.6839006 0.69586784
000160 cc 6a eb be 19 bc ca be da f3 3d 3e 07 4f 15 bf
       -0.45979917 -0.39596632 0.18550053 -0.5832371
000170 e2 d7 bd bd 94 eb 96 3e 5a 5e 2b bf 1f c2 a3 3d
       -0.09269692 0.29476607 -0.66940844 0.0799601
000180 d0 1c b3 3d 69 ea fa bd ba 73 38 be 81 1c ba be
       0.0874573 -0.122517414 -0.18012896 -0.36349872
000190 b3 7c eb be 2e 39 15 3f 0e cd 10 bf a1 e2 a6 be
       -0.45993575 0.58290374 -0.5656289 -0.3259478
0001a0 ae 45 e6 3c f3 40 03 3e a6 d1 10 bf 56 49 02 be
       0.028109398 0.12817745 -0.565699 -0.12723288
0001b0 4d 19 0b bf f6 b6 3a 3d 23 d6 c4 3e 67 d1 e5 3e
       -0.5433548 0.04558464 0.38444623 0.44886324
0001c0 e8 a8 90 be e9 c0 3d bf ba 2c 66 be f9 a4 b5 3e
       -0.28253865 -0.7412248 -0.22478 0.35477427
0001d0 d6 48 bb 3e ca 08 95 be c2 f9 6d be 0f 1d d0 bd
       0.36579007 -0.29108268 -0.23239806 -0.101617925
0001e0 92 40 7a be 8d bc bb be bd 52 95 3e 4e 23 fb 3d
       -0.24438694 -0.3666729 0.29164687 0.12262593
0001f0 88 4a 04 bf f2 cc a8 3e d6 22 98 be 67 c8 ff bd
       -0.51676226 0.3296886 -0.29714078 -0.124893956
000200 8f 73 c9 be 49 fa 7e be 49 b7 91 3c a8 e4 d9 3e
       -0.39345977 -0.24900164 0.017787592 0.42557263
000210 02 56 29 3f ed 04 0c bf f2 a9 a3 3e 2f 8f c8 3d
       0.6614686 -0.54695016 0.31965595 0.09792935
000220 62 0b 5b 3f df e2 23 bf d4 0d 97 3e 2b b8 b8 3e
       0.85564244 -0.6401805 0.29502738 0.3607801
000230 8c 0c ad 3e 9f cf da 3d c7 2e 0e bf 1f 98 a3 3e
       0.33798635 0.10684132 -0.55540127 0.31951997
000240 dd d1 9e 3e fd 95 c1 be 29 e3 5a be a9 51 3a 3e
       0.31019488 -0.37809744 -0.21375717 0.18195213
000250 89 3a 75 3e a3 b0 38 be ce 05 06 bf b3 43 00 3f
       0.2394811 -0.18036132 -0.5235261 0.501033
000260 3c 3e 4d 3e 14 2e 85 3e 87 f0 d1 be 9d 94 35 3e
       0.20043272 0.26011717 -0.4100382 0.17732473
000270 5a 9f 69 bd bb 7c ca 3e f9 05 f4 3d e7 e7 a5 3d
       -0.057036735 0.39548287 0.11915202 0.081008725
000280 b0 14 3b be 85 6f be bd a1 77 93 3e 4b f2 ff 3e
       -0.1826961 -0.092986144 0.28802207 0.49989542
000290 78 36 35 bf 3c c3 f2 bc 6b c7 1c 3f 49 44 29 be
       -0.7078624 -0.02963411 0.6124179 -0.16529955
0002a0 99 ba 72 3e 13 87 72 be 51 87 90 3e 0e a8 f7 3e
       0.23703994 -0.23684339 0.28228238 0.48370403
0002b0 b3 e4 d0 be d4 15 7f 3d 74 b3 bd bd 2b fc 0e 3f
       -0.40799484 0.062276676 -0.092627436 0.5585353
0002c0 84 90 50 3e f6 f9 c7 bc c9 e9 8f 3e a0 2f 3a be
       0.20367628 -0.024411183 0.2810805 -0.1818223
0002d0 f3 5f bb bd da 70 c8 be 40 09 d0 be 70 b4 db 3e
       -0.0914916 -0.391486 -0.40632057 0.429111
0002e0 75 0c 9a 3d 51 9e e1 3e 52 4c 1f 3f d4 c4 23 bf
       0.07521907 0.44066098 0.6222583 -0.6397221
0002f0 9c 16 c2 be 33 3d 0e 3e 08 3b 11 3f 97 95 b0 3e
       -0.37907875 0.13890533 0.567307 0.34489128
000300 60 1f 1b 3e b2 fd b8 be ca 3f a1 be f9 32 3a 3f
       0.15148687 -0.36131054 -0.3149398 0.7273403
000310 0e 71 f6 be 47 9e cc be e6 bf 6b 3e 9a 56 dd 3e
       -0.4813313 -0.39964506 0.23022422 0.43230134
000320 b6 16 10 3e 90 a9 e9 3e e4 ab 7f 3e f5 40 e2 be
       0.14071164 0.45637178 0.24967915 -0.44190183
000330 57 23 36 be e5 f6 8a be aa ca d2 3e af 91 59 3e
       -0.17786919 -0.2714149 0.41170245 0.2124698
000340 3e ad d3 3e 5d 36 f2 3d fc dc d0 be 08 4f 02 3f
       0.4134311 0.11826775 -0.40793598 0.5090184
000350 2c f6 22 be 87 a0 27 3e 95 8a a7 be 76 08 a0 be
       -0.1591422 0.1636983 -0.32722917 -0.31256455
000360 2a 5a a1 3e 54 af 15 bf 69 04 09 be f1 12 41 be
       0.31514102 -0.58470654 -0.13380589 -0.18854882
000370 fe 9c ed 3c 7e d3 05 bf 7f 67 0e bf 70 6a 1a 3f
       0.029005524 -0.52275836 -0.5562667 0.6031866
000380 17 b7 6a 3d 65 c3 64 3e bc 7d 88 3e 40 1a 19 bf
       0.057303514 0.22340162 0.26658428 -0.5980568
000390 9c 59 13 3f e2 11 02 3f c8 54 c0 3e dd 6c 26 bf
       0.5755861 0.50808537 0.37564683 -0.6500986
0003a0 7b 27 43 be 4e 4d 62 3e 30 36 2d 3f 61 ab c5 3e
       -0.1905803 0.22099802 0.6766081 0.38607314
0003b0 99 35 c1 be f4 40 73 3e d2 29 41 3e 50 17 00 bf
       -0.37736204 0.23755246 0.1886361 -0.5003557
0003c0 09 be 2f bd 13 64 be bd 22 62 0d bf 7a e0 12 3e
       -0.04290584 -0.092964314 -0.55227864 0.14343444
0003d0 f2 f6 f9 3e 6c 2c 21 bf 4f f2 27 3e a6 de 20 bd
       0.48821217 -0.6295841 0.16401027 -0.039274834
0003e0 c0 87 8d 3e fa fe ce be d8 f8 fa be 43 ac 95 bc
       0.27642632 -0.40428907 -0.49017978 -0.018270617
0003f0 5b 78 c1 be 7c 4d 26 be 2d 00 51 3e 07 03 02 be
       -0.37787136 -0.16240495 0.20410223 -0.12696467

VAE_Decoder.layers.1.linear0.bias f4 [128]
000000 d3 8d 68 be 91 ba 2b 3e 8c 21 5b 3e d4 0c ae 3e
       -0.22710352 0.16770388 0.21399516 0.33994162
000010 04 26 c5 3e 45 55 b4 bd 44 0a 02 bf 0f 45 96 3e
       0.38505566 -0.08805326 -0.50796914 0.29349563
000020 26 5b 85 be 8e 3c ee 3e a9 56 f7 3d 1f 1c a9 3e
       -0.26046103 0.46530575 0.12077076 0.33029267
000030 c1 41 89 3d 83 de 78 be 20 25 61 be 80 bc 14 ba
       0.06701995 -0.24303631 -0.21986818 -0.00056738406
000040 45 6f c9 3e 23 4a 1e 3f 5b 50 67 be 9c 53 df bd
       0.39342704 0.61831874 -0.22589247 -0.10904619
000050 77 6f a1 3d 40 c1 87 3e d1 36 e5 3d 66 c2 6a be
       0.07882588 0.26514626 0.11192096 -0.2292572
000060 e9 a3 ce 3e 0a 10 f3 3d 7a 14 e7 3e 2d 7e 5e 3e
       0.4035943 0.118682936 0.4513281 0.2172782
000070 29 d3 80 3e 4b f4 3e be 77 e6 b8 3e 6f 9d 48 bd
       0.25161102 -0.18647878 0.3611333 -0.048978265
000080 7d 31 b5 be 13 c7 ec 3d c1 0e 49 bd 1f ac f4 bd
       -0.3538932 0.11561408 -0.049086336 -0.11946892
000090 f5 fe 98 3e 6d 92 3e bd 74 b8 2f be a2 e4 61 3e
       0.29882017 -0.04652636 -0.17160207 0.22059873
0000a0 40 de 2b be 5e 1c fb 3d 07 11 11 3f 99 d3 a2 bb
       -0.16784 0.1226127 0.56666607 -0.004969072
0000b0 85 c4 19 be da 3b 51 be f2 ea cd 3e c4 7a 53 be
       -0.15016373 -0.20432988 0.40218312 -0.206523
0000c0 48 0b de 3e 16 10 fd bd 27 58 e6 3e 52 0f 98 3e
       0.43367982 -0.12356584 0.4498913 0.29699188
0000d0 ed 4f eb bc 6a 1e f2 3e 35 a9 c1 3e 8e b6 e0 3e
       -0.028724635 0.4728883 0.37824407 0.43889278
0000e0 be c5 d9 3e 99 07 55 3e ca 96 bc 3e 58 a7 60 3d
       0.42533678 0.2080368 0.36833793 0.05484709
0000f0 97 4b 98 be 8e bb 07 3e fb 3a d0 be be 6c d0 3d
       -0.2974517 0.1325514 -0.4067 0.10176991
000100 0c 12 59 be b9 80 54 be ec 4b 32 3e 27 b6 fd 3e
       -0.2119829 -0.20752229 0.17411774 0.49553034
000110 59 87 d0 be b1 e7 c9 3d bc 5a 5b bd 65 09 30 be
       -0.40728262 0.09858645 -0.053553328 -0.17191084
000120 9b 8b 94 be 84 4d 0c 3f 63 09 68 3e 98 42 a3 3d
       -0.2901276 0.5480578 0.22659831 0.07971686
000130 31 0a 16 3f 1c b8 45 3e 1f 3a b6 bd 31 f0 b7 3e
       0.586093 0.19308513 -0.088978045 0.3592544
000140 6a bc b3 be 3b 51 66 3e 8e de c9 be 60 4b 32 bd
       -0.35104686 0.22491924 -0.39427608 -0.043528914
000150 36 cb b1 3e f5 d4 04 bf 6e 82 89 3e c6 f8 70 3d
       0.3472535 -0.51887447 0.26857322 0.058831
000160 fc 47 b7 3e 61 36 cd 3e d3 b4 0f 3d 10 53 5d 3d
       0.35797107 0.4008055 0.035084557 0.054034293
000170 8c 9e fa 3e b9 85 59 3e 95 68 10 be b4 56 aa be
       0.48949087 0.21242417 -0.14102395 -0.33269274
000180 28 16 04 be b9 8f 4c 3e f4 15 33 3e 62 2b 01 3e
       -0.12899077 0.19976701 0.17488843 0.12614205
000190 f2 92 89 3e 25 0b e1 3e 9a be 02 be 8f e7 84 be
       0.26869923 0.43953815 -0.12768021 -0.25957915
0001a0 1a ac 5e bd ea 6a 5f 3d bf 13 1a 3f 14 a7 10 3e
       -0.054363348 0.05454532 0.6018638 0.14126235
0001b0 de 2e 2c 3f 92 a6 cb 3d 4e 90 29 3d b3 ce cd 3e
       0.67259014 0.0994388 0.041397385 0.4019676
0001c0 1a 18 89 3c 1f 11 36 3d 4e 10 ab bd 5d bd d4 3e
       0.016735125 0.04444992 -0.08352719 0.41550723
0001d0 3e 71 e1 3e 89 31 bc be d4 45 44 be 5a f4 ff be
       0.4403171 -0.36756542 -0.19167262 -0.49991113
0001e0 67 e9 fb 3d 2e b7 db be cb e7 20 3e da 0d 2f bd
       0.12300377 -0.42913193 0.15713422 -0.04273782
0001f0 de 62 ab 3e 9d aa 5f 3e 38 30 f4 3e 44 9d f8 be
       0.33473867 0.21842428 0.47693038 -0.48557484

VAE_Decoder.layers.1.linear1.weight f4 [4, 128]
000000 77 ca 4b 3d 79 24 a0 be dc 86 5b be 7c 3c 2f bd
       0.049753632 -0.31277826 -0.21438164 -0.04278229
000010 e6 fd 13 3c 26 24 b9 be 3a ff 85 3c 06 15 49 3d
       0.009032702 -0.36160392 0.016357053 0.049092315
000020 ce 39 1a bd 4b 36 4c be da 86 69 3d 75 89 ef bd
       -0.037652783 -0.19942586 0.05701337 -0.1169614
000030 6d 16 2f 3e 92 8f 70 3e 9b 45 13 3e 08 22 90 bd
       0.17098399 0.23492268 0.14382021 -0.07037741
000040 85 ef 8f be 81 8f 4f be 98 71 26 bf 2b 32 b0 bd
       -0.28112426 -0.20269586 -0.6501708 -0.08603319
000050 7b cd 82 3d 87 31 d9 bd 90 0c 26 be 20 02 83 bd
       0.063868485 -0.1060515 -0.1621573 -0.0639689
000060 82 c2 b6 bc 39 12 8d bd 76 41 2e 3e 74 87 ae 3d
       -0.022309545 -0.06888241 0.17017159 0.085219294
000070 d0 be 17 3e d9 87 a4 3d 76 8c 02 be 77 d0 82 be
       0.14818883 0.080337234 -0.12748894 -0.2554967
000080 5e 21 13 3e 8b 11 01 be c4 25 9f be b7 e1 5c 3e
       0.14368197 -0.12604348 -0.310835 0.21570478
000090 78 06 90 3d 80 c5 ed 3d 3e 63 06 3e d9 1f 9b bd
       0.07032484 0.11609936 0.13123795 -0.07574434
0000a0 8a 2e 75 3e 2f a6 3a be 22 4d 73 3d 8e cf 48 3c
       0.23943534 -0.18227457 0.05939973 0.012256516
0000b0 07 c4 15 be e5 c2 b0 3d b7 0d 09 be b6 c0 45 be
       -0.1462556 0.08630923 -0.13384138 -0.19311795
0000c0 5a 82 f9 3d 62 d5 f8 3d 3c f2 5e be 5a 05 41 be
       0.12183066 0.121500745 -0.21772093 -0.18849698
0000d0 08 00 10 3d 0b 21 a3 bd fc 23 a7 bb 80 0f 37 3e
       0.03515628 -0.07965287 -0.005100725 0.17877007
0000e0 4f 55 05 bd 1a 69 0b be 6b cb af bd 4f 0a 3d be
       -0.03255206 -0.13614312 -0.08583721 -0.18460964
0000f0 d2 76 e5 3c 23 4c f3 bc b5 a9 29 3d 83 ab 01 be
       0.02801076 -0.02969939 0.04142161 -0.12663083
000100 0b a1 19 3e 3e be 07 3e 8e fe eb 3b 2d c1 5a be
       0.1500284 0.13256165 0.007201976 -0.21362753
000110 29 de 42 be d4 52 a8 3d 13 ef 23 be 87 e4 39 3e
       -0.1903006 0.08218923 -0.16009168 0.18153583
000120 3e 51 1c 3e 37 17 1b be 3a f7 14 3d a3 72 16 3e
       0.15265366 -0.15145575 0.036368586 0.14692168
000130 29 d4 cf 3d c5 26 b9 3d 02 39 6d bc 55 3e 4e 3d
       0.10147888 0.09040598 -0.014478924 0.050352413
000140 54 7c 75 3c 3f 60 47 3e 4d ae 0f bc 9c 7c 73 be
       0.014983255 0.19470309 -0.008769584 -0.23778003
000150 00 fd 38 be b5 c4 70 3e 07 c9 2a bd 92 c0 b0 3d
       -0.18065262 0.23512538 -0.04169562 0.0863048
000160 c5 93 3f bd 68 e1 79 be d9 ec f4 3d 6b a4 4f 3e
       -0.046771783 -0.24402392 0.119592376 0.20277564
000170 6c f6 46 be 5e 3c 24 be 43 f5 6c 3e d5 96 6e 3e
       -0.1942994 -0.16038653 0.23140435 0.23299725
000180 53 97 1d be b4 3f 8f 3c 03 3e 24 3d 95 e2 b1 bd
       -0.15389757 0.01748643 0.0400982 -0.08685795
000190 ab f8 59 bd 51 8e 6e 3d ca fa 29 3d 06 84 d7 3c
       -0.053215664 0.058241192 0.041498937 0.02630807
0001a0 ea b4 98 bc fa 49 37 be 41 57 4b be 86 9c ae 3c
       -0.018640954 -0.17899314 -0.19857503 0.02131487
0001b0 c2 45 55 be 54 37 1c be ba 9f 7f be d4 85 39 3d
       -0.20827392 -0.15255481 -0.24963275 0.045293644
0001c0 cc a3 b3 bc b0 2b e0 3d b1 ae 82 3e c7 8f c2 bd
       -0.02192869 0.10945833 0.25523904 -0.095000796
0001d0 2e f1 58 3e ef 36 8e bd ee 79 ba bd 4f eb 73 be
       0.21185753 -0.069440715 -0.091052875 -0.23820232
0001e0 ed 3c 71 bd 05 71 bd 3e 66 aa b5 3d fa 67 1d 3e
       -0.058895994 0.3700029 0.088703915 0.15371695
0001f0 23 17 56 be 2b 03 a8 be c3 8c 66 3d be 51 b4 3e
       -0.20907263 -0.32814917 0.056286585 0.35218614
000200 65 03 d6 3e 65 cd 7b bb 8e c5 49 3e 6f a3 ed bd
       0.41799465 -0.0038421985 0.19704267 -0.11603438
000210 7b 1c 07 3e 7a 69 ce be 11 4d 77 3e 5f 42 10 3c
       0.13194458 -0.40314847 0.24150492 0.008804887
000220 74 74 5e 3e f5 ff b3 3d c3 7c c5 3d 30 9f f7 3d
       0.21724111 0.08789054 0.09642937 0.120909095
000230 68 65 7d bc ee 79 18 3e 62 99 1f bd 1f af f2 3d
       -0.015466072 0.14890262 -0.038964637 0.11849808
000240 b8 66 41 be 03 93 7b bd 05 af 03 bf 02 24 d3 3c
       -0.1888684 -0.0614195 -0.51438934 0.025774006
000250 73 fe 83 bd 56 d7 3e be 14 1d 8b 3d 93 78 b2 bd
       -0.06445017 -0.18636832 0.067926556 -0.08714404
000260 66 2e 01 3d 5d e8 90 bd 53 ff be 3c 9e 4e 58 3e
       0.03153839 -0.0707557 0.023315107 0.2112374
000270 65 f8 18 3d a2 25 97 3a 4e 47 d6 3d 73 5d 2a bd
       0.037346262 0.0011531601 0.10462819 -0.041593026
000280 2b 37 a3 3d 2e 24 13 be 67 cb 9e be f4 4b 3e 3d
       0.07969507 -0.1436927 -0.3101456 0.046459153
000290 a6 ad e6 bd a0 43 14 be 6c 5e 8a bd e5 6e 38 bc
       -0.112635896 -0.14478922 -0.06756291 -0.011256908
0002a0 03 56 08 3e ec e7 2d 3e f2 c6 0a be fa 2e 6c 3e
       0.13314061 0.16983002 -0.13552454 0.23064795
0002b0 67 64 01 be ff 7d f4 3c 88 1c ae 3d 92 cc 3e 3d
       -0.12635957 0.029845236 0.08501536 0.046581812
0002c0 67 6f 1d be 0e 88 8e 3d de 5a ba bd e8 0c ca 3c
       -0.15374528 0.06959544 -0.09099363 0.024664357
0002d0 39 a6 8d 3d 63 67 77 3b 2e 30 ef bc 56 0c 2e be
       0.0691647 0.0037750832 -0.029197779 -0.16996893
0002e0 97 b9 fe 3d 08 d7 05 3e bf 2d 77 3c 73 23 7f 3d
       0.12437742 0.13070309 0.01508659 0.062289666
0002f0 68 ca 83 bd 6f 96 b1 bd 54 61 35 bd aa fb 24 3d
       -0.0643509 -0.08671271 -0.044282272 0.040279068
000300 64 9d b4 3d dc 2e 45 3e c6 4f 0b bd 59 cb 42 3d
       0.088190824 0.19256157 -0.034011625 0.04755721
000310 05 82 c8 3c 94 6e 83 3e f4 7f e5 bd 41 f9 14 3e
       0.02447606 0.25670302 -0.11206046 0.14548208
000320 2e da 1b 3c 99 60 bf bd 43 37 85 3d 4a 1f ab 3d
       0.009512467 -0.093445964 0.06504681 0.08355577
000330 3a 2b cb 3b b6 90 e2 bc ae 80 26 3e 21 89 9c bb
       0.0062002214 -0.027656894 0.16260025 -0.004777089
000340 fd 49 71 be 85 55 6a 3c 8b 58 b2 3e a4 cc fd bb
       -0.2356338 0.014302616 0.34833178 -0.0077453423
000350 90 1a 14 3c d4 2c a7 bd 99 98 c6 3d b5 6d aa bd
       0.009039536 -0.08162847 0.096970744 -0.08321706
000360 13 b0 29 3e b3 97 35 be 3e 61 af bd 9d 28 06 3f
       0.16571073 -0.1773365 -0.08563469 0.5240572
000370 eb 29 85 bd 48 58 c1 3d a9 2b 87 3d b2 3d 07 3e
       -0.06502136 0.094406664 0.066001244 0.13207129
000380 d4 71 18 3b 3e d4 3e 3d e4 b6 22 be 0b 1d 26 3d
       0.0023261206 0.04658913 -0.1589008 0.04055504
000390 15 fc 0f 3c 79 46 d5 3d eb 00 43 3e c4 86 7f bd
       0.008788128 0.10413832 0.19043319 -0.062384382
0003a0 f4 c7 80 bb 65 26 ba 3d b3 b7 da 3d 6b 6c 9d bd
       -0.0039300863 0.090893544 0.10679569 -0.07686695
0003b0 62 a1 38 bd 2a 78 79 be 30 c5 90 be 91 cb 86 bd
       -0.04507578 -0.24362245 -0.28275442 -0.06581796
0003c0 c9 16 09 3e 2b 1c 9b 3d 99 d6 56 bb 02 fc 89 bd
       0.13387598 0.07573732 -0.0032781719 -0.0673752
0003d0 5b 7c a7 3d 21 7b 08 3e 57 67 13 3e 48 40 03 bf
       0.08178016 0.1332822 0.1439489 -0.5126996
0003e0 39 e2 eb 3c a4 57 97 3e dd 49 60 3d 8d fd 9d 3c
       0.028794395 0.29559052 0.05475794 0.019285941
0003f0 a3 fe 86 3c b3 8f 99 bb c4 26 58 3c 5b 01 1f 3e
       0.016478842 -0.0046863197 0.013192836 0.15527861

VAE_Decoder.layers.1.linear1.bias f4 [4]
000000 af 5a 13 3d c0 0e 5f 3d af 75 c0 bd c5 2d 0e 3d
       0.035975154 0.054457426 -0.09397446 0.034711618

VAE_Decoder.layers.1.norm1.weight f4 [4]
000000 27 ef b2 3f 77 ee a7 3f c8 28 a7 3f 3c 37 a4 3f
       1.3979234 1.3119649 1.305932 1.2829356

VAE_Decoder.layers.1.norm1.bias f4 [4]
000000 b3 47 21 3c 23 fa a8 bd fc 0f 2b 3e 0b 5c 9d 3d
       0.009843755 -0.08250835 0.16705316 0.076835714

VAE_Decoder.layers.1.norm0.weight f4 [4]
000000 c5 07 89 3f 27 fa 7e 3f 17 56 8f 3f 2a ee 83 3f
       1.0705496 0.9960045 1.1198148 1.0307057

VAE_Decoder.layers.1.norm0.bias f4 [4]
000000 b6 b9 82 bd bc e1 05 3a 06 36 df 3d 8a 27 6c 3c
       -0.06383078 0.00051071844 0.10898976 0.014413724

VAE_Decoder.last_normalization.weight f4 [4]
000000 00 00 80 3f 00 00 80 3f 00 00 80 3f 00 00 80 3f
       1.0 1.0 1.0 1.0

VAE_Decoder.last_normalization.bias f4 [4]
000000 00 00 00 00 00 00 00 00 00 00 00 00 00 00 00 00
       0.0 0.0 0.0 0.0

VAE_Decoder.head.weight f4 [4, 4]
000000 76 43 a8 be 00 e9 46 bd 24 3a e7 be 3e 32 87 3e
       -0.3286397 -0.04856205 -0.45161545 0.2640552
000010 00 ce 6e bd 40 a0 b4 3d 0e 50 eb be 1a 99 9d be
       -0.058301926 0.08819628 -0.45959514 -0.3078087
000020 20 52 dd 3d 44 b2 14 3e 34 e1 8f be b0 11 a0 3e
       0.1080668 0.14521128 -0.28101504 0.31263494
000030 86 01 85 3e 00 27 be 3b 98 6c 9e 3e ee 70 ed be
       0.25977725 0.005802989 0.30942225 -0.4637522

VAE_Decoder.head.bias f4 [4]
000000 04 cb 99 3e 58 57 83 be e0 67 87 3d c0 46 1d bd
       0.300377 -0.25652575 0.066116095 -0.03839755

Detokenizer.weight f4 [14, 4]
000000 71 bf 47 3e ff ac 1c 3f 8d ac e2 bd d8 3c 51 3d
       0.19506623 0.6120147 -0.11068068 0.051083416
000010 4b 7c 4f 3e ab 4f 95 3d b8 18 08 bd 45 06 59 be
       0.20262258 0.07290586 -0.0332267 -0.21193798
000020 ee 6c 45 3e e8 eb 6c 3e d1 de 0c bf 17 93 bd be
       0.19279835 0.23136866 -0.5502749 -0.37026283
000030 46 48 48 3e 28 00 e4 bd d9 28 d7 bd 5b 17 c1 3e
       0.1955882 -0.11132842 -0.10505838 0.3771313
000040 cf 11 83 be 31 af c5 3b 8e 08 72 3e 89 e9 e8 be
       -0.25599524 0.0060328473 0.23636076 -0.45490673
000050 eb 95 f5 3d 25 31 1a 3c 9f e0 94 3d bb 48 0f 3e
       0.11991485 0.009411131 0.072694056 0.13992588
000060 db e6 82 be f8 ae 8d be d6 d7 01 bf ae c7 73 3e
       -0.25566754 -0.27672553 -0.50719965 0.2380664
000070 8d 5d 2e be 09 af 10 be b3 d5 63 bd da 2f 96 3e
       -0.17027874 -0.1412927 -0.05562372 0.29333383
000080 0b 3f 3a 3d ce 03 3c 3e 2d cf 0b bf 52 a6 30 be
       0.04547028 0.18360826 -0.54613 -0.17250946
000090 e7 b0 f2 3e da 5c d6 3e 12 5d c3 3e 97 1a 1d 3e
       0.4740059 0.41867715 0.38156945 0.15342174
0000a0 35 e9 52 be ea bc 23 3c 3f 5b ed be d8 44 12 bf
       -0.20596774 0.009993771 -0.46358678 -0.571363
0000b0 df 9f 3e 3e 17 ac e1 be 3f 36 e0 be 24 21 ca be
       0.18615673 -0.44076607 -0.43791386 -0.3947841
0000c0 a5 22 0a bf eb d8 9b be 18 28 c7 3e 87 7c 3f be
       -0.53959113 -0.30438933 0.38897777 -0.18699847
0000d0 3f c3 0a 3f a6 2b a9 3e e0 1d d5 3d 6a 1b ed 3d
       0.5420417 0.33041114 0.10406089 0.115774944

Detokenizer.cat_recons.0.weight f4 [2, 4]
000000 9a c0 62 be 00 32 e7 be 6d 62 f7 bd 01 85 7d 3e
       -0.22143784 -0.45155334 -0.1207932 0.24757768
000010 8b bf 4a be ae bb 64 be d0 f2 f9 bc 69 9b cc 3e
       -0.1979963 -0.22337219 -0.03051129 0.3996232

Detokenizer.cat_recons.0.bias f4 [2]
000000 f8 b6 ab be a8 e8 0c 3e
       -0.33538032 0.13760626

Detokenizer.cat_recons.1.weight f4 [7, 4]
000000 5d 05 65 3d 1d 62 06 bf 2c bd 74 3e a1 e7 41 3e
       0.055913318 -0.5249346 0.23900288 0.18936016
000010 a1 48 ac 3e 70 c1 77 3e 8c 25 fb 3e 78 fa 82 bd
       0.3364916 0.24194884 0.49052083 -0.063954294
000020 4a 06 9b 3d ac 9c af 3e f4 45 18 3e 7f 52 d2 3d
       0.07569559 0.3429922 0.14870435 0.10269641
000030 37 1a 12 be 73 24 5c 3e 6a 25 56 be 8f 5b a7 3e
       -0.14267813 0.2149828 -0.2091271 0.3268704
000040 6f a6 a7 bd 5b 29 98 3d 43 c2 3a bf 32 90 3e 3e
       -0.081860416 0.07429763 -0.7295267 0.18609694
000050 db c2 14 3e bd 15 8b 3d 64 67 ee 3d db 1f 84 be
       0.14527456 0.067912556 0.11640814 -0.25805554
000060 b9 92 2f 3e 09 8b 40 3e 17 bb d7 be 59 e9 cb be
       0.17145814 0.18803038 -0.42134926 -0.39826468

Detokenizer.cat_recons.1.bias f4 [7]
000000 c5 3a be be 67 e4 0f 3f 65 5d 9e 3c 4e 26 9b bd
       -0.37154213 0.5620789 0.019331643 -0.075756654
000010 ae bf 44 be 3e 20 22 3e f0 bc d2 be
       -0.19213745 0.15832612 -0.41159773

Detokenizer.cat_recons.2.weight f4 [4, 4]
000000 85 c2 fe be 93 fe b3 3d 68 cb 49 be a7 7d ab 3d
       -0.49757782 0.087887906 -0.197065 0.08373576
000010 65 5f 3c 3f 1b 73 52 3e e2 98 e8 3d 83 08 0d 3f
       0.7358306 0.20551722 0.11357285 0.5509111
000020 0a 06 c9 3e 56 79 a5 be a2 65 a1 be f6 7e ea be
       0.3926242 -0.32319134 -0.31522852 -0.45799989
000030 70 d9 81 3e 52 c6 c6 be 91 f7 d6 3c 6c ba 2b 3e
       0.25361204 -0.3882318 0.026241096 0.16770333

Detokenizer.cat_recons.2.bias f4 [4]
000000 0a a4 8f bd 52 15 47 3d 4b e2 a3 bc b0 96 08 bf
       -0.0701371 0.048604317 -0.020005366 -0.5335493

Detokenizer.cat_recons.3.weight f4 [11, 4]
000000 02 f7 f4 bd a6 23 bf bd d8 d4 47 bf 95 7a 93 3c
       -0.119611755 -0.09332971 -0.7805915 0.018002788
000010 46 d8 9a be 81 ad cb be a9 15 fe be eb 66 78 be
       -0.3024313 -0.3978081 -0.496259 -0.2425801
000020 a9 70 f6 be 0e 19 63 be 3d 09 fd bd ff da f3 be
       -0.48132828 -0.22177526 -0.12355278 -0.47628018
000030 6b 00 eb be 01 c0 bc 3e 24 2f 68 be a6 a1 ba 3d
       -0.45898756 0.36865237 -0.22674233 0.09112863
000040 46 f8 7a be b9 7b 99 be ee 36 e0 3b d0 da c8 be
       -0.24508771 -0.29977205 0.0068424856 -0.3922944
000050 29 e5 0f bd 5f 5a c9 bd 04 00 0d 3e 1d 41 07 be
       -0.035130654 -0.0983169 0.13769537 -0.13208432
000060 b2 b4 38 3d 57 92 3e 3e e5 8e e2 3d af d0 0f 3e
       0.0450942 0.18610512 0.11062411 0.1404445
000070 9e 49 72 3d 1f e7 c8 3e ae 31 88 3e 09 5a 47 3e
       0.059152238 0.3923883 0.26600403 0.1946794
000080 5c 0b 19 3f e8 a2 b8 3e c1 63 17 be 4b 4c f6 3e
       0.5978296 0.36061788 -0.14784147 0.48105082
000090 e1 dd c8 3e 71 08 77 3e 6a bc 0c 3f 2d b2 63 3e
       0.3923178 0.24124314 0.54975 0.22235937
0000a0 56 53 00 3f c5 80 ec 3c bf 09 ba 3e 4d 5a e6 bb
       0.5012716 0.028869996 0.3633556 -0.0070298077

Detokenizer.cat_recons.3.bias f4 [11]
000000 b2 6f 14 3f a9 d9 e1 3e 59 4a 8d be f0 bc 62 3f
       0.57982934 0.44111374 -0.27595785 0.88569546
000010 7c 44 d1 be 80 07 e1 bd de 83 45 bd 2a dd 77 be
       -0.40872562 -0.10987759 -0.04822146 -0.24205461
000020 22 14 d6 3d 22 47 1a bf 69 fc 9c bd
       0.10453059 -0.6026479 -0.07665331

Detokenizer.cat_recons.4.weight f4 [11, 4]
000000 52 5b 64 be 11 f5 14 3f 39 e3 20 bf f2 ed da be
       -0.22300461 0.5818644 -0.62846714 -0.42759663
000010 9f f7 cc be a8 4e 1e 3f 99 a1 9e be c8 c0 17 bf
       -0.4003267 0.6183877 -0.30982664 -0.59278536
000020 d9 0d 03 be 15 eb 34 3d 2d ef 8e 3e b2 f9 03 3f
       -0.12798251 0.044169504 0.27916852 0.5155288
000030 6b 31 8f bd 35 6a a7 be 5d cb 0b bd 2b 86 89 3d
       -0.069918476 -0.32698217 -0.03412949 0.06715044
000040 c9 c7 ca bd a0 6b 96 3e 51 c6 57 3e 0c 66 d5 bd
       -0.09901387 0.29378986 0.21071745 -0.104198545
000050 fb 8a 66 be 8d 2e 9e bd e4 08 17 be 06 dc 62 3d
       -0.22513954 -0.077237226 -0.14749485 0.055385612
000060 ef 9a 3f bd d4 44 1a 3e 64 5f a0 be 4c 81 15 bf
       -0.046778616 0.15065318 -0.31322777 -0.58400416
000070 24 a3 b2 3e 56 cc 75 be a0 12 02 bf ef db f8 be
       0.3489009 -0.24003729 -0.5080967 -0.48605296
000080 02 99 4d bc 2c 5e be be 7b f6 ea be 8d 79 9f be
       -0.012548687 -0.37181222 -0.45891175 -0.31147423
000090 dd a7 23 3f 07 21 71 be 7b 79 25 3e 64 82 fb be
       0.63928014 -0.23547755 0.16159622 -0.49122918
0000a0 f8 ac f0 3e 11 92 0c bf e5 fd 35 bb a8 6b f2 bd
       0.47006965 -0.5491038 -0.002776974 -0.1183694

Detokenizer.cat_recons.4.bias f4 [11]
000000 7a d3 a6 3e 94 e2 c6 bc 01 1c c9 3d 4a 54 17 be
       0.3258322 -0.024277963 0.098197944 -0.14778247
000010 0a 83 18 bf 8b af d4 be 04 a6 ce be 9e 71 8f bd
       -0.5957495 -0.4154018 -0.40361035 -0.07004093
000020 80 ef 1e bd 1f 00 0a bf 5e f6 15 bf
       -0.038802624 -0.53906435 -0.5857905

Detokenizer.cat_recons.5.weight f4 [11, 4]
000000 63 d6 6a bb ee 67 e4 be 99 c2 38 bf 8d ff 07 bf
       -0.003583335 -0.44610542 -0.7217193 -0.53124315
000010 38 55 de bc 35 4d d5 bd ee 6e 97 bf 3a b8 28 be
       -0.027140245 -0.10415117 -1.1830728 -0.16476527
000020 e8 d4 18 bf c9 f9 98 3e 29 a3 c1 3e 04 4d 88 3d
       -0.5969987 0.2987807 0.37819794 0.066553146
000030 96 e4 e9 3c 7d 4d a3 be 85 73 2a 3e 7e 0b 0f 3d
       0.028551381 -0.31895056 0.1664563 0.03492307
000040 a2 a2 3e be e5 77 b9 3e 8a 07 01 3d 7a 80 72 be
       -0.18616727 0.36224285 0.03150133 -0.23681822
000050 bd d2 d2 bd 8f 7b 0b bf e4 f7 97 be fe 39 c3 bd
       -0.102941014 -0.5448541 -0.29681313 -0.095325455
000060 4f 8f 9b 3e de c6 ca be 87 c4 69 be 30 c3 eb be
       0.30382773 -0.3960485 -0.22828875 -0.46047354
000070 9f 0f f0 bd 54 cf 35 bf 5e 54 1b 3e cd 5d e7 3c
       -0.117217295 -0.7101948 0.15168902 0.02824297
000080 f7 fb 70 3e db 48 85 be 8d 86 99 3c d6 e5 85 3d
       0.23533617 -0.26032147 0.018740917 0.06537978
000090 f0 ac a3 3e 8c 7f 87 be b9 42 8b bc f7 40 a7 be
       0.31967878 -0.26464498 -0.01699959 -0.32666752
0000a0 2d 3f 8d 3e b0 29 cb be 48 71 da bd bd d7 35 3e
       0.27587262 -0.39680243 -0.10666138 0.17758079

Detokenizer.cat_recons.5.bias f4 [11]
000000 b7 67 21 3e a0 17 d0 39 88 b7 94 bd 0d a1 ea be
       0.1576222 0.00039690454 -0.07261568 -0.45825997
000010 26 c9 f8 bd dc 11 a6 3d a3 76 a2 3e 60 b5 55 be
       -0.12147741 0.08108875 0.31731138 -0.2086997
000020 be e2 83 3d e4 fb 6d be 65 8e 10 be
       0.06439732 -0.2324062 -0.14116819

Detokenizer.cat_recons.6.weight f4 [11, 4]
000000 a0 dd e0 bd 54 ca 06 3e 48 50 d6 3e 20 99 a8 be
       -0.109797716 0.1316312 0.41858125 -0.32929325
000010 b3 8f 54 be 9e 48 1e 3b 73 3f e4 be 0e db 01 be
       -0.20757942 0.002415217 -0.44579658 -0.12681219
000020 bc f9 e6 bd 0e 62 0a bf 0d a8 81 3e 42 13 a6 3e
       -0.11278102 -0.5405587 0.25323525 0.32436568
000030 62 cc 24 3f b7 7f ad bd 1d be 80 3e 35 35 fe 3e
       0.64374363 -0.08471625 0.25145045 0.4964997
000040 2f 22 3a be e2 42 93 3c e6 88 b5 3e 07 81 dc 3e
       -0.18177103 0.017976228 0.35456008 0.4306719
000050 83 a0 9f 3e 40 16 85 be 89 6c 86 3e ca a3 e3 3d
       0.31177148 -0.25993538 0.2625468 0.11115225
000060 86 0b b7 3e dc fc e1 bd 95 7d cd 3e 67 98 0d 3e
       0.3575098 -0.11034557 0.40134874 0.13827668
000070 dd c4 a6 3e 73 dd eb 3e ed c2 57 3d 56 03 69 3e
       0.3257207 0.4606739 0.05267613 0.22755179
000080 1e 37 ec 3e 85 d5 1c 3f 3d aa a6 bd d2 76 d2 3e
       0.461358 0.61263305 -0.08137939 0.41106278
000090 96 33 da 3e 92 0e 93 3e b3 cc 05 3f f6 3e 61 3d
       0.42617482 0.28722054 0.5226547 0.054991685
0000a0 2a 49 c5 3e a6 a9 d5 3e 6a a9 a0 3e f0 13 e9 3e
       0.38532382 0.41730994 0.31379253 0.45523024

Detokenizer.cat_recons.6.bias f4 [11]
000000 d5 ff 26 3f 5f 4b ee be 8c c0 d1 bd 2e 34 b5 3e
       0.6523412 -0.4654188 -0.102418035 0.35391372
000010 91 ac b5 bd 36 bb 88 3e 0d 83 56 be 28 40 c0 be
       -0.08870805 0.2670533 -0.2094843 -0.37548947
000020 c7 af 48 be 4d 0c fc be e8 4a be be
       -0.19598304 -0.49228135 -0.37166524

Detokenizer.cat_recons.7.weight f4 [10, 4]
000000 86 cf cb b9 48 e6 cd 3e 70 f2 60 be f1 ad 6a bf
       -0.00038873794 0.40214753 -0.21967483 -0.91671664
000010 2a 71 47 3f b1 4f 9a 3e 28 90 a3 bd 26 ea 21 bd
       0.7790705 0.30138925 -0.0798648 -0.039529942
000020 80 97 f7 bd a8 1d 1b bf 69 5e 18 bf 7f 9c fd 3e
       -0.12089443 -0.60592127 -0.5951906 0.4953346
000030 88 67 45 bd 0a a9 ad be 85 93 c0 be ec 2a 42 3e
       -0.04819444 -0.3391803 -0.37612548 0.18961686
000040 7b a8 28 be 07 d3 36 be 27 2c 37 bd 0e 91 71 3d
       -0.1647052 -0.17853938 -0.04471984 0.058976226
000050 81 60 67 be ca 8b 64 bd 9e fa a7 3d da 18 14 3c
       -0.22595407 -0.055797376 0.08202098 0.009039128
000060 13 6b b9 3d d5 ee 87 bd 49 ef ec 3e 81 22 ad be
       0.09053626 -0.066373505 0.4627631 -0.33815387
000070 06 29 c1 be eb ad e5 bd e1 a0 f7 3e e9 6f 29 3e
       -0.3772661 -0.11214813 0.48364928 0.16546597
000080 c5 e0 f0 3c 7e 60 c3 3d 06 d5 87 3e 19 e8 fc bd
       0.029404053 0.09539889 0.2652971 -0.123489566
000090 62 df e8 be 04 42 10 3e 09 be e6 3e 99 1c 98 3e
       -0.45482928 0.14087683 0.4506686 0.29709318

Detokenizer.cat_recons.7.bias f4 [10]
000000 88 ef 14 bf c8 23 93 3e 6f 4a 26 3e ce 91 74 be
       -0.58177996 0.28738236 0.16239332 -0.23883745
000010 77 4e 34 be df 7a 93 3d 47 6e ce be d6 d0 ae 3e
       -0.17608057 0.0720117 -0.4031851 0.34143704
000020 04 db c0 be 3d 72 8f 3e
       -0.37667096 0.28016844
