tabsyn/vae/ckpt/default/major_only_1_dim_z/encoder.pt (torch, 24682 bytes, 34 tensors)

Tokenizer.weight f4 [15, 4]
000000 b2 41 fd 3e 17 ff 6f be 12 6b 80 3e 80 86 ef bb
       0.49464184 -0.23437153 0.25081688 -0.007309735
000010 39 50 ea 3d f9 2d f4 bc 79 26 7c 3d 23 ae 09 bb
       0.114410825 -0.029807078 0.061560128 -0.0021008335
000020 e6 15 8e bd 52 af 8b bd c2 30 9e bd 63 ea c0 bd
       -0.069377705 -0.06820549 -0.077241436 -0.09419706
000030 ea 06 e5 3e 67 ee 3e 3e 46 cb a9 3e f1 41 71 3e
       0.44731838 0.18645631 0.33162898 0.23560311
000040 8d 04 9f 3d f5 8c 0b be e5 d6 30 3e 47 9a 7c 3d
       0.0776454 -0.1362799 0.17269476 0.061670568
000050 75 a9 80 ba bb e1 28 bf 02 d8 04 be 33 a1 4b 3d
       -0.0009816127 -0.6596944 -0.12973025 0.04971428
000060 5b f7 31 3e 96 0d 72 be fc bb c8 bd 85 ec 5c be
       0.17379515 -0.23637995 -0.0980148 -0.215746
000070 14 70 ce bd 60 e2 4f be eb d7 19 3e 52 6f 37 be
       -0.10079971 -0.20301199 0.15023772 -0.17913559
000080 7d ac 6b 3e 4b 43 e8 bd 25 cc 58 bc 4b 9a 27 3e
       0.23015018 -0.1134096 -0.013232266 0.16367452
000090 7a c1 d1 3e 4b a4 89 3d cd 9d 86 3e 34 04 e0 be
       0.40967923 0.067207895 0.26292267 -0.43753207
0000a0 99 43 28 3d f4 c7 35 3e f4 43 6e bd 58 10 47 3d
       0.04108009 0.17752057 -0.058170274 0.04859957
0000b0 08 b4 6a 3e 20 1b 8a be d1 38 62 bd 4b 37 aa be
       0.22920239 -0.2697382 -0.055229966 -0.3324531
0000c0 38 d1 f7 3e ce b2 32 3d 94 b9 5f 3e 26 a6 af be
       0.4840181 0.043627553 0.21848136 -0.3430645
0000d0 5b 2a d6 3e d8 d5 b1 be 1e 77 d2 be ec 70 4c ba
       0.4182919 -0.34733462 -0.41106504 -0.0007798809
0000e0 30 db bb be 89 f0 96 3e e7 e7 32 bd a8 e5 1f bf
       -0.36690664 0.2948039 -0.04367819 -0.624598

Tokenizer.bias f4 [23, 4]
000000 ae 02 ee 3a 33 69 8c be 7e 31 49 ba eb 0a d9 3e
       0.0018158758 -0.2742401 -0.00076749164 0.42391142
000010 93 7c 29 3e 99 29 e3 3e f1 b6 0b 3e 23 60 c9 bd
       0.16551428 0.44367674 0.13644005 -0.0983279
000020 49 ca 6c 3e 33 92 4c 3d f3 6c f3 be 72 b9 f2 bc
       0.2312404 0.049944114 -0.4754406 -0.029629443
000030 d9 99 aa 3e 88 a7 e9 3e 2c 1b ea be 37 39 77 3d
       0.333205 0.4563563 -0.45723855 0.0603573
000040 6d 2e df be 94 39 11 3d 80 3c 31 3e 7b 32 15 3f
       -0.43590108 0.0354553 0.17308235 0.5828015
000050 3a 09 21 bf 98 b2 aa be 89 09 78 3e 2d 20 a0 bd
       -0.62904704 -0.3333938 0.24222387 -0.07818637
000060 e1 ec 8b be a3 1e 67 bd d1 53 b2 be ed 2a 9f 3e
       -0.27329162 -0.0564257 -0.34829572 0.31087437
000070 bb 5a 0c bf 30 a2 5a 3e e4 d8 b4 3e c9 86 01 bd
       -0.54825944 0.21350932 0.35321724 -0.03162268
000080 20 35 03 3e e4 7b 63 3e f9 81 bb be 42 40 c4 3e
       0.12813234 0.2221523 -0.366226 0.38330275
000090 62 a2 fb 3e 75 07 14 3e 38 c9 ab 3e 78 ca c3 be
       0.49147326 0.1445597 0.33551955 -0.3824041
0000a0 67 08 c6 be ce 99 c6 bb f8 fd 58 3e 1f bc 56 be
       -0.38678285 -0.0060608154 0.21190631 -0.209702
0000b0 9d 95 18 bd d1 04 8d 3e 41 b1 11 3f ce b8 19 3b
       -0.037252057 0.27542737 0.56911093 0.00234561
0000c0 77 d0 d3 3e 2a 6d 60 3e fe be ea be 7e f6 8f be
       0.41369984 0.21916643 -0.4584884 -0.28117746
0000d0 1f 6d 5e 3b f5 5b b8 be 41 e2 59 3e 1a 45 68 3e
       0.0033939553 -0.36007658 0.21277715 0.2268261
0000e0 ec fd df bd 78 c7 b9 3e 85 1d 50 bd ce 56 e8 3e
       -0.10937104 0.36284995 -0.050809402 0.45378727
0000f0 84 96 ab 3e eb b6 95 be 68 bc 08 bf 49 a5 8b 3e
       0.33513272 -0.29241118 -0.53412485 0.2727454
000100 39 cf 24 be 30 d8 79 3e 17 02 cf 3e 02 19 c2 3d
       -0.16094674 0.24398875 0.40431282 0.09477426
000110 29 2c d8 3e 90 d1 9b 3d 55 91 d9 bd f7 25 2b 3e
       0.42221192 0.0760833 -0.10623423 0.16713701
000120 1b ac 85 be 20 90 81 3e 8d 7b 8d 3e d4 23 68 3e
       -0.2610787 0.2530527 0.27633324 0.22669917
000130 ca 81 20 3e aa 50 b5 3e 32 4c f2 be dc 1f 03 be
       0.1567451 0.35413104 -0.47323757 -0.12805122
000140 f8 23 b7 3d 48 fa b8 3e 86 2a c6 bb 15 63 9b 3e
       0.08942407 0.3612845 -0.0060475497 0.3034903
000150 e6 a8 11 be a5 0c 9c bd f5 03 98 3e c9 42 8e be
       -0.14224586 -0.07619599 0.2969052 -0.27785328
000160 53 56 3c 3e 46 93 9a 3e bc 8d fc 3d bf 54 1e 3e
       0.18392305 0.30190486 0.12331721 0.15462016

Tokenizer.category_embeddings.weight f4 [77, 4]
000000 e3 17 76 be 7f ae d5 be c6 07 34 3c 76 12 70 3e
       -0.2403255 -0.41734692 0.010988181 0.23444542
000010 53 99 4b bd aa 17 73 be 14 e5 c7 3e dd a0 a9 bc
       -0.04970677 -0.23739496 0.3904196 -0.020706588
000020 fd 59 10 3e 3a ad 28 be f5 dd c6 3e 30 88 25 3e
       0.14096828 -0.1647233 0.38841215 0.16165233
000030 7c 2e 78 be 7f 97 96 3d f9 ac 0f 3d 6d 44 53 3e
       -0.24236482 0.07353114 0.03507707 0.20631571
000040 ab 54 b1 bd a1 e0 a0 bd f5 08 10 3e 63 01 61 3e
       -0.08658727 -0.078553446 0.14065917 0.21973185
000050 e7 6e ae be af 9c 7c 3d 3d ff 57 bd 2a e5 09 3e
       -0.34068987 0.061672863 -0.05273365 0.13466325
000060 a3 af cf be f3 7d e7 3b 30 7b d8 bd c2 d0 ed 3d
       -0.40563688 0.007064575 -0.10570371 0.11612083
000070 26 fe 07 bf ab 17 53 bc d4 c9 7f be 2f 3a ef 3d
       -0.53122175 -0.012884061 -0.24979335 0.116810195
000080 6a 74 9f 3e bc 89 25 bf 49 7b 5e 3e fe f5 b6 3e
       0.31143504 -0.6466329 0.21726717 0.35734552
000090 4a bb eb be f9 98 4c be cd 69 8e bd dc 77 a9 3e
       -0.46041328 -0.1998023 -0.06953774 0.33099258
0000a0 25 3f 9c be cf 41 92 be 60 df 61 3e 0a c4 77 bd
       -0.30516925 -0.28565833 0.22057867 -0.06048969
0000b0 5c 87 89 be 69 47 55 be 4c 9a ce 3e 76 09 8d be
       -0.26861084 -0.20828022 0.40352094 -0.2754628
0000c0 be 28 74 3d 04 e8 99 3d 4b d5 56 3f 99 61 96 bd
       0.059609167 0.075149566 0.8391921 -0.07342834
0000d0 c8 02 aa 3e a1 aa 36 bd 9a c2 08 bf 9b ba 13 be
       0.33205247 -0.04459632 -0.5342194 -0.14426653
0000e0 e4 07 81 bc c1 c8 77 bd ae ba 01 bd 78 e0 96 be
       -0.015750833 -0.06049419 -0.031672172 -0.2946813
0000f0 10 ad 93 3b ba a6 f7 3d e2 46 50 3d 17 74 8b be
       0.0045067146 0.120923474 0.05084885 -0.27237007
000100 13 f9 6f 3e dc 97 c5 3d 32 c2 08 be 2f de 9d be
       0.23434858 0.096481055 -0.1335533 -0.30833575
000110 7e 56 b0 be f8 96 ba be 40 ca c8 be 6b eb 86 bc
       -0.34440988 -0.36443305 -0.39216805 -0.016469678
000120 06 bb 52 3e 6d f9 45 bd 13 dc ae be 17 c0 52 bc
       0.20579156 -0.048333574 -0.34152278 -0.012863181
000130 34 6f 17 3e 12 c8 10 3f 01 62 96 bd 2c e0 69 bd
       0.14788514 0.56555283 -0.073429115 -0.057098553
000140 71 55 4f be e1 d3 be 3d f4 60 2e 3e ac 69 8d 3e
       -0.20247437 0.093177564 0.17029172 0.27619684
000150 e5 be cb 3e 10 89 c3 3e e8 96 b3 3e 56 37 d4 3d
       0.39794078 0.38190508 0.3507607 0.10362117
000160 6a 5e a0 bd 4f 82 d6 3e b7 69 5f bd a3 b7 76 3e
       -0.07830508 0.41896293 -0.054544177 0.2409349
000170 02 49 84 bd 63 ea 5d be e7 8d bf 3d 4a f7 c1 be
       -0.06459238 -0.21671443 0.093532376 -0.3788398
000180 9a 78 bf be bb c6 f6 3d 1d 5e d8 be 4b 78 4f 3e
       -0.373967 0.120496236 -0.42259303 0.20260732
000190 de 3e 15 be ca fc 0c 3a 18 d3 9d be 06 03 b3 3e
       -0.14574763 0.00053782447 -0.30825114 0.34963244
0001a0 2d 21 dd 3e f1 c9 a8 3d d7 42 e1 3e 29 0a 0a 3e
       0.43189374 0.08241642 0.43996307 0.13480438
0001b0 22 3e d0 be 0e 55 e0 be dc 32 54 be d3 da a4 3d
       -0.40672404 -0.43814892 -0.20722526 0.0804955
0001c0 16 29 bb 3e 1d 55 9e 39 17 94 9e 3e 2b 58 6e 3e
       0.36554784 0.00030199523 0.3097236 0.23275821
0001d0 3f 54 04 3f f5 e8 8c be 9a 15 4e 3d 33 36 88 3d
       0.5169105 -0.27521482 0.05031357 0.06650963
0001e0 76 94 be bc be 43 7d 3c 23 fa e8 3d 98 ac cd 3e
       -0.023264151 0.0154580455 0.11375835 0.4017074
0001f0 48 27 bd be 7b 88 20 be be 50 4b 3d 81 d3 7f 3e
       -0.36944032 -0.15677063 0.04963755 0.24983026
000200 9b 25 86 be 5f 76 d4 3e cb d9 6e 3e 17 4b 18 3e
       -0.26200566 0.4149656 0.23325269 0.14872395
000210 69 5e 32 3e d6 35 40 be e4 da a1 3d 6b f0 b6 3e
       0.17418827 -0.18770537 0.07903078 0.357303
000220 cf 1f 96 3e 9f 00 aa be a2 cc b0 3c 85 5a a4 3d
       0.29321143 -0.332036 0.021581952 0.08025078
000230 ee bb 0e 3e f1 0c b2 3d c1 71 0f 3e 0d dc 0f be
       0.13938877 0.086938746 0.14008237 -0.14048786
000240 dc fe bd 3e ea b4 b3 3e fd a7 b2 3e 47 45 8e 3e
       0.37108505 0.35098964 0.3489379 0.2778723
000250 66 09 b8 3e b2 78 a6 be cd 23 e3 3e 3c d8 f9 be
       0.3594467 -0.32513958 0.4436325 -0.48797786
000260 e7 b0 86 3e 9d 04 f4 be c8 bb c2 3e 97 b7 16 bf
       0.2630684 -0.4765977 0.3803389 -0.58873886
000270 31 ab 8c be 30 f3 a3 3e b1 af 73 3e 8f 6d be 3e
       -0.2747436 0.32021475 0.2379749 0.37192962
000280 16 09 de bc be bb 9d 3e f8 be 69 3d 81 71 6d 3d
       -0.027103942 0.30807298 0.057066888 0.057969574
000290 ae 4e 61 be c1 f4 30 3e ed c8 7a 3e 03 c3 68 be
       -0.2200267 0.17280866 0.2449071 -0.22730641
0002a0 7e ed 87 3e 5d b6 95 3e 05 ef d3 be 69 29 93 be
       0.2654838 0.29240695 -0.41393295 -0.2874253
0002b0 3c c1 cf 3d 74 c2 13 be 40 e4 5b 3e 05 27 a9 be
       0.101442784 -0.14429647 0.21473789 -0.33037582
0002c0 b8 f2 7b bd 87 4b 02 3c 57 98 91 be 46 36 fc be
       -0.06151077 0.007952577 -0.2843654 -0.49260157
0002d0 67 9e 6f 3d 11 0b 90 3e 04 69 02 bd 82 da 29 bf
       0.058500674 0.28133443 -0.031838432 -0.6634904
0002e0 26 d4 96 3c 55 ee 48 3f a0 1b a7 3d 11 49 cc bd
       0.018411707 0.78488666 0.08159566 -0.09974874
0002f0 6c 57 68 3e 33 db 2a 3e c0 3f 09 bf 7b 4b 6d 3f
       0.22689599 0.1668518 -0.536129 0.926933
000300 86 ef 95 3e 13 0e 4e be 07 b6 9f be 6a ac 7a be
       0.29284304 -0.20122556 -0.31193563 -0.24479833
000310 90 6f cd 3e d2 6b 0d bf cb b9 8a be f4 56 45 bd
       0.40124178 -0.55242646 -0.27094874 -0.048178628
000320 8f 22 af bd 5e fe 18 bc 12 ac 1a 3e 16 87 3c bf
       -0.085515134 -0.00933799 0.15104702 -0.73643625
000330 13 fa 1c be 8b 31 c8 bd 53 98 19 3e 7a 37 cd 3d
       -0.1532977 -0.097750746 0.14999513 0.10020347
000340 be b1 d0 be 30 45 66 3f 42 dd 1d 3e 7e 14 15 be
       -0.40760607 0.8994932 0.15416434 -0.14558598
000350 1c 7b 5b be b0 1e a7 3e 13 58 3e be a4 d9 a1 3e
       -0.21433681 0.326406 -0.18588285 0.3161136
000360 f9 33 a2 be 88 f2 27 3f 86 6b e6 3d 0c 72 1a bf
       -0.31680277 0.6560445 0.11250977 -0.6033027
000370 72 08 68 be 03 20 6f be 1c 9a ea 3e 0c 0a a5 3e
       -0.22659472 -0.23352055 0.458207 0.32234228
000380 6f 4e cc 3e 5e 80 d1 be c9 d8 45 bf e7 5e dc 3e
       0.3990359 -0.4091825 -0.7728391 0.43041155
000390 f6 75 f1 3e 7d 97 4c bd 3f 72 14 be e6 9d 83 bd
       0.4716031 -0.049949158 -0.14496706 -0.06426601
0003a0 e4 e6 69 be eb 82 98 3e be f6 26 3e 93 17 88 3e
       -0.22841984 0.29787382 0.16305062 0.26580486
0003b0 d7 25 6a be ff d7 83 be 36 b7 84 3e 5b b9 f8 3d
       -0.22865997 -0.2575073 0.2592103 0.12144729
0003c0 f4 d4 6a 3e ce 6e 25 3f d2 15 fb 3e 2c 4b 5b be
       0.22932798 0.646222 0.49040085 -0.21415395
0003d0 9c 9e 8d 3e ad 0e 8a be 48 cd 8e be f3 d6 1b 3d
       0.27660072 -0.26964322 -0.27890992 0.03804679
0003e0 5b b1 f7 3e 55 3d a8 be 41 9b 13 be bf e0 28 be
       0.483775 -0.32859293 -0.14414693 -0.16491984
0003f0 ca 4e 8c 3e 86 92 85 be c8 6f c1 be 43 31 c0 be
       0.2740386 -0.2608835 -0.37780595 -0.37537584

VAE_Encoder.layers.0.attention.W_q.weight f4 [4, 4]
000000 db aa 51 be ae 5d 34 3f cd 81 0d bf fa 47 9c 3e
       -0.20475332 0.70455444 -0.55276185 0.30523664
000010 7f 49 10 3e b6 56 65 3d bc 12 74 3e 25 b1 d8 3e
       0.14090537 0.055990897 0.23835272 0.4232265
000020 22 68 87 3e 58 77 44 be 5a 0e ac 3e 90 96 fe 3e
       0.26446635 -0.19186151 0.336047 0.49724245
000030 36 b6 2d 3f fb e9 1d bf e7 97 ff bd be 74 8a be
       0.67856157 -0.6168515 -0.12480145 -0.27042192

VAE_Encoder.layers.0.attention.W_q.bias f4 [4]
000000 46 82 13 be 93 a8 33 3e 3f a4 04 3e a8 d5 40 3e
       -0.14405164 0.17544775 0.1295328 0.18831503

VAE_Encoder.layers.0.attention.W_k.weight f4 [4, 4]
000000 17 48 d4 be c9 43 df be ff 9d 6a 3e 82 60 0c bf
       -0.4146125 -0.43606403 0.22911833 -0.5483476
000010 ad d3 65 3e 3d 5b 0a 3f ae b6 ca 3e 2d ae 17 3f
       0.22444029 0.5404547 0.395925 0.59250146
000020 ce 69 a5 bd 64 3a e8 bd 50 93 03 bc 19 a0 17 3f
       -0.08076821 -0.11339262 -0.0080307275 0.59228665
000030 4c be 0d bf 41 0e 7f 3a 86 fd 16 3d 4a ea b4 3e
       -0.55368495 0.0009729602 0.036862873 0.35334998

VAE_Encoder.layers.0.attention.W_k.bias f4 [4]
000000 67 ba 91 3b da 61 16 bc e4 1e 0e 3b 65 ad 86 3c
       0.0044472697 -0.009178603 0.0021685893 0.016440103

VAE_Encoder.layers.0.attention.W_v.weight f4 [4, 4]
000000 b8 a5 ec 3e a7 0a 06 bf 15 e4 ad 3d eb e6 0f 3e
       0.46220183 -0.52360004 0.08490769 0.14052932
000010 84 6e 0f be fc 9b 55 3e 7a 63 73 bd 41 2d 16 3e
       -0.14007002 0.20860285 -0.05942104 0.146657
000020 0e 4d c3 be e5 b1 65 3e 4b 61 d7 bd 58 84 cd be
       -0.38144726 0.22431143 -0.10516604 -0.40140033
000030 53 22 27 be 59 48 92 bc e2 8a b4 3e 93 15 f7 3e
       -0.16321687 -0.017856764 0.3526221 0.48258647

VAE_Encoder.layers.0.attention.W_v.bias f4 [4]
000000 61 64 db bc 6c 46 52 3d bf b1 33 bc ee a7 3f bb
       -0.026781263 0.05133669 -0.010967671 -0.002924438

VAE_Encoder.layers.0.linear0.weight f4 [128, 4]
000000 84 1b e5 bd 35 4d a9 be 72 9f 33 3e da b2 f6 bc
       -0.11186889 -0.33066717 0.17541292 -0.03011458
000010 5a 7b 03 3f bd 6c 8e be 5c f6 83 3e 89 a6 be be
       0.51360095 -0.27817336 0.25773895 -0.3723643
000020 d0 b2 c3 3e 11 cf a7 be 05 3c bd 3a c2 e1 d9 3d
       0.3822236 -0.32775167 0.0014437443 0.10638763
000030 09 25 d6 3e 29 56 8c 3e 53 77 ae bd 86 6c a5 bd
       0.4182513 0.27409485 -0.08518853 -0.0807734
000040 80 13 3d be c0 c4 f1 bd c0 64 7d be 38 16 e1 bd
       -0.1846447 -0.11805105 -0.24745464 -0.10990566
000050 df 70 08 3f 93 da e0 be c5 0e 93 bd 79 66 84 be
       0.5329723 -0.4391676 -0.071805514 -0.2585943
000060 78 6a 08 3d d3 2b ac 3e 08 63 81 3d 6b 03 a9 3e
       0.03330466 0.33627185 0.06317717 0.3301042
000070 11 27 3b 3e b5 00 a4 3e 56 76 a3 3e 65 5f d6 3e
       0.18276621 0.3203179 0.3192622 0.41869655
000080 0c b7 b6 3e 80 fd d2 be 56 c0 a5 be 34 22 cc be
       0.3568653 -0.4120903 -0.32373303 -0.39869845
000090 34 93 a2 bd 44 9e 90 3e a7 41 96 3e e4 13 07 3c
       -0.07938233 0.28245747 0.29346964 0.008244488
0000a0 89 bf cf bb 08 3b d0 be 4b c7 9a 3d 5e a7 a7 3d
       -0.0063399714 -0.40670037 0.07557543 0.0818622
0000b0 94 92 7e be cb 02 ed be f5 35 86 3e be d1 0e 3e
       -0.24860603 -0.46291193 0.2621304 0.13947198
0000c0 ce f6 45 be a2 5b d4 be 53 e1 3c be fa 65 8d be
       -0.1933243 -0.4147616 -0.1844533 -0.27616864
0000d0 1a d5 ce 3e 99 54 39 3e fc c8 df 3d 69 ee dc be
       0.4039696 0.18098678 0.109270066 -0.43150643
0000e0 52 8c ad be 91 8f c3 3e 54 1b ad 3e f0 73 31 3d
       -0.33896118 0.3819547 0.33809912 0.043323457
0000f0 12 d9 a0 be 4f fc 80 be 9f 65 cd 3e e1 22 59 be
       -0.31415612 -0.25192496 0.40116593 -0.21204711
000100 c3 d2 c8 be 3f 58 e1 be b4 7d bf be 2e 47 bb be
       -0.39223298 -0.4401264 -0.3740059 -0.36577743
000110 65 fe 31 be 44 bd 24 3d f3 c1 85 3e ba 17 52 be
       -0.173822 0.04021956 0.26124534 -0.20516863
000120 ae d9 d3 3e ee e0 89 bd c1 e3 75 be 32 b0 41 3d
       0.41377014 -0.06732355 -0.24012662 0.047287174
000130 ff 4d b0 bd d5 89 ec 3d 5d 9f 0b bf 8c 4d 94 be
       -0.086086266 0.11549727 -0.54540044 -0.28965414
000140 91 57 df bd 5f c1 d9 3e 8a 31 16 be 00 97 eb 3e
       -0.10905374 0.42530343 -0.14667335 0.4601364
000150 ce 37 87 be c8 f1 a1 be a0 c6 0a be c0 59 ca bd
       -0.26409763 -0.31629777 -0.13552332 -0.098804
000160 d3 18 00 be 00 ab d0 bd 92 00 17 3e 47 d2 e8 be
       -0.1250947 -0.10188866 0.14746311 -0.4547293
000170 72 1e 9f 3e cc 28 81 3e ac bc 9b be 94 3d c7 3e
       0.31077915 0.25226438 -0.30417383 0.38914168
000180 e3 d5 d8 be f5 1a 3c bd f0 65 ce be 12 a0 95 be
       -0.42350683 -0.045924146 -0.40312147 -0.29223686
000190 0f 7f c1 be ea bf a1 3e ae 8b e2 3e 1f 45 e9 be
       -0.3779225 0.3159173 0.44247192 -0.45560548
0001a0 75 b6 6a be b5 90 43 3e 23 bd 0c bd 0e 0a 0c bf
       -0.22921164 0.1909817 -0.034360062 -0.5470284
0001b0 03 bc 37 3e a6 80 a4 3e 74 60 e6 39 0a 2c b8 be
       0.17942815 0.321294 0.00043940882 -0.359711
0001c0 c3 b3 ac 3e 8e 77 d4 be 1f e9 a9 be e6 3d 7b be
       0.33730897 -0.41497463 -0.3318567 -0.24535331
0001d0 7b b4 ff 3e 41 59 3a 3e e4 95 f8 be f6 5a 00 be
       0.49942383 0.1819811 -0.48551857 -0.12534699
0001e0 d1 0c 80 3e 4b 68 52 be 21 77 4b 3e a4 84 26 be
       0.25009778 -0.20547597 0.19869663 -0.16261536
0001f0 0f 8e d4 be cd 64 64 3d d2 f2 44 be 99 98 9c 3e
       -0.41514632 0.055760194 -0.19233254 0.30585173
000200 ff 88 70 be ab d7 82 3d e8 73 9a bd d5 3c 35 bf
       -0.2348976 0.06388792 -0.075416386 -0.7079595
000210 78 34 0b bf 5f 10 cf be e9 dc c2 3e ec fa b1 bb
       -0.54376936 -0.40442178 0.38059166 -0.0054315235
000220 2b 94 45 3e 08 35 26 3e 33 51 a5 bd 39 21 a7 be
       0.19294803 0.16231167 -0.08072128 -0.32642534
000230 08 46 45 be 17 08 76 be b4 58 40 3e ff 11 63 bd
       -0.19264996 -0.24026524 0.18783838 -0.055437084
000240 cd 10 f4 3d f8 9d 62 bc 36 6a df be e9 ae 9e 3e
       0.11917267 -0.013831608 -0.4363572 0.3099282
000250 c6 39 b3 be dc d0 5a be 83 2f ff 3d d5 09 41 3d
       -0.35005015 -0.21368736 0.12460234 0.047128517
000260 0e f5 a0 3d 0a 82 0c be 3e b4 6f be ce 4b e7 be
       0.078592405 -0.13721481 -0.234086 -0.45175022
000270 bf 27 86 3e 7e 74 0b bf 86 82 fc be ab 75 dd be
       0.262022 -0.5447463 -0.4931833 -0.43253836
000280 3a 51 73 be bc ed f2 3d 42 af 74 be 9c 31 f9 3d
       -0.23761454 0.118617505 -0.2389498 0.12167665
000290 6d aa fe bd d4 34 52 3d 13 ba 91 3e 2a f4 ba 3e
       -0.1243485 0.051319912 0.28462276 0.36514407
0002a0 e5 c0 40 3c 11 13 c5 be c9 65 01 3f 5b a5 a6 be
       0.01176474 -0.3849111 0.50545937 -0.3254803
0002b0 28 8f 9d 3e e4 a2 c0 3e d0 0f 8a 3e 5b 98 51 be
       0.30773282 0.37624276 0.2696519 -0.20468275
0002c0 8a 0c e2 be 24 50 47 3e a2 ce 8a be 1e 77 f1 be
       -0.44150192 0.19464165 -0.27110773 -0.47161192
0002d0 12 f0 64 be 34 b8 c3 be 35 c3 01 3e a7 b9 4b 3b
       -0.22357205 -0.38226473 0.12672122 0.0031086
0002e0 99 50 ee 3d b6 32 7f be 8a 29 83 bc cc 9c 63 bc
       0.116364665 -0.24921688 -0.016011018 -0.013892364
0002f0 8b df 9b 3e f1 4c e1 be ec 48 21 be 94 ea 62 be
       0.30443987 -0.44004014 -0.15750474 -0.22159797
000300 8b 2b 92 3e 74 f2 f7 3e 95 52 b0 bd 4a 18 b4 3d
       0.28548846 0.48427165 -0.08609501 0.08793695
000310 d9 ff 19 be 18 5c e0 be 05 bd 19 be 8d 55 a8 3e
       -0.15039004 -0.43820262 -0.15013511 0.3287777
000320 60 83 07 3c 8f c8 a4 3e 0c 27 c4 3e c2 e1 a8 3e
       0.008271068 0.32184264 0.3831104 0.3298474
000330 f2 4e e1 3e 5a dc 32 3d bb 23 82 be 04 59 03 bf
       0.44005543 0.043667175 -0.25417885 -0.513077
000340 62 48 c0 3e 6a 8f ec 3e 64 1d dd 3b 26 a5 05 3f
       0.37555224 0.46203166 0.0067478884 0.5220512
000350 0e 9d b9 3e 01 38 a2 3e e2 92 17 3e 66 bf a7 be
       0.36252636 0.31683353 0.14802125 -0.32763213
000360 c3 be 19 bf 32 94 5d 3d c1 1c c1 3e 9e 8d 62 3e
       -0.60056704 0.05409641 0.3771725 0.22124335
000370 9a 7a a1 bd 18 1d 3b 3e 91 29 81 be dc 17 52 be
       -0.078847125 0.18272817 -0.25227025 -0.20516914
000380 02 f8 64 be d2 aa b8 be bb a9 de 3e c3 0d f4 3e
       -0.22360232 -0.36067826 0.4348887 0.4766675
000390 e8 29 7f 3e db 40 a5 be 52 7d 83 3e e7 fe 53 3d
       0.2491833 -0.32276043 0.2568155 0.051756766
0003a0 10 da 9a be dd 09 08 be 5d c1 e7 3c 16 83 27 bc
       -0.30244493 -0.13285013 0.028290445 -0.010224124
0003b0 0a 39 ac be 60 cf 18 3e 6f 20 d3 3e 0a 48 56 3e
       -0.33637267 0.14922857 0.41235682 0.20925918
0003c0 00 56 b5 3c 2c 28 f6 3e d7 ff 4f 3e 59 97 83 3e
       0.022135735 0.48077524 0.20312439 0.25701407
0003d0 20 29 40 be ce 79 03 bd bb e1 05 be 9a 4d 0a bf
       -0.18765688 -0.032098584 -0.1307439 -0.5402466
0003e0 1a b2 88 bd 91 7e b3 3e ad fd ea be a0 af fd be
       -0.06674595 0.350575 -0.45896664 -0.49548054
0003f0 33 06 27 bc 66 a4 97 3e b7 9b 6a be aa 70 c0 be
       -0.010194349 0.29617614 -0.22910963 -0.37585956

VAE_Encoder.layers.0.linear0.bias f4 [128]
000000 72 a3 e3 3e d5 40 8a be a5 b5 f8 be 17 1d 0c be
       0.44460636 -0.27002588 -0.48576084 -0.13682972
000010 6a 7d 83 be 53 b2 20 be 2a da cb be 86 e3 8c 3e
       -0.2568162 -0.15693025 -0.39814883 0.27517337
000020 28 e2 b0 be d5 50 fc 3d b2 9a 24 be f6 dd e6 bd
       -0.34547544 0.12320105 -0.16074637 -0.112728044
000030 5d b4 c6 3e da 55 a5 be 89 10 9f be f2 ff 98 3e
       0.3880948 -0.32292062 -0.31067303 0.2988277
000040 d4 f0 ef bd f4 1f 74 3e fa 02 98 bd e6 55 29 3e
       -0.11715856 0.23840314 -0.07422443 0.16536674
000050 35 5d 1a bb 9a d8 d4 3e 96 4b 64 be 28 38 aa be
       -0.002355409 0.41571504 -0.22294459 -0.3324597
000060 c6 46 d6 3e 4e 31 9c be 28 e6 03 bf a4 4b 26 be
       0.4185087 -0.30506366 -0.51523066 -0.16239792
000070 83 1d 48 be d5 14 b3 be e9 52 f0 bd 96 bd 8a bd
       -0.19542508 -0.3497683 -0.11734564 -0.06774442
000080 9a b2 a4 be f3 e5 df be 3a a8 8d 3e 2f 7f 9f 3e
       -0.32167512 -0.43730125 0.2766741 0.3115172
000090 fa 4b 33 3e 91 db 71 3e 41 81 94 be bf 1d ec be
       0.17509452 0.23618914 -0.29004863 -0.46116444
0000a0 58 37 4c 3e 41 ec 9e be 80 cc e5 3e a4 54 85 bd
       0.19942987 -0.31039622 0.44882584 -0.065102845
0000b0 ba 1f 85 3e 25 66 e3 bd 10 c0 e6 3e 24 71 0c be
       0.26000768 -0.11103467 0.45068407 -0.13715035
0000c0 ba cb 08 be b0 08 4c 3e 8f 1e 4d 3e ab ab c0 3e
       -0.13358966 0.19925189 0.20031188 0.37630972
0000d0 81 88 5b be 69 c7 e7 bd a2 57 c4 3e 97 13 85 be
       -0.21438791 -0.11317331 0.3834811 -0.25991508
0000e0 e8 82 37 bd 6b a2 1b ba 1d d0 c2 be 4c f1 53 be
       -0.044802576 -0.0005936983 -0.38049403 -0.20697516
0000f0 d0 81 2d 3e de d7 1d be 43 9e b3 be df d8 82 be
       0.16944051 -0.15414378 -0.35081682 -0.25556085
000100 b0 38 4d 3e 50 cc be 3d 30 ec b8 3e 8e 7c a4 3d
       0.20041156 0.09316313 0.36117697 0.080315694
000110 9c d5 0b 3e 4d 5f be bd 1d 58 b0 3e af 29 cf bc
       0.13655704 -0.09295521 0.34442225 -0.025288431
000120 44 7f 05 3f 98 9f de 3e 5c 67 b2 be 8a d8 ca be
       0.52147317 0.43481135 -0.34844482 -0.3961833
000130 0a 46 dc be e6 84 91 3e 52 d5 bc 3c d2 48 cd bd
       -0.43022186 0.28421706 0.023050938 -0.10023655
000140 9f 5c 90 be 49 26 07 bf c6 e9 d3 be f2 99 e8 3e
       -0.28195664 -0.52792794 -0.41389292 0.4542995
000150 7e 31 d6 be 0b 73 3a bd 85 4e bd bc a0 ea 2f be
       -0.41834635 -0.04551987 -0.02310873 -0.17179346
000160 49 b2 4b 3e 82 f3 15 3e 5a 1a ed 3d 2a 4d 63 3e
       0.19892229 0.14643672 0.11577292 0.22197405
000170 d4 ed f0 bd bf 46 0c bd 59 bd b3 be 9d 5b a6 be
       -0.11764112 -0.034247156 -0.35105398 -0.3249177
000180 6e 02 8b be 7d 5d d8 be 9b 23 31 be 5a 2f 99 be
       -0.2715029 -0.42258826 -0.17298739 -0.2991894
000190 a9 22 0a bf 08 02 0d bf 9e 51 95 3d 95 be 42 be
       -0.5395914 -0.55081224 0.07290958 -0.19018014
0001a0 ef 63 d2 be 38 cb c6 be de 66 8f 3e 81 cd 86 bd
       -0.41091868 -0.3882692 0.2800817 -0.065821655
0001b0 f3 45 33 be bc d8 b2 3e d3 2b 8f bc 6b 48 81 be
       -0.17507152 0.3493098 -0.017476952 -0.25250563
0001c0 b8 67 e4 be b4 b2 06 bf 23 0c e4 3c 5d dc 1a 3e
       -0.4461038 -0.5261643 0.027837818 0.15123124
0001d0 78 11 4c be f8 d9 44 3e 91 71 cf be e1 8a 07 be
       -0.19928539 0.19223773 -0.40516332 -0.13236572
0001e0 c6 0b d6 3e c4 b3 ec 3e 6a 01 d8 3e 67 ac ba be
       0.41805857 0.462309 0.4218858 -0.36459658
0001f0 c7 28 a0 3e 2f 25 df be 2d 89 8a 3e 55 9b ee be
       0.3128111 -0.43583056 0.27057782 -0.46602884

VAE_Encoder.layers.0.linear1.weight f4 [4, 128]
000000 86 b0 f3 3c b7 c5 94 3d 60 ea 03 3d f4 b8 94 3c
       0.029747259 0.072642736 0.03220594 0.018154599
000010 8d 70 35 bd 19 01 9e bd 31 e6 0c be 1c 21 fd 3c
       -0.04429679 -0.07715053 -0.13759686 0.030899577
000020 9b 87 05 3d a1 b7 eb 3c b1 1f 24 bc 3a e6 b3 bd
       0.032600027 0.028774085 -0.010017321 -0.087841466
000030 20 4f a6 3d 48 72 bc 3d 93 35 dd 3c 48 82 d9 bd
       0.08120561 0.09201485 0.027003085 -0.10620552
000040 66 68 d5 3c 20 94 0d bd 10 b3 aa 3d 7d 63 f1 3b
       0.026050758 -0.03456509 0.08334935 0.0073665963
000050 7c 91 fc 3d 9f c2 82 bd 6b c9 e5 bd c2 35 50 bb
       0.123324364 -0.06384777 -0.11220058 -0.0031770323
000060 8e 1f 0f bc 52 71 d1 3d ff 0d 89 bc 05 85 6b bd
       -0.008735551 0.10226692 -0.016730307 -0.057499904
000070 c4 84 a1 3d 72 91 92 3d 2f 17 94 3c 96 17 12 3e
       0.07886651 0.07156648 0.018077461 0.1426681
000080 8b 90 ce bd 4d 92 7e bd 41 d0 6b bd 32 57 10 bb
       -0.10086163 -0.062151242 -0.057571653 -0.0022024629
000090 c3 98 40 3d 53 f4 0c 3c ff ad 0a 3e 82 ce c9 3c
       0.047020685 0.008603173 0.13542937 0.024634603
0000a0 ac b1 ce bc 43 0a 56 bd 50 fb 4f bd a5 15 91 bd
       -0.025231205 -0.05225588 -0.05077678 -0.070842065
0000b0 44 1a c6 bd dd 3b 26 be e7 94 b5 3d 14 a8 4c 3d
       -0.096729785 -0.16233774 0.088662915 0.04996498
0000c0 48 98 83 3d d2 61 c1 bd e7 0d d2 bc de da 4b bd
       0.0642553 -0.09442486 -0.025641395 -0.049769275
0000d0 79 ac ec 3c d8 b1 a1 3d 3e c2 42 3c b2 9f a0 bd
       0.028890835 0.07895249 0.011887131 -0.078429595
0000e0 6d fd a3 bd 04 eb a3 bd a5 01 ce bc e3 ae e9 3c
       -0.080073215 -0.0800381 -0.025147269 0.028525775
0000f0 5b ee 33 bd 60 70 6a 3c 9d 5a 9c 3d 70 bb 5d bd
       -0.043928485 0.014309019 0.076344706 -0.054133832
000100 39 a2 d3 3d bf a8 bf 3d cc a0 17 bd 50 54 19 bd
       0.10333676 0.09358358 -0.037018582 -0.037433922
000110 8c 47 53 bc 5c 94 36 3d 55 6a 47 bd f8 85 d4 3d
       -0.012895476 0.04457508 -0.04868539 0.10377115
000120 e5 82 90 bd b3 95 42 bd 30 e4 83 3d d7 34 3c 3b
       -0.07056216 -0.047506046 0.06440008 0.0028718018
000130 36 22 a3 3d e9 43 b2 bd 4b 5c c4 3d 1c f5 db bd
       0.079655096 -0.08704359 0.09587916 -0.1074011
000140 a4 05 31 bd 4c fd 15 3d 04 26 80 bc 2c a3 cb bc
       -0.04321827 0.036618516 -0.015643127 -0.02485808
000150 37 6b d6 3d 1a 70 06 3e 87 71 9e bd 75 42 02 3e
       0.10469668 0.13128701 -0.07736497 0.12720664
000160 60 aa fb bc e1 eb a4 bd f7 66 fa 3d 8c 18 91 3d
       -0.03072089 -0.08052803 0.1222667 0.0708476
000170 33 3c ee bd 15 c7 cc bc 3b ff c2 3d ce 69 c8 3d
       -0.11632576 -0.024997273 0.095213376 0.09785806
000180 05 43 9f 3b 09 e0 22 bd d4 dc 1a bc 1a 3a 90 3d
       0.0048602843 -0.039764438 -0.009452064 0.07042332
000190 f0 1f bd 3d 36 5a b0 3e 27 f4 a4 3d dc c9 8d 3d
       0.09234607 0.34443825 0.08054381 0.06923267
0001a0 c1 69 5e bd 32 8d 62 bd ce a2 c7 bb 1d 7a 83 3d
       -0.054300074 -0.055310436 -0.006092406 0.06419776
0001b0 4f d3 e8 3b c6 ce cc 3c dd c3 8d 3d ca 80 84 bd
       0.007105268 0.025000941 0.069221236 -0.06469877
0001c0 89 69 91 3d fd ed e8 3b 19 f9 b4 bb 1c ee dc 3d
       0.07100207 0.0071084485 -0.005522859 0.10787603
0001d0 c9 5f 2c bb c1 c8 aa bd 18 3d 35 3d 25 2d 9e 3c
       -0.002630221 -0.08339072 0.044247717 0.019308636
0001e0 d8 60 b3 3c f7 a5 4b 3c de 83 5b bc 68 c0 cb 3c
       0.021896765 0.012429706 -0.013398139 0.02487202
0001f0 5f 83 8c 3d 93 01 ad bd cb 23 35 3d 07 2a 88 bd
       0.068609945 -0.08447566 0.044223588 -0.06648641
000200 10 26 6b bd 96 bb 0c 3e 08 11 c3 bd 41 8c 44 bd
       -0.057409346 0.13743433 -0.09524733 -0.04798532
000210 d5 fb ac bd b5 8a bf bd f1 14 9c 3d 21 0a 04 bd
       -0.08446471 -0.09352628 0.07621182 -0.032236222
000220 94 4c 59 bd 92 bb 39 3d b6 15 40 3d ab 62 66 bd
       -0.053051546 0.045344897 0.046895705 -0.05624644
000230 7b 65 99 bd f7 76 46 bc 9c c3 22 bd af dd 40 bd
       -0.07490059 -0.012113324 -0.03973733 -0.047086414
000240 b9 5e e7 3b 2c e4 9c 3d ab de 17 bd d4 c9 a0 3d
       0.0070608524 0.07660708 -0.037077587 0.07850996
000250 09 e6 e0 3d df a0 79 3d 4d a2 72 3d b5 65 8e 3b
       0.10981376 0.060944434 0.059236813 0.0043456205
000260 28 45 d0 3b 2e 6d b0 bd 5c fd 9b bb de dd 3c bd
       0.0063559003 -0.086145744 -0.0047604274 -0.046110027
000270 81 8c 53 3b 17 80 c2 3d 88 2b 98 3d e2 03 27 bd
       0.0032279792 0.094970874 0.07430178 -0.040775187
000280 c4 dd 68 3e 90 91 96 bb 68 f1 1b 3d 5a ca a9 3d
       0.22740847 -0.004594989 0.03807202 0.082905486
000290 73 7e 57 bd b6 c1 a6 3d b9 06 20 bd ab 7d ed bd
       -0.052610826 0.08142416 -0.03906891 -0.11596235
0002a0 78 e7 c8 3c 15 96 ce bd 87 79 98 3d eb 47 46 3e
       0.024524435 -0.100872196 0.074450545 0.19363372
0002b0 f2 2d 85 bd e6 5f e3 bd 6a a1 29 bc 85 a6 21 bd
       -0.06502904 -0.111022756 -0.0103534255 -0.039465446
0002c0 ef 22 d3 3d 9f 3b 94 3d 1e 74 48 bd 60 a6 ab bd
       0.103093974 0.07237934 -0.048938863 -0.08381343
0002d0 e6 2f 30 3e 1b 67 94 3d 27 5b 27 3d 85 e3 3f be
       0.17205772 0.07246228 0.040858414 -0.18739136
0002e0 2c cf 9b 3d 60 b0 4c 3d f2 1a e2 3c bf e5 ee bc
       0.07607874 0.04997289 0.02760074 -0.029162286
0002f0 35 59 e0 bd 30 ef 00 3e 0d df d5 bd 08 3a 55 be
       -0.10954515 0.12591243 -0.10442934 -0.20822918
000300 fe 15 25 bc e4 b4 c1 bd 14 28 a9 bd 84 06 84 bd
       -0.010076044 -0.0945833 -0.082595974 -0.06446555
000310 d5 6f 04 3d f2 ce 94 bd d7 43 d8 3d 7d 8b 15 3d
       0.032333214 -0.07266034 0.105598144 0.03650998
000320 ee a0 77 bd 66 a2 b7 bd db 91 7f be 58 01 a1 bd
       -0.06045621 -0.08966522 -0.24957983 -0.078615844
000330 06 25 04 3e b2 35 ef 3c 21 ac 7b 3c f7 8c 95 bd
       0.12904748 0.029200409 0.015360863 -0.073022775
000340 0a 7f 6c bd 2c a7 01 be 73 2c 02 be f0 80 06 bd
       -0.05773834 -0.12661427 -0.12712269 -0.032837808
000350 d2 ca 71 bd 9d d9 95 3c 14 1a e9 bd 75 1d 32 bd
       -0.059031315 0.018292243 -0.11381927 -0.043485124
000360 c7 b3 b3 3d ae 2e d9 3d 8d 14 94 3d c4 e7 1d 3c
       0.08774524 0.106046066 0.07230482 0.009637777
000370 1b 03 cc bc 2d d7 d6 3c 09 f3 48 3d 19 7b 78 3d
       -0.024903825 0.02622565 0.0490599 0.06066427
000380 c4 9f 5b bd 9c c2 52 3e 50 4c 67 bd 57 c9 fc 3d
       -0.05361916 0.2058205 -0.05646926 0.1234309
000390 0b fa bc bc 05 79 83 bd 7b 23 b5 bd 24 b4 05 bd
       -0.023068449 -0.06419567 -0.08844658 -0.0326425
0003a0 00 92 49 3c 57 49 b5 bc 18 94 c0 bd a6 86 9a 3d
       0.0123028755 -0.022129698 -0.09403247 0.075452134
0003b0 ed e4 88 3d 62 d6 f8 bb cf f3 95 bd 69 16 bf bd
       0.06684289 -0.007593916 -0.073218934 -0.09330446
0003c0 5e 8c 23 bc d9 07 9d 3d 57 3c b0 bd 26 6f 7d 3d
       -0.009982197 0.076675124 -0.08605259 0.061873578
0003d0 0d 6e c6 bc 5e 9e 51 3d 97 fb b0 bc c5 f5 61 3c
       -0.024222398 0.05117642 -0.021604342 0.013791506
0003e0 04 ac 86 bc 67 56 15 3d bd 0c 92 bc 4b 60 09 bd
       -0.016439445 0.036459353 -0.01782834 -0.033539098
0003f0 ab 7b a7 3d b0 cb 07 3e 58 8b 2c bd 58 03 ae 3b
       0.08177885 0.13261294 -0.042125076 0.005310457

VAE_Encoder.layers.0.linear1.bias f4 [4]
000000 0d 9d f1 bb 7a ce 39 3c 4e 4c d6 bd 25 11 48 bd
       -0.0073734582 0.011340732 -0.10463773 -0.048844475

VAE_Encoder.layers.0.norm1.weight f4 [4]
000000 19 b7 87 3f b1 1d 79 3f 3a 99 80 3f d5 48 89 3f
       1.0602752 0.9731093 1.0046761 1.0725352

VAE_Encoder.layers.0.norm1.bias f4 [4]
000000 f6 b6 b1 3c 96 40 68 3c 8b 01 57 bb b7 4b 3d 3b
       0.021693688 0.014175555 -0.0032807316 0.002888424

VAE_Encoder.layers.1.attention.W_q.weight f4 [4, 4]
000000 8f 19 1e 3e a0 96 7c 3e 2d 7f c4 be bf 2f b8 be
       0.15439437 0.24666834 -0.38378277 -0.35973927
000010 5c b8 6d be 01 f9 2c 3e a1 c2 65 3e 8b f0 7c bd
       -0.23214859 0.16891862 0.22437526 -0.061752837
000020 8a ba 1b 3e 6a b9 c7 be 3b 2d 7b bd 02 03 7f be
       0.15207878 -0.39008647 -0.061322432 -0.24903491
000030 ab 30 58 3e d3 58 03 bf 11 77 0f be b9 74 bf 3c
       0.21112315 -0.5130741 -0.14010264 0.023371087

VAE_Encoder.layers.1.attention.W_q.bias f4 [4]
000000 7f 15 96 3d 17 cc b2 bd 30 5e 1d 3c 7b 1a 40 3d
       0.07328319 -0.08730333 0.009604976 0.046900254

VAE_Encoder.layers.1.attention.W_k.weight f4 [4, 4]
000000 73 3b c1 bd d9 f9 b4 be dd b9 c2 be c8 fc 42 be
       -0.09435167 -0.3534687 -0.38032427 -0.19041741
000010 6e 52 6e be 71 09 b1 3e 05 fe d1 3b c8 ce 1d be
       -0.23273632 0.34577516 0.0064084553 -0.15410912
000020 f0 43 39 3e 97 5c e7 3d 5d d4 15 3d 5e ea b3 be
       0.18092322 0.11296957 0.03657948 -0.35139745
000030 a7 13 f4 3d 99 d7 e5 be 96 1f 09 3f b5 e4 09 bf
       0.11917811 -0.4489105 0.5356382 -0.53864604

VAE_Encoder.layers.1.attention.W_k.bias f4 [4]
000000 cb 8c 9b 3a d3 37 99 3b 4f b8 08 ba 99 b7 b3 bb
       0.0011867521 0.004675844 -0.00052154524 -0.005484533

VAE_Encoder.layers.1.attention.W_v.weight f4 [4, 4]
000000 de af db be e6 09 71 3e d5 aa cb 3e f0 32 98 3e
       -0.42907614 0.23538932 0.39778772 0.29726362
000010 02 43 38 3d 66 1f 68 3d 84 21 85 be 14 19 f0 3d
       0.04498578 0.05667057 -0.26002133 0.11723533
000020 71 d0 bc 3e b4 eb f3 3e 07 66 86 3e 1c 07 ea bd
       0.36877778 0.47640765 0.26249716 -0.11427137
000030 3a b5 32 3e cd f1 c4 be 43 d7 ac bd 58 4d 77 3e
       0.17451945 -0.3846573 -0.084394954 0.24150598

VAE_Encoder.layers.1.attention.W_v.bias f4 [4]
000000 54 8f 78 bc 21 a1 8e bc 32 39 87 bc ca 79 16 3a
       -0.015170891 -0.017410817 -0.016506765 0.0005740194

VAE_Encoder.layers.1.linear0.weight f4 [128, 4]
000000 cc f1 eb 3c 4b 1a 2d be 6f cb 11 bd 42 2a 82 be
       0.028801821 -0.16904561 -0.0355944 -0.25422865
000010 65 be b0 be 4e 5b 95 be a0 76 6c 3e 59 2e 16 be
       -0.3452026 -0.29171222 0.23092127 -0.14666118
000020 71 b9 78 3e 1c c1 f0 be fb eb c1 3e f2 10 e1 3c
       0.2428949 -0.4702233 0.3787535 0.0274739
000030 79 7a e4 3d 13 73 9f 3e 87 db 80 be 0d d5 25 bd
       0.11156172 0.31142482 -0.25167486 -0.040486384
000040 c6 ba a6 be 26 62 93 be 68 10 44 3c 91 8e 00 bf
       -0.32564372 -0.2878582 0.011966802 -0.5021754
000050 4c 19 6f be 80 e4 5f be b2 01 af be 96 86 db be
       -0.23349494 -0.2186451 -0.3418098 -0.42876118
000060 89 e0 c0 be bb 6c 7f 3e 26 27 0b be 27 b5 87 be
       -0.37671307 0.24943821 -0.13589153 -0.26505396
000070 37 70 08 3e 11 a9 e5 bd e8 49 89 bd 28 a6 b8 be
       0.13324057 -0.112138875 -0.067035496 -0.36064267
000080 06 91 6d be cc 60 cb be 05 29 c8 be 82 ca d6 3e
       -0.23199853 -0.39722288 -0.39093795 0.41951376
000090 38 58 67 be eb 46 33 bd ae 88 ef 3e b5 b9 9a be
       -0.22592247 -0.043768805 0.46783966 -0.30219808
0000a0 f8 a9 02 bf 2a 97 06 be 31 42 0f 3d 0d 1e a1 be
       -0.510406 -0.13143602 0.034975234 -0.3146824
0000b0 74 b4 3d 3e ba 66 b1 3e 2b 42 89 be d1 84 f0 3d
       0.18525869 0.34648687 -0.26808295 0.11744083
0000c0 1b 70 0d 3f f7 64 7a 3e 5a d1 ce 3e 5f 7b 0a 3e
       0.55249184 0.24452578 0.40394098 0.13523625
0000d0 4f 0f 24 3e a2 92 03 bf 35 63 71 3c e2 1b 25 3e
       0.16021465 -0.5139562 0.014733125 0.16123918
0000e0 b5 8b b9 bd 33 f0 3f be fd da ba be c6 64 05 3e
       -0.0905985 -0.18743972 -0.364952 0.13026723
0000f0 fa e0 fd be 86 f7 c8 be b6 a2 aa 3e c1 ee 46 be
       -0.49585706 -0.39251345 0.33327264 -0.19427015
000100 f7 3a 86 3e 89 52 ca 3e 71 36 4c be 6e 45 6a be
       0.26216862 0.39516094 -0.19942643 -0.22878048
000110 12 a5 55 be dc 98 90 3e f7 3d 8e be 19 af 4b 3d
       -0.2086375 0.28241622 -0.2778165 0.049727533
000120 09 92 19 3f a3 42 f9 bd 0e 2e a9 be de d1 95 3b
       0.59988457 -0.12170913 -0.3304295 0.0045721373
000130 d0 8e d4 3e 74 be c1 be 2c 96 be 3e b1 c8 66 3e
       0.41515207 -0.37840617 0.37223947 0.22537495
000140 d0 84 01 3f 25 17 93 be 9c 2c f0 3d 2a 00 66 be
       0.5059328 -0.28728595 0.117272586 -0.22461
000150 8d d6 a0 3e dc ab cb be ac 5b 3d 3d 98 a6 a5 be
       0.3141369 -0.39779556 0.046230003 -0.32353663
000160 27 10 14 3e c5 6f 4f 3e 2b 25 1c 3e 09 4e e0 bd
       0.14459287 0.2025748 0.15248553 -0.10952384
000170 b9 82 bf 3e ea 1f 9f 3d 89 69 bc 3e 6b fb b0 3d
       0.3740442 0.07769759 0.36799267 0.08641704
000180 45 53 77 3e f6 63 48 3e 54 d1 6e be 3d 6c fc be
       0.24152859 0.19569382 -0.2332204 -0.4930133
000190 80 14 a4 be e9 80 ed bd f9 1b d4 be 8c 96 be 3e
       -0.3204689 -0.11596853 -0.4142759 0.37224233
0001a0 73 41 bf be 6f 29 52 3e 63 fa 0a 3e bd a4 2e 3e
       -0.3735462 0.20523618 0.13572077 0.1705503
0001b0 e9 4e 99 be 42 87 1f bd 0d d9 bb be 9d fb f7 3e
       -0.29943016 -0.03894735 -0.36689034 0.48434153
0001c0 eb fe ff be 63 4b d4 be 52 88 00 3f 43 8f f9 3e
       -0.49999174 -0.41463766 0.5020801 0.48742113
0001d0 7a 25 68 3e 3b ac 05 3e f8 85 0e bd 81 68 34 3e
       0.22670546 0.13053982 -0.03479573 0.1761799
0001e0 58 dd 1d 3e 08 8a e8 be c8 d7 f5 be b4 75 3e be
       0.15416467 -0.4541781 -0.4801619 -0.18599588
0001f0 d7 f1 dd 3e 6e 55 93 be cc 6b f5 be a9 59 59 be
       0.43348572 -0.28776115 -0.47933805 -0.21225609
000200 8e 01 aa 3d d8 c3 db bd f3 23 97 be 9d a4 38 be
       0.08301078 -0.107307136 -0.29519615 -0.18031545
000210 c0 47 9b be a0 b0 96 3e cc c6 e1 be b6 b1 38 3e
       -0.30328178 0.2943163 -0.44096982 0.18036541
000220 8c 45 6c 3e 04 98 3a be 67 35 a7 3e 2b 99 96 be
       0.23073405 -0.18222052 0.3265793 -0.29413733
000230 1c 14 b1 bd 3d 89 c5 3e 19 30 b4 3e 45 cf 1b bf
       -0.08646414 0.38581267 0.35192946 -0.60863143
000240 a8 89 f7 3d cb 89 0f 3e cc 82 9f 3d 55 b2 df be
       0.12086803 0.14017408 0.077886194 -0.43690744
000250 e2 ba bd be 2d bc d2 3e 6d 37 70 be 14 70 ed 3c
       -0.37056643 0.41159192 -0.23458643 0.028984107
000260 7e b5 1d be 2f 0a 59 3e 52 cd a2 3e 32 e5 aa 3e
       -0.15401265 0.21195291 0.31797272 0.33377987
000270 0c 4f c4 3e 74 4d 3a bd cb a7 91 be 4e 47 db be
       0.38341558 -0.04548402 -0.28448328 -0.4282784
000280 66 38 9d 3e 2e 0f 9a bd 43 a0 22 3e d1 ad 0b 3e
       0.3070709 -0.075224265 0.15881447 0.13640524
000290 b5 db 04 3f dc 33 d1 be 03 13 95 be 9c 1a 07 3e
       0.51897746 -0.40859878 -0.29116067 0.13193744
0002a0 65 71 bd 3e 50 24 be bd 13 53 18 3e 21 40 03 3f
       0.37000576 -0.0928427 0.1487544 0.5126973
0002b0 b8 cf fa be d9 7b e9 3d f7 c6 80 3e 08 42 dd 3a
       -0.48986602 0.11400575 0.25151798 0.0016880641
0002c0 9c fb 41 3e 9b 74 d2 be ed 68 c0 3e c2 1d 04 3f
       0.18943638 -0.41104588 0.37580052 0.51607907
0002d0 1d a3 36 3e 30 3d bd 3e 4b 28 a1 3e 37 64 08 3f
       0.1783566 0.36960745 0.31476054 0.53277916
0002e0 48 46 c9 3d f0 b0 44 be 98 6b 0d 3e c7 06 5a be
       0.09827858 -0.19208121 0.13810575 -0.21291648
0002f0 a7 57 e5 bd 2f f0 da 3e d0 4b 81 3d 26 e5 bb be
       -0.11198359 0.4276137 0.06313288 -0.36698264
000300 d5 2f d8 3d 7e 9d c0 3e de d5 03 be 03 a4 71 3e
       0.10555998 0.37620157 -0.12874553 0.23597722
000310 1a 6c 2a be bc 11 f4 3e 89 4a 1c be f7 69 a1 be
       -0.166428 0.4766978 -0.15262808 -0.31526157
000320 85 38 a7 3e 3f 2a 7b be 94 65 be 3e ab db f0 3e
       0.32660308 -0.24527834 0.37186873 0.47042593
000330 e7 27 f8 3d 18 6a 22 3e 17 14 63 3e a9 e2 bd be
       0.12116986 0.15860784 0.22175632 -0.3708699
000340 d4 c7 c9 3e 58 d6 12 3e d9 44 e3 3d e0 0a 11 bd
       0.3941027 0.14339578 0.11097116 -0.03541076
000350 aa 46 28 3e 10 a4 94 bc 58 87 7e 3e 6c 69 31 be
       0.16433206 -0.018144637 0.24856317 -0.17325372
000360 6f 7f fa 3e f8 fe 6e 3e 3f dc da 3e 77 db f7 3e
       0.4892535 0.2333945 0.4274616 0.48409626
000370 43 ab 44 be 99 a3 03 bf c7 84 1c 3f 8a 77 a9 3e
       -0.19205956 -0.51421505 0.611401 0.33099014
000380 de 04 2a be 89 42 fd be 9e 09 bb 3d 5a fd 56 3d
       -0.16603419 -0.49464825 0.09132694 0.05248771
000390 3a fd 84 3e 7a 22 27 be 97 8b 84 3d 76 28 e0 be
       0.25974447 -0.16321746 0.06471937 -0.4378087
0003a0 96 17 1b 3d 1a 97 83 bd b7 d8 86 3e 0a 0c b9 be
       0.03786429 -0.06425305 0.26337215 -0.36141998
0003b0 a0 0e e7 3e e1 9a ba bd c0 29 93 bc 92 4d 2c be
       0.45128345 -0.09111572 -0.017964244 -0.16826466
0003c0 88 8e 2e 3e e7 ce 6e 3c e5 11 a2 be 7f a3 8b be
       0.17046559 0.014575697 -0.31654277 -0.27273175
0003d0 32 9f ab bc 13 0b cb 3c 31 7e c5 be b7 42 97 3b
       -0.020949934 0.024785554 -0.3857284 0.0046161073
0003e0 b6 ec ce 3e 64 79 75 be 6a 09 8c 3e 9a 61 a9 be
       0.4041497 -0.23972088 0.27350932 -0.33082277
0003f0 bf 79 e6 3c 0a cc ea 3e 0c c0 09 bf cb d9 ee 3d
       0.028134225 0.45858794 -0.53808665 0.116626345

VAE_Encoder.layers.1.linear0.bias f4 [128]
000000 24 91 04 3f 8b cc 40 3e 9e 46 e4 3e 75 b7 8c 3e
       0.51783967 0.18828027 0.44585127 0.27483717
000010 55 3e b7 be 88 b2 b8 be 1a 52 d9 be 9d b0 39 3e
       -0.35789743 -0.3607371 -0.4244545 0.18133779
000020 7a 8a 82 3e b9 ed c7 be d7 8d 57 be 0f e4 3d be
       0.25496274 -0.39048555 -0.21050201 -0.18544029
000030 9c 89 71 be 3a 34 a1 be ba 85 ad be 9d 06 67 3d
       -0.2358765 -0.31485158 -0.33891088 0.05640279
000040 0e 24 8d bd 15 5e b5 3e bd 50 09 bf 82 33 89 3e
       -0.068916425 0.3542334 -0.5363882 0.2679711
000050 d9 62 a2 be 78 59 67 be 00 a9 5b be a3 1c 46 3e
       -0.3171604 -0.22592723 -0.21451187 0.19346862
000060 d4 e6 e9 3d ee df bb bc 48 38 ac bd a6 b8 db bd
       0.1142098 -0.022933926 -0.08409172 -0.10728578
000070 f6 73 1a 3e 50 b0 2a be 4b 21 d9 3e 5f 48 2e 3e
       0.15083298 -0.1666882 0.42408213 0.17019795
000080 41 b3 b9 3e 31 82 98 be f9 a7 ba 3e ea 0c 83 be
       0.36269572 -0.29786828 0.36456278 -0.2559579
000090 28 06 13 be b3 a2 2e be 99 31 92 3e c0 d9 88 3e
       -0.14357817 -0.17054252 0.28553465 0.2672863
0000a0 88 c2 8b bd c2 38 07 3e 5b 93 e2 be 02 5b d3 be
       -0.06824213 0.13205245 -0.44253048 -0.4128037
0000b0 29 36 f7 be 9c 11 c3 3e 86 4e 38 3e 4b 6b 83 be
       -0.48283508 0.38099372 0.17998704 -0.25667796
0000c0 8d bb f8 be d5 95 e1 3d 88 e3 d5 3e b7 a4 f7 3e
       -0.4858059 0.11014906 0.41775155 0.48367855
0000d0 27 0d db 3e 69 ea fa be 2e 67 33 3e 37 b5 87 3e
       0.42783472 -0.49006966 0.17519829 0.26505443
0000e0 ff 40 99 3e cd 3f ee be 52 c8 06 3e 78 93 9d bd
       0.299324 -0.4653305 0.13162354 -0.07694143
0000f0 43 bc ff 3d bf ef 90 3d f0 c9 95 3b 97 46 05 be
       0.1248708 0.07076978 0.004571192 -0.13015209
000100 8e f5 ae bd a4 1c e3 be a4 69 31 be 25 90 14 3d
       -0.085429296 -0.4435779 -0.17325455 0.03627028
000110 e0 ce ae 3d 72 db bb 3e 12 21 79 be fc 8f df bd
       0.08535552 0.3669086 -0.24329022 -0.10916135
000120 91 61 ec 3d 8e 9d 8a bc 5d d1 bc 3e e5 c1 87 3e
       0.11542047 -0.016920831 0.36878482 0.26515117
000130 df 1f d4 be 99 0e 03 bf 19 40 b2 be 72 18 a6 3e
       -0.41430566 -0.5119415 -0.34814528 0.32440525
000140 6d 2b b2 3e fa e3 e1 3e ed e4 32 bd 6f bc 54 be
       0.34798756 0.44119245 -0.043675352 -0.20775007
000150 b0 f8 a1 3c e8 1b d4 3e b4 03 9d be d2 b4 f7 bd
       0.019771904 0.4142754 -0.30666888 -0.120950356
000160 d1 1b b0 be b4 3e 16 bc 8a ce a1 3e cf 2d 83 3e
       -0.34396222 -0.009170223 0.3160289 0.25620887
000170 5b f2 90 be 10 c0 04 3e 21 04 c4 bd 32 37 d4 bd
       -0.28309903 0.12963891 -0.095711 -0.1036209
000180 31 8f 7f bd a3 b5 e2 3c 79 80 f0 3e 9d f2 dc 3d
       -0.062392417 0.027674502 0.46973017 0.10788462
000190 84 90 92 3e 7c d6 18 3e 68 8d e6 be 48 c0 c6 3e
       0.28625882 0.1492557 -0.4502976 0.38818574
0001a0 0c 61 23 3e c9 a1 fd bd 6b 29 6d 3d 24 45 7a be
       0.15954989 -0.12384374 0.057900827 -0.24440438
0001b0 1c 6b e3 3e c0 cd 73 3d 04 4a 5a 3e 6e 3c ce 3d
       0.44417655 0.05952239 0.21317297 0.1007012
0001c0 f1 3d b7 be 98 da 93 3d 7d f5 95 3d c4 27 b6 3e
       -0.35789445 0.07219428 0.07322214 0.35577214
0001d0 6a 9a df 3d ba 12 34 be 5b 2f b3 be e4 19 b5 3e
       0.10918124 -0.17585269 -0.34997067 0.35371315
0001e0 7e 6d 85 3e 0f 4f 5e 3e ba 2a 81 3c 29 24 fa 3d
       0.26060098 0.21709846 0.015767444 0.12213928
0001f0 9e 32 91 be f9 27 47 be f3 47 fa be 39 64 ae be
       -0.2835893 -0.19448842 -0.48883018 -0.3406084

VAE_Encoder.layers.1.linear1.weight f4 [4, 128]
000000 c2 86 c8 bd 9a e7 d7 bd 8c cf 98 bd 6a b9 aa 3d
       -0.09791328 -0.10542221 -0.074614614 0.08336146
000010 7d 2d 54 bb c9 65 36 bd 27 f9 13 3d b6 ea a9 bd
       -0.0032375746 -0.044530664 0.036126282 -0.08296721
000020 f9 53 bf 3c c2 bd 07 be 7c 33 70 bd 12 33 db 3c
       0.023355471 -0.1325598 -0.05864285 0.02675775
000030 ac 20 d3 3a 6e 92 51 3e d1 42 8a bd e4 79 06 be
       0.001610776 0.20466015 -0.067510255 -0.13132435
000040 e5 8e 0b 3d 5d c8 2c 3d a8 58 b9 bc d3 46 a6 bd
       0.03407182 0.04218327 -0.022625282 -0.081189774
000050 c8 ad 0a be e7 cc ed bc bf 79 21 3d 72 ef 4b bd
       -0.13542855 -0.02902837 0.039422747 -0.0497889
000060 54 23 28 3d 06 ef 2a bc 53 3d b2 bd 61 99 e7 bc
       0.041049317 -0.010432964 -0.08703103 -0.028271379
000070 a5 13 f7 bb ea 19 d3 3c 18 b4 b0 bc 51 10 e1 bc
       -0.0075401836 0.025769193 -0.02157025 -0.0274736
000080 ca b0 87 bd 8b e4 64 bd aa b4 c4 bc ad 55 16 3d
       -0.06625517 -0.055882018 -0.024011929 0.0367028
000090 27 8c fa bb 9f 30 3e 3d f5 3c 0a 3c 47 01 90 3c
       -0.007646102 0.046433087 0.008437385 0.017578734
0000a0 d1 52 d2 bd 3f 82 26 bd 2b 8b 40 3e 7c 83 c0 bd
       -0.10269702 -0.040651556 0.18803088 -0.09400079
0000b0 ff 6c 19 3e e9 d6 a7 3d c1 72 c7 bd 45 67 64 ba
       0.14982985 0.08195288 -0.097386844 -0.0008712898
0000c0 93 05 e9 bd 9b 22 71 bd 68 a4 98 3d 9a 47 62 bd
       -0.11378016 -0.058870893 0.07453233 -0.055244066
0000d0 fd fb d1 bb 83 c3 05 3d a8 82 88 3d 06 e9 d2 bd
       -0.006408213 0.032657158 0.06665546 -0.10298352
0000e0 c5 c9 d9 bc 78 ef f4 bd 0c a7 fe bd af c0 ed bd
       -0.026585469 -0.119597375 -0.124342054 -0.11609017
0000f0 e9 f2 84 bd e0 18 1a 3d 2a 6c 4d bd 3e 94 0f bd
       -0.06491644 0.03762138 -0.05015198 -0.035053484
000100 e1 e1 54 bd f8 08 1b be a9 e3 a7 bc 2e 2b af bd
       -0.051973227 -0.1514014 -0.020494299 -0.08553158
000110 34 c9 1d 3d c6 b8 68 bd 56 b9 88 3d 9b b6 56 3c
       0.03852196 -0.05681684 0.06675975 0.01310506
000120 c0 2d 08 bd 07 75 37 bd a4 3d 01 be 86 2c 09 bc
       -0.033246756 -0.04478934 -0.1262117 -0.008372432
000130 77 35 42 3e 6c fd a6 bd 51 09 c7 bb 00 45 19 3d
       0.18965708 -0.08153805 -0.0060741086 0.03741932
000140 ff 93 ec 3c 93 82 6e 3d 7c 34 9d bd 31 b4 a9 bd
       0.028879164 0.058229994 -0.07676026 -0.08286322
000150 ea d4 fe bd 30 2d 67 bd f9 a4 79 bd ec bc 84 3c
       -0.12442954 -0.05643958 -0.060948346 0.016203366
000160 61 b8 8f 3b 99 bf 2c 3c 82 69 48 bd 59 cf a2 bc
       0.0043859934 0.010543727 -0.048928745 -0.019874262
000170 c7 27 2e 3e db 6c 1e 3d e2 2f a5 bd 84 59 67 bd
       0.17007361 0.03867803 -0.080657735 -0.056481853
000180 87 52 2c bd 70 30 96 bd 1d 29 87 bd d3 59 b0 3c
       -0.04207089 -0.073334575 -0.065996386 0.021527207
000190 a9 ad 1e bd ea 0f 0c bd d8 53 a3 bd b3 ec 6c bd
       -0.038739834 -0.034194864 -0.07974976 -0.05784292
0001a0 16 34 81 bd 8d 02 d4 bc ad 59 6b 3d 40 cb a6 3c
       -0.06308763 -0.025880123 0.05745857 0.020360589
0001b0 c3 52 64 bc e3 11 e3 bd 4e ad 26 3d 37 41 39 3c
       -0.013935748 -0.11087396 0.04069262 0.011307052
0001c0 47 e5 91 3c a0 bb b8 bd ee 19 27 3d 8d 72 d6 b9
       0.017809523 -0.09020162 0.040796213 -0.00040902608
0001d0 22 60 a7 bd 94 f2 79 3d 52 94 bb bb e3 3a b1 bd
       -0.08172633 0.061022356 -0.0057244683 -0.0865381
0001e0 4c d1 d4 3c 28 94 1c 3c 49 72 8a bd 8a 58 da bd
       0.025978707 0.009556808 -0.067600794 -0.10661419
0001f0 38 91 b0 bd 7c 92 a6 bd eb 95 8f bc 8b 22 8c 3d
       -0.08621448 -0.081334084 -0.017527541 0.06842526
000200 66 d8 a7 bd 11 90 cb 3c 7f 37 35 bd e2 53 1b 3c
       -0.081955716 0.02484897 -0.04424238 0.009480448
000210 1f 27 ae 3e 3c 3d 99 bd ee ee 5f bd 67 7a c6 bd
       0.34014222 -0.07482383 -0.05467122 -0.09691315
000220 17 44 74 bd d3 2a 0d 3e f7 20 dc bd 7d 3f 03 3d
       -0.059635248 0.13785867 -0.10748475 0.03204297
000230 9e 28 4f ba 2b dd 5f 3c a1 06 9c bd 74 dc 05 3e
       -0.0007902476 0.01366357 -0.07618452 0.13072377
000240 9e ad f1 bd a7 36 b4 3a e0 e6 21 3e 43 64 7a 3d
       -0.11800693 0.0013749198 0.15810728 0.061130773
000250 98 5a 4f bd 83 3b ea bd ab 9e 02 be ac 58 5b 3d
       -0.050623506 -0.11437132 -0.1275584 0.05355136
000260 82 07 e9 3b 21 c2 ce 3b 82 34 db bd 10 ab ab bc
       0.0071114907 0.006309763 -0.107033744 -0.020955592
000270 1a 57 7d 3d 83 62 4b be 32 a6 e1 bd cd e4 94 bd
       0.061850645 -0.19861798 -0.11018027 -0.07270203
000280 cf 07 db bd 35 28 04 3d 3c 97 26 3c ea 52 19 be
       -0.10694849 0.032264907 0.010167893 -0.14973035
000290 d6 8e d5 bd 33 a2 96 bd 17 f8 b9 3d 89 a0 3c bd
       -0.104276344 -0.07355156 0.090805225 -0.046051536
0002a0 09 67 75 bd 5f 95 7d bd 91 43 e9 bd a9 93 35 be
       -0.059912715 -0.06191003 -0.113898404 -0.17732109
0002b0 18 62 96 3d 2f be 0e bc 86 ec b5 3d fb b5 ed bc
       0.07342929 -0.0087123355 0.08883004 -0.02901744
0002c0 ba 77 04 be 71 0a 2a bd 06 6d e2 3d 12 95 ba bc
       -0.12936297 -0.041513864 0.11055951 -0.02277616
0002d0 ad a8 16 bc c2 43 0b be 1e e1 01 3c cc 04 7f bd
       -0.009195489 -0.13600066 0.007927207 -0.062260434
0002e0 31 ee 5b bd 0b b8 df bd c1 f8 ea bc 58 b3 af bd
       -0.053693954 -0.10923775 -0.028683068 -0.08579129
0002f0 29 16 5f 3d c2 87 d3 3c 3c c3 88 3d b7 44 b5 ba
       0.054464493 0.02582157 0.06677863 -0.0013829683
000300 32 29 97 bd 77 53 8d bd e6 e9 19 bd db d2 82 bc
       -0.07380904 -0.06900685 -0.03757658 -0.015969684
000310 0a 2b d5 3d d6 51 4d bd 6f 36 0d bb 4f 15 8b 3c
       0.104086 -0.050126873 -0.0021547338 0.016977934
000320 60 dc c9 3d df a6 34 3d e9 59 99 bd a6 89 22 3c
       0.09856486 0.044104453 -0.07487852 0.009920513
000330 e3 f1 35 3d 45 4d 87 bd af f8 cb 3d e7 25 c8 3d
       0.044420134 -0.06606535 0.09959542 0.09772854
000340 56 cc 59 bb 24 4f 51 bd f6 0c b9 bd 4f 96 ac bd
       -0.0033233366 -0.051100865 -0.09035675 -0.084271066
000350 2f 93 03 3e cf ff 87 bd a8 47 ce bd 1e b3 50 3d
       0.12849115 -0.066405885 -0.10072261 0.05095207
000360 04 ed 55 3c eb ed 16 3d b9 a3 d5 bb 81 a7 e7 3c
       0.013056997 0.03684799 -0.0065197614 0.028278114
000370 0e 91 21 ba 13 ce 8c 3d 7e ea 2e 3d 21 2d 30 3d
       -0.00061632774 0.06875243 0.042704098 0.04301179
000380 fd fa de 3c 54 4c 54 bd 7a c7 e4 bd 49 5e 7e bd
       0.02721929 -0.051830605 -0.1117086 -0.062101636
000390 0f 0d 25 bd d6 b9 44 bd c3 9b 0e 3e fe 7c 88 bd
       -0.040295657 -0.04802879 0.13926606 -0.06664465
0003a0 09 ee 43 bd 95 e4 95 3d 2f 24 60 bd ec 26 26 bd
       -0.04783443 0.07318989 -0.054722007 -0.040564463
0003b0 f1 15 ce 3a 7f a2 3d 3c 43 a3 96 3d c3 bb 78 bd
       0.0015723092 0.011574387 0.073553585 -0.06072594
0003c0 71 16 c0 bd 25 9d bf bd a0 52 39 bd fc 2c 05 bd
       -0.0937928 -0.09356145 -0.045244813 -0.032513604
0003d0 ef 8d 32 3d cc 42 0b 3d 89 ed 81 3d 5c 09 50 3d
       0.04359239 0.03399925 0.06344134 0.050790176
0003e0 06 87 4d bd e9 07 10 bc c5 1b f2 3d db 19 3c be
       -0.050177597 -0.008790948 0.11821703 -0.18369238
0003f0 a8 09 86 3d 67 2e 5d 3d 1b fb 21 3c ed 1f 60 bd
       0.065448105 0.05399933 0.009886528 -0.054717947

VAE_Encoder.layers.1.linear1.bias f4 [4]
000000 29 a3 90 bd 38 b9 d8 bd 9a 2d a2 bd 07 13 bf 3d
       -0.0706237 -0.10582203 -0.07918854 0.09329801

VAE_Encoder.layers.1.norm1.weight f4 [4]
000000 95 d9 91 3f 01 f5 88 3f ce 20 85 3f 7a 45 85 3f
       1.1394526 1.0699769 1.0400636 1.0411828

VAE_Encoder.layers.1.norm1.bias f4 [4]
000000 f9 98 63 bd ce ca 1e bd a2 1e 50 3d 62 26 98 3b
       -0.055565808 -0.03876763 0.050810464 0.0046432475

VAE_Encoder.layers.1.norm0.weight f4 [4]
000000 57 4c 7a 3f 21 3c 94 3f 5e 09 61 3f aa 1b 7d 3f
       0.97772735 1.158085 0.8790492 0.98870337

VAE_Encoder.layers.1.norm0.bias f4 [4]
000000 57 c1 4f 3c 1b 4f 49 bd 12 e9 99 bc 70 60 20 bc
       0.012680373 -0.049147706 -0.018787894 -0.0097886175

VAE_Encoder.last_normalization.weight f4 [4]
000000 00 00 80 3f 00 00 80 3f 00 00 80 3f 00 00 80 3f
       1.0 1.0 1.0 1.0
