tabsyn/vae/ckpt/default/major_only_1_dim_z/model.pt (torch, 73486 bytes, 116 tensors)

VAE.Tokenizer.weight f4 [15, 4]
0	0x3efd41b5	0.49464193
1	0xbe6ffe92	-0.23436955
2	0x3e806adc	0.25081527
3	0xbbef8137	-0.007309105
4	0x3dea4ff6	0.114410326
5	0xbcf42bb8	-0.029806003
6	0x3d7c2683	0.061560165
7	0xbb09d951	-0.0021034072
8	0xbd8e147c	-0.06937501
9	0xbd8bae40	-0.06820345
10	0xbd9e338c	-0.077246755
11	0xbdc0ed87	-0.09420305
12	0x3ee50705	0.44731918
13	0x3e3eedee	0.1864545
14	0x3ea9cbe6	0.33163375
15	0x3e71422e	0.23560402
16	0x3d9f0218	0.07764071
17	0xbe0b8c46	-0.13627729
18	0x3e30d77d	0.17269702
19	0x3d7c9e18	0.061674207
20	0xba80c2b2	-0.0009823649
21	0xbf28e1b4	-0.65969396
22	0xbe04d830	-0.12973094
23	0x3d4b9fd6	0.04971298
24	0x3e31f70d	0.17379399
25	0xbe720e33	-0.23638229
26	0xbdc8ba41	-0.0980115
27	0xbe5ced22	-0.21574834
28	0xbdce71dd	-0.100803114
29	0xbe4fe255	-0.20301183
30	0x3e19d79f	0.15023659
31	0xbe377071	-0.17913987
32	0x3e6bad70	0.2301538
33	0xbde844ac	-0.11341223
34	0xbc58befb	-0.013229127
35	0x3e279a6d	0.16367503
36	0x3ed1c16b	0.4096788
37	0x3d89a4c3	0.06720879
38	0x3e869dcd	0.26292267
39	0xbee003f0	-0.43753004
40	0x3d284349	0.041079793
41	0x3e35c885	0.17752273
42	0xbd6e453d	-0.0581715
43	0x3d47100f	0.0485993
44	0x3e6ab3fb	0.2292022
45	0xbe8a1b2b	-0.26973853
46	0xbd623ae2	-0.055231936
47	0xbeaa3734	-0.33245242
48	0x3ef7d16b	0.4840196
49	0x3d32b0af	0.04362553
50	0x3e5fb925	0.21847971
51	0xbeafa69d	-0.34306803
52	0x3ed62a7c	0.41829288
53	0xbeb1d5eb	-0.3473352
54	0xbed2771d	-0.411065
55	0xba4c4921	-0.00077928795
56	0xbebbdb0d	-0.3669056
57	0x3e96f07b	0.29480347
58	0xbd32e71e	-0.04367744
59	0xbf1fe592	-0.6245967

VAE.Tokenizer.bias f4 [23, 4]
0	0x3aee017d	0.0018158403
1	0xbe8c6899	-0.27423552
2	0xba4aa377	-0.00077300466
3	0x3ed90b30	0.42391348
4	0x3e297cbb	0.16551487
5	0x3ee3298d	0.44367638
6	0x3e0bb616	0.13643679
7	0xbdc95d2d	-0.09832225
8	0x3e6cca86	0.23124132
9	0x3d4c8fed	0.049941946
10	0xbef36d0c	-0.47544134
11	0xbcf2b588	-0.029627576
12	0x3eaa99c0	0.33320427
13	0x3ee9a7a4	0.45635712
14	0xbeea1b2b	-0.45723853
15	0x3d773af2	0.06035895
16	0xbedf2e68	-0.43590093
17	0x3d113925	0.035454888
18	0x3e313c79	0.17308225
19	0x3f153295	0.5828031
20	0xbf210951	-0.6290484
21	0xbeaab27a	-0.33339292
22	0x3e7809df	0.24222516
23	0xbda01fd2	-0.07818569
24	0xbe8bece3	-0.27329168
25	0xbd671e1a	-0.05642519
26	0xbeb253aa	-0.34829456
27	0x3e9f2ad5	0.31087366
28	0xbf0c5a91	-0.54825693
29	0x3e5aa1d8	0.21350801
30	0x3eb4d92d	0.35321942
31	0xbd018b98	-0.031627268
32	0x3e0335af	0.12813447
33	0x3e637b58	0.2221502
34	0xbebb8245	-0.36622825
35	0x3ec43fe4	0.38329995
36	0x3efba25b	0.49147305
37	0x3e140744	0.14455897
38	0x3eabc949	0.33552006
39	0xbec3ca71	-0.38240388
40	0xbec60817	-0.38678047
41	0xbbc69c62	-0.0060611228
42	0x3e58fd4f	0.2119038
43	0xbe56bc09	-0.20970167
44	0xbd1895d0	-0.037252247
45	0x3e8d050d	0.27542916
46	0x3f11b0e6	0.5691055
47	0x3b19f8c4	0.0023494223
48	0x3ed3d036	0.4136979
49	0x3e606cf3	0.21916561
50	0xbeeabe6f	-0.45848414
51	0xbe8ff609	-0.28117397
52	0x3b5e8eef	0.0033959707
53	0xbeb85be5	-0.3600761
54	0x3e59e198	0.21277463
55	0x3e684574	0.22682744
56	0xbddffdbf	-0.1093707
57	0x3eb9c78b	0.36285052
58	0xbd501e5d	-0.050810207
59	0x3ee856f9	0.45378855
60	0x3eab96aa	0.33513385
61	0xbe95b6f8	-0.29241157
62	0xbf08bc4b	-0.5341231
63	0x3e8ba55e	0.27274603
64	0xbe24cf32	-0.16094664
65	0x3e79d829	0.24398865
66	0x3ecf022d	0.40431347
67	0x3dc219f6	0.09477608
68	0x3ed82c8e	0.42221493
69	0x3d9bd13b	0.07608267
70	0xbdd9910b	-0.10623368
71	0x3e2b250a	0.16713348
72	0xbe85abff	-0.26107785
73	0x3e81909b	0.25305638
74	0x3e8d7b12	0.27632958
75	0x3e6823a7	0.2266985
76	0x3e208283	0.15674786
77	0x3eb55033	0.3541275
78	0xbef24bbe	-0.47323412
79	0xbe0320ab	-0.1280543
80	0x3db72452	0.089424744
81	0x3eb8fa13	0.3612829
82	0xbbc62158	-0.0060464554
83	0x3e9b63af	0.3034949
84	0xbe11a840	-0.14224339
85	0xbd9c0d08	-0.07619673
86	0x3e980397	0.2969024
87	0xbe8e436f	-0.27785823
88	0x3e3c5605	0.18392189
89	0x3e9a9313	0.30190334
90	0x3dfc8fe6	0.12332134
91	0x3e1e552f	0.15462182

VAE.Tokenizer.category_embeddings.weight f4 [77, 4]
0	0xbe76164d	-0.24031945
1	0xbed5aed0	-0.41734934
2	0x3c33fdb5	0.010985781
3	0x3e701375	0.23444922
4	0xbd4b9cd1	-0.0497101
5	0xbe731723	-0.23739295
6	0x3ec7e523	0.39042005
7	0xbca9a2d0	-0.020707518
8	0x3e10586e	0.14096233
9	0xbe28b062	-0.16473535
10	0x3ec6df7c	0.3884238
11	0x3e25890c	0.1616556
12	0xbe782e6d	-0.2423646
13	0x3d9698b9	0.07353348
14	0x3d0fa847	0.03507259
15	0x3e5345b9	0.20632066
16	0xbdb15448	-0.086586535
17	0xbda0e2c4	-0.07855752
18	0x3e100b19	0.14066733
19	0x3e61017c	0.21973222
20	0xbeae6f76	-0.34069413
21	0x3d7ca57d	0.06168126
22	0xbd5802ac	-0.052736923
23	0x3e09e3d4	0.13465816
24	0xbecfaef1	-0.40563157
25	0x3be73a71	0.0070565273
26	0xbdd87c6d	-0.10570607
27	0x3dedcfa0	0.11611867
28	0xbf07fd76	-0.53121126
29	0xbc52ddfa	-0.012870306
30	0xbe7fcda8	-0.24980795
31	0x3def3224	0.116794854
32	0x3e9f74fa	0.31143934
33	0xbf258ac9	-0.64664894
34	0x3e5e7f19	0.21728171
35	0x3eb6f3ed	0.35732976
36	0xbeebbcde	-0.46042532
37	0xbe4c9860	-0.19980001
38	0xbd8e650b	-0.06952866
39	0x3ea97879	0.33099726
40	0xbe9c3e58	-0.30516315
41	0xbe92424a	-0.285662
42	0x3e61ded0	0.22057652
43	0xbd77ba97	-0.06048068
44	0xbe8987df	-0.26861474
45	0xbe5546df	-0.20827816
46	0x3ece9a94	0.4035231
47	0xbe8d09f5	-0.2754666
48	0x3d742f4b	0.059615415
49	0x3d99e772	0.07514848
50	0x3f56d53d	0.83919126
51	0xbd966174	-0.073428065
52	0x3eaa02f3	0.33205375
53	0xbd36a940	-0.044595003
54	0xbf08c28f	-0.5342187
55	0xbe13ba3b	-0.1442651
56	0xbc81105a	-0.015754867
57	0xbd77cae1	-0.060496215
58	0xbd01acdc	-0.031658992
59	0xbe96e125	-0.29468647
60	0x3b93e3c2	0.004513235
61	0x3df7a6b4	0.12092343
62	0x3d503b32	0.050837703
63	0xbe8b74c7	-0.27237532
64	0x3e6ff982	0.23435023
65	0x3dc59767	0.09648018
66	0xbe08c37d	-0.13355823
67	0xbe9ddddc	-0.30833328
68	0xbeb057ef	-0.34442088
69	0xbeba9702	-0.36443335
70	0xbec8c8ab	-0.39215598
71	0xbc86e9ff	-0.016469
72	0x3e52baf8	0.20579135
73	0xbd45f6c7	-0.04833105
74	0xbeaedc83	-0.34152612
75	0xbc52a419	-0.012856507
76	0x3e176f67	0.1478859
77	0x3f10c81e	0.56555355
78	0xbd9663c3	-0.07343247
79	0xbd69e14b	-0.05709962
80	0xbe4f5364	-0.20246655
81	0x3dbed3bd	0.093177296
82	0x3e2e6191	0.17029406
83	0x3e8d6a8e	0.27620357
84	0x3ecbbf3a	0.39794332
85	0x3ec3885c	0.3818997
86	0x3eb39762	0.35076433
87	0x3dd43915	0.1036245
88	0xbda0631e	-0.07831405
89	0x3ed68378	0.41897178
90	0xbd5f731a	-0.05455313
91	0x3e76b54a	0.24092594
92	0xbd844962	-0.06459309
93	0xbe5de95b	-0.2167105
94	0x3dbf8c38	0.093529165
95	0xbec1f76c	-0.3788408
96	0xbebf78db	-0.37396893
97	0x3df6c49c	0.12049219
98	0xbed85e8a	-0.42259628
99	0x3e4f771b	0.20260279
100	0xbe154081	-0.14575388
101	0x3a0ec3e4	0.000544606
102	0xbe9dd271	-0.30824617
103	0x3eb303e8	0.34963918
104	0x3edd216e	0.43189567
105	0x3da8cbf3	0.08242025
106	0x3ee14275	0.43996015
107	0x3e0a09eb	0.13480346
108	0xbed03e98	-0.40672755
109	0xbee054bf	-0.43814656
110	0xbe5433a1	-0.2072282
111	0x3da4db40	0.08049631
112	0x3ebb28d1	0.36554578
113	0x399e242a	0.00030163053
114	0x3e9e93a5	0.3097202
115	0x3e6e58e7	0.23276101
116	0x3f045467	0.5169129
117	0xbe8ce9a2	-0.27521998
118	0x3d4e1405	0.05031206
119	0x3d88361f	0.06650948
120	0xbcbeaed2	-0.02327672
121	0x3c7d5786	0.015462762
122	0x3de8fa04	0.11375812
123	0x3ecdac31	0.40170434
124	0xbebd2722	-0.36943918
125	0xbe2088d5	-0.15677197
126	0x3d4b5111	0.049637858
127	0x3e7fd39a	0.24983063
128	0xbe8624d7	-0.26199982
129	0x3ed477f1	0.41497758
130	0x3e6ed8d9	0.23324908
131	0x3e184bc0	0.14872646
132	0x3e326030	0.17419505
133	0xbe4035d5	-0.18770535
134	0x3da1d8ed	0.079027034
135	0x3eb6efb9	0.3572977
136	0x3e961e73	0.29320106
137	0xbeaa020d	-0.3320469
138	0x3cb0e356	0.021592777
139	0x3da46031	0.080261596
140	0x3e0ebc90	0.13939118
141	0x3db20adc	0.086934775
142	0x3e0f7213	0.1400836
143	0xbe0fdc6c	-0.14048928
144	0x3ebdfe1f	0.37107942
145	0x3eb3b532	0.3509918
146	0x3eb2a895	0.34894243
147	0x3e8e4534	0.27787173
148	0x3eb8092a	0.35944492
149	0xbea6782c	-0.3251356
150	0x3ee323c3	0.44363222
151	0xbef9d8b5	-0.48798147
152	0x3e86af64	0.26305687
153	0xbef40651	-0.4766107
154	0x3ec2b9fe	0.38032526
155	0xbf16b72f	-0.58873266
156	0xbe8caa8a	-0.2747386
157	0x3ea3f263	0.32020864
158	0x3e73af8e	0.23797438
159	0x3ebe6e64	0.37193596
160	0xbcddf63d	-0.027094955
161	0x3e9dbacd	0.3080658
162	0x3d69c76e	0.057074957
163	0x3d6d6121	0.057953957
164	0xbe614f38	-0.22002876
165	0x3e30f728	0.17281783
166	0x3e7ac955	0.24490865
167	0xbe68c2dd	-0.22730584
168	0x3e87ef87	0.26549932
169	0x3e95b49f	0.29239365
170	0xbed3f0f0	-0.41394758
171	0xbe932792	-0.28741127
172	0x3dcfc377	0.10144704
173	0xbe13c318	-0.14429891
174	0x3e5be34a	0.21473423
175	0xbea927c0	-0.3303814
176	0xbd7bfc99	-0.061520193
177	0x3c021d1b	0.00794151
178	0xbe9199da	-0.28437692
179	0xbefc34dc	-0.49259079
180	0x3d6fa8a2	0.05851043
181	0x3e9009cc	0.28132474
182	0xbd027354	-0.031848267
183	0xbf29d9d4	-0.66348004
184	0x3c96c6ba	0.018405307
185	0x3f48ee82	0.78488934
186	0x3da71b2b	0.08159479
187	0xbdcc4854	-0.09974733
188	0x3e685861	0.22689964
189	0x3e2ad9f2	0.16684702
190	0xbf093f46	-0.5361217
191	0x3f6d4c3e	0.9269446
192	0x3e95ef63	0.292842
193	0xbe4e0de0	-0.2012248
194	0xbe9fb5a9	-0.31193283
195	0xbe7aad3e	-0.24480149
196	0x3ecd70dc	0.40125167
197	0xbf0d6b1c	-0.5524156
198	0xbe8abb17	-0.27095863
199	0xbd456165	-0.048188586
200	0xbdaf221e	-0.08551429
201	0xbc18f843	-0.009336534
202	0x3e1aab02	0.15104297
203	0xbf3c8612	-0.73642075
204	0xbe1cf7fd	-0.15328975
205	0xbdc8363f	-0.097759716
206	0x3e199672	0.14998797
207	0x3dcd33d3	0.1001965
208	0xbed0b177	-0.40760395
209	0x3f664513	0.8994915
210	0x3e1ddc99	0.15416183
211	0xbe15142d	-0.14558478
212	0xbe5b786a	-0.21432653
213	0x3ea71d7f	0.3263969
214	0xbe3e5a43	-0.1858912
215	0x3ea1d858	0.3161037
216	0xbea233cd	-0.31680146
217	0x3f27f261	0.65604216
218	0x3de66e75	0.11251537
219	0xbf1a723f	-0.60330576
220	0xbe680a99	-0.22660293
221	0xbe6f20e9	-0.23352398
222	0x3eea9a45	0.45820823
223	0x3ea509d0	0.3223405
224	0x3ecc4cd6	0.3990237
225	0xbed17ec4	-0.40917027
226	0xbf45d7f6	-0.77282655
227	0x3edc5d4f	0.4303994
228	0x3ef175d4	0.47160208
229	0xbd4c9a4b	-0.049951833
230	0xbe1472fe	-0.14496991
231	0xbd839f3f	-0.06426858
232	0xbe69e4fd	-0.22841258
233	0x3e988245	0.29786888
234	0x3e26f4d8	0.16304338
235	0x3e8818cd	0.26581421
236	0xbe6a269c	-0.22866291
237	0xbe83d796	-0.25750417
238	0x3e84b767	0.25921175
239	0x3df8b861	0.121445425
240	0x3e6ad58d	0.22933026
241	0x3f256ed3	0.6462223
242	0x3efb156a	0.49039775
243	0xbe5b4b61	-0.21415474
244	0x3e8d9f21	0.27660468
245	0xbe8a0e75	-0.26964155
246	0xbe8eccd6	-0.27890652
247	0x3d1bd16d	0.03804152
248	0x3ef7b045	0.4837667
249	0xbea83c5d	-0.32858554
250	0xbe1398a3	-0.14413695
251	0xbe28e331	-0.16492917
252	0x3e8c4ee3	0.27403936
253	0xbe859272	-0.2608829
254	0xbec16f95	-0.37780443
255	0xbec0306f	-0.37536952

VAE.encoder_mu.layers.0.attention.W_q.weight f4 [4, 4]
0	0xbe51aa54	-0.20475131
1	0x3f345d5e	0.7045497
2	0xbf0d81aa	-0.55275977
3	0x3e9c47f8	0.30523658
4	0x3e104974	0.1409052
5	0x3d6558a4	0.055992737
6	0x3e74121c	0.23835033
7	0x3ed8b2d8	0.42323947
8	0x3e876810	0.2644658
9	0xbe4476d4	-0.19185954
10	0x3eac0e68	0.3360474
11	0x3efe9661	0.49724105
12	0x3f2db643	0.67856234
13	0xbf1de9ef	-0.6168508
14	0xbdff97f3	-0.12480154
15	0xbe8a747a	-0.2704199

VAE.encoder_mu.layers.0.attention.W_q.bias f4 [4]
0	0xbe138155	-0.14404805
1	0x3e33a804	0.17544562
2	0x3e04a3f9	0.12953176
3	0x3e40d5b2	0.18831518

VAE.encoder_mu.layers.0.attention.W_k.weight f4 [4, 4]
0	0xbed44810	-0.4146123
1	0xbedf439a	-0.43606263
2	0x3e6a9e6a	0.22911993
3	0xbf0c6073	-0.5483467
4	0x3e65d357	0.22443901
5	0x3f0a5b61	0.54045683
6	0x3ecab70f	0.39592788
7	0x3f17ae1f	0.5925006
8	0xbda56a58	-0.08076924
9	0xbde8392c	-0.1133903
10	0xbc038553	-0.008027392
11	0x3f17a007	0.5922856
12	0xbf0dbe5d	-0.55368596
13	0x3a7f23e1	0.00097328244
14	0x3d16fc73	0.036861848
15	0x3eb4ea1d	0.35334864

VAE.encoder_mu.layers.0.attention.W_k.bias f4 [4]
0	0x3b91c811	0.0044488986
1	0xbc16622b	-0.0091786785
2	0x3b0e164b	0.0021680768
3	0x3c86ad72	0.016440127

VAE.encoder_mu.layers.0.attention.W_v.weight f4 [4, 4]
0	0x3eeca5bf	0.46220204
1	0xbf060a97	-0.5235991
2	0x3dade3a3	0.08490684
3	0x3e0fe6f8	0.14052951
4	0xbe0f6ebe	-0.14007089
5	0x3e559ca3	0.20860533
6	0xbd736247	-0.059419896
7	0x3e162d70	0.1466577
8	0xbec34d08	-0.38144708
9	0x3e65b10c	0.2243082
10	0xbdd76157	-0.10516613
11	0xbecd8492	-0.40140206
12	0xbe272273	-0.16321735
13	0xbc924a98	-0.017857835
14	0x3eb48b00	0.352623
15	0x3ef715a8	0.4825871

VAE.encoder_mu.layers.0.attention.W_v.bias f4 [4]
0	0xbcdb63be	-0.02678096
1	0x3d52489a	0.05133877
2	0xbc33bbbe	-0.010970054
3	0xbb3fa553	-0.0029242828

VAE.encoder_mu.layers.0.linear0.weight f4 [128, 4]
0	0xbde51c78	-0.111870706
1	0xbea94db4	-0.33067095
2	0x3e33a000	0.17541504
3	0xbcf6a3d7	-0.030107422
4	0x3f037b1d	0.5135973
5	0xbe8e6c9e	-0.27817243
6	0x3e83f6b9	0.25774172
7	0xbebea6f7	-0.3723676
8	0x3ec3b303	0.38222513
9	0xbea7cf28	-0.32775235
10	0x3abced3f	0.0014413967
11	0x3dd9e2c2	0.10638954
12	0x3ed624d8	0.41824985
13	0x3e8c5687	0.27409765
14	0xbdae7747	-0.08518844
15	0xbda56da0	-0.0807755
16	0xbe3d1380	-0.1846447
17	0xbdf1c4c0	-0.11805105
18	0xbe7d64c0	-0.24745464
19	0xbde11638	-0.10990566
20	0x3f0870f0	0.5329733
21	0xbee0da4e	-0.43916553
22	0xbd931069	-0.07180864
23	0xbe8466cd	-0.2585968
24	0x3d086ae0	0.03330505
25	0x3eac2b43	0.33626756
26	0x3d816574	0.06318179
27	0x3ea90383	0.33010492
28	0x3e3b27a3	0.18276839
29	0x3ea400a6	0.32031745
30	0x3ea375f4	0.3192593
31	0x3ed65f9e	0.41869825
32	0x3eb6b6e8	0.3568642
33	0xbed2fd84	-0.41209042
34	0xbea5c001	-0.3237305
35	0xbecc2279	-0.3987005
36	0xbda293aa	-0.07938321
37	0x3e909e41	0.28245738
38	0x3e964226	0.29347342
39	0x3c070c9b	0.0082427515
40	0xbbcfbca6	-0.0063396273
41	0xbed03b0d	-0.40670052
42	0x3d9ac66d	0.07557378
43	0x3da7a911	0.08186544
44	0xbe7e9297	-0.24860607
45	0xbeed02a5	-0.4629108
46	0x3e863598	0.26212764
47	0x3e0ed21d	0.1394734
48	0xbe45f6b0	-0.19332385
49	0xbed45bcd	-0.41476288
50	0xbe3ce159	-0.18445338
51	0xbe8d65ca	-0.2761672
52	0x3eced604	0.40397656
53	0x3e395485	0.18098648
54	0x3ddfc3a1	0.10925985
55	0xbedcedc2	-0.43150145
56	0xbead8c14	-0.33895934
57	0x3ec38ffb	0.38195786
58	0x3ead1b33	0.33809814
59	0x3d316fd2	0.04331953
60	0xbea0d8d3	-0.31415424
61	0xbe80fc60	-0.25192547
62	0x3ecd655d	0.40116397
63	0xbe59227c	-0.21204561
64	0xbec8d2c3	-0.39223298
65	0xbee1583f	-0.4401264
66	0xbebf7db4	-0.3740059
67	0xbebb472e	-0.36577743
68	0xbe31fe58	-0.1738218
69	0x3d24bf98	0.04022178
70	0x3e85c1fa	0.26124555
71	0xbe521a46	-0.20517835
72	0x3ed3d967	0.41376802
73	0xbd89e1ef	-0.067325465
74	0xbe75e324	-0.24012429
75	0x3d41b42d	0.04729097
76	0xbdb04db0	-0.08608568
77	0x3dec890a	0.115495756
78	0xbf0b9f5e	-0.5454005
79	0xbe944d64	-0.28965294
80	0xbddf568b	-0.10905179
81	0x3ed9c00a	0.42529327
82	0xbe1631ba	-0.14667407
83	0x3eeb97f8	0.4601438
84	0xbe8737c8	-0.26409745
85	0xbea1f1a1	-0.3162966
86	0xbe0ac704	-0.13552481
87	0xbdca59da	-0.09880419
88	0xbe001877	-0.12509333
89	0xbdd0a715	-0.10188118
90	0x3e16ffbc	0.14745992
91	0xbee8d2ed	-0.45473424
92	0x3e9f1e44	0.31077778
93	0x3e81292f	0.25226733
94	0xbe9bbc81	-0.30417255
95	0x3ec73d59	0.38913992
96	0xbed8d574	-0.42350352
97	0xbd3c1820	-0.045921445
98	0xbece668e	-0.40312618
99	0xbe95a008	-0.29223657
100	0xbec17ec4	-0.37792027
101	0x3ea1c065	0.31592098
102	0x3ee28b25	0.44246784
103	0xbee944f5	-0.45560423
104	0xbe6ab77e	-0.22921559
105	0x3e4390ab	0.19098155
106	0xbd0cba77	-0.034357514
107	0xbf0c09cf	-0.54702467
108	0x3e37bb5c	0.17942566
109	0x3ea48090	0.32129335
110	0x39e5b4d8	0.00043813023
111	0xbeb82b59	-0.35970572
112	0x3eacb3d1	0.3373094
113	0xbed477c3	-0.4149762
114	0xbea9e8fd	-0.33185568
115	0xbe7b3d88	-0.24535191
116	0x3effb426	0.4994213
117	0x3e3a591e	0.18198058
118	0xbef8959a	-0.48551637
119	0xbe005b12	-0.1253474
120	0x3e800ce5	0.25009838
121	0xbe52681e	-0.2054753
122	0x3e4b76bd	0.19869514
123	0xbe2684a5	-0.16261537
124	0xbed48e5c	-0.41514862
125	0x3d6464b9	0.05576012
126	0xbe44f189	-0.19232763
127	0x3e9c984a	0.30584937
128	0xbe70893d	-0.23489852
129	0x3d82d6f1	0.06388653
130	0xbd9a72b3	-0.075414084
131	0xbf353cce	-0.70795906
132	0xbf0b3476	-0.54376924
133	0xbecf1047	-0.40442106
134	0x3ec2dd34	0.3805939
135	0xbbb22a71	-0.0054371883
136	0x3e45936b	0.19294517
137	0x3e263588	0.16231358
138	0xbda5504d	-0.08071957
139	0xbea7217e	-0.3264274
140	0xbe45458e	-0.19264814
141	0xbe76081d	-0.24026532
142	0x3e405880	0.1878376
143	0xbd63137e	-0.05543851
144	0x3df41084	0.119172126
145	0xbc629ca3	-0.01383129
146	0xbedf6a15	-0.43635622
147	0x3e9eaec4	0.3099271
148	0xbeb33961	-0.35004714
149	0xbe5ad11c	-0.21368831
150	0x3dff2e40	0.12459993
151	0x3d410ba4	0.047130242
152	0x3da0f2da	0.0785882
153	0xbe0c81d5	-0.13721402
154	0xbe6fb3ab	-0.23408382
155	0xbee74b3a	-0.4517458
156	0x3e862787	0.26202032
157	0xbf0b746f	-0.5447454
158	0xbefc827b	-0.493183
159	0xbedd75c2	-0.43253905
160	0xbe735068	-0.23761141
161	0x3df2ed70	0.11861694
162	0xbe74afe8	-0.23895228
163	0x3df931cb	0.121677004
164	0xbdfeaa0f	-0.1243478
165	0x3d52362a	0.051321186
166	0x3e91ba2e	0.28462356
167	0x3ebaf3f0	0.36514235
168	0x3c40baf1	0.01176332
169	0xbec512cc	-0.38490903
170	0x3f0165c0	0.50545883
171	0xbea6a5a3	-0.32548246
172	0x3e9d8f1a	0.3077324
173	0x3ec0a2df	0.3762426
174	0x3e8a0feb	0.2696527
175	0xbe5198cc	-0.20468444
176	0xbee20c9c	-0.44150245
177	0x3e474f8d	0.1946394
178	0xbe8ace6b	-0.2711061
179	0xbef1772e	-0.4716124
180	0xbe64efc4	-0.22357088
181	0xbec3b801	-0.3822632
182	0x3e01c23c	0.12671751
183	0x3b4bbf06	0.00310892
184	0x3dee505f	0.11636423
185	0xbe7f32fd	-0.24921794
186	0xbc832872	-0.016010497
187	0xbc6397ff	-0.013891219
188	0x3e9bdfa6	0.30444068
189	0xbee14cc7	-0.4400389
190	0xbe214998	-0.1575073
191	0xbe62eab8	-0.2215985
192	0x3e922c52	0.2854944
193	0x3ef7f26d	0.48427144
194	0xbdb051fb	-0.086093865
195	0x3db413a6	0.0879281
196	0xbe19ffa7	-0.1503893
197	0xbee05c20	-0.43820286
198	0xbe19bd44	-0.15013605
199	0x3ea855b8	0.32877898
200	0x3c078bbb	0.00827306
201	0x3ea4c848	0.32184052
202	0x3ec426d5	0.38310876
203	0x3ea8e236	0.32985085
204	0x3ee14ee6	0.44005507
205	0x3d32dd96	0.043668352
206	0xbe8223e4	-0.25418007
207	0xbf035914	-0.513078
208	0x3ec04897	0.37555382
209	0x3eec8f64	0.46203148
210	0x3bdd0a56	0.006745617
211	0x3f05a532	0.52205193
212	0x3eb99db5	0.36253133
213	0x3ea237dc	0.31683242
214	0x3e17907b	0.14801209
215	0xbea7bed1	-0.3276277
216	0xbf19bebb	-0.60056657
217	0x3d5d9319	0.05409536
218	0x3ec11ce7	0.37717363
219	0x3e628da7	0.22124349
220	0xbda17957	-0.07884472
221	0x3e3b1bed	0.18272372
222	0xbe812905	-0.25226608
223	0xbe521864	-0.20517117
224	0xbe64f7ad	-0.22360106
225	0xbeb8aad9	-0.36067846
226	0x3edea96c	0.43488634
227	0x3ef40dfe	0.47666925
228	0x3e7f2a66	0.24918517
229	0xbea540ce	-0.32276005
230	0x3e837d10	0.25681353
231	0x3d53fe65	0.05175628
232	0xbe9ada54	-0.30244696
233	0xbe080a53	-0.13285188
234	0x3ce7c6c8	0.028293028
235	0xbc2776db	-0.010221208
236	0xbeac38f0	-0.3363719
237	0x3e18cff2	0.14923075
238	0x3ed3200c	0.41235387
239	0x3e564821	0.20925952
240	0x3cb55937	0.022137268
241	0x3ef62798	0.48077083
242	0x3e5000b6	0.20312771
243	0x3e8396fb	0.25701126
244	0xbe4028ec	-0.1876561
245	0xbd037b58	-0.03210005
246	0xbe05e1ae	-0.13074371
247	0xbf0a4d97	-0.5402464
248	0xbd88b220	-0.066746
249	0x3eb37e25	0.35057178
250	0xbeeafda8	-0.4589665
251	0xbefdaeef	-0.49547526
252	0xbc2708d5	-0.010194977
253	0x3e97a39b	0.2961701
254	0xbe6a9b11	-0.22910716
255	0xbec07034	-0.37585604

VAE.encoder_mu.layers.0.linear0.bias f4 [128]
0	0x3ee3a2cf	0.4446015
1	0xbe8a4122	-0.27002817
2	0xbef8b56c	-0.48575914
3	0xbe0c1da5	-0.13683183
4	0xbe837d6a	-0.2568162
5	0xbe20b278	-0.1569308
6	0xbecbda6c	-0.3981508
7	0x3e8ce37d	0.2751731
8	0xbeb0e21d	-0.3454751
9	0x3dfc515f	0.12320208
10	0xbe249a97	-0.16074596
11	0xbde6de93	-0.112729214
12	0x3ec6b440	0.38809395
13	0xbea5558b	-0.32291827
14	0xbe9f1060	-0.3106718
15	0x3e98ffc9	0.2988265
16	0xbdeff0d4	-0.11715856
17	0x3e741f90	0.23840165
18	0xbd9802b3	-0.0742239
19	0x3e2956ac	0.16536969
20	0xbb1a4ee7	-0.0023545565
21	0x3ed4d8cd	0.41571656
22	0xbe644b10	-0.22294259
23	0xbeaa382f	-0.3324599
24	0x3ed6468f	0.41850707
25	0xbe9c317d	-0.30506507
26	0xbf03e62a	-0.5152308
27	0xbe264bf8	-0.16239917
28	0xbe481c06	-0.1954194
29	0xbeb31517	-0.34977028
30	0xbdf0538c	-0.11734685
31	0xbd8abeee	-0.06774698
32	0xbea4b314	-0.32167876
33	0xbedfe5f5	-0.4373013
34	0x3e8da882	0.27667624
35	0x3e9f7f3f	0.3115177
36	0x3e334c04	0.17509466
37	0x3e71dc94	0.236193
38	0xbe9481c9	-0.29005268
39	0xbeec1de0	-0.46116543
40	0x3e4c37b4	0.19943124
41	0xbe9eec65	-0.3103973
42	0x3ee5ccd4	0.44882834
43	0xbd8554b2	-0.06510295
44	0x3e851f77	0.26000568
45	0xbde368a6	-0.111039445
46	0x3ee6bfed	0.45068303
47	0xbe0c71b2	-0.13715246
48	0xbe08cae8	-0.13358653
49	0x3e4c087c	0.19925112
50	0x3e4d1e8f	0.20031188
51	0x3ec0ab64	0.3763076
52	0xbe5b8861	-0.21438743
53	0xbde7c666	-0.113171384
54	0x3ec457ae	0.38348144
55	0xbe8513a7	-0.25991556
56	0xbd37859a	-0.044805147
57	0xba1b1cba	-0.00059170614
58	0xbec2cfbe	-0.3804912
59	0xbe53f22a	-0.20697847
60	0x3e2d8132	0.16943815
61	0xbe1dd78e	-0.15414259
62	0xbeb39e89	-0.3508189
63	0xbe82d99a	-0.25556642
64	0x3e4d3835	0.20040973
65	0x3dbecb61	0.09316135
66	0x3eb8ec2c	0.36117685
67	0x3da47bfd	0.080314614
68	0x3e0bd5b7	0.13655744
69	0xbdbe5e51	-0.09295333
70	0x3eb05847	0.3444235
71	0xbccf2e5b	-0.025290659
72	0x3f057f27	0.52147144
73	0x3ede9f72	0.43481022
74	0xbeb26754	-0.34844458
75	0xbecad88a	-0.3961833
76	0xbedc45d6	-0.4302203
77	0x3e918553	0.2842203
78	0x3cbcd668	0.023051456
79	0xbdcd496a	-0.10023768
80	0xbe905c92	-0.28195626
81	0xbf07264d	-0.5279282
82	0xbed3e9f4	-0.4138943
83	0x3ee89a1d	0.4543008
84	0xbed631cd	-0.4183487
85	0xbd3a7741	-0.045523886
86	0xbcbd55b8	-0.023112163
87	0xbe2feb91	-0.17179705
88	0x3e4bb300	0.19892502
89	0x3e15f429	0.14643921
90	0x3ded1a62	0.11577298
91	0x3e634ced	0.22197314
92	0xbdf0ede1	-0.11764122
93	0xbd0c46e4	-0.034247294
94	0xbeb3bd4b	-0.35105357
95	0xbea65c0e	-0.32492107
96	0xbe8b026e	-0.2715029
97	0xbed85d76	-0.42258805
98	0xbe31240a	-0.17298904
99	0xbe992f1d	-0.29918757
100	0xbf0a22a9	-0.5395914
101	0xbf0d01de	-0.55080974
102	0x3d9550d8	0.0729081
103	0xbe42beef	-0.19018148
104	0xbed26391	-0.41091588
105	0xbec6cb38	-0.3882692
106	0x3e8f6665	0.28007808
107	0xbd86cd38	-0.06582111
108	0xbe334510	-0.17506814
109	0x3eb2d893	0.34930858
110	0xbc8f2d51	-0.017477663
111	0xbe81484d	-0.25250474
112	0xbee467b8	-0.4461038
113	0xbf06b29d	-0.5261629
114	0x3ce408d7	0.027836246
115	0x3e1add7d	0.15123554
116	0xbe4c10dd	-0.19928308
117	0x3e44d9d2	0.19223717
118	0xbecf7182	-0.40516287
119	0xbe078a9a	-0.13236466
120	0x3ed60c04	0.41806042
121	0x3eecb385	0.46230713
122	0x3ed80174	0.4218861
123	0xbebaacfe	-0.36460108
124	0x3ea028db	0.3128117
125	0xbedf2522	-0.43583018
126	0x3e8a88d0	0.27057505
127	0xbeee9b3d	-0.46602812

VAE.encoder_mu.layers.0.linear1.weight f4 [4, 128]
0	0x3cf3b21d	0.029748017
1	0x3d94c57a	0.07264228
2	0x3d03ebb7	0.032207217
3	0x3c94b454	0.018152393
4	0xbd35708d	-0.04429679
5	0xbd9e0146	-0.07715087
6	0xbe0ce52d	-0.13759299
7	0x3cfd20c3	0.030899411
8	0x3d0583ea	0.032596506
9	0x3cebb752	0.028773937
10	0xbc2417bc	-0.010015424
11	0xbdb3e4d7	-0.08783882
12	0x3da64ef1	0.08120526
13	0x3dbc6fbd	0.09201
14	0x3cdd388a	0.027004499
15	0xbdd9824f	-0.106205575
16	0x3cd56866	0.026050758
17	0xbd0d9596	-0.034566484
18	0x3daab24b	0.08334788
19	0x3bf15a11	0.007365473
20	0x3dfc90e6	0.12332325
21	0xbd82c288	-0.0638476
22	0xbde5c994	-0.112200886
23	0xbb5066f4	-0.0031799646
24	0xbc0f2111	-0.008735911
25	0x3dd17015	0.10226456
26	0xbc89136e	-0.016732898
27	0xbd6b89c8	-0.057504445
28	0x3da1846d	0.07886586
29	0x3d928fcd	0.07156334
30	0x3c94141e	0.018075999
31	0x3e121776	0.14266762
32	0xbdce915b	-0.10086318
33	0xbd7e93d5	-0.062152702
34	0xbd6bd3ec	-0.05757515
35	0xbb103768	-0.002200568
36	0x3d4097e8	0.04701987
37	0x3c0cf8b1	0.0086042145
38	0x3e0aad8f	0.1354277
39	0x3cc9c5d0	0.024630457
40	0xbcceb142	-0.025231007
41	0xbd560ca6	-0.052258156
42	0xbd4ffbbf	-0.050777193
43	0xbd9117f6	-0.07084648
44	0xbdc61a61	-0.09673
45	0xbe263b16	-0.16233477
46	0x3db594ac	0.088662475
47	0x3d4ca828	0.049965054
48	0x3d839780	0.06425381
49	0xbdc161a6	-0.09442453
50	0xbcd20fef	-0.025642363
51	0xbd4bde1c	-0.049772367
52	0x3ceca65d	0.028887922
53	0x3da1afe4	0.078948766
54	0x3c42c163	0.011886927
55	0xbda0a025	-0.07843045
56	0xbda3fc27	-0.080070786
57	0xbda3ea39	-0.08003659
58	0xbcce0441	-0.025148513
59	0x3ce9af45	0.028525958
60	0xbd33eedd	-0.04392897
61	0x3c6a67cf	0.014306976
62	0x3d9c59ce	0.076343164
63	0xbd5dbdea	-0.054136194
64	0x3dd3a1d0	0.10333598
65	0x3dbfa8e3	0.093583845
66	0xbd179f50	-0.037017167
67	0xbd195478	-0.03743407
68	0xbc53438d	-0.012894523
69	0x3d3693ec	0.044574663
70	0xbd476e01	-0.048688892
71	0x3dd485c4	0.10377076
72	0xbd90833a	-0.070562795
73	0xbd429575	-0.047505815
74	0x3d83e51c	0.064401835
75	0x3b3c34d7	0.0028718018
76	0x3da31e8a	0.07964809
77	0xbdb24509	-0.08704574
78	0x3dc45bdc	0.09587833
79	0xbddbf535	-0.10740129
80	0xbd310599	-0.04321823
81	0x3d15fc29	0.03661743
82	0xbc80269a	-0.015643407
83	0xbccba7b0	-0.024860233
84	0x3dd669b2	0.104693785
85	0x3e067004	0.13128668
86	0xbd9e7124	-0.077364236
87	0x3e024181	0.127203
88	0xbcfbabb9	-0.030721532
89	0xbda4ed87	-0.08053117
90	0x3dfa662f	0.12226521
91	0x3d911852	0.07084717
92	0xbdee3c0c	-0.11632547
93	0xbcccc330	-0.024995416
94	0x3dc2fec0	0.09521246
95	0x3dc86ace	0.097859964
96	0x3b9f4305	0.0048602843
97	0xbd22e345	-0.039767522
98	0xbc1ae5e4	-0.009454224
99	0x3d90388c	0.070420355
100	0x3dbd1ff0	0.09234607
101	0x3eb05973	0.34443244
102	0x3da4f394	0.08054271
103	0x3d8dc9cb	0.069232546
104	0xbd5e6ce4	-0.054303065
105	0xbd628d32	-0.055310436
106	0xbbc7bfdd	-0.00609587
107	0x3d8379d9	0.06419725
108	0x3be8d512	0.007105478
109	0x3cccce34	0.025000669
110	0x3d8dc2d9	0.0692193
111	0xbd8480d1	-0.06469882
112	0x3d916989	0.07100207
113	0x3be8d6a7	0.0071056667
114	0xbbb4ffee	-0.0055236733
115	0x3ddced5c	0.1078746
116	0xbb2c8b05	-0.002632798
117	0xbdaac7b7	-0.08338874
118	0x3d353c62	0.04424704
119	0x3c9e2886	0.019306432
120	0x3cb35c7a	0.021894682
121	0x3c4b987f	0.012426495
122	0xbc5b8856	-0.013399204
123	0x3ccbc02e	0.024871912
124	0x3d8c82ec	0.06860909
125	0xbdad01eb	-0.084476314
126	0x3d35234c	0.044223115
127	0xbd882a2d	-0.066486694
128	0xbd6b25d1	-0.05740911
129	0x3e0cbb8f	0.13743423
130	0xbdc310bc	-0.09524676
131	0xbd448c39	-0.04798529
132	0xbdacfbd5	-0.08446471
133	0xbdbf8a8f	-0.093526
134	0x3d9c1444	0.07621053
135	0xbd0408c1	-0.03223491
136	0xbd594ce2	-0.053051837
137	0x3d39bd8c	0.04534678
138	0x3d401554	0.04689534
139	0xbd6662cb	-0.05624656
140	0xbd996551	-0.07490028
141	0xbc467721	-0.0121133635
142	0xbd22c0bd	-0.03973459
143	0xbd40dd6b	-0.04708616
144	0x3be75eb9	0.0070608524
145	0x3d9ce4e9	0.07660849
146	0xbd17dd72	-0.03707642
147	0x3da0cad3	0.07851186
148	0x3de0e67b	0.10981461
149	0x3d79a181	0.060945038
150	0x3d72a437	0.05923864
151	0x3b8e827a	0.00434905
152	0x3bd058ef	0.006358258
153	0xbdb06afa	-0.08614154
154	0xbb9bb744	-0.0047520716
155	0xbd3cd70c	-0.046103522
156	0x3b5391e8	0.0032283012
157	0x3dc27f4b	0.094969355
158	0x3d982b54	0.07430139
159	0xbd270235	-0.04077359
160	0x3e68df23	0.2274137
161	0xbb967f96	-0.004592846
162	0x3d1bf354	0.038073853
163	0x3da9ca6c	0.08290562
164	0xbd577c8d	-0.052609015
165	0x3da6c1c5	0.08142427
166	0xbd200494	-0.039066866
167	0xbded7d0c	-0.115961164
168	0x3cc8ebee	0.024526563
169	0xbdce9472	-0.100869074
170	0x3d98798e	0.0744506
171	0x3e464874	0.19363576
172	0xbd852c7a	-0.06502624
173	0xbde36011	-0.111023076
174	0xbc29a03c	-0.010353144
175	0xbd21a60d	-0.039465
176	0x3dd32434	0.103096396
177	0x3d943bf8	0.07238001
178	0xbd4872f1	-0.04893774
179	0xbdaba5a3	-0.08381202
180	0x3e3030c5	0.17206104
181	0x3d946775	0.07246295
182	0x3d275c29	0.040859375
183	0xbe3fe282	-0.1873875
184	0x3d9bcf88	0.07607943
185	0x3d4caf99	0.04997215
186	0x3ce22e1a	0.027609874
187	0xbceee529	-0.029162006
188	0xbde05792	-0.10954203
189	0x3e00f04e	0.12591669
190	0xbdd5dc7f	-0.10442447
191	0xbe55387f	-0.20822333
192	0xbc251462	-0.01007566
193	0xbdc1b4c8	-0.094583094
194	0xbda927f8	-0.082595766
195	0xbd84064c	-0.064465135
196	0x3d046ff2	0.032333322
197	0xbd94ceb1	-0.07265986
198	0x3dd844d1	0.10560001
199	0x3d158d86	0.03651192
200	0xbd779e6a	-0.06045381
201	0xbdb7a24d	-0.08966503
202	0xbe7f9199	-0.24957885
203	0xbda10158	-0.078615844
204	0x3e0424d5	0.12904675
205	0x3cef383a	0.029201616
206	0x3c7bb207	0.015362269
207	0xbd958c95	-0.073022045
208	0xbd6c7e6e	-0.05773776
209	0xbe01a74e	-0.12661478
210	0xbe022c30	-0.12712169
211	0xbd068028	-0.032837063
212	0xbd71cb24	-0.05903162
213	0x3c95de0c	0.018294357
214	0xbde918c2	-0.11381675
215	0xbd321d61	-0.04348505
216	0x3db3b440	0.08774614
217	0x3dd92fc2	0.10604812
218	0x3d941440	0.07230425
219	0x3c1def51	0.009639577
220	0xbccc017c	-0.024903052
221	0x3cd6d962	0.026226703
222	0x3d48f46c	0.049061224
223	0x3d787c2d	0.0606653
224	0xbd5b9fc4	-0.05361916
225	0x3e52c376	0.20582375
226	0xbd674828	-0.056465298
227	0x3dfccafd	0.123434044
228	0xbcbcfa0b	-0.023068449
229	0xbd83780b	-0.06419381
230	0xbdb52342	-0.088446155
231	0xbd05b276	-0.032640897
232	0x3c49930c	0.012303125
233	0xbcb54957	-0.022129698
234	0xbdc092e6	-0.09403019
235	0x3d9a86db	0.07545253
236	0x3d88e418	0.066841304
237	0xbbf8c379	-0.0075916615
238	0xbd95f3a5	-0.07321862
239	0xbdbf1636	-0.09330408
240	0xbc238c5e	-0.009982197
241	0x3d9d0e26	0.07668714
242	0xbdb03b1d	-0.08605025
243	0x3d7d70c7	0.06187513
244	0xbcc66e18	-0.024222419
245	0x3d519ee3	0.051176917
246	0xbcb0f84a	-0.021602768
247	0x3c61f568	0.01379142
248	0xbc86aa42	-0.016438607
249	0x3d155826	0.036461018
250	0xbc920978	-0.01782678
251	0xbd095f3b	-0.033538084
252	0x3da77c97	0.081780605
253	0x3e07cb82	0.13261226
254	0xbd2c8aa7	-0.042124417
255	0x3bade8b8	0.0053072833

VAE.encoder_mu.layers.0.linear1.bias f4 [4]
0	0xbbf1a741	-0.0073746745
1	0x3c39d283	0.011341694
2	0xbdd64c62	-0.104637876
3	0xbd48115f	-0.04884469

VAE.encoder_mu.layers.0.norm1.weight f4 [4]
0	0x3f87b70e	1.0602739
1	0x3f791d8b	0.97310704
2	0x3f809923	1.0046734
3	0x3f8948dc	1.072536

VAE.encoder_mu.layers.0.norm1.bias f4 [4]
0	0x3cb1b635	0.021693328
1	0x3c684673	0.014176953
2	0xbb5706af	-0.003281038
3	0x3b3d5737	0.0028891095

VAE.encoder_mu.layers.1.attention.W_q.weight f4 [4, 4]
0	0x3e1e1a32	0.1543968
1	0x3e7c965b	0.24666731
2	0xbec47f02	-0.3837815
3	0xbeb8306e	-0.3597445
4	0xbe6db905	-0.2321511
5	0x3e2cf958	0.16891992
6	0x3e65c21e	0.22437331
7	0xbd7cea76	-0.061747037
8	0x3e1bb9cb	0.15207593
9	0xbec7b932	-0.3900848
10	0xbd7b2d02	-0.06132222
11	0xbe7f029b	-0.24903338
12	0x3e58304a	0.21112171
13	0xbf0358d4	-0.51307416
14	0xbe0f767b	-0.1401004
15	0x3cbf718f	0.023369579

VAE.encoder_mu.layers.1.attention.W_q.bias f4 [4]
0	0x3d961574	0.073283106
1	0xbdb2cbd8	-0.08730286
2	0x3c1d5f4b	0.009605239
3	0x3d4019da	0.046899654

VAE.encoder_mu.layers.1.attention.W_k.weight f4 [4, 4]
0	0xbdc13b3f	-0.094351284
1	0xbeb4fa1b	-0.35347065
2	0xbec2ba5f	-0.38032815
3	0xbe42fc3a	-0.1904153
4	0xbe6e5238	-0.23273551
5	0x3eb10975	0.34577528
6	0x3bd20df2	0.006410354
7	0xbe1dcf1f	-0.15411042
8	0x3e3943ea	0.18092313
9	0x3de75af4	0.11296645
10	0x3d15d400	0.036579132
11	0xbeb3e9d3	-0.3513933
12	0x3df41346	0.119177386
13	0xbee5d7c0	-0.44891167
14	0x3f091f87	0.5356373
15	0xbf09e49b	-0.5386445

VAE.encoder_mu.layers.1.attention.W_k.bias f4 [4]
0	0x3a9b8b4d	0.0011867076
1	0x3b993855	0.0046759048
2	0xba08ba05	-0.00052157074
3	0xbbb3b0da	-0.005483729

VAE.encoder_mu.layers.1.attention.W_v.weight f4 [4, 4]
0	0xbedbb030	-0.42907858
1	0x3e7109e5	0.2353893
2	0x3ecbaaef	0.3977885
3	0x3e983321	0.29726508
4	0x3d3842db	0.044985633
5	0x3d6824eb	0.056675833
6	0xbe85221a	-0.2600258
7	0x3df018c1	0.117234714
8	0x3ebcd057	0.368777
9	0x3ef3eb98	0.4764068
10	0x3e866622	0.26249796
11	0xbdea06d5	-0.11427084
12	0x3e32b555	0.17451985
13	0xbec4f23c	-0.3846606
14	0xbdacd602	-0.08439256
15	0x3e774d4f	0.24150585

VAE.encoder_mu.layers.1.attention.W_v.bias f4 [4]
0	0xbc788e93	-0.015170711
1	0xbc8e9e7b	-0.017409554
2	0xbc873803	-0.0165062
3	0x3a1625e9	0.0005727695

VAE.encoder_mu.layers.1.linear0.weight f4 [128, 4]
0	0x3cebf1ed	0.028801883
1	0xbe2d1a72	-0.1690462
2	0xbd11ca10	-0.035593092
3	0xbe822a7d	-0.2542304
4	0xbeb0be50	-0.34520197
5	0xbe955a9d	-0.29170695
6	0x3e6c76b4	0.23092157
7	0xbe162f90	-0.14666581
8	0x3e78b8ca	0.24289241
9	0xbef0c0ce	-0.47022098
10	0x3ec1ecbd	0.3787593
11	0x3ce108e2	0.027470056
12	0x3de47a5e	0.11156152
13	0x3e9f731c	0.3114251
14	0xbe80db78	-0.2516744
15	0xbd25d668	-0.040487677
16	0xbea6bb30	-0.32564688
17	0xbe93615e	-0.28785223
18	0x3c440ac2	0.0119654555
19	0xbf008ecb	-0.50217885
20	0xbe6f194c	-0.23349494
21	0xbe5fe480	-0.2186451
22	0xbeaf01b2	-0.3418098
23	0xbedb8696	-0.42876118
24	0xbec0e0ef	-0.3767161
25	0x3e7f6bed	0.24943514
26	0xbe0b270c	-0.13589114
27	0xbe87b442	-0.26504713
28	0x3e086f89	0.13323797
29	0xbde5a88f	-0.112137906
30	0xbd894967	-0.067034535
31	0xbeb8a628	-0.36064267
32	0xbe6d9243	-0.23200326
33	0xbecb611d	-0.3972253
34	0xbec828c7	-0.3909361
35	0x3ed6cae1	0.4195166
36	0xbe675762	-0.22591928
37	0xbd334154	-0.043763474
38	0x3eef88d3	0.46784076
39	0xbe9aba4a	-0.30220252
40	0xbf02aa1c	-0.51040816
41	0xbe0696f5	-0.13143523
42	0x3d0f3e52	0.034971543
43	0xbea11d6e	-0.31467766
44	0x3e3db356	0.18525442
45	0x3eb16693	0.3464857
46	0xbe89420d	-0.26808205
47	0x3df08729	0.1174453
48	0x3f0d7007	0.55249065
49	0x3e7a64e7	0.24452554
50	0x3eced142	0.40394026
51	0x3e0a7ba8	0.13523734
52	0x3e240eb4	0.16021234
53	0xbf039292	-0.51395524
54	0x3c7151e4	0.014728997
55	0x3e251d1e	0.16124389
56	0xbdb989c1	-0.090594776
57	0xbe3ff08e	-0.18744108
58	0xbebadac1	-0.3649502
59	0x3e0563f1	0.13026406
60	0xbefde0a7	-0.4958546
61	0xbec8f7e0	-0.39251614
62	0x3eaaa2e5	0.33327404
63	0xbe46ef0f	-0.19427131
64	0x3e863b22	0.2621699
65	0x3eca527a	0.3951605
66	0xbe4c3666	-0.19942626
67	0xbe6a457a	-0.22878066
68	0xbe55a5f8	-0.20864093
69	0x3e9098e4	0.28241646
70	0xbe8e3deb	-0.27781615
71	0x3d4bb054	0.049728706
72	0x3f1991bd	0.59988004
73	0xbdf94570	-0.12171447
74	0xbea92d62	-0.33042437
75	0x3b960aae	0.00457891
76	0x3ed48eaa	0.41515094
77	0xbec1bebe	-0.37840837
78	0x3ebe9663	0.3722411
79	0x3e66c944	0.22537714
80	0x3f0184a4	0.5059302
81	0xbe931761	-0.28728774
82	0x3df02e88	0.11727625
83	0xbe660045	-0.2246104
84	0x3ea0d5cc	0.31413114
85	0xbecbac01	-0.39779666
86	0x3d3d6132	0.04623527
87	0xbea5a6db	-0.32353863
88	0x3e140fe1	0.14459182
89	0x3e4f6f73	0.20257358
90	0x3e1c24de	0.15248439
91	0xbde04d08	-0.109521925
92	0x3ebf82ad	0.37404385
93	0x3d9f2050	0.07769835
94	0x3ebc69f4	0.36799586
95	0x3db0f9f1	0.086414225
96	0x3e7752fb	0.24152748
97	0x3e4863b4	0.19569284
98	0xbe6ed0d8	-0.23321855
99	0xbefc6c39	-0.49301317
100	0xbea414e9	-0.32047203
101	0xbded8159	-0.11596937
102	0xbed41bd1	-0.41427472
103	0x3ebe96c4	0.372244
104	0xbebf411b	-0.3735436
105	0x3e52292e	0.20523521
106	0x3e0afb1c	0.13572353
107	0x3e2ea364	0.17054516
108	0xbe994ed0	-0.29942942
109	0xbd1f8bbf	-0.03895163
110	0xbebbd91b	-0.36689076
111	0x3ef7fc6d	0.48434773
112	0xbefffedd	-0.49999133
113	0xbed44b5e	-0.4146375
114	0x3f00885c	0.5020807
115	0x3ef98f1d	0.48742
116	0x3e6825b4	0.22670633
117	0x3e05ac8b	0.13054101
118	0xbd0e86a0	-0.034796357
119	0x3e346848	0.17617905
120	0x3e1ddc5c	0.15416092
121	0xbee88a17	-0.45417854
122	0xbef5d79e	-0.48016065
123	0xbe3e75b7	-0.18599592
124	0x3eddf151	0.43348172
125	0xbe9354d8	-0.28775668
126	0xbef56be6	-0.47933882
127	0xbe595a34	-0.21225816
128	0x3daa0247	0.083012156
129	0xbddbc45a	-0.107308105
130	0xbe97240b	-0.29519686
131	0xbe38a457	-0.1803144
132	0xbe9b479d	-0.30328074
133	0x3e96b059	0.29431418
134	0xbee1c6a8	-0.44096875
135	0x3e38b1c2	0.18036559
136	0x3e6c45ed	0.2307355
137	0xbe3a9845	-0.18222149
138	0x3ea73592	0.32658058
139	0xbe969957	-0.29413864
140	0xbdb1139a	-0.08646317
141	0x3ec58905	0.385811
142	0x3eb42ff1	0.35192826
143	0xbf1bcf15	-0.6086286
144	0x3df787ac	0.12086424
145	0x3e0f8a3f	0.1401758
146	0x3d9f82e1	0.07788635
147	0xbedfb24f	-0.43690726
148	0xbebdba9a	-0.37056428
149	0x3ed2bc05	0.41159073
150	0xbe7037fc	-0.23458856
151	0x3ced729d	0.028985316
152	0xbe1db5aa	-0.1540133
153	0x3e590998	0.21195066
154	0x3ea2cddb	0.3179768
155	0x3eaae518	0.3337791
156	0x3ec44f26	0.38341635
157	0xbd3a4d50	-0.045483887
158	0xbe91a7c6	-0.28448313
159	0xbedb477a	-0.4282797
160	0x3e9d37ba	0.30706578
161	0xbd9a0f7f	-0.07522487
162	0x3e22a167	0.15881883
163	0x3e0bae2e	0.13640663
164	0x3f04dbad	0.518977
165	0xbed13337	-0.40859386
166	0xbe9513ad	-0.29116574
167	0x3e071b43	0.13193993
168	0x3ebd70ce	0.37000126
169	0xbdbe241a	-0.092842296
170	0x3e185401	0.14875795
171	0x3f034046	0.5126995
172	0xbefacf85	-0.4898645
173	0x3de97c63	0.11400678
174	0x3e80c6ef	0.25151774
175	0x3adcc653	0.0016843773
176	0x3e41fc3a	0.18943873
177	0xbed274f9	-0.41104868
178	0x3ec068d1	0.3757997
179	0x3f041ddd	0.5160807
180	0x3e36a3b5	0.17835887
181	0x3ebd3d34	0.36960757
182	0x3ea12842	0.31476027
183	0x3f086425	0.5327781
184	0x3dc94535	0.09827653
185	0xbe44b05b	-0.192079
186	0x3e0d6c9e	0.13810965
187	0xbe5a0803	-0.21292119
188	0xbde5567e	-0.11198138
189	0x3edaf063	0.42761526
190	0x3d814956	0.06312816
191	0xbebbe4ca	-0.3669799
192	0x3dd8302a	0.105560616
193	0x3ec09d95	0.37620226
194	0xbe03d5d4	-0.12874538
195	0x3e71a3c6	0.23597631
196	0xbe2a6bf4	-0.16642743
197	0x3ef411d1	0.47669843
198	0xbe1c4b31	-0.15263058
199	0xbea169b1	-0.3152595
200	0x3ea7381f	0.32660004
201	0xbe7b2a3a	-0.24527827
202	0x3ebe6533	0.37186584
203	0x3ef0dc47	0.47043058
204	0x3df82857	0.12117069
205	0x3e2269a7	0.15860616
206	0x3e6314aa	0.22175851
207	0xbebde2e9	-0.3708718
208	0x3ec9c81a	0.39410478
209	0x3e12d602	0.1433945
210	0x3de3473f	0.110975735
211	0xbd11100f	-0.035415705
212	0x3e28463d	0.16433044
213	0xbc94a31d	-0.018144185
214	0x3e7e870f	0.24856208
215	0xbe3168ff	-0.17325209
216	0x3efa7f80	0.489254
217	0x3e6f001a	0.23339882
218	0x3edadc08	0.42745996
219	0x3ef7db66	0.48409575
220	0xbe44ab64	-0.19206005
221	0xbf03a3ca	-0.514218
222	0x3f1c84a6	0.61139905
223	0x3ea97807	0.33099386
224	0xbe2a056f	-0.16603635
225	0xbefd4307	-0.494652
226	0x3dbb0a66	0.09132843
227	0x3d56ff45	0.052489538
228	0x3e84fcfd	0.25974265
229	0xbe2722ac	-0.1632182
230	0x3d848c3c	0.0647206
231	0xbee02857	-0.43780777
232	0x3d1b13f1	0.037860814
233	0xbd83975d	-0.06425355
234	0x3e86d976	0.26337785
235	0xbeb90c1e	-0.36142057
236	0x3ee70e70	0.45128202
237	0xbdba9c1c	-0.09111807
238	0xbc932111	-0.017960103
239	0xbe2c4de6	-0.16826591
240	0x3e2e8efc	0.17046732
241	0x3c6ec6f2	0.014573799
242	0xbea21161	-0.31653884
243	0xbe8ba416	-0.27273625
244	0xbcaba17b	-0.020951023
245	0x3ccb0a48	0.024785176
246	0xbec57e0c	-0.3857273
247	0x3b9743cb	0.004616236
248	0x3eceecca	0.4041503
249	0xbe7578f8	-0.23971927
250	0x3e8c092c	0.27350748
251	0xbea96192	-0.33082253
252	0x3ce6760b	0.02813246
253	0x3eeacc10	0.45858812
254	0xbf09c004	-0.5380862
255	0x3deed9c5	0.1166263

VAE.encoder_mu.layers.1.linear0.bias f4 [128]
0	0x3f04911f	0.5178394
1	0x3e40cd3e	0.18828294
2	0x3ee446b9	0.44585207
3	0x3e8cb778	0.27483726
4	0xbeb73d97	-0.35789177
5	0xbeb8b288	-0.3607371
6	0xbed9528d	-0.42445794
7	0x3e39b1b2	0.18134192
8	0x3e828a94	0.25496352
9	0xbec7ed2a	-0.3904813
10	0xbe578d9d	-0.21050115
11	0xbe3de482	-0.185442
12	0xbe718a11	-0.23587824
13	0xbea133f9	-0.31484964
14	0xbead8615	-0.3389136
15	0x3d67027a	0.056398846
16	0xbd8d2486	-0.06891732
17	0x3eb55e1c	0.35423362
18	0xbf095104	-0.53639245
19	0x3e8932ad	0.26796475
20	0xbea26314	-0.31716216
21	0xbe675898	-0.2259239
22	0xbe5ba939	-0.21451272
23	0x3e461cfb	0.19346993
24	0x3de9e7a1	0.11421133
25	0xbcbbe1b7	-0.022934778
26	0xbdac3936	-0.084093496
27	0xbddbb723	-0.1072829
28	0x3e1a753f	0.15083788
29	0xbe2aafe3	-0.16668658
30	0x3ed9214b	0.42408213
31	0x3e2e4985	0.17020233
32	0x3eb9b31b	0.3626946
33	0xbe988284	-0.29787076
34	0x3ebaa835	0.36456457
35	0xbe830d46	-0.25596064
36	0xbe130501	-0.14357378
37	0xbe2ea2ca	-0.17054287
38	0x3e923117	0.28553078
39	0x3e88d9a5	0.2672855
40	0xbd8bc3c9	-0.068244524
41	0x3e0738fa	0.13205329
42	0xbee29344	-0.4425298
43	0xbed35b34	-0.4128052
44	0xbef735a8	-0.48283124
45	0x3ec311e8	0.380996
46	0x3e384eac	0.17998761
47	0xbe836b34	-0.25667727
48	0xbef8bb65	-0.4858047
49	0x3de195f4	0.110149294
50	0x3ed5e33b	0.41774926
51	0x3ef7a499	0.48367766
52	0x3edb0c78	0.4278295
53	0xbefaea92	-0.49007088
54	0x3e336744	0.17519861
55	0x3e87b4f7	0.26505253
56	0x3e994028	0.2993176
57	0xbeee3ffb	-0.46533188
58	0x3e06c800	0.13162231
59	0xbd9d93cc	-0.07694206
60	0x3dffbc52	0.12487091
61	0x3d90ef83	0.07076933
62	0x3b95cc43	0.004571469
63	0xbe0546af	-0.13015245
64	0xbdaef79a	-0.0854332
65	0xbee31cb5	-0.4435784
66	0xbe316919	-0.17325248
67	0x3d1490b4	0.036270812
68	0x3daed14d	0.08536015
69	0x3ebbdb3b	0.36690697
70	0xbe792036	-0.24328694
71	0xbddf92dc	-0.10916683
72	0x3dec6246	0.11542182
73	0xbc8a9eb1	-0.016921373
74	0x3ebcd120	0.368783
75	0x3e87c1a1	0.26514915
76	0xbed42003	-0.41430673
77	0xbf030e8d	-0.5119408
78	0xbeb23f99	-0.34814146
79	0x3ea618ae	0.32440704
80	0x3eb22b33	0.34798583
81	0x3ee1e3d5	0.44119135
82	0xbd32e05e	-0.043671004
83	0xbe54bcf2	-0.20775202
84	0x3ca1f711	0.01977113
85	0x3ed41c38	0.4142778
86	0xbe9d0335	-0.3066651
87	0xbdf7b327	-0.120947175
88	0xbeb01b68	-0.3439591
89	0xbc163af5	-0.00916933
90	0x3ea1cee6	0.31603163
91	0x3e832db1	0.25620797
92	0xbe90f29f	-0.28310105
93	0x3e04c06c	0.12964028
94	0xbdc402f3	-0.09570875
95	0xbdd43760	-0.103621244
96	0xbd7f8ed6	-0.06239208
97	0x3ce2b8be	0.027675983
98	0x3ef0806a	0.46972972
99	0x3ddcf311	0.10788549
100	0x3e92908d	0.28625908
101	0x3e18d5fd	0.1492538
102	0xbee68d5a	-0.45029718
103	0x3ec6c022	0.3881846
104	0x3e236383	0.1595593
105	0xbdfda559	-0.12385053
106	0x3d6d2997	0.05790099
107	0xbe7a4524	-0.24440438
108	0x3ee36b6c	0.44417894
109	0x3d73d28e	0.059526972
110	0x3e5a4a3c	0.2131738
111	0x3dce3c32	0.10070075
112	0xbeb73e2a	-0.35789615
113	0x3d93d9f2	0.07219304
114	0x3d95f4f5	0.073221125
115	0x3eb627f4	0.35577357
116	0x3ddf99e1	0.10918022
117	0xbe341307	-0.17585383
118	0xbeb32f42	-0.34996992
119	0x3eb519ab	0.35371146
120	0x3e856cf4	0.26059687
121	0x3e5e4e61	0.21709587
122	0x3c812a8d	0.01576736
123	0x3dfa2335	0.122137465
124	0xbe9132b1	-0.28358987
125	0xbe4727e9	-0.19448818
126	0xbefa47d7	-0.48882934
127	0xbeae6329	-0.34060028

VAE.encoder_mu.layers.1.linear1.weight f4 [4, 128]
0	0xbdc88701	-0.09791375
1	0xbdd7e6f7	-0.105421
2	0xbd98d043	-0.07461598
3	0x3daab9c2	0.08336212
4	0xbb544805	-0.003239156
5	0xbd3665c9	-0.044530664
6	0x3d13f830	0.036125362
7	0xbda9eb62	-0.08296849
8	0x3cbf55d6	0.02335636
9	0xbe07bd9b	-0.13255922
10	0xbd703497	-0.058643904
11	0x3cdb350a	0.02675869
12	0x3ad31db4	0.0016106875
13	0x3e5191c3	0.2046576
14	0xbd8a4233	-0.06750908
15	0xbe0679af	-0.13132356
16	0x3d0b8fda	0.034072734
17	0x3d2cc8fd	0.042183865
18	0xbcb94c0e	-0.022619274
19	0xbda64779	-0.08119101
20	0xbe0aadd5	-0.13542874
21	0xbcedcee3	-0.029029315
22	0x3d2176c1	0.039419893
23	0xbd4bf119	-0.049790476
24	0x3d282325	0.04104914
25	0xbc2ae8aa	-0.010431448
26	0xbdb23bbd	-0.087028004
27	0xbce7966e	-0.028269973
28	0xbbf6f50a	-0.007536535
29	0x3cd31f6b	0.025771817
30	0xbcb0b1a5	-0.021569083
31	0xbce10d80	-0.027472258
32	0xbd87b077	-0.06625455
33	0xbd64e414	-0.055881575
34	0xbcc4b7d9	-0.024013447
35	0x3d16547d	0.036701668
36	0xbbfa98b3	-0.0076475977
37	0x3d3e3121	0.04643357
38	0x3c0a458c	0.008439433
39	0x3c900156	0.017578762
40	0xbdd25290	-0.10269654
41	0xbd268131	-0.04065055
42	0x3e408a27	0.18802701
43	0xbdc0823c	-0.0939984
44	0x3e196d66	0.14983138
45	0x3da7d771	0.08195389
46	0xbdc773b7	-0.09738868
47	0xba646740	-0.0008712895
48	0xbde904f1	-0.113778956
49	0xbd712292	-0.05887086
50	0x3d98a4ec	0.07453331
51	0xbd624885	-0.05524494
52	0xbbd1fd6b	-0.0064083836
53	0x3d05c1bc	0.032655463
54	0x3d8882bf	0.06665563
55	0xbdd2e83a	-0.102982
56	0xbcd9c89e	-0.02658492
57	0xbdf4f007	-0.11959844
58	0xbdfea818	-0.12434405
59	0xbdedc05f	-0.116089575
60	0xbd84f29f	-0.06491589
61	0x3d1a1a5c	0.037622795
62	0xbd4d6e0b	-0.050153773
63	0xbd0f9352	-0.035052605
64	0xbd54e24a	-0.05197362
65	0xbe1b08b1	-0.15140034
66	0xbca7e15b	-0.0204932
67	0xbdaf2be8	-0.08553296
68	0x3d1dc9ce	0.038522534
69	0xbd68bb0b	-0.056819003
70	0x3d88b90b	0.06675919
71	0x3c56af44	0.01310331
72	0xbd082fd3	-0.033248734
73	0xbd3773ef	-0.044788297
74	0xbe013dbc	-0.12621206
75	0xbc09380b	-0.008375178
76	0x3e423459	0.18965282
77	0xbda6ff9f	-0.081542246
78	0xbbc70e83	-0.006074728
79	0x3d194424	0.0374185
80	0x3cec93e4	0.028879113
81	0x3d6e8399	0.05823097
82	0xbd9d350d	-0.07676134
83	0xbda9b44f	-0.08286344
84	0xbdfed328	-0.124426186
85	0xbd672d58	-0.056439728
86	0xbd79a1cb	-0.060945313
87	0x3c84bbe4	0.016202874
88	0x3b8fbd40	0.004386574
89	0x3c2cc2b1	0.010544465
90	0xbd48664f	-0.048925694
91	0xbca2d077	-0.019874794
92	0x3e2e2752	0.17007187
93	0x3d1e6f22	0.038680203
94	0xbda5305d	-0.08065865
95	0xbd675c02	-0.05648423
96	0xbd2c520c	-0.042070433
97	0xbd962f97	-0.07333296
98	0xbd872984	-0.06599715
99	0x3cb0557c	0.021525137
100	0xbd1eade0	-0.03874004
101	0xbd0c0f3a	-0.03419421
102	0xbda35045	-0.079742946
103	0xbd6ceb16	-0.057841383
104	0xbd8133b5	-0.063086905
105	0xbcd3fc1c	-0.025877051
106	0x3d6b5ac0	0.057459593
107	0x3ca6cb40	0.020360589
108	0xbc645649	-0.013936588
109	0xbde31219	-0.11087436
110	0x3d26ae1f	0.0406934
111	0x3c393bca	0.011305759
112	0x3c91e875	0.01781104
113	0xbdb8bca5	-0.09020356
114	0x3d271c0e	0.04079824
115	0xb9d60757	-0.0004082273
116	0xbda75f1f	-0.0817244
117	0x3d79f363	0.061023127
118	0xbbbb8e85	-0.0057237768
119	0xbdb13bfc	-0.08654019
120	0x3cd4d28f	0.025979308
121	0x3c1c8b98	0.009554766
122	0xbd8a71a8	-0.067599595
123	0xbdda59a3	-0.10661628
124	0xbdb090c1	-0.086213596
125	0xbda6928e	-0.08133422
126	0xbc8f9565	-0.017527292
127	0x3d8c2158	0.06842297
128	0xbda7d795	-0.08195416
129	0x3ccb8d40	0.024847627
130	0xbd35381d	-0.044242967
131	0x3c1b5601	0.009480954
132	0x3eae2695	0.3401381
133	0xbd993d3c	-0.07482383
134	0xbd5fef03	-0.0546713
135	0xbdc678ee	-0.09691034
136	0xbd74458d	-0.05963664
137	0x3e0d2a74	0.13785726
138	0xbddc2046	-0.10748343
139	0x3d033d8c	0.032041118
140	0xba4ef72e	-0.0007895109
141	0x3c5fde5d	0.013663855
142	0xbd9c0581	-0.07618237
143	0x3e05dbfd	0.130722
144	0xbdf1adb0	-0.118007064
145	0x3ab4394b	0.0013749985
146	0x3e21e790	0.1581099
147	0x3d7a65d0	0.061132252
148	0xbd4f596c	-0.05062239
149	0xbdea3bdb	-0.11437198
150	0xbe029e4c	-0.12755698
151	0x3d5b59b8	0.05355236
152	0x3be90448	0.007111106
153	0x3bcebf84	0.0063094515
154	0xbddb336b	-0.107031666
155	0xbcabac3c	-0.020956151
156	0x3d7d5487	0.06184819
157	0xbe4b6101	-0.19861223
158	0xbde1a6e1	-0.11018158
159	0xbd94e44a	-0.07270105
160	0xbddb0795	-0.106948055
161	0x3d0427a3	0.032264363
162	0x3c269f6d	0.010169846
163	0xbe195282	-0.1497288
164	0xbdd58d7e	-0.10427378
165	0xbd96a207	-0.07355123
166	0x3db9f806	0.0908051
167	0xbd3ca20b	-0.046052974
168	0xbd756577	-0.059911218
169	0xbd7d9846	-0.061912797
170	0xbde9437b	-0.11389824
171	0xbe359429	-0.177323
172	0x3d9662fe	0.073431
173	0xbc0ebfed	-0.008712751
174	0x3db5ed18	0.08883113
175	0xbcedacce	-0.029013064
176	0xbe04774d	-0.12936135
177	0xbd2a08ab	-0.041512173
178	0x3de26c86	0.110558555
179	0xbcba9016	-0.022773784
180	0xbc169ff5	-0.00919341
181	0xbe0b443d	-0.1360025
182	0x3c01dcfd	0.007926223
183	0xbd7f058d	-0.062261153
184	0xbd5bef63	-0.053695094
185	0xbddfb748	-0.1092363
186	0xbceaf13c	-0.028679483
187	0xbdafb1cc	-0.08578834
188	0x3d5f152b	0.054463547
189	0x3cd384c4	0.025820144
190	0x3d88c2b6	0.06677763
191	0xbab56336	-0.0013838771
192	0xbd972875	-0.073807634
193	0xbd8d53b5	-0.069007315
194	0xbd19ea11	-0.03757674
195	0xbc82d57d	-0.01597094
196	0x3dd529e6	0.10408382
197	0xbd4d50aa	-0.050125755
198	0xbb0d0621	-0.0021518546
199	0x3c8b13ac	0.016977154
200	0x3dc9db40	0.09856272
201	0x3d34a297	0.04410037
202	0xbd995908	-0.074876845
203	0x3c22830a	0.009918937
204	0x3d35f17a	0.044419743
205	0xbd874880	-0.06605625
206	0x3dcbf9b7	0.09959739
207	0x3dc82525	0.0977271
208	0xbb59c581	-0.0033229294
209	0xbd514f5c	-0.051101074
210	0xbdb90b4b	-0.09035357
211	0xbdac95d4	-0.08427015
212	0x3e03935b	0.1284918
213	0xbd880061	-0.06640697
214	0xbdce4548	-0.10071808
215	0x3d50b25f	0.050951358
216	0x3c55efa1	0.01305762
217	0x3d16ed6f	0.036847528
218	0xbbd5afdf	-0.0065212096
219	0x3ce7ac00	0.028280258
220	0xba21d47b	-0.00061733247
221	0x3d8ccdef	0.06875216
222	0x3d2eec21	0.04270566
223	0x3d302ca2	0.043011315
224	0x3cdefce6	0.0272202
225	0xbd544ba2	-0.05182994
226	0xbde4c68f	-0.111706845
227	0xbd7e5e04	-0.06210138
228	0xbd250b76	-0.040294133
229	0xbd44b9e6	-0.04802885
230	0x3e0e9c8c	0.13926905
231	0xbd887d19	-0.066644855
232	0xbd43ec54	-0.047832802
233	0x3d95e413	0.07318892
234	0xbd60248b	-0.05472235
235	0xbd2626ec	-0.040564463
236	0x3ace854b	0.0015756277
237	0x3c3d99b2	0.011572288
238	0x3d96a34f	0.073553674
239	0xbd78babb	-0.060724955
240	0xbdc0162d	-0.0937923
241	0xbdbf9c0b	-0.09355935
242	0xbd39527b	-0.045244675
243	0xbd052bc9	-0.03251246
244	0x3d328d40	0.043591738
245	0x3d0b42a6	0.033999108
246	0x3d81ed62	0.06344105
247	0x3d50090a	0.05078987
248	0xbd4d86b2	-0.050177284
249	0xbc100937	-0.0087912595
250	0x3df219da	0.11821337
251	0xbe3c192f	-0.18368982
252	0x3d860928	0.06544715
253	0x3d5d2f2a	0.054000057
254	0x3c21fefe	0.009887455
255	0xbd6020d1	-0.054718796

VAE.encoder_mu.layers.1.linear1.bias f4 [4]
0	0xbd90a2fd	-0.070623375
1	0xbdd8b90c	-0.1058217
2	0xbda22d6e	-0.07918821
3	0x3dbf12db	0.09329768

VAE.encoder_mu.layers.1.norm1.weight f4 [4]
0	0x3f91d971	1.1394483
1	0x3f88f500	1.0699768
2	0x3f8520d9	1.0400649
3	0x3f854586	1.0411842

VAE.encoder_mu.layers.1.norm1.bias f4 [4]
0	0xbd6398f9	-0.055565808
1	0xbd1ecbee	-0.0387687
2	0x3d501f54	0.050811127
3	0x3b982d8d	0.004644102

VAE.encoder_mu.layers.1.norm0.weight f4 [4]
0	0x3f7a4c6a	0.9777285
1	0x3f943c2c	1.1580863
2	0x3f610986	0.87905157
3	0x3f7d1b8f	0.98870176

VAE.encoder_mu.layers.1.norm0.bias f4 [4]
0	0x3c4fc064	0.012680147
1	0xbd494d63	-0.049146067
2	0xbc99e8d6	-0.018787783
3	0xbc206293	-0.009789127

VAE.encoder_mu.last_normalization.weight f4 [4]
0	0x3f800000	1.0
1	0x3f800000	1.0
2	0x3f800000	1.0
3	0x3f800000	1.0

VAE.encoder_mu.last_normalization.bias f4 [4]
0	0x00000000	0.0
1	0x00000000	0.0
2	0x00000000	0.0
3	0x00000000	0.0

VAE.encoder_mu.head.weight f4 [4, 4]
0	0xbe28fe90	-0.16503358
1	0xbe3c9c64	-0.18419033
2	0xbed1b99c	-0.4096192
3	0xbe32a610	-0.1744616
4	0x3eca8548	0.3955481
5	0x3df78a40	0.12086916
6	0xbe5b92c4	-0.21442705
7	0xbed3d758	-0.41375232
8	0x3ec4c348	0.38430238
9	0x3e1aee84	0.15130049
10	0xbebde3c0	-0.37087822
11	0x3d5ed7b0	0.054404914
12	0x3cdbf1e0	0.026848733
13	0xbcb98520	-0.022646487
14	0x3debda20	0.115162134
15	0xbed8fb6e	-0.42379326

VAE.encoder_mu.head.bias f4 [4]
0	0x3ed6430c	0.41848028
1	0x3e02e848	0.12783921
2	0x3ec96432	0.39334255
3	0xbec6d3ec	-0.3883356
