tabsyn/vae/ckpt/default/major_finetune_on_minor_l2normloss/decoder.pt (torch, 27971 bytes, 49 tensors)

VAE_Decoder.layers.0.attention.W_q.weight f4 [4, 4]
00000000: c2ed c03e 0505 d4be 9b9e 3dbe cfea 64be
00000010: 5ab9 f0bd a6ab 073e 9fd1 883e b771 2f3d
00000020: 9de8 463e 739f d83c aa91 853e 6abb 0fbf
00000030: 3aeb 89be e17f 8ebe 05f8 99bd 7d42 003e
0.37681395 -0.4141008 -0.18517534 -0.22355197 -0.11754103 0.13249072 0.26722428 0.042833056
0.19424672 0.026443219 0.26087695 -0.56145346 -0.26937276 -0.2783194 -0.07518009 0.12525363

VAE_Decoder.layers.0.attention.W_q.bias f4 [4]
00000000: 9be1 81be 883a d13e bd84 40be 8547 10be
-0.25367436 0.40864968 -0.18800636 -0.14089783

VAE_Decoder.layers.0.attention.W_k.weight f4 [4, 4]
00000000: ac36 b9be 0eaa e3bc 90bd b9be 4e69 1abf
00000010: 843b d9be 5af5 44be ac57 c5be 8b90 0c3f
00000020: bddd 21be 9a52 043e 5ee2 e3bd 589d edbe
00000030: aea9 3bbe 37ba 1e3e 1362 1d3e 3126 52be
-0.36174524 -0.02779105 -0.36277437 -0.6031693 -0.4242822 -0.19234219 -0.3854345 0.54908055
-0.15807243 0.12922135 -0.111271605 -0.46409106 -0.18326446 0.15500723 0.15369444 -0.20522381

VAE_Decoder.layers.0.attention.W_k.bias f4 [4]
00000000: efa9 1dba f7f5 983a 2268 5e39 d559 36b7
-0.0006014397 0.0011669983 0.00021210362 -1.0868961e-05

VAE_Decoder.layers.0.attention.W_v.weight f4 [4, 4]
00000000: 5e0f 8bbe bae8 fb3d 3e58 05be 7c00 06bf
00000010: 2ad2 65bd 6ffb 20bc ca67 aebb 5b1c 20be
00000020: 5ed4 4c3d 2176 ad3b c405 c73a 1061 e5bd
00000030: 539c 073d f669 13bc 142e efbd 2563 cfbd
-0.27160162 0.123002484 -0.13021943 -0.5234449 -0.05610863 -0.009825571 -0.005322431 -0.15635817
0.050007217 0.005293623 0.0015184213 -0.11200154 0.033108067 -0.008997431 -0.116787106 -0.10126332

VAE_Decoder.layers.0.attention.W_v.bias f4 [4]
00000000: 1cf0 7dbe ae53 89bd 7916 3abd 2a0a 683e
-0.24798626 -0.06705414 -0.045431588 0.22660127

VAE_Decoder.layers.0.linear0.weight f4 [128, 4]
00000000: f7bd febd d2c9 b63e b042 ea3e d23d 93bd
00000010: c0c6 1b3f b24a a4bd 0d44 323d 6eb0 b13e
00000020: d9fd a2bb 665a 5bbe a3e4 29be 8700 55be
00000030: fbda 4cbe 9ca0 cbbe e666 c03e e6c3 1b3f
00000040: 451f dc3e f133 01bf 785b a33e d9a3 6bbf
00000050: 7a6b c23e df48 16bf 8a6e 963e 25a1 34bf
00000060: d930 dd3e 0c3f 05bf 2b66 973d b44c 16bd
00000070: b1de d0ba 9bf0 803e 9041 0d3e 340d e13e
00000080: 1de6 2fbd 05ff 08be 0467 19bf 1a66 b03e
00000090: df01 f2be d760 19be 2b60 cc3d 074a febe
000000a0: b5ff c63e ebdb 34bf 3c21 00be d879 0c3e
000000b0: 94fc ee3d 1f0b df3e e596 12be c208 ef3e
000000c0: b70b 2e3f 6c23 3abf 8b6f dfbd 22c1 d13e
000000d0: 95a1 5c3f d90c 33be 7c70 f0be efca 9e3e
000000e0: 8544 243e 35fc 5cbe 206a 193f cd57 c9be
000000f0: 19a7 543e 4601 19be b882 22bf 1fb9 e93e
00000100: 9a89 723e f598 1b3e b93a 313d eace e93e
00000110: 2f8d a1be 6003 ed3d d098 fe3e 09d0 2fbf
00000120: 9f90 c63e d2f5 13be 2f2c 14be b9b3 393f
00000130: 3213 f4bd 4bab 8dbe 9da7 193f be0f bdbe
00000140: ab8b 1cbf 9350 44be 21e8 393e aa4d bdbe
00000150: c54f 64be d0b2 58be f83c 1dbf b565 1a3e
00000160: 62c1 8cbe 6a0c b7be 1af3 7dbd e481 b73e
00000170: 8cfa 9ebe 6b29 4abe b3f4 8bbd d3af 113f
00000180: 3aec 7c3e 4b95 aabe cc61 583c ef2d 6cbe
00000190: 3832 b83e df4d 90be 402c ca3e 648e 2fbf
000001a0: 61a4 5a3f 1639 41be 8c06 5dbf dc45 51bf
000001b0: e80e 7a3e 0e6c 0a3f d4be fdbe 925b 9bbb
000001c0: ed10 e3be c379 a2be b373 28be 097c 9abe
000001d0: fb24 013f 3e9e 3fbf 2587 b33e 25ae ce3e
000001e0: 49ad 02be 1326 cebe 4253 c13e 1663 58be
000001f0: b920 9fbe b333 7abe 83e2 62be c722 f8bd
00000200: d79c d63e 41c8 11bf 531f 05bf 69f0 043f
00000210: 64df f63e d5df 22bf a3fd 97bd 42cf 423e
00000220: 904f ddbe ca55 3b3e e79f 79bc f545 8bbe
00000230: df00 c9bd ad00 173f 9111 10bf c052 d4be
00000240: d396 d5bd ef96 febd 6f10 2fbf e141 e33e
00000250: 150d 063e 01c0 bdbb 2650 883e cf80 3fbf
00000260: d23a 34bd 8e32 133e 2e1a 1c3e 3209 1b3f
00000270: 5185 0fbf 9506 a73c a875 6b3e e673 04bf
00000280: 8e4e 0b3e 4774 0d3f 9f69 2bbf be0a ed3e
00000290: 7ade c7be 05b3 e2be 7d79 0e3f e810 dbbd
000002a0: 9b8b 0c3f 4345 f63d 30c8 30be 4582 edbe
000002b0: 86dc f9be 4fd0 0cbf 9b99 4e3d d681 aa3e
000002c0: 0850 a5be 6643 6a3d 9ccf 62be 9cde 073f
000002d0: 34a4 a0bd c37d a73e 5a7d fb3e b4f9 cabe
000002e0: c991 97be c54b 78bd 8805 d3bd 9ac4 3d3f
000002f0: a084 ffbe 7532 103f 8746 30be a15c f7be
00000300: 20a5 ac3e b651 07bf ef02 963e b093 b0be
00000310: dd82 74be 4b2d 993e d3ae 693e 242c d7be
00000320: 5a2b a2be c596 b0b9 0751 a5be b321 2dbc
00000330: d977 933e b86e 8cbe bdc2 96bd 4deb 493f
00000340: 3c40 d7bc bc4b 3ebe d8fa c3be 5615 393f
00000350: 6d31 adbe 0dae adbe 5621 97be 6f61 5c3f
00000360: 517f 133f 07f0 f43d 48e7 74bd 2cde 37bf
00000370: 53de 473d 47e9 063f 72f1 033f 5019 13ba
00000380: 698a 1cbf 3bd2 d73d 4b05 f7be b002 2b3f
00000390: 0ccd 13bf ed08 903e 5481 b93e fca9 8fbe
000003a0: d941 e5be 77aa e6be d91b 113f 63fe 4fbe
000003b0: c82d 35be f335 ad3e 36b7 9f3e c55f a3be
000003c0: ae20 c63e f704 e93e 6d3e 1bbf 023e 03bf
000003d0: 43d0 673e 8512 743d e382 db3e 26bf db3e
000003e0: 7112 86be 49d8 8bbe 19b8 e4be de1a a23d
000003f0: 5790 b3be 928f c3be 2395 53bf 2a1e 9c3e
-0.12438577 0.35700852 0.45754004 -0.07189526 0.60850143 -0.080220595 0.04352193 0.34704918
-0.0049741087 -0.21421203 -0.16591124 -0.20800982 -0.2000541 -0.39770973 0.37578505 0.6084579
0.42992607 -0.5046988 0.31905723 -0.92046887 0.37972623 -0.5870494 0.2938121 -0.7055839
0.4320133 -0.52049327 0.07392534 -0.036694244 -0.0015935508 0.25183567 0.13794541 0.43955386
-0.042944063 -0.13378532 -0.59922814 0.34452897 -0.47267053 -0.14978348 0.0997928 -0.49665853
0.38866964 -0.7064807 -0.12512678 0.13718355 0.11669269 0.43563172 -0.14315374 0.4668637
0.67986625 -0.727103 -0.10909947 0.4096766 0.86184055 -0.1748537 -0.4696082 0.310142
0.16041763 -0.21580584 0.5992756 -0.393248 0.20766868 -0.14941892 -0.6348071 0.4564905
0.23685303 0.15195067 0.043268893 0.45665675 -0.31553027 0.11572909 0.49725962 -0.6867681
0.38782212 -0.14449242 -0.1446998 0.7253986 -0.11917724 -0.2766975 0.6002138 -0.36926073
-0.61150616 -0.19171362 0.18154956 -0.36973315 -0.22296055 -0.21161962 -0.61421156 0.1507786
-0.2749129 -0.3575166 -0.061999418 0.35841286 -0.31050527 -0.19742362 -0.06833782 0.5690891
0.24699488 -0.33317026 0.01320691 -0.23064397 0.35975814 -0.2818441 0.39486885 -0.68576646
0.8540707 -0.18869433 -0.86338115 -0.8174722 0.24419749 0.5407113 -0.49559653 -0.0047411406
-0.4434885 -0.31733522 -0.16450386 -0.30172756 0.5044705 -0.74850833 0.35064045 0.40367237
-0.12761416 -0.40263423 0.37758833 -0.21131548 -0.31079653 -0.24433784 -0.2215672 -0.12116008
0.41916534 -0.5694619 -0.5200092 0.51929337 0.4821731 -0.6362279 -0.07421424 0.19024375
-0.43224764 0.18294445 -0.015235878 -0.2720181 -0.09814619 0.58985406 -0.56276804 -0.41469383
-0.10429158 -0.12431132 -0.6838445 0.443862 0.13090928 -0.005790711 0.26623648 -0.7480592
-0.044001408 0.14374754 0.15244362 0.60560906 -0.560628 0.02038888 0.22994101 -0.51739347
0.13604185 0.5525555 -0.6695804 0.46297258 -0.39036924 -0.44277206 0.55654126 -0.10696584
0.5490052 0.120249294 -0.17263865 -0.4638845 -0.4880106 -0.55005354 0.05043946 0.33302182
-0.32287621 0.057193182 -0.22149509 0.5307405 -0.07843819 0.32713136 0.49119073 -0.39643633
-0.29603413 -0.060619134 -0.103037894 0.74128115 -0.49905872 0.5632699 -0.17214404 -0.48312858
0.3371973 -0.52859056 0.29299113 -0.34487677 -0.23878045 0.29917368 0.22820596 -0.42025864
-0.316737 -0.00033681668 -0.3228838 -0.010567117 0.28802374 -0.27428222 -0.07361362 0.78874665
-0.026275747 -0.18583578 -0.38277316 0.7229818 -0.3382677 -0.33921853 -0.2951762 0.8608617
0.57616144 0.11959844 -0.05979088 -0.7182338 0.04879601 0.526997 0.5154029 -0.0005611377
-0.611487 0.10538145 -0.48246226 0.66800976 -0.5773475 0.2813181 0.36231482 -0.28059375
-0.447768 -0.4505193 0.5668312 -0.20311885 -0.17693245 0.33830222 0.31194466 -0.31909004
0.38696808 0.455116 -0.6064213 -0.5126649 0.2263804 0.059587974 0.42873296 0.42919272
-0.26185945 -0.2731345 -0.44671705 0.07915281 -0.3507106 -0.38195473 -0.8264944 0.30491763

VAE_Decoder.layers.0.linear0.bias f4 [128]
00000000: 50b1 a83e da31 be3e 0cf0 fc3e 20de 93bd
00000010: 88b0 843e 74c3 23be e02b 9c3e 5329 023f
00000020: 2593 54bd b768 ca3d 5151 123e c926 123f
00000030: a2b0 cc3e aa07 583e e114 b83e e2f0 f63e
00000040: b33f fa3e 8b7e 843e a252 b63c cee2 d4bd
00000050: 8f34 36be cd45 76bc 3a76 b3bd 3345 873e
00000060: 8380 8f3e e632 ae3e e905 dfbd 4ced 9ebc
00000070: 084c 983e 35f2 863e fbc0 b93e 1b11 adbe
00000080: dbb2 873e 0977 e23c 8ea8 d83e 7461 e7be
00000090: 3638 223c 2dfa d23e c4b5 a33e 5a4b 24be
000000a0: 35e2 ac3e 656a cc3d 5872 763e b230 933e
000000b0: 8257 1d3f 70fe b93d 55a9 ea3e 31f3 9f3d
000000c0: c472 bf3e b4c0 8dbe de88 923e f6d4 eb3e
000000d0: 3e4f d13d df5f cc3e 9047 6f3e 6e75 eb3e
000000e0: 1f30 6cbd 5643 8c3e 02df 983e a5d6 6cbe
000000f0: 2bc4 32be 6209 e03e 5de5 cc3e b0b1 3fbc
00000100: 91ab a6be a415 a93e 2151 06bf 214a 373e
00000110: c068 b6bd 7657 123f c8d9 2c3f 504a c13e
00000120: f4f0 e63d d970 d53e 27ed 30be 562f 24be
00000130: c165 98be 5cad 123f ca79 613e 5303 c1be
00000140: 1e16 ef3c 05c6 1abe f634 ac3e dc66 833d
00000150: c0ca 173d cb37 e73d 5f67 fdbd 77f6 ff3d
00000160: b040 a33e ad08 9ebe 1e5a 7dbe 58b0 56be
00000170: bf50 d93d f938 c9bd 15f8 cfbd a12a bfbd
00000180: aa06 6cbe c594 34bc c1d5 ef3e 7773 59bd
00000190: 1da9 d83e d4cf 81be 0897 94bd a7c0 c1be
000001a0: 2651 c4be 0bba ed3e 65e5 313e 055d 7b3e
000001b0: 82f6 233e 2a23 84be c224 d7bd d548 27bb
000001c0: 3ccc e73d 59f0 6d3c 4d86 bd3e aae0 8d3e
000001d0: 850d acbd 45c4 70be e75a cc3d ecf6 0f3f
000001e0: 6ab1 c33d f6d0 ed3c 6d9c 093f 1a7d a1be
000001f0: e391 e33e e35c a2bd 7395 6bbe 3d54 df3d
0.3294778 0.3714741 0.4940189 -0.07220101 0.25915933 -0.15992528 0.30502224 0.50844306
-0.05189814 0.09883254 0.14288832 0.5709043 0.3997851 0.21096674 0.3595343 0.48230654
0.48876724 0.25877795 0.0222562 -0.10394822 -0.17793487 -0.01503129 -0.08762784 0.26419982
0.28027734 0.34023207 -0.10889799 -0.019400261 0.29745507 0.26356664 0.36280045 -0.33802113
0.26503643 0.027644651 0.42316097 -0.45191538 0.009901097 0.41206494 0.31974614 -0.1604437
0.33766332 0.09981231 0.24067056 0.2874809 0.6146165 0.09081733 0.45832315 0.07810057
0.37392247 -0.27686083 0.28620046 0.46060914 0.102201924 0.39916894 0.23367143 0.4598803
-0.05766308 0.27395123 0.2985764 -0.23128755 -0.17457645 0.4375716 0.4001874 -0.011700079
-0.3255277 0.33024323 -0.5246754 0.17899372 -0.08906698 0.57164705 0.6751981 0.37752008
0.11276427 0.41687658 -0.17277966 -0.16033682 -0.29765132 0.57295775 0.22019115 -0.3769785
0.029185351 -0.15114601 0.33634156 0.06416103 0.03705859 0.112899385 -0.12373232 0.12498181
0.3188529 -0.30865994 -0.24741408 -0.20965707 0.10611104 -0.0982532 -0.1015474 -0.09334303
-0.23049417 -0.011021798 0.4684277 -0.05308863 0.42316523 -0.25353873 -0.072553694 -0.37842295
-0.3834316 0.46431002 0.17372663 0.24547203 0.16012004 -0.25808078 -0.10505058 -0.002552559
0.113182515 0.014522635 0.37016526 0.27710468 -0.08401016 -0.23512371 0.09978276 0.5623615
0.095553234 0.029030304 0.5375431 -0.31540757 0.4444724 -0.07927873 -0.23006229 0.10904739

VAE_Decoder.layers.0.linear1.weight f4 [4, 128]
00000000: 33f2 8cbd 695a 313d 6276 f0bc 9e03 20bd
00000010: e930 ebbc 36d1 5fbd 7dc2 ec3d 2270 8bbe
00000020: dd29 debd bd0a e0bc da71 3b3e ad79 35be
00000030: 6890 333d ba2f 363f 9406 03be 83bc 88bd
00000040: d2b7 d7bd 5faa 0ebd 6155 acbd d797 c3bc
00000050: 6f37 0e3e 3459 2fbe 66e1 3fbe 6c71 58be
00000060: 261b 3cbd abd0 0fbe 6d0c 9f3e fe08 23be
00000070: c548 bcbd f303 183e bcb5 69bd e67f 0f3d
00000080: e318 b4bc c259 fe3d 687e 2fbd d863 573e
00000090: e3cf 55be 5c0c 21be 8b0f a2bd 216c d4bd
000000a0: 363d dcbd 6260 9d3c dd03 31bc acd6 99bb
000000b0: 30e4 49be 1a92 85be 08aa 69be b460 843b
000000c0: 07f6 a33d ae5f 2abe 6add adbd bc13 5ebd
000000d0: 4362 5abe d190 25be 44f2 d13c 4d32 d9bd
000000e0: 8757 01be 25d6 48be aee2 533c 9bb3 0dbe
000000f0: d8b5 02be fb6a 8cbd 10dd 05bd ce17 aebe
00000100: f841 debb 666d dfbd 40e9 13bd 8a6c 0dbe
00000110: 04f1 83be 1832 edbd 9450 4e3c 555e 54be
00000120: 25f2 7ebe ac66 b8bd 8fc9 7cbc d6c7 39be
00000130: b48d 46bd f385 9abd c10f 913d 8119 8f3d
00000140: 5cfd 27bd 9875 bb3e df2c 143d 646f 05bd
00000150: 9c1d a1be fae3 68be 6e28 de3c f422 2cbd
00000160: 788b 36be f3ce 513e ff4d 86bc b104 7dbd
00000170: a8a5 26be 332f 40be 9f16 4dbe 8f71 05bf
00000180: 9378 a4be 014b 97bd 9a42 debd 20ad 29be
00000190: ea38 82bd a6ff 503e 915f 37be 50d3 173e
000001a0: babb 61bc 6c16 07be 6c1f 9ebd dde3 52be
000001b0: 88a4 22bc e7f0 35bd f08d bbbe cf1f 493f
000001c0: 3537 a23d fdb2 a3bd 97eb 76bc 4b7e 7abe
000001d0: 1812 2a3e 1e91 02be 1d60 153e c373 503d
000001e0: ea93 c2bc 3b33 d8bd 6217 5539 8384 f83d
000001f0: 6723 403d f79d e1bd 0715 9bbe fe4f 4fbe
00000200: b599 dcbc b220 63be 2f5c 91bd b601 48be
00000210: 9846 e7bd 3855 85be 96ee 1fbe d40c 8ebd
00000220: 4e13 fbbd 95b7 683d de89 b3be 24fc 28bd
00000230: 25c1 46be c075 69be 2d35 d8bd 74b9 d4bd
00000240: f56f 26bd f0b1 833d 47d1 85bd 6f5b 10be
00000250: 787d a0be 96f8 0ebe c3b0 13be 6d21 83be
00000260: 79ba 6cbd 4593 88bd 1bfd 373f dcbb 57bd
00000270: 093a 1dbd c23c 1ebe fc18 b6bb f292 753b
00000280: 2c09 f3bd dfee 68be 20a5 413d 35cf bbbd
00000290: 862e 31be 4ac6 993d 1806 1abe b6fb c7bd
000002a0: 500b dbbd b18e 1bbe 040b f63e 2a1b 90bd
000002b0: e08b 7cbd b583 8c3d 9438 38be e091 33ba
000002c0: 422a 9abd cfa8 0b3e 970a efbc fdb3 34be
000002d0: 86da 68be 5dca 14be 63fa 883e c21f 963d
000002e0: 7a44 77be ef5b 1dbd 2a8c 49be ad82 823e
000002f0: c5f7 293e 559d 96be 6bba b6bd c904 4abe
00000300: 1cf5 51bb 7f80 19be 17c6 3d3d c952 473d
00000310: 7de9 ecbd 89f1 ef3d 2580 3ebe b3f4 143e
00000320: 4b08 37be 26d7 703d a3e5 2abe 6120 8abd
00000330: ab9a 19be 47eb 35be 6578 14be dc37 113f
00000340: 41a1 0ebe 63e6 d93c e8f9 32bd 6473 21be
00000350: ca9a 2abe d2d6 fcbd 33eb dfbc 457f a6ba
00000360: 4d3a 42be a29e 293f 20c6 a4bd 237d 11be
00000370: dada 0fbd 20e8 41be 0e0f b93e f51f 83be
00000380: 19b3 e3bd 9ff9 49bd cd8a f5bc 522f 843c
00000390: 74dd b8bd 88c3 44be 4b66 033e 66ea 5f3e
000003a0: ecb2 4ebb 0ce6 07be 3df8 49be 7ac2 e73d
000003b0: 7954 5ebd 2287 e6bb 118d a3be 660a ebbd
000003c0: 0b8c 0abd 5781 7e3d 234c 25be 33cf c2bd
000003d0: 6176 78bd cbd8 3a3d 0176 95be dfce 17be
000003e0: 6c6f 6abd a817 123e 22db 7ebe af90 70be
000003f0: 2b7a 463c c287 513e a817 523e 8ab1 a03e
-0.06882133 0.043299112 -0.029353324 -0.03906595 -0.028709846 -0.05464288 0.11560533 -0.27233988
-0.108478285 -0.02734887 0.1830515 -0.17722197 0.04383889 0.71166575 -0.12795478 -0.06676581
-0.10533108 -0.034830447 -0.08414722 -0.023876114 0.13888334 -0.17123872 -0.18738326 -0.21137017
-0.04592433 -0.14044444 0.31064168 -0.15921399 -0.09193567 0.14845257 -0.05705808 0.035034083
-0.021984523 0.12419464 -0.04284516 0.21034181 -0.20880084 -0.15727371 -0.07913121 -0.103721865
-0.107538626 0.019210998 -0.010804144 -0.0046947803 -0.19715953 -0.2608803 -0.22818768 0.004039848
0.0800591 -0.16638061 -0.08489497 -0.05421804 -0.21326546 -0.16168524 0.025628217 -0.10605297
-0.12631045 -0.1961294 0.012932463 -0.13838045 -0.1276468 -0.068563424 -0.032681525 -0.34002537
-0.0067827664 -0.10909538 -0.036111116 -0.13810936 -0.25769818 -0.1158182 0.0125924535 -0.2073911
-0.24897058 -0.09003958 -0.015428915 -0.18142638 -0.048474982 -0.0754508 0.07083083 0.06987286
-0.041013107 0.36613154 0.036175605 -0.032576934 -0.31467903 -0.22743216 0.027118888 -0.04202552
-0.1782664 0.20489101 -0.016394613 -0.061772052 -0.1627413 -0.18768005 -0.2002816 -0.521264
-0.3212324 -0.07387353 -0.10852547 -0.16569948 -0.06358512 0.20410022 -0.1790755 0.14826703
-0.013777668 -0.13192147 -0.07720837 -0.20594735 -0.009926923 -0.044419196 -0.36631727 0.7856416
0.07920686 -0.07993124 -0.015070817 -0.2446224 0.16608465 -0.1275067 0.14587446 0.05089165
-0.023752172 -0.105566464 0.00020321974 0.121346496 0.046908762 -0.110164575 -0.3028948 -0.20245358
-0.026928762 -0.22180441 -0.07097661 -0.19531903 -0.112927616 -0.2604158 -0.15618357 -0.069360405
-0.122595415 0.056815702 -0.35066122 -0.041256085 -0.19409616 -0.22798824 -0.105570175 -0.10386935
-0.040634114 0.06430423 -0.06534057 -0.14097379 -0.31345725 -0.13962016 -0.14422898 -0.2561144
-0.05779502 -0.066687144 0.71870583 -0.05266939 -0.038385425 -0.15452865 -0.0055571776 0.003747162
-0.11866984 -0.22747372 0.047276616 -0.09170381 -0.17302904 0.07508524 -0.15041387 -0.09764807
-0.10695517 -0.15191151 0.4805528 -0.07036431 -0.061656833 0.068610586 -0.17990333 -0.0006850045
-0.07527591 0.13638614 -0.029179854 -0.17646785 -0.2273961 -0.1453032 0.2675353 0.07330276
-0.24147215 -0.038417753 -0.19682375 0.25490323 0.16598423 -0.2941691 -0.08922275 -0.19728388
-0.0032036966 -0.14990424 0.04633149 0.048662934 -0.11567972 0.11715991 -0.18603571 0.1454647
-0.17874257 0.05879893 -0.16689162 -0.06744457 -0.15000407 -0.17765532 -0.14499052 0.5672586
-0.13928701 0.026599115 -0.04369536 -0.15766674 -0.1666061 -0.12345661 -0.027333831 -0.0012702724
-0.18967552 0.6625768 -0.08045602 -0.14207892 -0.035120822 -0.18936205 0.36144298 -0.2561032
-0.111181445 -0.049310323 -0.029973412 0.016135845 -0.09026614 -0.19215214 0.1283199 0.2186676
-0.0031539751 -0.1327135 -0.19723602 0.1131639 -0.05427978 -0.007035152 -0.31943563 -0.11476593
-0.03382496 0.062135067 -0.16142325 -0.09512176 -0.06065977 0.045616906 -0.29191592 -0.14825009
-0.057235166 0.14266837 -0.2488828 -0.23492692 0.012114088 0.20461944 0.20516837 0.31385452

VAE_Decoder.layers.0.linear1.bias f4 [4]
00000000: 7282 7ebd df09 a1bc 3a66 b6bd 81fe 8339
-0.06213612 -0.019658027 -0.08906217 0.00025175887

VAE_Decoder.layers.0.norm1.weight f4 [4]
00000000: a182 aa3f 23cd a23f f28d a33f 28a9 c23f
1.3321115 1.2718853 1.2777693 1.5207872

VAE_Decoder.layers.0.norm1.bias f4 [4]
00000000: b811 483d 43e0 f4bd 27c6 a6bd d10e 503e
0.048845023 -0.11956837 -0.08143263 0.20318152

VAE_Decoder.layers.1.attention.W_q.weight f4 [4, 4]
00000000: 8013 103d 660c 313e 8adc e7bd d0c3 7ebe
00000010: c69a 08be 2a99 fa3e e3d5 3a3e 963c 873d
00000020: 6381 52be 10d0 80be ea14 f93e 6c23 90be
00000030: a04d 3c3e eb0f 003e 1279 933e e715 c9be
0.035174847 0.17289886 -0.11321361 -0.24879384 -0.13340291 0.4894498 0.18245654 0.06603353
-0.2055717 -0.2515874 0.4864877 -0.28152025 0.18388987 0.12506072 0.28803307 -0.39274523

VAE_Decoder.layers.1.attention.W_q.bias f4 [4]
00000000: 4beb 13bd 27ff 3e3e 4255 8f3d 58d4 19be
-0.036113065 0.1865202 0.069986835 -0.15022409

VAE_Decoder.layers.1.attention.W_k.weight f4 [4, 4]
00000000: 47e0 02be fef4 c23d 4783 c2be 0176 4fbd
00000010: 7300 a73e 6f65 adbe 47cd 243e 7de5 bd3e
00000020: 737f d1be 5db9 47be 8997 3cbf 3672 2abd
00000030: 2e7a 063e 4bf2 0e3f f456 513e 54f9 ef3d
-0.12780868 0.09519385 -0.37990782 -0.050649647 0.3261753 -0.3386645 0.16093932 0.37089148
-0.4091755 -0.19504304 -0.73668724 -0.041612826 0.13132545 0.5583846 0.20443326 0.117174774

VAE_Decoder.layers.1.attention.W_k.bias f4 [4]
00000000: 6e9b 2db8 5846 e9b8 6d95 23b8 1317 0f37
-4.139117e-05 -0.00011123408 -3.9001392e-05 8.528837e-06

VAE_Decoder.layers.1.attention.W_v.weight f4 [4, 4]
00000000: 6e35 3dbe 848f a73d c256 ddbb 48a6 3ebe
00000010: 7f65 713d 17cb 1dbc d5a0 853d e882 acbc
00000020: b50a ac3d d317 973e ad07 863e b64a b33e
00000030: 6a98 7e3d c041 f13d 9970 4bbd b3a3 4c3e
-0.18477413 0.0818167 -0.006754727 -0.18618119 0.058934685 -0.00963094 0.06524817 -0.021058515
0.0840048 0.29510364 0.2617773 0.35017937 0.062157072 0.11780119 -0.04966793 0.19984321

VAE_Decoder.layers.1.attention.W_v.bias f4 [4]
00000000: c32e 64bd 799a 89bd 5dc7 423a 06d1 1ebc
-0.055708658 -0.067189164 0.000743022 -0.00969339

VAE_Decoder.layers.1.linear0.weight f4 [128, 4]
00000000: ea41 e33e 05ae 9abe f785 d7be d5eb 523e
00000010: 5c64 a23e 02be c9be 3c5c 5a3d c4d8 273d
00000020: ba4d 943d db36 d0be 84ad 6cbe 9351 b13e
00000030: 8e0c 57be 35a1 1e3f c3b1 90bf 2715 96be
00000040: af52 fa3e f517 733e c19b c23e b630 2fbf
00000050: 7a19 fdbd a142 d83e 3f4b 05bf 4393 b83d
00000060: 25cc 20bf d1c0 f6be 6d7e bbbe e3b2 2b3f
00000070: 2440 c13d 71e1 203c b1ad 7fbc b5d5 843e
00000080: 58fd 973e e0d4 b6be eb27 9a3e 93f4 bc3e
00000090: 9e53 0f3f 3a48 b83d c527 0abe 29d2 a23e
000000a0: fb24 d0be 8033 8cbe 0951 e23d c68e ce3c
000000b0: cae6 c33e 3b29 9cbe a618 e8be 4336 d2be
000000c0: 33f0 77be deee e23e 3b80 03bf 9389 823e
000000d0: 5354 663e 66cd ee3e 06aa 08bf 5ae2 86be
000000e0: 19c8 f5be bd38 ac3e 0082 28be 8314 eb3d
000000f0: 0944 88be f3ec 1bbf 04ae fabd 378f 52bd
00000100: 1088 b23e 0ad9 ba3e 6327 46be 1d5b 48be
00000110: 06d0 583e d55d c13e 41c2 b2be 0c2f 803d
00000120: b83a 823e 970b d93e c33f bebe bff3 04bf
00000130: 7490 50be d0c4 2cbe cdab 543f 0c80 2e3c
00000140: afd7 92be 5209 95be 0d81 5b3e ccba 943e
00000150: 848a f33d 840c 203e 422d a5bd 2673 1cbf
00000160: 705e 9cbd d273 9d3e 24a1 a6be 929d a1be
00000170: b05b 14bf c542 7ebe 9453 a93c 385a 38be
00000180: 3e42 13be d93b 15bf 7bfd aebc ffb0 f43e
00000190: 364b 91be 939d 9ebe bee1 633c 3ffc f63e
000001a0: 2392 10bf 9350 9f3d 715d bc3e 9019 bd3e
000001b0: 02e0 89be 0be9 fe3e 87df 223f 8a27 b8be
000001c0: f01e 14bf 9b1a 533d 150b d0be 6efb 023f
000001d0: 8a4f 1abf af6a 173f b79b 81be 7750 2d3d
000001e0: 6078 53be a159 5a3e d1ab af3e e983 b5be
000001f0: 752c 87be efb9 40bf fee7 303e 3c7b e73e
00000200: f014 b03e b6d9 a83e 79fc 823e fd25 d0bd
00000210: 9f12 fabd 25c5 c3be 6986 a2be f8dc 913e
00000220: 7b48 eebc 0954 8f3e 6186 dabd bfdf f13d
00000230: a44a 6abd d4b4 133f bee1 e73e 85a6 31bf
00000240: 7469 d2bc 33d7 f0be 343f 6e3e 134f 7a3e
00000250: 5f3c 753e 493b 8ebd 325d 85be f193 2a3f
00000260: cac8 63be 9d56 0fbf d719 243e 7fec 013f
00000270: 45af 09bf 23ac 0fbe 83f2 24bf 8a63 24bd
00000280: 1ec8 a9be 3bcd 113d 1604 143f 9f55 b73d
00000290: 8bed 673d a5db 1a3f 97ae 313f 4ef2 d6bd
000002a0: 88bc 3d3e d12e 80be 0367 86be 895f 8d3e
000002b0: 905f dbbe afd8 3fbe e252 0c3d b546 143f
000002c0: 5739 6a3e 0ae5 10bf a52c aabe 0514 f1be
000002d0: 72cd 1640 128d 5fbe f05b a73e 6955 193d
000002e0: 7bfc c03c 3a16 143e 4010 0ebf 46b3 16bf
000002f0: 3184 df3e e67a 2f3e 3ea4 a7be 81e5 d43e
00000300: f5cc 66be c68a ad3e 9b78 3c3e 618d c1be
00000310: 9141 123f 1196 663e a9b8 333e f3a4 1cbe
00000320: ebb1 dcbd 008a e0be e0a4 1abe d210 2f3f
00000330: bbd5 123e e65a 1f3f 481d 0c3f cf12 09bf
00000340: 63fa 813e c9f8 0f3f f831 a83e eff4 35bf
00000350: 1086 08be d0e0 663e 4b75 6d3e c2cc b6be
00000360: c85b 2ebe 048a 28be b2a5 033c 7a68 1c3e
00000370: c92e a93e fce8 00be 6bd7 bcbe 7ceb bf3e
00000380: 10da 063f f51b 1c3f be0e 1fbe e503 c33e
00000390: 788e cf3e 91cc d13c 1e59 f3be c70a 183e
000003a0: 1401 a63e 5972 f1be 192e 6c3e 3327 1dbe
000003b0: d0e7 02be b513 90be 11b2 393f 457e c03d
000003c0: 5c62 de3d 89a8 2cbf 9b5e 403e 7519 823e
000003d0: cb0c f7bd 5bf0 cabb 1cc7 1fbf 0beb 113f
000003e0: b16d 72be 11d6 fa3d 5672 6cbe 35a0 0a3f
000003f0: 54dc 9dbd 134b 793e bc62 0bbe bb0f f5be
0.44386226 -0.3021089 -0.42094395 0.20597775 0.31717193 -0.39402777 0.053310618 0.04097821
0.07241388 -0.4066685 -0.23113066 0.3463255 -0.21000883 0.6196473 -1.1304249 -0.29313013
0.48891208 0.23739608 0.38009456 -0.684337 -0.12358375 0.42238334 -0.5206794 0.09012463
-0.628115 -0.48193982 -0.36619893 0.67069834 0.09436062 0.009819374 -0.015605376 0.25944296
0.29685473 -0.35709286 0.3010858 0.36905345 0.55986965 0.08998151 -0.13491733 0.31800964
-0.40653214 -0.2738304 0.110506125 0.025214564 0.38262016 -0.30500206 -0.45331305 -0.41057023
-0.24212722 0.44322866 -0.5136754 0.25495586 0.22493105 0.46641082 -0.53384435 -0.26344568
-0.48004225 0.33637038 -0.16455841 0.11478522 -0.26614407 -0.6090843 -0.12240222 -0.05140611
0.34869432 0.36493713 -0.19350962 -0.19566007 0.21173105 0.377669 -0.3491383 0.062589735
0.25435424 0.42391655 -0.3715802 -0.5193443 -0.20367604 -0.16871953 0.8307465 0.010650646
-0.2868018 -0.29108673 0.21435948 0.29048765 0.11891654 0.15629774 -0.08065273 -0.611132
-0.076352 0.30752426 -0.32544816 -0.3156553 -0.57952404 -0.24830158 0.020669736 -0.18003166
-0.14380738 -0.58294445 -0.021361103 0.47791287 -0.28377694 -0.30979595 0.013908802 0.48239323
-0.56472987 0.0777904 0.3679004 0.36933565 -0.26928717 0.49787173 0.63622326 -0.35967666
-0.57859707 0.051539045 -0.40633455 0.511649 -0.60277617 0.5914716 -0.25314113 0.042313065
-0.20651388 0.21323253 0.34310773 -0.35452202 -0.26401106 -0.7528371 0.17275998 0.45211208
0.34390974 0.329786 0.25583246 -0.10163496 -0.12210583 -0.38236347 -0.31743172 0.28488898
-0.029087296 0.279938 -0.10670162 0.11810254 -0.05720009 0.57697797 0.45289415 -0.69394714
-0.02568505 -0.47039184 0.23266298 0.24444227 0.23948811 -0.069449015 -0.26047665 0.6663199
-0.22244564 -0.55991536 0.16025482 0.5075149 -0.53783065 -0.14030509 -0.64432544 -0.04013399
-0.3316049 0.035596114 0.57818735 0.08951878 0.056623023 0.604914 0.6940703 -0.10495435
0.1852895 -0.25035718 -0.26250467 0.2761195 -0.42846346 -0.18735002 0.03425873 0.5792039
0.22873436 -0.56599486 -0.33237186 -0.47085586 2.3562894 -0.21831158 0.3268733 0.03743497
0.023557892 0.14461604 -0.55493546 -0.588673 0.43655542 0.17136726 -0.32742494 0.41581348
-0.22539122 0.33894938 0.18405382 -0.37803176 0.57131296 0.22518183 0.17550911 -0.15297298
-0.10776123 -0.43855286 -0.15101957 0.6838504 0.14339344 0.62248075 0.5473218 -0.53544325
0.25386342 0.5623899 0.32850623 -0.71076864 -0.13332391 0.22546697 0.23189275 -0.35703093
-0.170272 -0.16458899 0.00803511 0.1527423 0.33043507 -0.12588876 -0.368831 0.37484348
0.52676487 0.6098016 -0.15532967 0.3808891 0.40538383 0.02561024 -0.4752893 0.14847861
0.32422698 -0.47157553 0.2306446 -0.15346985 -0.12783742 -0.28140035 0.7253733 0.09399084
0.10858604 -0.67444664 0.18786089 0.25410047 -0.12062987 -0.0061932034 -0.6241319 0.5699927
-0.23674656 0.12247861 -0.2309049 0.54150707 -0.0770804 0.24345045 -0.13611883 -0.47863564

VAE_Decoder.layers.1.linear0.bias f4 [128]
00000000: 57c5 46bd 5ff9 963d ca82 283e 09cf 103f
00000010: b6c8 9ebe dc8c 34be bd80 833e 80f1 e63e
00000020: f1af 9d3d 81bd 763e ebce 9a3e 4df1 a63e
00000030: 4094 f13d e009 3b3e 8410 a43e cb49 993d
00000040: fb84 fbbe 37e6 e63e a712 46be b20b 0e3e
00000050: 00f0 283e aa44 14bf db31 063f edf5 ad3e
00000060: d722 a7be af72 243c c05b c13e edc5 c53d
00000070: 37a8 78be 4668 d1bd b41e 723d d4be 25be
00000080: 4d74 b8be c5d1 bfbe 364e f93e cf2a c03d
00000090: b290 4cbd 36e1 893b 7523 133e 307c b13e
000000a0: 1513 09bf 2a53 283e 70d7 943d f3ad 2d3c
000000b0: c7e3 4fbe e57b 5bbe 8f93 24be 89b9 1e3f
000000c0: a673 883e 7c45 c5be 1b67 c3be 9f07 8c3e
000000d0: 60cf a2be 3f93 103d 64b7 eb3d 8f1b d83d
000000e0: 9c9a b33e c01c 913c 4902 94be 21ab 7ebe
000000f0: 442e 2b3d 71a2 4cbe d8a2 143d cb68 21be
00000100: 9a8a 0d3e c6f1 ccbd 0752 153f 5da5 143f
00000110: 27dd b53e 3943 cbbe 6dda e23e ec07 8b3e
00000120: 7863 4c3e 1312 d0be f140 1f3d d0b1 073f
00000130: 9296 9dbe 996e c8be c209 f6bd 62f1 003f
00000140: 5ccc 023f 5ba0 133f 5348 08bd 891f 0e3f
00000150: 36ba 9abb 3015 b8bd 8d48 27bd 8644 e2be
00000160: cf15 013f 91c9 cb3e b759 a23e af19 893e
00000170: 4662 9a3e 133f 523e 2c7f 70be 0c9e 0e3e
00000180: 8f37 aebe e44c 3dbe 6539 823e 7e8f fa3e
00000190: ffe6 c63d 76e6 00bf 0ee7 a7bd 2a2b 033f
000001a0: 7464 adbe d211 b83e 7f6b 0f3e 55bb 283f
000001b0: 6cc0 253e 78a8 87be 4d8b ea3e bc71 e93d
000001c0: 3115 b7bd 427e 773e d048 d33d 2475 c93d
000001d0: dccc 19bf 44d6 8cbe 8e9d c43d 73f5 a3be
000001e0: dc0b a93c b780 293e 1f91 303e 8b8a 403e
000001f0: 9b32 e2bd 6e08 1ebe 7978 b63e 99fc 913c
-0.04852804 0.073717825 0.16456142 0.5656591 -0.31012505 -0.17631859 0.25684157 0.45106125
0.07699574 0.24095728 0.3023599 0.32605973 0.117958546 0.18265486 0.3204385 0.07484778
-0.49124894 0.45097515 -0.19343053 0.13871649 0.16497803 -0.57917273 0.52419823 0.3397669
-0.32643768 0.010037108 0.37765312 0.09656892 -0.24282919 -0.10224967 0.059111312 -0.16186076
-0.3602623 -0.3746473 0.48692483 0.09383165 -0.04994268 0.0042077554 0.14368995 0.3466506
-0.5354474 0.16437975 0.07267654 0.010600555 -0.20301734 -0.21433981 -0.16071914 0.62001854
0.26650733 -0.38529575 -0.381646 0.27349564 -0.3179884 0.035296675 0.11509588 0.105521314
0.35078895 0.017713904 -0.28907993 -0.24869968 0.04179217 -0.19983841 0.036288112 -0.15762632
0.13822404 -0.10007052 0.5832829 0.58064824 0.35520288 -0.39699724 0.4430727 0.2715448
0.1995982 -0.4063879 0.038880292 0.53005695 -0.3077894 -0.3914688 -0.1201358 0.5036832
0.5109308 0.5766656 -0.0332721 0.5551687 -0.004721905 -0.08988416 -0.040840674 -0.44192904
0.504239 0.3980222 0.31709072 0.26777408 0.30153102 0.20531873 -0.23486012 0.13927478
-0.34026763 -0.18486363 0.25434414 0.489376 0.09712028 -0.50351655 -0.08198367 0.5123774
-0.33865702 0.35951096 0.1400585 0.65910846 0.16186684 -0.2649572 0.45809403 0.11398646
-0.08939589 0.24169257 0.10316622 0.09836796 -0.60078216 -0.27507222 0.09600364 -0.320232
0.020635538 0.16553007 0.1724286 0.1880285 -0.110448085 -0.15432903 0.35638788 0.017820643

VAE_Decoder.layers.1.linear1.weight f4 [4, 128]
00000000: 12d3 3c3e d4dc b73a f432 c2bc 7306 1cbd
00000010: c8b1 36be 3297 b4bd 5669 31be 4ac1 2abd
00000020: 2942 d73b de29 b73d 4645 f0bd 7aa6 8a3c
00000030: b703 f9bb 33b2 83bd 3299 04be 0a38 5dbc
00000040: 06fb 203e 989e 89bd 492b 15bd 6eb0 9bbd
00000050: f039 84bd 746a 38bd d3ed f1bd ff35 bbbd
00000060: ab92 aabd 4cc6 20be dc7f eebd bead 6abe
00000070: dea9 afbd f818 9abb 8feb 72be b197 f5bc
00000080: c15e f4bd 7b81 6bbe 7dec 13be 48b2 e2bd
00000090: daff b03d ee38 2dbe c846 c6bd a526 1bbd
000000a0: 8467 2e3e 82ad 6ebe cade d6bd e9b3 aebe
000000b0: f5e1 613e a09a 0140 a795 88bd 6b02 3abc
000000c0: fd2a 46bd 0167 abbd ea4e 8ebe 5d27 41be
000000d0: 954f 1fbe 63c8 c6bd cbb7 e13c ff3b 5f3d
000000e0: 175f c73d 2797 753d 4b66 d7bc a196 58bd
000000f0: 4031 043e 470a e8bd 1ef9 05be 6bcd 103a
00000100: e948 a9bd 6776 97bd 9ae8 1cbe f83d f1bd
00000110: 8ca7 9a3b dc9b 163e e33f 02be f222 05bd
00000120: a8a6 3cbe 415c b9be a421 d13c 4277 09be
00000130: 1150 01bd 8230 f93e c24d 4a3c b4e1 49bd
00000140: 7204 a5bd 4df3 3ebd 7c95 4dbf ca11 ef3a
00000150: b16a e03e 811a a03d fa95 66bc d52d 143e
00000160: 20bd 653d 7b46 e9bb 8282 a23d c32a debc
00000170: 52c3 2fbe d48c 8bbd 8f4c 393e 7cf5 463c
00000180: 1481 9d3e c9ae 193e d797 b1bd fdc8 2bbe
00000190: 4398 0ebe afa5 b1bd 091d c83d 6623 04be
000001a0: 1c2e 023d 4dad a1bc 83b0 96bc 6e87 7d3d
000001b0: 5d66 edbc 72a2 f2bd 8c52 c9bd 8780 5fbe
000001c0: 5284 4ebd d731 bbbd 251f 843d 2eaa 07bd
000001d0: ca4c 7c3d 25eb 85bd 9296 bfbd 3848 0b3e
000001e0: b57c 7bbe 3872 78bd a004 c9bd c98f c2bd
000001f0: a225 d6bd 5824 e3bd 8a87 c8bd 37f3 b8bc
00000200: c8d7 af3c eea4 1cbe 3e75 29bd 4d93 e23d
00000210: 4c7d 553e e487 c43d e33d 37be 2651 18be
00000220: 53eb 1dbe fa38 933c ee47 fcbd 4acb c93d
00000230: 9bf3 e3bc 1fc3 b73d 5b20 9abd 30f1 a6be
00000240: b853 f7bd 7fa1 6a3d 3f35 233e 500a 37be
00000250: 6840 85be 695a 613e 383f 2d3e 4649 54bd
00000260: a060 ffbd da98 21be 943a e7bd aa86 883d
00000270: 3393 49be 1f0f 1d3d 1fd4 933d 3d15 1ebe
00000280: e818 9e3d 6e2b cabd 4909 9b3d b6d8 843e
00000290: 2372 13be 8327 3e3d 8e2a 3ebe 15c9 78bd
000002a0: 6830 5fbe 6afc 573e 8638 693d b6f3 dbbe
000002b0: 3f62 29bd d30d ac3e 6ca4 fa3d dc75 23bd
000002c0: 9de3 183d 50bb 933e a54d 48be 8a0b 833e
000002d0: aeca 973e 5d73 c13d 07b5 30be 1d09 7d3d
000002e0: 4d3a 893d 932c e63c c8d5 59be f17a 17be
000002f0: 3060 2dbe e1fc 2fbb cb68 00be 7f80 c33c
00000300: b238 1e3e 5058 72be b383 903c acf6 83be
00000310: 5ba8 053e 3248 d63d c8e2 b2bd 9440 3abe
00000320: 2009 02be 3100 d5bd 0650 013e db30 513e
00000330: 8a14 a1bd 1ed5 b2bb 4fd1 47be b4c6 25bd
00000340: a6d0 ccbd 7cb8 18be db09 0f3f ac28 893e
00000350: 7cb9 b6be a92f 1e3e 34ac d4bd 4a63 183f
00000360: a8b9 7dbe 3a9d 8a3e 64ff 81be d4f1 20be
00000370: 20a8 d93d af15 933e 3965 d13d a4ae b73c
00000380: 18ed bf3c cbbb a93d d006 a2bd 0837 96bd
00000390: 6ebe 353d 6aa7 f13d e83c 8bbe d054 d4bd
000003a0: 0624 11bf edc3 893e 856f 113e bd37 55be
000003b0: 59bb 643c be73 893e 4050 a4bd 6f99 7f3e
000003c0: 66f0 003e fa53 8b3e f66a c4bd d611 b63d
000003d0: 6217 7dbd b57b dfbd 559a e33c 40ea 67be
000003e0: 3575 bd3d c00d 56be b322 abbd c848 573d
000003f0: dddd 103e 1020 78bd d345 793c 6d10 b5bd
0.18439892 0.0014027604 -0.023705937 -0.038092088 -0.17841256 -0.08817901 -0.17325339 -0.04168824
0.006569166 0.089435324 -0.11731963 0.016925085 -0.00759932 -0.06430473 -0.12949064 -0.01350213
0.15720758 -0.067197025 -0.036418233 -0.07602011 -0.06456363 -0.045023397 -0.118129395 -0.09141158
-0.08328756 -0.15700644 -0.11645481 -0.2291784 -0.085773215 -0.0047026835 -0.23722671 -0.029979559
-0.119321354 -0.22998612 -0.14445682 -0.11069161 0.0864255 -0.16916248 -0.09681469 -0.03787865
0.17031676 -0.23308375 -0.104917124 -0.34121636 0.22058852 2.0250626 -0.06669169 -0.011353116
-0.04838084 -0.08369256 -0.27794582 -0.18862672 -0.15557702 -0.097061895 0.02755346 0.054500576
0.09734934 0.059958603 -0.026293894 -0.052878026 0.12909412 -0.11330085 -0.13083312 0.0005523774
-0.0826586 -0.0739563 -0.15323105 -0.11779398 0.00471968 0.14707893 -0.12719683 -0.03250403
-0.1842295 -0.36203197 0.025528736 -0.134244 -0.031570498 0.4866982 0.0123476405 -0.049287513
-0.080574885 -0.04661875 -0.8030622 0.0018239554 0.438314 0.07817555 -0.014073843 0.14470609
0.056088567 -0.0071189976 0.07935049 -0.02712 -0.17164353 -0.0681397 0.18095611 0.012143489
0.3076254 0.15008081 -0.08671539 -0.1677589 -0.1392527 -0.0867418 0.09771163 -0.12904128
0.031782255 -0.019735957 -0.018394714 0.061896734 -0.028979475 -0.1184739 -0.09830198 -0.21826373
-0.05041916 -0.091403656 0.06451253 -0.03312128 0.06159667 -0.06538991 -0.09354891 0.13601768
-0.2455929 -0.060655802 -0.09815335 -0.09500081 -0.10456397 -0.110909164 -0.09791477 -0.022576911
0.021465197 -0.1529729 -0.041371576 0.11063252 0.20848578 0.095962316 -0.17894702 -0.14874706
-0.154218 0.017971504 -0.12318407 0.098532274 -0.027826121 0.08972763 -0.075257026 -0.32605886
-0.12076515 0.05728292 0.1593828 -0.17875028 -0.260257 0.22007145 0.16918647 -0.05182769
-0.12469602 -0.15780964 -0.1129047 0.0666631 -0.19685058 0.0383445 0.07218193 -0.1543779
0.07719594 -0.09871565 0.075701304 0.25946587 -0.14399008 0.0464244 -0.18570921 -0.06073864
-0.2179581 0.21092382 0.05693867 -0.42959374 -0.04135346 0.33604297 0.12238392 -0.03990732
0.037326444 0.28853846 -0.19560869 0.2559474 0.2964682 0.09445832 -0.17256556 0.06177627
0.06700573 0.028097427 -0.21272957 -0.14792992 -0.16931224 -0.0026853608 -0.12539975 0.023864983
0.15451315 -0.23666501 0.017640924 -0.25774133 0.13052504 0.10462989 -0.08734661 -0.18188697
-0.12698793 -0.10400427 0.12628183 0.20428793 -0.07865246 -0.0054575345 -0.19513439 -0.0404727
-0.10000734 -0.14914125 0.55874413 0.26788843 -0.35688388 0.15447868 -0.10384408 0.59526503
-0.24777853 0.2707308 -0.2539016 -0.1571725 0.106277704 0.2872748 0.10224385 0.022422142
0.023428485 0.08287772 -0.07911456 -0.07334715 0.04437106 0.1179951 -0.27194905 -0.10367739
-0.5669559 0.26907292 0.14202698 -0.20822044 0.013960683 0.26846117 -0.08023119 0.24960874
0.12591705 0.27212507 -0.09590714 0.08890121 -0.061789878 -0.10912267 0.027783552 -0.22647953
0.09250871 -0.20903683 -0.08356228 0.052559644 0.14147134 -0.060577452 0.015214401 -0.088410236

VAE_Decoder.layers.1.linear1.bias f4 [4]
00000000: 13cc 4bbd 8d5c c1bd c1a6 4abd 1fea abbd
-0.049755167 -0.09441481 -0.049475435 -0.083942644

VAE_Decoder.layers.1.norm1.weight f4 [4]
00000000: d8cd c63f 235a b03f 027f bb3f a9fb b73f
1.5531569 1.3777508 1.4648135 1.4373676

VAE_Decoder.layers.1.norm1.bias f4 [4]
00000000: 1566 c7bd 48a7 81bd 4fb2 8bbc 55d5 4a3e
-0.097362675 -0.063307345 -0.017052798 0.19807942

VAE_Decoder.layers.1.norm0.weight f4 [4]
00000000: aa94 813f c8fc 393f baa7 993f 483d 5d3f
1.0123494 0.7265134 1.2004311 0.8642163

VAE_Decoder.layers.1.norm0.bias f4 [4]
00000000: 9c10 f1b9 0ec2 c73c 1007 043d 263c 2e3d
-0.00045979477 0.024384525 0.032233298 0.04253783

VAE_Decoder.last_normalization.weight f4 [4]
00000000: 0000 803f 0000 803f 0000 803f 0000 803f
1.0 1.0 1.0 1.0

VAE_Decoder.last_normalization.bias f4 [4]
00000000: 0000 0000 0000 0000 0000 0000 0000 0000
0.0 0.0 0.0 0.0

VAE_Decoder.head.weight f4 [4, 4]
00000000: a0d2 61be 7052 af3d acbe 963e 5c36 c8be
00000010: 9070 e03d 185d f8be 02c3 a6be 1afb 833e
00000020: 649d 233e b8b0 5a3e 28f3 ad3e c29d 90be
00000030: 0469 303e 00ce 34bb 706b 7abd a629 e4be
-0.22053003 0.085606456 0.29442346 -0.39103973 0.109589696 -0.48508525 -0.32570654 0.25777513
0.15978009 0.21356475 0.33974576 -0.2824536 0.1722756 -0.0027588606 -0.061137617 -0.44563025

VAE_Decoder.head.bias f4 [4]
00000000: b6ef 98be 126d f53e 30c4 683e 4ee2 973e
-0.29870385 0.47934777 0.2273109 0.29664844

Detokenizer.weight f4 [14, 4]
00000000: defc 003e 201e 40be 3374 513d 7158 30be
00000010: 5d6c f9bc 245b ee3d f756 2dbe a2fc 393e
00000020: a473 c9bd 6a37 d43d b25a f8bd 8261 a43e
00000030: 4aa4 1c3e def2 cdbd 24d0 55be 0de2 ecbd
00000040: 34a4 10be da37 2f3e c849 bf3d 5cdb e03c
00000050: 9afb 8e3d ab11 09be 6be8 c23d 3779 b8bd
00000060: 09df c23d e3f5 33be 8f20 cf3c 2611 bebe
00000070: 3488 ed3c 82e9 2fbe 38bb 5b3d 7963 47be
00000080: be30 083e ae70 a3bc 5ab8 48bc 39ba 503e
00000090: 7b6c 343e 2069 abbd 0184 663e e4fd 0dbc
000000a0: af9c b83e c9ac b9be 025a 81be 6105 bbbe
000000b0: 72d8 3c3e abfe 32be 050a a8bd ffda 00bd
000000c0: f580 29bd dd92 823c c409 363e eef8 b5bd
000000d0: fe04 f13d 3ec7 953c b0fb 9ebe fc6e d3bd
0.12596461 -0.18761492 0.051136207 -0.17221238 -0.03044718 0.116384774 -0.16927706 0.18162778
-0.0983651 0.10362132 -0.12126674 0.32105643 0.15297046 -0.10056089 -0.2088018 -0.11566553
-0.14125139 0.1711115 0.093402445 0.027448349 0.06981583 -0.13385646 0.095169865 -0.09007495
0.09515197 -0.17574267 0.02528408 -0.37122458 0.02899561 -0.1717892 0.053645343 -0.1947154
0.13299844 -0.01995119 -0.012250984 0.20383538 0.17619507 -0.083696604 0.22511293 -0.008666489
0.3605704 -0.36264637 -0.25263983 -0.3652754 0.18441942 -0.1747996 -0.08205036 -0.03145885
-0.04138275 0.01593917 0.17777163 -0.0888537 0.1176853 0.018283483 -0.31051397 -0.10323903

Detokenizer.cat_recons.0.weight f4 [2, 4]
00000000: af1f 97be dea8 55bf 785d 6a3e 36d7 8e3e
00000010: 012c 01bf 0584 4a3f 66c7 59bc 8232 27ba
-0.2951636 -0.83460796 0.22887218 0.27898568 -0.5045777 0.79107696 -0.013292169 -0.00063780707

Detokenizer.cat_recons.0.bias f4 [2]
00000000: 02b1 d33e 36bc ee3e
0.41345984 0.4662797

Detokenizer.cat_recons.1.weight f4 [7, 4]
00000000: bfcb 323f 57f8 f9be 11bf 22be 8852 64be
00000010: b522 b83d 7074 afbe edeb 043f 03fb a3be
00000020: 8173 89be d81f 8a3e 09fc dabd 23e4 23bf
00000030: c9b2 7f3e 2ae2 e33d 3ddd 54bf 1acd 4f3d
00000040: 9224 d83e 9ee0 a33e 8269 56be dfe4 0bbe
00000050: 8768 833f 0bbb 8dbe 7f93 5dbe 5d55 d43d
00000060: 03e0 ae3d 0599 69be cc91 94be 5c18 1c3d
0.6984214 -0.4882228 -0.15893199 -0.22297108 0.08990995 -0.34268522 0.51922494 -0.32027444
-0.26845935 0.2697742 -0.10692603 -0.64019984 0.24970545 0.11127122 -0.8315008 0.05073271
0.422154 0.32007307 -0.20938686 -0.13661526 1.0266274 -0.27681765 -0.21638297 0.10367844
0.085388206 -0.22812279 -0.29017484 0.03810917

Detokenizer.cat_recons.1.bias f4 [7]
00000000: d6d3 37be 4c99 a93e 8b0c 38bd ec40 073f
00000010: 6565 0abe 6a14 93be 404b b2bc
-0.17951903 0.3312477 -0.044933837 0.5283344 -0.13515241 -0.28726512 -0.021764398

Detokenizer.cat_recons.2.weight f4 [4, 4]
00000000: 1c82 4dbe f804 5b3e 5da6 433f 362d 253e
00000010: 06fb c5be e8f2 b8be 1566 92be ad4e 9d3d
00000020: 107d 57be 0d83 823e 5e68 59bd 3018 1bbf
00000030: 1b05 3f3f 50d7 663e 77f2 a4bd 4539 8f3e
-0.20069164 0.21388614 0.76425725 0.16130528 -0.38668078 -0.36122823 -0.28593507 0.07681022
-0.21043801 0.2549061 -0.053078048 -0.6058378 0.74617165 0.22543073 -0.08054059 0.2797338

Detokenizer.cat_recons.2.bias f4 [4]
00000000: 9731 a3be 2d7f 163f bc07 babe c33b 03bf
-0.31873772 0.58787805 -0.36334026 -0.51263064

Detokenizer.cat_recons.3.weight f4 [11, 4]
00000000: dad7 02bf 2c62 c93e cf0d 3e3f e9da 92be
00000010: 759a 41be ddf7 0f3f 7c05 1bbf b8f5 e4be
00000020: e39d 23bf 4b6d 3cbf 52a3 f3bd dd71 79be
00000030: 1658 8ebe 6460 043f 5c14 42be 5bfe 3dbf
00000040: 26fe 8a3e 0c9e febd 27d3 0d3f 5f58 213f
00000050: d804 1bbc df37 fbbd c2c5 cabe 75ae db3a
00000060: f98d 503f 9dfe 74be 7d00 283f 6565 00bf
00000070: 2299 473e 6290 0ebf 5ef8 2a3f 9897 68be
00000080: fb1a f63e bb8c f43e b1ca 153f d838 a33e
00000090: 8fd5 7b3e 3a91 eb3e bff0 c9bd 26d3 643e
000000a0: 495c 1b3f fc26 463e 4656 18be 4e20 a1be
-0.51110613 0.39332712 0.7423982 -0.2868264 -0.18906577 0.56237584 -0.60555243 -0.4471872
-0.6391279 -0.7360427 -0.11896385 -0.24359842 -0.2780158 0.5170958 -0.18953079 -0.7421624
0.27147025 -0.12432489 0.5540032 0.6302547 -0.009461604 -0.12266516 -0.39604002 0.0016760366
0.81466633 -0.23925252 0.65625745 -0.50154716 0.1949201 -0.5568906 0.6678523 -0.22714078
0.4806746 0.4776362 0.5851241 0.31879306 0.24593185 0.46009237 -0.09860372 0.22346172
0.6068769 0.19350809 -0.1487666 -0.3146996

Detokenizer.cat_recons.3.bias f4 [11]
00000000: d50e 883e 35b6 b4be 20cb a53e 2ed4 4abe
00000010: ed9c c33d 413d 2c3e 611f 6a3e 91a6 123e
00000020: da9f ac3e 0a9c 0bbf 86e3 763e
0.26573816 -0.35295263 0.32381535 -0.19807503 0.095514156 0.16820242 0.22863533 0.14321353
0.33715707 -0.5453497 0.24110231

Detokenizer.cat_recons.4.weight f4 [11, 4]
00000000: 4d6a 20be 7ac6 e13e ff55 a5be 2935 043f
00000010: 9920 fc3a cc3e b0bd 0c05 d83e 380a 2fbf
00000020: 2ef3 f1be 5b48 8fbe dfbe abbc d8d2 263f
00000030: d31f 13bd a54f ab3e b857 babe e268 9dbe
00000040: e1db dd3e 7a70 35be 31e7 203e f07e 0e3f
00000050: d841 12bf a95c 26be dd9e d4be 68dd 0ebf
00000060: fc23 643e 6593 053f 37df 2abd b900 dabe
00000070: bbb3 083f 698d 9d3e a344 2cbe 60be a6bd
00000080: fa39 9dbe 75f9 2e3f e3ba 413e 228d 31be
00000090: 4855 8c3e c508 fa3e deef 49be 0dbc 17be
000000a0: 3e86 a2be cca6 843e 331d 363e f203 803e
-0.1566555 0.44096738 -0.32292172 0.51643616 0.0019235789 -0.086057276 0.4219135 -0.6837497
-0.47255844 -0.2798489 -0.020965038 0.6516547 -0.03591902 0.334592 -0.3639505 -0.30744082
0.43331817 -0.17718688 0.15713193 0.5566244 -0.5713172 -0.16246285 -0.41527453 -0.5580659
0.22279352 0.5217803 -0.04171678 -0.42578676 0.53399247 0.3077195 -0.16823058 -0.0814178
-0.30708295 0.6834939 0.18918948 -0.17338994 0.27408814 0.48834816 -0.19720408 -0.1481783
-0.31743044 0.25908506 0.17784576 0.2500301

Detokenizer.cat_recons.4.bias f4 [11]
00000000: f4cf 8abd e67f 923e 7371 c5ba b523 21be
00000010: 8581 083f 3bfc ed3d 8c78 56bd 4a87 10bf
00000020: 3818 1a3e 18aa 013d b997 9cbe
-0.06777945 0.28613204 -0.0015063718 -0.15736277 0.5332263 0.11620375 -0.052361056 -0.56456435
0.15048301 0.031656355 -0.30584505

Detokenizer.cat_recons.5.weight f4 [11, 4]
00000000: 4b71 4c3f 4970 81bf 794f 173f 5ff9 04be
00000010: c261 c5bd cd26 1bbb 272c 523f 2b84 b7bd
00000020: aa87 4d3e a7f0 03bf 8e0e fdbd b579 ff3e
00000030: c010 333e d47b 03be 4c4d 41be 61af cc3e
00000040: ae68 783e 410b bb3e 9d47 3f3e 867f d1be
00000050: 11bb 37bf ebcd 96be f61f 2abf 1fc5 16bd
00000060: c06c d6bc 2264 85be 96fb 35bf 4f6d be3c
00000070: 5690 f1be f024 9f3e 3433 ac3c a91a 87b9
00000080: 1e63 5e3e 808f 74bd 615a 1abf cfd2 58bf
00000090: 6bcb c33e d306 043f 22d4 b4bd 278f 8d3e
000000a0: ef65 083e 7170 bb3e 8fe5 90be b1eb c83d
0.7986037 -1.0112392 0.5910564 -0.12985753 -0.096377864 -0.002367425 0.8209862 -0.08960756
0.20071283 -0.5153908 -0.12356292 0.49897543 0.17486858 -0.12840205 -0.18877143 0.39977553
0.24258682 0.36532024 0.18679662 -0.40917605 -0.71769816 -0.29453978 -0.6645502 -0.036809083
-0.026174903 -0.26052958 -0.71087015 0.023245482 -0.47180432 0.3108287 0.02102051 -0.0002576907
0.21717498 -0.059707165 -0.6029416 -0.8469667 0.38241133 0.5157291 -0.088295236 0.2764828
0.13320135 0.36609223 -0.2830014 0.098105796

Detokenizer.cat_recons.5.bias f4 [11]
00000000: 6fd0 fe3d e9a5 b33e b8b8 a5bc 3bae c93e
00000010: 3962 f7be b62b f5be 9abb 6f3e ff44 aabe
00000020: 70f8 be3e 6b9b 03be 7401 03bf
0.12442099 0.35087517 -0.020229682 0.3939074 -0.48317125 -0.4788491 0.23411408 -0.33255765
0.37298918 -0.12852256 -0.5117409

Detokenizer.cat_recons.6.weight f4 [11, 4]
00000000: e2fc 0a3f 75d7 cabe a8e1 d93d e968 a43e
00000010: 7e3b 21bf 243f b8be 0d69 c83e 72c8 aa3e
00000020: a83a 11be 8933 f73e 82e2 13bf 90d9 803d
00000030: f57e d5be 1041 943e 58cb 353e 5b4d d1bd
00000040: 580b 193d 7da7 e6bd 12a2 98be a36f 023f
00000050: 57ce 6bbe 802c 943e 368a 92be 7a78 09bf
00000060: 9577 7abf 0e30 de3d 4baa afbd beaa e33e
00000070: d452 b03e 57bf 273e 80fc 1abe 715d 563e
00000080: 2f59 fa3d dc5f b9be bbb8 1f3e 97db 1bbf
00000090: 2f34 4abf efe7 99be 05e5 1ebf 0e78 e5be
000000a0: 379e ac3d 438a b63e 34db d03d e0ec 023d
0.5429212 -0.39617506 0.10638744 0.3211129 -0.629814 -0.35985672 0.39142647 0.33356053
-0.14182532 0.48281506 -0.577675 0.06291497 -0.41698423 0.2895589 0.1775335 -0.102198325
0.037364334 -0.112624146 -0.2981115 0.50951594 -0.23027931 0.289402 -0.28621072 -0.5369946
-0.9783872 0.108490095 -0.08577403 0.44466203 0.34438193 0.16381584 -0.15135384 0.20934083
0.12224042 -0.36205947 0.15597813 -0.6088194 -0.78985876 -0.30059764 -0.62068206 -0.44818157
0.084286146 0.3565236 0.1019806 0.031964183

Detokenizer.cat_recons.6.bias f4 [11]
00000000: 6631 70be d5f1 503e c335 d4be bd77 d8bd
00000010: 7213 9dbd 2366 a1be ef3d d3be 60da db3e
00000020: 3c13 4f3e 12fa cb3e 800e ee3e
-0.23456344 0.20404752 -0.41447267 -0.10569713 -0.076697245 -0.31523237 -0.4125819 0.42940044
0.20222181 0.39839226 0.46495438

Detokenizer.cat_recons.7.weight f4 [10, 4]
00000000: 1c08 e8be b99a b23e bdc7 ef3e 0d74 f2be
00000010: aa39 b33e 2bc7 59bd 8785 23bf d737 08bf
00000020: 5a88 f43d d16b ddbe 303c 9bbe dbae fc3e
00000030: 4386 853f 164f d3be e1f5 f23e 5cbb 0b3f
00000040: 98c1 3dbd 9425 06bf 18bd 363f b686 033e
00000050: 9441 3dbf b9cb c5bd b34d 74be 81e4 173e
00000060: f9fe 0a3f 120c 103e e043 9bbd 799d cf3e
00000070: 6cca 223f 0e67 173e 3b9b 913c 190e 60be
00000080: 5aff 2fbd ad13 023f 08a9 e4bb ac0a 13be
00000090: b0f4 213f e75c b63b 988a 643e 76e4 aabd
-0.45318687 0.3488367 0.46832076 -0.47354165 0.35004932 -0.053168457 -0.6387562 -0.53210205
0.119400695 -0.4324632 -0.30319357 0.49352154 1.0431598 -0.41271275 0.47453216 0.5458276
-0.046327204 -0.5240109 0.71382284 0.12844357 -0.7392819 -0.09657998 -0.23857765 0.14833261
0.5429531 0.14067104 -0.075813055 0.4054983 0.6359012 0.14785406 0.017774215 -0.21880378
-0.04296813 0.5081127 -0.006978158 -0.1435954 0.6326399 0.005565274 0.22318494 -0.08344357

Detokenizer.cat_recons.7.bias f4 [10]
00000000: 457d 7abe ec9e 7cbe c94f a3be 23fd 9a3e
00000010: d2de e73e 1d1b e1bd f631 a2be e556 4dbe
00000020: 2a4c 11bf c107 153f
-0.24461849 -0.24669999 -0.3189681 0.30271253 0.45287186 -0.109914996 -0.31678742 -0.20052679
-0.5675684 0.58214957

Detokenizer.cat_recons.8.weight f4 [10, 4]
00000000: 941c 053f f783 92bd 54e5 c6be f362 963e
00000010: ae4b 0e3e 867e a0bd dda9 3a3f 58f9 70be
00000020: 6baa 2cbf 6ab6 7abe d954 16bf a934 8c3e
00000030: fb8a c93d bdf7 22bf efa9 da3e cb23 6e3e
00000040: 80da 873c 6a71 bd3e b9bd fcbe 10d4 e7be
00000050: 00b1 733f 97a8 d5be 393d 0e3f 42e4 793c
00000060: b9bd fabe 5a76 493e abd5 31bd ad97 4b3d
00000070: c245 163f f763 bc3e 793e 86be d729 38be
00000080: b742 423f 3951 0d3f f270 983e 8bf1 d13e
00000090: 71fb 5cbe 6cee dc3e 1010 e13c 64d4 af3c
0.5199673 -0.071540765 -0.38846838 0.29372367 0.13896057 -0.078366324 0.7291544 -0.23532617
-0.6744754 -0.24483648 -0.5872322 0.27383927 0.098409615 -0.6365927 0.42707774 0.23255841
0.016583681 0.3700059 -0.49363497 -0.45278978 0.95191956 -0.41730186 0.5556217 0.015252175
-0.48972872 0.19674054 -0.04341666 0.049705196 0.5870019 0.36795017 -0.26219538 -0.1798471
0.7588305 0.5520206 0.2977367 0.41004595 -0.21580292 0.4315065 0.02747348 0.02146358

Detokenizer.cat_recons.8.bias f4 [10]
00000000: f1cb 53be acb4 fb3e 893a b0bd 2a49 92be
00000010: 4f94 103e 9fdf 3c3e 023a 84bd f6d0 3b3d
00000020: ca7f d9be af38 40be
-0.20683266 0.4916128 -0.08604915 -0.28571445 0.14119075 0.1844468 -0.064563766 0.045853578
-0.42480308 -0.18771623
