tabsyn/vae/ckpt/default/major_finetune_on_minor_l2normloss/encoder.pt (torch, 23664 bytes, 33 tensors)

Tokenizer.weight f4 [15, 4]
0	0x3e3bebe8	0.1835171
1	0xbe430c1d	-0.1904759
2	0xbd91d60d	-0.07120905
3	0xbee779e0	-0.4521017
4	0xbe515720	-0.20443392
5	0xbe97a3c8	-0.29617143
6	0x3e59b170	0.21259093
7	0xbdd3edbc	-0.103480786
8	0x3ddfc6c7	0.10926586
9	0x3cefaa96	0.029256146
10	0xbe122d42	-0.14275077
11	0x3d92f12a	0.07174905
12	0x3e3660ef	0.17810415
13	0xbe114df4	-0.14189893
14	0xbe071b32	-0.13193968
15	0x3e06327a	0.13105193
16	0x3e428b41	0.18998434
17	0xbdcc938c	-0.0998908
18	0xbe6df6dd	-0.23238702
19	0x3d50c6d2	0.05097086
20	0x3de1ab75	0.11019031
21	0x3de322b6	0.11090605
22	0x3d922b65	0.07137183
23	0xbe3ac4ce	-0.18239138
24	0xbc316fa4	-0.01082984
25	0xbdf30982	-0.11867048
26	0x3ec3e83d	0.3826312
27	0x3d5521b5	0.0520341
28	0x3e780d3e	0.24223801
29	0x3e925910	0.28583574
30	0x3e4b7b56	0.19871268
31	0xbe3276d0	-0.17428136
32	0xbe74beab	-0.23900859
33	0xbe577e8e	-0.2104437
34	0x3e28dd33	0.16490631
35	0xbe606d11	-0.21916606
36	0xbe8f9f54	-0.28051245
37	0xbead0b9e	-0.33797926
38	0xbe5893d3	-0.2115014
39	0x3d870283	0.06592276
40	0xbe89ebda	-0.26937753
41	0xbeb0bb54	-0.3451792
42	0x3f0410e0	0.5158825
43	0xbeb19584	-0.34684384
44	0x3dd47a6d	0.10374913
45	0xbed57e65	-0.41697994
46	0xbe88db2a	-0.2672971
47	0xbde32762	-0.11091496
48	0xbea527c2	-0.32256895
49	0xbec8cdc8	-0.392195
50	0xbe7f8e37	-0.24956594
51	0xbd655b31	-0.05599517
52	0xbeb3861a	-0.3506325
53	0xbe6a9bfa	-0.22911063
54	0x3dbb6a57	0.09151142
55	0xbdc0943d	-0.09403274
56	0xbe4b72ae	-0.19867966
57	0x3e86bb1b	0.26314625
58	0xbeba33bc	-0.36367595
59	0xbdb555a5	-0.08854226

Tokenizer.bias f4 [23, 4]
0	0xbec7b1c6	-0.39002818
1	0x3ebc50ad	0.367803
2	0xbd2a7d3e	-0.041623347
3	0x3eec5d22	0.46164805
4	0xbed8d858	-0.42352557
5	0xbe76a14a	-0.24084964
6	0xbc500446	-0.012696331
7	0x3f05d0cb	0.5227172
8	0xbf19cbd3	-0.60076636
9	0x3db3ca49	0.08778817
10	0x3f1f5702	0.6224214
11	0x3ec143db	0.37747082
12	0xbf06e4f4	-0.52693105
13	0xbd309a06	-0.04311564
14	0xbec73178	-0.3890493
15	0x3ec32121	0.38111213
16	0x3e305799	0.17220916
17	0xbd023b9f	-0.03179514
18	0xbf149699	-0.58042294
19	0xbedee253	-0.43532047
20	0xbe9369d5	-0.2879168
21	0x3f036b21	0.5133534
22	0xbe62d915	-0.22153123
23	0x3ef3ed31	0.476419
24	0x3c8fa0ad	0.01753267
25	0xbe043a35	-0.12912829
26	0x3e200282	0.15625957
27	0xbdce5e36	-0.10076563
28	0xbf1f0f55	-0.6213277
29	0xbe15614c	-0.14587897
30	0xbf06c02a	-0.5263697
31	0x3f1b4741	0.606556
32	0x3ecf69cf	0.40510413
33	0x3d12d698	0.035849184
34	0x3f13e84b	0.57776326
35	0x3e1af59e	0.15132758
36	0xbf271b41	-0.6527596
37	0xbe4af5e7	-0.19820367
38	0x3f1b489d	0.60657674
39	0xbebb0cf4	-0.3653332
40	0xbd82ce5e	-0.06387018
41	0x3ee67e24	0.45018113
42	0xbef075e9	-0.46964958
43	0x3f0956e5	0.53648216
44	0x3e502da8	0.20329916
45	0xbe779a46	-0.24179944
46	0x3e89549c	0.26822364
47	0xbe6b6587	-0.22987948
48	0xbe7757f8	-0.24154651
49	0xbebfd6f8	-0.37468696
50	0x3e8b66fb	0.27227005
51	0x3ed54d31	0.41660455
52	0x3d2ae43a	0.04172156
53	0x3e2ae05c	0.16687149
54	0xbe9b8775	-0.30376783
55	0x3f2696ac	0.6507366
56	0x3eaf3765	0.3422195
57	0x3e2ebec3	0.17064957
58	0x3e80757d	0.25089636
59	0xbe769c56	-0.24083075
60	0x3ec5bb33	0.38619384
61	0x3e547b10	0.2075007
62	0x3e8ccf9a	0.27502137
63	0xbe1f5685	-0.15560348
64	0x3d27481d	0.040840257
65	0x3ea8635a	0.328883
66	0xbe943fb8	-0.28954864
67	0x3e8776eb	0.26457915
68	0xbe73984d	-0.23788567
69	0x3db649e6	0.08900814
70	0xbeeb511b	-0.45960316
71	0x3c0bd727	0.008535183
72	0xbe0472c9	-0.12934412
73	0xbe800903	-0.25006875
74	0xbe58fd04	-0.21190268
75	0xbe1de1b1	-0.15418126
76	0xbc4d0be5	-0.012515043
77	0x3d1fc88e	0.039009623
78	0x3e1740f1	0.14770867
79	0x3eb7cca6	0.35898322
80	0x3b2bf468	0.0026238207
81	0x3e9a0873	0.3008457
82	0xbde666e9	-0.11250097
83	0x3e513357	0.20429741
84	0x3e392e3b	0.18084042
85	0x3d18a9cf	0.037271317
86	0xbef3456d	-0.47513905
87	0xbeafb057	-0.34314224
88	0xbdb4c17b	-0.08825966
89	0xbe25c6a2	-0.16189054
90	0xbe7d09ca	-0.24710765
91	0x3de9d510	0.114175916

Tokenizer.category_embeddings.weight f4 [77, 4]
0	0x3e605bce	0.2191002
1	0xbef0bd01	-0.470192
2	0x3df7b9d8	0.12095994
3	0x3e69aae3	0.22819094
4	0xbe674a01	-0.22586824
5	0x3de6ded1	0.112729676
6	0xbe0d3b65	-0.13792188
7	0xbd104e2d	-0.035230804
8	0x3f016428	0.5054345
9	0xbf948a60	-1.1604729
10	0x3e6bf573	0.2304285
11	0x3a8fc054	0.0010967352
12	0xbeaa58f8	-0.33271003
13	0xbefe3885	-0.49652496
14	0x3f088e71	0.5334235
15	0x3eccf521	0.4003077
16	0xbe943f16	-0.2895438
17	0x3dd73913	0.10508933
18	0xbd80a7fa	-0.06282039
19	0xbd80f8e1	-0.0629747
20	0x3e505c85	0.20347793
21	0x3d3b9e3b	0.045805197
22	0xbe9e7552	-0.30948883
23	0x3eaf177b	0.34197602
24	0x3f2577ee	0.64636123
25	0x3f024f74	0.50902486
26	0xbeaffa04	-0.34370434
27	0xbf110927	-0.5665459
28	0xbe28d1fd	-0.16486354
29	0xbeafafda	-0.34313852
30	0xbeda099c	-0.42585456
31	0x3f18abe2	0.5963727
32	0x3d81292c	0.06306681
33	0xbed075ec	-0.40714967
34	0x3e46499d	0.19364019
35	0x3e9ebe0b	0.31004366
36	0xbea5e031	-0.32397607
37	0xbe9594f6	-0.2921521
38	0xbce9cb91	-0.02853945
39	0xbf14224c	-0.5786483
40	0xbd806278	-0.062687814
41	0xbe51251a	-0.2042431
42	0xbe641064	-0.22271878
43	0x3d85418a	0.06506641
44	0x3c94e039	0.018173324
45	0xbe0b649a	-0.13612595
46	0x3e999ff1	0.30004838
47	0xbf169cd7	-0.5883307
48	0x3ecb17a8	0.39666486
49	0xbe222565	-0.15834577
50	0x3ba649c9	0.005074714
51	0xbe2cf455	-0.1689008
52	0xbb999d36	-0.0046879305
53	0xbe862cf8	-0.26206183
54	0x3f7c2153	0.9848835
55	0xbe0787ef	-0.13235448
56	0x3f09f5a6	0.53890455
57	0xbe24d92c	-0.1609847
58	0xbd0b1831	-0.033958618
59	0xbec39d83	-0.3820611
60	0xbebdf30c	-0.37099493
61	0x3da66ce6	0.081262395
62	0xbedb0f33	-0.42785034
63	0xbe145a5e	-0.14487597
64	0xbd91d74a	-0.07121141
65	0xbe68f99a	-0.22751465
66	0x3e1a8b06	0.15092096
67	0xbf2756cf	-0.65366834
68	0x3e9ef6df	0.31047723
69	0xbeb2dcee	-0.3493418
70	0x3e09130e	0.13386175
71	0x3ed8a616	0.42314214
72	0x3eace5ac	0.33768976
73	0x3dd6d341	0.10489512
74	0xbea7c1da	-0.32765085
75	0x3ef1d017	0.47229072
76	0xbcb02735	-0.02150307
77	0xbeb44b46	-0.3521368
78	0x3d2253a7	0.03963056
79	0xbea85636	-0.32878274
80	0xbdf63604	-0.120220214
81	0xbdd60b98	-0.1045143
82	0x3e449c8a	0.1920034
83	0xbe91b853	-0.2846094
84	0x3ebca4c4	0.36844456
85	0xbef46048	-0.47729707
86	0x3e50b320	0.20380831
87	0x3e18001e	0.14843795
88	0x3ebd3b43	0.36959276
89	0xbecbb586	-0.3978693
90	0xbd02ad76	-0.031903706
91	0x3e28808d	0.16455288
92	0xbca3d56a	-0.019999225
93	0xbe87cd40	-0.2652378
94	0x3d25f3ec	0.040515825
95	0xbeaf8a09	-0.34285
96	0x3e7d4098	0.24731672
97	0x3e8ad7ad	0.27117673
98	0xbefade06	-0.48997515
99	0x3e581d79	0.21104993
100	0xbe8a0ec0	-0.26964378
101	0x3e3843d9	0.17994632
102	0xbe54784d	-0.20749016
103	0xbe81ff8e	-0.25390285
104	0x3eab33ff	0.33438107
105	0xbe94efee	-0.29089302
106	0x3ea73ec4	0.32665074
107	0xbdf513e3	-0.11966684
108	0xbdcdd4f0	-0.1005038
109	0xbe1cd285	-0.15314682
110	0xbe22dac7	-0.1590377
111	0xbe21ebab	-0.15812556
112	0x3d9983ad	0.07495818
113	0xbf08d130	-0.53444195
114	0xbe8734e8	-0.26407552
115	0x3ed2acc1	0.41147426
116	0xbb5a970f	-0.0033354198
117	0xbc8750fa	-0.016518105
118	0xbda5cb0f	-0.08095371
119	0xbcd6afbf	-0.02620685
120	0xbdf83b07	-0.121206336
121	0x3d75b3d3	0.059985947
122	0xbeca4999	-0.39509276
123	0xbf20e5f2	-0.6285087
124	0xbe38a0d1	-0.18030097
125	0x3d678a87	0.056528594
126	0xbe78311e	-0.24237487
127	0xbe646e1c	-0.22307628
128	0x3d3ca562	0.04605616
129	0x3f503462	0.8132993
130	0x3df73139	0.12069935
131	0xbdf20746	-0.118177935
132	0x3ebdc89c	0.37067115
133	0x3ed62739	0.418268
134	0x3c49d8b9	0.012319737
135	0x3d8784cb	0.06617125
136	0xbef555cb	-0.47917017
137	0xbe059c3e	-0.13047883
138	0x3e055c3d	0.13023467
139	0xbe621397	-0.22077785
140	0x3e364ed1	0.17803504
141	0xbf3e5428	-0.7434716
142	0x3fa01736	1.2507083
143	0xbdbadd4c	-0.0912424
144	0x3d283109	0.04106239
145	0x3d9c68d6	0.07637183
146	0x3f4b243b	0.7935216
147	0xbdfeee33	-0.12447777
148	0xbc982cc9	-0.018576043
149	0x3d6fa9f1	0.058511678
150	0xbea7ea4c	-0.32795942
151	0x3ee5f325	0.44912067
152	0x3eb748e2	0.35797793
153	0x3d8b6448	0.068062365
154	0xbe037e41	-0.12841131
155	0xbcd2c5db	-0.02572911
156	0x3eb2dc1f	0.34933564
157	0x3f534ab6	0.82535875
158	0x3ee5fa7d	0.4491767
159	0xbedc81bc	-0.4306773
160	0xbf6501cf	-0.89455885
161	0x3fad5300	1.3540955
162	0xbf855053	-1.0415138
163	0x3c0bcdc1	0.008532942
164	0x3f03a45e	0.5142268
165	0x3f3635dc	0.7117593
166	0xbf8a8217	-1.082095
167	0x3ea34d6d	0.3189501
168	0x3e400187	0.18750583
169	0x3c592ba7	0.013255036
170	0x3da6b204	0.081394225
171	0xbe37c352	-0.17945603
172	0x3e311926	0.1729475
173	0xbe13d5b9	-0.14436997
174	0xbe934bf1	-0.28768876
175	0xbf4293f0	-0.76006985
176	0x3edaa02a	0.4270032
177	0x3ec14bc2	0.3775311
178	0x3d93122f	0.071812026
179	0xbd014847	-0.03156307
180	0x3ed4ad40	0.4153843
181	0x3df44be0	0.119285345
182	0xbe9ead00	-0.30991364
183	0xbd91b7c1	-0.071151264
184	0x3ed9054c	0.42386854
185	0xbf0a49b3	-0.54018706
186	0x3e591b25	0.21201761
187	0x3e70ff5d	0.23534913
188	0xbe4ca2cf	-0.19983982
189	0x3e1692fa	0.14704505
190	0x3d4f4006	0.050598167
191	0xbdd6c9f3	-0.104877375
192	0x3ed07ffd	0.40722647
193	0x3ee74cb9	0.45175722
194	0xbf29e6de	-0.663679
195	0xbeec3880	-0.46136856
196	0xbe770f9a	-0.24127045
197	0x3ce3fa85	0.027829418
198	0x3e4ab467	0.1979538
199	0xbe7b9cd6	-0.24571547
200	0x3e2c09c4	0.168006
201	0xbd80fae3	-0.06297853
202	0xbea14efd	-0.31505576
203	0x3e284153	0.16431169
204	0x3e079858	0.13241708
205	0x3ebc6bbe	0.3680095
206	0x3e6de6ff	0.2323265
207	0xbf40aa6e	-0.75260055
208	0xbf9897d8	-1.1921339
209	0x3f8726a8	1.0558672
210	0xbf878f79	-1.0590659
211	0x3f7dc862	0.99133885
212	0x3eda4ed0	0.42638254
213	0xbea32f39	-0.31871966
214	0x3e0e869c	0.13918537
215	0x3e4c1297	0.19928966
216	0x3ee522d0	0.44753122
217	0x3ec35152	0.3814798
218	0x3f08978a	0.5335623
219	0x3e6efad9	0.23337878
220	0xbf07ba39	-0.5301853
221	0x3f2e1c0b	0.6801154
222	0xbe98b2eb	-0.29824004
223	0xbecf39dc	-0.4047383
224	0x3e484336	0.19556889
225	0xbef0f4fa	-0.47061902
226	0xbcf4045b	-0.029787233
227	0xbd99ebb4	-0.0751566
228	0xbecbd990	-0.39814425
229	0x3ed70f4c	0.42003858
230	0x3e6eec7e	0.23332402
231	0xbeb2beea	-0.3491128
232	0x3e15a5a6	0.14613971
233	0xbe1a56e4	-0.15072209
234	0x3c9c2a32	0.019063089
235	0xbbdde425	-0.0067715817
236	0xbe4f4b73	-0.20243625
237	0x3d6f62f1	0.058443967
238	0xbe7a5eb7	-0.24450193
239	0x3f069d0e	0.52583396
240	0xbe6d0bf9	-0.23149098
241	0xbf0f834b	-0.5605971
242	0xbc858c97	-0.01630239
243	0x3f0ad31d	0.54228383
244	0xbecefa4e	-0.40425342
245	0xbecf57b5	-0.40496603
246	0x3f1b7e90	0.60739994
247	0x3ec032eb	0.37538847
248	0xbfb3a75f	-1.4035453
249	0x3f8c7d1a	1.0975678
250	0xbd7f406f	-0.062317308
251	0x3f05032c	0.51957965
252	0xbe39b2ba	-0.18134585
253	0x3cfe3435	0.031030754
254	0x3e9814ab	0.29703268
255	0x3e85f1ea	0.26161128

VAE_Encoder.layers.0.attention.W_q.weight f4 [4, 4]
0	0xbeb6f90c	-0.35736883
1	0x3f03b7d7	0.5145239
2	0x3e97a525	0.29618183
3	0xbcddf891	-0.027096065
4	0xbd6f7ed9	-0.05847058
5	0xbe22a28f	-0.15882324
6	0xbe2f5b19	-0.17124595
7	0xbe0bf07c	-0.13665956
8	0xbe3a1265	-0.1817108
9	0xbdfb7ded	-0.12279878
10	0xbde151db	-0.11001941
11	0x3cccb89f	0.024990378
12	0xbea239e1	-0.31684783
13	0xbeec634e	-0.46169513
14	0x3eb4d5b4	0.35319293
15	0x3e50bc94	0.20384437

VAE_Encoder.layers.0.attention.W_q.bias f4 [4]
0	0xbe69cb1a	-0.22831383
1	0xbe8b3b37	-0.27193615
2	0xbcb7635a	-0.022386242
3	0x3cc4b0c2	0.024010066

VAE_Encoder.layers.0.attention.W_k.weight f4 [4, 4]
0	0x3ed16379	0.40896204
1	0x3dc94401	0.09827424
2	0x3d1ddd2c	0.038541004
3	0x3bfb7478	0.0076737963
4	0x3f143d72	0.5790626
5	0xbe3e0f2c	-0.18560475
6	0x3d9aefe9	0.075652905
7	0x3d4e48f3	0.05036254
8	0x3e82d666	0.25554198
9	0xbe9d617f	-0.30738446
10	0xbe904aae	-0.28181976
11	0xbe25cdd3	-0.16191797
12	0x3e5fec9a	0.218676
13	0xbeeb9fa6	-0.4602024
14	0xbe9ea8ac	-0.3098806
15	0xbf207ded	-0.6269215

VAE_Encoder.layers.0.attention.W_k.bias f4 [4]
0	0x392a67ed	0.00016251179
1	0x38cbe09e	9.7216325e-05
2	0xb82626f5	-3.9613766e-05
3	0xb8d09ad7	-9.947054e-05

VAE_Encoder.layers.0.attention.W_v.weight f4 [4, 4]
0	0xbdb281fb	-0.08716198
1	0x3df5276a	0.11970408
2	0x3d19e982	0.037576206
3	0x3d58ddad	0.05294578
4	0xbd77e16b	-0.06051771
5	0x3dd6c63d	0.1048703
6	0x3d255746	0.040366434
7	0x3d2d22cd	0.042269517
8	0xbd75c88a	-0.060005702
9	0x3de1d742	0.11027385
10	0x3d79463e	0.060858004
11	0x3944f830	0.00018784474
12	0xbd92c4f6	-0.071664736
13	0x3de8be63	0.113644384
14	0x3d420d01	0.047375683
15	0x3ce7b04b	0.028282305

VAE_Encoder.layers.0.attention.W_v.bias f4 [4]
0	0xbdfce519	-0.123483844
1	0x3d3170be	0.04332041
2	0x3de16b5c	0.11006805
3	0xbd2c47d5	-0.042060692

VAE_Encoder.layers.0.linear0.weight f4 [128, 4]
0	0xbe9cba3a	-0.3061083
1	0xbdf0e3ec	-0.11762223
2	0x3e1c14ad	0.15242262
3	0x3e2661c2	0.16248229
4	0xbe88e796	-0.26739186
5	0x3cd9615a	0.026535679
6	0x3eae3232	0.3402267
7	0x3e19525d	0.14972825
8	0x3da4bb93	0.080435894
9	0xbdb7e5cc	-0.08979377
10	0x3e3560ad	0.1771266
11	0xbef782d8	-0.48342013
12	0x3f22cd09	0.6359411
13	0xbf08543d	-0.5325354
14	0xbe2afe9d	-0.1669869
15	0xbc266a17	-0.01015713
16	0xbec7e6e6	-0.3904335
17	0xbe6ee36f	-0.23328947
18	0x3ef5feb6	0.48045892
19	0x3e6848b1	0.2268398
20	0xbd32a997	-0.043618765
21	0x3d912f3a	0.07089086
22	0x3edf40d0	0.43604136
23	0x3eae0d16	0.3399436
24	0xbeb45a8f	-0.3522534
25	0x3ed4385e	0.41449255
26	0xbf00a094	-0.5024502
27	0xbe86d069	-0.2633088
28	0x3e250168	0.16113818
29	0xbe5df6b6	-0.21676144
30	0xbdc4e883	-0.096146606
31	0xbea5aadc	-0.32356918
32	0xbd29c8f8	-0.041451424
33	0xbedb532d	-0.42836896
34	0x3ee81db4	0.45335162
35	0x3e9fea40	0.31233406
36	0xbe3a3a28	-0.18186247
37	0x3e6348c4	0.22195727
38	0xbe61dd58	-0.22057092
39	0xbe35e4a5	-0.17763002
40	0xbded4201	-0.11584855
41	0x3e22d2a9	0.15900673
42	0xbeb03b3a	-0.34420186
43	0x3ef7d301	0.4840317
44	0x3e52a893	0.20572118
45	0xbdcc6536	-0.09980242
46	0xbd65bdaa	-0.05608908
47	0xbf0efe4a	-0.55856764
48	0xbeac3ec6	-0.33641642
49	0xbc6714c8	-0.014104076
50	0x3e915088	0.28381753
51	0xbf070c77	-0.52753395
52	0xbe051383	-0.12995724
53	0x3dda9af8	0.10674089
54	0xbe25b1c6	-0.16181096
55	0x3f13c93c	0.57728934
56	0xbde87ebf	-0.113523
57	0xbed8d86f	-0.42352626
58	0xbec2874d	-0.3799385
59	0x3e261093	0.1621726
60	0x3ec76270	0.3894229
61	0xbe6a0261	-0.2285247
62	0xbf3a8037	-0.7285189
63	0x3ecc8140	0.3994236
64	0x3e57af91	0.21063067
65	0xbec537f5	-0.38519254
66	0x3eabb82c	0.3353895
67	0x3eff3940	0.49848366
68	0x3f2e0e46	0.6799053
69	0xbece4484	-0.40286648
70	0x3e971a4a	0.29512244
71	0xbea7f9ec	-0.32807863
72	0x3f0fa638	0.56113005
73	0xbec9981a	-0.39373857
74	0xbf055655	-0.5208486
75	0x3ea32f48	0.3187201
76	0xbe5a5fc3	-0.21325593
77	0xbb4d7d98	-0.0031355377
78	0x3d4b003a	0.049560763
79	0xbefc3105	-0.4925615
80	0x3f160210	0.585969
81	0xbe809a7e	-0.25117868
82	0xbe855010	-0.26037645
83	0xbe4097d9	-0.18807925
84	0x3dd92357	0.10602444
85	0x3ea432e0	0.32070065
86	0x3ef05518	0.4693992
87	0xbe2d48ff	-0.16922377
88	0x3e8b6487	0.27225134
89	0x3ef3959b	0.47575077
90	0xbe8b94ba	-0.27261907
91	0x3d5a2865	0.05326118
92	0x3f1911f2	0.5979301
93	0x3eb04e28	0.34434628
94	0xbe8919b6	-0.26777428
95	0xbebe583b	-0.3717669
96	0x3ea9556d	0.33072987
97	0xbe54f0f0	-0.20795035
98	0xbeba62e6	-0.3640358
99	0x3ece0dd4	0.40244925
100	0xbdf606e4	-0.12013033
101	0xbeff94bb	-0.4991816
102	0x3f06043f	0.5235023
103	0xbe630089	-0.22168173
104	0x3d81f393	0.06345286
105	0xbf0ab5de	-0.5418376
106	0x3e831837	0.25604412
107	0xbd53242d	-0.05154817
108	0xbea3c145	-0.3198339
109	0x3e832a70	0.25618315
110	0x3de17ea3	0.11010482
111	0x3ecb8bb8	0.39755034
112	0x3e9fcc8f	0.31210753
113	0x3d5cf6ac	0.053946182
114	0xbe166b42	-0.14689353
115	0x3ec74a9c	0.3892411
116	0xbe7b1faf	-0.24523805
117	0x3eac12cc	0.3360809
118	0xbeb122d4	-0.34596884
119	0xbe9ae6f4	-0.30254328
120	0x3eb5e5b2	0.35526806
121	0xbebf1921	-0.3732386
122	0x3f15d6c5	0.5853084
123	0xbe8d63af	-0.27615115
124	0xbe43ea30	-0.19132304
125	0xbdba5270	-0.09097755
126	0xbd064b20	-0.03278649
127	0xbcc81580	-0.024424314
128	0x3e5e13bb	0.21687214
129	0xbeb53b52	-0.3539682
130	0x3f08c58f	0.5342645
131	0xbe90d675	-0.28288618
132	0x3e82f068	0.2557404
133	0x3e6e3822	0.232636
134	0xbd5ac616	-0.053411566
135	0xbe14925e	-0.1450896
136	0xbdc23024	-0.09481838
137	0xbdae877d	-0.08521936
138	0x3dd5528a	0.10416134
139	0x3ebf031c	0.3730706
140	0x3ed54833	0.41656646
141	0xbeef6d3a	-0.4676302
142	0x3efe02f9	0.49611643
143	0xbe9d7c5e	-0.30758947
144	0xbe886567	-0.26639864
145	0xbeb46f85	-0.35241333
146	0x3e75b792	0.23995808
147	0xbcef149b	-0.02918463
148	0x3e787477	0.24263178
149	0xbe9e4bcb	-0.309172
150	0xbe966f7c	-0.2938193
151	0x3ea1d0e6	0.3160469
152	0xbd4b32ac	-0.04960887
153	0x3eee676a	0.46563274
154	0x3d47b85b	0.0487598
155	0xbe89b076	-0.26892442
156	0x3dba0d2c	0.090845436
157	0xbf0a530d	-0.54032975
158	0xbdaee808	-0.0854035
159	0xbeb731a8	-0.35780072
160	0xbe3d91f5	-0.1851271
161	0xbdce8107	-0.10083204
162	0xbe229afb	-0.15879433
163	0xbee5e029	-0.44897583
164	0x3da0deaa	0.0785497
165	0x3d49cf78	0.049270123
166	0xbee6646a	-0.44998485
167	0x3d912ddb	0.07088824
168	0x3f14c0da	0.5810677
169	0xbd9f57cb	-0.07780417
170	0x39e16110	0.0004298766
171	0xbf471eaa	-0.77781165
172	0x3e9f97af	0.31170413
173	0x3dcff8fe	0.10154913
174	0x3e91eb8e	0.28500026
175	0xbe578d50	-0.2105
176	0x3eaaaf5f	0.33336923
177	0xbe922160	-0.28541088
178	0x3e113b10	0.14182687
179	0x3ef9d27d	0.48793402
180	0xbef040ad	-0.46924344
181	0x3f08f277	0.5349497
182	0x3ea01596	0.3126647
183	0x3ecfe003	0.40600595
184	0xbec8ee8e	-0.39244503
185	0x3e89881a	0.2686165
186	0xbd71158f	-0.05885845
187	0xbe6d085b	-0.23147719
188	0x3ecfcf80	0.40587997
189	0x3ed0af79	0.40758875
190	0xbf20fe48	-0.62888
191	0x3e6af7a6	0.22946033
192	0xbeaebce4	-0.34128487
193	0xbe37b464	-0.17939907
194	0xbea3a938	-0.3196504
195	0xbe6cb5b4	-0.23116189
196	0xbecad7c1	-0.39617732
197	0xbe4492de	-0.1919665
198	0x3e6d7884	0.23190504
199	0xbf05cad9	-0.52262646
200	0x3d18db27	0.037318375
201	0xbef502f8	-0.47853827
202	0xbf13ce1b	-0.57736367
203	0xbd7d8f4c	-0.061904237
204	0xbd922d79	-0.071375795
205	0x3eac0686	0.33598727
206	0xbdc82020	-0.09771752
207	0x3e28ef87	0.16497622
208	0x3ec7ff47	0.3906195
209	0xbe409f50	-0.18810773
210	0xbc19d4f5	-0.009389152
211	0xbf0091a4	-0.5022223
212	0x3e2769a7	0.16348897
213	0xbc6ede90	-0.01457943
214	0x3e9b33b2	0.30312878
215	0xbe7c4667	-0.24636231
216	0xbe8d895e	-0.27643865
217	0x3d91f46f	0.071267
218	0xbe8a9a0e	-0.2707066
219	0x3d4f9af4	0.050684884
220	0xbe8c8c26	-0.27450675
221	0x3c799d0d	0.015235198
222	0x3ef21090	0.4727826
223	0xbdb5bae8	-0.0887354
224	0x3d0d8349	0.03454903
225	0x3eebad95	0.4603087
226	0x3c8ec34e	0.017427113
227	0x3eec7f31	0.4619079
228	0x3d8bbe27	0.06823378
229	0x3ec94cc2	0.39316374
230	0xbec0db2c	-0.37667215
231	0x3ec9824f	0.3935723
232	0xbcda1309	-0.026620405
233	0x3eb2530d	0.34828988
234	0xbe43c737	-0.19118963
235	0x3e702536	0.23451695
236	0x3f038772	0.5137855
237	0x3e050cb6	0.1299313
238	0xbf2d4b94	-0.6769345
239	0xbe14c6ac	-0.14528912
240	0xbec24728	-0.37944913
241	0x3eea60e2	0.4577704
242	0xbe079d36	-0.13243565
243	0xbef440a6	-0.47705573
244	0x3e1b81ad	0.15186186
245	0xbed92c27	-0.42416498
246	0x3d734885	0.059395332
247	0x3e6b798d	0.22995587
248	0xbeb139a3	-0.34614286
249	0xbf15a267	-0.5845093
250	0xbe08e2f4	-0.13367826
251	0x3ea5e48c	0.3240093
252	0x3eeeb2b4	0.46620715
253	0x3dc68e73	0.09695139
254	0x3f104bc5	0.56365615
255	0x3d029b32	0.031886287

VAE_Encoder.layers.0.linear0.bias f4 [128]
0	0xbe5988cc	-0.2124359
1	0xbe556d87	-0.20842563
2	0x3e612fb9	0.21990861
3	0xbe87c513	-0.26517543
4	0xbe036826	-0.12832698
5	0xbdd84a6f	-0.10561072
6	0xbed634e6	-0.41837233
7	0x3e1bd6ba	0.1521863
8	0x3eef2f28	0.46715665
9	0x3cd2005e	0.02563494
10	0xbe807c67	-0.2509491
11	0xbd9f79c6	-0.07786898
12	0xbe422ecc	-0.18963164
13	0x3e97966d	0.29606953
14	0xbe6c5231	-0.23078229
15	0xbe16c0e7	-0.14722024
16	0x3cc7ece5	0.024404952
17	0x3dd66df3	0.1047019
18	0xbe022ed7	-0.1271318
19	0xbdc48463	-0.09595563
20	0x3f1148a7	0.56751484
21	0xbee3ab4c	-0.44466627
22	0x3db791bd	0.08963344
23	0xbcdbca75	-0.026829937
24	0xbea9b173	-0.33143196
25	0x3dc3c67f	0.095593445
26	0x3e89f698	0.2694595
27	0xbd06dea7	-0.03292718
28	0x3ef02c59	0.46908835
29	0x3ef09dcd	0.46995392
30	0x3ecdfc9d	0.4023179
31	0xbef8fc22	-0.48629862
32	0x3ecc1c86	0.39865512
33	0x3ee5ca7a	0.4488104
34	0x3f09bbb9	0.5380207
35	0x3eb3a5a9	0.35087326
36	0x3e191efc	0.14953226
37	0xbcb27f20	-0.021789134
38	0xbe032340	-0.12806416
39	0xbe4d225d	-0.2003264
40	0x3cb8cc62	0.022558395
41	0xbdbaaf0c	-0.09115419
42	0x3cb19f6d	0.021682465
43	0x3e5ae80f	0.21377586
44	0xbe53631a	-0.20643273
45	0x3efb3a93	0.49068126
46	0x3e86d253	0.2633234
47	0xbd3157be	-0.043296568
48	0xbebfe758	-0.3748119
49	0xbeaa4d04	-0.33261883
50	0xbd6d889b	-0.057991605
51	0xbe0034aa	-0.1252009
52	0x3dde03f1	0.108405955
53	0x3d0d9fcc	0.034576222
54	0x3ea400f9	0.32031992
55	0xbe2bc2f0	-0.16773582
56	0x3ea5a20b	0.3235019
57	0xbeb519c5	-0.35371223
58	0x3e456d96	0.19280085
59	0x3db5cadd	0.08876584
60	0x3ef8d0f4	0.4859692
61	0xbea1280c	-0.31475866
62	0xbcee2436	-0.029070001
63	0x3e8ace13	0.27110347
64	0xbc938519	-0.018007802
65	0xbdebb265	-0.115086354
66	0xbe06d381	-0.1316662
67	0xbdb9d514	-0.090738446
68	0x3e074542	0.13210014
69	0x3e901573	0.28141364
70	0xbe4b3254	-0.19843417
71	0x3ea83bb8	0.32858062
72	0x3cd3df77	0.025863392
73	0x3c2de79b	0.010614301
74	0x3e8b8643	0.2725087
75	0xbdc10eae	-0.09426628
76	0xbe0e034d	-0.13868447
77	0xbe1428a5	-0.1446863
78	0x3dd32983	0.10310652
79	0x3eb85ad6	0.36006802
80	0xbbd5be6b	-0.0065229437
81	0xbedbbc6c	-0.42917192
82	0x3ee9e36b	0.4568132
83	0x3cff7d2a	0.031187613
84	0xbedf77e1	-0.43646148
85	0xbd7e8f32	-0.06214828
86	0x3e9aed32	0.3025909
87	0x3ef92b23	0.48665723
88	0x3c1ac129	0.009445467
89	0xbea54976	-0.3228261
90	0x3cb687e8	0.022281602
91	0xbe8fb2f9	-0.28066233
92	0xbdd3e0de	-0.103456244
93	0x3ecf5200	0.4049225
94	0xbe8ef9fb	-0.27925095
95	0x3e5c11c1	0.21491148
96	0x3e0be833	0.13662796
97	0x3e20ff06	0.15722284
98	0x3eb54f17	0.35411903
99	0x3efaf72e	0.49016708
100	0x3e76a851	0.24087645
101	0x3de88dc8	0.113551676
102	0xbd7bb992	-0.06145627
103	0xbd2d873b	-0.042365294
104	0x3e5d24cd	0.2159607
105	0x3d65be54	0.056089714
106	0x3ea48df0	0.3213954
107	0xbeb9ad95	-0.36265245
108	0x3c0ee4a5	0.008721505
109	0xbe468f0f	-0.1939051
110	0x3d10d5a1	0.035359982
111	0x3ecc290e	0.39875072
112	0x3e3dfd9c	0.18553776
113	0xbe92c3cd	-0.2866501
114	0xbd899c86	-0.067193076
115	0x3ee3aa8f	0.44466063
116	0xbed78378	-0.4209249
117	0x3de97ade	0.11400388
118	0x3e09c565	0.13454206
119	0x3ee0d2d8	0.4391086
120	0x3ebf3da8	0.37351727
121	0xbe84c854	-0.25934088
122	0xbec74711	-0.38921407
123	0xbeed3eda	-0.46337014
124	0x3ee70e2c	0.45128
125	0xbde70088	-0.11279398
126	0xbe52edb3	-0.20598488
127	0x3e9a0699	0.3008316

VAE_Encoder.layers.0.linear1.weight f4 [4, 128]
0	0x3db9a699	0.09064979
1	0xbccfd3b4	-0.025369503
2	0x3e2b54ca	0.16731563
3	0x3e2ff2b6	0.1718243
4	0x3d1d897a	0.038461186
5	0xbd51fff2	-0.05126948
6	0x3e3f3053	0.18670778
7	0x3e3eeabc	0.18644232
8	0x3cab99a3	0.020947283
9	0xbd2916f8	-0.04128167
10	0x3e1cc710	0.15310311
11	0x3d9eff0c	0.0776349
12	0xbcb7e0af	-0.022446005
13	0x3cd92d88	0.026510969
14	0x3e04edc7	0.1298133
15	0x3e81453a	0.25248128
16	0x3d14ffe5	0.036376853
17	0x3ce367f5	0.027759532
18	0x3e597599	0.21236266
19	0x3d0e2d7d	0.03471135
20	0x3dd524c2	0.104074016
21	0x3ba8771d	0.0051411525
22	0x3e3e829a	0.18604508
23	0x3ccf1b2e	0.025281515
24	0x3e5f2638	0.21791923
25	0xbdc3f578	-0.09568304
26	0xbc724853	-0.014787751
27	0xbd207ddd	-0.039182533
28	0x3dcf17c9	0.101119585
29	0x3db122ea	0.086492375
30	0xbdcb658d	-0.09931479
31	0xbc2c1aa1	-0.010504396
32	0x3cd44f51	0.025916727
33	0x3ce3f6e6	0.027827691
34	0xbca43e3f	-0.020049213
35	0x3ded5a19	0.115894504
36	0x3d5a3441	0.05327249
37	0x3d6466b4	0.055762008
38	0x3dc10627	0.094250016
39	0x3e28f18e	0.16498396
40	0x3d446100	0.04794407
41	0xbd080639	-0.03320906
42	0x3e42d84c	0.19027823
43	0x3d90c417	0.07068651
44	0x3ba21686	0.0049465327
45	0xbcb359d3	-0.021893417
46	0xbc5310cd	-0.012882424
47	0x3e151abc	0.1456098
48	0xbdadd6ff	-0.08488273
49	0x3c9a0ddd	0.018805439
50	0x3e92d549	0.2867835
51	0xbddc9619	-0.10770816
52	0x3dd8900e	0.10574351
53	0x3d9da574	0.07697573
54	0xbc99fabf	-0.018796323
55	0x3e308b5e	0.17240664
56	0x3df75183	0.12076094
57	0x3d64a270	0.055818975
58	0x3d89b339	0.06723637
59	0x3e36ea39	0.17862786
60	0xbb8aa621	-0.00423123
61	0xbe26a8d7	-0.16275345
62	0x3d613b3a	0.054988123
63	0xbd836474	-0.06415644
64	0xbc18a4e2	-0.009316655
65	0x3e4d820d	0.20069142
66	0x3daa48a1	0.08314634
67	0xbd6ba8e7	-0.057534125
68	0x3e6ff396	0.23432764
69	0xbd275aa0	-0.04085791
70	0x3e64ad07	0.2233163
71	0x3e2e05fb	0.16994469
72	0x3d4a1746	0.0493386
73	0x3e3b0184	0.18262297
74	0xbd6ada08	-0.057336837
75	0x3e071213	0.13190489
76	0xbd1f11e2	-0.038835414
77	0x3da6073a	0.08106847
78	0x3d14a129	0.036286507
79	0x3ddebd04	0.108758956
80	0x3b8a0dc2	0.004213066
81	0x3cbaf93f	0.022823928
82	0x3d288a25	0.04114737
83	0x3e4b5a93	0.1985877
84	0xbd1cff86	-0.038329624
85	0x3e6e9012	0.23297146
86	0xbdbc9f50	-0.09210074
87	0xbbed87d6	-0.007248859
88	0xbcb9ce8e	-0.0226815
89	0x3e84d850	0.25946283
90	0x3d84cbf7	0.06484216
91	0x3d7ceb8d	0.061748076
92	0x3dc0ed94	0.094203144
93	0x3cfa613d	0.030563945
94	0x3dd38699	0.10328407
95	0x3d2ab96f	0.04168075
96	0x3d56b9bb	0.05242322
97	0x3d784ce5	0.060620207
98	0x3d141c0c	0.03615956
99	0x3d8fe2bd	0.07025669
100	0x3b4f759b	0.0031655792
101	0xbd7c3d07	-0.061581638
102	0xbbc8858b	-0.006119435
103	0x3c9a514d	0.018837595
104	0x3d67e660	0.056616187
105	0xbde2508f	-0.110505216
106	0xbd412cb8	-0.047161788
107	0xbbb73443	-0.005590947
108	0xbd2131de	-0.039354198
109	0xbc1a2a51	-0.009409503
110	0xbdc395b5	-0.09550039
111	0x3dea4936	0.11439745
112	0x3d492f28	0.049117237
113	0x3e200c05	0.15629585
114	0x3e483e1e	0.19554946
115	0x3dd711bf	0.10501432
116	0x3e5e9f49	0.2174045
117	0x3d8585fb	0.06519695
118	0x3cd32b07	0.025777353
119	0x3d7805c2	0.060552366
120	0x3cf5c34b	0.03000035
121	0xbdf83d88	-0.12121111
122	0xbd96e478	-0.07367796
123	0x3d66858e	0.05627971
124	0xbc8f9f4a	-0.01753201
125	0x3e288066	0.1645523
126	0x3d84b781	0.06480313
127	0x3d753698	0.059866518
128	0x3d0cfa9a	0.03441868
129	0x3d9420a9	0.07232792
130	0x3e3f73ae	0.18696472
131	0xbdc2ff3c	-0.09521338
132	0x3bc8d85d	0.006129308
133	0x3d9f8311	0.07788671
134	0xbd0e92ad	-0.03480785
135	0x3d31efb4	0.04344149
136	0x3b8324f6	0.004002209
137	0x3d0a2081	0.033722404
138	0x3d8f768c	0.07005033
139	0x3e2c4836	0.16824421
140	0x3e2e76ee	0.17037556
141	0xbc82c880	-0.015964746
142	0xbe0ac726	-0.13552532
143	0xbdc8c362	-0.09802891
144	0x3c8c7064	0.017143436
145	0xbc9d39fe	-0.019192692
146	0x3d8e19ea	0.069385365
147	0x3d6a09a2	0.057138093
148	0x3d4e5789	0.05037645
149	0x3db4e223	0.08832195
150	0x3d6d5883	0.05794574
151	0x3e52714d	0.20551033
152	0x3cd08675	0.02545474
153	0x3d57508b	0.052567046
154	0xbdbcdbd1	-0.09221614
155	0xbd1cbe1c	-0.03826724
156	0x3d4d38d8	0.05010304
157	0x3db36b81	0.08760739
158	0x3d804afe	0.062643036
159	0x3d2c5130	0.042069614
160	0x3db76f55	0.08956782
161	0x3d1ec50f	0.03876215
162	0xbd86e887	-0.0658732
163	0x3c13f928	0.009031571
164	0x3d1289b1	0.035775844
165	0x3dca8fda	0.09890719
166	0xbd6ec70a	-0.058295287
167	0xbe42909b	-0.19000475
168	0x3e5770df	0.2103915
169	0xbc870fa7	-0.016486956
170	0x3e8cf496	0.27530354
171	0x3d45fa38	0.04833433
172	0x3dafe875	0.085892595
173	0xbc8b3a06	-0.016995441
174	0x3c10bbb0	0.008833811
175	0xbc11c173	-0.00889622
176	0x3b02084a	0.0019841366
177	0x3e1b5ef6	0.15172943
178	0xbda50139	-0.08056874
179	0x3d08d029	0.033401642
180	0x3d27fb4f	0.04101115
181	0x3e25cde7	0.16191827
182	0xbde36576	-0.111033365
183	0xbd701ee7	-0.05862322
184	0xbd376bd9	-0.044780586
185	0x3cab4664	0.020907588
186	0xbd1528a2	-0.036415704
187	0x3e810278	0.25197196
188	0x3e2a8148	0.1665088
189	0x3e27c689	0.16384329
190	0xbe3728b2	-0.17886618
191	0x3e0bfbb5	0.13670237
192	0x3d9676ee	0.07346903
193	0x3d093794	0.03350027
194	0x3da21a2c	0.07915148
195	0x3d3d9694	0.04628618
196	0xbcaa7dd8	-0.02081196
197	0x3c957436	0.01824389
198	0x3d48134f	0.04884654
199	0xbc28f882	-0.010313155
200	0x3dd7e528	0.10541755
201	0xbca93a2d	-0.020657623
202	0xbd2f077f	-0.04273176
203	0xbdb84c51	-0.08998931
204	0xbd8b8b5c	-0.0681369
205	0x3dba0207	0.09082418
206	0x3ddca2eb	0.10773262
207	0x3e16c2b7	0.14722715
208	0x3bc3070d	0.0059517683
209	0xbe054f7b	-0.130186
210	0x3c09b39b	0.008404638
211	0x3c8a6b85	0.016896972
212	0x3e171558	0.14754236
213	0xbd5f9971	-0.054589693
214	0x3d4c8861	0.04993475
215	0x3c2fe459	0.010735595
216	0xbe0986ff	-0.13430403
217	0x3e038c10	0.12846398
218	0x3dda371d	0.10655043
219	0x3e124d5a	0.1428732
220	0x3e1d8f09	0.15386595
221	0x3e0811ee	0.1328809
222	0x3c58a876	0.013223758
223	0x3e2e7aba	0.17039004
224	0x3df82888	0.12117106
225	0xbdc93a2e	-0.0982555
226	0xbdb0c884	-0.08631995
227	0x3ddf25fe	0.10895918
228	0x3e138269	0.14405216
229	0xbdd9f572	-0.10642518
230	0x3d8638b6	0.065537855
231	0xbd101d38	-0.035184115
232	0x3dbf9a6f	0.09355628
233	0xbc61411a	-0.013748432
234	0x3d201af7	0.039088216
235	0x3ec48547	0.38382933
236	0x3d696a51	0.056986157
237	0x3ea84f63	0.32873067
238	0xbd247731	-0.040152732
239	0xbd853b1b	-0.06505414
240	0x3c50dde6	0.012748217
241	0xbe2e4992	-0.17020252
242	0x3e460f42	0.19341758
243	0xbd98f28b	-0.074681364
244	0xbd90c588	-0.07068926
245	0xbd0b611d	-0.03402816
246	0x3c909022	0.017646853
247	0xbd17c629	-0.037054215
248	0x3d1414fc	0.036152825
249	0x3dafc43a	0.08582349
250	0xbd71d265	-0.05903854
251	0xbdd41b07	-0.103567176
252	0x3e4ddc24	0.20103508
253	0x3e14de81	0.14538004
254	0x3eb096c1	0.34490016
255	0x3e3452aa	0.17609659

VAE_Encoder.layers.0.linear1.bias f4 [4]
0	0x3c9d4f7e	0.019202944
1	0xbd16a8d8	-0.036782116
2	0x3d10ad14	0.03532131
3	0x3cf450d8	0.029823706

VAE_Encoder.layers.0.norm1.weight f4 [4]
0	0x3f9a4bf9	1.2054435
1	0x3f998982	1.1995089
2	0x3fa35886	1.276139
3	0x3f93f5fb	1.1559442

VAE_Encoder.layers.0.norm1.bias f4 [4]
0	0x3ccf57de	0.025310453
1	0x3d3b4399	0.045718763
2	0xbd64bde0	-0.05584514
3	0x3daf66c6	0.08564524

VAE_Encoder.layers.1.attention.W_q.weight f4 [4, 4]
0	0xbe9499c2	-0.29023558
1	0x3c3061e7	0.010765529
2	0xbe83070b	-0.2559131
3	0x3f170921	0.58998305
4	0xbe964ccb	-0.29355463
5	0xbe557a24	-0.20847374
6	0xbeba2ee4	-0.363639
7	0xbe9b73d0	-0.30361795
8	0xbef5bf98	-0.47997737
9	0x3e9c3652	0.30510193
10	0xbea44382	-0.32082754
11	0x3f09b419	0.5379043
12	0xbe927026	-0.28601187
13	0xbe462072	-0.19348314
14	0x3f04f681	0.51938635
15	0xbf1fd30d	-0.6243141

VAE_Encoder.layers.1.attention.W_q.bias f4 [4]
0	0x3e5d9730	0.21639705
1	0xbe9ac291	-0.30226567
2	0x3eccd907	0.4000933
3	0xbe61c7d6	-0.22048888

VAE_Encoder.layers.1.attention.W_k.weight f4 [4, 4]
0	0xbef0785a	-0.4696682
1	0x3e09c213	0.1345294
2	0x3e0e54a5	0.13899477
3	0x3f083861	0.5321103
4	0xbebb6f75	-0.36608472
5	0x3e164171	0.14673401
6	0xbcd039a4	-0.02541811
7	0xbf0019e4	-0.50039506
8	0xbe8865c8	-0.26640153
9	0xbed2c996	-0.41169423
10	0x3ea1d23a	0.31605703
11	0x3f27a605	0.654877
12	0x3f016399	0.505426
13	0x3edb3b5b	0.42818722
14	0xbf08b7e4	-0.53405595
15	0xbe7c1bb1	-0.24619938

VAE_Encoder.layers.1.attention.W_k.bias f4 [4]
0	0x3985fcb3	0.00025556012
1	0xb8531926	-5.032974e-05
2	0x39073d54	0.0001289745
3	0x39d4fa46	0.0004062226

VAE_Encoder.layers.1.attention.W_v.weight f4 [4, 4]
0	0x3ecc5489	0.39908245
1	0xbe72eec2	-0.23723891
2	0x3eed9a11	0.46406606
3	0x3f0b8e37	0.5451388
4	0x3e3cdefa	0.18444434
5	0xbd6361f6	-0.055513345
6	0x3ea1f719	0.31633833
7	0x3e5ec043	0.2175303
8	0x3e82d4ad	0.25552884
9	0xbe0430b4	-0.12909204
10	0x3e9f1b87	0.3107569
11	0x3de09215	0.10965363
12	0xbe45097e	-0.19241902
13	0xbe92584d	-0.28582993
14	0x3de70ffe	0.11282347
15	0xbbd2ba83	-0.0064309253

VAE_Encoder.layers.1.attention.W_v.bias f4 [4]
0	0x3d937045	0.07199148
1	0x3cd19984	0.025585897
2	0x3c086d6d	0.00832687
3	0xbc1aeae7	-0.009455419

VAE_Encoder.layers.1.linear0.weight f4 [128, 4]
0	0xbe4c7efc	-0.19970316
1	0x3f5473c8	0.8298917
2	0xbf011afc	-0.504318
3	0xbdea9bb3	-0.114554785
4	0xbe81836b	-0.25295576
5	0x3ece5bf4	0.4030453
6	0xbf0e9004	-0.556885
7	0x3d88faf9	0.06688494
8	0xbf0bc3f4	-0.54595876
9	0xbf055d11	-0.52095133
10	0x3f29ede6	0.6637863
11	0xbe87b9e7	-0.2650902
12	0x3ea7299c	0.32648933
13	0x3ebfebb1	0.37484506
14	0xbed406ed	-0.41411534
15	0x3d2d4cdd	0.04230963
16	0xbe66937d	-0.225172
17	0x3f3ddaad	0.741618
18	0xbec12073	-0.3772007
19	0xbd484051	-0.048889462
20	0x3ee6d4a6	0.45084113
21	0xbba35aee	-0.004985205
22	0x3e9024df	0.2815313
23	0xbe83e9e5	-0.25764385
24	0xbe1bc7cc	-0.15212935
25	0xbf0f78e9	-0.5604387
26	0xbe3ab08c	-0.1823141
27	0x3f04a91c	0.5182054
28	0xbefccc3e	-0.49374574
29	0xbf31ef71	-0.69505984
30	0xbeae0d51	-0.33994535
31	0x3cafa1f8	0.021439537
32	0xbef105ab	-0.47074637
33	0x3eca72a2	0.39540583
34	0xbd926c3f	-0.071495526
35	0xbf2648a7	-0.6495461
36	0xbd2e3f39	-0.042540763
37	0xbf032d67	-0.51241153
38	0x3ea4d6b8	0.32195067
39	0xbed638e3	-0.41840276
40	0x3e5ba4b2	0.21449545
41	0x3eefbcf9	0.46823862
42	0xbd8fdf2a	-0.07024987
43	0xbec2431b	-0.37941822
44	0x3e8ae539	0.27128008
45	0xbca8161a	-0.020518351
46	0x3e84fd9c	0.2597474
47	0xbef2ad7c	-0.47397983
48	0xbdf0652e	-0.117380485
49	0xbdd785b8	-0.10523552
50	0x3e56e603	0.2098618
51	0xbe5fde1a	-0.21862069
52	0x3e925a6a	0.28584605
53	0x3f0ac51f	0.5420703
54	0xbf102058	-0.5629935
55	0xbe85698d	-0.2605709
56	0xbda829d6	-0.082111046
57	0x3ebecf1b	0.37267384
58	0x3eaad7a8	0.33367658
59	0xbed854c9	-0.42252186
60	0x3ea8dc36	0.32980508
61	0x3ef4f557	0.4784343
62	0xbd2aa841	-0.041664366
63	0xbed768e3	-0.4207221
64	0x3ee7d024	0.45275986
65	0xbea4453d	-0.32084075
66	0xbe746a4e	-0.23868677
67	0x3ea2fa57	0.3183162
68	0xbe7e1c0b	-0.24815385
69	0x3f38ce62	0.72189915
70	0xbe92e3f6	-0.28689545
71	0xbe8bf483	-0.27334985
72	0x3e9912b6	0.29897088
73	0xbee6bc72	-0.45065647
74	0xbf00d84e	-0.50330055
75	0x3df61f09	0.12017638
76	0xbde850c3	-0.11343529
77	0x3df2c18d	0.11853323
78	0xbebf65e8	-0.37382436
79	0x3ed4fed3	0.41600665
80	0xbe2db128	-0.16962111
81	0xbdc5c8cb	-0.09657439
82	0x3f08322d	0.5320156
83	0xbde901f1	-0.113773234
84	0x3ee335d4	0.44377005
85	0xbf2671cd	-0.65017396
86	0xbe398204	-0.18116003
87	0x3f128f81	0.5725022
88	0x3ed4c628	0.4155743
89	0x3e148fcb	0.14507978
90	0x3eb5db29	0.35518768
91	0xbf25e209	-0.6479803
92	0x3d70a289	0.058748756
93	0xbe972d63	-0.29526815
94	0xbf0fde48	-0.5619855
95	0x3e243c5b	0.16038649
96	0x3ea62232	0.32447964
97	0xbeeb283e	-0.4592914
98	0x3efb1bc8	0.49044633
99	0xbf025cef	-0.50923055
100	0x3ec8b6e2	0.3920203
101	0x3e288942	0.1645861
102	0x3ecc5481	0.3990822
103	0xbefa8219	-0.48927382
104	0xbe2f4841	-0.17117406
105	0xbef5ad01	-0.47983554
106	0xbf18a3d9	-0.5962501
107	0x3e106795	0.14102013
108	0x3ec99e15	0.3937842
109	0x3dc4d50b	0.09610947
110	0xbeda7ca2	-0.42673212
111	0x3f01cca4	0.5070288
112	0xbea92272	-0.33034092
113	0x3efee862	0.4978667
114	0x3e98bc3c	0.2983111
115	0x3de459e0	0.11149955
116	0xbf005832	-0.50134575
117	0xbee68a2c	-0.45027292
118	0x3d215691	0.039389197
119	0xbda3f49f	-0.08005642
120	0x3e52a0d2	0.2056916
121	0x3f27aa8f	0.65494627
122	0xbf00068f	-0.5001001
123	0xbeca27ef	-0.39483592
124	0x3eb3de2e	0.35130447
125	0x3e6ac5d6	0.22927031
126	0x3e6b8dd7	0.23003326
127	0xbe913b7e	-0.283657
128	0xbeabc16d	-0.3354601
129	0x3e90e42a	0.28299075
130	0xbecbdea8	-0.3981831
131	0xbe9ffbc2	-0.31246763
132	0x3b96386c	0.0045843627
133	0x3f884326	1.0645492
134	0xbf09d8a3	-0.53846186
135	0xbf1783f1	-0.591857
136	0x3e5909f4	0.21195203
137	0x3e80a427	0.25125238
138	0x3e1636da	0.14669362
139	0xbe608aff	-0.21928023
140	0x3f14e20e	0.5815743
141	0x3d8e2be1	0.06941963
142	0x3e8d0f05	0.27550521
143	0x3eca5687	0.3951914
144	0x3f29f002	0.6638185
145	0x3f1330eb	0.5749652
146	0x3e6ba246	0.23011121
147	0xbeb002f7	-0.34377262
148	0xbe8bcbb0	-0.2730384
149	0x3e75ab7c	0.23991197
150	0x3e2889e6	0.16458854
151	0x3ec110e2	0.37708193
152	0x3e8277d6	0.25482053
153	0xbdd41da5	-0.10357217
154	0xbefaec45	-0.49008384
155	0x3ea24589	0.31693676
156	0xbe407da6	-0.18797931
157	0xbeab1695	-0.33415666
158	0xbeec0368	-0.4609635
159	0x3e333f25	0.17504556
160	0x3d7950f4	0.06086822
161	0x3f398216	0.7246412
162	0xbd323850	-0.043510735
163	0x3e18be3f	0.14916323
164	0xbd606049	-0.054779325
165	0x3f020776	0.50792634
166	0xbe0920e4	-0.13391453
167	0xbebea7d5	-0.3723742
168	0xbedbc7ff	-0.42926022
169	0x3d2f271f	0.04276192
170	0x3f2056e7	0.626326
171	0xbd41d76a	-0.047324575
172	0x3f21873b	0.6309697
173	0x3f0408e4	0.51576066
174	0xbe6b23c1	-0.22962858
175	0xbf078c06	-0.52948034
176	0x3f010924	0.5040457
177	0x3ecef278	0.40419364
178	0xbe93a124	-0.28833878
179	0x3e538d6b	0.20659415
180	0xbf0fdaa6	-0.56193006
181	0xbe70efad	-0.23528929
182	0xbf34d09d	-0.7063082
183	0xbd1d5501	-0.038411144
184	0xbee11667	-0.43962404
185	0x3ecd611d	0.40113154
186	0xbe22002f	-0.15820383
187	0xbdffefb9	-0.12496895
188	0xbef1915d	-0.47181216
189	0x3d0d8a26	0.034555577
190	0xbf148437	-0.58014244
191	0x3e89e887	0.26935217
192	0x3ed56e13	0.41685542
193	0xbed58013	-0.41699275
194	0xbee9814d	-0.4560646
195	0x3ea886b7	0.3291528
196	0x3ec92f6c	0.39293993
197	0x3ef2c5f3	0.47416648
198	0xbf1d73e6	-0.6150497
199	0x3e52730e	0.20551702
200	0x3f14dc3e	0.5814856
201	0x3ea564dd	0.32303515
202	0xbf2e0b93	-0.6798641
203	0xbe1d4e51	-0.15361907
204	0x3edb7185	0.42860046
205	0xbe799cd2	-0.24376228
206	0xbec56e3b	-0.38560662
207	0x3ef49d0c	0.47776067
208	0x3e76e80c	0.24111956
209	0x3e4bb479	0.19893064
210	0x3e74e25d	0.23914476
211	0xbf0dcd6f	-0.5539159
212	0x3e94d1ed	0.2906641
213	0x3f234503	0.6377718
214	0xbf22d444	-0.6360514
215	0x3e6d0fe0	0.23150587
216	0x3e1922b4	0.14954644
217	0xbeab664d	-0.33476487
218	0xbda31d97	-0.07964628
219	0xbe8f0978	-0.27936912
220	0x3df99a57	0.12187641
221	0xbedda37b	-0.43288788
222	0xbec08976	-0.37604874
223	0xbe9f2a82	-0.31087118
224	0x3ee81b10	0.45333147
225	0xbdb8e7af	-0.09028565
226	0xbf190150	-0.5976763
227	0x3edabb44	0.42720997
228	0xbe918d44	-0.2842809
229	0x3e4b5b5b	0.19859068
230	0xbebd6c8f	-0.36996886
231	0x3ea95b07	0.3307726
232	0xbec7a468	-0.3899262
233	0x3c4a6710	0.012353674
234	0x3ea662a0	0.3249712
235	0xbee3b6c1	-0.44475368
236	0x3ec1bf45	0.3784124
237	0x3f3b48f8	0.73158216
238	0x3a873b0b	0.0010317279
239	0x3e9cd453	0.3063074
240	0x3f076e0f	0.5290231
241	0x3ecf7c14	0.40524352
242	0x3dc6ceaf	0.097073905
243	0x3cdc8f6f	0.026923863
244	0x3e147869	0.14499058
245	0xbec8dda3	-0.39231595
246	0xbe0f6bf0	-0.14006019
247	0x3ebc0356	0.36721295
248	0x3ed64398	0.41848445
249	0x3cd9a2d5	0.026566902
250	0x3e8966c6	0.26836222
251	0x3e9e3873	0.30902442
252	0xbd2531b3	-0.0403306
253	0x3f20409e	0.625986
254	0x3eb7f487	0.35928747
255	0xbeb76679	-0.35820368

VAE_Encoder.layers.1.linear0.bias f4 [128]
0	0x3eacf1a7	0.33778116
1	0x3e8c64d2	0.2742067
2	0xbebda10c	-0.37036932
3	0x3f07fc9f	0.53119844
4	0x3eebf509	0.46085384
5	0x3eda456a	0.42631084
6	0x3e86e5c6	0.26347178
7	0xbe72d021	-0.23712207
8	0xbc613a84	-0.013746861
9	0xbf16ef1a	-0.5895859
10	0xbdaa80cc	-0.08325347
11	0x3dac934b	0.084265314
12	0xbecf9c03	-0.40548715
13	0xbd1fd044	-0.039016977
14	0x3dff76c8	0.124738276
15	0xbc815261	-0.015786352
16	0x3d8f0359	0.069830604
17	0xbe8dc014	-0.27685606
18	0x3d24f615	0.040273745
19	0x3f0aa07b	0.54151124
20	0x3e7c40b7	0.24634062
21	0xbe985318	-0.29750896
22	0xbd084d85	-0.033277053
23	0x3f0c0b82	0.5470506
24	0xbeb770f8	-0.35828376
25	0xbe539d55	-0.20665486
26	0xbebf7743	-0.37395677
27	0x3de067df	0.10957312
28	0x3b6554b4	0.0034993114
29	0xbca1311b	-0.019676736
30	0x3f211cbe	0.6293448
31	0x3e4a1842	0.19735816
32	0x3e907479	0.28213862
33	0xbe7121e2	-0.23548082
34	0xbd8e5afb	-0.06950947
35	0x3ea26d7f	0.31724164
36	0xbe68b43d	-0.22725005
37	0x3e8164f5	0.25272337
38	0x3ee061de	0.43824667
39	0x3f04e552	0.51912415
40	0x3eaf99eb	0.34297118
41	0xbd84a0e8	-0.06476003
42	0x3da9b1af	0.082858436
43	0xbc799d48	-0.015235253
44	0x3ef7fd15	0.48435274
45	0xbe4d676a	-0.2005898
46	0x3e4b5b64	0.19859082
47	0xbe8776b1	-0.26457742
48	0x3e03e023	0.1287847
49	0x3ea6caf4	0.32576716
50	0x3e835ed4	0.25658286
51	0x3e3ea4ce	0.18617555
52	0x3e5242f8	0.20533359
53	0x3e29770d	0.1654932
54	0x3ccbeb4a	0.024892468
55	0x3efb5f64	0.49096215
56	0xbc94276a	-0.0180852
57	0x3e9fcadf	0.31209466
58	0x3d196575	0.037450273
59	0x3ef3a9e5	0.47590557
60	0x3e739dcf	0.23790668
61	0x3e919acd	0.28438416
62	0x3ec9d069	0.39416817
63	0x3e8b3c03	0.27194223
64	0xbc94bbe4	-0.018156
65	0xbdec5b51	-0.11540855
66	0xbdc896be	-0.09794377
67	0x3ecacef3	0.39611015
68	0x3e89227d	0.26784125
69	0xbea7a920	-0.3274622
70	0x3e27f63d	0.16402526
71	0xbe9a1e78	-0.3010137
72	0x3f153eac	0.58298755
73	0x3e34ee0a	0.1766893
74	0x3dc4157e	0.09574412
75	0x3f0b3d11	0.54390055
76	0xbdeb15f5	-0.11478797
77	0xbd8d902c	-0.06912264
78	0xbebec576	-0.37260026
79	0x3cada7bf	0.021198152
80	0x3e271502	0.16316608
81	0x3e1cc55c	0.15309662
82	0xbee8e9be	-0.4549083
83	0x3edcf516	0.43155736
84	0xbebc6eb0	-0.36803198
85	0x3ea106e8	0.31450582
86	0x3f02c2f7	0.5107874
87	0x3e903c85	0.28171173
88	0xbe65826e	-0.22413036
89	0x3eae17d6	0.3400256
90	0x3e047fe9	0.12939419
91	0x3eceec24	0.40414536
92	0xbe23a3f3	-0.1598051
93	0x3db45829	0.08805878
94	0xbead55c4	-0.33854496
95	0x3f01c9ca	0.5069853
96	0xbda55cd2	-0.08074345
97	0x3ee3d2d4	0.44496787
98	0xbe1609fa	-0.14652243
99	0x3ca30409	0.019899385
100	0xbd6676ee	-0.056265764
101	0x3eadb212	0.3392492
102	0x3e6efc30	0.2333839
103	0x3f242718	0.6412215
104	0xbe41fe63	-0.18944697
105	0x3da7ba0a	0.08189781
106	0x3f1d673f	0.61485666
107	0xbdb1d43d	-0.08683059
108	0x3c8d5375	0.01725171
109	0x3e98f5a3	0.29874906
110	0x3efb7dcd	0.49119416
111	0x3eafcaff	0.3433456
112	0xbeca2ea5	-0.39488712
113	0xbeb9c720	-0.36284733
114	0x3e764d81	0.24053003
115	0x3f102a20	0.5631428
116	0x3e2d9785	0.16952331
117	0xbe60a948	-0.21939576
118	0x3e9e2cb1	0.30893472
119	0x3ecca980	0.39973068
120	0x3f03e06c	0.51514316
121	0x3c3303db	0.010926212
122	0x3eb7ef0d	0.3592457
123	0x3d6d75e3	0.057973754
124	0x3ee4a5d9	0.44657782
125	0xbe92c117	-0.2866294
126	0x3efb3e96	0.49071187
127	0x3ee584fe	0.44828027

VAE_Encoder.layers.1.linear1.weight f4 [4, 128]
0	0x3d8343bd	0.064094044
1	0x3db01793	0.085982464
2	0x3e8f7fd7	0.28027222
3	0x3e6bc48a	0.23024192
4	0x3d8ed5e3	0.069743894
5	0x3d1df79b	0.038566213
6	0x3db1eedb	0.08688136
7	0x3c94394f	0.018093733
8	0x3d9a83f0	0.07544696
9	0x3e4d40cb	0.20044248
10	0x3d176b7c	0.03696774
11	0x3e50ca9a	0.20389786
12	0x3e2f7a37	0.17136465
13	0x3cc1b938	0.02364789
14	0x3e1ffd10	0.1562388
15	0x3e2416f2	0.16024378
16	0x3e8cc742	0.27495772
17	0x3f0c851e	0.5489062
18	0x3e42f948	0.19040406
19	0x3e3285d2	0.17433861
20	0x3dec201c	0.11529562
21	0x3e4779b1	0.19480015
22	0x3e17d5ea	0.14827695
23	0x3e5326e1	0.206203
24	0x3db2636e	0.08710371
25	0x3de635a7	0.11240702
26	0x3e26db8f	0.16294692
27	0x3e42deb8	0.19030273
28	0x3d0e1725	0.03469004
29	0xbddb685b	-0.107132636
30	0x3e2beac7	0.16788779
31	0x3e1fac04	0.15592963
32	0x3d6e05d5	0.05811103
33	0x3ee45894	0.4459883
34	0x3e083ef1	0.1330526
35	0x3d9b886b	0.07594379
36	0x3d7ff049	0.062485013
37	0x3db20eb4	0.08694211
38	0x3e6425dc	0.22280067
39	0x3e335705	0.17513664
40	0x3cf671ca	0.030083556
41	0x3dcaa241	0.09894229
42	0x3d1ee2aa	0.038790382
43	0x3cf51763	0.029918378
44	0x3e7dacca	0.24772945
45	0xbd8bcdcd	-0.06826363
46	0x3db3bcb1	0.087762244
47	0xbdc9e58c	-0.09858236
48	0x3e0ee175	0.13953193
49	0x3e93d92d	0.2887663
50	0x3e4f3e35	0.20238574
51	0x3e7c20d8	0.24621904
52	0x3d0a67a3	0.033790242
53	0x3e99d568	0.3004563
54	0x3e2fc092	0.17163303
55	0x3e06c44a	0.13160816
56	0x3e95c825	0.2925426
57	0x3b2e360f	0.0026582514
58	0x3e492af2	0.19645289
59	0x3e0e95e0	0.1392436
60	0x3e23e9db	0.16007178
61	0x3e04bb03	0.12961964
62	0x3de59b4c	0.11211261
63	0x3d4b34a6	0.049610756
64	0x3ec05c79	0.3757055
65	0xbe1dc287	-0.15406238
66	0x3f1be504	0.60896325
67	0x3d4d2183	0.050080787
68	0x3e515ea9	0.20446266
69	0x3e94d100	0.29065704
70	0x3dd4fce2	0.10399796
71	0x3e96f5dd	0.29484454
72	0x3cc68ac7	0.024236096
73	0x3e04f99a	0.1298584
74	0xbd6f1423	-0.058368813
75	0x3e7c0165	0.24609907
76	0x3e8a695b	0.27033505
77	0x3ceb5ed2	0.028731737
78	0x3e935cac	0.2878164
79	0x3e945a7a	0.28975278
80	0x3da04d5b	0.078272544
81	0x3ded8030	0.115967155
82	0x3ea010c4	0.3126279
83	0x3e2ce47a	0.16884032
84	0x3ec0dda5	0.376691
85	0xbd7a64ff	-0.061131474
86	0x3e849e42	0.2590199
87	0x3e4464a1	0.19179012
88	0x3f14bbbe	0.5809897
89	0xbd954875	-0.07289211
90	0x3d74e7c2	0.059791334
91	0x3e3f9da1	0.18712474
92	0x3e730ec2	0.23736098
93	0x3df7c18e	0.120974645
94	0x3e7094c4	0.2349425
95	0x3e440587	0.19142734
96	0x3daf35ff	0.08555221
97	0x3dcb35a9	0.09922344
98	0x3e42f441	0.19038488
99	0x3e031238	0.12799919
100	0x3e4c2fed	0.19940157
101	0x3cfa5dd9	0.030562328
102	0x3da2db48	0.07951981
103	0x3e2f854c	0.17140692
104	0x3f3a3718	0.72740316
105	0x3d71f44e	0.059070878
106	0x3e337f11	0.1752894
107	0x3e03a10c	0.12854403
108	0xbb01c8aa	-0.0019803443
109	0x3d0586f4	0.032599404
110	0x3db3bcbc	0.087762326
111	0x3d91a9f5	0.07112495
112	0x3eacc94d	0.3374733
113	0x3e44cf07	0.192196
114	0xbbbb46f4	-0.0057152454
115	0x3e3be54b	0.18349187
116	0x3c113a94	0.008864064
117	0x3e2ce8af	0.16885637
118	0x3e19df75	0.15026648
119	0x3dccff0c	0.10009584
120	0x3dc784dc	0.09742138
121	0x3dff053b	0.124521695
122	0x3e5c67dd	0.21523996
123	0x3d159584	0.036519542
124	0x3dacd9ff	0.08440017
125	0xbc0d7783	-0.008634451
126	0x3cf394f4	0.029734112
127	0x3e29ebaa	0.16593805
128	0x3e22e02b	0.15905826
129	0x3e5bbcfe	0.21458814
130	0xbe24204b	-0.16027944
131	0x3e3da058	0.18518198
132	0x3e9507b2	0.29107434
133	0xbbf84141	-0.0075761382
134	0xbd84e753	-0.06489434
135	0xbe045229	-0.12921967
136	0x3e58ffdb	0.21191351
137	0xbe131026	-0.14361629
138	0x3da83fcc	0.08215293
139	0x3c8b38d6	0.016994875
140	0xbde0257d	-0.1094465
141	0x3e687928	0.22702467
142	0x3e7bf699	0.24605788
143	0x3d469a7d	0.048487175
144	0xbd474f6c	-0.048659727
145	0xbd7a00dc	-0.061035976
146	0xbd29a904	-0.04142095
147	0x3d2f18cb	0.042748254
148	0xbc30b948	-0.010786362
149	0xbe50fd9c	-0.20409244
150	0x3e2799ee	0.16367313
151	0x3b70a4d3	0.0036719337
152	0xbe15c007	-0.14624034
153	0x3e89b4a3	0.26895627
154	0x3c595a2d	0.0132661285
155	0x3d30845f	0.04309499
156	0x3d217337	0.039416518
157	0xbd121cbd	-0.03567194
158	0x3e8eac75	0.2786595
159	0x3a0602bb	0.0005112101
160	0x3e218591	0.15773608
161	0xbe004ec0	-0.1253004
162	0x3e608881	0.21927072
163	0xbcf095ad	-0.029368246
164	0x3e2d80e9	0.16943707
165	0x3d5b0a1a	0.05347643
166	0x3dcce7a5	0.1000512
167	0x3cd57d0b	0.026060602
168	0x3e82339d	0.25430003
169	0x3e603c74	0.21898061
170	0x3caa52db	0.020791462
171	0x3dce37c7	0.100692324
172	0x3e11632c	0.14197987
173	0x3e37f2f3	0.17963772
174	0x3e3f5b22	0.18687108
175	0x3e6d0cf5	0.23149474
176	0xbcb99bb8	-0.02265726
177	0x3e1218c6	0.14267263
178	0x3e98319f	0.29725358
179	0x3d1773e4	0.036975756
180	0x3d6d5f92	0.05795247
181	0x3e4a302d	0.1974494
182	0xbe3fed87	-0.18742953
183	0x3cd8bf57	0.026458425
184	0x3d847d75	0.064692415
185	0x3e0405e2	0.12892869
186	0x3dc1f44c	0.09470424
187	0x3e273105	0.16327293
188	0x3df2e945	0.11860899
189	0xbd97b2b8	-0.07407135
190	0xbdf9a0b7	-0.12188857
191	0x3e73bcda	0.2380251
192	0x3d9118ea	0.0708483
193	0x3ea3103f	0.31848332
194	0xbdf2fb07	-0.11864286
195	0x3e9ef93b	0.31049523
196	0x3da89f4d	0.08233509
197	0xbd1a36e8	-0.03765002
198	0xbbe45926	-0.006968635
199	0xbe453041	-0.19256689
200	0x3d921e0f	0.071346395
201	0x3e3231ef	0.1740186
202	0xbd3a825c	-0.045534477
203	0xbdd539fa	-0.10411449
204	0xbd74b248	-0.059740335
205	0xbd103feb	-0.035217207
206	0x3df47905	0.11937145
207	0x3e6ec972	0.23319033
208	0x3e5b7437	0.21431051
209	0x3c470937	0.012148193
210	0x3ba38598	0.004990291
211	0x3e0bfcdf	0.13670681
212	0xbd8176b7	-0.06321471
213	0xbcf97513	-0.030451333
214	0x3d939b79	0.072073884
215	0x3e80307a	0.25036985
216	0xbd54c412	-0.0519448
217	0x3b157e12	0.002281074
218	0xbe416df2	-0.18889597
219	0x3e2cdf2a	0.16882005
220	0xbe7ccda3	-0.24687819
221	0x3e660d0d	0.22465916
222	0x3e20bb20	0.15696383
223	0x3df54df7	0.11977761
224	0x3b0e3f04	0.002170504
225	0x3e464ef1	0.19366051
226	0x3e59299c	0.21207279
227	0xbe1d9d67	-0.15392075
228	0x3e3963ef	0.18104528
229	0x3e16761f	0.14693497
230	0x3e04c18f	0.12964462
231	0x3c916fa3	0.017753428
232	0x3e3eb021	0.18621875
233	0xbe1dd454	-0.15413028
234	0x3da3f59b	0.0800583
235	0x3c95167c	0.018199198
236	0x3e75e899	0.2401451
237	0x3e902611	0.28154042
238	0x3dc9ac14	0.098472744
239	0x3e405033	0.18780594
240	0xbe248cf3	-0.16069393
241	0xbd499972	-0.049218602
242	0x3e26944a	0.16267505
243	0xbe146516	-0.14491686
244	0x3e3b3ee6	0.18285713
245	0xbbb4d2a2	-0.0055182735
246	0x3dbb11bc	0.09134242
247	0x3e1fbf88	0.15600407
248	0x3d0ea7e2	0.034828074
249	0x3dde15d7	0.10844009
250	0x3dad622f	0.08465993
251	0x3df4bde5	0.11950282
252	0x3e633ba7	0.22190724
253	0x3d23faad	0.040033985
254	0x3e206992	0.15665272
255	0x3e3a9a65	0.1822296

VAE_Encoder.layers.1.linear1.bias f4 [4]
0	0x3d12192f	0.03566855
1	0xbc1ef41d	-0.009701756
2	0x3dea360a	0.114360884
3	0xbb333eb2	-0.0027350602

VAE_Encoder.layers.1.norm1.weight f4 [4]
0	0x3f96812f	1.1758174
1	0x3fa49ec3	1.286095
2	0x3fa63726	1.298558
3	0x3f9b00f1	1.2109662

VAE_Encoder.layers.1.norm1.bias f4 [4]
0	0x3dba0da9	0.09084637
1	0x3e445234	0.19171983
2	0xbde701a0	-0.11279607
3	0xbb475c5f	-0.0030420048

VAE_Encoder.layers.1.norm0.weight f4 [4]
0	0x3f360f17	0.71116775
1	0x3f68f2d3	0.9099552
2	0x3f892422	1.0714152
3	0x3f8742fc	1.0567317

VAE_Encoder.layers.1.norm0.bias f4 [4]
0	0x3da2b282	0.07944204
1	0xbd8b76ae	-0.06809746
2	0x3db7ff6a	0.08984263
3	0x3dfe9855	0.12431399

VAE_Encoder.last_normalization.weight f4 [4]
0	0x3f800000	1.0
1	0x3f800000	1.0
2	0x3f800000	1.0
3	0x3f800000	1.0

VAE_Encoder.last_normalization.bias f4 [4]
0	0x00000000	0.0
1	0x00000000	0.0
2	0x00000000	0.0
3	0x00000000	0.0

VAE_Encoder.head.weight f4 [4, 4]
0	0xbeae5bb8	-0.3405435
1	0xbdde2cb8	-0.10848373
2	0x3de3e7e8	0.11128217
3	0xbe6f8d74	-0.23393804
4	0x3e3a140c	0.1817171
5	0xbe815846	-0.2526266
6	0xbef459c4	-0.47724736
7	0xbe919f30	-0.28441763
8	0x3e0b2960	0.13590002
9	0xbeafdbf0	-0.34347486
10	0xbe811ed2	-0.25218827
11	0xbecafb66	-0.39644927
12	0x3db398d8	0.08769387
13	0x3e730de8	0.23735774
14	0xbd629d70	-0.055325925
15	0x3ee3f246	0.44520777

VAE_Encoder.head.bias f4 [4]
0	0xbdf53648	-0.11973244
1	0xbed19b38	-0.40938735
2	0x3e680024	0.22656304
3	0x3eac8b80	0.3370018
