tabsyn/vae/ckpt/default/major_finetune_on_minor_l2normloss/model.pt (torch, 70246 bytes, 112 tensors)

VAE.Tokenizer.weight f4 [15, 4]
000000 ed eb 3b 3e 1d 0c 43 be 0d d6 91 bd e0 79 e7 be
       0.18351717 -0.1904759 -0.07120905 -0.4521017
000010 1c 57 51 be c8 a3 97 be 78 b1 59 3e ff ed d3 bd
       -0.20443386 -0.29617143 0.21259105 -0.103481285
000020 c2 c6 df 3d c6 a9 ef 3c 36 2d 12 be 25 f1 92 3d
       0.10926582 0.029255759 -0.14275059 0.07174901
000030 c3 60 36 3e 0f 4e 11 be 3a 1b 07 be 98 32 06 3e
       0.17810349 -0.14189933 -0.1319398 0.13105237
000040 4a 8b 42 3e 74 93 cc bd dd f6 6d be 85 c6 50 3d
       0.18998447 -0.09989062 -0.23238702 0.050970573
000050 b2 ab e1 3d 6e 22 e3 3d 09 2b 92 3d c6 c4 3a be
       0.110190764 0.11090551 0.071371146 -0.18239126
000060 75 6f 31 bc 98 09 f3 bd 35 e8 c3 3e ff 21 55 3d
       -0.010829796 -0.11867064 0.38263097 0.052034374
000070 20 0d 78 3e 1f 59 92 3e 52 7b 4b 3e bb 76 32 be
       0.24223757 0.2858362 0.19871262 -0.17428105
000080 92 be 74 be 81 7e 57 be 17 dd 28 3e 30 6d 60 be
       -0.23900822 -0.21044351 0.16490589 -0.21916652
000090 59 9f 8f be aa 0b ad be e5 93 58 be d6 02 87 3d
       -0.2805126 -0.3379796 -0.21150167 0.06592338
0000a0 d9 eb 89 be 44 bb b0 be e8 10 04 3f 94 95 b1 be
       -0.2693775 -0.34517872 0.51588297 -0.34684432
0000b0 4f 7a d4 3d 69 7e d5 be 22 db 88 be 7e 27 e3 bd
       0.10374891 -0.41698006 -0.26729685 -0.11091517
0000c0 cc 27 a5 be db cd c8 be 48 8e 7f be 97 5a 65 bd
       -0.32256925 -0.39219555 -0.2495662 -0.055994596
0000d0 2e 86 b3 be 02 9c 6a be b0 6a bb 3d 3b 94 c0 bd
       -0.35063308 -0.22911075 0.091512084 -0.09403273
0000e0 dc 72 4b be 19 bb 86 3e b1 33 ba be 48 55 b5 bd
       -0.19868034 0.2631462 -0.36367562 -0.08854157

VAE.Tokenizer.bias f4 [23, 4]
000000 c6 b1 c7 be a5 50 bc 3e 2a 7d 2a bd 22 5d ec 3e
       -0.39002818 0.36780277 -0.041623272 0.46164805
000010 53 d8 d8 be 57 a1 76 be aa 04 50 bc cf d0 05 3f
       -0.42352542 -0.24084984 -0.0126964245 0.5227174
000020 cb cb 19 bf 72 ca b3 3d 04 57 1f 3f d5 43 c1 3e
       -0.6007659 0.08778848 0.6224215 0.37747064
000030 f0 e4 06 bf ad 99 30 bd 7c 31 c7 be 1d 21 c3 3e
       -0.5269308 -0.043115307 -0.3890494 0.381112
000040 99 57 30 3e a6 3b 02 bd 96 96 14 bf 52 e2 de be
       0.17220916 -0.031795166 -0.58042276 -0.43532044
000050 d5 69 93 be 25 6b 03 3f 19 d9 62 be 2d ed f3 3e
       -0.2879168 0.51335365 -0.22153129 0.47641888
000060 06 a2 8f 3c 37 3a 04 be 5e 02 20 3e 4f 5e ce bd
       0.017533313 -0.12912832 0.15625903 -0.10076582
000070 55 0f 1f bf 4c 61 15 be 2a c0 06 bf 45 47 1b 3f
       -0.6213277 -0.14587897 -0.5263697 0.60655624
000080 bf 69 cf 3e 08 d7 12 3d 4f e8 13 3f 9e f5 1a 3e
       0.40510365 0.0358496 0.5777635 0.15132758
000090 41 1b 27 bf e4 f5 4a be 95 48 1b 3f f3 0c bb be
       -0.6527596 -0.19820362 0.60657626 -0.36533317
0000a0 6a ce 82 bd 30 7e e6 3e e6 75 f0 be e1 56 09 3f
       -0.063870266 0.45018148 -0.4696495 0.5364819
0000b0 ac 2d 50 3e 3e 9a 77 be 8c 54 89 3e 87 65 6b be
       0.20329922 -0.24179932 0.26822317 -0.22987948
0000c0 cc 57 77 be ec d6 bf be e6 66 8b 3e 45 4d d5 3e
       -0.24154586 -0.3746866 0.27226943 0.41660514
0000d0 93 e4 2a 3d 40 e0 2a 3e 79 87 9b be a4 96 26 3f
       0.04172189 0.16687107 -0.30376795 0.6507361
0000e0 65 37 af 3e cb be 2e 3e 79 75 80 3e 5a 9c 76 be
       0.3422195 0.17064969 0.25089625 -0.24083081
0000f0 33 bb c5 3e 17 7b 54 3e aa cf 8c 3e a1 56 1f be
       0.38619384 0.2075008 0.27502185 -0.1556039
000100 41 48 27 3d 5b 63 a8 3e b9 3f 94 be e7 76 87 3e
       0.04084039 0.32888302 -0.28954867 0.26457903
000110 4a 98 73 be 04 4a b6 3d 1b 51 eb be e1 d6 0b 3c
       -0.23788562 0.08900836 -0.45960316 0.008535118
000120 bb 72 04 be 03 09 80 be 00 fd 58 be ba e1 1d be
       -0.12934391 -0.25006875 -0.21190262 -0.15418139
000130 cb 09 4d bc a7 c8 1f 3d c7 40 17 3e a3 cc b7 3e
       -0.012514542 0.039009716 0.14770804 0.35898313
000140 d9 f6 2b 3b 79 08 9a 3e 31 67 e6 bd 6f 33 51 3e
       0.0026239662 0.3008459 -0.11250151 0.20429777
000150 48 2e 39 3e 13 aa 18 3d 6e 45 f3 be 5c b0 af be
       0.18084061 0.03727157 -0.47513908 -0.3431424
000160 6c c1 b4 bd 84 c6 25 be de 09 7d be ec d4 e9 3d
       -0.08825955 -0.16189009 -0.24710795 0.11417565

VAE.Tokenizer.category_embeddings.weight f4 [77, 4]
000000 d2 5b 60 3e fd bc f0 be cc b9 f7 3d df aa 69 3e
       0.21910027 -0.47019187 0.12095985 0.22819088
000010 01 4a 67 be d5 de e6 3d 65 3b 0d be 29 4e 10 bd
       -0.22586824 0.112729706 -0.13792188 -0.03523079
000020 28 64 01 3f 60 8a 94 bf 73 f5 6b 3e 54 c0 8f 3a
       0.5054345 -1.1604729 0.2304285 0.0010967352
000030 f8 58 aa be 81 38 fe be 75 8e 08 3f 17 f5 cc 3e
       -0.33271003 -0.49652484 0.5334237 0.4003074
000040 16 3f 94 be 13 39 d7 3d fe a7 80 bd e1 f8 80 bd
       -0.2895438 0.10508933 -0.06282042 -0.0629747
000050 b9 5c 50 3e 17 9e 3b 3d 3a 75 9e be 63 17 af 3e
       0.20347871 0.045805063 -0.30948812 0.3419753
000060 fa 77 25 3f 68 4f 02 3f 1c fa af be 1b 09 11 bf
       0.64636195 0.50902414 -0.34370506 -0.5665452
000070 f1 d1 28 be c6 af af be ac 09 da be e3 ab 18 3f
       -0.16486336 -0.34313792 -0.42585504 0.5963728
000080 86 29 81 3d d6 75 d0 be 71 49 46 3e f5 bd 9e 3e
       0.06306748 -0.40714902 0.19363953 0.310043
000090 25 e0 a5 be f2 94 95 be 98 cb e9 bc 50 22 14 bf
       -0.3239757 -0.292152 -0.028539464 -0.57864857
0000a0 68 62 80 bd 2a 25 51 be 68 10 64 be 82 41 85 3d
       -0.062687695 -0.20424333 -0.22271883 0.06506635
0000b0 2d e0 94 3c 9a 64 0b be f1 9f 99 3e d7 9c 16 bf
       0.018173302 -0.13612595 0.30004838 -0.5883307
0000c0 ac 17 cb 3e 6d 25 22 be 74 4a a6 3b 5d f4 2c be
       0.39666498 -0.1583459 0.0050747935 -0.16890092
0000d0 59 9c 99 bb ea 2c 86 be 4f 21 7c 3f 07 88 07 be
       -0.0046878275 -0.26206142 0.98488325 -0.13235484
0000e0 aa f5 09 3f 4c d9 24 be f1 18 0b bd 73 9d c3 be
       0.5389048 -0.16098517 -0.033959333 -0.38206062
0000f0 08 f3 bd be fa 6c a6 3d 37 0f db be 7c 5a 14 be
       -0.3709948 0.081262544 -0.42785046 -0.14487642
000100 48 d7 91 bd a6 f9 68 be 32 8b 1a 3e d3 56 27 bf
       -0.0712114 -0.22751483 0.15092161 -0.6536686
000110 eb f6 9e 3e de dc b2 be f2 12 09 3e 0a a6 d8 3e
       0.31047758 -0.34934133 0.13386133 0.42314178
000120 a8 e5 ac 3e db d2 d6 3d c6 c1 a7 be 2b d0 f1 3e
       0.33768964 0.10489436 -0.32765025 0.47229132
000130 7c 26 b0 bc 49 4b b4 be bb 53 22 3d 3c 56 a8 be
       -0.021502726 -0.35213688 0.039630633 -0.32878292
000140 ec 35 f6 bd a5 0b d6 bd 89 9c 44 3e 55 b8 91 be
       -0.120220035 -0.1045144 0.19200338 -0.28460947
000150 ca a4 bc 3e 38 60 f4 be 02 b3 50 3e 2f 00 18 3e
       0.36844474 -0.4772966 0.20380786 0.1484382
000160 43 3b bd 3e 76 b5 cb be 13 ae 02 bd 7e 80 28 3e
       0.36959276 -0.3978688 -0.03190429 0.16455266
000170 9e d5 a3 bc 45 cd 87 be 0a f4 25 3d 09 8a af be
       -0.019999322 -0.26523796 0.040515937 -0.34285
000180 bc 40 7d 3e 95 d7 8a 3e 1a de fa be 56 1d 58 3e
       0.24731725 0.271176 -0.48997575 0.21104941
000190 bc 0e 8a be d5 43 38 3e 49 78 54 be 91 ff 81 be
       -0.26964366 0.17994626 -0.2074901 -0.25390294
0001a0 03 34 ab 3e e6 ef 94 be bc 3e a7 3e 03 14 f5 bd
       0.3343812 -0.29089278 0.3266505 -0.119667076
0001b0 e4 d4 cd bd 94 d2 1c be d0 da 22 be 96 eb 21 be
       -0.10050371 -0.15314704 -0.15903783 -0.15812525
0001c0 c9 83 99 3d 30 d1 08 bf ec 34 87 be b1 ac d2 3e
       0.07495839 -0.53444195 -0.26407564 0.41147378
0001d0 14 98 5a bb da 50 87 bc 23 cb a5 bd a2 af d6 bc
       -0.0033354806 -0.016518045 -0.08095386 -0.026206795
0001e0 f8 3a f8 bd 7f b3 75 3d a0 49 ca be ea e5 20 bf
       -0.121206224 0.059985634 -0.39509296 -0.6285082
0001f0 c7 a0 38 be 77 8a 67 3d 17 31 78 be 25 6e 64 be
       -0.18030082 0.056528535 -0.24237476 -0.22307642
000200 33 a6 3c 3d 6f 34 50 3f d4 30 f7 3d 2c 07 f2 bd
       0.046056937 0.8133001 0.1206986 -0.11817774
000210 87 c8 bd 3e 4e 27 d6 3e 8f db 49 3c 71 84 87 3d
       0.37067053 0.41826862 0.012320413 0.06617058
000220 cb 55 f5 be 3e 9c 05 be 3d 5c 05 3e 97 13 62 be
       -0.47917017 -0.13047883 0.13023467 -0.22077785
000230 01 4f 36 3e 24 54 3e bf 2e 17 a0 3f a4 dd ba bd
       0.17803575 -0.7434714 1.2507074 -0.09124306
000240 15 31 28 3d de 68 9c 3d 3f 24 4b 3f 3d ee fe bd
       0.041062433 0.07637189 0.7935218 -0.12447784
000250 11 2d 98 bc e9 a9 6f 3d 48 ea a7 be 29 f3 e5 3e
       -0.018576177 0.05851165 -0.3279593 0.4491208
000260 de 48 b7 3e 86 64 8b 3d 62 7e 03 be ea c5 d2 bc
       0.3579778 0.06806283 -0.1284118 -0.025729138
000270 1f dc b2 3e b6 4a 53 3f 75 fa e5 3e bc 81 dc be
       0.34933564 0.82535875 0.44917646 -0.4306773
000280 c3 01 65 bf fc 52 ad 3f 57 50 85 bf 02 cf 0b 3c
       -0.89455813 1.354095 -1.0415143 0.008533241
000290 6a a4 03 3f d3 35 36 3f 13 82 8a bf 5d 4d a3 3e
       0.5142275 0.7117588 -1.0820946 0.3189496
0002a0 66 01 40 3e 80 28 59 3c a7 b1 a6 3d 24 c3 37 be
       0.18750533 0.013254285 0.08139353 -0.17945534
0002b0 0d 19 31 3e 8e d5 13 be f9 4b 93 be f8 93 42 bf
       0.17294712 -0.14436933 -0.287689 -0.7600703
0002c0 42 a0 da 3e d9 4b c1 3e d2 11 93 3d eb 48 01 bd
       0.42700392 0.3775318 0.07181133 -0.03156368
0002d0 50 ad d4 3e 8a 4b f4 3d ed ac 9e be 66 b7 91 bd
       0.41538477 0.119284704 -0.30991307 -0.071150586
0002e0 54 05 d9 3e af 49 0a bf 21 1b 59 3e 3c ff 70 3e
       0.42386878 -0.5401868 0.21201755 0.23534864
0002f0 cf a2 4c be 1e 93 16 3e 78 3f 4f 3d 8f c9 d6 bd
       -0.19983982 0.14704558 0.050597638 -0.10487663
000300 fd 7f d0 3e b9 4c e7 3e de e6 29 bf 80 38 ec be
       0.40722647 0.45175722 -0.663679 -0.46136856
000310 a5 0f 77 be 5f fa e3 3c 55 b4 4a 3e ca 9c 7b be
       -0.24127062 0.027829347 0.19795354 -0.24571529
000320 cb 09 2c 3e 84 fa 80 bd fd 4e a1 be 4b 41 28 3e
       0.1680061 -0.06297782 -0.31505576 0.16431157
000330 54 98 07 3e c2 6b bc 3e 13 e7 6d 3e 6f aa 40 bf
       0.13241702 0.36800963 0.23232679 -0.7526006
000340 dc 97 98 bf a3 26 87 3f 75 8f 87 bf 5a c8 7d 3f
       -1.1921344 1.0558666 -1.0590655 0.9913384
000350 bb 4e da 3e 4b 2f a3 be b9 86 0e 3e c5 12 4c 3e
       0.42638192 -0.3187202 0.1391858 0.19929035
000360 cd 22 e5 3e 61 51 c3 3e 86 97 08 3f e2 fa 6e 3e
       0.44753113 0.38148025 0.53356206 0.23337892
000370 2d ba 07 bf ff 1b 2e 3f 03 b3 98 be c3 39 cf be
       -0.53018457 0.6801147 -0.29824075 -0.40473756
000380 4f 43 48 3e 0a f5 f0 be 6c 03 f4 bc d4 eb 99 bd
       0.19556926 -0.4706195 -0.029786788 -0.07515684
000390 8c d9 cb be 3c 0f d7 3e 56 ec 6e 3e ea be b2 be
       -0.39814413 0.4200381 0.23332343 -0.3491128
0003a0 d6 a5 15 3e ec 56 1a be 2f 2b 9c 3c 21 e8 dd bb
       0.14614043 -0.1507222 0.01906356 -0.0067720567
0003b0 63 4b 4f be 36 63 6f 3d cb 5e 7a be 06 9d 06 3f
       -0.20243602 0.058444224 -0.24450223 0.5258335
0003c0 f5 0b 6d be 47 83 0f bf eb 8c 85 bc 1d d3 0a 3f
       -0.23149092 -0.5605969 -0.016302546 0.54228383
0003d0 42 fa ce be bd 57 cf be 90 7e 1b 3f ea 32 c0 3e
       -0.40425307 -0.40496626 0.60739994 0.37538844
0003e0 5b a7 b3 bf 16 7d 8c 3f 27 41 7f bd 38 03 05 3f
       -1.4035448 1.0975673 -0.062317993 0.51958036
0003f0 b3 b2 39 be 1f 34 fe 3c af 14 98 3e e6 f1 85 3e
       -0.18134575 0.031030713 0.2970328 0.26161116

VAE.encoder_mu.layers.0.attention.W_q.weight f4 [4, 4]
000000 1c f9 b6 be e0 b7 03 3f 31 a5 97 3e 25 f8 dd bc
       -0.3573693 0.51452446 0.2961822 -0.027095864
000010 9b 7f 6f bd a0 a2 22 be 1d 5b 2f be 74 f0 0b be
       -0.058471303 -0.15882349 -0.171246 -0.13665944
000020 85 12 3a be 35 7e fb bd 1e 52 e1 bd 6e b8 cc 3c
       -0.18171127 -0.122799315 -0.11001991 0.024990287
000030 f5 39 a2 be 5e 63 ec be a4 d5 b4 3e 90 bc 50 3e
       -0.31684843 -0.4616956 0.35319245 0.20384431

VAE.encoder_mu.layers.0.attention.W_q.bias f4 [4]
000000 1b cb 69 be 3c 3b 8b be eb 63 b7 bc 41 b0 c4 3c
       -0.22831385 -0.2719363 -0.022386512 0.024009826

VAE.encoder_mu.layers.0.attention.W_k.weight f4 [4, 4]
000000 85 63 d1 3e 39 44 c9 3d 90 dd 1d 3d cb 73 fb 3b
       0.4089624 0.098274656 0.038541377 0.0076737157
000010 72 3d 14 3f 48 0f 3e be e5 ef 9a 3d b1 48 4e 3d
       0.5790626 -0.18560517 0.075652875 0.050362293
000020 79 d6 82 3e 93 61 9d be b6 4a 90 be 01 ce 25 be
       0.25554255 -0.30738506 -0.28182 -0.16191866
000030 bb ec 5f 3e b2 9f eb be c4 a8 9e be f0 7d 20 bf
       0.2186765 -0.46020275 -0.30988133 -0.62692165

VAE.encoder_mu.layers.0.attention.W_k.bias f4 [4]
000000 fc 67 2a 39 9e e0 cb 38 03 27 26 b8 e9 9a d0 b8
       0.000162512 9.7216325e-05 -3.9613817e-05 -9.947067e-05

VAE.encoder_mu.layers.0.attention.W_v.weight f4 [4, 4]
000000 25 82 b2 bd 96 27 f5 3d 0e e9 19 3d fb dd 58 3d
       -0.08716229 0.11970441 0.037575774 0.052946072
000010 44 e1 77 bd 2c c6 d6 3d 49 57 25 3d f7 22 2d 3d
       -0.060517564 0.10487017 0.040366445 0.042269673
000020 2d c8 75 bd 3b d7 e1 3d 76 46 79 3d cc bf 44 39
       -0.060005356 0.1102738 0.060858212 0.00018763467
000030 fd c4 92 bd 52 be e8 3d 1f 0d 42 3d eb af e7 3c
       -0.07166479 0.11364426 0.047375795 0.028282126

VAE.encoder_mu.layers.0.attention.W_v.bias f4 [4]
000000 02 e5 fc bd e0 70 31 3d 4b 6b e1 3d 03 48 2c bd
       -0.12348367 0.043320537 0.11006793 -0.042060863

VAE.encoder_mu.layers.0.linear0.weight f4 [128, 4]
000000 42 ba 9c be 16 e4 f0 bd bd 14 1c 3e d2 61 26 3e
       -0.30610853 -0.11762254 0.15242286 0.16248253
000010 8e e7 88 be 15 62 d9 3c 22 32 ae 3e 5b 52 19 3e
       -0.26739162 0.026536027 0.34022623 0.14972822
000020 83 bb a4 3d db e5 b7 bd b5 60 35 3e dc 82 f7 be
       0.080435775 -0.08979388 0.17712672 -0.48342025
000030 01 cd 22 3f 41 54 08 bf 76 fe 2a be c9 6b 26 bc
       0.6359406 -0.5325356 -0.16698632 -0.010157534
000040 ed e6 c7 be 7b e3 6e be ba fe f5 3e c1 48 68 3e
       -0.3904337 -0.23328964 0.48045903 0.22684003
000050 67 a9 32 bd 52 2f 91 3d c0 40 df 3e 19 0d ae 3e
       -0.043618586 0.07089104 0.43604088 0.33994368
000060 98 5a b4 be 61 38 d4 3e 90 a0 00 bf 69 d0 86 be
       -0.35225368 0.41449264 -0.50245 -0.2633088
000070 53 01 25 3e b8 f6 5d be 8b e8 c4 bd d4 aa a5 be
       0.16113786 -0.21676147 -0.096146666 -0.32356894
000080 b6 c8 29 bd 29 53 db be ac 1d e8 3e 48 ea 9f 3e
       -0.04145118 -0.42836884 0.45335138 0.3123343
000090 1f 3a 3a be b1 48 63 3e 27 dd 61 be b5 e4 35 be
       -0.18186234 0.22195698 -0.22057019 -0.17763026
0000a0 0d 42 ed bd a1 d2 22 3e 3a 3b b0 be 05 d3 f7 3e
       -0.11584864 0.15900661 -0.34420186 0.48403183
0000b0 93 a8 52 3e e0 64 cc bd be bd 65 bd 4a fe 0e bf
       0.20572118 -0.09980178 -0.056089155 -0.55856764
0000c0 cd 3e ac be f8 14 67 bc 90 50 91 3e 7b 0c 07 bf
       -0.33641663 -0.01410412 0.28381777 -0.5275342
0000d0 8b 13 05 be eb 9a da 3d a4 b1 25 be 3d c9 13 3f
       -0.12995736 0.106740795 -0.16181046 0.5772894
0000e0 fb 7e e8 bd 77 d8 d8 be 41 87 c2 be 83 10 26 3e
       -0.113523446 -0.4235265 -0.37993816 0.16217236
0000f0 6d 62 c7 3e 45 02 6a be 37 80 3a bf 3c 81 cc 3e
       0.3894228 -0.22852428 -0.7285189 0.39942348
000100 67 af 57 3e ed 37 c5 be 38 b8 ab 3e 3c 39 ff 3e
       0.21063004 -0.3851923 0.33538985 0.49848354
000110 42 0e 2e 3f 8e 44 ce be 3d 1a 97 3e df f9 a7 be
       0.67990506 -0.40286678 0.29512206 -0.32807824
000120 34 a6 0f 3f 25 98 c9 be 55 56 05 bf 4c 2f a3 3e
       0.5611298 -0.3937389 -0.5208486 0.31872022
000130 da 5f 5a be 8c 7e 4d bb 7d 00 4b 3d 0a 31 fc be
       -0.21325627 -0.0031355945 0.049561013 -0.49256164
000140 08 02 16 3f 7d 9a 80 be 0c 50 85 be d7 97 40 be
       0.5859685 -0.25117865 -0.26037633 -0.18807922
000150 47 23 d9 3d e1 32 a4 3e 20 55 f0 3e 10 49 2d be
       0.10602432 0.32070068 0.46939945 -0.16922402
000160 87 64 8b 3e 9f 95 f3 3e b6 94 8b be fa 27 5a 3d
       0.27225134 0.4757509 -0.27261895 0.05326078
000170 f2 11 19 3f 2c 4e b0 3e a6 19 89 be 48 58 be be
       0.5979301 0.3443464 -0.2677738 -0.37176728
000180 69 55 a9 3e 10 f1 54 be e2 62 ba be d8 0d ce 3e
       0.33072975 -0.20795083 -0.36403567 0.40244937
000190 c5 06 f6 bd b3 94 ff be 3b 04 06 3f 6b 00 63 be
       -0.1201301 -0.49918136 0.52350205 -0.22168128
0001a0 ba f3 81 3d da b5 0a bf 2f 18 83 3e ce 23 53 bd
       0.06345315 -0.54183733 0.25604388 -0.051547818
0001b0 3d c1 a3 be 6d 2a 83 3e 65 7e e1 3d b4 8b cb 3e
       -0.31983367 0.25618306 0.11010436 0.39755023
0001c0 87 cc 9f 3e e9 f6 5c 3d 3e 6b 16 be a0 4a c7 3e
       0.3121073 0.05394641 -0.14689347 0.38924122
0001d0 b7 1f 7b be d0 12 ac 3e d1 22 b1 be f0 e6 9a be
       -0.24523817 0.33608103 -0.34596875 -0.30254316
0001e0 b2 e5 b5 3e 1b 19 bf be c1 d6 15 3f 9e 63 8d be
       0.35526806 -0.3732384 0.58530813 -0.27615064
0001f0 30 ea 43 be 70 52 ba bd 20 4b 06 bd 80 15 c8 bc
       -0.19132304 -0.09097755 -0.03278649 -0.024424314
000200 b5 13 5e 3e 52 3b b5 be 8c c5 08 3f 71 d6 90 be
       0.21687205 -0.3539682 0.5342643 -0.28288606
000210 6d f0 82 3e 25 38 6e 3e c8 c6 5a bd 32 92 14 be
       0.25574055 0.23263605 -0.05341223 -0.14508894
000220 07 30 c2 bd 82 87 ae bd 66 52 d5 3d 24 03 bf 3e
       -0.09481817 -0.0852194 0.10416107 0.37307084
000230 44 48 d5 3e 26 6d ef be e5 02 fe 3e 55 7c 9d be
       0.41656697 -0.4676296 0.49611583 -0.3075892
000240 67 65 88 be 89 6f b4 be 8f b7 75 3e 14 14 ef bc
       -0.26639864 -0.35241345 0.23995803 -0.029184379
000250 70 74 78 3e ba 4b 9e be 80 6f 96 be ea d0 a1 3e
       0.24263167 -0.3091715 -0.29381943 0.316047
000260 ee 32 4b bd 6a 67 ee 3e 00 b9 47 3d 76 b0 89 be
       -0.049609117 0.46563274 0.048760414 -0.26892442
000270 0d 0d ba 3d 0d 53 0a bf 34 e8 ae bd 9f 31 b7 be
       0.090845205 -0.54032975 -0.08540383 -0.35780045
000280 f0 91 3d be 0c 81 ce bd ef 9a 22 be 2e e0 e5 be
       -0.18512702 -0.100832075 -0.15879415 -0.44897598
000290 77 de a0 3d a6 cf 49 3d 79 64 e6 be 00 2e 91 3d
       0.07854932 0.049270295 -0.4499853 0.07088852
0002a0 da c0 14 3f 77 57 9f bd ef 4c e1 39 aa 1e 47 bf
       0.5810677 -0.077803545 0.00042972664 -0.77781165
0002b0 a2 97 9f 3e df f8 cf 3d 96 eb 91 3e 56 8d 57 be
       0.31170374 0.1015489 0.2850005 -0.21050009
0002c0 6b af aa 3e 4d 21 92 be f0 3a 11 3e 80 d2 f9 3e
       0.33336958 -0.2854103 0.14182639 0.4879341
0002d0 a9 40 f0 be 77 f2 08 3f 8e 15 a0 3e fb df cf 3e
       -0.46924332 0.5349497 0.31266445 0.4060057
0002e0 8e ee c8 be 12 88 89 3e 53 15 71 bd 58 08 6d be
       -0.39244503 0.26861626 -0.058858227 -0.23147714
0002f0 7d cf cf 3e 79 af d0 3e 48 fe 20 bf b1 f7 6a 3e
       0.40587988 0.40758875 -0.62888 0.2294605
000300 e4 bc ae be 64 b4 37 be 38 a9 a3 be b4 b5 6c be
       -0.34128487 -0.17939907 -0.3196504 -0.23116189
000310 ba d7 ca be dd 92 44 be 8c 78 6d 3e da ca 05 bf
       -0.3961771 -0.19196649 0.23190516 -0.5226265
000320 9d db 18 3d 0c 03 f5 be 13 ce 13 bf b2 8f 7d bd
       0.037318815 -0.47853887 -0.5773632 -0.061904617
000330 69 2d 92 bd 77 06 ac 3e f8 1f c8 bd 83 ef 28 3e
       -0.071375675 0.33598682 -0.097717226 0.16497616
000340 3b ff c7 3e 49 9f 40 be 90 d7 19 bc 9c 91 00 bf
       0.39061913 -0.18810762 -0.009389773 -0.5022218
000350 a9 69 27 3e ff df 6e bc b6 33 9b 3e 6f 46 7c be
       0.163489 -0.014579772 0.3031289 -0.24636243
000360 5a 89 8d be 5e f4 91 3d 06 9a 8a be cf 9a 4f 3d
       -0.27643853 0.071266875 -0.27070636 0.050684746
000370 31 8c 8c be 4e 9d 79 3c 93 10 f2 3e c9 ba b5 bd
       -0.27450708 0.015235258 0.4727827 -0.08873517
000380 4a 83 0d 3d 95 ad eb 3e 0b c3 8e 3c 31 7f ec 3e
       0.034549035 0.4603087 0.017426988 0.4619079
000390 2d be 8b 3d c4 4c c9 3e 30 db c0 be 4c 82 c9 3e
       0.068233825 0.3931638 -0.37667227 0.3935722
0003a0 fb 12 da bc 09 53 b2 3e 2e c7 43 be 3b 25 70 3e
       -0.026620379 0.34828976 -0.1911895 0.23451702
0003b0 6e 87 03 3f bb 0c 05 3e 94 4b 2d bf a5 c6 14 be
       0.51378524 0.12993138 -0.6769345 -0.14528902
0003c0 29 47 c2 be e3 60 ea 3e 22 9d 07 be aa 40 f4 be
       -0.37944916 0.45777044 -0.13243535 -0.47705585
0003d0 c4 81 1b 3e 1c 2c d9 be 13 48 73 3d 9b 79 6b 3e
       0.1518622 -0.42416465 0.059394907 0.22995608
0003e0 93 39 b1 be 73 a2 15 bf cd e2 08 be 7c e4 a5 3e
       -0.34614238 -0.58451 -0.13367768 0.32400882
0003f0 a8 b2 ee 3e 74 8e c6 3d c6 4b 10 3f 68 9b 02 3d
       0.4662068 0.096951395 0.5636562 0.03188649

VAE.encoder_mu.layers.0.linear0.bias f4 [128]
000000 bc 88 59 be 9f 6d 55 be c1 2f 61 3e ff c4 87 be
       -0.21243566 -0.20842598 0.21990873 -0.26517484
000010 26 68 03 be 9e 4a d8 bd e0 34 d6 be ba d6 1b 3e
       -0.12832698 -0.10561107 -0.41837215 0.1521863
000020 1c 2f ef 3e 4b 00 d2 3c 63 7c 80 be b8 79 9f bd
       0.4671563 0.025634905 -0.250949 -0.07786888
000030 bd 2e 42 be 71 96 97 3e 31 52 6c be e7 c0 16 be
       -0.18963142 0.29606965 -0.23078229 -0.14722024
000040 8f ed c7 3c c6 6d d6 3d d3 2e 02 be 42 84 c4 bd
       0.024405269 0.10470156 -0.12713175 -0.09595539
000050 a7 48 11 3f 44 ab e3 be cd 91 b7 3d 1c ca db bc
       0.56751484 -0.44466603 0.08963356 -0.026829772
000060 73 b1 a9 be 57 c6 c3 3d 94 f6 89 3e ef de 06 bd
       -0.33143196 0.09559315 0.26945937 -0.03292745
000070 5d 2c f0 3e d1 9d f0 3e 95 fc cd 3e 22 fc f8 be
       0.46908846 0.46995404 0.40231767 -0.48629862
000080 86 1c cc 3e 77 ca e5 3e b5 bb 09 3f 95 a5 b3 3e
       0.39865512 0.4488103 0.53802043 0.35087267
000090 fb 1e 19 3e e3 7e b2 bc 34 23 03 be 6a 22 4d be
       0.14953224 -0.02178902 -0.12806398 -0.20032659
0000a0 bb cc b8 3c be ae ba bd 85 9f b1 3c 1f e8 5a 3e
       0.02255856 -0.09115361 0.02168251 0.2137761
0000b0 33 63 53 be 8f 3a fb 3e 50 d2 86 3e a3 57 31 bd
       -0.2064331 0.49068114 0.2633233 -0.043296468
0000c0 58 e7 bf be 02 4d aa be fa 88 6d bd b2 34 00 be
       -0.3748119 -0.33261877 -0.05799196 -0.12520102
0000d0 d0 03 de 3d e6 9f 0d 3d f6 00 a4 3e e2 c2 2b be
       0.10840571 0.03457632 0.32031983 -0.1677356
0000e0 0b a2 a5 3e c5 19 b5 be 99 6d 45 3e f1 ca b5 3d
       0.3235019 -0.35371223 0.1928009 0.088765986
0000f0 f8 d0 f8 3e 0e 28 a1 be d5 24 ee bc 1b ce 8a 3e
       0.4859693 -0.31475872 -0.029070297 0.2711037
000100 e7 85 93 bc 61 b2 eb bd 72 d3 06 be f1 d4 b9 bd
       -0.018008186 -0.115086325 -0.13166597 -0.090738185
000110 4a 45 07 3e 6b 15 90 3e 51 32 4b be c0 3b a8 3e
       0.13210025 0.2814134 -0.19843413 0.32858086
000120 b5 df d3 3c 76 e5 2d 3c 3c 86 8b 3e ab 0e c1 bd
       0.025863508 0.01061379 0.2725085 -0.09426626
000130 5b 03 0e be 99 28 14 be 8f 29 d3 3d da 5a b8 3e
       -0.13868468 -0.14468612 0.10310661 0.36006814
000140 fe be d5 bb 70 bc db be 6f e3 e9 3e 67 7d ff 3c
       -0.006523012 -0.42917204 0.4568133 0.031187726
000150 d9 77 df be f9 8e 7e bd 2e ed 9a 3e 1e 2b f9 3e
       -0.43646124 -0.062148068 0.3025908 0.48665708
000160 05 c1 1a 3c 72 49 a5 be 03 88 b6 3c f2 b2 8f be
       0.0094454335 -0.32282597 0.022281652 -0.28066212
000170 d2 e0 d3 bd 01 52 cf 3e f3 f9 8e be c9 11 5c 3e
       -0.103456154 0.40492252 -0.2792507 0.2149116
000180 33 e8 0b 3e 04 ff 20 3e 13 4f b5 3e 31 f7 fa 3e
       0.13662796 0.1572228 0.3541189 0.49016717
000190 59 a8 76 3e b3 8d e8 3d 5a b9 7b bd 3f 87 2d bd
       0.24087657 0.11355152 -0.061456062 -0.04236531
0001a0 d9 24 5d 3e 23 be 65 3d ec 8d a4 3e 91 ad b9 be
       0.21596088 0.05608953 0.32139528 -0.36265233
0001b0 db e2 0e 3c 07 8f 46 be 85 d5 10 3d 16 29 cc 3e
       0.008721079 -0.19390498 0.035359878 0.39875096
0001c0 b0 fd 3d 3e c9 c3 92 be 6a 9c 89 bd 92 aa e3 3e
       0.18553805 -0.28664997 -0.06719287 0.44466072
0001d0 70 83 d7 be e7 7a e9 3d 4c c5 09 3e d3 d2 e0 3e
       -0.42092466 0.11400395 0.13454169 0.43910846
0001e0 a8 3d bf 3e 64 c8 84 be 15 47 c7 be df 3e ed be
       0.37351727 -0.25934136 -0.3892142 -0.4633703
0001f0 31 0e e7 3e 6c 00 e7 bd a7 ed 52 be 9d 06 9a 3e
       0.45128015 -0.11279377 -0.2059847 0.3008317

VAE.encoder_mu.layers.0.linear1.weight f4 [4, 128]
000000 b1 a6 b9 3d 4e d3 cf bc d6 54 2b 3e b1 f2 2f 3e
       0.09064997 -0.025369313 0.16731581 0.17182423
000010 ae 89 1d 3d bf ff 51 bd 62 30 3f 3e c0 ea 3e 3e
       0.03846138 -0.05126929 0.186708 0.18644238
000020 f9 99 ab 3c b5 16 29 bd 14 c7 1c 3e 10 ff 9e 3d
       0.020947443 -0.04128142 0.15310317 0.07763493
000030 52 e0 b7 bc af 2d d9 3c c7 ed 04 3e 3a 45 81 3e
       -0.022445831 0.026511041 0.1298133 0.25248128
000040 0c 00 15 3d 32 68 e3 3c 99 75 59 3e 9e 2d 0e 3d
       0.036376998 0.027759645 0.21236266 0.034711473
000050 ca 24 d5 3d 2d 78 a8 3b a6 82 3e 3e 52 1b cf 3c
       0.104074076 0.005141279 0.18604526 0.025281582
000060 38 26 5f 3e 60 f5 c3 bd 98 47 72 bc b6 7d 20 bd
       0.21791923 -0.09568286 -0.014787577 -0.039182387
000070 cd 17 cf 3d 05 23 b1 3d 75 65 cb bd a1 1a 2c bc
       0.101119615 0.086492576 -0.09931461 -0.010504396
000080 ae 4f d4 3c 2a f7 e3 3c f4 3d a4 bc 31 5a ed 3d
       0.0259169 0.027827818 -0.020049073 0.11589468
000090 72 34 5a 3d b5 66 64 3d 58 06 c1 3d 92 f1 28 3e
       0.053272672 0.05576201 0.09425038 0.16498402
0000a0 30 61 44 3d 29 06 08 bd 4c d8 42 3e 2b c4 90 3d
       0.047944248 -0.033209 0.19027823 0.07068666
0000b0 21 17 a2 3b 75 59 b3 bc ee 0f 53 bc c0 1a 15 3e
       0.004946605 -0.021893242 -0.012882216 0.14560986
0000c0 ff d6 ad bd 3a 0e 9a 3c 49 d5 92 3e 01 96 dc bd
       -0.08488273 0.018805612 0.2867835 -0.107707985
0000d0 16 90 d8 3d 8c a5 9d 3d 80 fa 99 bc 6a 8b 30 3e
       0.10574357 0.07697591 -0.018796206 0.17240682
0000e0 93 51 f7 3d 88 a2 64 3d 4c b3 89 3d 3d ea 36 3e
       0.12076106 0.055819064 0.06723651 0.17862792
0000f0 55 a4 8a bb cb a8 26 be 60 3b 61 3d 5c 64 83 bd
       -0.0042310157 -0.16275327 0.054988265 -0.064156264
000100 34 a4 18 bc 0d 82 4d 3e 9e 48 aa 3d a3 a8 6b bd
       -0.009316493 0.20069142 0.08314632 -0.05753387
000110 96 f3 6f 3e 74 5a 27 bd 0f ad 64 3e 08 06 2e 3e
       0.23432764 -0.040857747 0.22331642 0.16994488
000120 4c 17 4a 3d 90 01 3b 3e d6 d9 6a bd 1f 12 07 3e
       0.049338624 0.18262315 -0.05733665 0.13190506
000130 b1 11 1f bd 44 07 a6 3d 55 a1 14 3d 1f bd de 3d
       -0.03883523 0.081068546 0.03628667 0.10875916
000140 c6 10 8a 3b ba f9 ba 3c 4f 8a 28 3d 97 5a 4b 3e
       0.0042134253 0.022824157 0.041147526 0.19858776
000150 72 ff 1c bd 0e 90 6e 3e 38 9f bc bd 98 86 ed bb
       -0.03832955 0.2329714 -0.09210056 -0.007248711
000160 50 ce b9 bc 54 d8 84 3e 0b cc 84 3d bd eb 7c 3d
       -0.022681385 0.25946295 0.064842306 0.061748255
000170 a0 ed c0 3d 66 61 fa 3c b1 86 d3 3d 9d b9 2a 3d
       0.09420323 0.030564021 0.10328425 0.04168092
000180 eb b9 56 3d fd 4c 78 3d 3d 1c 14 3d cd e2 8f 3d
       0.0524234 0.060620297 0.036159743 0.07025681
000190 9f 77 4f 3b e3 3c 7c bd 62 86 c8 bb 84 51 9a 3c
       0.0031656993 -0.061581504 -0.0061195353 0.018837698
0001a0 94 e6 67 3d 77 50 e2 bd 86 2c 41 bd a0 33 b7 bb
       0.05661638 -0.11050504 -0.0471616 -0.005590871
0001b0 ac 31 21 bd c8 29 1a bc 9e 95 c3 bd 3e 49 ea 3d
       -0.03935401 -0.0094093755 -0.095500216 0.11439751
0001c0 64 2f 49 3d 11 0c 20 3e 22 3e 48 3e cb 11 d7 3d
       0.04911746 0.15629603 0.19554952 0.105014406
0001d0 55 9f 5e 3e 0a 86 85 3d 4e 2b d3 3c dd 05 78 3d
       0.21740468 0.065197065 0.025777485 0.060552467
0001e0 7d c3 f5 3c 60 3d f8 bd 5d e4 96 bd ae 85 66 3d
       0.030000443 -0.12121081 -0.073677756 0.05627983
0001f0 e5 9e 8f bc 6e 80 28 3e 95 b7 84 3d aa 36 75 3d
       -0.017531822 0.16455242 0.06480328 0.059866585
000200 a4 fa 0c 3d b1 20 94 3d b6 73 3f 3e 2f ff c2 bd
       0.034418717 0.07232798 0.18696484 -0.09521329
000210 89 d8 c8 3b 11 83 9f 3d 96 92 0e bd d0 ef 31 3d
       0.0061293286 0.07788671 -0.034807764 0.043441594
000220 da 25 83 3b 92 20 0a 3d 94 76 8f 3d 3e 48 2c 3e
       0.004002315 0.033722468 0.07005039 0.16824433
000230 f9 76 2e 3e 51 c8 82 bc 1a c7 0a be 56 c3 c8 bd
       0.17037572 -0.015964659 -0.13552514 -0.098028824
000240 ad 70 8c 3c b6 39 9d bc f2 19 8e 3d c4 09 6a 3d
       0.017143572 -0.019192558 0.069385424 0.05713822
000250 9d 57 4e 3d 30 e2 b4 3d 9c 58 6d 3d 55 71 52 3e
       0.050376523 0.08832204 0.057945833 0.20551045
000260 b1 86 d0 3c bb 50 57 3d b9 db bc bd 06 be 1c bd
       0.02545485 0.052567225 -0.09221596 -0.038267158
000270 ec 38 4d 3d 8a 6b b3 3d 12 4b 80 3d 30 51 2c 3d
       0.050103113 0.08760746 0.062643185 0.042069614
000280 69 6f b7 3d 25 c5 1e 3d 7b e8 86 bd b2 f9 13 3c
       0.08956797 0.03876223 -0.06587311 0.0090317
000290 cd 89 12 3d ee 8f ca 3d f5 c6 6e bd 93 90 42 be
       0.03577595 0.09890734 -0.05829521 -0.19000463
0002a0 e7 70 57 3e 78 0f 87 bc 9a f4 8c 3e 58 fa 45 3d
       0.21039163 -0.016486868 0.27530366 0.04833445
0002b0 71 e8 af 3d d7 39 8b bc 03 bc 10 3c 11 c1 11 bc
       0.085892566 -0.016995354 0.008833888 -0.008896128
0002c0 4a 08 02 3b 02 5f 1b 3e 2d 01 a5 bd 3b d0 08 3d
       0.0019841366 0.15172961 -0.08056865 0.03340171
0002d0 6b fb 27 3d ef cd 25 3e 6c 65 e3 bd c9 1e 70 bd
       0.041011255 0.16191839 -0.11103329 -0.05862311
0002e0 c3 6b 37 bd a0 46 ab 3c 91 28 15 bd 78 02 81 3e
       -0.044780504 0.0209077 -0.03641564 0.25197196
0002f0 4c 81 2a 3e 89 c6 27 3e a7 28 37 be bd fb 0b 3e
       0.16650885 0.16384329 -0.17886601 0.1367025
000300 02 77 96 3d b8 37 09 3d 34 1a a2 3d b0 96 3d 3d
       0.07346918 0.033500403 0.07915154 0.046286285
000310 a4 7d aa bc 77 74 95 3c 6b 13 48 3d 28 f8 28 bc
       -0.020811863 0.018244011 0.048846643 -0.010313071
000320 30 e5 d7 3d f9 39 a9 bc 65 07 2f bd 41 4c b8 bd
       0.10541761 -0.020657526 -0.04273166 -0.08998919
000330 4c 8b 8b bd 0f 02 ba 3d ff a2 dc 3d bc c2 16 3e
       -0.06813678 0.09082424 0.107732765 0.14722723
000340 9e 07 c3 3b 77 4f 05 be 06 b4 09 3c ba 6b 8a 3c
       0.005951836 -0.13018595 0.008404737 0.016897071
000350 60 15 17 3e 55 99 5f bd 89 88 4c 3d b8 e4 2f 3c
       0.14754248 -0.05458959 0.049934898 0.010735683
000360 fa 86 09 be 18 8c 03 3e 31 37 da 3d 62 4d 12 3e
       -0.13430396 0.1284641 0.10655058 0.14287332
000370 11 8f 1d 3e f6 11 08 3e ab a8 58 3c c2 7a 2e 3e
       0.15386607 0.13288102 0.013223807 0.17039016
000380 9c 28 f8 3d 22 3a c9 bd 79 c8 b0 bd 06 26 df 3d
       0.121171206 -0.09825541 -0.08631987 0.10895924
000390 6f 82 13 3e 69 f5 d9 bd ba 38 86 3d 1f 1d 10 bd
       0.14405225 -0.106425114 0.065537885 -0.035184022
0003a0 7f 9a bf 3d 7a 40 61 bc 0a 1b 20 3d 47 85 c4 3e
       0.0935564 -0.013748283 0.039088286 0.38382933
0003b0 7f 6a 69 3d 63 4f a8 3e 1b 77 24 bd 0f 3b 85 bd
       0.05698633 0.32873067 -0.04015265 -0.06505405
0003c0 49 de 50 3c 8e 49 2e be 46 0f 46 3e 7f f2 98 bd
       0.012748309 -0.17020246 0.19341764 -0.074681275
0003d0 aa c5 90 bd 07 61 0b bd 50 90 90 3c 14 c6 17 bd
       -0.070689514 -0.03402808 0.017646939 -0.037054136
0003e0 14 15 14 3d 47 c4 af 3d 58 d2 71 bd f3 1a d4 bd
       0.036152914 0.08582359 -0.05903849 -0.10356703
0003f0 2a dc 4d 3e 89 de 14 3e c5 96 b0 3e ab 52 34 3e
       0.20103517 0.14538015 0.34490028 0.1760966

VAE.encoder_mu.layers.0.linear1.bias f4 [4]
000000 cf 4f 9d 3c bd a8 16 bd e8 ac 10 3d 07 50 f4 3c
       0.019203095 -0.036782015 0.035321146 0.029823316

VAE.encoder_mu.layers.0.norm1.weight f4 [4]
000000 f5 4b 9a 3f 82 89 99 3f 86 58 a3 3f fb f5 93 3f
       1.205443 1.1995089 1.276139 1.1559442

VAE.encoder_mu.layers.0.norm1.bias f4 [4]
000000 21 58 cf 3c d5 43 3b 3d ff bd 64 bd b7 66 af 3d
       0.025310578 0.045718987 -0.055845257 0.08564513

VAE.encoder_mu.layers.1.attention.W_q.weight f4 [4, 4]
000000 d6 99 94 be 46 61 30 3c 0b 07 83 be 29 09 17 3f
       -0.29023618 0.010765379 -0.2559131 0.5899835
000010 db 4c 96 be 44 7a 55 be e8 2e ba be c4 73 9b be
       -0.2935551 -0.20847422 -0.36363912 -0.3036176
000020 a4 bf f5 be 5a 36 9c 3e 82 43 a4 be 19 b4 09 3f
       -0.47997773 0.30510217 -0.32082754 0.5379043
000030 16 70 92 be 76 20 46 be 81 f6 04 3f 0d d3 1f bf
       -0.2860114 -0.1934832 0.51938635 -0.6243141

VAE.encoder_mu.layers.1.attention.W_q.bias f4 [4]
000000 3a 97 5d 3e 8d c2 9a be 07 d9 cc 3e da c7 61 be
       0.2163972 -0.30226555 0.4000933 -0.22048894

VAE.encoder_mu.layers.1.attention.W_k.weight f4 [4, 4]
000000 72 78 f0 be 1b c2 09 3e b5 54 0e 3e 5d 38 08 3f
       -0.46966892 0.13452952 0.138995 0.53211004
000010 5e 6f bb be 69 41 16 3e 20 3a d0 bc e4 19 00 bf
       -0.36608404 0.1467339 -0.025418341 -0.50039506
000020 e0 65 88 be 92 c9 d2 be 42 d2 a1 3e 05 a6 27 3f
       -0.26640224 -0.4116941 0.31605726 0.654877
000030 a5 63 01 3f 57 3b db 3e e8 b7 08 bf a9 1b 7c be
       0.5054267 0.4281871 -0.5340562 -0.24619927

VAE.encoder_mu.layers.1.attention.W_k.bias f4 [4]
000000 b6 fc 85 39 18 19 53 b8 4c 3d 07 39 40 fa d4 39
       0.0002555602 -5.032969e-05 0.00012897438 0.00040622242

VAE.encoder_mu.layers.1.attention.W_v.weight f4 [4, 4]
000000 85 54 cc 3e da ee 72 be 28 9a ed 3e 3b 8e 0b 3f
       0.39908233 -0.23723927 0.46406674 0.545139
000010 ee de 3c 3e e2 61 63 bd 0d f7 a1 3e 47 c0 5e 3e
       0.18444416 -0.05551327 0.31633797 0.21753035
000020 bd d4 82 3e a0 30 04 be 6f 1b 9f 3e f6 91 e0 3d
       0.2555293 -0.12909174 0.31075618 0.1096534
000030 9a 09 45 be 45 58 92 be 5e 10 e7 3d 5b bc d2 bb
       -0.19241944 -0.2858297 0.11282419 -0.006431145

VAE.encoder_mu.layers.1.attention.W_v.bias f4 [4]
000000 55 70 93 3d b6 99 d1 3c c2 6c 08 3c f6 eb 1a bc
       0.0719916 0.02558599 0.008326711 -0.0094556715

VAE.encoder_mu.layers.1.linear0.weight f4 [128, 4]
000000 f7 7e 4c be c8 73 54 3f fc 1a 01 bf 9c 9b ea bd
       -0.19970308 0.8298917 -0.504318 -0.114554614
000010 67 83 81 be f4 5b ce 3e 04 90 0e bf ed fa 88 3d
       -0.25295565 0.4030453 -0.556885 0.06688485
000020 ec c3 0b bf 05 5d 05 bf de ed 29 3f fb b9 87 be
       -0.5459583 -0.5209506 0.6637858 -0.2650908
000030 9c 29 a7 3e b5 eb bf 3e ed 06 d4 be cd 4c 2d 3d
       0.32648933 0.37484518 -0.41411534 0.04230957
000040 75 93 66 be ad da 3d 3f 73 20 c1 be 58 40 48 bd
       -0.22517188 0.741618 -0.3772007 -0.048889488
000050 98 d4 e6 3e 37 56 a3 bb ca 24 90 3e e9 e9 83 be
       0.4508407 -0.004984643 0.28153068 -0.25764397
000060 e0 c7 1b be e4 78 0f bf 8c b0 3a be 1c a9 04 3f
       -0.15212965 -0.5604384 -0.1823141 0.5182054
000070 37 cc fc be 6d ef 31 bf 4c 0d ae be 22 a1 af 3c
       -0.49374554 -0.6950596 -0.3399452 0.021439139
000080 a7 05 f1 be a2 72 ca 3e 47 6c 92 bd a7 48 26 bf
       -0.47074625 0.39540583 -0.071495585 -0.6495461
000090 c1 3f 2e bd 62 2d 03 bf af d6 a4 3e cf 38 d6 be
       -0.04254127 -0.51241124 0.3219504 -0.41840217
0000a0 ab a4 5b 3e fc bc ef 3e 32 df 8f bd 17 43 c2 be
       0.21449535 0.4682387 -0.07024993 -0.3794181
0000b0 29 e5 8a 3e 7a 16 a8 bc ac fd 84 3e 78 ad f2 be
       0.2712796 -0.02051853 0.25974786 -0.4739797
0000c0 ec 64 f0 bd 70 85 d7 bd da e5 56 3e f9 dd 5f be
       -0.11737999 -0.10523498 0.20986119 -0.2186202
0000d0 6e 5a 92 3e 1f c5 0a 3f 58 20 10 bf 87 69 85 be
       0.28584617 0.5420703 -0.5629935 -0.26057073
0000e0 d2 29 a8 bd 1b cf be 3e a8 d7 aa 3e c9 54 d8 be
       -0.082111016 0.37267384 0.33367658 -0.42252186
0000f0 36 dc a8 3e 57 f5 f4 3e 49 a8 2a bd dc 68 d7 be
       0.32980508 0.4784343 -0.041664395 -0.4207219
000100 24 d0 e7 3e 25 45 a4 be 52 6a 74 be 57 fa a2 3e
       0.45275986 -0.32084003 -0.23868683 0.3183162
000110 12 1c 7e be 66 ce 38 3f fa e3 92 be 74 f4 8b be
       -0.24815395 0.7218994 -0.28689557 -0.2733494
000120 b6 12 99 3e 5d bc e6 be 4e d8 00 bf 0b 1f f6 3d
       0.29897088 -0.45065585 -0.50330055 0.1201764
000130 c7 50 e8 bd 99 c1 f2 3d e8 65 bf be d3 fe d4 3e
       -0.11343532 0.11853332 -0.37382436 0.41600665
000140 1b b1 2d be c5 c8 c5 bd 24 32 08 3f ce 01 e9 bd
       -0.16962092 -0.096574344 0.5320151 -0.11377297
000150 cc 35 e3 3e cc 71 26 bf fe 81 39 be 81 8f 12 3f
       0.4437698 -0.6501739 -0.18115994 0.5725022
000160 24 c6 d4 3e c7 8f 14 3e 2d db b5 3e 09 e2 25 bf
       0.4155742 0.14507972 0.3551878 -0.6479803
000170 89 a2 70 3d 5b 2d 97 be 48 de 0f bf 5b 3c 24 3e
       0.058748756 -0.2952679 -0.5619855 0.16038649
000180 22 22 a6 3e 2c 28 eb be d6 1b fb 3e eb 5c 02 bf
       0.32447916 -0.45929086 0.49044675 -0.5092303
000190 ea b6 c8 3e 4e 89 28 3e 79 54 cc 3e 1d 82 fa be
       0.39202052 0.16458628 0.39908198 -0.48927394
0001a0 41 48 2f be 06 ad f5 be d9 a3 18 bf 95 67 10 3e
       -0.17117406 -0.4798357 -0.5962501 0.14102013
0001b0 15 9e c9 3e 23 d5 c4 3d a2 7c da be a4 cc 01 3f
       0.3937842 0.09610965 -0.42673212 0.5070288
0001c0 77 22 a9 be 66 e8 fe 3e 30 bc 98 3e fc 59 e4 3d
       -0.33034107 0.4978668 0.29831076 0.11149976
0001d0 2e 58 00 bf 34 8a e6 be 33 56 21 3d 87 f4 a3 bd
       -0.5013455 -0.45027316 0.039388847 -0.08005624
0001e0 d2 a0 52 3e 8f aa 27 3f 8f 06 00 bf e7 27 ca be
       0.2056916 0.65494627 -0.5001001 -0.39483568
0001f0 2a de b3 3e d6 c5 6a 3e df 8d 6b 3e 82 3b 91 be
       0.35130435 0.22927031 0.23003338 -0.28365713
000200 69 c1 ab be 26 e4 90 3e ac de cb be b6 fb 9f be
       -0.33545998 0.28299063 -0.39818323 -0.31246728
000210 ca 36 96 3b 26 43 88 3f a3 d8 09 bf e5 83 17 bf
       0.004584168 1.0645492 -0.53846186 -0.5918563
000220 f1 09 59 3e 27 a4 80 3e de 36 16 3e ff 8a 60 be
       0.21195199 0.25125238 0.14669368 -0.21928023
000230 0e e2 14 3f f9 2b 8e 3d 05 0f 8d 3e 8b 56 ca 3e
       0.5815743 0.06941981 0.27550521 0.39519152
000240 02 f0 29 3f eb 30 13 3f 3e a2 6b 3e f3 02 b0 be
       0.6638185 0.5749652 0.23011109 -0.3437725
000250 a8 cb 8b be a5 ab 75 3e da 89 28 3e e2 10 c1 3e
       -0.27303815 0.23991258 0.16458836 0.37708193
000260 d6 77 82 3e a1 1d d4 bd 45 ec fa be 89 45 a2 3e
       0.25482053 -0.10357214 -0.49008384 0.31693676
000270 a6 7d 40 be 91 16 ab be 68 03 ec be 25 3f 33 3e
       -0.18797931 -0.33415654 -0.4609635 0.17504556
000280 20 51 79 3d 16 82 39 3f 58 38 32 bd 3b be 18 3e
       0.060868382 0.7246412 -0.043510765 0.14916317
000290 66 60 60 bd 76 07 02 3f e8 20 09 be d1 a7 be be
       -0.054779433 0.50792634 -0.13391459 -0.3723741
0002a0 f7 c7 db be e0 27 2f 3d e3 56 20 3f 1b d8 41 bd
       -0.42926 0.042762637 0.6263258 -0.047325235
0002b0 3b 87 21 3f e4 08 04 3f c9 23 6b be fa 8b 07 bf
       0.6309697 0.51576066 -0.2296287 -0.5294796
0002c0 24 09 01 3f 7c f2 ce 3e 24 a1 93 be 6b 8d 53 3e
       0.5040457 0.40419376 -0.28833878 0.20659415
0002d0 a2 da 0f bf b7 ef 70 be 9d d0 34 bf 32 55 1d bd
       -0.5619298 -0.23528944 -0.7063082 -0.038411327
0002e0 67 16 e1 be 1d 61 cd 3e 2f 00 22 be a2 ef ff bd
       -0.43962404 0.40113154 -0.15820383 -0.12496878
0002f0 51 91 f1 be ec 89 0d 3d 37 84 14 bf 7f e8 89 3e
       -0.4718118 0.03455536 -0.58014244 0.26935193
000300 13 6e d5 3e 06 80 d5 be 4d 81 e9 be bb 86 a8 3e
       0.41685542 -0.41699237 -0.4560646 0.3291529
000310 6c 2f c9 3e f7 c5 f2 3e e6 73 1d bf 0e 73 52 3e
       0.39293993 0.4741666 -0.6150497 0.20551702
000320 3e dc 14 3f dd 64 a5 3e 93 0b 2e bf 4d 4e 1d be
       0.5814856 0.32303515 -0.6798641 -0.153619
000330 85 71 db 3e be 9c 79 be 3b 6e c5 be 0c 9d f4 3e
       0.42860046 -0.24376199 -0.38560662 0.47776067
000340 fc e7 76 3e 7d b4 4b 3e 62 e2 74 3e 6f cd 0d bf
       0.24111933 0.1989307 0.23914483 -0.5539159
000350 ed d1 94 3e 03 45 23 3f 44 d4 22 bf e0 0f 6d 3e
       0.2906641 0.6377718 -0.6360514 0.23150587
000360 90 22 19 3e 49 66 ab be 4f 1d a3 bd 80 09 8f be
       0.14954591 -0.33476475 -0.079645745 -0.27936935
000370 53 9a f9 3d 77 a3 dd be 76 89 c0 be 82 2a 9f be
       0.12187638 -0.43288776 -0.37604874 -0.31087118
000380 10 1b e8 3e a7 e7 b8 bd 50 01 19 bf 44 bb da 3e
       0.45333147 -0.09028559 -0.5976763 0.42720997
000390 40 8d 91 be 57 5b 4b 3e 8f 6c bd be 03 5b a9 3e
       -0.28428078 0.19859062 -0.36996886 0.3307725
0003a0 67 a4 c7 be 7d 67 4a 3c 96 62 a6 3e c5 b6 e3 be
       -0.38992617 0.012353775 0.3249709 -0.4447538
0003b0 45 bf c1 3e f8 48 3b 3f 1b 3a 87 3a 53 d4 9c 3e
       0.3784124 0.73158216 0.0010316999 0.3063074
0003c0 0f 6e 07 3f 18 7c cf 3e ab ce c6 3d 93 8f dc 3c
       0.5290231 0.40524364 0.097073875 0.02692393
0003d0 61 78 14 3e 97 dd c8 be f0 6b 0f be 56 03 bc 3e
       0.14499046 -0.3923156 -0.14006019 0.36721295
0003e0 9c 43 d6 3e 64 a3 d9 3c c2 66 89 3e 73 38 9e 3e
       0.41848457 0.026567169 0.2683621 0.30902442
0003f0 6e 31 25 bd 9e 40 20 3f 83 f4 b7 3e 7a 66 b7 be
       -0.040330343 0.625986 0.35928735 -0.3582037

VAE.encoder_mu.layers.1.linear0.bias f4 [128]
000000 ab f1 ac 3e d2 64 8c 3e 20 a1 bd be 9f fc 07 3f
       0.33778128 0.2742067 -0.3703699 0.53119844
000010 09 f5 eb 3e 72 45 da 3e c6 e5 86 3e 3d d0 72 be
       0.46085384 0.42631108 0.26347178 -0.23712249
000020 80 3a 61 bc 1e ef 16 bf c8 80 aa bd 23 93 ac 3d
       -0.013746858 -0.58958614 -0.08325344 0.084265016
000030 16 9c cf be 30 d0 1f bd c4 76 ff 3d 55 52 81 bc
       -0.40548772 -0.039016902 0.124738246 -0.01578633
000040 59 03 8f 3d 0d c0 8d be 15 f6 24 3d 7b a0 0a 3f
       0.069830604 -0.27685586 0.040273745 0.54151124
000050 c5 40 7c 3e 1c 53 98 be 98 4d 08 bd 82 0b 0c 3f
       0.24634083 -0.29750907 -0.033277124 0.5470506
000060 07 71 b7 be 49 9d 53 be 43 77 bf be df 67 e0 3d
       -0.3582842 -0.20665468 -0.37395677 0.10957312
000070 e6 56 65 3b d1 30 a1 bc be 1c 21 3f 3e 18 4a 3e
       0.0034994422 -0.019676598 0.6293448 0.1973581
000080 7d 74 90 3e da 21 71 be ff 5a 8e bd 7f 6d a2 3e
       0.28213874 -0.2354807 -0.0695095 0.31724164
000090 39 b4 68 be f9 64 81 3e de 61 e0 3e 52 e5 04 3f
       -0.22725 0.2527235 0.43824667 0.51912415
0000a0 eb 99 af 3e e0 a0 84 bd 68 b1 a9 3d e2 9c 79 bc
       0.34297118 -0.06475997 0.08285791 -0.015235158
0000b0 15 fd f7 3e 6a 67 4d be 68 5b 4b 3e b5 76 87 be
       0.48435274 -0.2005898 0.19859087 -0.26457754
0000c0 23 e0 03 3e f4 ca a6 3e d4 5e 83 3e ce a4 3e 3e
       0.1287847 0.32576716 0.25658286 0.18617555
0000d0 f0 42 52 3e 0e 77 29 3e 7a ea cb 3c 64 5f fb 3e
       0.20533347 0.16549322 0.02489208 0.49096215
0000e0 5e 27 94 bc df ca 9f 3e 66 65 19 3d e5 a9 f3 3e
       -0.018085178 0.31209466 0.037450217 0.47590557
0000f0 cf 9d 73 3e cd 9a 91 3e 65 d0 c9 3e 03 3c 8b 3e
       0.23790668 0.28438416 0.39416805 0.27194223
000100 e0 bb 94 bc 6e 5b ec bd b6 96 c8 bd f7 ce ca 3e
       -0.018155992 -0.11540876 -0.09794371 0.39611027
000110 7d 22 89 3e 20 a9 a7 be 37 f6 27 3e 70 1e 9a be
       0.26784125 -0.3274622 0.16402517 -0.30101347
000120 ac 3e 15 3f 0a ee 34 3e 53 15 c4 3d 11 3d 0b 3f
       0.58298755 0.1766893 0.0957438 0.54390055
000130 f1 15 eb bd 34 90 8d bd 76 c5 be be c7 a7 ad 3c
       -0.11478794 -0.0691227 -0.37260026 0.021198167
000140 02 15 27 3e 69 c5 1c 3e be e9 e8 be 1a f5 dc 3e
       0.16316608 0.15309681 -0.4549083 0.43155748
000150 b9 6e bc be eb 06 a1 3e f7 c2 02 3f 85 3c 90 3e
       -0.36803225 0.3145059 0.5107874 0.28171173
000160 8b 82 65 be d6 17 ae 3e c5 7f 04 3e 24 ec ce 3e
       -0.2241308 0.3400256 0.12939365 0.40414536
000170 fb a3 23 be 29 58 b4 3d c4 55 ad be ca c9 01 3f
       -0.15980522 0.08805878 -0.33854496 0.5069853
000180 ce 5c a5 bd d4 d2 e3 3e fa 09 16 be 70 03 a3 3c
       -0.08074342 0.44496787 -0.14652243 0.0198991
000190 ea 76 66 bd 16 b2 ad 3e 30 fc 6e 3e 18 27 24 3f
       -0.05626575 0.3392493 0.2333839 0.6412215
0001a0 5c fe 41 be 12 ba a7 3d 3f 67 1d 3f 39 d4 b1 bd
       -0.18944687 0.08189787 0.61485666 -0.086830564
0001b0 a6 53 8d 3c a7 f5 98 3e cd 7d fb 3e ff ca af 3e
       0.0172518 0.29874918 0.49119416 0.3433456
0001c0 b9 2e ca be 20 c7 b9 be 85 4d 76 3e 1c 2a 10 3f
       -0.39488772 -0.36284733 0.24053009 0.56314254
0001d0 85 97 2d 3e 50 a9 60 be b1 2c 9e 3e 80 a9 cc 3e
       0.16952331 -0.21939588 0.30893472 0.39973068
0001e0 68 e0 03 3f c3 03 33 3c 11 ef b7 3e 04 76 6d 3d
       0.5151429 0.01092619 0.3592458 0.057973877
0001f0 d9 a5 e4 3e 17 c1 92 be 9a 3e fb 3e fe 84 e5 3e
       0.44657782 -0.2866294 0.490712 0.44828027

VAE.encoder_mu.layers.1.linear1.weight f4 [4, 128]
000000 c5 43 83 3d 9b 17 b0 3d cb 7f 8f 3e 8a c4 6b 3e
       0.064094104 0.085982524 0.28027186 0.23024192
000010 eb d5 8e 3d 7a f7 1d 3d de ee b1 3d 5a 39 94 3c
       0.06974395 0.03856609 0.086881384 0.018093754
000020 f8 83 9a 3d aa 40 4d 3e 80 6b 17 3d 96 ca 50 3e
       0.07544702 0.20044199 0.036967754 0.2038978
000030 21 7a 2f 3e 40 b9 c1 3c 14 fd 1f 3e f2 16 24 3e
       0.17136432 0.023647904 0.15623885 0.16024378
000040 42 c7 8c 3e 1e 85 0c 3f 48 f9 42 3e d6 85 32 3e
       0.27495772 0.5489062 0.19040406 0.17433867
000050 fb 1f ec 3d b1 79 47 3e e6 d5 17 3e e1 26 53 3e
       0.11529537 0.19480015 0.1482769 0.206203
000060 71 63 b2 3d a7 35 e6 3d 8f db 26 3e b8 de 42 3e
       0.08710373 0.11240702 0.16294692 0.19030273
000070 50 17 0e 3d 70 68 db bd c7 ea 2b 3e 00 ac 1f 3e
       0.0346902 -0.10713279 0.16788779 0.15592957
000080 e5 05 6e 3d 94 58 e4 3e f1 3e 08 3e 67 88 9b 3d
       0.05811109 0.4459883 0.1330526 0.07594376
000090 41 f0 7f 3d bf 0e b2 3d dc 25 64 3e 05 57 33 3e
       0.062484983 0.08694219 0.22280067 0.17513664
0000a0 ea 71 f6 3c 49 a2 ca 3d 90 e2 1e 3d 67 17 f5 3c
       0.030083615 0.09894235 0.038790286 0.029918386
0000b0 ca ac 7d 3e c1 cd 8b bd bd bc b3 3d 80 e5 c9 bd
       0.24772945 -0.06826354 0.08776233 -0.09858227
0000c0 75 e1 0e 3e 2d d9 93 3e 35 3e 4f 3e d8 20 7c 3e
       0.13953193 0.2887663 0.20238574 0.24621904
0000d0 a4 67 0a 3d 68 d5 99 3e 82 c0 2f 3e 4a c4 06 3e
       0.033790246 0.3004563 0.1716328 0.13160816
0000e0 25 c8 95 3e 01 37 2e 3b f9 2a 49 3e e4 95 0e 3e
       0.2925426 0.0026583078 0.19645299 0.13924366
0000f0 db e9 23 3e 03 bb 04 3e 48 9b e5 3d b4 34 4b 3d
       0.16007178 0.12961964 0.11211258 0.04961081
000100 79 5c c0 3e 7f c2 1d be 04 e5 1b 3f 93 21 4d 3d
       0.3757055 -0.15406226 0.60896325 0.050080847
000110 a9 5e 51 3e 00 d1 94 3e e2 fc d4 3d de f5 96 3e
       0.20446266 0.29065704 0.10399796 0.29484457
000120 ef 8a c6 3c 9e f9 04 3e 24 14 6f bd 61 01 7c 3e
       0.02423617 0.12985846 -0.058368817 0.24609901
000130 5b 69 8a 3e e0 5e eb 3c b0 5c 93 3e 7a 5a 94 3e
       0.27033505 0.028731763 0.28781652 0.28975278
000140 63 4d a0 3d 34 80 ed 3d c4 10 a0 3e 7a e4 2c 3e
       0.0782726 0.115967184 0.3126279 0.16884032
000150 a1 dd c0 3e 2c 65 7a bd 42 9e 84 3e a5 64 44 3e
       0.3766909 -0.06113164 0.2590199 0.19179018
000160 ba bb 14 3f 77 48 95 bd 89 e7 74 3d a1 9d 3f 3e
       0.5809895 -0.07289212 0.05979112 0.18712474
000170 c2 0e 73 3e 8a c1 f7 3d c8 94 70 3e 87 05 44 3e
       0.23736098 0.120974615 0.23494256 0.19142734
000180 03 36 af 3d a6 35 cb 3d 49 f4 42 3e 36 12 03 3e
       0.08555224 0.09922342 0.190385 0.12799916
000190 ed 2f 4c 3e d1 5d fa 3c 50 db a2 3d 49 85 2f 3e
       0.19940157 0.030562313 0.07951987 0.17140688
0001a0 18 37 3a 3f 3e f4 71 3d 15 7f 33 3e 0c a1 03 3e
       0.72740316 0.059070818 0.17528947 0.12854403
0001b0 fb c8 01 bb f4 86 05 3d c0 bc b3 3d fd a9 91 3d
       -0.0019803632 0.032599404 0.087762356 0.07112501
0001c0 3d c9 ac 3e 07 cf 44 3e 3e 46 bb bb 4b e5 3b 3e
       0.33747283 0.192196 -0.0057151606 0.18349187
0001d0 da 3a 11 3c a3 e8 2c 3e 79 df 19 3e 10 ff cc 3d
       0.008864129 0.16885619 0.15026654 0.10009587
0001e0 d3 84 c7 3d 40 05 ff 3d e1 67 5c 3e 84 95 15 3d
       0.09742131 0.12452173 0.21524002 0.036519542
0001f0 ff d9 ac 3d 29 77 0d bc 16 95 f3 3c ae eb 29 3e
       0.08440017 -0.008634367 0.029734176 0.16593811
000200 2b e0 22 3e fe bc 5b 3e 1f 20 24 be 5c a0 3d 3e
       0.15905826 0.21458814 -0.16027878 0.18518203
000210 b2 07 95 3e bb 3f f8 bb 46 e7 84 bd 1d 52 04 be
       0.29107434 -0.0075759566 -0.064894244 -0.12921949
000220 db ff 58 3e 00 10 13 be cc 3f a8 3d 12 39 8b 3c
       0.21191351 -0.14361572 0.08215293 0.016994987
000230 21 25 e0 bd 2c 79 68 3e 99 f6 7b 3e 81 9a 46 3d
       -0.10944582 0.22702473 0.24605788 0.04848719
000240 4e 4f 47 bd e8 00 7a bd eb a8 29 bd cf 18 2f 3d
       -0.048659615 -0.06103602 -0.04142086 0.04274827
000250 c0 b6 30 bc 90 fd 50 be f5 99 27 3e c7 a5 70 3b
       -0.0107857585 -0.20409226 0.16367324 0.0036719905
000260 e4 bf 15 be a3 b4 89 3e 5a 5a 59 3c 6b 84 30 3d
       -0.14623982 0.26895627 0.01326617 0.043095034
000270 1f 73 21 3d 1c 1c 12 bd 75 ac 8e 3e bf 06 06 3a
       0.03941643 -0.03567134 0.2786595 0.00051126996
000280 90 85 21 3e c0 4e 00 be 81 88 60 3e 5b 95 f0 bc
       0.15773606 -0.1253004 0.21927072 -0.029368093
000290 ed 80 2d 3e 13 0a 5b 3d ad e7 cc 3d 27 7d d5 3c
       0.16943713 0.053476404 0.10005126 0.026060654
0002a0 9d 33 82 3e 74 3c 60 3e bc 53 aa 3c cb 37 ce 3d
       0.25430003 0.21898061 0.02079188 0.100692354
0002b0 30 63 11 3e ef f2 37 3e 1e 5b 3f 3e f1 0c 6d 3e
       0.14197993 0.17963766 0.18687102 0.23149468
0002c0 86 9b b9 bc ca 18 12 3e a3 31 98 3e f8 73 17 3d
       -0.022657167 0.14267269 0.2972537 0.03697583
0002d0 96 5f 6d 3d 31 30 4a 3e 5f ed 3f be 8d bf d8 3c
       0.057952486 0.19744946 -0.18742894 0.026458526
0002e0 7d 7d 84 3d e2 05 04 3e 58 f4 c1 3d 05 31 27 3e
       0.064692475 0.12892869 0.09470433 0.16327293
0002f0 4d e9 f2 3d a8 b2 97 bd 9f a0 f9 bd da bc 73 3e
       0.11860905 -0.07407123 -0.12188839 0.2380251
000300 f2 18 91 3d 3b 10 a3 3e 0b fb f2 bd 3b f9 9e 3e
       0.07084836 0.3184832 -0.11864289 0.31049523
000310 59 9f a8 3d e1 36 1a bd d8 58 e4 bb 41 30 45 be
       0.08233518 -0.037649993 -0.006968599 -0.19256689
000320 0b 1e 92 3d ef 31 32 3e 07 82 3a bd de 39 d5 bd
       0.071346365 0.1740186 -0.04553416 -0.10411428
000330 34 b2 74 bd d9 3f 10 bd fd 78 f4 3d 72 c9 6e 3e
       -0.05974026 -0.03521714 0.11937139 0.23319033
000340 37 74 5b 3e 3f 09 47 3c 31 86 a3 3b e3 fc 0b 3e
       0.21431051 0.0121482005 0.004990362 0.13670687
000350 82 76 81 bd c9 73 f9 bc 81 9b 93 3d 7a 30 80 3e
       -0.06321432 -0.030450718 0.072073944 0.25036985
000360 6c c3 54 bd 2f 82 15 3b cb 6d 41 be 2b df 2c 3e
       -0.05194418 0.0022813191 -0.18889539 0.16882007
000370 99 cd 7c be 11 0d 66 3e 1c bb 20 3e 00 4e f5 3d
       -0.24687804 0.22465922 0.15696377 0.11977768
000380 fb 3f 0e 3b f5 4e 46 3e 9d 29 59 3e 40 9d 1d be
       0.0021705616 0.19366057 0.2120728 -0.15392017
000390 f3 63 39 3e 23 76 16 3e 8f c1 04 3e d3 6f 91 3c
       0.18104534 0.14693503 0.12964462 0.017753517
0003a0 2b b0 3e 3e 2a d4 1d be 9f f5 a3 3d 90 16 95 3c
       0.1862189 -0.15412965 0.08005833 0.018199235
0003b0 9d e8 75 3e 11 26 90 3e 18 ac c9 3d 31 50 40 3e
       0.24014516 0.28154042 0.098472774 0.1878059
0003c0 c3 8c 24 be 5c 99 49 bd 46 94 26 3e 06 65 14 be
       -0.16069321 -0.04921852 0.162675 -0.14491662
0003d0 e6 3e 3b 3e 42 ce b4 bb c0 11 bb 3d 88 bf 1f 3e
       0.18285713 -0.005517752 0.09134245 0.15600407
0003e0 34 a8 0e 3d dc 15 de 3d 30 62 ad 3d e9 bd f4 3d
       0.03482838 0.10844013 0.084659934 0.11950285
0003f0 ab 3b 63 3e 99 fa 23 3d 92 69 20 3e 65 9a 3a 3e
       0.2219073 0.04003391 0.15665272 0.1822296

VAE.encoder_mu.layers.1.linear1.bias f4 [4]
000000 33 19 12 3d df f3 1e bc fa 35 ea 3d 6c 3f 33 bb
       0.035668563 -0.009701698 0.114360765 -0.0027351035

VAE.encoder_mu.layers.1.norm1.weight f4 [4]
000000 2f 81 96 3f c3 9e a4 3f 26 37 a6 3f f1 00 9b 3f
       1.1758174 1.286095 1.298558 1.2109662

VAE.encoder_mu.layers.1.norm1.bias f4 [4]
000000 ad 0d ba 3d 38 52 44 3e a4 01 e7 bd 32 65 47 bb
       0.0908464 0.19171989 -0.1127961 -0.0030425307

VAE.encoder_mu.layers.1.norm0.weight f4 [4]
000000 1b 0f 36 3f d3 f2 68 3f 22 24 89 3f fc 42 87 3f
       0.711168 0.9099552 1.0714152 1.0567317

VAE.encoder_mu.layers.1.norm0.bias f4 [4]
000000 92 b2 a2 3d 8e 76 8b bd 72 ff b7 3d 61 98 fe 3d
       0.07944216 -0.06809722 0.08984269 0.12431408

VAE.encoder_mu.last_normalization.weight f4 [4]
000000 00 00 80 3f 00 00 80 3f 00 00 80 3f 00 00 80 3f
       1.0 1.0 1.0 1.0

VAE.encoder_mu.last_normalization.bias f4 [4]
000000 00 00 00 00 00 00 00 00 00 00 00 00 00 00 00 00
       0.0 0.0 0.0 0.0
