tabsyn/vae/ckpt/default/major_finetuned_on_majorminor/decoder.pt (torch, 27971 bytes, 49 tensors)

VAE_Decoder.layers.0.attention.W_q.weight f4 [4, 4]
00000000: d6e2 003f 75e4 f5be b60e 11bd d362 c6bd
00000010: d577 49be 2bc8 693e d604 f53d 88be aebd
00000020: 756a 8c3e c5f5 aebd c919 d23e aaa4 debe
00000030: 78f8 aabe 6d3b debe a087 e03c f324 483e
0.50346124 -0.4802586 -0.03541442 -0.09686818 -0.19674619 0.22830264 0.11963813 -0.08532435
0.2742497 -0.085429706 0.41035298 -0.43485004 -0.33392692 -0.43404713 0.027408421 0.19545345

VAE_Decoder.layers.0.attention.W_q.bias f4 [4]
00000000: e952 0dbe f613 993e 367a 8ebd 345a 9abd
-0.13801159 0.2989804 -0.06956904 -0.07536736

VAE_Decoder.layers.0.attention.W_k.weight f4 [4, 4]
00000000: 2c17 99be cb59 5bbd 83dd dfbe 149a 24bf
00000010: b449 e8be 5487 b6bd 763b 9abe 0ee0 de3e
00000020: 2ee9 28be 85f3 0e3d 2279 39be b8fb c0be
00000030: 4bd0 8cbe 4ca5 8e3e b7e5 a53e ac60 88be
-0.2990049 -0.05355243 -0.43723688 -0.64297605 -0.4536873 -0.089125305 -0.3012349 0.43530315
-0.16495201 0.034900207 -0.18112615 -0.37692046 -0.27502665 0.27860487 0.3240182 -0.26636255

VAE_Decoder.layers.0.attention.W_k.bias f4 [4]
00000000: 1e71 26ba e09b 963a 7970 4438 d398 d7b8
-0.0006349253 0.0011490546 4.683479e-05 -0.000102804646

VAE_Decoder.layers.0.attention.W_v.weight f4 [4, 4]
00000000: 1d63 0ebe b028 3f3e be96 10be 745b d0be
00000010: 3b39 473d 2fd6 c33d bbcd a8bd fad1 43bd
00000020: e303 10bc 3889 de3d 7aef bdbd 36eb 1abe
00000030: babe 303d 7fa9 cd3d 7199 bcbd 0ab7 0cbe
-0.13904996 0.18667865 -0.14120004 -0.40694773 0.048638564 0.09562337 -0.08242365 -0.04780767
-0.008789989 0.10866016 -0.09274192 -0.15128788 0.04315064 0.100420944 -0.09208954 -0.13741699

VAE_Decoder.layers.0.attention.W_v.bias f4 [4]
00000000: 65a6 50be a490 47bd 5598 70bd 4ae1 673e
-0.20375974 -0.048721924 -0.058739025 0.22644535

VAE_Decoder.layers.0.linear0.weight f4 [128, 4]
00000000: 5aac e9bd 4760 b43e 93b6 df3e 985b 98bd
00000010: e076 063f 6c48 18be 9ee1 c43d db95 db3e
00000020: caaf 4bbc 386e 4ebe ea4c 05be 4c08 65be
00000030: af3b 4dbe 814c dabe 7ead c73e 4cbb 1e3f
00000040: 6641 bb3e 8bb2 fcbe 6545 a93e 1d14 63bf
00000050: 7182 983e d7a5 07bf 11c4 813e dcfc 2cbf
00000060: 2f25 b73e 370c 14bf b210 003e cb0e f13c
00000070: 79f4 4ebc d3a2 733e efe3 363e 7917 db3e
00000080: 6a80 84bd fc52 3ebe fa04 05bf 3de7 b43e
00000090: 581e efbe 5b2a 2ebe 2f1d cb3d ced1 fabe
000000a0: e772 933e 6995 40bf 32ed 93bd e4d8 323e
000000b0: e70e eb3d 83ae d93e aef8 06be 4549 ee3e
000000c0: 946a 193f 55a5 41bf 133c 9abd 0575 dd3e
000000d0: 549e 6a3f 53cf 47be 00c4 05bf 7ad3 af3e
000000e0: 045c 1f3e ebe1 3fbe 194e 173f 7bf9 cfbe
000000f0: dd25 4c3e 64a2 37be 8be9 1dbf 89c7 f13e
00000100: 1d42 6c3e 5d5f f23d 902f 723d 40b5 ee3e
00000110: 8468 9ebe 3520 083e ab70 f43e 1150 30bf
00000120: 2077 c33e 1a53 1ebe 9249 27be 13f2 3d3f
00000130: ab6b f6bd f4ab a0be 35c3 1a3f 111d acbe
00000140: 7831 19bf 083c 6bbe 0be3 3d3e f556 c2be
00000150: d01e 6fbe f1d9 7cbe 460e 13bf 4331 1d3e
00000160: 7dcf 9dbe 57c8 acbe 6e9b 8fbb faa5 ac3e
00000170: cbef afbe d0a4 4fbe 6d7a 243d 3396 073f
00000180: fa88 473e 54aa 9ebe 8515 7e3c 3ddd 74be
00000190: 17f4 ae3e 0e60 89be 228a c73e 38ba 26bf
000001a0: 58d6 703f 1812 51be ee05 77bf ac8b 44bf
000001b0: d62d 6b3e 4386 0d3f 6d83 e3be 5f16 05bd
000001c0: b687 e5be 2415 a2be a0ef 1ebe 446b 9abe
000001d0: 6631 e83e b5d4 47bf c5e0 de3e 34d4 d43e
000001e0: 0c31 16be 252e cabe aa27 c63e dfd4 4cbe
000001f0: 1049 a1be 54ce 7dbe 66ce 6abe 7d91 efbd
00000200: e155 cc3e 3687 17bf bc56 05bf 84eb 0b3f
00000210: 0cdd b83e 63a9 2cbf 3666 00bd 9765 663e
00000220: 8598 d7be ac6b 723e 2c38 0bbd 8cc0 9abe
00000230: 67df c7bd 052b 1a3f 8207 19bf bcb6 e1be
00000240: 77b3 f0bd 1b6a 28be 5da0 20bf f633 e33e
00000250: 0edc 093e 0b4a 1f3d 47ce 553e 0c10 3abf
00000260: 2ff6 30bd 80c3 bd3d d8f4 463e 1bd0 0d3f
00000270: cac8 0abf ebef 81bc aaa3 7a3e 5284 febe
00000280: b302 0b3e 9c00 e53e 420f 0dbf 1056 ec3e
00000290: a639 ccbe 6087 f1be 87af 113f 0062 c3bd
000002a0: 6a25 143f 576f 203e 44e0 5cbe 5f08 eebe
000002b0: 72e7 ffbe a0cb 11bf 7dd8 a73d e298 a73e
000002c0: 7e50 a6be 21ed 373d ad40 4bbe 37d7 053f
000002d0: 5031 94bd 7df5 b03e e54a e03e 3579 bbbe
000002e0: 5ac4 9abe bb92 d5bd 512c 70bd fdfe 373f
000002f0: 4754 fdbe 44d8 103f a0fe 36be 5c5d fabe
00000300: d39e 9f3e 0b9d 07bf 3cfc 963e 3e0e a7be
00000310: 0020 6ebe 331f ad3e 667d 263e 091a cebe
00000320: e926 a6be a8d8 d93c 9f82 98be 8ca4 babc
00000330: a67f 953e 0f7d 95be d094 8fbd 7ce1 4c3f
00000340: bd0c ebbc 48f5 4ebe 820e bdbe 37f4 393f
00000350: 46f7 afbe e25a b9be 1f3e 63be c4c3 403f
00000360: cdee 173f 2b81 383e 33e9 bcbd 500d 3ebf
00000370: 7532 523d cfc0 133f 08bf f83e 50ec d5bb
00000380: 99c8 1dbf 035a c03d 24fc dfbe 5724 263f
00000390: a77c 13bf 021d 9b3e 33d4 ad3e 1ea8 8bbe
000003a0: e5b6 e3be 4c2d 0bbf f8ad 1a3f c093 34be
000003b0: ca1b 3cbe d2b2 a43e 4158 b63e 33a3 85be
000003c0: 2778 ed3e e8d0 d53e 91df 1ebf d2f1 06bf
000003d0: 6807 663e 11d3 2a3d 501a fd3e 7e5d d33e
000003e0: e8d6 85be ab02 b4be 674b d5be 0d2c a03d
000003f0: 09a9 bbbe b3c8 c8be f965 35bf 8f76 823e
-0.114098266 0.35229704 0.4369398 -0.07439345 0.5252514 -0.14871377 0.096133456 0.42887768
-0.012432048 -0.20159233 -0.13017622 -0.22366446 -0.20042299 -0.42636493 0.38999552 0.6200454
0.36573333 -0.49354967 0.33060756 -0.88702565 0.2978702 -0.52987427 0.253449 -0.6757333
0.35770556 -0.5783114 0.12506369 0.029426 -0.012631529 0.23792581 0.17860387 0.42791346
-0.064698055 -0.18586344 -0.5196072 0.3533267 -0.46702838 -0.17008345 0.09917676 -0.48988193
0.287986 -0.7522798 -0.07222976 0.1746555 0.11477452 0.42515954 -0.13180801 0.46540275
0.5992825 -0.756429 -0.075309895 0.4325334 0.9164784 -0.19512682 -0.522522 0.3434103
0.15562445 -0.18738525 0.5910354 -0.40620026 0.19936319 -0.17933041 -0.61684483 0.47222546
0.23072095 0.11834595 0.05912739 0.46622658 -0.30939114 0.13293536 0.4774221 -0.6887217
0.38176823 -0.15461388 -0.16336659 0.741975 -0.12032255 -0.3138119 0.6045411 -0.33615926
-0.5984111 -0.22972119 0.18543641 -0.37956968 -0.23351598 -0.24692513 -0.57443655 0.15350823
-0.30822363 -0.33746597 -0.0043825423 0.3372038 -0.34362635 -0.20277715 0.040155817 0.5296356
0.19485846 -0.30989325 0.01550806 -0.2391252 0.341706 -0.26831096 0.38972574 -0.651279
0.9407706 -0.20417058 -0.96493423 -0.7677562 0.22966704 0.5528299 -0.44436207 -0.032492038
-0.44830102 -0.31656754 -0.15521097 -0.30159962 0.45350188 -0.7805894 0.4353086 0.41568148
-0.14667147 -0.3948833 0.38702136 -0.20003079 -0.31501055 -0.24785739 -0.22930297 -0.116976716
0.3990927 -0.5919069 -0.5208547 0.54656243 0.36106145 -0.67445964 -0.031347476 0.22499691
-0.4210855 0.23673886 -0.033989117 -0.30225027 -0.097594075 0.6022189 -0.5977708 -0.44084728
-0.1175298 -0.16446726 -0.62744695 0.4437558 0.1346285 0.038888972 0.2087947 -0.72680736
-0.04320353 0.09265804 0.19429338 0.5539567 -0.5421263 -0.015861472 0.24476495 -0.49710327
0.13575248 0.44727027 -0.55101407 0.4615941 -0.39887732 -0.47173595 0.5690846 -0.095401764
0.5786959 0.15667473 -0.21569926 -0.46490762 -0.49981266 -0.5695133 0.08195589 0.32733828
-0.32483286 0.044903878 -0.1984889 0.52281517 -0.07235968 0.34562293 0.4380714 -0.3661591
-0.3022793 -0.10428377 -0.058636013 0.71873456 -0.4947836 0.56579995 -0.17870569 -0.48899353
0.3117586 -0.52974004 0.29489315 -0.32628053 -0.23254395 0.33812866 0.16258773 -0.40254238
-0.3245156 0.026592568 -0.29787156 -0.02278354 0.2919895 -0.29196975 -0.070108056 0.8003156
-0.028692598 -0.20210755 -0.3692513 0.7263827 -0.34368342 -0.3620215 -0.22191666 0.75298715
0.59348756 0.18018024 -0.09224167 -0.74239063 0.05131765 0.5771608 0.48583245 -0.006528415
-0.6163421 0.093921684 -0.43747056 0.648992 -0.5761208 0.3029557 0.33950958 -0.272767
-0.44475475 -0.5436599 0.60421705 -0.17634487 -0.18369976 0.3216768 0.35614207 -0.26101074
0.4638073 0.41760945 -0.62059885 -0.5271274 0.22463763 0.041705195 0.49434137 0.41282266
-0.26140523 -0.35158285 -0.4165909 0.07820902 -0.366524 -0.3921562 -0.7085872 0.25481078

VAE_Decoder.layers.0.linear0.bias f4 [128]
00000000: 48ac a33e d682 cd3e 8f35 f33e 7135 7dbd
00000010: 8f51 693e 5a33 54be 6e3a c13e 2198 f93e
00000020: cbd0 86bd 2c14 a53d f176 213e 49aa 123f
00000030: f517 da3e 6fad 7f3e 018c af3e 3412 fa3e
00000040: 4915 fb3e fb23 813e 6da9 303d a609 d4bd
00000050: 4e83 42be 5215 90bc 8673 e4bd 2af3 513e
00000060: edc1 863e 24c9 a83e 9e16 8bbc b4dc dabc
00000070: ea13 903e 84e5 823e 6de2 b73e 5fec aabe
00000080: b0ea 943e 3508 3f3d ce51 d03e f46c e0be
00000090: 61a7 413b 78b1 d43e 59c4 983e 46aa 44be
000000a0: 9d73 a63e 4cac d93d 1343 a03e e924 8f3e
000000b0: e027 1d3f fe21 bd3d 7370 e33e cfde a23d
000000c0: f889 bb3e 6f8f 7abe b8d0 8d3e 0136 f33e
000000d0: 5c49 dc3d ca65 b83e ffa2 a83e b3cd e53e
000000e0: 3faa a5bd d955 863e 6028 983e 943c 7dbe
000000f0: 8b9c e5bd 5dd9 d63e 3475 ca3e 07e7 5bbd
00000100: e11a a2be 0526 ab3e 13f3 e6be 7f0d 343e
00000110: 0ba2 bebd bc87 213f 5cd7 293f 39db ce3e
00000120: eb2f cc3d 1aba d73e 779e 2abe e4cd 20be
00000130: af28 b2be 6f22 0e3f c70f 4d3e 131c 7ebe
00000140: 8b04 103d 52d5 98bd 5c4f bd3e dde5 893d
00000150: b213 d23c 2cd2 213d b85a 04be 9324 163e
00000160: ca6f 993e 2be3 30be 6337 7abe d15e 44be
00000170: 4b24 af3d 2450 1cbe ab90 bebd 2658 f0bd
00000180: db1c 7abe b524 bfbb 15a6 f23e b1be 2ebd
00000190: 034f d63e 9f2a 75be 7ec8 18bd 0dbc b0be
000001a0: 2651 c4be 435d e73e 0c4c 1a3e 0bfd 6f3e
000001b0: 378f 133e 2a23 84be fb0d 2ebe 9ede 5c3d
000001c0: dad0 b53d aed6 1b3a 7750 b23e 62fc 843e
000001d0: 0df8 a2bd 34e9 5ebe 00c1 b33d 48bd 0c3f
000001e0: 2b27 af3d b825 6f3d 01a4 0c3f a462 acbe
000001f0: 1f0c f13e a589 68bc 54db 71be 171d f43d
0.31967378 0.40138882 0.475018 -0.061818544 0.22785018 -0.20722714 0.3773989 0.48748878
-0.06582793 0.08060488 0.15768029 0.57291085 0.42596403 0.24968503 0.34286502 0.48842013
0.49039677 0.25222763 0.043130327 -0.10353403 -0.18995401 -0.017588291 -0.11154847 0.20502916
0.2631983 0.32965958 -0.016978558 -0.026716568 0.28140193 0.25565732 0.35914937 -0.33383462
0.29085302 0.046638686 0.40687412 -0.43833125 0.0029549228 0.41541648 0.298373 -0.19205579
0.3251008 0.10628566 0.31301174 0.27957848 0.6138897 0.09234999 0.4442173 0.079526536
0.366287 -0.24468778 0.27698302 0.4750214 0.1075618 0.3601516 0.32936856 0.448835
-0.080891125 0.26237372 0.29718304 -0.2473014 -0.11211499 0.4196271 0.39542544 -0.05368712
-0.31661132 0.33427444 -0.45107326 0.17583273 -0.09308251 0.6309774 0.6634424 0.4040163
0.09970077 0.42134172 -0.16662012 -0.15703541 -0.34796664 0.5552129 0.2002555 -0.24815397
0.035160583 -0.074625626 0.3697461 0.06733296 0.025644157 0.039507076 -0.12925231 0.1466239
0.299681 -0.17274158 -0.24435191 -0.19176795 0.08551844 -0.15264946 -0.09304937 -0.11735563
-0.2442507 -0.0058332332 0.47392336 -0.042662326 0.41857156 -0.2394204 -0.03730058 -0.3451847
-0.3834316 0.4518834 0.15068072 0.23436372 0.14410101 -0.25808078 -0.1699752 0.05392324
0.08877726 0.00059447705 0.34827015 0.25973803 -0.07957468 -0.21768647 0.08777046 0.5497632
0.085523926 0.05838558 0.5493775 -0.33669007 0.4707956 -0.014192973 -0.23618823 0.11919611

VAE_Decoder.layers.0.linear1.weight f4 [4, 128]
00000000: 3092 68bd 6880 a13d d204 cf3c ec82 63bc
00000010: cde4 a73d 3be1 433d 10cc 183e 2d37 81be
00000020: be1f 97bd ec29 63bb ac2d 613e 59ba 1bbe
00000030: e60c a63d 9830 403f 4ed4 6bbd 0748 0ebd
00000040: 0650 a0bd 273a df3b 19a6 52bd f2e5 113c
00000050: 7de4 133e 4ec2 0dbe 2126 2abe c037 45be
00000060: 790d 753c c9c6 03bd 8cb6 a03e 290d ccbd
00000070: 2e8c babd ae4a 423e 0d01 acbc 8f23 233d
00000080: 0e86 7d3c 95ce 253e 0fdd fabc 5126 983e
00000090: 483d 34be b1ee c1bd abec 6dbd 1517 b6bd
000000a0: 83d9 9cbd fe8a e13c 1fbc 9a3c c1d9 5d3c
000000b0: 5f2e 33be b6be 60be ffaa 52be e1f5 1e3d
000000c0: db1f 173e 5ad4 f0bd 95d0 86bd 3cc0 b4bc
000000d0: 27b8 3bbe 4abb 0bbe ceb2 4d3d 893d b3bd
000000e0: 15c4 d6bd 43a1 43be af1c b13c b328 d8bd
000000f0: 6a4e 91bd ea30 36bd e221 c2bb 2791 9cbe
00000100: d118 c2bc 4b91 96bd 2e99 b83c 0ad5 84bd
00000110: 7447 65be 8db8 40bd a94f 3a3d 3442 00be
00000120: 22a5 65be f227 bcbd 4bfc b63c 18f5 15be
00000130: 307a eabb 6c04 41bd 1ddb d73d a61c df3d
00000140: 506e ebbc a0c3 c63e 9447 913d 9413 4cbc
00000150: 7df9 92be 316f 47be 6533 6f3d 131d 0f3d
00000160: 4c16 2dbe 76b9 473e 91b0 01bd db66 d6bc
00000170: b24e 21be f824 1fbe d11d 03be f0c2 fdbe
00000180: 6bf5 92be b024 4abd e1bf a5bd 86b1 e6bd
00000190: d606 f1bc 5ee6 7a3e 54ef b2bd ed85 073e
000001a0: babb 61bc 4b78 dbbd f6bb 25bd 0452 0fbe
000001b0: 6be7 0d3c e7f0 35bd a84b afbe ccd5 513f
000001c0: 738f 413e 5c76 a1bd 7580 703c 3ae8 5dbe
000001d0: c67d 4e3e e591 9bbd 4566 4c3e 36d7 963d
000001e0: 174b 5ebc 59f5 2dbd 737f f33c 8c82 3e3e
000001f0: 5631 ae3d 4956 83bd 653f 76be 8ebf 1fbe
00000200: 50de 33bc af9c 4cbe 6fcc d5bc f961 4bbe
00000210: 7a1f fbbd 01a8 77be c226 1bbe 9c7e 4ebd
00000220: 76d5 bbbd a7ad 813d b773 b0be d595 7ebb
00000230: 485a 37be 2f37 38be 4e6e e2bd c0e5 8abd
00000240: c762 89bc 437e 913d e0ec 32bd 06dc 17be
00000250: 9ac2 9cbe 88eb ddbd 00b7 0ebe 2613 79be
00000260: 5995 f4bc f8f5 81bd 45f6 483f 5a79 853c
00000270: 814f e3bc 3e23 23be 3d5e 1abc f347 83ba
00000280: 9d9f c0bd 116e 62be a51b a23d 11fa 63bd
00000290: 4b4b 12be 981a 033e df05 0cbe 3722 afbd
000002a0: ef5f 59bd 3ff0 1abe 4382 063f ce49 88bd
000002b0: b707 2cbd 694d b23d 073b 29be 742b 3e3d
000002c0: 6819 96bd 834c 283e 8f93 cf3b 5cd5 23be
000002d0: c4ba 54be 4e27 05be 9349 a43e c20d c43d
000002e0: 33b2 62be 8370 b5bc 860a 47be 4a09 8c3e
000002f0: 281a 553e 5894 93be c291 85bd 6efb 2ebe
00000300: 21a4 793c 5b1c 02be faac d53d f2e4 bc3d
00000310: ce87 acbd 6502 2c3e 20ad 40be b997 3d3e
00000320: d9e1 0fbe 2e10 9e3d d0c1 0bbe a5d9 f8bc
00000330: 251f f0bd 53d3 39be deeb 16be 06cc 1b3f
00000340: 6ad2 08be 1742 d03d 3631 eabb 6445 0fbe
00000350: f639 01be 1bdd 8dbd 703e 08bd bff1 373d
00000360: 9a6e 3abe 7e67 373f 81f8 81bd a7ff ecbd
00000370: 433c b1bc 0dcf 0fbe 0dd4 bd3e ff5c 7cbe
00000380: 382f a4bd 1ee9 fcbb a4a6 bb3c 2f33 aa3d
00000390: 9628 b6bd dbd2 3fbe 6b0a 113e 309f 943e
000003a0: ecb2 4ebb 3dc4 f2bd 9d4f 25be cd35 213e
000003b0: 27b4 3ebd 2287 e6bb b8b7 9ebe c0db 4fbd
000003c0: c746 5cbd be9b a33d 4eab 19be 90c9 31bd
000003d0: abaf bdbc 2256 8d3d 18a5 9cbe 6ee5 11be
000003e0: 9278 52bc 8b89 413e 2c5d 74be 67cf 7dbe
000003f0: 2ddf 793d 0a15 893e 2d4b 5d3e c253 b23e
-0.05678004 0.0788582 0.025270853 -0.013886195 0.08197937 0.04782222 0.14921594 -0.25237408
-0.07379101 -0.0034662439 0.21990079 -0.15207805 0.08107929 0.7507415 -0.057575516 -0.03473666
-0.07827763 0.006812352 -0.051427934 0.008904921 0.1444263 -0.13843653 -0.16616108 -0.19259548
0.014956825 -0.032172 0.31389272 -0.099634476 -0.091087684 0.189738 -0.020996595 0.039828833
0.015473856 0.16192086 -0.030622987 0.29716733 -0.17601502 -0.09469355 -0.058087032 -0.08891121
-0.076586746 0.027532097 0.018888531 0.013540686 -0.17498158 -0.2194775 -0.20573042 0.038808707
0.14758246 -0.11759253 -0.065827526 -0.02206432 -0.18331967 -0.13645664 0.05021935 -0.08751971
-0.104866184 -0.19104485 0.021620123 -0.10554638 -0.070950344 -0.04448024 -0.0059244493 -0.30579492
-0.023693474 -0.07351931 0.02253398 -0.064859465 -0.22390538 -0.047051 0.045486126 -0.12525254
-0.22426274 -0.091873065 0.0223371 -0.14644277 -0.007155679 -0.047123358 0.105398394 0.10894136
-0.028739125 0.38821125 0.070937306 -0.01245584 -0.2870597 -0.1947601 0.058398623 0.034939837
-0.16903037 0.19504341 -0.031662527 -0.026172092 -0.15752676 -0.15541446 -0.12804343 -0.49562788
-0.28702864 -0.049351394 -0.080932386 -0.11264329 -0.029422205 0.2450194 -0.087370545 0.13234682
-0.013777668 -0.107163034 -0.040462457 -0.1399613 0.008661131 -0.044419196 -0.3423741 0.81966853
0.18902378 -0.078839034 0.014679064 -0.21670619 0.20165166 -0.075961865 0.19960888 0.07365267
-0.0135677075 -0.04247031 0.029723858 0.18604487 0.08505504 -0.06412942 -0.2404762 -0.15600416
-0.010978296 -0.19981645 -0.026098458 -0.19861592 -0.12261863 -0.24185182 -0.15151504 -0.050413713
-0.09171574 0.0633195 -0.34463283 -0.003884663 -0.17905533 -0.17989801 -0.11056195 -0.067821026
-0.016770734 0.07104161 -0.043682933 -0.14830026 -0.3061722 -0.1083594 -0.13936996 -0.24323711
-0.02985637 -0.06345743 0.7850078 0.016293216 -0.027747871 -0.15931413 -0.009421882 -0.0010015949
-0.09405444 -0.221123 0.07915429 -0.055658404 -0.14286534 0.12803113 -0.13674115 -0.08551448
-0.053070005 -0.15130709 0.52542514 -0.06654702 -0.041999545 0.08706171 -0.16526423 0.04642816
-0.073290646 0.16435437 0.006334729 -0.15999359 -0.2077437 -0.13003275 0.32087383 0.095729366
-0.2213829 -0.022148376 -0.19437608 0.27350837 0.20810759 -0.28824115 -0.06521942 -0.170881
0.015236885 -0.12706129 0.10433383 0.09223355 -0.0842434 0.16797788 -0.18816042 0.18514909
-0.14050998 0.0771793 -0.13648152 -0.030377218 -0.1172469 -0.1814702 -0.14738414 0.6085819
-0.13361517 0.10168856 -0.0071469797 -0.13991314 -0.12619767 -0.06926938 -0.03326267 0.04490828
-0.18206254 0.7164229 -0.063462265 -0.11572199 -0.02163518 -0.14043827 0.37075844 -0.2464485
-0.08016819 -0.0077182194 0.022906609 0.08310544 -0.0889446 -0.18732779 0.1416413 0.290277
-0.0031539751 -0.11853836 -0.16143651 0.1574318 -0.046558525 -0.007035152 -0.3099954 -0.05074668
-0.053778436 0.0798869 -0.15006754 -0.043405116 -0.023155054 0.06901194 -0.30594707 -0.14247677
-0.012846129 0.18900125 -0.23863667 -0.24786149 0.061003853 0.26773864 0.21610709 0.34829527

VAE_Decoder.layers.0.linear1.bias f4 [4]
00000000: 76d6 0bbd 6849 003c a910 ccbd 5092 653c
-0.034140073 0.007830001 -0.09964115 0.014011934

VAE_Decoder.layers.0.norm1.weight f4 [4]
00000000: 4406 aa3f 3fac a63f 3b9a a43f b49d c13f
1.3283162 1.3021315 1.2859567 1.5126252

VAE_Decoder.layers.0.norm1.bias f4 [4]
00000000: 0efc e73d 43da d2bd 9e15 cabd b779 4a3e
0.113273725 -0.10295536 -0.098674044 0.19772993

VAE_Decoder.layers.1.attention.W_q.weight f4 [4, 4]
00000000: 07f3 bd3c bc72 0b3e d86a c7bd 3158 64be
00000010: 97b0 fbbd 4978 fd3e d51a 683e 5196 263d
00000020: 0781 59be eda2 8dbe c2e3 013f ca61 8bbe
00000030: fb3b 353e 02cb 003e d6ba 803e 3f07 bebe
0.023187174 0.13617986 -0.09737176 -0.22299267 -0.12289541 0.49505833 0.22666486 0.040670697
-0.21240626 -0.27663365 0.50738156 -0.27223045 0.17698662 0.12577441 0.25142545 -0.37114903

VAE_Decoder.layers.1.attention.W_q.bias f4 [4]
00000000: 0b65 2bbc 3b24 123e e895 9c3d 8c6c e7bd
-0.010461102 0.14271633 0.0764578 -0.113000005

VAE_Decoder.layers.1.attention.W_k.weight f4 [4, 4]
00000000: b93e 13be 7e05 903d 32bd b7be 3828 24bd
00000010: 603b a73e 8754 a5be 95ac 263e 16ae ad3e
00000020: f7e7 c6be b42d 71be 6a3b 41bf 0a91 2dbc
00000030: 7891 033e 0b61 063f 66a1 5b3e 28e2 113e
-0.14379396 0.070322976 -0.35886532 -0.040077418 0.32662487 -0.32291052 0.16276772 0.3392188
-0.3884885 -0.2355259 -0.75481284 -0.010593662 0.1284846 0.52491826 0.21448287 0.14246428

VAE_Decoder.layers.1.attention.W_k.bias f4 [4]
00000000: 16aa 28b8 0e2a e6b8 1683 2bb8 367b 1b37
-4.0212726e-05 -0.00010975088 -4.089166e-05 9.267407e-06

VAE_Decoder.layers.1.attention.W_v.weight f4 [4, 4]
00000000: de2e 39be 0362 523d 0148 a2bb 3c83 2bbe
00000010: a2a3 f83c 9f34 e5bc b4bf 733d ac7e d43b
00000020: 1a6e c73d 8d5c a03e 5437 833e 31de aa3e
00000030: 83a9 3f3d 0e52 ca3d 9b37 88ba eae8 5a3e
-0.18084285 0.051363003 -0.004952431 -0.1674928 0.030351464 -0.027979193 0.059508994 0.006484827
0.09737797 0.3132061 0.2562815 0.33372644 0.04679252 0.09878932 -0.0010392548 0.21377912

VAE_Decoder.layers.1.attention.W_v.bias f4 [4]
00000000: f9f8 e2bc 97c8 22bd 0665 21bc 8046 843b
-0.02770661 -0.03974208 -0.009850746 0.0040367246

VAE_Decoder.layers.1.linear0.weight f4 [128, 4]
00000000: 6ef7 d83e 7871 a4be a2ae 02bf 1319 783e
00000010: d96f 9e3e cbea c6be 963c b43d 0c03 023d
00000020: 3552 913d 70ca d6be 58a4 78be 7b87 b83e
00000030: 1771 5bbe be54 0e3f 8e7d 8ebf 966a 88be
00000040: e842 d03e b690 4d3e 2579 df3e 28cb 1ebf
00000050: f9ab 1fbe 6c9c c03e 303e ffbe e752 fb3d
00000060: 14a1 1ebf 4bd5 f5be e6c5 99be f37c 1c3f
00000070: 8a71 d93d 7f11 27bc 7087 633c 1b5f 823e
00000080: 7c54 983e de8b b2be 7133 a53e dbef b63e
00000090: 9814 0d3f 015e b23d 0f26 74be f732 ad3e
000000a0: df09 d4be 1f85 83be 7d46 4e3e b23b 83b9
000000b0: 434f ab3e 913c aabe fbe0 01bf dc40 b6be
000000c0: 95dd 79be 2cf7 e23e bfb8 f3be 00b8 7e3e
000000d0: 59a9 443e a197 e23e 0402 e2be d298 a7be
000000e0: 583e f8be 0ab3 b03e 15c0 b2bd 00d6 803d
000000f0: b1c6 82be 157f 1abf acd9 acbd c6d5 8abd
00000100: 6661 ae3e dc52 903e ce9d 2cbe 43cf 0dbe
00000110: 90d3 443e e69a c23e e861 94be a5a0 5a3d
00000120: 2690 503e 32f4 df3e 1df9 b8be 1500 03bf
00000130: 8202 50be a301 2bbe 3a6e 5a3f f669 c03a
00000140: 55bb 91be aca9 91be a2b9 893e 1c15 8c3e
00000150: 6cc0 413e 2620 663e 329f 37be 64d6 08bf
00000160: 1243 d1bd 3b91 6c3e f3b1 98be 4bc7 8bbe
00000170: c7a3 14bf b2cb 78be 69f5 183d d3c0 40be
00000180: 0960 1fbe 89d3 14bf 1406 7a3c c905 f13e
00000190: 7fcf 92be 4b9f 97be 7592 863d 5da2 ed3e
000001a0: 1ef2 10bf ea95 c73d 1065 d13e 2fc4 ae3e
000001b0: d595 87be 4fd7 fc3e faad 1d3f 3a74 adbe
000001c0: fa20 11bf 9dac 853d 38f9 b5be 62d9 f93e
000001d0: 1503 1bbf 0391 1a3f beb9 66be 1f32 1dbd
000001e0: 6197 4bbe 378d 4d3e c2b1 a93e eb8b acbe
000001f0: 2d7a 87be b78d 3fbf 285f 5e3e 7e09 e23e
00000200: 99bc 953e dd32 c03e f0ca 443e 0d22 1bbd
00000210: 8039 08be 7cf4 c6be b233 a0be f5d9 953e
00000220: dff0 4bbd 03df a13e f060 7cbd 5bff 913d
00000230: 0668 83bd 25cd 1b3f 6451 ce3e 883c 1cbf
00000240: f39f b2bb ad02 eebe 9d31 813e 85f8 643e
00000250: 3fb8 743e 1c87 9abd 96b2 8dbe 9fa9 2c3f
00000260: 6a5d 5ebe f249 0cbf f3d6 403e da53 fb3e
00000270: bff2 08bf 9251 09be ee9d 1abf d78e 4cbd
00000280: 9587 9cbe 7633 043d 95a8 123f c919 8f3d
00000290: 0a40 813d 5297 203f 560f 243f 7ead 99bd
000002a0: 2b71 313e 9b17 85be 45c2 92be d1d1 963e
000002b0: bbb6 d3be 87b3 2cbe 5abe e13d b112 0a3f
000002c0: ca44 2a3e dc0a f7be 1bd1 b0be ecaf febe
000002d0: a1c4 1040 e1e5 77be 7e88 b83e 992c 9f3d
000002e0: b64c 72bd 6d2e 1f3e 0adc ffbe ce9d 1bbf
000002f0: 984a e13e fc60 1d3e fb46 aabe 5d92 db3e
00000300: ede1 7bbe b54a ad3e 59a3 3a3e e790 9fbe
00000310: 5135 083f f11d 883e 2a74 0c3e cde1 12be
00000320: 1d5e f7bd 306c dcbe 980b debd 13f1 2c3f
00000330: ec86 1a3e be83 233f e35a fd3e 5b13 fcbe
00000340: e19d 813e c039 1f3f d488 803e 5dd1 24bf
00000350: 4671 01be b0e6 883e f13e 1b3e 05f3 97be
00000360: a301 19be aa49 23be 5ee1 1c3d 23d3 0b3e
00000370: 6245 a63e 2414 11be e2b1 cabe bde9 c83e
00000380: e6aa 013f aec6 183f 0cc4 1dbe ec21 c83e
00000390: 6039 c23e 9e32 16bc cb93 0abf 1b8a 403e
000003a0: ff23 aa3e 9a40 efbe 440a 513e 8105 17be
000003b0: 5d76 03be fe2f 8cbe 0645 3e3f 19fc aa3d
000003c0: ac7a f53d 8893 2ebf f20a 6a3e 6b86 7c3e
000003d0: 2014 fcbd c81e 6ebc 734b 1bbf 81de 123f
000003e0: 34fc 65be 51f7 fb3d 7577 20be 8911 063f
000003f0: beb0 a4bd b7da 8d3e 99d4 34be 100c ecbe
0.42376274 -0.3211782 -0.5104772 0.24228315 0.30944708 -0.38851008 0.08800618 0.031741187
0.07095758 -0.41951323 -0.24281442 0.36040863 -0.21429859 0.55598056 -1.1132066 -0.2664382
0.40676045 0.20074734 0.43647113 -0.6202874 -0.15592946 0.3761934 -0.49852133 0.12271672
-0.61964536 -0.48014292 -0.30033797 0.6112816 0.10617359 -0.0101970425 0.013887271 0.25463185
0.29751956 -0.34872335 0.3226581 0.3572987 0.5510955 0.08709336 -0.23842643 0.33827946
-0.4141378 -0.256875 0.20144077 -0.00025030744 0.3345891 -0.33249334 -0.5073392 -0.3559636
-0.24400933 0.44329202 -0.47601888 0.24874878 0.19205226 0.4425631 -0.44142163 -0.3273378
-0.48485065 0.34511596 -0.08728043 0.06290817 -0.25542215 -0.6035016 -0.08439955 -0.06779055
0.34058684 0.28188217 -0.16857073 -0.13848595 0.1922133 0.38008803 -0.28980947 0.05337586
0.20367488 0.43740994 -0.36127558 -0.51172 -0.20313457 -0.16699843 0.8532444 0.0014680016
-0.28463235 -0.28449762 0.2689944 0.27359855 0.1892106 0.22473201 -0.17931822 -0.53452134
-0.10217871 0.23102276 -0.29823264 -0.27300486 -0.58062404 -0.24296454 0.037343416 -0.18823557
-0.15563978 -0.5813528 0.015260238 0.47074726 -0.28673932 -0.29613718 0.06570903 0.46412936
-0.5661944 0.09745391 0.40897417 0.3413405 -0.264815 0.49383017 0.6159359 -0.33877736
-0.56690943 0.06527064 -0.355417 0.48798662 -0.6055158 0.6037752 -0.22531793 -0.038377877
-0.19881965 0.200734 0.3314343 -0.337005 -0.264604 -0.74825615 0.21715987 0.44147867
0.2924545 0.37538806 0.1921804 -0.03787427 -0.13303185 -0.38858402 -0.3128944 0.2926785
-0.04979026 0.31615457 -0.061615884 0.07128783 -0.06416325 0.608599 0.4029647 -0.61029863
-0.0054511963 -0.46486416 0.25233164 0.22360428 0.2389841 -0.07545301 -0.27675313 0.6744632
-0.21715322 -0.5480033 0.18831997 0.4908741 -0.534954 -0.13410023 -0.6039723 -0.04994091
-0.3057219 0.03227564 0.57288486 0.0698734 0.063110426 0.62730896 0.640859 -0.07503794
0.17328326 -0.25994572 -0.2866384 0.29456952 -0.4135035 -0.16865359 0.11022635 0.5393477
0.16627803 -0.48250473 -0.34534535 -0.49743593 2.2620013 -0.24208786 0.36041635 0.07772178
-0.05915519 0.15545054 -0.49972564 -0.60787666 0.44002223 0.15369028 -0.3325728 0.42885104
-0.24597903 0.3384606 0.18226375 -0.3116524 0.53206354 0.26585343 0.13716188 -0.14343949
-0.120784976 -0.4305129 -0.10842055 0.6755535 0.15090531 0.638729 0.49483404 -0.49233517
0.25315765 0.62197495 0.25104392 -0.64381963 -0.12640867 0.267385 0.15160729 -0.29677597
-0.1494203 -0.1594607 0.038300864 0.13654761 0.3247481 -0.1416784 -0.3958884 0.39240828
0.50651395 0.5967816 -0.15406817 0.3908838 0.379344 -0.0091673415 -0.54131764 0.18802683
0.33230588 -0.46728975 0.20414072 -0.14748193 -0.12838121 -0.27380365 0.7432407 0.08348865
0.119862884 -0.68193865 0.22855738 0.24660651 -0.12308526 -0.014533706 -0.60662 0.57370764
-0.22459489 0.12303031 -0.15670569 0.52370507 -0.080415234 0.2770593 -0.17659225 -0.46102953

VAE_Decoder.layers.1.linear0.bias f4 [128]
00000000: fb4f babc c01f 833d 9dc3 363e bd6e 173f
00000010: bcd4 adbe 99a0 0bbe 139e 5d3e 1f6e e43e
00000020: c2ff 823d 3550 893e 4919 8d3e 1a52 c93e
00000030: 9226 e63d eaa0 233e d8d4 8d3e 6f82 6d3d
00000040: c9bc 0bbf 3577 e43e 60c4 46be 1392 043e
00000050: e8e4 193e d586 01bf 14bd 063f 5bf7 a53e
00000060: de43 aabe 59c8 0cbc fb6b b53e 5bf5 a13d
00000070: a419 87be d88c 02be 6fa0 0d3d 7ad8 31be
00000080: e797 a9be e55c bdbe d186 e33e e98b fe3d
00000090: db99 92bd 347c 363c b8b0 013e c3cd ad3e
000000a0: 4fd9 0cbf 0067 2f3e 6062 ba3d fdb3 dabc
000000b0: 1f8b 73be 247f 2cbe 95be 2fbe 16dd 213f
000000c0: 948f 8d3e 1f7b adbe 2455 c8be 31c8 923e
000000d0: abfd 84be 7b28 8a3d bf01 da3d 8e86 f43d
000000e0: 2dfe b83e 8e92 913d 245a 96be c274 84be
000000f0: 92c6 083d 82ac 48be 7dac 7e3c 6bd5 05be
00000100: fc74 0e3e 5155 01be 4c00 113f 966c 103f
00000110: d39a c03e fc81 a2be 394c e03e 4652 8a3e
00000120: 5a8d 2f3e a301 cfbe ca29 743d b573 0b3f
00000130: 9296 9dbe b305 b2be 6c6a ffbd e37c 003f
00000140: 499e 023f 9fdf 0d3f 1f52 87bd 1d55 1c3f
00000150: d099 87bd 1e6f 7abd 2a71 12bd 0cbf dcbe
00000160: 24c2 f93e d14b d03e fba8 a73e 3f69 823e
00000170: 22dd a63e f382 693e b2f4 1fbe 4f3f f43d
00000180: 0bcb 94be d180 0fbe da9e 7e3e 3c89 f43e
00000190: b411 8c3d c325 06bf 4675 cfbd 4c12 013f
000001a0: 1bc4 a9be 5c9f a53e 89b6 e43d bd84 263f
000001b0: ec1c 2f3e 3eba cabe 472c e93e b63a e33d
000001c0: 5ac0 d8bd 34a2 763e 312e af3d 22d6 e53d
000001d0: 44fb 14bf db9d a1be ffb8 e53d 6783 a8be
000001e0: cce6 243c 10ed 1f3e 792a 343e f939 3c3e
000001f0: 0db0 d7bd c099 56be ee6d b53e 442d d43a
-0.022743216 0.0640254 0.17848058 0.5915335 -0.33951366 -0.13635482 0.21642332 0.44615266
0.06396438 0.26819006 0.27558354 0.3932045 0.112378255 0.15979353 0.2770145 0.05798572
-0.5458494 0.44622198 -0.19410849 0.12946348 0.15028727 -0.5059636 0.5263226 0.3241528
-0.33254904 -0.0085926885 0.35433945 0.07908126 -0.2638675 -0.1274904 0.03457683 -0.17367736
-0.33123705 -0.36984935 0.44438794 0.124290295 -0.07158252 0.011138011 0.12665069 0.33946046
-0.55019087 0.17129135 0.09100795 -0.026697153 -0.23783539 -0.16845375 -0.17162545 0.63227975
0.27648604 -0.33882996 -0.39127457 0.2866836 -0.25974783 0.06746002 0.10644864 0.11939727
0.3613142 0.07108031 -0.29365647 -0.2587033 0.033392496 -0.19597057 0.015544054 -0.13069694
0.13911813 -0.12630202 0.5664108 0.5641569 0.37618122 -0.31739795 0.43808153 0.27015895
0.17143765 -0.40430936 0.059610166 0.5447343 -0.3077894 -0.34769973 -0.1247147 0.5019056
0.51022774 0.55419344 -0.0660746 0.6106737 -0.06621134 -0.061141126 -0.035752453 -0.43114507
0.4878093 0.40682843 0.3274611 0.2547092 0.32590586 0.2280386 -0.15620688 0.11926138
-0.2906116 -0.14013983 0.24865285 0.47760952 0.06839314 -0.5240137 -0.1012979 0.50418544
-0.3315743 0.32348144 0.11167628 0.6504629 0.17100877 -0.39595217 0.45541593 0.110951826
-0.10583563 0.24085313 0.08553732 0.11222483 -0.581959 -0.31565747 0.11216926 -0.32912752
0.010064792 0.15617776 0.17594327 0.1838149 -0.10531626 -0.20957088 0.35435432 0.0016187807

VAE_Decoder.layers.1.linear1.weight f4 [4, 128]
00000000: dfa6 543e 6e94 e63c 8e50 3abc e48c dfbb
00000010: 07d1 c2bd 4e3c 67bd 79bf 2bbe 9d6d 05bd
00000020: deb0 923c 6889 df3d 65df f6bd 5441 f33c
00000030: 0026 b43b 7d90 97bc e2ce 0abe 1db4 0cbc
00000040: a33b f93d 4235 1cbd 4982 07bd 6829 a5bd
00000050: e1ac 86bd 2163 2b3c 7843 9ebd 8443 c7bd
00000060: 18ae a0bd 3712 1fbe 95e4 fabd 3d8b 4fbe
00000070: bac7 a4bd ea2a debb 4823 52be b48c ddbc
00000080: 5bb4 e1bc b30a 62be 8f9d 09be 367d 9ebd
00000090: d9ef be3d ff9f 1dbe 0f2b c1bd 4185 04bd
000000a0: cc31 1d3e bc8e 51be 6e75 b3bd 33cb aebe
000000b0: 1d45 313e 5829 0040 4c2c 77bd 84f2 993b
000000c0: ae45 0fbd 9dde d13c b10c 8bbe c803 1cbe
000000d0: 3f64 d3bd a8ad 8bbd 4497 e73c fba7 953d
000000e0: 4e35 f33d b258 943d 57b0 273d 4165 5abd
000000f0: 12b4 0e3e 5a12 ccbd 0e5a fdbd 3e6f f43c
00000100: 2d53 39bd 3be9 97bd f724 19be cade ebbd
00000110: 34bc 3e3d 2caf 263e 2492 f5bd edb8 fbbc
00000120: 547c 37be a87e b4be 0964 633d 9b3e d1bd
00000130: 1150 01bd b3e3 fb3e 8448 9d3c 0f88 70bd
00000140: a4ab 8fbd 248d 43bd 0376 3bbf dd55 473d
00000150: d8a6 dc3e b3b3 c33d eb02 85bb 00b2 063e
00000160: 53af 6a3d a60f 223d 4b46 b33d 6dd3 06bd
00000170: 9c4b 16be 8f5e e4bc 0a31 6b3e efdf 9c3c
00000180: 874b a83e 19c6 2b3e 14b1 a0bd d776 30be
00000190: 28f3 e4bd a435 ab3d a37b ce3d 1eb5 00be
000001a0: 8bb1 f53d 9da4 643c 0390 a6ba f952 953d
000001b0: e998 053c fcf9 69bd 6900 acbd 43b4 3cbe
000001c0: 1286 37bd 30bd 6bbd 75bf 783d 538b 19ba
000001d0: c2dd ad3d 2f01 ea3b f6ea 9bbd 41f7 fc3d
000001e0: 6793 5ebe 900c 85bd 2fba a7bd d82b 97bd
000001f0: 5647 85bd 4d38 cbbc ec38 bebd 289d 8abc
00000200: b6c2 293d ea2c 1ebe b389 cfbc 2b07 0d3e
00000210: 8741 153e 2758 023e f7a4 24be 9ff3 04be
00000220: a309 17be c5e4 303d 952a e8bd bd72 fd3d
00000230: ae6e 753c 8d46 bd3d 8be4 31bd d4aa a1be
00000240: ccbc 8fbd 9c00 be3d 2e0d 423e 9d53 31be
00000250: fc67 7dbe 8755 5b3e 815a 2e3e dd8f 33bd
00000260: 1782 e2bd 37f5 0fbe f0ef cbbd 3c54 6d3d
00000270: 281d 2ebe f281 5b3d a3be 823d c06d 12be
00000280: 5396 b73c 312e a0bd 5cec de3d f73c 833e
00000290: 9e02 0dbe f401 8d3d 4296 2fbe 80cd edbc
000002a0: 7312 4ebe 3a49 503e 72aa 9b3d d750 d2be
000002b0: a68d f9bb 9c77 a33e b1c6 173e 5af2 03bc
000002c0: 55cd 203d ce17 5e3e 06e4 35be 9264 803e
000002d0: 6a7d 893e 67e8 b53d 8258 20be cd4b b33d
000002e0: 8444 d93d cc57 843d adc7 4dbe 17de 14be
000002f0: 6dd7 26be c9f7 e53c af29 cfbd e9d3 183d
00000300: f5af 153e 6d5b 60be 0646 9e3c 3f9b 79be
00000310: 3831 1b3e 4976 ed3d 4bf2 72bd 7941 37be
00000320: 014a d7bd 6654 aabd 3bac 1d3e 1413 553e
00000330: 8a14 a1bd a590 b53c dee2 48be 6101 eabc
00000340: 00ab 94bd e72e 0fbe 19c8 003f 389c 8c3e
00000350: 4b11 89be d6a4 223e b29f d9bd 4e32 103f
00000360: a0d6 71be 3ef5 913e e4d9 76be f062 12be
00000370: 3468 cf3d ed40 933e 9bce de3d cc56 f23c
00000380: 5b30 0f3d 795a e93d a64e 96bd 0300 87bd
00000390: e70a 3a3d d7cf 2c3d 388a 85be e43e babd
000003a0: 4e90 06bf bd89 8d3e a277 273e 5ef7 45be
000003b0: 5260 ae3c 5765 173e a422 77bd f9c2 763e
000003c0: 1c7e 1e3e d9cf 8b3e 6993 6cbd 0624 ec3d
000003d0: 7306 61bd 56ba 8ebd 57e4 433d 44cd 59be
000003e0: 4330 af3d fc5b 50be e152 80bd 1a36 5a3d
000003f0: 0842 043e 1790 c2bc 421c 273d e403 a5bd
0.20766781 0.028146949 -0.011371745 -0.0068222154 -0.09512525 -0.056453995 -0.1677226 -0.03257524
0.017906602 0.1091488 -0.12054328 0.029694237 0.005497694 -0.018501515 -0.13555482 -0.008587864
0.12169578 -0.038136728 -0.033083234 -0.08064538 -0.06575943 0.010460646 -0.077277124 -0.097296745
-0.07845706 -0.15534292 -0.1225063 -0.20267959 -0.08045907 -0.006780018 -0.20521271 -0.027044632
-0.02755182 -0.22074394 -0.1343901 -0.07738726 0.09323091 -0.15393065 -0.09432041 -0.032353643
0.15351027 -0.20464605 -0.08762632 -0.34139404 0.17311521 2.0025234 -0.06034498 0.0046980996
-0.03497856 0.025618846 -0.2715812 -0.15235817 -0.10321855 -0.06820232 0.028270371 0.0730743
0.118754014 0.0724348 0.040939655 -0.05331922 0.13935879 -0.09964438 -0.12370692 0.0298382
-0.04524534 -0.07417532 -0.14955507 -0.11517103 0.046566203 0.1627776 -0.11990765 -0.030727828
-0.17918521 -0.3525288 0.055515323 -0.10217019 -0.031570498 0.49197158 0.019199617 -0.058723506
-0.0701516 -0.047742024 -0.73226947 0.04866587 0.43096042 0.09555759 -0.0040591857 0.13153839
0.05729611 0.039565705 0.08753642 -0.032916475 -0.1467728 -0.02787712 0.22967926 0.019149749
0.32870123 0.16774787 -0.07846275 -0.17232834 -0.11179191 0.083598405 0.100821756 -0.1256909
0.11996754 0.0139552625 -0.0012707714 0.072912164 0.008154132 -0.05712317 -0.08398516 -0.1842814
-0.044805594 -0.05755347 0.060729463 -0.0005857248 0.084895626 0.0071412544 -0.076131746 0.123518474
-0.21735917 -0.06496537 -0.081898086 -0.073814094 -0.06507747 -0.02480712 -0.09288201 -0.016920641
0.041445456 -0.15446821 -0.025334215 0.13772266 0.14575778 0.1272894 -0.16078554 -0.12983559
-0.1474977 0.04318692 -0.11336247 0.123754 0.014980001 0.09241972 -0.043430846 -0.31575644
-0.07018432 0.0927746 0.1895034 -0.17317052 -0.24746698 0.21419345 0.17026712 -0.04383837
-0.11059969 -0.14058386 -0.09957874 0.05794166 -0.1700331 0.053590722 0.06384017 -0.14299679
0.022410547 -0.0782131 0.10884926 0.2563245 -0.1377053 0.06885138 -0.17147163 -0.029028654
-0.20124225 0.20340434 0.07600869 -0.410773 -0.0076157628 0.31927192 0.14821889 -0.008053387
0.03925832 0.21688768 -0.17762765 0.2507673 0.26853496 0.08882218 -0.15658763 0.08754692
0.106087714 0.064620584 -0.20095702 -0.14537846 -0.16293116 0.028072255 -0.101153724 0.03731147
0.14617904 -0.21909876 0.0193205 -0.24375628 0.15155494 0.11594827 -0.0593131 -0.1789607
-0.10512162 -0.08316879 0.15397732 0.20808059 -0.07865246 0.022163698 -0.19617793 -0.02856511
-0.07259178 -0.13982736 0.50305325 0.27462935 -0.26771006 0.15883192 -0.106261626 0.5632676
-0.23617029 0.28507417 -0.24106556 -0.14295554 0.10127297 0.28760472 0.108792506 0.029582404
0.034958225 0.113942094 -0.0733922 -0.06591799 0.045420554 0.0421904 -0.26082015 -0.09094027
-0.5256394 0.27644148 0.1635423 -0.19332644 0.021286163 0.14784752 -0.06033577 0.24097814
0.15477794 0.27307013 -0.05775777 0.115303084 -0.05493779 -0.069691345 0.047825184 -0.21269709
0.08554127 -0.20347589 -0.06265808 0.05327425 0.12915814 -0.023750348 0.040798433 -0.08057383

VAE_Decoder.layers.1.linear1.bias f4 [4]
00000000: 546f 22bd a287 9dbd 55fd 5dbd cbb1 82bd
-0.039656952 -0.076918855 -0.054196674 -0.063815676

VAE_Decoder.layers.1.norm1.weight f4 [4]
00000000: 867c c23f c424 b03f 33d6 b93f 7ab9 b13f
1.5194252 1.376122 1.4518493 1.3884728

VAE_Decoder.layers.1.norm1.bias f4 [4]
00000000: a4c4 5dbd f010 46bd 72d0 f4bc f789 3f3e
-0.05414261 -0.048355997 -0.02988455 0.18704973

VAE_Decoder.layers.1.norm0.weight f4 [4]
00000000: 1f89 813f 8286 3c3f f4ed 9a3f 9334 593f
1.0119971 0.7364274 1.2103868 0.84845847

VAE_Decoder.layers.1.norm0.bias f4 [4]
00000000: 177a 6fbc e124 833c 7cd1 b83c 371d fc3c
-0.014616511 0.016008796 0.022560827 0.03077565

VAE_Decoder.last_normalization.weight f4 [4]
00000000: 0000 803f 0000 803f 0000 803f 0000 803f
1.0 1.0 1.0 1.0

VAE_Decoder.last_normalization.bias f4 [4]
00000000: 0000 0000 0000 0000 0000 0000 0000 0000
0.0 0.0 0.0 0.0

VAE_Decoder.head.weight f4 [4, 4]
00000000: a0d2 61be 7052 af3d acbe 963e 5c36 c8be
00000010: 9070 e03d 185d f8be 02c3 a6be 1afb 833e
00000020: 649d 233e b8b0 5a3e 28f3 ad3e c29d 90be
00000030: 0469 303e 00ce 34bb 706b 7abd a629 e4be
-0.22053003 0.085606456 0.29442346 -0.39103973 0.109589696 -0.48508525 -0.32570654 0.25777513
0.15978009 0.21356475 0.33974576 -0.2824536 0.1722756 -0.0027588606 -0.061137617 -0.44563025

VAE_Decoder.head.bias f4 [4]
00000000: b6ef 98be 126d f53e 30c4 683e 4ee2 973e
-0.29870385 0.47934777 0.2273109 0.29664844

Detokenizer.weight f4 [14, 4]
00000000: f6b9 113e f74d 3fbe c1c9 f13d bd7c 32be
00000010: cb09 a1bc 3017 db3d 91c1 34be b491 4c3e
00000020: af6e ebbd 6d28 b43d c480 f1bd c7ef af3e
00000030: ea35 1f3e 43c8 e1bd 8707 6bbe 1ab7 c9bd
00000040: d0f6 f7bd 8426 503e b3b3 833d 2381 773b
00000050: 86c6 9d3d b334 0cbe 8647 0f3e cdc8 bbbd
00000060: a905 b73d 6108 18be df49 c83b 2358 d5be
00000070: 3521 aa3c 85ef 28be f57a a73d b09f 5dbe
00000080: 896f de3d f8ea 9ebc f702 573c 73dc 513e
00000090: 1065 4d3e 526f 88bd 54bd 3c3e 3782 0e3d
000000a0: 344a bb3e e7a0 b6be 3b6b 80be a2a9 c0be
000000b0: 1c1c 4c3e 6415 3fbe 4a15 e8bc 22bd 7dbc
000000c0: ee17 9abd 6aa5 f23c dd0b 243e 949d e8bd
000000d0: 52a9 d83d adf0 a03c 5eb2 a9be 7136 d2bd
0.14231095 -0.18682085 0.1180606 -0.17430396 -0.01965799 0.10697782 -0.17651965 0.19977456
-0.114957206 0.08796773 -0.11792138 0.34362623 0.1554791 -0.11024525 -0.2295209 -0.09849377
-0.121076226 0.20327193 0.06430759 0.003776618 0.07703881 -0.13691978 0.13992128 -0.09169159
0.089366265 -0.14846946 0.0061123217 -0.41668805 0.020767787 -0.1649762 0.08177749 -0.21642947
0.108611174 -0.019399151 0.0131232655 0.20494251 0.20058084 -0.06661858 0.18431598 0.03479215
0.3658005 -0.35669634 -0.2508181 -0.3762942 0.19932598 -0.18660504 -0.028330464 -0.015486987
-0.075240955 0.029619891 0.1602015 -0.11358181 0.1057917 0.019646013 -0.33143896 -0.1026429

Detokenizer.cat_recons.0.weight f4 [2, 4]
00000000: e089 70be 6a92 47bf 0445 903e 44ec 683e
00000010: ae98 10bf 5b6d 3c3f 9d92 87bd 676e 503d
-0.23490095 -0.77957785 0.28177655 0.22746378 -0.5648297 0.73604363 -0.06619761 0.050886538

Detokenizer.cat_recons.0.bias f4 [2]
00000000: eadc b53e 4248 063f
0.35520107 0.52454007

Detokenizer.cat_recons.1.weight f4 [7, 4]
00000000: 737c 233f 0397 11bf 7854 b4bd aeee 0cbe
00000010: 3d69 073e 9da9 77be 7028 fd3e a380 b4be
00000020: 738a 89be ff43 823e 5915 11be 3019 1ebf
00000030: eae9 af3d 0941 29bd fcac 2fbf 37b3 d8bb
00000040: 6fae 173f a523 e53e 911a afbe a3ad 06be
00000050: f42e 7e3f ffd0 c2bd 0fd5 82be b867 0b3d
00000060: 9bc3 12bd fa66 adbe d049 00be 58e2 8d3d
0.6386177 -0.5687105 -0.08805174 -0.13762924 0.13223739 -0.24185796 0.49444914 -0.35254392
-0.2686344 0.25442502 -0.141683 -0.61757183 0.085895374 -0.041321788 -0.6862333 -0.006613161
0.5925054 0.44753757 -0.34199956 -0.13152175 0.99290395 -0.09512519 -0.25553176 0.03403446
-0.035831075 -0.33867627 -0.12528157 0.06927937

Detokenizer.cat_recons.1.bias f4 [7]
00000000: 1dcb aabd cc6e 953e a076 54bd c22c c93e
00000010: 9dc9 04bc ab1c 9ebe 7d65 b43d
-0.08339522 0.29186094 -0.051870942 0.3929196 -0.008104709 -0.30881247 0.0880842

Detokenizer.cat_recons.2.weight f4 [4, 4]
00000000: a025 45be fabd 513e 7c23 2b3f d4ab 5b3e
00000010: 37a7 6fbe 9f41 6cbe 7f44 53be ddaf 43bc
00000020: 1586 88be 1026 8c3e 3f95 e13c f333 29bf
00000030: 6b87 283f bcf2 ce3d a987 bcbd 11be ad3e
-0.19252634 0.20482627 0.6685102 0.21452266 -0.23403631 -0.23071907 -0.20631598 -0.011943785
-0.26664796 0.2737279 0.027536986 -0.66094893 0.6583163 0.10104892 -0.092055626 0.33934072

Detokenizer.cat_recons.2.bias f4 [4]
00000000: 105f c7be b477 ff3e 710a 99be 2e35 e4be
-0.38939714 0.49896014 -0.2989078 -0.44571823

Detokenizer.cat_recons.3.weight f4 [11, 4]
00000000: ffd2 d8be 7468 c33e c021 303f 69ef 84be
00000010: 522d 21be 8742 f23e dc10 13bf 8a81 a5be
00000020: dcdc e3be 2051 11bf 4363 ebbc c442 c4be
00000030: c90a c2be b2e9 063f abd4 c2bd 3465 44bf
00000040: 8ab3 813e 7f4a eebd 4607 093f 282d 1d3f
00000050: f025 ba3d ada9 5abe f06b b1be 2628 0a3d
00000060: af7e 3c3f e036 56be 3376 123f ed2a f3be
00000070: 2816 363e 7308 ddbe adf1 1d3f 23f1 b8be
00000080: 2eb0 003f 8e2e d53e aa7a 313f c48b ae3e
00000090: 5165 2d3e 37ba b83e f7fa 09be af7e 823e
000000a0: 04c2 0d3f 837f 133e 3cfe 0fbe df5a 97be
-0.42348477 0.3816563 0.688015 -0.25963905 -0.15739945 0.4731638 -0.574476 -0.32325393
-0.4450444 -0.5676441 -0.028733855 -0.38332188 -0.37898853 0.5270034 -0.095132194 -0.76716924
0.2533229 -0.11635303 0.53526723 0.6139703 0.09089267 -0.21353789 -0.34652662 0.033729695
0.73630804 -0.2091937 0.5721161 -0.47493687 0.1778189 -0.4317051 0.6169689 -0.36121473
0.5026883 0.4163708 0.69327796 0.34091008 0.1693318 0.3607957 -0.13474642 0.25487277
0.5537417 0.1440411 -0.14061826 -0.29561517

Detokenizer.cat_recons.3.bias f4 [11]
00000000: 0d04 5b3e a7ba 98be 8d94 563e 540e 16be
00000010: 4432 003e a7df 613e 5cc0 2b3e 00d2 9a3d
00000020: 5b23 c03e 81e9 fcbe de76 383e
0.21388264 -0.29829904 0.20955105 -0.14653903 0.12519175 0.22057973 0.16772598 0.075595856
0.37526974 -0.493969 0.18014094

Detokenizer.cat_recons.4.weight f4 [11, 4]
00000000: a05b 1bbe aef4 ea3e cd03 dbbe ab9e 1d3f
00000010: d7d4 95bc 5c5e 35be 1d10 943e 07f9 12bf
00000020: ae24 03bf 49c9 36be c406 dc3c 99ca fa3e
00000030: 331d a6bc 1f12 df3e 8318 dabe b76c c1be
00000040: 0db4 a43e 59dc 12be 05be 953d cbed e53e
00000050: 30de e0be d624 bdbd da7d acbe fe4c f2be
00000060: bb2f 433e d266 1a3f 9edc 933d 35de 03bf
00000070: 766d 173f 565d 5c3e 9de4 25be 8476 a23c
00000080: a3f9 6dbe d41f 1c3f 2e74 543e fc7d ecbd
00000090: b359 b23e 3005 123f 9941 38be ea19 59be
000000a0: 7c02 cabe 3812 613e 1bbb 753e 7d78 323e
-0.15171671 0.458898 -0.42776337 0.61570233 -0.018289967 -0.17711776 0.28918543 -0.57411236
-0.51227844 -0.17850222 0.026858695 0.48982695 -0.020277595 0.43568513 -0.42596826 -0.37778255
0.32168618 -0.14341868 0.07311634 0.44907984 -0.43919516 -0.092355415 -0.33689767 -0.47324365
0.19061176 0.6031314 0.07219814 -0.51510936 0.591514 0.2151998 -0.1620049 0.019831903
-0.2323976 0.60986066 0.20747444 -0.11547467 0.3483406 0.57039165 -0.17993774 -0.21201292
-0.3945502 0.21979606 0.23997156 0.17428775

Detokenizer.cat_recons.4.bias f4 [11]
00000000: cba1 a43d 53e2 313e c87c 34bc cef8 98bd
00000010: c790 e83e 264b 88bc 8177 8a3d 3fe3 03bf
00000020: 1b47 f53d 0248 343e 55fb 68be
0.08038672 0.17371492 -0.011016078 -0.07469331 0.45422956 -0.016637396 0.06761075 -0.51518625
0.11976453 0.17605594 -0.22752126

Detokenizer.cat_recons.5.weight f4 [11, 4]
00000000: 1078 603f d147 63bf 21b1 ee3e 251c cabd
00000010: cdfe e8bb 739d ddbd cedb 3c3f 4bb7 913d
00000020: ad75 123d 9fa0 18bf 6e75 61bd 7661 083f
00000030: c65a 0d3e f7b6 3dbc a513 a5be cd76 c93e
00000040: 7db6 e63d f92e ec3e 3a46 0e3d c74f dabe
00000050: 7924 f9be 1165 4abe 3ca2 00bf 4f7c 26bc
00000060: 9228 813d dcf1 1cbe 2a01 31bf dacf 0ebd
00000070: 3cef e6be 65a5 6c3e 4133 1f3e 5bf8 aebc
00000080: 7daf 9a3e c356 2abe f7ab 13bf 620b 2fbf
00000090: 5039 a33e f454 dd3e 2ea0 023b 5c62 583e
000000a0: 7f73 0c3e 9620 d73e b768 a0be d5b4 983d
0.876832 -0.8878146 0.46619514 -0.098686494 -0.0071104527 -0.10821047 0.73772895 0.071150385
0.035756756 -0.5962009 -0.05504363 0.53273714 0.13804159 -0.011579267 -0.3224155 0.3934845
0.112652756 0.46129587 0.034734942 -0.4263899 -0.4866064 -0.19765116 -0.5024755 -0.010161473
0.06306566 -0.15326637 -0.691424 -0.03486619 -0.45104396 0.23109968 0.15546896 -0.02135866
0.30212012 -0.1663466 -0.5768427 -0.68376744 0.31879663 0.43228877 0.00199319 0.21131271
0.13715933 0.4201705 -0.3132989 0.07456366

Detokenizer.cat_recons.5.bias f4 [11]
00000000: b1d9 b13d 0b7c a03e 4677 253e 4937 d13e
00000010: 541a abbe bcb6 0ebf 5206 973e c14d c0be
00000020: 846d c43e de4b 64be 2f9f eabe
0.086840995 0.31344637 0.1615878 0.40862492 -0.33418524 -0.5574758 0.2949701 -0.37559322
0.38364804 -0.22294566 -0.45824572

Detokenizer.cat_recons.6.weight f4 [11, 4]
00000000: b4f9 073f 3501 94be 0521 5d3d 5615 943e
00000010: b98d 32bf f0c6 6cbe 83a9 873e c672 ae3e
00000020: 0fe1 96be 010e 973e 6ca9 41bf fae2 2d3e
00000030: 9207 cebe a046 933e dcbe 5a3e 337d ffbd
00000040: 3703 fabd 8d7a 7bbe 91c4 cfbe eaca 153f
00000050: b3a1 95be 3ee7 843e 6f64 6dbe 198c 09bf
00000060: 1d16 82bf 6ddf 5e3e 0d18 8cbe 8c91 f63e
00000070: 7a13 713e 7ffc 683e 26b8 5cbe 4005 f23d
00000080: 6ac4 113e d96d b0be 16d5 6a3d b623 08bf
00000090: e32a 1bbf 250a 3cbe 34c2 d1be 75f0 08bf
000000a0: 20e6 55bd 0f88 9d3e cd4d 423e a475 02be
0.5311539 -0.2890717 0.053986568 0.28922528 -0.697475 -0.23122764 0.26496515 0.3407194
-0.2946858 0.29502872 -0.7564914 0.16981116 -0.4024015 0.2876482 0.2136187 -0.12475052
-0.122076444 -0.24558468 -0.40579656 0.5851275 -0.2922493 0.25957674 -0.23182844 -0.537294
-1.0162998 0.21764918 -0.273621 0.48157918 0.23542586 0.2275257 -0.21554622 0.118174076
0.14235082 -0.34458807 0.05733212 -0.5317949 -0.60612315 -0.18363245 -0.40968478 -0.5349191
-0.052221417 0.30767867 0.18974991 -0.12740189

Detokenizer.cat_recons.6.bias f4 [11]
00000000: c7a5 77be 3c6e 8e3e f1b0 69be 5bb5 93bd
00000010: 2976 dc3d 1051 93be 2fd4 56be 8b8b ce3e
00000020: b79d e93d 9104 423e adfa a53e
-0.24184333 0.27818477 -0.22821404 -0.07212325 0.10764725 -0.28772783 -0.20979379 0.40340838
0.11407035 0.18947054 0.32417813

Detokenizer.cat_recons.7.weight f4 [10, 4]
00000000: f23b b1be 7bf7 9f3e 2f11 a43e 561d d7be
00000010: 9d83 bd3e 1866 05be b076 47bf 6c70 b6be
00000020: b863 ef3d 79ea 8abe 5a23 b0be 5749 e33e
00000030: ba58 623f fa1a 6abe 44d0 0a3f 8673 c63e
00000040: b66e df3d dac9 b2be 4808 183f a183 3cbd
00000050: 46e7 06bf a02f e13d 68b0 0cbe 5927 f33d
00000060: f4a7 2f3f 1b20 833e 78d9 0fbd b9b6 9d3e
00000070: cd45 023f e651 223e 1484 1a3e 4b32 c5be
00000080: 9124 103c 9818 133f 2916 d1bd e03d 28be
00000090: 649b f33e 348f 16be 2848 c03e abb5 55be
-0.34616047 0.312435 0.3204436 -0.4201457 0.37014475 -0.13027227 -0.7791548 -0.35632646
0.11688942 -0.27132013 -0.3440197 0.4439189 0.88416636 -0.22861853 0.5422404 0.38760012
0.10909788 -0.34919626 0.59387636 -0.04602397 -0.52696645 0.10995412 -0.13739169 0.11872739
0.6861565 0.25610432 -0.035119504 0.3080347 0.5088776 0.15851554 0.15089446 -0.38514933
0.008797781 0.574594 -0.10209305 -0.16429853 0.4757949 -0.14703065 0.3755505 -0.20870082

Detokenizer.cat_recons.7.bias f4 [10]
00000000: 8431 91be c00f a7bd f758 65be fb72 333e
00000010: 6146 9e3e 81a9 97be 162a a8be ddad 9bbe
00000020: ce55 f3be 7d8d dd3e
-0.2835809 -0.08157301 -0.22397219 0.1752433 0.3091307 -0.2962151 -0.3284461 -0.30406085
-0.475264 0.4327201

Detokenizer.cat_recons.8.weight f4 [10, 4]
00000000: 8e9d 173f 62f7 22be 5fb3 d2be 98ee c53e
00000010: f828 243e 24ef a63c 35bd 283f e5ce 91be
00000020: b88f 0dbf 9538 03be 0606 ecbe a629 113e
00000030: 4511 703e 0ad2 04bf 98cf ab3e 7251 223e
00000040: 3267 28be 26bf de3e 0dc7 c2be b926 06bf
00000050: 6fbf 543f e34c 7cbe 0c76 d73e aa22 fcbd
00000060: 7491 00bf 4fab 973e e55a a03d aa25 59bd
00000070: 6c59 133f f44b ad3e 94c0 64be ae24 71be
00000080: cb97 3e3f c2c6 d43e d29d d93e d215 de3e
00000090: e494 0abe 6d7a a53e 5309 31bd a7c1 f33d
0.59224784 -0.15914682 -0.41152474 0.38658595 0.16031253 0.020377703 0.65913707 -0.2847816
-0.5529742 -0.12814553 -0.46098346 0.14176044 0.23444088 -0.51882994 0.3355682 0.15851381
-0.16445616 0.4350521 -0.3804249 -0.52402836 0.83104604 -0.24638705 0.4208225 -0.12311299
-0.50221944 0.29622886 0.07829837 -0.053014435 0.5755832 0.3384701 -0.22339088 -0.23549148
0.7445037 0.4155789 0.4250322 0.43376023 -0.1353336 0.32319966 -0.043221783 0.11902171

Detokenizer.cat_recons.8.bias f4 [10]
00000000: 3f54 e6bd 7a74 fc3e 382f 01be 0392 b5be
00000010: 6028 863e 1a1d 733d 1bfd 52bd 88b1 b23d
00000020: 266c e2be eeb6 81be
-0.112465374 0.49307615 -0.12615669 -0.3546296 0.2620268 0.059353925 -0.05151091 0.08725268
-0.44223136 -0.25334877
