tabsyn/vae/ckpt/default/major_finetuned_on_majorminor/model.pt (torch, 70246 bytes, 112 tensors)

VAE.Tokenizer.weight f4 [15, 4]
0	0x3e040223	0.1289144
1	0xbe8d21ee	-0.2756495
2	0xbc764cc7	-0.015032954
3	0xbeaf109f	-0.34192368
4	0x3a63b6df	0.0008686613
5	0xbcd44be6	-0.025915097
6	0x3d30a546	0.043126367
7	0xbb061234	-0.0020457627
8	0xbc99d3b2	-0.018777702
9	0xbc9e8054	-0.019348301
10	0xbd96f265	-0.07370452
11	0xbd294af0	-0.04133123
12	0x3dfa09ee	0.12208925
13	0x3c7548d4	0.014970977
14	0xbd2afcec	-0.04174511
15	0x3d3efa40	0.046625376
16	0x3ae5bcda	0.0017527596
17	0xbcf221b6	-0.02955709
18	0xbdc164e3	-0.09443071
19	0xbd065ac8	-0.03280142
20	0x3d957be3	0.0729902
21	0x3cf12357	0.029435797
22	0x3dd428c6	0.103593394
23	0xbe140708	-0.14455807
24	0x3c88dce3	0.01670689
25	0xbcb0098c	-0.021488927
26	0x3d7b4566	0.06134548
27	0x3ba44c51	0.0050139804
28	0x3e24689c	0.1605553
29	0x3e2f8534	0.17140657
30	0x3e41dfac	0.1893298
31	0xbc31bb56	-0.010847887
32	0xbcdc83d0	-0.026918322
33	0xbd0a8b34	-0.03382416
34	0x3daea281	0.08527089
35	0x3b82567e	0.003977596
36	0xbe3e4492	-0.18580845
37	0xbe69771a	-0.2279934
38	0xbe3f70f2	-0.18695429
39	0x3d23971f	0.039939042
40	0xbe9a17a7	-0.3009617
41	0xbe4da08f	-0.2008078
42	0x3e50d31d	0.20393033
43	0xbdd5e897	-0.104447536
44	0xbd91ec8a	-0.07125194
45	0xbe8bba7f	-0.27290723
46	0xbe538d92	-0.20659474
47	0xbd407093	-0.04698236
48	0xbe4c39ca	-0.1994392
49	0xbe810f27	-0.25206873
50	0xbe60ae52	-0.21941498
51	0xbb8d9359	-0.0043205437
52	0xbe78a95e	-0.24283358
53	0xbdd83bbc	-0.105582684
54	0x3dec9b12	0.11553015
55	0xbd6d9eb5	-0.058012683
56	0xbdb9e406	-0.09076695
57	0x3e4b72d5	0.19868024
58	0xbdd9d638	-0.10636562
59	0xbabf8793	-0.0014612548

VAE.Tokenizer.bias f4 [23, 4]
0	0xbec46582	-0.38358694
1	0x3eb9790a	0.36225158
2	0xbd4b7057	-0.049667682
3	0x3ed7a7a4	0.42120087
4	0xbe9ce71b	-0.3064507
5	0xbe503322	-0.20332006
6	0xbd4337e6	-0.04766073
7	0x3efb6504	0.49100506
8	0xbf0c904e	-0.5490769
9	0x3e9ff833	0.31244048
10	0x3f20f0f9	0.62867695
11	0x3eb75e55	0.35814157
12	0xbf214b34	-0.63005376
13	0x3b250eb8	0.0025185775
14	0xbe8fe69d	-0.2810563
15	0x3eaacaa3	0.33357725
16	0x3dc00c29	0.09377319
17	0x3d0c796f	0.034295496
18	0xbf1339f6	-0.57510316
19	0xbecdc2e3	-0.4018775
20	0xbea8a0ad	-0.32935086
21	0x3f0ed236	0.55789506
22	0xbe223182	-0.15839198
23	0x3ee13afa	0.43990308
24	0x3d44d612	0.048055716
25	0xbe1578d2	-0.1459687
26	0x3e23d70a	0.16
27	0xbda1b7a1	-0.078963526
28	0xbf2809c8	-0.65639925
29	0xbe16b1c9	-0.14716257
30	0xbf08a39f	-0.53374666
31	0x3f1d0cb1	0.6134749
32	0x3ef2e2be	0.47438616
33	0x3d1df3f2	0.038562723
34	0x3f38ee35	0.72238475
35	0x3e0e0a69	0.13871159
36	0xbf46981c	-0.7757585
37	0xbe6c2c9d	-0.23063894
38	0x3f3a8b2e	0.7286862
39	0xbeca8c1e	-0.39560026
40	0xbd99b09e	-0.0750439
41	0x3e6b3c17	0.22972141
42	0xbf052a2d	-0.5201748
43	0x3eeb02a1	0.45900443
44	0x3e2e106f	0.16998456
45	0xbe540158	-0.20703638
46	0x3ebbdc7b	0.3669165
47	0xbe5ce816	-0.21572909
48	0xbf4c01c6	-0.79690206
49	0xbf17cc89	-0.5929647
50	0x3ea4edd8	0.3221271
51	0x3ef6c6a5	0.4819843
52	0xbcdf91e3	-0.027291244
53	0x3ef8241c	0.4846505
54	0xbe93ff8c	-0.28905904
55	0x3f0154cc	0.50520015
56	0x3ea5a75a	0.32354242
57	0x3e24a7d7	0.16079651
58	0x3eaff983	0.3437005
59	0xbe597ffb	-0.21240227
60	0x3ec52e25	0.38511768
61	0x3e0d3bdb	0.13792364
62	0x3e9b4183	0.3032342
63	0xbe1fb684	-0.15596968
64	0x3caf6c12	0.021413837
65	0x3ed66471	0.41873506
66	0xbe1ea9bb	-0.15494435
67	0x3e916933	0.28400573
68	0xbe744263	-0.2385345
69	0xbc87f9fa	-0.01659869
70	0xbed68523	-0.4189845
71	0xbceeb4c1	-0.029138925
72	0xbe2d4407	-0.16920482
73	0xbe52cd93	-0.20586233
74	0xbe142db0	-0.14470553
75	0xbe486755	-0.19570668
76	0xbb16177f	-0.0022902188
77	0xbc7d61b6	-0.015465191
78	0x3e08774e	0.13326761
79	0x3ea0959d	0.31364146
80	0x3d10c873	0.035347413
81	0x3ee319be	0.44355577
82	0xbe07adbc	-0.13249868
83	0x3e1c8286	0.15284166
84	0x3e1fb8c6	0.15597829
85	0x3cfc1acd	0.030774498
86	0xbeebec79	-0.46078852
87	0xbeeda8e8	-0.46417928
88	0xbe539d2e	-0.20665428
89	0xbd279937	-0.0409176
90	0xbe475fe3	-0.19470172
91	0x3e02e3bf	0.1278219

VAE.Tokenizer.category_embeddings.weight f4 [77, 4]
0	0x3e3b3659	0.1828245
1	0xbec429e0	-0.38313198
2	0x3e64a6f9	0.2232932
3	0x3b4b2036	0.003099454
4	0xbe636894	-0.22207862
5	0x3dbcff3e	0.09228371
6	0xbddd73d4	-0.10813108
7	0x3e018d2e	0.12651512
8	0x3e10694c	0.14102668
9	0xbf1987f7	-0.5997309
10	0x3eb28270	0.3486514
11	0xbe240c08	-0.16020215
12	0xbea9b52c	-0.33146036
13	0xbeb80237	-0.3593919
14	0x3ecb1d54	0.39670813
15	0x3ee48652	0.44633728
16	0xbe9d8806	-0.3076784
17	0x3d2ae584	0.04172279
18	0xbe01b27c	-0.12665743
19	0xbe04d36a	-0.12971273
20	0x3e82f2ef	0.2557597
21	0xbde6e951	-0.1127497
22	0xbe064237	-0.13111196
23	0x3edfde60	0.43724346
24	0x3f07f4fd	0.531082
25	0x3dfdc38d	0.12390814
26	0xbe0ab5b8	-0.13545883
27	0xbf9e40ff	-1.2363585
28	0xbe33eb60	-0.17570257
29	0xbe2db0db	-0.16961996
30	0xbebe7b09	-0.37203243
31	0x3e9f7300	0.31142426
32	0x3d86c0f2	0.0657977
33	0xbe7e7ae8	-0.24851573
34	0x3db50848	0.0883947
35	0x3ea87cdd	0.32907763
36	0xbe4fe169	-0.20300831
37	0xbed35196	-0.41273183
38	0x3c3cb9f5	0.011518945
39	0xbf0fb03a	-0.56128275
40	0xbda5ec9f	-0.081017725
41	0x3da11d1c	0.0786688
42	0x3dc46012	0.095886365
43	0x3de09cd5	0.10967413
44	0xbc73f266	-0.014889335
45	0xbdf779dc	-0.1208379
46	0x3e97d567	0.29655
47	0xbf02c171	-0.5107642
48	0x3e1897a7	0.14901601
49	0xbe4f6a3b	-0.20255367
50	0x3d4bcb93	0.04975469
51	0xbeeca571	-0.46219972
52	0xbdeef683	-0.11668112
53	0xbf0d248b	-0.55133885
54	0x3f086d05	0.5329135
55	0xbf1308d7	-0.57435364
56	0x3eecdc3c	0.46261775
57	0xbeafdc0f	-0.3434758
58	0x3d83e551	0.06440223
59	0xbeacc54e	-0.33744282
60	0xbf2730ee	-0.65309036
61	0xbe4ffd51	-0.20311476
62	0xbed73bff	-0.4203796
63	0xbe9cd9ce	-0.30634922
64	0xbd9eb624	-0.07749584
65	0xbdf734d6	-0.120706245
66	0x3dce9c80	0.10088444
67	0xbf1168d9	-0.5680061
68	0x3f2687ab	0.6505076
69	0x3d6fd62f	0.05855387
70	0x3f382d8c	0.719445
71	0x3fa063de	1.2530477
72	0x3e38f0e7	0.18060647
73	0xbf3f4992	-0.74721634
74	0xbf5fc178	-0.87404585
75	0x3fbe4f58	1.4867964
76	0xbc9bc56a	-0.019015033
77	0xbda30d2f	-0.07961499
78	0x3db6bad5	0.08922354
79	0xbeb8081b	-0.35943684
80	0xbdb93614	-0.09043518
81	0x3a870c3a	0.0010303326
82	0x3e2b9b51	0.16758467
83	0xbe9eef25	-0.31041828
84	0x3ea6b439	0.32559374
85	0xbe83da4b	-0.25752482
86	0x3d347c88	0.044064075
87	0x3e6df845	0.23239239
88	0x3e5572d6	0.20844588
89	0xbea2ab06	-0.31771106
90	0xbd947207	-0.072483115
91	0x3e579d17	0.21056019
92	0x3d279490	0.040913165
93	0xbe6081c6	-0.21924505
94	0xbcb09d5f	-0.021559415
95	0xbecbb21c	-0.39784324
96	0xbcd7c745	-0.026340136
97	0xbd87e2a2	-0.06635024
98	0xbeae6281	-0.34059528
99	0x3e3eb4ad	0.1862361
100	0xbebe9459	-0.37222555
101	0x3e52ee4e	0.20598719
102	0xbe451a5b	-0.19248335
103	0xbe69d2e0	-0.22834349
104	0x3eb4df9d	0.35326853
105	0xbeb6ca7f	-0.35701367
106	0x3efdb187	0.49549505
107	0x3dad4324	0.08460072
108	0xbd6f90c8	-0.058487684
109	0xbdea0046	-0.114258334
110	0xbeb2774e	-0.34856647
111	0xbe85fb10	-0.26168108
112	0x3e101c5a	0.14073315
113	0xbe67fbf4	-0.22654706
114	0xbe686bad	-0.22697325
115	0x3e24dc55	0.16099675
116	0x3d1b0aa7	0.037851956
117	0x3ba30d48	0.0049759485
118	0xbdfc68e0	-0.12324691
119	0xbde7a6fd	-0.11311147
120	0xbe164d05	-0.14677818
121	0x3d0df7a1	0.034659985
122	0xbf040e7f	-0.5158462
123	0xbf2d1bff	-0.67620844
124	0xbda96188	-0.08270556
125	0xbdf57eda	-0.11987086
126	0xbf03558d	-0.51302415
127	0xbeade8ec	-0.33966768
128	0x3a5c8827	0.0008412622
129	0x3f7d231f	0.98881716
130	0x3e16d5d4	0.14730006
131	0xbda39f5e	-0.07989381
132	0x3eada654	0.3391596
133	0x3f0786b6	0.5293993
134	0x3d93d4a2	0.07218291
135	0x3d9caa8f	0.07649719
136	0xbf1405f2	-0.5782157
137	0xbd20c510	-0.039250433
138	0x3d9766ca	0.07392652
139	0xbe24e864	-0.16104275
140	0x3eb15f8b	0.34643206
141	0xbf0fa9a7	-0.56118244
142	0x3f92fbe0	1.1483116
143	0xbf4ca2b4	-0.79935765
144	0x3d78864a	0.060674943
145	0xbe4f87cc	-0.20266646
146	0x3f5dd051	0.8664599
147	0xbdfc3652	-0.12315048
148	0xbe0f0784	-0.1396771
149	0xbd086c28	-0.03330627
150	0xbea7d708	-0.32781243
151	0x3ec4fe83	0.38475427
152	0x3ea0a0ba	0.31372625
153	0x3deec6ab	0.11658987
154	0xbe0eeb3e	-0.13956925
155	0xba75616f	-0.0009360527
156	0x3e814860	0.2525053
157	0x3f420bd8	0.7579932
158	0x3ee4ad96	0.44663686
159	0xbe810718	-0.25200725
160	0xbec159b1	-0.37763742
161	0x3fdcb572	1.7242873
162	0xbeda0014	-0.42578185
163	0x3f293c02	0.6610719
164	0x3e75a034	0.23986894
165	0xbcea7105	-0.028618345
166	0xbf6121b3	-0.87942046
167	0xbe403d71	-0.18773438
168	0x3e3316d5	0.17489178
169	0x3dc63a9b	0.09679147
170	0x3d226c95	0.039654333
171	0xbe9582be	-0.2920131
172	0xbd04b27d	-0.032396782
173	0xbcb42a9e	-0.021992978
174	0xbdbc4be8	-0.091941655
175	0xbf728c76	-0.94745576
176	0x3eee3088	0.465214
177	0x3ec92a7d	0.39290228
178	0x3ca58461	0.020204725
179	0xbd44ec26	-0.04807677
180	0x3ead16c0	0.3380642
181	0x3d503ce6	0.050839327
182	0xbe56e66f	-0.20986341
183	0x3d96875c	0.073500365
184	0x3eeaa015	0.45825258
185	0xbf01bbdf	-0.50677294
186	0x3e45adcb	0.19304578
187	0x3e0530e8	0.13006938
188	0xbde36d6c	-0.11104855
189	0x3eb727bb	0.357725
190	0x3dec9b46	0.115530536
191	0xbc2d943e	-0.010594426
192	0x3ec2b75e	0.38030523
193	0x3f05b2f9	0.52226216
194	0xbf0bf358	-0.5466819
195	0xbe33a807	-0.17544566
196	0xbe229b6e	-0.15879604
197	0xbd82ada6	-0.06380777
198	0x3e816372	0.25271183
199	0xbe97ffde	-0.296874
200	0xbd0318a0	-0.032005906
201	0xbe9a6fdf	-0.30163476
202	0xbe89f315	-0.2694327
203	0xbdced9e1	-0.10100151
204	0x3ea48f73	0.32140693
205	0x3d940ca8	0.072289765
206	0x3f02ad22	0.5104543
207	0xbd91cd49	-0.07119233
208	0xbfdfed7e	-1.7494352
209	0x3fbea1ea	1.4893162
210	0xbfcb5a57	-1.5886945
211	0x3f3c503e	0.7355994
212	0x3ec2f986	0.38080996
213	0xbeb44b5b	-0.35213742
214	0x3e19b823	0.15011649
215	0x3ea10e50	0.31456232
216	0x3ea8de7e	0.32982248
217	0x3ebd25a8	0.36942792
218	0x3f29f7cf	0.6639375
219	0x3defe2ed	0.117132045
220	0xbf849a60	-1.0359612
221	0x3f8871ac	1.065969
222	0xbee212d0	-0.44154978
223	0x3e2cce68	0.16875613
224	0x3e043b20	0.1291318
225	0xbf033484	-0.5125201
226	0x3c5232e6	0.012829518
227	0xbd683767	-0.05669346
228	0xbe935394	-0.28774703
229	0x3e9acc38	0.30233932
230	0x3db693d4	0.08914915
231	0xbe86e161	-0.26343825
232	0x3dd8d20e	0.1058694
233	0xbedbb836	-0.4291398
234	0x3dd3c460	0.1034019
235	0xbe5f9027	-0.21832334
236	0xbf0ae3b0	-0.54253674
237	0x3e06c14d	0.13159676
238	0xbe0957d2	-0.13412407
239	0x3ed1f1b6	0.41004723
240	0xbe743ee3	-0.23852114
241	0xbf2925dc	-0.66073394
242	0x3cc0d9c7	0.023541344
243	0x3ed83aeb	0.4223245
244	0x3ccbb530	0.02486667
245	0xbd6e70a6	-0.0582129
246	0x3ec84fcd	0.39123383
247	0x3f182d4f	0.59444135
248	0xbf6b27c0	-0.9185753
249	0x3fc809e2	1.5628016
250	0xbf0f77a7	-0.5604195
251	0x3f981d5e	1.1883962
252	0xbe1d895d	-0.15384431
253	0x3e339a7e	0.17539403
254	0x3e240452	0.16017273
255	0x3e0a7e90	0.13524842

VAE.encoder_mu.layers.0.attention.W_q.weight f4 [4, 4]
0	0xbeb16eda	-0.34654886
1	0x3e94ac5e	0.29037756
2	0x3e7c8abf	0.24662302
3	0xbdabf75a	-0.08396788
4	0x3e49b95c	0.19699615
5	0xbe64f6d1	-0.22359778
6	0xbe427d4b	-0.18993108
7	0xbd8509e0	-0.06496024
8	0x3e462c05	0.1935273
9	0x3e520526	0.20509776
10	0xbe0a37cd	-0.13497849
11	0x3e1af4cc	0.15132445
12	0x3d255f3e	0.040374033
13	0xbe1339af	-0.14377473
14	0x3e7e811c	0.24853939
15	0x3eb9bc7a	0.3627661

VAE.encoder_mu.layers.0.attention.W_q.bias f4 [4]
0	0xbf1804bc	-0.59382224
1	0xbf06feba	-0.5273243
2	0xbc985ef9	-0.018599974
3	0x3c881d63	0.016615575

VAE.encoder_mu.layers.0.attention.W_k.weight f4 [4, 4]
0	0x3f12f5f5	0.5740655
1	0x3e87aff1	0.2650142
2	0x3d92f1b6	0.07175009
3	0xbdb1e29e	-0.08685802
4	0x3f84d489	1.037736
5	0x3e66a098	0.22522199
6	0x3e0be76f	0.13662504
7	0xbc7780e4	-0.0151064135
8	0x3e6ef613	0.23336057
9	0xbeead1b1	-0.45863107
10	0xbe10ee0b	-0.14153306
11	0xbe637e30	-0.22216105
12	0x3e7f2938	0.24918067
13	0xbeb56666	-0.35429686
14	0xbe1918e4	-0.14950901
15	0xbeab0235	-0.3340012

VAE.encoder_mu.layers.0.attention.W_k.bias f4 [4]
0	0x3872cd39	5.7888425e-05
1	0x39191060	0.00014597317
2	0x37ddc822	2.6438447e-05
3	0xb8e6d2d1	-0.00011006522

VAE.encoder_mu.layers.0.attention.W_v.weight f4 [4, 4]
0	0xbccbd94c	-0.024883889
1	0x3d40e085	0.04708912
2	0xbc5f4210	-0.01362659
3	0x3ba8ee70	0.005155377
4	0xbcdb4e63	-0.026770776
5	0x3d3d4efc	0.046217903
6	0xbc32f7e2	-0.010923358
7	0x3c2e0767	0.010621882
8	0xbcd37ab3	-0.025815343
9	0x3d39b727	0.045340683
10	0xbca2676b	-0.019824704
11	0xbb710014	-0.0036773728
12	0xbcc448cc	-0.023960494
13	0x3d34cd67	0.0441412
14	0xbc5ad202	-0.013355734
15	0x3c22d642	0.009938778

VAE.encoder_mu.layers.0.attention.W_v.bias f4 [4]
0	0xbe1ffd56	-0.15623984
1	0x3d1c7217	0.038194742
2	0x3df8e189	0.121523924
3	0xbd97a539	-0.074045606

VAE.encoder_mu.layers.0.linear0.weight f4 [128, 4]
0	0xbea84d14	-0.32871306
1	0xbe13a766	-0.14419326
2	0x3e4f22cc	0.20228118
3	0x3e451fe3	0.19250445
4	0xbe965c09	-0.29367092
5	0x3dbe6240	0.092960835
6	0x3e94e9ed	0.2908472
7	0x3e277cfc	0.16356272
8	0x3c061bb7	0.008185319
9	0xbe0cbf25	-0.13744791
10	0x3e246f68	0.16058123
11	0xbeb03c65	-0.34421077
12	0x3f21fb8e	0.63274467
13	0xbef36f64	-0.47545922
14	0xbe2f6f71	-0.17132355
15	0xbd957534	-0.07297745
16	0xbecd8729	-0.40142182
17	0xbe654a69	-0.22391666
18	0x3ef3182f	0.47479388
19	0x3e8127e2	0.2522574
20	0xbd65aaf7	-0.056071248
21	0x3d8df041	0.069305904
22	0x3ec9352f	0.39298388
23	0x3eb7aa16	0.35871953
24	0xbeb08b0a	-0.34481078
25	0x3ecdbe0f	0.40184066
26	0xbf07dedf	-0.5307445
27	0xbe7f78dd	-0.2494845
28	0x3d5fbeb8	0.054625243
29	0xbe35531b	-0.17707483
30	0xbd9ded2a	-0.07711251
31	0xbe861273	-0.2618595
32	0xbd7796b8	-0.06044647
33	0xbeb79a61	-0.3585997
34	0x3ed1bfb6	0.40966576
35	0x3e9ff3e9	0.31240776
36	0xbe46030c	-0.193371
37	0x3e41e481	0.18934824
38	0xbec5a0ca	-0.38599235
39	0xbd6c67a9	-0.057716046
40	0xbdea516e	-0.11441313
41	0x3e1bc40d	0.15211506
42	0xbe9b1e0b	-0.30296358
43	0x3edabac9	0.4272063
44	0x3d700bd4	0.05860503
45	0xbd372ee1	-0.04472244
46	0xbe01bac2	-0.12668899
47	0xbeed0ff9	-0.4630125
48	0xbeb61a9e	-0.35567182
49	0x3ca11589	0.01966359
50	0x3e87372d	0.26409283
51	0xbef6313c	-0.48084438
52	0xbe02dff1	-0.1278074
53	0x3df8eaed	0.121541835
54	0xbe2cbf70	-0.16869903
55	0x3f0e2857	0.55530304
56	0xbd55d460	-0.05220449
57	0xbec228e5	-0.37921825
58	0xbed37c84	-0.41305935
59	0x3e0df1fb	0.1386184
60	0x3e936f52	0.28795868
61	0xbe379199	-0.17926635
62	0xbf2fa22b	-0.68606824
63	0x3ea83080	0.32849503
64	0x3e536f83	0.20648007
65	0xbebbecc9	-0.3670409
66	0x3e9f60dc	0.31128585
67	0x3f04cc27	0.5187401
68	0x3f3de45d	0.7417658
69	0xbec626ac	-0.3870138
70	0x3e9ae250	0.30250788
71	0xbebb8ed3	-0.36632404
72	0x3f0149d0	0.50503254
73	0xbea236e5	-0.31682506
74	0xbeff81d6	-0.49903744
75	0x3e6ee363	0.23328929
76	0xbe860393	-0.26174602
77	0xbc8b9185	-0.017037163
78	0x3d9db53d	0.07700584
79	0xbef63b3f	-0.48092076
80	0x3f02af42	0.5104867
81	0xbea31ed0	-0.31859446
82	0xbd8fa1db	-0.07013293
83	0xbe43b912	-0.19113567
84	0x3dcf074c	0.10108814
85	0x3e14f44e	0.1454632
86	0x3efa398c	0.4887203
87	0xbdcf02b8	-0.101079404
88	0x3ea39839	0.31952074
89	0x3ed1a900	0.4094925
90	0xbe36584c	-0.1780712
91	0xbc5052c0	-0.012715042
92	0x3f094371	0.5361853
93	0x3e9b4833	0.3032852
94	0xbe74b7ff	-0.23898314
95	0xbea76a53	-0.32698306
96	0x3ec63832	0.3871475
97	0xbea8594b	-0.32880625
98	0xbd98135a	-0.07425566
99	0x3ea1ca52	0.3159967
100	0xbd9a11d2	-0.0752293
101	0xbeef7bac	-0.46774042
102	0x3f0b631d	0.5444811
103	0xbe84e1b2	-0.25953442
104	0x3dbc0173	0.09179964
105	0xbf05b578	-0.52230024
106	0x3e76eba1	0.24113323
107	0xbdb0f200	-0.08639908
108	0xbe97df17	-0.29662392
109	0x3e644b29	0.22294296
110	0x3d91b356	0.07114284
111	0x3ece39f2	0.40278584
112	0x3ea44d85	0.32090393
113	0xbc23765a	-0.009976948
114	0xbb0b20dc	-0.0021229303
115	0x3eb3a835	0.3508927
116	0xbe8e752b	-0.27823767
117	0x3ebdc715	0.3706595
118	0xbeaa7bc9	-0.33297566
119	0xbe8af51d	-0.27140132
120	0x3eb2bfc3	0.34911928
121	0xbec13b81	-0.3774071
122	0x3f1b1023	0.605715
123	0xbe933b10	-0.28756
124	0xbe43ea30	-0.19132304
125	0xbdba5270	-0.09097755
126	0xbd064b20	-0.03278649
127	0xbcc81580	-0.024424314
128	0x3e497ac3	0.19675736
129	0xbebb8e31	-0.3663192
130	0x3f0904b2	0.5352279
131	0xbe80885a	-0.25104028
132	0x3e646d71	0.22307374
133	0x3e9232b8	0.2855432
134	0xbdd2c936	-0.10292284
135	0xbe3de7ce	-0.18545458
136	0xbd659001	-0.056045536
137	0xbd8263bb	-0.06366678
138	0x3da76a12	0.08174528
139	0x3eae225a	0.34010583
140	0x3ea7dd69	0.3278611
141	0xbec41a69	-0.383014
142	0x3ef32c8f	0.47494933
143	0xbeae8f81	-0.3409386
144	0xbe8bd07b	-0.27307495
145	0xbea60acc	-0.32430112
146	0x3e781ed7	0.24230514
147	0xbcba129e	-0.022713955
148	0x3e0a7950	0.1352284
149	0xbea8ea39	-0.32991198
150	0xbe60d988	-0.21957982
151	0x3ea8a10b	0.32935366
152	0xbd49b737	-0.049246993
153	0x3f063ee5	0.5243972
154	0x3d496c39	0.049175475
155	0xbeaaeb40	-0.33382607
156	0x3dd2ccf5	0.10292999
157	0xbf004c0d	-0.50116044
158	0xbdce390b	-0.10069474
159	0xbec971b6	-0.39344567
160	0xbe4b1332	-0.19831541
161	0xbe460bcc	-0.19340438
162	0xbe2135cf	-0.15743183
163	0xbeb927ac	-0.3616308
164	0xbd161f1b	-0.03665076
165	0x3e7eaac1	0.24869825
166	0xbf1ce14c	-0.61281276
167	0x3dba6ee3	0.09103181
168	0x3e825f19	0.2546318
169	0xbdb2d013	-0.08731093
170	0xbd943be5	-0.072379865
171	0xbf1c6f74	-0.61107564
172	0x3e85039a	0.2597931
173	0x3db936d2	0.09043659
174	0x3ea6d77d	0.3258628
175	0xbe4d7af3	-0.20066433
176	0x3eadd261	0.3394957
177	0xbe80a1cb	-0.25123438
178	0x3db3ede2	0.08785607
179	0x3eff97a2	0.49920374
180	0xbee7184f	-0.45135733
181	0x3efac89e	0.48981184
182	0x3e95a30d	0.2922596
183	0x3ed618ec	0.4181589
184	0xbecc21d1	-0.3986955
185	0x3e573cb2	0.21019247
186	0xbdbb26ce	-0.09138261
187	0xbe43c551	-0.19118239
188	0x3f05c32e	0.52250946
189	0x3ec79a9a	0.3898514
190	0xbefa5ea1	-0.4890032
191	0x3db3c3c8	0.08777577
192	0xbeaebce4	-0.34128487
193	0xbe37b464	-0.17939907
194	0xbea3a938	-0.3196504
195	0xbe6cb5b4	-0.23116189
196	0xbee582f7	-0.4482648
197	0xbea21eae	-0.31664032
198	0x3e42094d	0.1894886
199	0xbed30447	-0.412142
200	0xbca19d91	-0.019728454
201	0xbef3d03c	-0.47619808
202	0xbee3443c	-0.44387996
203	0xbe1946ba	-0.14968386
204	0xbd882eca	-0.06649549
205	0x3ea87883	0.32904443
206	0xbe742b50	-0.23844647
207	0x3e5c4a2f	0.21512674
208	0x3e9f07c7	0.3106062
209	0xbe46b3a2	-0.19404462
210	0xbc961620	-0.018321097
211	0xbecef870	-0.40423918
212	0x3decb512	0.11557974
213	0xbc845a3f	-0.016156314
214	0x3e9c4f8c	0.3052944
215	0xbe2cd78b	-0.16879098
216	0xbe7ce987	-0.24698459
217	0x3e1fef03	0.1561852
218	0xbeae89f1	-0.34089616
219	0x3b8e6205	0.004345181
220	0xbe890129	-0.26758698
221	0x3dfa95f9	0.12235636
222	0x3ee273b1	0.4422889
223	0xbe276e05	-0.16350563
224	0x3d34afc8	0.04411295
225	0x3eff863a	0.49907094
226	0x3d197b90	0.037471354
227	0x3ec47c0c	0.3837589
228	0x3d945f3b	0.07244726
229	0x3ec74390	0.38918734
230	0xbeb0ca0a	-0.34529144
231	0x3ec589d4	0.38581717
232	0xbd0f820e	-0.03503614
233	0x3ec3b1fb	0.38221726
234	0xbdba4326	-0.09094839
235	0x3e0b16d6	0.1358293
236	0x3ea828b4	0.32843554
237	0x3e0d1654	0.13778049
238	0xbf20efc0	-0.6286583
239	0xbdb7de2c	-0.08977923
240	0xbee6f25c	-0.4510678
241	0x3ecc1554	0.39860022
242	0xbe34874a	-0.17629734
243	0xbea50715	-0.32231966
244	0x3e4fb0e4	0.20282322
245	0xbee30e83	-0.4434701
246	0x3cc94a31	0.02457151
247	0x3e7b9066	0.24566802
248	0xbe959058	-0.29211688
249	0xbf135992	-0.5755855
250	0xbe3856c0	-0.18001842
251	0x3ea2a616	0.3176734
252	0x3ee6c130	0.45069265
253	0x3d3e61da	0.046480037
254	0x3f1212e8	0.570601
255	0x3dc2d9bc	0.09514186

VAE.encoder_mu.layers.0.linear0.bias f4 [128]
0	0xbe336459	-0.17518748
1	0xbe3a0a40	-0.18167973
2	0x3e08ade4	0.13347584
3	0xbe724bf9	-0.23661794
4	0xbdee5132	-0.116365805
5	0xbdcb813c	-0.09936759
6	0xbeec4ddd	-0.46153155
7	0x3de9ad45	0.11410002
8	0x3ee7208a	0.45142013
9	0x3d7221f0	0.059114397
10	0xbe926b0d	-0.28597298
11	0xbe484ed0	-0.19561315
12	0xbe344bb3	-0.17607002
13	0x3e963967	0.2934067
14	0xbe840c01	-0.25790408
15	0xbe414834	-0.188752
16	0x3d04fdc1	0.03246856
17	0x3e264c4f	0.16240047
18	0xbe88b477	-0.26700184
19	0xbc92284c	-0.01784148
20	0x3eeee2b2	0.4665733
21	0xbee04688	-0.4380381
22	0x3c0b6171	0.008507119
23	0xbdb0cee4	-0.08633211
24	0xbed77ba3	-0.42086515
25	0x3d9e22a1	0.07721449
26	0x3e91249c	0.28348243
27	0xbd8833f3	-0.066505335
28	0x3ef10b91	0.47079137
29	0x3ef0e167	0.47046968
30	0x3ed35ee5	0.41283336
31	0xbef8fc22	-0.48629862
32	0x3ec5cf23	0.38634595
33	0x3ee3cdb8	0.44492888
34	0x3f0b4329	0.54399353
35	0x3e8f0644	0.27934468
36	0x3e08860e	0.13332388
37	0xbcb31832	-0.021862123
38	0xbe01dd62	-0.12682107
39	0xbe49232e	-0.19642326
40	0xbc44e127	-0.012016571
41	0x3d818a71	0.06325234
42	0xbdc570fe	-0.09640692
43	0x3e8f7e78	0.28026175
44	0xbe57cb4f	-0.2107365
45	0x3f011e33	0.50436705
46	0x3e86dca8	0.26340222
47	0xbde4ac76	-0.11165707
48	0xbebfe758	-0.3748119
49	0xbec945da	-0.39311105
50	0xbe01d045	-0.12677105
51	0xbdc773b5	-0.09738866
52	0x3e08486a	0.13308874
53	0x3d4cd6ca	0.050009526
54	0x3eb10287	0.3457224
55	0xbe4711d9	-0.19440402
56	0x3e9adc74	0.30246317
57	0xbecba951	-0.39777616
58	0x3e49efed	0.1972043
59	0x3c865f45	0.01640285
60	0x3eebdba9	0.46066025
61	0xbe9a8314	-0.3017813
62	0xbd6cd726	-0.05782237
63	0x3e8458aa	0.25848895
64	0xbd5b8bb5	-0.053600032
65	0xbe5e0452	-0.21681336
66	0xbdfce210	-0.123478055
67	0x3ca0df16	0.019637626
68	0x3d64e4b0	0.055882156
69	0x3e96405b	0.29345974
70	0xbeb91f11	-0.36156514
71	0x3eb334c4	0.35001194
72	0xbc16793b	-0.009184177
73	0xbdd2aa22	-0.102863565
74	0x3e8aa19a	0.27076417
75	0xbc31391e	-0.01081684
76	0xbdcb2b89	-0.09920413
77	0xbe10eba5	-0.14152391
78	0x3e08001f	0.13281296
79	0x3ea73587	0.32658026
80	0x3b17ce7f	0.0023163853
81	0xbee54818	-0.44781566
82	0x3f0c690d	0.54847795
83	0xbc6a0e33	-0.014285612
84	0xbef0c741	-0.4702702
85	0xbd8cb9c3	-0.06871369
86	0x3ea7b39b	0.32754216
87	0x3ef6a8b3	0.48175582
88	0x3ca0b39e	0.019616898
89	0xbee4d91a	-0.44696885
90	0x3cfdef52	0.030997906
91	0xbe9887d5	-0.29791132
92	0xbe604cb0	-0.21904254
93	0x3eb0c69a	0.3452652
94	0xbe5e8d4d	-0.2173359
95	0x3e0edc1f	0.13951157
96	0x3d6eda17	0.058313455
97	0x3e1f1867	0.15536653
98	0x3eb0527e	0.34437937
99	0x3ef6be21	0.48191932
100	0x3e843482	0.2582131
101	0x3e2f0188	0.17090428
102	0xbcd7853c	-0.026308648
103	0xbd4610a8	-0.04835573
104	0x3e4ce0f6	0.20007691
105	0x3dd7f3ad	0.10544524
106	0x3eae3658	0.34025836
107	0xbef2f691	-0.4745374
108	0xbc10a46e	-0.008828266
109	0xbe41fa70	-0.1894319
110	0x3d44e7a4	0.048072472
111	0x3ebf9265	0.37416378
112	0x3e99d90c	0.30048406
113	0xbea977f6	-0.33099335
114	0xbe266464	-0.16249233
115	0x3ecdf8c9	0.4022887
116	0xbee11730	-0.43963003
117	0x3deb4e9c	0.11489603
118	0x3dc44d07	0.09585004
119	0x3ec734c4	0.38907444
120	0x3eacbdcc	0.33738554
121	0xbe775385	-0.24152954
122	0xbeca9d15	-0.3957297
123	0xbee5082b	-0.44732794
124	0x3edeb16b	0.43494734
125	0xbde60032	-0.11230506
126	0xbe74db21	-0.23911716
127	0x3e82a94c	0.25519788

VAE.encoder_mu.layers.0.linear1.weight f4 [4, 128]
0	0x3db818ee	0.0898913
1	0xbd308750	-0.043097794
2	0x3db85405	0.090004005
3	0x3ce8f79d	0.028438384
4	0x3d25c77a	0.04047344
5	0xbd4aa323	-0.049471986
6	0x3e3af243	0.18256478
7	0x3d756903	0.0599146
8	0xbbded222	-0.006799952
9	0xbdb26355	-0.08710352
10	0x3db5bb43	0.08873608
11	0xbdd3f40b	-0.10349282
12	0xbd843692	-0.06455721
13	0xbcb1ff11	-0.02172807
14	0x3d68b514	0.056813315
15	0x3df6b7d1	0.12046779
16	0x3c4d2e5a	0.012523258
17	0xbd773de8	-0.060361773
18	0x3dbab020	0.091156244
19	0xbc3a69f9	-0.011377805
20	0xbd1ff5b1	-0.03905267
21	0xbdb9fdf7	-0.09081643
22	0x3dd9e56b	0.10639461
23	0x3c9fe4c5	0.019518266
24	0x3db3673e	0.08759926
25	0xbdfd67ce	-0.12373315
26	0xbd2caf4a	-0.042159356
27	0xbda1a769	-0.07893259
28	0x3cda6119	0.026657628
29	0x3d516afe	0.051127426
30	0xbe1e4d37	-0.15459143
31	0xbc2c1aa1	-0.010504396
32	0xbc9eb985	-0.019375572
33	0xbd85ab7f	-0.06526851
34	0xbd71f04a	-0.059067048
35	0x3d465011	0.0484162
36	0x3d2697b3	0.040672015
37	0xbca23091	-0.019798549
38	0x3e081a2f	0.13291238
39	0x3db30760	0.08741641
40	0xbdb515a2	-0.08842017
41	0xbe1eff3a	-0.15527049
42	0x3d73345c	0.059376106
43	0xbbfa8182	-0.007644833
44	0xbd5de58e	-0.054174
45	0xbd5bc261	-0.05365217
46	0xbd32a41f	-0.04361355
47	0x3c342449	0.010994979
48	0xbdadd6ff	-0.08488273
49	0xbd9c8d97	-0.076441936
50	0x3e1551a7	0.14581929
51	0xbe39f1c5	-0.18158634
52	0xbcdf3b78	-0.027250037
53	0x3c91e146	0.017807614
54	0xbd8a0aa2	-0.06740309
55	0x3e05dba9	0.13072075
56	0x3d90eeab	0.07076772
57	0xbd773b00	-0.060359
58	0x3c0f90e6	0.008762574
59	0x3d6ee5c3	0.058324587
60	0xbd14838b	-0.03625826
61	0xbe38e50b	-0.18056123
62	0x3c69fd11	0.014281527
63	0xbe001bbd	-0.12510581
64	0xbd51bf61	-0.051207904
65	0x3da2c8eb	0.07948478
66	0xbd04f0b4	-0.032456115
67	0xbd9ada2e	-0.07561146
68	0x3dd2d029	0.1029361
69	0xbd8d2874	-0.068924814
70	0x3e3c2ad6	0.18375716
71	0x3e07b0ad	0.1325099
72	0xbdba9f5a	-0.09112425
73	0x3ddd5102	0.10806467
74	0xbd9b60cb	-0.07586821
75	0x3da5fee1	0.08105255
76	0xbd8f0f09	-0.069852896
77	0x3cb558d0	0.022137076
78	0xbcfe3e61	-0.031035604
79	0x3d84c2c4	0.06482461
80	0xbba9b462	-0.005178974
81	0x3cf66df2	0.030081723
82	0xbc2fd2e8	-0.010731436
83	0x3db41ff3	0.08795156
84	0xbe37079d	-0.17873998
85	0x3da63fe3	0.08117654
86	0xbe198e5b	-0.1499571
87	0xbd481386	-0.048846744
88	0xbd8bb41f	-0.06821465
89	0x3e648816	0.22317538
90	0x3d1c13f0	0.03810495
91	0x3b651690	0.0034956075
92	0x3cf97ddf	0.030455528
93	0xbdcd525b	-0.10025474
94	0x3dcfe3d2	0.10150875
95	0xbc7b6f93	-0.015346426
96	0x3cb5ee89	0.022208469
97	0x3c677951	0.014128045
98	0xbb259512	-0.0025265855
99	0x3cc89227	0.024483753
100	0xbd0599e4	-0.032617465
101	0xbde800e1	-0.11328293
102	0xbdd60413	-0.10449996
103	0xbcca0f50	-0.024665505
104	0x3d22af3b	0.039717894
105	0xbe13c9d5	-0.14432462
106	0xbdb9f260	-0.090794325
107	0xbd7e967f	-0.062155243
108	0xbd97dd0c	-0.07415208
109	0xbeca31ad	-0.39491025
110	0xbe346e7f	-0.17620276
111	0x3d60ef69	0.05491582
112	0xbd101057	-0.035171833
113	0x3e001e3e	0.12511536
114	0x3e0a8a34	0.13529283
115	0x3d0d74a9	0.034535084
116	0x3e5c24a5	0.21498354
117	0x3cc0307a	0.023460615
118	0xbc4e8c07	-0.012606627
119	0x3a9b0aa4	0.0011828733
120	0xbc9f07ab	-0.019412836
121	0xbdcafd70	-0.099116206
122	0xbde6e586	-0.11274247
123	0x3b33135a	0.0027324767
124	0xbdc54234	-0.09631768
125	0x3da5b489	0.08091075
126	0xbc217a74	-0.009855855
127	0x3b9b0137	0.0047303694
128	0x3d58e189	0.052949462
129	0x3dd2b159	0.10287733
130	0x3dd3bb8a	0.103385046
131	0xbde0829d	-0.109624125
132	0x3c023d18	0.007949136
133	0x3da483a7	0.08032923
134	0xbd70c366	-0.058780096
135	0xbd8155b5	-0.063151754
136	0x3b8c0316	0.004272829
137	0xbc769822	-0.01505092
138	0x3d2e53f5	0.042560536
139	0x3b65138a	0.0034954273
140	0x3dfcaa25	0.1233714
141	0xbc99e3bd	-0.018785352
142	0xbe191483	-0.14949231
143	0xbe17fa79	-0.14841641
144	0x3cc461ce	0.023972418
145	0xbdb5bf5b	-0.08874389
146	0x3d00a390	0.031405985
147	0xbbc8b893	-0.0061255186
148	0xbd281166	-0.041032217
149	0x3c87cff8	0.01657866
150	0xbd449e0b	-0.048002284
151	0x3dece81b	0.11567708
152	0x3c68d568	0.014211036
153	0x3d175e31	0.036955062
154	0xbdd00882	-0.10157873
155	0xbccb50fa	-0.024818886
156	0x3c958ba3	0.01825506
157	0x3cc0f959	0.023556398
158	0x3ca3996f	0.019970624
159	0x3d2c5130	0.042069614
160	0x3d43dd07	0.04781821
161	0xbdb07045	-0.08615164
162	0xbd726806	-0.059181236
163	0xbd2e3091	-0.042526785
164	0x3d12277c	0.035682186
165	0x3daedd54	0.08538309
166	0xbe347b0c	-0.17625064
167	0xbe5cd721	-0.2156644
168	0x3d62f2f1	0.05540747
169	0xbd990092	-0.07470812
170	0x3dfc5b18	0.12322062
171	0xbd45efe0	-0.048324466
172	0x3dae8b59	0.08522672
173	0xbc6cbf4c	-0.014449906
174	0xbca6e03b	-0.020370593
175	0xbe0692fc	-0.13142008
176	0x3b02084a	0.0019841366
177	0x3df184c4	0.11792901
178	0xbe003858	-0.12521493
179	0x3cf5e482	0.030016188
180	0xbda3904f	-0.07986509
181	0x3dc03fc1	0.0938716
182	0xbdf591c9	-0.11990697
183	0xbdb4d1e4	-0.08829096
184	0xbd4e4762	-0.050361045
185	0xbb85900c	-0.0040760096
186	0xbd4621bb	-0.04837201
187	0x3e10a9c7	0.14127265
188	0x3ded5b45	0.11589674
189	0x3e3ebb46	0.18626127
190	0xbe24129d	-0.16022725
191	0x3dac575f	0.08415102
192	0x3d928018	0.07153338
193	0x3b6e514a	0.003636437
194	0x3d1317cb	0.035911363
195	0x3cf3009f	0.029663382
196	0xbdd1739a	-0.102271274
197	0x3c954c0e	0.018224742
198	0xbda9e96b	-0.08296474
199	0xbdfac12d	-0.122438766
200	0x3c83b653	0.01607815
201	0xbde52fbc	-0.11190745
202	0xbd17b825	-0.03704085
203	0xbe12ce10	-0.14336419
204	0xbdbb4bd6	-0.09145324
205	0x3d7ee072	0.062225766
206	0x3d6ca537	0.05777475
207	0x3d9d7c49	0.07689721
208	0xbdf29f77	-0.11846822
209	0xbe37f3b4	-0.17964059
210	0xbdcf8fbe	-0.101348385
211	0xbcc9054d	-0.02453866
212	0x3de2ca6d	0.11073766
213	0xbdc1a21b	-0.09454747
214	0x3c0f6f59	0.008754575
215	0x3b0c0055	0.0021362503
216	0xbe0515c3	-0.12996583
217	0x3c86c88b	0.016453048
218	0x3dfd829b	0.12378427
219	0x3de097cd	0.10966454
220	0x3d6ce95e	0.057839744
221	0x3d251185	0.04029991
222	0x3d105f65	0.035247225
223	0x3dfaebc8	0.12252003
224	0x3dc04e22	0.09389903
225	0xbdca189d	-0.09867976
226	0xbdd6371d	-0.10459731
227	0x3de51e20	0.111873865
228	0x3e1e3089	0.15448202
229	0xbde2b211	-0.1106912
230	0x3cfa946b	0.03058835
231	0xbcf9213a	-0.030411351
232	0x3d792bfb	0.06083296
233	0xbd1502c2	-0.036379583
234	0xbc0add7b	-0.008475657
235	0x3ea5b6cb	0.32366022
236	0x3d03b314	0.032153204
237	0x3e914db3	0.28379592
238	0xbd77d508	-0.060505897
239	0xbd8e723b	-0.069553815
240	0xbdff6aac	-0.12471518
241	0xbe3c55d9	-0.18392123
242	0x3db3d550	0.087809205
243	0xbde5deb5	-0.112241186
244	0xbd83dfbd	-0.06439159
245	0xbcf6167b	-0.030040016
246	0x3cec6596	0.028857034
247	0xbd450ff6	-0.048110925
248	0x3d113d5b	0.035458904
249	0x3d91a855	0.07112185
250	0xbc0f9530	-0.008763596
251	0xbdef32c3	-0.11679604
252	0x3e0acbd0	0.13554311
253	0x3d895475	0.06705562
254	0x3ea27012	0.31726128
255	0x3d55ad4e	0.05216723

VAE.encoder_mu.layers.0.linear1.bias f4 [4]
0	0xbcf17267	-0.029473497
1	0xbd9c0f90	-0.07620156
2	0x3ccca075	0.024978856
3	0x3c032193	0.00800361

VAE.encoder_mu.layers.0.norm1.weight f4 [4]
0	0x3f942d4d	1.1576325
1	0x3f9136f2	1.1344893
2	0x3f9bf93c	1.2185435
3	0x3f87785b	1.0583605

VAE.encoder_mu.layers.0.norm1.bias f4 [4]
0	0xbd07c7c9	-0.033149514
1	0xbd23d592	-0.0399986
2	0x3c60b19c	0.01371422
3	0x3d96d3d5	0.073646225

VAE.encoder_mu.layers.1.attention.W_q.weight f4 [4, 4]
0	0xbf102ae6	-0.5631546
1	0x3e81580d	0.2526249
2	0xbecee2e4	-0.4040748
3	0x3f432e05	0.76242095
4	0xbe62ae79	-0.22136869
5	0xbeee6bc5	-0.46566597
6	0xbeb7d1e4	-0.3590232
7	0xbe801544	-0.25016224
8	0xbf1d34e2	-0.6140882
9	0x3f12316b	0.57106656
10	0xbe996188	-0.29957223
11	0x3ef991b0	0.48743963
12	0xbdf2866a	-0.11842044
13	0xbebb4929	-0.36579254
14	0x3ec88b4a	0.3916877
15	0xbf15e970	-0.5855932

VAE.encoder_mu.layers.1.attention.W_q.bias f4 [4]
0	0x3ecbb3eb	0.39785704
1	0xbe8e0d28	-0.27744412
2	0x3ec1d271	0.37855867
3	0xbe798281	-0.2436619

VAE.encoder_mu.layers.1.attention.W_k.weight f4 [4, 4]
0	0xbf0c37d4	-0.54772687
1	0x3e64f3d3	0.22358637
2	0x3c71cf85	0.014758949
3	0x3f057034	0.52124333
4	0xbe805238	-0.25062728
5	0x3e506700	0.20351791
6	0x3bc2a6d4	0.0059402976
7	0xbf22643e	-0.6343421
8	0xbe9c85eb	-0.3057092
9	0xbea657d6	-0.32488889
10	0x3e4fbe5a	0.20287457
11	0x3f2471ca	0.6423613
12	0x3f02258e	0.50838554
13	0x3ea3bc03	0.3197938
14	0xbeaef21e	-0.34169096
15	0xbe57f687	-0.21090136

VAE.encoder_mu.layers.1.attention.W_k.bias f4 [4]
0	0x3932fc73	0.00017069447
1	0xb7286035	-1.003598e-05
2	0xb514edf9	-5.548059e-07
3	0x39f51743	0.00046747373

VAE.encoder_mu.layers.1.attention.W_v.weight f4 [4, 4]
0	0x3edcab41	0.43099406
1	0x3eccf221	0.4002848
2	0x3f11901a	0.56860507
3	0x3ef5f3cd	0.48037568
4	0x3e65aa10	0.22428155
5	0x3e1474ed	0.14497729
6	0x3e88578d	0.26629296
7	0x3e285630	0.16439128
8	0x3e7b153b	0.24519818
9	0x3e00ff95	0.12597497
10	0x3e81ac82	0.25326926
11	0x3df7c34b	0.12097796
12	0xbdff7534	-0.124735266
13	0xbdbb5fc3	-0.091491245
14	0xbd249231	-0.04017848
15	0xbd3daf65	-0.046309847

VAE.encoder_mu.layers.1.attention.W_v.bias f4 [4]
0	0x3d0d38fe	0.03447818
1	0xbd1e8deb	-0.038709562
2	0x3c0f6e0f	0.008754267
3	0xbd45bea8	-0.048277527

VAE.encoder_mu.layers.1.linear0.weight f4 [128, 4]
0	0xbe775b28	-0.24155867
1	0x3f3635d9	0.71175915
2	0xbedf9b1d	-0.4367303
3	0xbdbf4750	-0.09339774
4	0xbe6d140a	-0.23152176
5	0x3e9635e8	0.29338002
6	0xbefadcfa	-0.48996717
7	0x3d3617e5	0.04445638
8	0xbf08a5d6	-0.53378046
9	0xbf066058	-0.5249076
10	0x3f21e4a5	0.6323951
11	0xbe8ae1c2	-0.27125365
12	0x3e6b3ae0	0.22971678
13	0x3e8b9417	0.2726142
14	0xbe83c973	-0.2573963
15	0xbd212082	-0.039337642
16	0xbe67afd1	-0.22625662
17	0x3f157bc1	0.5839196
18	0xbe8be09a	-0.27319795
19	0x3cb1aa51	0.021687659
20	0x3f284fde	0.6574687
21	0xbe7fcf76	-0.24981484
22	0x3e8d5705	0.27605453
23	0xbd922d1f	-0.071375124
24	0xbe21c90f	-0.15799354
25	0xbf0da838	-0.55334806
26	0xbe15a46b	-0.14613502
27	0x3efe35e9	0.49650505
28	0xbef3a03c	-0.47583187
29	0xbf341034	-0.70337224
30	0xbec6db3f	-0.38839146
31	0x3c974df9	0.018469797
32	0xbef6fa4c	-0.48237836
33	0x3ebd01e4	0.36915505
34	0x3d57b0d2	0.052658863
35	0xbf17e77e	-0.59337604
36	0xbe5cebfd	-0.21574397
37	0xbe99bd5f	-0.3002729
38	0x3f11aca8	0.5690408
39	0xbef6bd6f	-0.481914
40	0x3eb18a67	0.34675905
41	0x3ecefc8e	0.4042706
42	0xbe65ab97	-0.22428738
43	0xbe02a4a7	-0.12758122
44	0x3db40db5	0.08791677
45	0xbeae7d0c	-0.34079778
46	0x3f1ada67	0.60489506
47	0xbf3e299c	-0.7428224
48	0xbe20dc19	-0.1570896
49	0xbd6a003d	-0.057129133
50	0x3e858257	0.26076004
51	0xbe761b53	-0.24033861
52	0x3ed3a237	0.41334698
53	0x3edad98d	0.42744103
54	0xbf06029e	-0.52347744
55	0xbea443de	-0.3208303
56	0xbd8914b5	-0.06693403
57	0x3e50a763	0.20376353
58	0x3f052732	0.5201293
59	0xbec8ab5f	-0.39193246
60	0x3e35109c	0.17682117
61	0x3f09efd5	0.5388158
62	0x3d6eab1a	0.058268644
63	0xbf16b23f	-0.5886573
64	0x3ea9f667	0.33195803
65	0xbe3fa023	-0.18713431
66	0xbe32e377	-0.17469583
67	0x3e98b66b	0.29826674
68	0xbe8a6de2	-0.2703696
69	0x3f1c8b9c	0.61150527
70	0xbe8ef55e	-0.27921575
71	0xbe1b1c28	-0.1514746
72	0x3e358eca	0.17730251
73	0xbea6f4c5	-0.3260862
74	0xbee036ee	-0.43791908
75	0x3da2a5f2	0.07941808
76	0xbe4ce417	-0.20008884
77	0x3c3e4b3f	0.01161462
78	0xbe6cee8e	-0.23137876
79	0x3eb9d9a2	0.36298853
80	0xbe212daa	-0.15740076
81	0xbe4bdc07	-0.19908153
82	0x3eb0a784	0.34502804
83	0xbdbbedea	-0.09176238
84	0x3eae333b	0.3402346
85	0xbf0fa43d	-0.5610998
86	0xbd716443	-0.058933508
87	0x3f0605d0	0.5235262
88	0x3eedd15f	0.464488
89	0x3d9cf76d	0.0766438
90	0x3ee6f4b1	0.4510856
91	0xbf432132	-0.7622253
92	0xbbf6438a	-0.0075153755
93	0xbe865e5c	-0.26243865
94	0xbed50081	-0.41601947
95	0x3dd6fa86	0.10497002
96	0x3db86f28	0.09005576
97	0xbee992ae	-0.4561972
98	0x3f5cd338	0.86259794
99	0xbf6235f1	-0.8836356
100	0x3db79329	0.089636154
101	0x3ea7311a	0.3265465
102	0x3ee00bba	0.43758947
103	0xbf430de3	-0.76193064
104	0xbe3c3fa8	-0.18383658
105	0xbeed00b7	-0.46289608
106	0xbeff2fa3	-0.4984103
107	0x3db2ffab	0.08740171
108	0x3eae1c15	0.340058
109	0x3e1be65c	0.15224594
110	0xbe90e4ab	-0.2829946
111	0x3ec3d35f	0.382472
112	0xbea719d6	-0.326369
113	0x3ec46eea	0.3836587
114	0x3e42f47a	0.19038573
115	0x3e1927b5	0.14956553
116	0xbefebeb0	-0.49754858
117	0xbf00e391	-0.5034724
118	0xbb056b4e	-0.0020358148
119	0xbd85bbb0	-0.06529939
120	0x3e6cfbe2	0.2314296
121	0x3f19c195	0.6006101
122	0xbe9931ea	-0.29920894
123	0xbf10ec22	-0.5661031
124	0x3e7ac665	0.24489744
125	0x3eabb0ce	0.3353333
126	0x3eb6b3c6	0.3568403
127	0xbf1c950d	-0.61164933
128	0xbeb80704	-0.35942852
129	0x3de7ab36	0.11311953
130	0xbecd1156	-0.4005229
131	0xbe646b93	-0.22306661
132	0x3c995c30	0.018720716
133	0x3f5f00a1	0.87110335
134	0xbed2090a	-0.4102252
135	0xbf110534	-0.56648564
136	0x3e4ffabd	0.20310493
137	0x3dc5135e	0.096228346
138	0x3e44db69	0.19224323
139	0xbd80f0d7	-0.062959366
140	0x3f06fcb8	0.5272937
141	0x3e30c895	0.17264016
142	0x3e5132e9	0.20429577
143	0x3edf8fd4	0.4366442
144	0x3eee5789	0.4655116
145	0x3f1a91c5	0.60378677
146	0x3ec944e1	0.39310363
147	0xbef46259	-0.47731283
148	0xbe780adb	-0.24222891
149	0x3e211715	0.15731461
150	0x3e0dcc88	0.13847554
151	0x3ebd18ea	0.3693307
152	0x3e043016	0.12908968
153	0xbe2b5d30	-0.16734767
154	0xbe9e4515	-0.3091208
155	0x3e8d6781	0.2761803
156	0xbe8161f6	-0.2527005
157	0xbe9b2ebf	-0.30309102
158	0xbe94a92d	-0.2903532
159	0x3d69e0d7	0.05709919
160	0x3d976bfa	0.07393642
161	0x3f097fa7	0.53710407
162	0x3c2cf60a	0.010556707
163	0x3e5d5857	0.2161573
164	0xbe262533	-0.16225128
165	0x3ec9492d	0.3931364
166	0x3d84a5a0	0.06476903
167	0xbe107038	-0.14105308
168	0xbed34cc7	-0.41269514
169	0x3c668505	0.0140698
170	0x3f20446b	0.626044
171	0xbd6a7075	-0.057236154
172	0x3f3421b2	0.70363915
173	0x3ede5ec8	0.43431687
174	0xbea65c61	-0.32492355
175	0xbec545bf	-0.38529775
176	0x3ecf3499	0.40469816
177	0x3ec9609e	0.39331526
178	0xbe1fc737	-0.15603338
179	0x3e231058	0.15924203
180	0xbf0d708e	-0.5524987
181	0xbe7f19cd	-0.24912186
182	0xbf1a7781	-0.603386
183	0xbda68910	-0.08131611
184	0xbeedcdcf	-0.46446082
185	0x3e951e48	0.29124665
186	0xbe18f9c4	-0.14939028
187	0xbd34f8ef	-0.044182714
188	0xbee28c39	-0.44247606
189	0x3c61da7a	0.013784999
190	0xbf061439	-0.5237461
191	0x3e5b87f8	0.21438587
192	0x3ec49836	0.38397378
193	0xbecb3858	-0.39691424
194	0xbec38dea	-0.3819421
195	0x3e9ee8d5	0.31037012
196	0x3e83c329	0.25734833
197	0x3eae3bc8	0.34029984
198	0xbeeb20ec	-0.45923555
199	0x3e0e3383	0.13886838
200	0x3f13cd9c	0.5773561
201	0x3e8e1b2a	0.277551
202	0xbef23d2a	-0.4731229
203	0xbea826b0	-0.32842016
204	0x3ee0b998	0.43891597
205	0xbe38c9e9	-0.18045773
206	0xbe8791d4	-0.26478446
207	0x3ebbc881	0.3667641
208	0x3e25f141	0.16205312
209	0x3e697b92	0.22801045
210	0x3e8762b6	0.26442498
211	0xbf2a5109	-0.665299
212	0x3e409960	0.18808508
213	0x3f18cdd1	0.5968905
214	0xbef55da8	-0.47923017
215	0x3e1e27e8	0.1544491
216	0xbe871eaf	-0.26390597
217	0x3e8681bd	0.26270857
218	0x3ec82b53	0.39095554
219	0xbf2ccb38	-0.6749759
220	0x3d28c051	0.041199032
221	0xbee6960a	-0.45036346
222	0xbebd20c0	-0.3693905
223	0xbe913396	-0.2835967
224	0x3ebf45c8	0.37357926
225	0xbe755cca	-0.23961177
226	0xbee5fe1a	-0.44920427
227	0x3ec2c9d7	0.38044617
228	0xbe792e5b	-0.2433409
229	0x3e3332f8	0.17499912
230	0xbeb83e2a	-0.35984927
231	0x3e96047d	0.293003
232	0xbec6a440	-0.38797188
233	0x3d8a4189	0.06750781
234	0x3eb5e616	0.35527104
235	0xbebe389d	-0.37152568
236	0x3ea08d20	0.3135767
237	0x3f33e427	0.7027001
238	0x3de26fa1	0.11056448
239	0x3e9dc3aa	0.30813342
240	0x3ea6980c	0.32537878
241	0x3ec9034e	0.39260334
242	0x3e8137de	0.25237936
243	0xbd6e529e	-0.05818426
244	0x3e00209a	0.12512437
245	0xbea7c9a8	-0.3277104
246	0xbdbcdff3	-0.092224024
247	0x3eaa6d7f	0.33286664
248	0x3ed9e12a	0.425546
249	0x3d88ce1d	0.06679938
250	0x3e897ae7	0.2685158
251	0x3e909dcf	0.28245398
252	0xbcae15fd	-0.02125072
253	0x3f1a8fe7	0.6037583
254	0x3f0346c8	0.5127988
255	0xbeb82ccc	-0.35971677

VAE.encoder_mu.layers.1.linear0.bias f4 [128]
0	0x3eafcb01	0.34334567
1	0x3e50b2bb	0.2038068
2	0xbecd4aeb	-0.4009622
3	0x3edc2c94	0.4300276
4	0x3eb4c763	0.3530837
5	0x3ef481b3	0.47755203
6	0x3e70035c	0.23438781
7	0xbe7be40b	-0.2459871
8	0xbddeb0de	-0.108735785
9	0xbee7884f	-0.45221183
10	0x3cccd4f4	0.025003888
11	0xbbe0f2c4	-0.0068648774
12	0xbebc2dba	-0.36753637
13	0xbdaaf49b	-0.08347436
14	0xbcb55a2e	-0.022137728
15	0xbced6738	-0.028979883
16	0x3d1445d6	0.036199413
17	0xbedece39	-0.4351671
18	0xbc9d0045	-0.019165168
19	0x3ee47a8a	0.4462474
20	0x3e817bcd	0.25289765
21	0xbec2d895	-0.38055864
22	0xbdb15fd4	-0.08660856
23	0x3ef6c113	0.4819418
24	0xbe4232e7	-0.1896473
25	0xbdd73c52	-0.10509552
26	0xbee16cdc	-0.44028366
27	0xbcd4b05f	-0.025963007
28	0xbab15b88	-0.0013531307
29	0xbc1c3512	-0.009534137
30	0x3ece4ad9	0.4029148
31	0x3dde933f	0.10867929
32	0x3e6b2d6a	0.22966543
33	0xbec1a766	-0.37823027
34	0xbe6496fc	-0.22323221
35	0x3eb5f2aa	0.355367
36	0xbe9bfd8f	-0.30466887
37	0x3e698e79	0.22808255
38	0x3ec0e813	0.3767706
39	0x3ec81e2b	0.39085516
40	0x3e8695c4	0.26286137
41	0xbe03d026	-0.12872371
42	0x3d681633	0.056661796
43	0x3dc5d348	0.09659439
44	0x3ecc6417	0.39920112
45	0xbe6d447b	-0.23170654
46	0x3e1f5650	0.1556027
47	0xbea06eea	-0.3133462
48	0x3da2ccb5	0.07949201
49	0x3e740173	0.23828678
50	0x3c525bfd	0.0128393145
51	0x3d5f71b5	0.0545518
52	0x3de97b4f	0.114004724
53	0x3d97f31f	0.074194185
54	0xbcef83ca	-0.029237647
55	0x3efd344a	0.49453956
56	0xbdbbea87	-0.09175592
57	0x3e9111e9	0.28333977
58	0xbd460522	-0.04834474
59	0x3ec16334	0.37770998
60	0x3dd7c416	0.10535447
61	0x3e740cee	0.23833057
62	0x3eb95387	0.3619654
63	0x3e22f0c0	0.15912151
64	0xbdd7c0e2	-0.10534836
65	0xbdfbb8f3	-0.12291136
66	0xbe3e86f4	-0.18606168
67	0x3ebe8083	0.37207422
68	0x3db1d94b	0.086840235
69	0xbf1c676c	-0.6109531
70	0xbd5da9bd	-0.054116953
71	0xbe91d6c0	-0.28484154
72	0x3f1626c2	0.5865289
73	0x3e016252	0.12635162
74	0x3db1ab48	0.086752474
75	0x3e318fba	0.17339984
76	0xbe43287a	-0.1905841
77	0xbd3705dc	-0.044683322
78	0xbf0ff7cc	-0.56237483
79	0xbe1fc5c4	-0.15602785
80	0x3d686047	0.056732442
81	0xbd3af5dc	-0.045644626
82	0xbf048eac	-0.517802
83	0x3f015307	0.50517315
84	0xbec25cdb	-0.37961468
85	0x3ea6403e	0.32470888
86	0x3ed0262f	0.40654132
87	0x3e7d73b9	0.24751176
88	0xbe937082	-0.28796774
89	0x3ec1ecc7	0.3787596
90	0x3da15aa7	0.07878619
91	0x3ea05ae2	0.31319338
92	0xbe64989c	-0.22323841
93	0xbcd85748	-0.026408806
94	0xbee2e193	-0.44312724
95	0x3ece6631	0.4031234
96	0xbe2fcff0	-0.17169166
97	0x3ee3d611	0.44499257
98	0xbe35a467	-0.17738496
99	0xbcc259a5	-0.023724386
100	0xbe807a45	-0.25093284
101	0x3ecfddb7	0.40598843
102	0x3e165f7c	0.14684862
103	0x3f18cd4c	0.5968826
104	0xbe7ffce3	-0.24998812
105	0x3dfe1c4b	0.1240774
106	0x3f0d9321	0.55302626
107	0xbd902eb2	-0.070401564
108	0x3dc101a4	0.09424141
109	0x3e68ab4d	0.22721596
110	0x3eed5500	0.46353912
111	0x3e6f9e01	0.23400117
112	0xbed66255	-0.41871896
113	0xbedde369	-0.43337563
114	0x3e70fd82	0.23534206
115	0x3eeb8907	0.4600298
116	0x3e0bd59f	0.13655709
117	0xbe722679	-0.23647489
118	0x3e59fbd7	0.21287476
119	0x3e545fc3	0.20739655
120	0x3ef9d09e	0.48791975
121	0xbc549d60	-0.012976974
122	0x3e623187	0.22089206
123	0xbd2660cf	-0.040619668
124	0x3ea5d064	0.32385552
125	0xbea61c3e	-0.32443422
126	0x3efdefc6	0.49596995
127	0x3ea7563b	0.32682976

VAE.encoder_mu.layers.1.linear1.weight f4 [4, 128]
0	0xbda50060	-0.08056712
1	0xbcf3267e	-0.02968144
2	0x3e801299	0.2501419
3	0x3d8592a5	0.06522111
4	0xbd62a36d	-0.055331636
5	0xbe87c4d7	-0.26517364
6	0x3c9d9672	0.019236777
7	0xbce5712e	-0.02800807
8	0xbea19237	-0.31556866
9	0x3f24311c	0.64137435
10	0xbe043728	-0.12911665
11	0x3e85c8df	0.26129815
12	0x3eb1e050	0.3474145
13	0xbe30af6b	-0.17254417
14	0xbeadcb33	-0.3394409
15	0x3d6283ac	0.055301353
16	0x3e2a5e48	0.16637528
17	0x3ecdda30	0.40205526
18	0x3d9bb94e	0.076037034
19	0x3db0e051	0.08636535
20	0xbb5fac40	-0.0034129769
21	0x3dadb8d3	0.08482518
22	0x3e593efa	0.2121543
23	0x3dc41672	0.095745936
24	0x3e1a32cb	0.15058438
25	0x3d1190b9	0.03553841
26	0x3dae8e4f	0.08523237
27	0x3d7e15ba	0.06203244
28	0xbd4bdcc4	-0.049771085
29	0xbdec7a0a	-0.115467146
30	0x3d82de71	0.063900836
31	0xbc0d597d	-0.008627293
32	0xbd876495	-0.066109814
33	0x3ea5dcaa	0.32394916
34	0xbccfe16a	-0.02537604
35	0xbd05a85b	-0.03263126
36	0xbe4db626	-0.20089015
37	0x3d5766e0	0.052588344
38	0x3ddbdb0e	0.10735141
39	0x3da64d3c	0.081202
40	0xbdcbc027	-0.099487595
41	0xbe0e83a4	-0.13917404
42	0xbd66fdf9	-0.05639455
43	0xbdf999e5	-0.12187556
44	0x3dc89679	0.097943254
45	0xbe11ca0a	-0.14237228
46	0xbb841df1	-0.0040318896
47	0xbe2c0321	-0.16798069
48	0x3d1ac68e	0.037787013
49	0x3e0353a5	0.12824877
50	0xbb74ee04	-0.0037373314
51	0x3e14c21c	0.14527172
52	0xbe19a849	-0.15005602
53	0x3e11a92b	0.14224689
54	0xbf0b93f1	-0.54522616
55	0x3b64cde9	0.003491277
56	0x3e3ee15f	0.1864066
57	0xbdad3198	-0.08456725
58	0x3e5bc543	0.21461968
59	0x3ba5baa3	0.005057649
60	0xbd375c26	-0.044765614
61	0x3d23b080	0.039963245
62	0xbbb50d3f	-0.0055252607
63	0xbeb69b8f	-0.35665557
64	0x3e889b3f	0.26680943
65	0xbe6da708	-0.23208249
66	0x3f0aff80	0.5429611
67	0xbda78db9	-0.08181328
68	0xbe091a0c	-0.13388842
69	0x3e27ab8f	0.16374038
70	0xbdb3f3b5	-0.08786718
71	0x3db8d842	0.09025623
72	0xbd27fa42	-0.04101015
73	0x3c8494eb	0.01618429
74	0xbd8c9e25	-0.06866101
75	0x3f4a66fd	0.790634
76	0x3e1a79ce	0.15085527
77	0xbd505fd2	-0.05087263
78	0x3dec9cbe	0.11553334
79	0x3e8cadb2	0.2747627
80	0xbeb1a573	-0.3469654
81	0xbd9bd7c2	-0.07609512
82	0x3e6a3f89	0.22875799
83	0xbe364855	-0.1780103
84	0x3eac8637	0.33696148
85	0xbda28008	-0.07934576
86	0x3dede884	0.116166145
87	0x3d79aefd	0.060957897
88	0x3f33b88c	0.7020347
89	0xbdb44ac3	-0.08803322
90	0x3dd43a9c	0.10362741
91	0x3d866a37	0.065632276
92	0x3df8ba34	0.121448904
93	0xbd1abb8d	-0.03777652
94	0x3d9a3a53	0.07530656
95	0x3e2cdc56	0.16880926
96	0xbca7c058	-0.020477459
97	0xbe020082	-0.12695506
98	0x3e4ec47c	0.2019214
99	0xbe82b487	-0.25528356
100	0x3e3139b5	0.1730717
101	0xbe6bcadb	-0.23026602
102	0xbc25d04d	-0.010120464
103	0xbe0d17ac	-0.13778561
104	0x3f70a116	0.939958
105	0xbe5690f9	-0.2095374
106	0x3d7b28ff	0.061318394
107	0x3c4a6db7	0.01235526
108	0xbe9be9fc	-0.30451953
109	0xbe469f2d	-0.19396658
110	0xbc342a95	-0.0109964805
111	0xbc82f8ea	-0.015987832
112	0x3ea31be6	0.31857222
113	0x3df6bf4d	0.120482065
114	0xbde7e59b	-0.11323091
115	0x3dc95380	0.098303795
116	0xbdca0dd4	-0.09865919
117	0x3dcc3b93	0.099723004
118	0x3d6423d3	0.055698227
119	0xbdc3655f	-0.095408194
120	0xbc50a8f2	-0.012735592
121	0x3d5f39bc	0.05449842
122	0x3e40f678	0.1884402
123	0xbe229621	-0.15877582
124	0xbe0a4a6c	-0.13504952
125	0xbd0bc02c	-0.034118816
126	0xbd38a96f	-0.04508346
127	0x3d7b6438	0.061374873
128	0x3cdfed92	0.027334962
129	0x3dc5df0b	0.09661683
130	0xbe605578	-0.21907604
131	0x3cd2ae6e	0.02571794
132	0x3e2d7060	0.16937399
133	0xbdb281ed	-0.087161876
134	0xbda18235	-0.07886163
135	0xbdfcee49	-0.12350137
136	0x3db0b92a	0.08629067
137	0x3e9e4249	0.30909947
138	0xbcb02725	-0.02150304
139	0xbf096002	-0.5366212
140	0x3c7396ab	0.014867465
141	0x3e05ba67	0.13059388
142	0x3e17bcc3	0.148181
143	0xbe6dae0a	-0.23210922
144	0xbd9243ec	-0.07141861
145	0xbe8a853b	-0.27054772
146	0xbdc27ea0	-0.09496808
147	0xbcf97d95	-0.03045539
148	0xbd5bd129	-0.053666268
149	0xbe4a7bff	-0.19773863
150	0x3ec81267	0.3907654
151	0xbd84ef29	-0.06490929
152	0xbf088d7c	-0.5334089
153	0x3e67e54e	0.22646067
154	0xbc2a5051	-0.0103951255
155	0xbd6d4f7c	-0.05793713
156	0xbd3dee68	-0.04636994
157	0xbcedfc81	-0.029051067
158	0x3e3c0677	0.18361841
159	0xbe6a15eb	-0.22859924
160	0x3d145d2e	0.036221676
161	0xbe2bc069	-0.16772617
162	0x3d89b26c	0.067234844
163	0xbce301bf	-0.027710794
164	0xbe187794	-0.14889365
165	0x3bfe64ab	0.0077634654
166	0x3d11b0f4	0.035569146
167	0xbcf9cc44	-0.03049291
168	0x3e047b4d	0.1293766
169	0x3d8c0ba4	0.06838158
170	0xbd82461c	-0.063610286
171	0xbce79e61	-0.028273763
172	0xbba45817	-0.005015384
173	0x3dd46213	0.10370269
174	0x3da92387	0.082587294
175	0x3e1f5fa2	0.15563825
176	0xbd435cdf	-0.04769599
177	0xbc23111b	-0.009952809
178	0x3e2d77b7	0.16940199
179	0xbb8006f0	-0.003907077
180	0xbe52358b	-0.20528238
181	0x3d399620	0.045309186
182	0x3eb0f4bd	0.3456172
183	0xbd0c5cf0	-0.03426832
184	0xbccaee67	-0.024771882
185	0x3d2d7a17	0.042352762
186	0xbc3bb788	-0.0114573315
187	0x3d1b63e7	0.03793707
188	0xbdc40ae4	-0.0957239
189	0xbdb14fe6	-0.086578175
190	0xbded9237	-0.11600154
191	0x3db93a9a	0.090443805
192	0xbc941b17	-0.018079324
193	0x3e65f622	0.22457173
194	0xbe782f0f	-0.24236701
195	0x3e3eb4bc	0.18623632
196	0xbdd7baf3	-0.105337046
197	0xbeeae217	-0.45875618
198	0xbe8b409f	-0.2719774
199	0xbebb38b2	-0.36566693
200	0xbb2bd971	-0.0026222134
201	0x3d7e0d94	0.062024668
202	0xbd5902c9	-0.05298117
203	0xbdbb4142	-0.09143306
204	0xbe11b1d4	-0.14227992
205	0xbd6b9a49	-0.057520185
206	0xbd94c621	-0.072643526
207	0x3df4277f	0.11921596
208	0x3dc8a198	0.097964466
209	0xbe88ee85	-0.26744476
210	0xbc9c8c8b	-0.019109985
211	0xbd12faa6	-0.03588357
212	0xbe11dfc7	-0.1424552
213	0xbcf646d9	-0.03006308
214	0xbd8ff398	-0.07028884
215	0x3defeda4	0.11715248
216	0xbd5bbad7	-0.05364498
217	0xbc92bd74	-0.017912604
218	0xbed72807	-0.42022726
219	0x3d682e3d	0.05668472
220	0xbe75d0f4	-0.2400549
221	0x3e6ace84	0.22930342
222	0xbd4ab052	-0.04948456
223	0xbcbfc457	-0.023409052
224	0xbd06b68d	-0.032888938
225	0x3d914bf6	0.070945665
226	0x3e2835fc	0.16426843
227	0x3ee0cb40	0.43905067
228	0x3dc12e4b	0.09432658
229	0x3d1a826f	0.037722047
230	0x3d1d560f	0.03841215
231	0xbe22c749	-0.15896334
232	0x3deaa4ab	0.11457189
233	0x3f0fbff0	0.5615225
234	0xbcde6e25	-0.02715213
235	0xbe9e0812	-0.30865532
236	0x3e21d581	0.15804102
237	0x3e2e9e04	0.17052466
238	0x3bce543a	0.0062966617
239	0x3db71d10	0.0894109
240	0xbe7c7014	-0.2465213
241	0xbd995fc6	-0.074889705
242	0x3d76d788	0.06026414
243	0xbdfc02df	-0.12305235
244	0x3d8fbb40	0.07018137
245	0xbd9cc769	-0.07655222
246	0x3c8620f1	0.01637313
247	0xbcea0ff6	-0.028572064
248	0xbd85e2be	-0.06537388
249	0x3cd5ca6a	0.026097495
250	0xbd557d11	-0.052121226
251	0xbe0ea4a6	-0.13929996
252	0x3ddfe47b	0.10932251
253	0x3c12a399	0.0089501375
254	0x3d8dc1fa	0.06921764
255	0x3d9f097d	0.077654816

VAE.encoder_mu.layers.1.linear1.bias f4 [4]
0	0xbd89c4df	-0.06727003
1	0xbdcd1e21	-0.10015512
2	0x3dcbb8be	0.09947346
3	0xbcddb063	-0.027061647

VAE.encoder_mu.layers.1.norm1.weight f4 [4]
0	0x3f8ee79c	1.1164432
1	0x3f9c1a44	1.2195516
2	0x3f98861f	1.191593
3	0x3f8c52df	1.096279

VAE.encoder_mu.layers.1.norm1.bias f4 [4]
0	0x3d238dc6	0.039930128
1	0x3da53192	0.080660954
2	0xbd1a8d5e	-0.037732475
3	0xbd8fa8d8	-0.07014626

VAE.encoder_mu.layers.1.norm0.weight f4 [4]
0	0x3f383e5d	0.7197016
1	0x3f701361	0.9377957
2	0x3f3caf3a	0.73704875
3	0x3f7a5542	0.97786343

VAE.encoder_mu.layers.1.norm0.bias f4 [4]
0	0x3d4f8a88	0.050669223
1	0x3d3200eb	0.043457907
2	0x3c9494c5	0.018137345
3	0x3d88c333	0.06677856

VAE.encoder_mu.last_normalization.weight f4 [4]
0	0x3f800000	1.0
1	0x3f800000	1.0
2	0x3f800000	1.0
3	0x3f800000	1.0

VAE.encoder_mu.last_normalization.bias f4 [4]
0	0x00000000	0.0
1	0x00000000	0.0
2	0x00000000	0.0
3	0x00000000	0.0

VAE.encoder_mu.head.weight f4 [4, 4]
0	0xbeae5bb8	-0.3405435
1	0xbdde2cb8	-0.10848373
2	0x3de3e7e8	0.11128217
3	0xbe6f8d74	-0.23393804
4	0x3e3a140c	0.1817171
5	0xbe815846	-0.2526266
6	0xbef459c4	-0.47724736
7	0xbe919f30	-0.28441763
8	0x3e0b2960	0.13590002
9	0xbeafdbf0	-0.34347486
10	0xbe811ed2	-0.25218827
11	0xbecafb66	-0.39644927
12	0x3db398d8	0.08769387
13	0x3e730de8	0.23735774
14	0xbd629d70	-0.055325925
15	0x3ee3f246	0.44520777

VAE.encoder_mu.head.bias f4 [4]
0	0xbdf53648	-0.11973244
1	0xbed19b38	-0.40938735
2	0x3e680024	0.22656304
3	0x3eac8b80	0.3370018

VAE.encoder_logvar.layers.0.attention.W_q.weight f4 [4, 4]
0	0x3d8e5f74	0.069518
1	0xbf10cbd4	-0.5656102
2	0xbd601c0f	-0.05471426
3	0xbe3fd9cf	-0.18735431
4	0x3cb5c79a	0.022189904
5	0xbe897a9c	-0.26851356
6	0xbdfc2e74	-0.12313548
7	0x3e2359e4	0.1595226
8	0x3eddf8b5	0.4335381
9	0xbf19b1d9	-0.60037
10	0x3ef6a3cb	0.4817184
11	0xbede42ea	-0.43410426
12	0xbe0bb006	-0.13641366
13	0xbef9a887	-0.4876139
14	0x3e672e58	0.22576272
15	0xbec63b09	-0.38716915

VAE.encoder_logvar.layers.0.attention.W_q.bias f4 [4]
0	0xbe0402c0	-0.12891674
1	0x3e36abcf	0.17838977
2	0x3db64f93	0.08901896
3	0x3e398196	0.1811584

VAE.encoder_logvar.layers.0.attention.W_k.weight f4 [4, 4]
0	0x3f2ecc55	0.68280536
1	0xbd8ab3d8	-0.06772584
2	0x3f042208	0.5161443
3	0xbe296b79	-0.16544904
4	0xbe811cc6	-0.25217265
5	0xbeb7eecd	-0.35924378
6	0x3eba14b6	0.36343926
7	0xbd592ee8	-0.05302325
8	0x3f31532d	0.6926754
9	0xbed6cdd0	-0.41953897
10	0xbeb0926b	-0.34486708
11	0xbdb76f70	-0.08956802
12	0xbe8a16d4	-0.2697054
13	0xbed7d441	-0.42154124
14	0xbe4a94b5	-0.1978329
15	0xbeffaf0d	-0.4993824

VAE.encoder_logvar.layers.0.attention.W_k.bias f4 [4]
0	0xb900f2cf	-0.00012297484
1	0x38331864	4.269964e-05
2	0x3897f3ec	7.245675e-05
3	0x36eeadf8	7.1132054e-06

VAE.encoder_logvar.layers.0.attention.W_v.weight f4 [4, 4]
0	0x3e3cd2dd	0.18439813
1	0x3d861956	0.06547801
2	0xbe255356	-0.16145071
3	0xbef71c6f	-0.4826388
4	0x3e275341	0.16340353
5	0x3d91d721	0.07121111
6	0xbe28d204	-0.16486365
7	0xbee76449	-0.451937
8	0x3d6534b7	0.055958476
9	0x3dd6cb75	0.10488025
10	0xbcf6f28a	-0.030144949
11	0xbe4b58c8	-0.19858086
12	0x3e3bee51	0.18352629
13	0x3db5e5eb	0.08881744
14	0xbe0b7c8d	-0.13621731
15	0xbef2cb19	-0.47420576

VAE.encoder_logvar.layers.0.attention.W_v.bias f4 [4]
0	0xbd692f71	-0.05693001
1	0xbd8b13b1	-0.06790865
2	0xba9dba84	-0.0012033735
3	0x3d596a21	0.053079728
