tabsyn/vae/ckpt/default/major_only/decoder.pt (torch, 27971 bytes, 49 tensors)

VAE_Decoder.layers.0.attention.W_q.weight f4 [4, 4]
0	0x3f00e2a1	0.5034581
1	0xbef5e42f	-0.48025653
2	0xbd110f3b	-0.035414916
3	0xbdc66102	-0.096864715
4	0xbe497745	-0.19674404
5	0x3e69c7c0	0.22830105
6	0x3df50364	0.11963537
7	0xbdaebd18	-0.085321605
8	0x3e8c6a0e	0.27424663
9	0xbdaef49d	-0.0854275
10	0x3ed219b5	0.41035238
11	0xbedea43e	-0.43484682
12	0xbeaaf8bb	-0.3339289
13	0xbede3b18	-0.4340446
14	0x3ce08378	0.02740644
15	0x3e4825af	0.19545625

VAE_Decoder.layers.0.attention.W_q.bias f4 [4]
0	0xbe0d5280	-0.13801003
1	0x3e991435	0.2989823
2	0xbd8e7969	-0.06956751
3	0xbd9a58b2	-0.075364485

VAE_Decoder.layers.0.attention.W_k.weight f4 [4, 4]
0	0xbe9916b0	-0.29900122
1	0xbd5b5cfb	-0.05355547
2	0xbedfddb5	-0.43723837
3	0xbf2499dd	-0.64297277
4	0xbee84a11	-0.45369008
5	0xbdb6871d	-0.089124896
6	0xbe9a3b02	-0.30123144
7	0x3ededfa8	0.4353001
8	0xbe28e801	-0.16494752
9	0x3d0eeff2	0.0348968
10	0xbe3978b3	-0.1811245
11	0xbec0fba0	-0.37691975
12	0xbe8cd089	-0.2750285
13	0x3e8ea4fc	0.27860248
14	0x3ea5e57a	0.3240164
15	0xbe886091	-0.26636174

VAE_Decoder.layers.0.attention.W_k.bias f4 [4]
0	0xba26711e	-0.0006349253
1	0x3a969be0	0.0011490546
2	0x3844708e	4.6834866e-05
3	0xb8d798d3	-0.000102804646

VAE_Decoder.layers.0.attention.W_v.weight f4 [4, 4]
0	0xbe0e6279	-0.13904752
1	0x3e3f2831	0.18667676
2	0xbe109621	-0.1411977
3	0xbed05af2	-0.40694386
4	0x3d4736cd	0.048636246
5	0x3dc3d40f	0.09561931
6	0xbda8cd57	-0.082422905
7	0xbd43d5f5	-0.047811467
8	0xbc1003fa	-0.008790011
9	0x3dde8853	0.108658455
10	0xbdbdee95	-0.092740215
11	0xbe1aeb0e	-0.15128729
12	0x3d30bd3d	0.04314922
13	0x3dcda7ee	0.10041796
14	0xbdbc99a0	-0.09208989
15	0xbe0cb703	-0.13741688

VAE_Decoder.layers.0.attention.W_v.bias f4 [4]
0	0xbe50a657	-0.20375954
1	0xbd4790ce	-0.04872208
2	0xbd709823	-0.05873884
3	0x3e67e142	0.22644523

VAE_Decoder.layers.0.linear0.weight f4 [128, 4]
0	0xbde9ac88	-0.11409861
1	0x3eb46086	0.35229892
2	0x3edfb684	0.43693936
3	0xbd985c3a	-0.07439466
4	0x3f0676e9	0.5252519
5	0xbe184896	-0.1487144
6	0x3dc4e160	0.09613299
7	0x3edb95f8	0.42887855
8	0xbc4bb197	-0.012432477
9	0xbe4e6e41	-0.20159246
10	0xbe054ce9	-0.1301762
11	0xbe650827	-0.22366391
12	0xbe4d3bba	-0.20042315
13	0xbeda4c8c	-0.42636526
14	0x3ec7ad70	0.3899951
15	0x3f1ebb5a	0.62004626
16	0x3ebb4167	0.36573336
17	0xbefcb2bf	-0.49355122
18	0x3ea94586	0.33060855
19	0xbf63141a	-0.8870255
20	0x3e988286	0.2978708
21	0xbf07a5dd	-0.5298746
22	0x3e81c423	0.25344953
23	0xbf2cfcf1	-0.6757346
24	0x3eb72547	0.35770628
25	0xbf140c3f	-0.57831186
26	0x3e0010bf	0.12506388
27	0x3cf10ece	0.029426005
28	0xbc4ef4e8	-0.012631632
29	0x3e73a304	0.23792654
30	0x3e36e3ac	0.17860287
31	0x3edb1784	0.42791378
32	0xbd847fbe	-0.064696774
33	0xbe3e531e	-0.18586394
34	0xbf050510	-0.5196085
35	0x3eb4e747	0.353327
36	0xbeef1e66	-0.4670288
37	0xbe2e2a36	-0.1700829
38	0x3dcb1dad	0.099177696
39	0xbefad1f1	-0.48988298
40	0x3e9372e3	0.2879859
41	0xbf40957a	-0.75228083
42	0xbd93ed5e	-0.072230086
43	0x3e32d939	0.17465676
44	0x3deb0e82	0.114773765
45	0x3ed9ae99	0.4251602
46	0xbe06f8bd	-0.13180824
47	0x3eee4951	0.4654031
48	0x3f196aad	0.599284
49	0xbf41a564	-0.7564299
50	0xbd9a3c39	-0.07531018
51	0x3edd7515	0.4325339
52	0x3f6a9e61	0.9164792
53	0xbe47cf6e	-0.19512722
54	0xbf05c408	-0.52252245
55	0x3eafd382	0.34341055
56	0x3e1f5c17	0.15562473
57	0xbe3fe206	-0.18738565
58	0x3f174e19	0.5910354
59	0xbecff97c	-0.4062003
60	0x3e4c2605	0.19936378
61	0xbe37a278	-0.1793307
62	0xbf1de993	-0.6168453
63	0x3ef1c78a	0.4722255
64	0x3e6c4224	0.23072106
65	0x3df25f2e	0.1183456
66	0x3d722ee3	0.059126746
67	0x3eeeb555	0.4662272
68	0xbe9e6899	-0.30939177
69	0x3e082038	0.1329354
70	0x3ef470cd	0.4774231
71	0xbf305012	-0.6887218
72	0x3ec37734	0.38176882
73	0xbe1e5312	-0.15461376
74	0xbe2749ec	-0.16336793
75	0x3f3df215	0.7419751
76	0xbdf66c84	-0.120324165
77	0xbea0abcc	-0.3138107
78	0x3f1ac33e	0.60454166
79	0xbeac1d12	-0.3361593
80	0xbf193175	-0.5984109
81	0xbe6b3c13	-0.22972135
82	0x3e3de30c	0.18543643
83	0xbec25700	-0.37957
84	0xbe6f1ee2	-0.23351625
85	0xbe7cd9f6	-0.2469252
86	0xbf130e48	-0.57443666
87	0x3e1d3155	0.1535085
88	0xbe9dcf5c	-0.30822265
89	0xbeacc869	-0.3374665
90	0xbb8fa60f	-0.0043838094
91	0x3eaca60a	0.33720428
92	0xbeafefb8	-0.34362578
93	0xbe4fa501	-0.20277788
94	0x3d2479ef	0.040155347
95	0x3f07963d	0.5296362
96	0x3e4788e5	0.19485815
97	0xbe9eaa56	-0.3098933
98	0x3c7e1a30	0.015509173
99	0xbe74dd72	-0.239126
100	0x3eaef407	0.34170553
101	0xbe896018	-0.26831126
102	0x3ec78a3f	0.3897266
103	0xbf26ba41	-0.6512795
104	0x3f70d662	0.9407712
105	0xbe51124e	-0.20417139
106	0xbf7705f2	-0.96493447
107	0xbf448ba4	-0.76775575
108	0x3e6b2dc4	0.22966677
109	0x3f0d864c	0.55283046
110	0xbee3837b	-0.4443625
111	0xbd0515df	-0.03249156
112	0xbee587c2	-0.44830137
113	0xbea21512	-0.316567
114	0xbe1eef78	-0.15521038
115	0xbe9a6b56	-0.30160016
116	0x3ee83146	0.45350093
117	0xbf47d4c5	-0.78059036
118	0x3edee0ba	0.43530828
119	0x3ed4d46e	0.4156832
120	0xbe163144	-0.14667231
121	0xbeca2e1d	-0.39488307
122	0x3ec627b8	0.38702178
123	0xbe4cd4b4	-0.20003015
124	0xbea14910	-0.31501055
125	0xbe7dce54	-0.24785739
126	0xbe6ace66	-0.22930297
127	0xbdef917d	-0.116976716
128	0x3ecc55f0	0.39909315
129	0xbf178744	-0.59190774
130	0xbf0556bb	-0.52085465
131	0x3f0beb89	0.54656273
132	0x3eb8dd3e	0.36106294
133	0xbf2ca975	-0.6744607
134	0xbd00664b	-0.031347554
135	0x3e6665b7	0.22499739
136	0xbed7988a	-0.42108566
137	0x3e726bc6	0.23673925
138	0xbd0b3715	-0.033988077
139	0xbe9ac0bc	-0.3022517
140	0xbdc7deff	-0.0975933
141	0x3f1a2afc	0.6022184
142	0xbf190789	-0.5977712
143	0xbee1b6cb	-0.44084772
144	0xbdf0b361	-0.11752964
145	0xbe286a1a	-0.16446725
146	0xbf20a064	-0.62744737
147	0x3ee333fb	0.44375595
148	0x3e09dbef	0.13462804
149	0x3d1f4a96	0.03888949
150	0x3e55ce6a	0.20879522
151	0xbf3a1020	-0.72680855
152	0xbd30f54f	-0.043202695
153	0x3dbdc314	0.09265724
154	0x3e46f49e	0.19429252
155	0x3f0dd02d	0.55395776
156	0xbf0ac8d6	-0.542127
157	0xbc81edb6	-0.01586042
158	0x3e7aa3cc	0.24476546
159	0xbefe846d	-0.49710408
160	0x3e0b028a	0.13575187
161	0x3ee500a1	0.44727042
162	0xbf0d0f47	-0.55101436
163	0x3eec5629	0.46159485
164	0xbecc399a	-0.39887697
165	0xbef1876b	-0.47173628
166	0x3f11af8a	0.56908476
167	0xbdc3621f	-0.095401995
168	0x3f142577	0.57869667
169	0x3e206f86	0.15667543
170	0xbe5ce063	-0.21569972
171	0xbeee0875	-0.46490827
172	0xbeffe741	-0.4998112
173	0xbf11cbbc	-0.569515
174	0x3da7d826	0.08195524
175	0x3ea798f6	0.32733887
176	0xbea65091	-0.32483342
177	0x3d37edce	0.044904523
178	0xbe4b4090	-0.19848847
179	0x3f05d733	0.5228149
180	0xbd94318e	-0.07236014
181	0x3eb0f593	0.34562358
182	0x3ee04b01	0.43807223
183	0xbebb7973	-0.36616096
184	0xbe9ac449	-0.3022788
185	0xbdd592cf	-0.10428392
186	0xbd702da6	-0.058637284
187	0x3f37ff09	0.7187353
188	0xbefd5452	-0.49478394
189	0x3f10d840	0.5657997
190	0xbe36fe4f	-0.17870449
191	0xbefa5d6d	-0.48899403
192	0x3e9f9ed4	0.31175864
193	0xbf079d18	-0.5297408
194	0x3e96fc53	0.29489383
195	0xbea70e41	-0.32628062
196	0xbe6e2042	-0.23254493
197	0x3ead1f37	0.33812878
198	0x3e267dbb	0.162589
199	0xbece1a28	-0.4025433
200	0xbea62711	-0.3245168
201	0x3cd9d993	0.026593005
202	0xbe98829a	-0.2978714
203	0xbcbaa318	-0.022782847
204	0x3e957fba	0.2919901
205	0xbe957d41	-0.29197124
206	0xbd8f9473	-0.07010736
207	0x3f4ce182	0.800316
208	0xbceb0d91	-0.028692992
209	0xbe4ef56c	-0.20210809
210	0xbebd0e77	-0.36925098
211	0x3f39f441	0.72638327
212	0xbeaff724	-0.3436824
213	0xbeb95b11	-0.3620229
214	0xbe633e4f	-0.22191738
215	0x3f40c3d5	0.75298816
216	0x3f17eecd	0.59348756
217	0x3e38811b	0.18018
218	0xbdbce8f5	-0.092241205
219	0xbf3e0d59	-0.74239117
220	0x3d5231d2	0.051317044
221	0x3f13c0db	0.5771615
222	0x3ef8bf19	0.48583296
223	0xbbd5eed2	-0.0065287137
224	0xbf1dc8a0	-0.61634254
225	0x3dc05a0e	0.093921766
226	0xbedffc25	-0.4374706
227	0x3f26245e	0.6489924
228	0xbf137caa	-0.576121
229	0x3e9b1d30	0.30295706
230	0x3eadd435	0.33950964
231	0xbe8ba844	-0.27276814
232	0xbee3b6d3	-0.4447542
233	0xbf0b2d4d	-0.54366
234	0x3f1aadf3	0.60421675
235	0xbe3493cb	-0.17634504
236	0xbe3c1bff	-0.18370055
237	0x3ea4b2e3	0.3216773
238	0x3eb65869	0.35614327
239	0xbe85a35d	-0.261012
240	0x3eed7817	0.46380684
241	0x3ed5d102	0.41761023
242	0xbf1edf8e	-0.6205987
243	0xbf06f1d9	-0.5271278
244	0x3e66079c	0.2246384
245	0x3d2ad1c4	0.041703954
246	0x3efd1a49	0.49434116
247	0x3ed35d8b	0.41282305
248	0xbe85d6f1	-0.2614055
249	0xbeb402c6	-0.35158366
250	0xbed54b43	-0.41658983
251	0x3da02c3d	0.07820938
252	0xbebba8f7	-0.36652347
253	0xbec8c8c1	-0.39215663
254	0xbf356601	-0.7085877
255	0x3e827694	0.25481093

VAE_Decoder.layers.0.linear0.bias f4 [128]
0	0x3ea3ac4b	0.31967387
1	0x3ecd82e7	0.40138933
2	0x3ef335a9	0.47501877
3	0xbd7d3597	-0.061818685
4	0x3e695196	0.22785029
5	0xbe543346	-0.20722684
6	0x3ec13a93	0.3774
7	0x3ef99828	0.48748899
8	0xbd86d122	-0.06582858
9	0x3da5148d	0.080605604
10	0x3e21772e	0.1576812
11	0x3f12aa44	0.57291055
12	0x3eda1801	0.4259644
13	0x3e7fad8d	0.24968548
14	0x3eaf8c0f	0.34286544
15	0x3efa1232	0.48842007
16	0x3efb153f	0.49039647
17	0x3e812420	0.25222874
18	0x3d30a96c	0.043130323
19	0xbdd40950	-0.10353339
20	0xbe428361	-0.1899543
21	0xbc90164e	-0.01758876
22	0xbde47368	-0.111548245
23	0x3e51f317	0.20502888
24	0x3e86c1f8	0.2631986
25	0x3ea8c929	0.32965973
26	0xbc8b15fe	-0.01697826
27	0xbcdaddc6	-0.026717078
28	0x3e9013ef	0.28140208
29	0x3e82e5b5	0.25565878
30	0x3eb7e291	0.35915044
31	0xbeaaec5f	-0.33383462
32	0x3e94eabb	0.29085335
33	0x3d3f0929	0.046639595
34	0x3ed051cd	0.4068741
35	0xbee06d10	-0.43833208
36	0x3b419617	0.0029538923
37	0x3ed4b18d	0.4154171
38	0x3e98c452	0.2983728
39	0xbe44aa24	-0.19205528
40	0x3ea673a4	0.32510102
41	0x3dd9ac56	0.106285736
42	0x3ea042fd	0.31301108
43	0x3e8f24e8	0.27957845
44	0x3f1d27ec	0.6138904
45	0x3dbd2225	0.09235028
46	0x3ee37078	0.44421744
47	0x3da2deda	0.07952662
48	0x3ebb8a1b	0.36628804
49	0xbe7a8f17	-0.24468647
50	0x3e8dd0bb	0.2769831
51	0x3ef3360a	0.47502166
52	0x3ddc49a3	0.107562326
53	0x3eb865b5	0.36015096
54	0x3ea8a30d	0.32936898
55	0x3ee5cdcb	0.4488357
56	0xbda5aa51	-0.08089126
57	0x3e8655e1	0.26237395
58	0x3e982870	0.2971835
59	0xbe7d3c52	-0.24730042
60	0xbde59cbf	-0.112115376
61	0x3ed6d95c	0.41962707
62	0x3eca753a	0.39542562
63	0xbd5be85d	-0.053688396
64	0xbea21af7	-0.31661198
65	0x3eab260f	0.33427474
66	0xbee6f31c	-0.45107353
67	0x3e340d9a	0.17583314
68	0xbdbea232	-0.0930828
69	0x3f2187b6	0.63097703
70	0x3f29d761	0.6634427
71	0x3ecedb54	0.4040171
72	0x3dcc2fd0	0.09970057
73	0x3ed7ba17	0.42134163
74	0xbe2a9e57	-0.16661964
75	0xbe20ce19	-0.1570362
76	0xbeb228a3	-0.34796628
77	0x3f0e2268	0.5552125
78	0x3e4d0fc5	0.20025547
79	0xbe7e1c28	-0.24815428
80	0x3d1003e4	0.03515996
81	0xbd98d4a2	-0.074624315
82	0x3ebd4f6f	0.36974666
83	0x3d89e597	0.06733244
84	0x3cd212a4	0.025643654
85	0x3d21d110	0.03950602
86	0xbe045a9d	-0.12925191
87	0x3e162497	0.14662395
88	0x3e996fcf	0.29968116
89	0xbe30e2f4	-0.17274076
90	0xbe7a37b3	-0.2443531
91	0xbe445e84	-0.1917668
92	0x3daf248e	0.08551894
93	0xbe1c5000	-0.15264893
94	0xbdbe9033	-0.093048476
95	0xbdf05869	-0.11735613
96	0xbe7a1d14	-0.24425155
97	0xbbbf26aa	-0.0058334665
98	0x3ef2a617	0.47392341
99	0xbd2ebef1	-0.042662565
100	0x3ed64f1e	0.41857237
101	0xbe752a57	-0.23941933
102	0xbd18c799	-0.037299726
103	0xbeb0bc14	-0.34518492
104	0xbec45126	-0.3834316
105	0x3ee75d1a	0.45188218
106	0x3e1a4c08	0.15068066
107	0x3e6ffd3a	0.23436442
108	0x3e138f4e	0.14410135
109	0xbe84232a	-0.25808078
110	0xbe2e0e1d	-0.16997571
111	0x3d5cdf72	0.05392403
112	0x3db5d123	0.0887778
113	0x3a1c08ce	0.000595224
114	0x3eb25084	0.34827054
115	0x3e84fc62	0.25973803
116	0xbda2f755	-0.07957331
117	0xbe5ee8fe	-0.21768567
118	0x3db3c122	0.087770715
119	0x3f0cbd4a	0.5497633
120	0x3daf26a6	0.085522935
121	0x3d6f26b3	0.058386516
122	0x3f0ca3ff	0.5493774
123	0xbeac62a3	-0.33669004
124	0x3ef10c48	0.47079682
125	0xbc6888c1	-0.014192761
126	0xbe71db05	-0.23618706
127	0x3df41d7f	0.119196884

VAE_Decoder.layers.0.linear1.weight f4 [4, 128]
0	0xbd6892f2	-0.056780763
1	0x3da180b2	0.07885875
2	0x3ccf05f9	0.025271403
3	0xbc6381e1	-0.013885946
4	0x3da7e521	0.08198
5	0x3d43e1e0	0.047822833
6	0x3e18cc3c	0.14921659
7	0xbe813739	-0.25237444
8	0xbd971fc8	-0.07379109
9	0xbb633285	-0.0034667563
10	0x3e612dd7	0.21990143
11	0xbe1bba77	-0.1520785
12	0x3da60d30	0.08107984
13	0x3f4030a0	0.75074196
14	0xbd6bd43b	-0.057575446
15	0xbd0e47e4	-0.03473653
16	0xbda05003	-0.07827761
17	0x3bdf3632	0.0068118805
18	0xbd52a5e9	-0.051427756
19	0x3c11e5f5	0.008904924
20	0x3e13e46a	0.14442602
21	0xbe0dc259	-0.13843669
22	0xbe2a2621	-0.16616108
23	0xbe4537cb	-0.19259565
24	0x3c75107d	0.014957544
25	0xbd03c637	-0.032171454
26	0x3ea0b69e	0.31389326
27	0xbdcc0d1a	-0.099634364
28	0xbdba8c62	-0.09108807
29	0x3e424ad7	0.18973862
30	0xbcac00a5	-0.020996401
31	0x3d23238f	0.039828833
32	0x3c7d875e	0.015474169
33	0x3e25cec0	0.1619215
34	0xbcfadf1f	-0.03062397
35	0x3e98264d	0.2971672
36	0xbe343d4f	-0.17601512
37	0xbdc1ee8e	-0.09469329
38	0xbd6decd3	-0.05808718
39	0xbdb6176d	-0.08891187
40	0xbd9cd9ba	-0.076587155
41	0x3ce18b5c	0.027532272
42	0x3c9abcda	0.01888888
43	0x3c5dda5d	0.013540831
44	0xbe332e7b	-0.174982
45	0xbe60bed8	-0.21947801
46	0xbe52ab0a	-0.20573059
47	0x3d1ef535	0.038808066
48	0x3e17200b	0.14758317
49	0xbdf0d4e1	-0.117593534
50	0xbd86d0f2	-0.06582822
51	0xbcb4bfda	-0.022064138
52	0xbe3bb82d	-0.18331976
53	0xbe0bbb51	-0.13645674
54	0x3d4db369	0.050219927
55	0xbdb33dfd	-0.08752058
56	0xbdd6c43d	-0.10486648
57	0xbe43a17e	-0.19104573
58	0x3cb11ce8	0.021620229
59	0xbdd82912	-0.105547085
60	0xbd914e0c	-0.070949644
61	0xbd3630a9	-0.04448
62	0xbbc22217	-0.005924474
63	0xbe9c912a	-0.305795
64	0xbcc21957	-0.023693724
65	0xbd969123	-0.073519014
66	0x3cb8995c	0.022534065
67	0xbd84d539	-0.064859815
68	0xbe654780	-0.22390556
69	0xbd40b8d1	-0.047051255
70	0x3d3a5010	0.04548651
71	0xbe004237	-0.12525259
72	0xbe65a558	-0.22426355
73	0xbdbc2849	-0.09187371
74	0x3cb6fc7b	0.022337189
75	0xbe15f51b	-0.14644282
76	0xbbea7a6e	-0.007155708
77	0xbd410430	-0.047123134
78	0x3dd7db54	0.105398804
79	0x3ddf1cea	0.10894187
80	0xbceb6e94	-0.028739251
81	0x3ec6c3bd	0.3882121
82	0x3d9147c3	0.070937656
83	0xbc4c14c5	-0.012456124
84	0xbe92f995	-0.2870604
85	0xbe476f61	-0.19476081
86	0x3d6f335c	0.05839859
87	0x3d0f1dfb	0.0349407
88	0xbe2d1656	-0.16903052
89	0x3e47b991	0.19504382
90	0xbd01b0de	-0.031662814
91	0xbcd666b9	-0.026172029
92	0xbe214ee3	-0.15752749
93	0xbe1f2525	-0.15541513
94	0xbe031de1	-0.12804367
95	0xbefdc2ef	-0.49562785
96	0xbe92f573	-0.28702888
97	0xbd4a2595	-0.049352247
98	0xbda5c03f	-0.08093309
99	0xbde6b16f	-0.112643115
100	0xbcf105f3	-0.029421782
101	0x3e7ae677	0.24501978
102	0xbdb2ef1c	-0.08737013
103	0x3e07863d	0.13234802
104	0xbc61bbba	-0.013777668
105	0xbddb784d	-0.10716305
106	0xbd25bbae	-0.04046219
107	0xbe0f5224	-0.13996178
108	0x3c0de526	0.00866059
109	0xbd35f0e7	-0.044419196
110	0xbeaf4ba7	-0.34237406
111	0x3f51d5d5	0.81966907
112	0x3e418f9c	0.18902439
113	0xbda176f0	-0.07884014
114	0x3c7081f6	0.014679423
115	0xbe5de871	-0.216707
116	0x3e4e7e01	0.20165254
117	0xbd9b926d	-0.07596288
118	0x3e4c6678	0.19960964
119	0x3d96d75a	0.07365294
120	0xbc5e4ec8	-0.013568588
121	0xbd2df631	-0.042471115
122	0x3cf38040	0.02972424
123	0x3e3e82c5	0.18604572
124	0x3dae319b	0.08505555
125	0xbd835636	-0.06412928
126	0xbe763f8a	-0.24047676
127	0xbe1fbfae	-0.15600464
128	0xbc33dab6	-0.010977438
129	0xbe4c9ccc	-0.19981688
130	0xbcd5cb96	-0.026098054
131	0xbe4b620c	-0.1986162
132	0xbdfb1f28	-0.12261802
133	0xbe77a7f3	-0.24185161
134	0xbe1b26dc	-0.15151542
135	0xbd4e7e58	-0.05041346
136	0xbdbbd595	-0.09171597
137	0x3d81ae1d	0.063320376
138	0xbeb073cc	-0.34463346
139	0xbb7e925a	-0.0038844557
140	0xbe375a71	-0.17905594
141	0xbe383738	-0.17989814
142	0xbde26e13	-0.11056151
143	0xbd8ae5d1	-0.06782115
144	0xbc8962eb	-0.0167708
145	0x3d917eb2	0.07104243
146	0xbd32ed1c	-0.043683156
147	0xbe17dbf8	-0.14830005
148	0xbe9cc288	-0.30617166
149	0xbdddeba1	-0.10835958
150	0xbe0eb70c	-0.13937014
151	0xbe791329	-0.24323715
152	0xbcf4948d	-0.02985599
153	0xbd81f5ab	-0.063456856
154	0x3f48f65d	0.7850092
155	0x3c8579f3	0.016293501
156	0xbce34e33	-0.02774725
157	0xbe23236e	-0.15931484
158	0xbc1a5d9e	-0.009421734
159	0xba8347f3	-0.0010015949
160	0xbdc09fb8	-0.09405464
161	0xbe626e38	-0.22112358
162	0x3da21c30	0.079155326
163	0xbd63fa03	-0.05565835
164	0xbe124b56	-0.14286551
165	0x3e031acc	0.12803191
166	0xbe0c05de	-0.13674113
167	0xbdaf21bc	-0.08551356
168	0xbd595fa6	-0.053069733
169	0xbe1af03e	-0.15130708
170	0x3f068262	0.525427
171	0xbd8849df	-0.06654715
172	0xbd2c0787	-0.041999366
173	0x3db24de2	0.08706261
174	0xbe293b09	-0.16526426
175	0x3d3e2c09	0.046428714
176	0xbd961965	-0.07329062
177	0x3e284ce7	0.16435586
178	0x3bcf9667	0.006335068
179	0xbe23d56e	-0.15999386
180	0xbe54bad2	-0.20774391
181	0xbe052755	-0.13003285
182	0x3ea449c1	0.3208752
183	0x3dc40e48	0.095730364
184	0xbe62b22b	-0.22138278
185	0xbcb56eb2	-0.02214751
186	0xbe470a7e	-0.19437596
187	0x3e8c0973	0.2735096
188	0x3e551a6a	0.20810857
189	0xbe93945d	-0.2882413
190	0xbd8591cc	-0.06521949
191	0xbe2efb77	-0.17088114
192	0x3c79a6d6	0.015237531
193	0xbe021c68	-0.12706149
194	0x3dd5ad36	0.10433428
195	0x3dbce541	0.09223414
196	0xbdac87e8	-0.084243596
197	0x3e2c02af	0.16797899
198	0xbe40ad36	-0.18816075
199	0x3e3d97f9	0.18515004
200	0xbe0fe1c0	-0.1405096
201	0x3d9e109d	0.077180125
202	0xbe0bc1db	-0.13648169
203	0xbcf8da1f	-0.030377446
204	0xbdf01f4d	-0.1172472
205	0xbe39d35b	-0.18147032
206	0xbe16ec04	-0.1473847
207	0x3f1bcc19	0.60858303
208	0xbe08d263	-0.13361506
209	0x3dd0422b	0.101688705
210	0xbbea3206	-0.0071470765
211	0xbe0f455d	-0.13991304
212	0xbe0139ec	-0.12619752
213	0xbd8ddcf0	-0.06926906
214	0xbd083e17	-0.03326234
215	0x3d37f255	0.04490884
216	0xbe3a6e8e	-0.18206236
217	0x3f376799	0.7164245
218	0xbd81f82b	-0.063461624
219	0xbdecffc9	-0.11572225
220	0xbcb13a92	-0.021634374
221	0xbe0fcf01	-0.1404381
222	0x3ebdd42a	0.3707593
223	0xbe7c5d13	-0.2464488
224	0xbda42f4f	-0.08016836
225	0xbbfce5cf	-0.007717825
226	0x3cbba785	0.022907028
227	0x3daa3351	0.08310569
228	0xbdb628b9	-0.08894486
229	0xbe3fd2fa	-0.18732825
230	0x3e110a92	0.14164189
231	0x3e949f57	0.29027817
232	0xbb4eb2ec	-0.0031539751
233	0xbdf2c454	-0.11853853
234	0xbe254fa9	-0.16143669
235	0x3e2135f4	0.15743238
236	0xbd3eb357	-0.04655775
237	0xbbe68722	-0.007035152
238	0xbe9eb7bf	-0.30999562
239	0xbd4fdbad	-0.05074661
240	0xbd5c4641	-0.053777937
241	0x3da39c43	0.07988789
242	0xbe19ab6a	-0.15006796
243	0xbd31c91e	-0.04340469
244	0xbcbdb068	-0.023155406
245	0x3d8d56ec	0.06901345
246	0xbe9ca52e	-0.30594772
247	0xbe11e57f	-0.14247702
248	0xbc5275bc	-0.012845453
249	0x3e4189c0	0.18900204
250	0xbe745d42	-0.238637
251	0xbe7dcfa7	-0.24786244
252	0x3d79df32	0.06100387
253	0x3e891532	0.26773983
254	0x3e5d4b80	0.21610832
255	0x3eb253ea	0.34829646

VAE_Decoder.layers.0.linear1.bias f4 [4]
0	0xbd0bd67a	-0.034140088
1	0x3c004b29	0.00783042
2	0xbdcc107e	-0.09964083
3	0x3c6592b3	0.014012027

VAE_Decoder.layers.0.norm1.weight f4 [4]
0	0x3faa064a	1.3283169
1	0x3fa6ac4e	1.3021333
2	0x3fa49a3f	1.2859572
3	0x3fc19dc4	1.5126271

VAE_Decoder.layers.0.norm1.bias f4 [4]
0	0x3de7fc80	0.113274574
1	0xbdd2da84	-0.10295585
2	0xbdca1573	-0.09867372
3	0x3e4a799b	0.19772951

VAE_Decoder.layers.1.attention.W_q.weight f4 [4, 4]
0	0x3cbdfa10	0.023190528
1	0x3e0b72be	0.1361799
2	0xbdc76c19	-0.09737415
3	0xbe6458ac	-0.2229945
4	0xbdfbb289	-0.12289912
5	0x3efd7816	0.4950568
6	0x3e681b9a	0.22666779
7	0x3d2698b5	0.040672977
8	0xbe598096	-0.21240458
9	0xbe8da2ff	-0.2766342
10	0x3f01e3ac	0.50738025
11	0xbe8b61c3	-0.27223024
12	0x3e353cc8	0.17698967
13	0x3e00cb61	0.12577583
14	0x3e80ba90	0.25142336
15	0xbebe0783	-0.37115106

VAE_Decoder.layers.1.attention.W_q.bias f4 [4]
0	0xbc2b6f9c	-0.0104636215
1	0x3e122533	0.14272003
2	0x3d9c9636	0.07645838
3	0xbde76e53	-0.113003395

VAE_Decoder.layers.1.attention.W_k.weight f4 [4, 4]
0	0xbe133e27	-0.14379178
1	0x3d900725	0.07032613
2	0xbeb7bd65	-0.35886684
3	0xbd242af2	-0.04008002
4	0x3ea73b03	0.3266221
5	0xbea5550a	-0.32291442
6	0x3e26ad33	0.16277008
7	0x3eadae82	0.339222
8	0xbec6e7dd	-0.38848773
9	0xbe712e9b	-0.23552935
10	0xbf413b54	-0.7548115
11	0xbc2d8b05	-0.010592227
12	0x3e039266	0.12848815
13	0x3f066136	0.5249208
14	0x3e5ba0f2	0.21448115
15	0x3e11e15f	0.14246128

VAE_Decoder.layers.1.attention.W_k.bias f4 [4]
0	0xb828aa16	-4.0212726e-05
1	0xb8e62a0e	-0.00010975088
2	0xb82b8316	-4.089166e-05
3	0x371b7b2f	9.267401e-06

VAE_Decoder.layers.1.attention.W_v.weight f4 [4, 4]
0	0xbe392eca	-0.18084255
1	0x3d525e6c	0.05135958
2	0xbba26175	-0.0049554654
3	0xbe2b826b	-0.1674897
4	0x3cf89bdc	0.030347757
5	0xbce5304c	-0.027977131
6	0x3d73bd0d	0.059506465
7	0x3bd49196	0.0064870818
8	0x3dc76f7e	0.09738062
9	0x3ea05c4c	0.31320417
10	0x3e833750	0.25628138
11	0x3eaade20	0.33372593
12	0x3d3fa981	0.04679251
13	0x3dca521d	0.09878943
14	0xba880876	-0.0010378498
15	0x3e5ae8d2	0.21377876

VAE_Decoder.layers.1.attention.W_v.bias f4 [4]
0	0xbce2f8fc	-0.027706616
1	0xbd22c828	-0.039741665
2	0xbc2163a0	-0.009850413
3	0x3b844729	0.0040368033

VAE_Decoder.layers.1.linear0.weight f4 [128, 4]
0	0x3ed8f799	0.42376402
1	0xbea47185	-0.3211786
2	0xbf02aeb9	-0.51047856
3	0x3e781930	0.24228358
4	0x3e9e6fd5	0.30944696
5	0xbec6eaed	-0.3885111
6	0x3db43cb6	0.08800642
7	0x3d0203c0	0.031741858
8	0x3d915165	0.07095603
9	0xbed6ca89	-0.41951397
10	0xbe78a3d2	-0.24281242
11	0x3eb88787	0.360409
12	0xbe5b7141	-0.21429922
13	0x3f0e54c3	0.55598086
14	0xbf8e7d8e	-1.1132066
15	0xbe886a80	-0.26643753
16	0x3ed042e3	0.4067603
17	0x3e4d9086	0.20074663
18	0x3edf7944	0.43647206
19	0xbf1ecb30	-0.6202879
20	0xbe1fabdb	-0.15592901
21	0x3ec09c8a	0.3761943
22	0xbeff3e51	-0.4985223
23	0x3dfb52ec	0.122716755
24	0xbf1ea12d	-0.61964685
25	0xbef5d542	-0.48014265
26	0xbe99c5e4	-0.3003379
27	0x3f1c7cfd	0.61128217
28	0x3dd97148	0.1061731
29	0xbc271207	-0.010197169
30	0x3c638772	0.013887273
31	0x3e825f25	0.25463215
32	0x3e98548d	0.29752007
33	0xbeb28bf0	-0.3487239
34	0x3ea5336b	0.3226579
35	0x3eb6efe3	0.35729894
36	0x3f0d14a0	0.55109596
37	0x3db25e13	0.087093495
38	0xbe74269a	-0.2384285
39	0x3ead3303	0.3382798
40	0xbed40a1b	-0.4141396
41	0xbe838511	-0.2568746
42	0x3e4e467e	0.20144078
43	0xb982e998	-0.00024969573
44	0x3eab4f81	0.33459094
45	0xbeaa3c7b	-0.33249268
46	0xbf01e10a	-0.5073401
47	0xbeb640ea	-0.355964
48	0xbe79ddda	-0.24401036
49	0x3ee2f731	0.44329217
50	0xbef3b8b4	-0.47601855
51	0x3e7eb81a	0.24874917
52	0x3e44a937	0.19205175
53	0x3ee297bf	0.44256398
54	0xbee20216	-0.44142216
55	0xbea798ba	-0.3273371
56	0xbef83e6b	-0.4848512
57	0x3eb0b31b	0.34511647
58	0xbdb2c0c3	-0.08728173
59	0x3d80d6af	0.06290948
60	0xbe82c68d	-0.25542107
61	0xbf1a7f23	-0.60350245
62	0xbdacd998	-0.0843994
63	0xbd8ad5b0	-0.06779039
64	0x3eae6153	0.34058627
65	0x3e9052ef	0.28188273
66	0xbe2c9dbc	-0.16857046
67	0xbe0dcf5c	-0.13848633
68	0x3e44d36b	0.19221275
69	0x3ec29b04	0.38008893
70	0xbe9461f5	-0.28980985
71	0x3d5aa0c0	0.05337596
72	0x3e509057	0.20367561
73	0x3edff451	0.43741086
74	0xbeb8f93a	-0.36127645
75	0xbf030016	-0.51172006
76	0xbe5002ae	-0.20313522
77	0xbe2b0173	-0.16699772
78	0x3f5a6e4e	0.8532456
79	0x3ac04f6d	0.0014672108
80	0xbe91bb48	-0.28463197
81	0xbe91a9c6	-0.2844984
82	0x3e89b9a1	0.26899436
83	0x3e8c1529	0.27359894
84	0x3e41c0a8	0.18921149
85	0x3e662015	0.22473176
86	0xbe379f2d	-0.17931814
87	0xbf08d67c	-0.5345228
88	0xbdd14295	-0.10217778
89	0x3e6c919a	0.23102418
90	0xbe98b20f	-0.29823348
91	0xbe8bc758	-0.27300525
92	0xbf14a3d4	-0.5806248
93	0xbe78cb8f	-0.24296401
94	0x3d18f60c	0.037344024
95	0xbe40c0eb	-0.18823592
96	0xbe1f6007	-0.15563975
97	0xbf14d394	-0.5813534
98	0x3c7a04f8	0.015259974
99	0x3ef105da	0.47074777
100	0xbe92cf9f	-0.28674027
101	0xbe979f3f	-0.29613683
102	0x3d869297	0.065709285
103	0x3eeda25d	0.46412936
104	0xbf10f229	-0.5661951
105	0x3dc79609	0.09745414
106	0x3ed16515	0.40897432
107	0x3eaec42f	0.3413405
108	0xbe8795e3	-0.26481542
109	0x3efcd74d	0.4938301
110	0x3f1dae1f	0.6159381
111	0xbead748f	-0.3387799
112	0xbf11211d	-0.5669115
113	0x3d85acff	0.06527137
114	0xbeb5f8e9	-0.35541466
115	0x3ef9d956	0.48798627
116	0xbf1b030b	-0.6055152
117	0x3f1a910e	0.60377586
118	0xbe66ba2c	-0.22531956
119	0xbd1d317b	-0.038377266
120	0xbe4b97b1	-0.19882084
121	0x3e4d8d36	0.20073399
122	0x3ea9b1fb	0.331436
123	0xbeac8be3	-0.33700475
124	0xbe877a0a	-0.26460296
125	0xbf3f8dc5	-0.748257
126	0x3e5e5f2b	0.21715991
127	0x3ee20986	0.4414789
128	0x3e95bca3	0.2924548
129	0x3ec032b5	0.37538686
130	0x3e44cb1b	0.19218104
131	0xbd1b225b	-0.03787456
132	0xbe083975	-0.13303168
133	0xbec6f46c	-0.38858354
134	0xbea033d4	-0.31289542
135	0x3e95d9fb	0.29267868
136	0xbd4bf200	-0.049791336
137	0x3ea1df0f	0.31615493
138	0xbd7c60ad	-0.061615635
139	0x3d91ffa2	0.07128836
140	0xbd836883	-0.064164184
141	0x3f1bcd25	0.608599
142	0x3ece51ab	0.40296683
143	0xbf1c3ca5	-0.61030036
144	0xbbb29d52	-0.005450883
145	0xbeee02be	-0.46486467
146	0x3e81319f	0.2523317
147	0x3e64f88f	0.22360443
148	0x3e74b851	0.23898436
149	0xbd9a86f8	-0.075452745
150	0xbe8db2b0	-0.2767539
151	0x3f2ca99f	0.6744632
152	0xbe5e5d71	-0.21715333
153	0xbf0c49f5	-0.5480035
154	0x3e40d719	0.18832053
155	0x3efb53d4	0.49087393
156	0xbf08f2c9	-0.5349546
157	0xbe095179	-0.13409986
158	0xbf1a9df2	-0.60397255
159	0xbd4c8ec8	-0.049940854
160	0xbe9c8772	-0.30572087
161	0x3d04321d	0.032274354
162	0x3f12a89a	0.57288516
163	0x3d8f19ab	0.06987318
164	0x3d813f4d	0.06310902
165	0x3f20974d	0.62730867
166	0x3f240f77	0.640861
167	0xbd99ad1b	-0.075037204
168	0x3e317129	0.17328323
169	0xbe85179b	-0.25994572
170	0xbe92c25b	-0.28663906
171	0x3e96d1dc	0.29456985
172	0xbed3b6c8	-0.4135039
173	0xbe2cb384	-0.16865355
174	0x3de1be47	0.11022621
175	0x3f0a12b1	0.5393477
176	0x3e2a4502	0.16627887
177	0xbef70b1d	-0.48250666
178	0xbeb0d10f	-0.345345
179	0xbefeb019	-0.49743727
180	0x4010c4b9	2.262007
181	0xbe77e5e2	-0.24208787
182	0x3eb88867	0.36041567
183	0x3d9f2c81	0.0777216
184	0xbd724d32	-0.05915565
185	0x3e1f2eaa	0.15545145
186	0xbeffdc27	-0.4997265
187	0xbf1b9dc8	-0.6078763
188	0x3ee14a80	0.4400215
189	0x3e1d60fa	0.15369025
190	0xbeaa4707	-0.33257315
191	0x3edb926a	0.42885143
192	0xbe7be1c8	-0.24597847
193	0x3ead4aca	0.33846122
194	0x3e3aa352	0.18226364
195	0xbe9f911e	-0.31165403
196	0x3f083553	0.53206366
197	0x3e881e27	0.26585504
198	0x3e0c7419	0.13716163
199	0xbe12e250	-0.14344144
200	0xbdf75ed9	-0.12078638
201	0xbedc6c3b	-0.43051323
202	0xbdde0b1b	-0.10841962
203	0x3f2cf11c	0.67555404
204	0x3e1a868d	0.1509039
205	0x3f2383c7	0.6387295
206	0x3efd5b29	0.49483612
207	0xbefc1376	-0.49233598
208	0x3e819da7	0.25315592
209	0x3f1f39ce	0.6219758
210	0x3e8088f3	0.25104484
211	0xbf24d168	-0.6438203
212	0xbe01719a	-0.12640992
213	0x3e88e6bd	0.2673854
214	0x3e1b3f59	0.15160884
215	0xbe97f31d	-0.29677668
216	0xbe190174	-0.1494196
217	0xbe2349e0	-0.1594615
218	0x3d1ce145	0.03830077
219	0x3e0bd332	0.13654783
220	0x3ea6454a	0.32474738
221	0xbe111437	-0.14167868
222	0xbecab1e3	-0.39588842
223	0x3ec8e9cb	0.3924087
224	0x3f01aada	0.50651324
225	0x3f18c6c8	0.59678316
226	0xbe1dc41a	-0.15406838
227	0x3ec821de	0.3908834
228	0x3ec23980	0.37934494
229	0xbc163087	-0.009166843
230	0xbf0a93e9	-0.54131943
231	0x3e408a13	0.18802671
232	0x3eaa2421	0.3323069
233	0xbeef40b2	-0.46729046
234	0x3e510a4c	0.20414084
235	0xbe170571	-0.1474817
236	0xbe03766d	-0.12838145
237	0xbe8c2ffa	-0.27380353
238	0x3f3e4514	0.74324155
239	0x3daafbd3	0.08348813
240	0x3df57b08	0.11986357
241	0xbf2e939a	-0.6819397
242	0x3e6a0aef	0.22855733
243	0x3e7c8697	0.24660717
244	0xbdfc13e3	-0.123084806
245	0xbc6e1a3d	-0.014532623
246	0xbf1b4b85	-0.6066211
247	0x3f12de7a	0.5737072
248	0xbe65fc4e	-0.22459528
249	0x3dfbf7a9	0.12303097
250	0xbe207781	-0.15670587
251	0x3f06118a	0.5237051
252	0xbda4b048	-0.080414355
253	0x3e8dda9b	0.27705845
254	0xbe34d49b	-0.17659228
255	0xbeec0c21	-0.46103004

VAE_Decoder.layers.1.linear0.bias f4 [128]
0	0xbcba4ea3	-0.022742575
1	0x3d832062	0.06402661
2	0x3e36c3e9	0.17848171
3	0x3f176ebe	0.59153354
4	0xbeadd49f	-0.3395128
5	0xbe0ba07d	-0.1363544
6	0x3e5d9e33	0.2164238
7	0x3ee46e1c	0.44615257
8	0x3d83002b	0.063965164
9	0x3e895044	0.2681905
10	0x3e8d1972	0.27558476
11	0x3ec9522a	0.393205
12	0x3de626c3	0.11237862
13	0x3e23a107	0.15979396
14	0x3e8dd4d1	0.2770143
15	0x3d6d82bf	0.057986017
16	0xbf0bbcdd	-0.5458506
17	0x3ee47733	0.44622192
18	0xbe46c401	-0.19410707
19	0x3e049237	0.12946402
20	0x3e19e521	0.15028812
21	0xbf0186d2	-0.50596344
22	0x3f06bd19	0.5263229
23	0x3ea5f767	0.32415316
24	0xbeaa43d5	-0.33254877
25	0xbc0cc532	-0.008591937
26	0x3eb56c06	0.35433978
27	0x3da1f5ce	0.07908212
28	0xbe871983	-0.2638665
29	0xbe028d32	-0.12749174
30	0x3d0da1d0	0.034578145
31	0xbe31d86c	-0.17367715
32	0xbea997da	-0.33123666
33	0xbebd5cea	-0.3698495
34	0x3ee386e5	0.44438854
35	0x3dfe8c9b	0.12429162
36	0xbd9299a8	-0.07158214
37	0x3c367b53	0.011137801
38	0x3e01b0e0	0.12665129
39	0x3eadcdba	0.3394602
40	0xbf0cd958	-0.5501914
41	0x3e2f676e	0.17129299
42	0x3dba6290	0.091008306
43	0xbcdab3eb	-0.02669712
44	0xbe738aeb	-0.23783462
45	0xbe2c7f22	-0.16845372
46	0xbe2fbe7e	-0.17162511
47	0x3f21dd1c	0.6322801
48	0x3e8d8f8d	0.27648583
49	0xbead7b06	-0.33882922
50	0xbec85500	-0.3912735
51	0x3e92c848	0.28668427
52	0xbe84fd8c	-0.2597469
53	0x3d8a2927	0.067461304
54	0x3dda01e8	0.10644895
55	0x3df486f1	0.119398005
56	0x3eb8fe2c	0.36131418
57	0x3d9192a1	0.07108045
58	0xbe965a19	-0.29365614
59	0xbe8474b8	-0.258703
60	0x3d08c768	0.033393294
61	0xbe48acb7	-0.19597135
62	0x3c7eaab0	0.015543625
63	0xbe05d59d	-0.13069768
64	0x3e0e754a	0.1391193
65	0xbe015544	-0.12630183
66	0x3f11004c	0.5664108
67	0x3f106ca8	0.56415796
68	0x3ec09ac4	0.37618077
69	0xbea281d0	-0.31739664
70	0x3ee04c3b	0.4380816
71	0x3e8a524d	0.27015916
72	0x3e2f8d5d	0.1714377
73	0xbecf01b7	-0.40430996
74	0x3d742aa8	0.059610993
75	0x3f0b73cb	0.5447356
76	0xbe9d9692	-0.3077894
77	0xbeb205d3	-0.3477007
78	0xbdff6a99	-0.12471504
79	0x3f007cea	0.50190604
80	0x3f029e3e	0.5102271
81	0x3f0ddfab	0.55419415
82	0xbd8751d9	-0.06607408
83	0x3f1c551b	0.6106736
84	0xbd8799b2	-0.06621112
85	0xbd7a6c40	-0.06113839
86	0xbd127116	-0.03575238
87	0xbedcbf00	-0.4311447
88	0x3ef9c226	0.48780936
89	0x3ed04be2	0.40682894
90	0x3ea7a8fe	0.32746118
91	0x3e826962	0.25471026
92	0x3ea6dd57	0.32590744
93	0x3e698366	0.22804031
94	0xbe1ff477	-0.156206
95	0x3df43ecc	0.1192604
96	0xbe94caf7	-0.290611
97	0xbe0f80aa	-0.14013925
98	0x3e7e9f1d	0.24865384
99	0x3ef4894f	0.47761008
100	0x3d8c126d	0.06839452
101	0xbf0625b2	-0.5240127
102	0xbdcf7518	-0.10129756
103	0x3f01125b	0.50418633
104	0xbea9c40c	-0.33157384
105	0x3ea59f54	0.3234812
106	0x3de4b609	0.11167533
107	0x3f2684bb	0.6504628
108	0x3e2f1cec	0.17100877
109	0xbecaba1c	-0.39595115
110	0x3ee92c3d	0.45541564
111	0x3de33b22	0.11095263
112	0xbdd8bff0	-0.10583484
113	0x3e76a235	0.24085315
114	0x3daf2de8	0.08553678
115	0x3de5d619	0.112224765
116	0xbf14fb42	-0.5819589
117	0xbea19dc7	-0.31565687
118	0x3de5b92f	0.112169616
119	0xbea8835d	-0.32912722
120	0x3c24ed01	0.010066272
121	0x3e1fed21	0.15617801
122	0x3e342a6b	0.17594306
123	0x3e3c3a5b	0.18381636
124	0xbdd7af82	-0.10531522
125	0xbe5699d1	-0.20957114
126	0x3eb56df7	0.3543546
127	0x3ad43eb6	0.0016193006

VAE_Decoder.layers.1.linear1.weight f4 [4, 128]
0	0x3e54a6f6	0.20766816
1	0x3ce69736	0.028148275
2	0xbc3a4f5f	-0.011371463
3	0xbbdf8d64	-0.006822275
4	0xbdc2d0fb	-0.09512516
5	0xbd673cde	-0.05645453
6	0xbe2bbf85	-0.16772278
7	0xbd056d7c	-0.032575116
8	0x3c92b24c	0.017907284
9	0x3ddf898f	0.10914909
10	0xbdf6dfb5	-0.120543875
11	0x3cf34239	0.029694663
12	0x3bb42025	0.005496996
13	0xbc978f35	-0.018500904
14	0xbe0acf2d	-0.13555594
15	0xbc0cb257	-0.008587441
16	0x3df93c60	0.12169719
17	0xbd1c351d	-0.03813659
18	0xbd0780c6	-0.033081792
19	0xbda529ab	-0.08064588
20	0xbd86acf6	-0.065759584
21	0x3c2b6c63	0.010462853
22	0xbd9e43b0	-0.07727754
23	0xbdc74406	-0.09729771
24	0xbda0ade9	-0.07845671
25	0xbe1f1237	-0.15534292
26	0xbdfae50d	-0.12250719
27	0xbe4f8b7b	-0.20268051
28	0xbda4c811	-0.08045972
29	0xbbde334b	-0.006781017
30	0xbe522385	-0.20521362
31	0xbcdd8c12	-0.02704433
32	0xbce1b199	-0.027550505
33	0xbe620aa8	-0.22074378
34	0xbe099dc6	-0.13439092
35	0xbd9e7d89	-0.07738788
36	0x3dbef01c	0.09323141
37	0xbe1d9ffc	-0.1539306
38	0xbdc12af0	-0.09432018
39	0xbd0485ed	-0.032354284
40	0x3e1d318b	0.1535093
41	0xbe518efa	-0.20464697
42	0xbdb3754d	-0.08762608
43	0xbeaecb3c	-0.3413943
44	0x3e3145ab	0.17311732
45	0x40002958	2.0025234
46	0xbd772ac1	-0.060343508
47	0x3b99f477	0.004698332
48	0xbd0f46a6	-0.034979485
49	0x3cd1e345	0.025621066
50	0xbe8b0caa	-0.271581
51	0xbe1c03e8	-0.15235865
52	0xbdd36437	-0.10321849
53	0xbd8bae12	-0.06820311
54	0x3ce79737	0.028270347
55	0x3d95a821	0.07307459
56	0x3df3356c	0.11875424
57	0x3d9458d0	0.07243502
58	0x3d27b1c6	0.040941022
59	0xbd5a655c	-0.05331932
60	0x3e0eb43b	0.1393594
61	0xbdcc1273	-0.099644564
62	0xbdfd5a4a	-0.12370737
63	0x3cf470b2	0.029838894
64	0xbd39540f	-0.04524618
65	0xbd97e944	-0.07417539
66	0xbe19252e	-0.14955589
67	0xbdebdec9	-0.11517102
68	0x3d3ebc59	0.04656634
69	0x3e26af63	0.16277842
70	0xbdf59251	-0.11990798
71	0xbcfbb94c	-0.030728005
72	0xbe377c7e	-0.17918584
73	0xbeb47ea5	-0.35252872
74	0x3d6363bc	0.055515036
75	0xbdd13ec8	-0.10217053
76	0xbd015011	-0.031570498
77	0x3efbe3e1	0.49197295
78	0x3c9d48e5	0.019199798
79	0xbd708952	-0.05872471
80	0xbd8faba1	-0.070151575
81	0xbd438d8f	-0.047742423
82	0xbf3b7601	-0.73226935
83	0x3d475649	0.048666272
84	0x3edca714	0.4309622
85	0x3dc3b3fa	0.09555812
86	0xbb8500e3	-0.0040589436
87	0x3e06b223	0.13153891
88	0x3d6aaf53	0.05729611
89	0x3d220fee	0.039565973
90	0x3db3467e	0.0875368
91	0xbd06d448	-0.03291729
92	0xbe164bda	-0.14677373
93	0xbce45ed0	-0.027877241
94	0x3e6b3121	0.2296796
95	0x3c9cde61	0.019149007
96	0x3ea84b97	0.3287017
97	0x3e2bc623	0.16774802
98	0xbda0b171	-0.07846344
99	0xbe307716	-0.17232928
100	0xbde4f378	-0.111792505
101	0x3dab36c7	0.08360057
102	0x3dce7bcf	0.10082208
103	0xbe00b531	-0.12569119
104	0x3df5b1c9	0.119968005
105	0x3c64a57d	0.013955471
106	0xbaa66cef	-0.001269726
107	0x3d95531e	0.07291244
108	0x3c05998b	0.008154283
109	0xbd69f8ea	-0.05712215
110	0xbdac004b	-0.083984934
111	0xbe3cb47e	-0.18428227
112	0xbd3784a3	-0.044804227
113	0xbd6bbd07	-0.057553317
114	0x3d78be49	0.060728345
115	0xba199bf7	-0.00058597274
116	0x3dadde4d	0.08489666
117	0x3bea02d9	0.0071414527
118	0xbd9bead6	-0.07613151
119	0x3dfcf6d2	0.12351765
120	0xbe5e93a5	-0.2173601
121	0xbd850ccf	-0.06496584
122	0xbda7ba15	-0.08189789
123	0xbd972c2c	-0.07381472
124	0xbd8547c3	-0.06507828
125	0xbccb3790	-0.024806768
126	0xbdbe3947	-0.092882685
127	0xbc8a9efa	-0.016921509
128	0x3d29c314	0.041445807
129	0xbe1e2d34	-0.15446931
130	0xbccf89f0	-0.025334328
131	0x3e0d0768	0.13772357
132	0x3e15418a	0.14575782
133	0x3e02585e	0.12729022
134	0xbe24a4fc	-0.16078562
135	0xbe04f3a2	-0.12983564
136	0xbe1709cd	-0.14749832
137	0x3d30e55a	0.043187477
138	0xbde82a7b	-0.113362275
139	0x3dfd7354	0.12375513
140	0x3c7570d8	0.014980517
141	0x3dbd4726	0.09242086
142	0xbd31e3fd	-0.043430317
143	0xbea1aae3	-0.3157569
144	0xbd8fbc5f	-0.07018351
145	0x3dbe0113	0.09277549
146	0x3e420d69	0.18950428
147	0xbe315386	-0.17317018
148	0xbe7d67ff	-0.24746703
149	0x3e5b55d7	0.21419464
150	0x3e2e5ad3	0.17026834
151	0xbd338f56	-0.043837868
152	0xbde2824b	-0.11060008
153	0xbe0ff543	-0.14058404
154	0xbdcbefbf	-0.09957837
155	0x3d6d5534	0.057942584
156	0xbe2e1d2b	-0.17003314
157	0x3d5b8235	0.053590972
158	0x3d82bf25	0.06384114
159	0xbe126dda	-0.14299718
160	0x3cb798d9	0.02241175
161	0xbda02e51	-0.07821334
162	0x3ddeecd2	0.10885014
163	0x3e833d14	0.25632536
164	0xbe0d02c1	-0.13770582
165	0x3d8d0201	0.06885148
166	0xbe2f9656	-0.17147192
167	0xbcedccf5	-0.029028395
168	0xbe4e1246	-0.20124158
169	0x3e50497a	0.20340529
170	0x3d9baa7f	0.07600879
171	0xbed250db	-0.41077313
172	0xbbf9878e	-0.0076150363
173	0x3ea377ba	0.31927282
174	0x3e17c6e7	0.14821969
175	0xbc03f0a4	-0.008052979
176	0x3d20ce31	0.03925914
177	0x3e5e184f	0.2168896
178	0xbe35e41b	-0.17762797
179	0x3e8064ac	0.25076807
180	0x3e897d99	0.26853636
181	0x3db5e8de	0.088823065
182	0xbe205890	-0.15658784
183	0x3db34bf2	0.0875472
184	0x3dd944ec	0.10608849
185	0x3d845820	0.06462121
186	0xbe4dc803	-0.2009583
187	0xbe14de0c	-0.14537829
188	0xbe26d796	-0.16293177
189	0x3ce5f838	0.028072461
190	0xbdcf29b8	-0.10115379
191	0x3d18d4b6	0.037312232
192	0x3e15b03c	0.1461801
193	0xbe605b78	-0.21909893
194	0x3c9e4745	0.019321093
195	0xbe799b4f	-0.24375652
196	0x3e1b317d	0.15155597
197	0x3ded76d5	0.11594931
198	0xbd72f238	-0.05931303
199	0xbe37416e	-0.17896053
200	0xbdd749f7	-0.105121545
201	0xbdaa5480	-0.08316898
202	0x3e1dac6e	0.15397808
203	0x3e55134e	0.20808145
204	0xbda1148a	-0.07865246
205	0x3cb5921e	0.0221644
206	0xbe48e2e7	-0.19617806
207	0xbce9ffd0	-0.028564364
208	0xbd94aaf6	-0.07259171
209	0xbe0f2ee4	-0.13982731
210	0x3f00c81b	0.50305337
211	0x3e8c9c61	0.27463058
212	0xbe891169	-0.26771095
213	0x3e22a53a	0.15883341
214	0xbdd99fd4	-0.10626188
215	0x3f103267	0.5632691
216	0xbe71d6b0	-0.23617053
217	0x3e91f564	0.2850753
218	0xbe76d9f6	-0.24106583
219	0xbe1262dc	-0.14295524
220	0x3dcf68b3	0.10127392
221	0x3e934104	0.2876054
222	0x3ddecf22	0.10879351
223	0x3cf25773	0.029582715
224	0x3d0f3085	0.03495838
225	0x3de95ac0	0.11394262
226	0xbd964e52	-0.07339157
227	0xbd86ffbf	-0.065917484
228	0x3d3a0b94	0.045421198
229	0x3d2cd194	0.042192057
230	0xbe858a47	-0.2608206
231	0xbdba3ee8	-0.0909403
232	0xbf06905a	-0.52564013
233	0x3e8d89e7	0.27644274
234	0x3e2777f8	0.16354358
235	0xbe45f768	-0.19332659
236	0x3cae617c	0.021286719
237	0x3e1765ad	0.1478488
238	0xbd7722ad	-0.060335804
239	0x3e76c33e	0.24097916
240	0x3e1e7e5f	0.15477894
241	0x3e8bd012	0.27307183
242	0xbd6c92eb	-0.0577573
243	0x3dec2473	0.1153039
244	0xbd610717	-0.054938402
245	0xbd8ebaca	-0.06969221
246	0x3d43e475	0.047825295
247	0xbe59cd1c	-0.2126965
248	0x3daf30c9	0.08554227
249	0xbe505be6	-0.20347556
250	0xbd8052d8	-0.06265801
251	0x3d5a36e4	0.053275004
252	0x3e04424d	0.12915917
253	0xbcc2919b	-0.02375107
254	0x3d271cb9	0.040798876
255	0xbda50381	-0.08057309

VAE_Decoder.layers.1.linear1.bias f4 [4]
0	0xbd226f83	-0.039657127
1	0xbd9d8778	-0.07691854
2	0xbd5dfcfb	-0.05419634
3	0xbd82b193	-0.06381526

VAE_Decoder.layers.1.norm1.weight f4 [4]
0	0x3fc27c9c	1.5194278
1	0x3fb024c8	1.3761225
2	0x3fb9d63e	1.4518507
3	0x3fb1b98a	1.3884747

VAE_Decoder.layers.1.norm1.bias f4 [4]
0	0xbd5dc48a	-0.054142512
1	0xbd461102	-0.048356064
2	0xbcf4cf72	-0.029884074
3	0x3e3f89d1	0.18704917

VAE_Decoder.layers.1.norm0.weight f4 [4]
0	0x3f818924	1.0119977
1	0x3f3c8667	0.7364258
2	0x3f9aedee	1.210386
3	0x3f593476	0.84845674

VAE_Decoder.layers.1.norm0.bias f4 [4]
0	0xbc6f7a45	-0.014616554
1	0x3c832621	0.016009392
2	0x3cb8d2b3	0.022561407
3	0x3cfc1e31	0.030776115

VAE_Decoder.last_normalization.weight f4 [4]
0	0x3f800000	1.0
1	0x3f800000	1.0
2	0x3f800000	1.0
3	0x3f800000	1.0

VAE_Decoder.last_normalization.bias f4 [4]
0	0x00000000	0.0
1	0x00000000	0.0
2	0x00000000	0.0
3	0x00000000	0.0

VAE_Decoder.head.weight f4 [4, 4]
0	0xbe61d2a0	-0.22053003
1	0x3daf5270	0.085606456
2	0x3e96beac	0.29442346
3	0xbec8365c	-0.39103973
4	0x3de07090	0.109589696
5	0xbef85d18	-0.48508525
6	0xbea6c302	-0.32570654
7	0x3e83fb1a	0.25777513
8	0x3e239d64	0.15978009
9	0x3e5ab0b8	0.21356475
10	0x3eadf328	0.33974576
11	0xbe909dc2	-0.2824536
12	0x3e306904	0.1722756
13	0xbb34ce00	-0.0027588606
14	0xbd7a6b70	-0.061137617
15	0xbee429a6	-0.44563025

VAE_Decoder.head.bias f4 [4]
0	0xbe98efb6	-0.29870385
1	0x3ef56d12	0.47934777
2	0x3e68c430	0.2273109
3	0x3e97e24e	0.29664844

Detokenizer.weight f4 [14, 4]
0	0x3e11b9df	0.1423106
1	0xbe3f4e0d	-0.18682118
2	0x3df1ca07	0.11806112
3	0xbe327ca3	-0.17430358
4	0xbca10b59	-0.019658731
5	0x3ddb1725	0.10697774
6	0xbe34c167	-0.17651902
7	0x3e4c919d	0.19977422
8	0xbdeb6e6f	-0.11495673
9	0x3db428a4	0.08796814
10	0xbdf180a6	-0.11792116
11	0x3eafefc1	0.34362605
12	0x3e1f35d3	0.15547876
13	0xbde1c838	-0.11024517
14	0xbe6b07a0	-0.22952127
15	0xbdc9b71b	-0.09849378
16	0xbdf7f6ee	-0.12107645
17	0x3e50268a	0.20327201
18	0x3d83b3c8	0.06430775
19	0x3b778067	0.0037765743
20	0x3d9dc6e7	0.07703953
21	0xbe0c34a5	-0.13691957
22	0x3e0f47a0	0.13992167
23	0xbdbbc90d	-0.09169207
24	0x3db70537	0.089365415
25	0xbe180875	-0.14846976
26	0x3bc849dc	0.0061123203
27	0xbed55823	-0.41668805
28	0x3caa22da	0.020768572
29	0xbe28ef5c	-0.16497558
30	0x3da77b10	0.08177769
31	0xbe5d9fc7	-0.21642981
32	0x3dde6f01	0.10861016
33	0xbc9eebac	-0.019399486
34	0x3c57063d	0.013124046
35	0x3e51dc70	0.20494246
36	0x3e4d64d8	0.20058
37	0xbd886fa0	-0.06661916
38	0x3e3cbd3a	0.18431559
39	0x3d0e8255	0.034792263
40	0x3ebb4a3b	0.3658007
41	0xbeb6a0eb	-0.35669646
42	0xbe806b2c	-0.25081766
43	0xbec0a99e	-0.37629408
44	0x3e4c1c2f	0.19932626
45	0xbe3f1557	-0.18660484
46	0xbce816bd	-0.028331155
47	0xbc7dbcf4	-0.0154869445
48	0xbd9a177c	-0.075240105
49	0x3cf2a775	0.029620865
50	0x3e240be8	0.16020167
51	0xbde89e1b	-0.11358281
52	0x3dd8a960	0.10579181
53	0x3ca0f0c3	0.019646054
54	0xbea9b23f	-0.33143803
55	0xbdd236c4	-0.10264352

Detokenizer.cat_recons.0.weight f4 [2, 4]
0	0xbe7089e0	-0.23490095
1	0xbf47926a	-0.77957785
2	0x3e904504	0.28177655
3	0x3e68ec44	0.22746378
4	0xbf1098ae	-0.5648297
5	0x3f3c6d5b	0.73604363
6	0xbd87929d	-0.06619761
7	0x3d506e67	0.050886538

Detokenizer.cat_recons.0.bias f4 [2]
0	0x3eb5dcea	0.35520107
1	0x3f064842	0.52454007

Detokenizer.cat_recons.1.weight f4 [7, 4]
0	0x3f237cb7	0.63862175
1	0xbf119728	-0.5687127
2	0xbdb45252	-0.08804764
3	0xbe0cee29	-0.13762726
4	0x3e07680f	0.13223289
5	0xbe77aa87	-0.24186145
6	0x3efd2900	0.49445343
7	0xbeb4810d	-0.35254708
8	0xbe898b03	-0.2686387
9	0x3e82448f	0.2544293
10	0xbe111678	-0.14168727
11	0xbf1e1978	-0.6175761
12	0x3dafe93b	0.08589407
13	0xbd2942aa	-0.04132334
14	0xbf2fad44	-0.6862376
15	0xbbd88f5b	-0.006608886
16	0x3f17aeb7	0.5925097
17	0x3ee523cd	0.44753876
18	0xbeaf1afd	-0.34200278
19	0xbe06acb9	-0.13151826
20	0x3f7e2f33	0.9929077
21	0xbdc2ced0	-0.095121026
22	0xbe82d588	-0.25553536
23	0x3d0b6784	0.034034267
24	0xbd12c741	-0.035834555
25	0xbead675d	-0.33867922
26	0xbe004aa5	-0.12528475
27	0x3d8de3a4	0.06928185

Detokenizer.cat_recons.1.bias f4 [7]
0	0xbdaacab9	-0.083394475
1	0x3e956f43	0.29186448
2	0xbd547287	-0.051867034
3	0x3ec92cb3	0.39291915
4	0xbc04daaf	-0.008108779
5	0xbe9e1cd7	-0.30881378
6	0x3db464f5	0.088083185

Detokenizer.cat_recons.2.weight f4 [4, 4]
0	0xbe452494	-0.19252235
1	0x3e51bf05	0.20483024
2	0x3f2b23c4	0.6685145
3	0x3e5baaba	0.21451846
4	0xbe6fa857	-0.2340406
5	0xbe6c42bd	-0.23072334
6	0xbe534593	-0.20632009
7	0xbc43a1d1	-0.0119404355
8	0xbe8885cd	-0.26664582
9	0x3e8c2687	0.27373144
10	0x3ce18dbf	0.02753341
11	0xbf2933db	-0.6609475
12	0x3f288783	0.65831774
13	0x3dcef31c	0.10104963
14	0xbdbc8898	-0.09205741
15	0x3eadbe29	0.33934143

Detokenizer.cat_recons.2.bias f4 [4]
0	0xbec75f13	-0.38939723
1	0x3eff77e4	0.49896157
2	0xbe990a89	-0.2989085
3	0xbee4352e	-0.44571823

Detokenizer.cat_recons.3.weight f4 [11, 4]
0	0xbed8d38f	-0.42348906
1	0x3ec368d3	0.38165912
2	0x3f302208	0.6880193
3	0xbe84eff9	-0.25964335
4	0xbe212d8a	-0.15740028
5	0x3ef242d2	0.47316605
6	0xbf131124	-0.5744803
7	0xbea5819e	-0.32325453
8	0xbee3dd6c	-0.4450487
9	0xbf115168	-0.5676484
10	0xbceb5d04	-0.028730877
11	0xbec4432f	-0.38332507
12	0xbec20b16	-0.37899083
13	0x3f06e9fa	0.5270077
14	0xbdc2d274	-0.09512797
15	0xbf44657c	-0.7671735
16	0x3e81b370	0.25332212
17	0xbdee4ca3	-0.11635711
18	0x3f09077b	0.5352704
19	0x3f1d2d46	0.61397207
20	0x3dba259d	0.090892054
21	0xbe5aa9f4	-0.21353894
22	0xbeb16c0d	-0.3465275
23	0x3d0a28c5	0.033730287
24	0x3f3c7eb5	0.7363084
25	0xbe5636ec	-0.20919389
26	0x3f127648	0.5721173
27	0xbef32b4c	-0.4749397
28	0x3e361579	0.17781629
29	0xbedd08d5	-0.431708
30	0x3f1df1c5	0.61697036
31	0xbeb8f0bd	-0.3612117
32	0x3f00b038	0.5026889
33	0x3ed52e90	0.41637087
34	0x3f317aaf	0.69327825
35	0x3eae8c0a	0.34091216
36	0x3e2d657f	0.16933249
37	0x3eb8ba46	0.36079615
38	0xbe09fb00	-0.13474655
39	0x3e827ec4	0.2548734
40	0x3f0dc20c	0.5537422
41	0x3e137fde	0.14404246
42	0xbe0ffe10	-0.14061761
43	0xbe975b05	-0.2956163

Detokenizer.cat_recons.3.bias f4 [11]
0	0x3e5b0508	0.21388638
1	0xbe98ba7c	-0.29829776
2	0x3e569504	0.20955282
3	0xbe160f2c	-0.14654225
4	0x3e0031c2	0.12518981
5	0x3e61df86	0.22057924
6	0x3e2bc004	0.16772467
7	0x3d9ad23a	0.07559629
8	0x3ec02352	0.37526947
9	0xbefce97a	-0.49396878
10	0x3e3876d2	0.18014076

Detokenizer.cat_recons.4.weight f4 [11, 4]
0	0xbe1b5a80	-0.15171242
1	0x3eeaf442	0.4588948
2	0xbedb0462	-0.4277678
3	0x3f1d9ef3	0.6157066
4	0xbc95d1ca	-0.018288512
5	0xbe355f0e	-0.17712042
6	0x3e941011	0.28918508
7	0xbf12f8ff	-0.5741119
8	0xbf03249a	-0.51227725
9	0xbe36c966	-0.17850265
10	0x3cdc0528	0.026857927
11	0x3efacae0	0.48982906
12	0xbca61c60	-0.020277202
13	0x3edf1240	0.4356861
14	0xbeda18ae	-0.42596954
15	0xbec16cda	-0.3777836
16	0x3ea4b41d	0.32168666
17	0xbe12dd78	-0.14342296
18	0x3d95c05e	0.07312082
19	0x3ee5edff	0.4490814
20	0xbee0deae	-0.4391989
21	0xbdbd26bd	-0.09235904
22	0xbeac7e4a	-0.336901
23	0xbef24d87	-0.47324774
24	0x3e432fb7	0.1906117
25	0x3f1a66ea	0.60313284
26	0x3d93dc3e	0.07219742
27	0xbf03de50	-0.51511097
28	0x3f176d97	0.59151596
29	0x3e5c5d91	0.21520068
30	0xbe25e42b	-0.1620032
31	0x3ca27aa1	0.019833865
32	0xbe6df9bb	-0.23239796
33	0x3f1c1fda	0.609861
34	0x3e54743f	0.2074747
35	0xbdec7dfd	-0.11547468
36	0x3eb259cb	0.34834132
37	0x3f120548	0.5703931
38	0xbe3841ae	-0.17993805
39	0xbe5919fa	-0.21201316
40	0xbeca02a0	-0.39455128
41	0x3e611204	0.21979529
42	0x3e75bb56	0.23997244
43	0x3e327852	0.17428711

Detokenizer.cat_recons.4.bias f4 [11]
0	0x3da4a41c	0.08039114
1	0x3e31e214	0.17371398
2	0xbc348500	-0.011018038
3	0xbd98f9a6	-0.07469492
4	0x3ee8908e	0.45422786
5	0xbc88440f	-0.016634015
6	0x3d8a76f7	0.06760972
7	0xbf03e33a	-0.51518595
8	0x3df54712	0.11976446
9	0x3e3447eb	0.1760556
10	0xbe68fb11	-0.22752024

Detokenizer.cat_recons.5.weight f4 [11, 4]
0	0x3f60781e	0.87683284
1	0xbf6347f6	-0.8878168
2	0x3eeeb091	0.46619084
3	0xbdca1cd9	-0.098687835
4	0xbbe8f5e9	-0.007109393
5	0xbddd9eca	-0.10821302
6	0x3f3cdc16	0.73773324
7	0x3d91b7a2	0.07115103
8	0x3d127350	0.0357545
9	0xbf18a0e7	-0.5962052
10	0xbd61738b	-0.05504183
11	0x3f08617f	0.5327377
12	0x3e0d5b36	0.13804325
13	0xbc3dbc79	-0.01158058
14	0xbea513a2	-0.3224154
15	0x3ec97702	0.39348608
16	0x3de6b7b3	0.112655066
17	0x3eec2f72	0.46129948
18	0x3d0e4682	0.03473521
19	0xbeda5019	-0.42639235
20	0xbef92494	-0.4866072
21	0xbe4a65e6	-0.19765434
22	0xbf00a25a	-0.5024773
23	0xbc2684d6	-0.0101635065
24	0x3d8127d9	0.063064285
25	0xbe1cf240	-0.15326786
26	0xbf31012a	-0.691424
27	0xbd0ecea8	-0.03486505
28	0xbee6ef90	-0.45104647
29	0x3e6ca5f5	0.23110183
30	0x3e1f330e	0.1554682
31	0xbcaefbfc	-0.02136039
32	0x3e9aaf22	0.3021174
33	0xbe2a573a	-0.16634837
34	0xbf13abe5	-0.57684165
35	0xbf2f0b7d	-0.68376905
36	0x3ea33951	0.31879666
37	0x3edd54d4	0.4322878
38	0x3b02caf8	0.0019957405
39	0x3e58621c	0.21131176
40	0x3e0c73f1	0.13716103
41	0x3ed720dc	0.42017257
42	0xbea068fb	-0.31330094
43	0x3d98b517	0.07456415

Detokenizer.cat_recons.5.bias f4 [11]
0	0x3db1d7c7	0.086837344
1	0x3ea07be7	0.3134453
2	0x3e257706	0.16158685
3	0x3ed1376a	0.4086259
4	0xbeab1a94	-0.33418715
5	0xbf0eb6e0	-0.55747795
6	0x3e970606	0.29496783
7	0xbec04d76	-0.37559098
8	0x3ec46d52	0.38364655
9	0xbe644c20	-0.22294664
10	0xbeea9ef8	-0.4582441

Detokenizer.cat_recons.6.weight f4 [11, 4]
0	0x3f07f98a	0.5311514
1	0xbe94013c	-0.28907192
2	0x3d5d2165	0.053986926
3	0x3e941515	0.28922334
4	0xbf328df4	-0.69747853
5	0xbe6cc818	-0.23123205
6	0x3e87aa11	0.26496938
7	0x3eae7309	0.3407214
8	0xbe96e0be	-0.2946834
9	0x3e970e7d	0.2950324
10	0xbf41a9b0	-0.7564955
11	0x3e2de406	0.16981515
12	0xbece07bb	-0.40240273
13	0x3e9346b6	0.28764886
14	0x3e5abf02	0.21361926
15	0xbdff7d73	-0.124750994
16	0xbdfa015d	-0.12207291
17	0xbe7b7ba4	-0.24558884
18	0xbecfc4a2	-0.40579706
19	0x3f15cb32	0.58513176
20	0xbe95a1c2	-0.29224974
21	0x3e84e77b	0.25957856
22	0xbe6d64bc	-0.23182958
23	0xbf098c2d	-0.53729516
24	0xbf821627	-1.016301
25	0x3e5edf1f	0.21764801
26	0xbe8c182e	-0.27362198
27	0x3ef691ee	0.4815821
28	0x3e711420	0.23542833
29	0x3e68fcea	0.22752729
30	0xbe5cb72b	-0.21554248
31	0x3df20474	0.118172556
32	0x3e11c457	0.14235054
33	0xbeb06df1	-0.3445888
34	0x3d6ad553	0.057332348
35	0xbf0823b6	-0.5317949
36	0xbf1b2b0b	-0.60612553
37	0xbe3c0983	-0.18363003
38	0xbed1c28e	-0.40968746
39	0xbf08f0b6	-0.53492296
40	0xbd55e53c	-0.052220568
41	0x3e9d881b	0.30767903
42	0x3e424de0	0.1897502
43	0xbe0275b3	-0.12740211

Detokenizer.cat_recons.6.bias f4 [11]
0	0xbe77a6a2	-0.24184659
1	0x3e8e6eca	0.278189
2	0xbe69b11e	-0.22821471
3	0xbd93b564	-0.07212332
4	0x3ddc7735	0.107649244
5	0xbe935127	-0.28772852
6	0xbe56d4c9	-0.20979609
7	0x3ece8b98	0.40340877
8	0x3de99d56	0.114069626
9	0x3e420548	0.18947327
10	0x3ea5fab1	0.32417825

Detokenizer.cat_recons.7.weight f4 [10, 4]
0	0xbeb13baa	-0.34615833
1	0x3e9ff792	0.3124357
2	0x3ea411c4	0.32044804
3	0xbed71d96	-0.4201476
4	0x3ebd83fc	0.3701476
5	0xbe056653	-0.13027315
6	0xbf4776f8	-0.77915907
7	0xbeb66ff0	-0.35632277
8	0x3def654c	0.11689243
9	0xbe8aead1	-0.27132276
10	0xbeb0230b	-0.34401736
11	0x3ee349e7	0.4439232
12	0x3f6258ea	0.8841692
13	0xbe6a1a13	-0.22861509
14	0x3f0ad074	0.54224324
15	0x3ec67302	0.3875962
16	0x3ddf6d41	0.109095104
17	0xbeb2ca3b	-0.34919915
18	0x3f180880	0.5938797
19	0xbd3c7fac	-0.046020195
20	0xbf06e778	-0.52696943
21	0x3de12ea4	0.10995224
22	0xbe0cb120	-0.13739443
23	0x3df3250b	0.118723
24	0x3f2fa816	0.68615854
25	0x3e832054	0.25610602
26	0xbd0fdaa0	-0.035120606
27	0x3e9db700	0.3080368
28	0x3f0245e5	0.508879
29	0x3e2251f7	0.1585158
30	0x3e1a8408	0.15089428
31	0xbec53241	-0.38514903
32	0x3c10230f	0.008797421
33	0x3f1318bc	0.57459617
34	0xbdd116cf	-0.102094285
35	0xbe283e76	-0.16430077
36	0x3ef39b57	0.47579452
37	0xbe168f65	-0.14703138
38	0x3ec047cd	0.3755478
39	0xbe55b552	-0.2086995

Detokenizer.cat_recons.7.bias f4 [10]
0	0xbe9131e1	-0.28358367
1	0xbda70fc5	-0.08157305
2	0xbe65599f	-0.22397469
3	0x3e337219	0.17523994
4	0x3e9e4627	0.30912897
5	0xbe97a91f	-0.29621217
6	0xbea829e6	-0.32844466
7	0xbe9badd5	-0.3040606
8	0xbef355c9	-0.47526386
9	0x3edd8d3f	0.43271825

Detokenizer.cat_recons.8.weight f4 [10, 4]
0	0x3f179d7f	0.59224695
1	0xbe22f87f	-0.15915106
2	0xbed2b3ef	-0.41152903
3	0x3ec5ef28	0.38659024
4	0x3e24295f	0.16031407
5	0x3ca6eaee	0.020375695
6	0x3f28bd6c	0.65914035
7	0xbe91cf03	-0.2847825
8	0xbf0d8fa5	-0.5529731
9	0xbe0339a9	-0.12814964
10	0xbeec068e	-0.4609875
11	0x3e112a55	0.14176305
12	0x3e70127d	0.23444553
13	0xbf04d252	-0.51883423
14	0x3eabcfec	0.3355707
15	0x3e225292	0.1585181
16	0xbe28668f	-0.16445373
17	0x3edebf49	0.43505314
18	0xbec2c74f	-0.38042685
19	0xbf0626a7	-0.5240273
20	0x3f54bf85	0.83104736
21	0xbe7c4c72	-0.24638537
22	0x3ed775fd	0.42082205
23	0xbdfc2490	-0.12311661
24	0xbf00919a	-0.5022217
25	0x3e97aba0	0.29623127
26	0x3da05b34	0.078298956
27	0xbd592750	-0.053016007
28	0x3f13598c	0.5755851
29	0x3ead4c4b	0.3384727
30	0xbe64c151	-0.2233937
31	0xbe712588	-0.23549473
32	0x3f3e97ea	0.7445055
33	0x3ed4c72a	0.415582
34	0x3ed99dab	0.42503104
35	0x3ede15fd	0.4337615
36	0xbe0a9432	-0.13533095
37	0x3ea57a26	0.32319754
38	0xbd310c0b	-0.043224376
39	0x3df3c304	0.11902431

Detokenizer.cat_recons.8.bias f4 [10]
0	0xbde65302	-0.11246301
1	0x3efc7451	0.49307492
2	0xbe012fe6	-0.12615928
3	0xbeb59276	-0.35463303
4	0x3e86280b	0.26202425
5	0x3d7319e4	0.059350863
6	0xbd52fad0	-0.051508725
7	0x3db2b294	0.08725467
8	0xbee26c1d	-0.4422311
9	0xbe81b738	-0.25335097
