tabsyn/vae/ckpt/default/major_only/encoder.pt (torch, 23664 bytes, 33 tensors)

Tokenizer.weight f4 [15, 4]
00000000: 44b5 0f3e 2c72 8ebe f568 ae3b 2728 d0be
00000010: 80a8 44be fbbb 7dbe ed54 403e ba35 acbd
00000020: 9152 b73d 2788 013d 75ac 09be 6b42 963d
00000030: 1f5d 933d 39ff 1ebe d973 f6bd f841 2b3e
00000040: 1413 f73d c389 a1bd ce97 42be 58cb be3d
00000050: 9405 f23d 4a02 ce3d d330 f03d 1304 67be
00000060: 9b48 0d3c 85dd dbbd 707a bc3e f6cc 673d
00000070: 0504 3f3e ad12 823e d02c 4f3e d7af fcbd
00000080: 3a79 7cbe 9ba9 5ebe 6df7 463e f9a2 7abe
00000090: eb1c 83be ef45 95be 320d 83be ebb2 d53d
000000a0: 0ccb 4ebe d8d5 8dbe 548e ee3e 2928 89be
000000b0: 33f9 953b b23d bbbe 4217 81be 87b5 eebd
000000c0: c1a2 97be cc2a c9be 0414 9abe d35b 913d
000000d0: cbb4 72be c887 00be a7e5 a23d 1166 2abe
000000e0: f740 39be 108c 6c3e 1b7f 9bbe 5e77 8bbd
0.14033991 -0.2782148 0.0053225704 -0.40655634 -0.19204903 -0.2477874 0.18782397 -0.08408685
0.08951295 0.031623986 -0.13444693 0.07336887 0.07195496 -0.15527047 -0.12033815 0.16724384
0.12064186 -0.07887604 -0.19003221 0.093161285 0.1181747 0.1005903 0.117280625 -0.22560148
0.0086232675 -0.10735611 0.36812162 0.05659195 0.18653877 0.25404873 0.20231938 -0.12338226
-0.2465562 -0.21744387 0.19430323 -0.24476232 -0.25608 -0.29154918 -0.25596005 0.104345165
-0.20194644 -0.27702212 0.46592963 -0.26788452 0.004576826 -0.36570507 -0.25213057 -0.11655717
-0.2961636 -0.39290464 -0.30093396 0.07097592 -0.2370178 -0.12551796 0.07953959 -0.16640498
-0.18091188 0.23100305 -0.3037041 -0.06809877

Tokenizer.bias f4 [23, 4]
00000000: 97e5 e2be 8624 b33e 696b acbb c9db dc3e
00000010: 1b9f d5be bd34 7fbe 3630 2bbc 8ee8 023f
00000020: 6c40 18bf 7abd 063e 901a 1e3f b7ee b93e
00000030: de4d 12bf 9c67 50bc c49f babe 65e7 af3e
00000040: a3a8 ba3d 983d 8e3c 9512 0bbf 6a3a e4be
00000050: d8de b8be 3c9d 0a3f 42d3 3bbe b17b e43e
00000060: 12c0 88ba 374b 47be 94c1 393e 84a3 8cbd
00000070: 546d 28bf 3a86 48be 85c6 fcbe ee63 103f
00000080: fc22 ba3e 74c9 333c 9c24 fc3e a281 633e
00000090: 3071 21bf d709 3ebe 4513 103f 7ec1 ccbe
000000a0: 985f f8bd 386c f43e fff6 e2be 85ad 083f
000000b0: a313 b63d ea9b 7cbe 4ec3 6b3e 5469 32be
000000c0: d3e5 a0be ffc6 c0be b8e4 693e 7709 e93e
000000d0: 732b 1a3d 7e4f 0e3e 1eef 98be f236 1b3f
000000e0: a9df 923e 79a6 213e 7c98 873e 34a9 4dbe
000000f0: a809 bf3e b913 433e b391 a13e 7076 1cbe
00000100: 4da3 8d3b 48b9 ab3e ee50 7ebe 8b04 873e
00000110: f2c7 77be 50ec b23d 196e dfbe c135 2ebd
00000120: 30b7 eebd 8de3 5dbe a4ee 55be 13de 36be
00000130: 0e80 1fba 3c39 fc3c f827 1e3e 33dc ac3e
00000140: 79a8 083d 7e82 ac3e 7382 12be 5a4f 233e
00000150: 0672 083e ef64 593d 9caf e3be e115 e6be
00000160: a514 64be 5112 eabd cc3f 46be 8498 b53d
-0.44315788 0.34988803 -0.0052618277 0.43136433 -0.4172295 -0.24922462 -0.010448506 0.511361
-0.594733 0.13158217 0.6175928 0.36314937 -0.57150066 -0.012720015 -0.36450016 0.34356228
0.09114196 0.017363355 -0.5432523 -0.44575816 -0.36107516 0.5414617 -0.18342307 0.4462562
-0.0010433218 -0.19462286 0.1814025 -0.06867126 -0.6579182 -0.19582453 -0.49370208 0.5640248
0.36354816 0.010973323 0.4924668 0.2221742 -0.63063335 -0.18558441 0.562794 -0.39991373
-0.12127608 0.47738814 -0.44329068 0.5338977 0.08890464 -0.24668851 0.23023722 -0.17422992
-0.31425342 -0.37651822 0.22841156 0.45515034 0.037639093 0.13897511 -0.29869932 0.60630715
0.28686264 0.1578616 0.26483524 -0.20084077 0.37312055 0.19050492 0.31556472 -0.15279555
0.0043224455 0.33539796 -0.2483556 0.26370654 -0.24197367 0.08736479 -0.43638685 -0.042531732
-0.11656034 -0.21668835 -0.20891815 -0.17858152 -0.000608445 0.03078901 0.15444934 0.3376175
0.033363793 0.33693308 -0.14307575 0.15948239 0.13324746 0.053074773 -0.44469917 -0.44938567
-0.222735 -0.11429275 -0.19360274 0.08866981

Tokenizer.category_embeddings.weight f4 [77, 4]
00000000: af05 2a3e 917c c7be fea6 053e e1e4 223e
00000010: 7f30 86be 3c22 a43d b383 10be 5250 ec3c
00000020: 2764 013f 788a 94bf cbf5 6b3e 7e28 903a
00000030: c23e a5be f368 bcbe 18bf eb3e a2bb 813e
00000040: afc8 9abe d83e a63d 71e6 11bd b6fb 4ebd
00000050: 0912 133e f8a3 ddbc b222 4ebe 8159 483e
00000060: aaf4 033f f7b8 d53e d46e 87be 6323 16bf
00000070: 7d9d 29be 4760 b8be 9c5e d4be 05dc 033f
00000080: 4003 af3d 5f0c a1be c762 383e 8b5a 863e
00000090: 2ee0 9fbe 67d4 84be 9a1c e8bc 3f2c 0cbf
000000a0: 7d83 68be b907 1abe d934 7ebd 33e6 433d
000000b0: 082b 4fbc 0c34 0dbe e2ef 8b3e 9830 05bf
000000c0: b40e a53e 9335 4fbd c6f1 233d f61f 4abe
000000d0: 4630 b0bc feb9 8dbe cae3 6f3f 8010 ddbd
000000e0: b374 d43e 788d 88be 8848 8a3b 8c5e dabe
000000f0: 8b67 f6be 4b58 be3d 8e2d a3be a0d3 52be
00000100: 0314 c6bd c4f2 36be 34d5 aa3d 49df 1dbf
00000110: 6f0f 5b3e b6e9 c6be 1435 6a3e 32fb bc3e
00000120: 7b78 713e 26a8 1abd 4ddb 5abe 450e fa3e
00000130: 66d4 9a3c 1068 9bbe e8a6 b13a 910e a9be
00000140: 9609 c9bd cc08 cfbc af99 ec3d 66ea 75be
00000150: d477 ac3e 12c8 dfbe 3c08 403e 84d0 683e
00000160: fb33 843e 4d55 b4be d285 66bd 7eb9 7f3e
00000170: 2d42 833d e956 7abe f3af 3dbc 60d6 ccbe
00000180: 5fb2 303e 86b9 8e3e 2b40 d7be 676f 813e
00000190: 01ea 8abe b08c 883e f2ee 68be 39d7 82be
000001a0: 0acc b53e c13e b7be e83e 8e3e e353 13be
000001b0: 522a c4bd 0c20 f1bd 17f9 5bbe 571d 44be
000001c0: 989d bc3b 3179 1bbf 92cb 39be defb 9a3e
000001d0: fa55 9f3b aeea a2bb 1bb1 d1bd 58c5 acbc
000001e0: 144c 69be d393 173e bc15 b1be adb4 12bf
000001f0: d6a9 aebd 5728 883d 5b28 a6be b162 9ebe
00000200: 6039 0b3e 4ca6 673f c96f 7b3c 163f a6bd
00000210: a5ba 8b3e 797b fc3e 1e6f b43d cdab 3c3c
00000220: ae55 f5be 849c 05be 9e5c 053e dc13 62be
00000230: 8ac4 8f3e 5fc9 21bf 0f0d 8c3f da4e 79be
00000240: 18f5 2c3c deb5 67bc c359 343f 65ea 08bd
00000250: 1a32 25be c829 213d 1b5b 24be a1c8 9f3e
00000260: c5ee ab3e ccbd 343d 6369 d1bd 3c60 d5bc
00000270: acd7 8a3e da92 5e3f 2eba d83e 5148 b5be
00000280: 5ed8 61bf 6dbb 993f a7cb 6bbf 7e30 853c
00000290: 98a5 063f b155 1b3f 274a 86bf c48b 6f3e
000002a0: e83d 3e3e 192d ce3d 8539 5e3d ba90 76be
000002b0: 8409 523d f8bb 8cbc d27d 0bbe 4d4a 60bf
000002c0: 5bc2 f43e 3cef bf3e 4dc1 533d 4f64 75bd
000002d0: 256b bf3e b7b8 193d c1c5 75be b37a 2d3d
000002e0: 9543 e93e edc7 f7be 157d 603e 259f 263e
000002f0: 3283 63be 5b49 093e 13fd 223d 1176 20be
00000300: 9903 823e a417 d93e f032 10bf ad7d a5be
00000310: 0537 14be 54ee 0b3e deba 5a3e ef53 9dbe
00000320: 91d4 c93d 6151 173d 98c0 76be 7588 793d
00000330: 3b68 8a3e 1803 933e f529 aa3d 55a0 1dbf
00000340: 1ac3 8cbf b132 623f 06c5 8bbf d587 863f
00000350: 8f05 ce3e d10e 9dbe 0726 063e aaef 903e
00000360: e6bb ed3e c98e d93e 2a9d 073f 9a6f 5c3e
00000370: 7a1a b4be 1392 233f 261a f2be aed0 dabe
00000380: 243c 2f3e 5c28 0abf cca8 12bb 9c7c 14bd
00000390: 7be1 94be 9b7d b03e b1a5 983d e53a 8cbe
000003a0: e2e7 733e bc3d 8bbe ef51 133e 8b41 a5bd
000003b0: 5ab5 9fbe d6bb 553e 1d92 05be af78 d73e
000003c0: 75cd 89be 5e0a 24bf 0f82 383d 82d3 e13e
000003d0: 224b 90be 95a5 debe 6071 053f 7d89 c73e
000003e0: 94a7 9cbf 98c2 673f 97b0 81be 9423 143f
000003f0: c5df 67bd f6d1 323e dcac 193e 4181 273e
0.1660373 -0.38962224 0.13051984 0.15907623 -0.26208875 0.08014342 -0.1411274 0.028846893
0.50543445 -1.1604757 0.23042981 0.0010998396 -0.32274443 -0.3679882 0.4604423 0.25338465
-0.30231234 0.08117455 -0.035620157 -0.05053302 0.14362349 -0.027055725 -0.20130423 0.19565393
0.515452 0.4174268 -0.26451743 -0.58647746 -0.16563983 -0.36010954 -0.4147843 0.515076
0.08545542 -0.3145475 0.1800643 0.26240954 -0.31225723 -0.259433 -0.02833395 -0.54755014
-0.22706409 -0.15042008 -0.06206212 0.047826957 -0.012644537 -0.13789386 0.27331454 -0.52027273
0.3223778 -0.0505882 0.040025495 -0.19738755 -0.021507394 -0.27680963 0.93706954 -0.10794163
0.41495284 -0.26670432 0.004220072 -0.4265026 -0.48125872 0.09294184 -0.31870693 -0.20588541
-0.09671786 -0.17866045 0.083414465 -0.6166883 0.21392606 -0.38850182 0.2287181 0.36910397
0.23581116 -0.037758015 -0.21372719 0.48839012 0.018900108 -0.3035283 0.001355377 -0.33018926
-0.098162815 -0.02527275 0.1155275 -0.24015197 0.33685172 -0.4370733 0.18753141 0.22735792
0.25820908 -0.3522133 -0.056279965 0.24973103 0.064091064 -0.24447216 -0.011577594 -0.40007305
0.17255543 0.27875918 -0.42041144 0.25280306 -0.27131656 0.26669836 -0.227474 -0.25554827
0.35507232 -0.35790065 0.2778237 -0.14387469 -0.095783845 -0.117736906 -0.21481739 -0.19151817
0.0057560913 -0.607318 -0.18144062 0.30270284 0.004862544 -0.0049718237 -0.10238858 -0.021090195
-0.22782928 0.14802484 -0.34586895 -0.5730694 -0.085284874 0.06648319 -0.32452664 -0.3093467
0.13596106 0.90488124 0.015346476 -0.081175014 0.27290836 0.49312952 0.088102564 0.01151557
-0.4791693 -0.13047987 0.13023612 -0.22077888 0.28079635 -0.6319789 1.0941485 -0.24346486
0.010556482 -0.014142482 0.70449466 -0.03342666 -0.16132393 0.039346486 -0.16050379 0.31207755
0.33580604 0.044126317 -0.10225179 -0.026046865 0.2711767 0.8694283 0.42329544 -0.35406736
-0.88220775 1.2010323 -0.92107624 0.016258474 0.52596426 0.6067763 -1.049138 0.2339316
0.18578303 0.100671954 0.054254074 -0.24078646 0.051278606 -0.017179474 -0.13622215 -0.87613374
0.4780453 0.3748721 0.051698018 -0.059910115 0.37386432 0.037529673 -0.24001218 0.042353343
0.45559373 -0.4839472 0.21922715 0.16271646 -0.22218016 0.13406889 0.03979213 -0.15670039
0.2539337 0.4240085 -0.56327724 -0.32322446 -0.14474113 0.13665134 0.21360347 -0.307281
0.09854997 0.036942843 -0.24096906 0.06092115 0.27032647 0.28713298 0.08308784 -0.6157277
-1.099704 0.883586 -1.0919502 1.0510203 0.40238616 -0.30675367 0.13100444 0.2830785
0.46432418 0.4249175 0.5297419 0.21526948 -0.3517645 0.63894767 -0.47285575 -0.42737335
0.17112786 -0.53967834 -0.0022378443 -0.03625165 -0.29078278 0.3447083 0.07453478 -0.27388683
0.23818925 -0.27195537 0.14386724 -0.08069142 -0.31193048 0.20872435 -0.13044019 0.42084262
-0.26914564 -0.6407832 0.04504591 0.4410668 -0.28182322 -0.43485704 0.5212612 0.38972083
-1.2238641 0.905313 -0.2533004 0.5786679 -0.056609888 0.17462906 0.15007347 0.163579

VAE_Encoder.layers.0.attention.W_q.weight f4 [4, 4]
00000000: 7583 fdbe 5036 d53e 7e65 6c3e 3ee4 083d
00000010: 98a1 d0bc 3222 f3bd 2b6e 80be 09c5 27bc
00000020: 2a35 22bd 3979 71bc e983 dcbd 1024 173e
00000030: fbc2 34be f4cc afbe 6376 ab3e 6e1f b33e
-0.49514356 0.41643 0.23085591 0.033420794 -0.025467679 -0.118717566 -0.2508405 -0.010239848
-0.039601482 -0.014738374 -0.10767347 0.1475985 -0.17652504 -0.34336054 0.3348876 0.34984916

VAE_Encoder.layers.0.attention.W_q.bias f4 [4]
00000000: cdce 85be 926a 3cbe 34e1 df3d bc44 233e
-0.2613434 -0.18400028 0.10931626 0.15944189

VAE_Encoder.layers.0.attention.W_k.weight f4 [4, 4]
00000000: f8bc a53e f3fa 483e 4a83 373d 1a5e 923d
00000010: 32b6 023f fc79 80bd f89e 093e d8c9 473e
00000020: 6244 a93e 84dd 87be 5c36 4ebe 67da 5fbe
00000030: 14c0 ab3e 1469 b3be 2d32 5bbe 9902 0fbf
0.32370734 0.1962698 0.04480294 0.07146855 0.5105926 -0.06273267 0.13439548 0.19510591
0.33059984 -0.2653619 -0.20137924 -0.21860658 0.3354498 -0.35041106 -0.2140586 -0.5586334

VAE_Encoder.layers.0.attention.W_k.bias f4 [4]
00000000: a9eb 0839 8e7d cd38 9589 c5b5 2163 0db9
0.00013057761 9.798548e-05 -1.4717685e-06 -0.00013483736

VAE_Encoder.layers.0.attention.W_v.weight f4 [4, 4]
00000000: d16f 72bd 695e d53d 91b8 663d 5987 823c
00000010: 0ef6 79bd 2599 d63d f7a0 653d 3c3b 7d3c
00000020: 5b04 80bd 5a6a cf3d 26b3 5b3d 1fa5 2d3c
00000030: 01dd 65bd bd88 d93d 452a 733d 09a9 153c
-0.059188668 0.10418398 0.05632836 0.01593368 -0.06102567 0.10478429 0.05606171 0.015456017
-0.06250831 0.10127707 0.053637646 0.01059845 -0.05611897 0.10621784 0.059366483 0.009134539

VAE_Encoder.layers.0.attention.W_v.bias f4 [4]
00000000: 3a2a 2fbe 325f f53c fb29 013e b602 65bd
-0.17105952 0.02995262 0.1261367 -0.05591079

VAE_Encoder.layers.0.linear0.weight f4 [128, 4]
00000000: a8dd a1be 873d 09be 6088 533e da23 263e
00000010: 8534 86be 942a 8e3d 5e53 833e f179 253e
00000020: 42d7 acba 1476 a0bd cd0c 133e 083e b9be
00000030: 4629 243f f9ff edbe 03cb 37be 452a a9bd
00000040: 079f c9be be95 61be dab0 f83e 1c3f 653e
00000050: a03a 3bbd 2475 8c3d 1713 ca3e c662 b93e
00000060: 4de0 a4be d40b c03e 253b fbbe b023 85be
00000070: d941 8c3d aa5e 31be 48e1 d1bd ca5c 8bbe
00000080: fa17 8bbc 8785 b8be a5d4 cc3e 25a2 923e
00000090: 653f 46be 85d0 5b3e c4c5 91be b8e5 fbbd
000000a0: 8fee c6bd 05f4 d83d b6a4 83be 6e86 e43e
000000b0: f8bb e63d 8721 f1bd e010 01be b153 e9be
000000c0: 9898 bcbe 1168 d8bb a0d6 8a3e 8019 eabe
000000d0: 8c96 09be 5c0d ef3d 068b 02be df8e 0e3f
000000e0: 7c5e b8bd 793c c0be b384 c2be a2c8 0a3e
000000f0: 7799 e53e 1468 36be e6c4 2bbf 6e3e 9b3e
00000100: 41ae 5d3e 2640 bbbe c048 a23e 0a18 fe3e
00000110: 0541 283f 8496 b8be 1f03 a53e c3e5 bdbe
00000120: d655 0e3f 8e6d f0be d8f5 dbbe 2971 8d3e
00000130: 594a 84be e0cb e63c d750 633d 30be f6be
00000140: 4d78 083f db57 96be 71c1 22be 7a3e 4abe
00000150: 44f5 ab3d 4e9a 983e 7c7e ef3e 0dbe f5bd
00000160: da18 9d3e a8af d03e 1a0a e5bd e8ed 91bd
00000170: 8fba 063f f22e 9e3e 6a48 86be 1383 a0be
00000180: dd06 c53e da56 a3be 8960 81be 762b ac3e
00000190: 65d4 fdbd 1216 f5be d6dd 063f 90f7 68be
000001a0: faab a83d 5bde 06bf 9e64 813e 8b5f a9bd
000001b0: 7c1e 99be 0105 5d3e aa75 8b3d 7068 d13e
000001c0: b900 a03e d7c0 883b a342 a3bd bc90 be3e
000001d0: fef5 83be 17e6 b13e 6dc6 92be 87f9 a3be
000001e0: 9d55 b13e d84a c6be f93b 193f 387f 87be
000001f0: 30ea 43be 7052 babd 204b 06bd 8015 c8bc
00000200: d8d9 4a3e ae9e c1be 8a24 063f dea0 6abe
00000210: b2fd 763e a958 853e e0d5 d9bc 244b 4fbe
00000220: 3c3a 9cbd d8b3 a7bd 48e9 bb3d 4bb8 bc3e
00000230: 8771 db3e 74eb c5be a3ab e83e b701 b0be
00000240: d37d 85be 8d28 a8be 50ee 613e 5fc3 02bd
00000250: 5734 623e db81 a7be a43f 8dbe e245 a43e
00000260: 5a05 cbbb 4cd5 f53e 0ea7 0c3d 8ef8 a5be
00000270: df09 983d 0bf4 00bf 3017 cabd 410b c6be
00000280: 6ca5 3cbe 241c 27be a449 44be 01df b3be
00000290: a8b6 c83d b377 b63d aa61 06bf 387d 843d
000002a0: ecf2 e23e 3b76 2bbe 9cdc 93bd 3e7b 23bf
000002b0: 2b40 7e3e d45d 343e e24e 9a3e 87f7 6cbe
000002c0: 5069 a83e e4e7 7abe f350 853d 2d6a ff3e
000002d0: 763b ebbe dd6d 003f 5c6e 8c3e 6aa0 d93e
000002e0: 55a0 c6be 09ab 723e 70a4 b7bd 7a8e 54be
000002f0: 870b ed3e 998d bb3e 879a f9be 930d 093e
00000300: e4bc aebe 64b4 37be 38a9 a3be b4b5 6cbe
00000310: 5ace cbbe 0fb7 87be b25c 1e3e 7ddc dabe
00000320: c524 c03d 6f34 f0be 3f95 d4be a382 2fbe
00000330: 8204 a1bd a34e a43e 44e8 2fbe 14b7 583e
00000340: 3b01 a63e 450b 2dbe 7a4d 0abd d6c8 e6be
00000350: 3df0 de3d 35f2 c4ba e055 993e ff7e 30be
00000360: 534d 7ebe 52af 0a3e 465e 9cbe c38e b23c
00000370: 9904 88be ee56 523d 9478 eb3e 9aeb d3bd
00000380: 7228 1b3d a9e5 e93e f889 943d c3c2 d73e
00000390: b0e8 a43d a15d d03e 0ae2 98be 3161 a63e
000003a0: 677d a6bc b676 b73e cd55 03be 3f5a 323e
000003b0: 5b2f e23e adfd 9c3d f742 11bf 6d92 45be
000003c0: fed5 dbbe daaf d43e 94c9 3bbe 611f c2be
000003d0: 53ac 1d3e f5a4 e6be 1aa4 8d3d e8ae 7a3e
000003e0: 2f8d abbe 488c 12bf 4e65 17be 12f2 a03e
000003f0: feb1 e33e 7d77 3d3d df91 103f a521 d43d
-0.31614423 -0.13402377 0.20657492 0.16224614 -0.26211944 0.06941715 0.25649542 0.16159798
-0.001318671 -0.078350216 0.14360352 -0.3618014 0.6412548 -0.46484354 -0.17948537 -0.082600154
-0.3937914 -0.22029778 0.48572427 0.22387356 -0.045710206 0.0685828 0.3946769 0.3620817
-0.32202378 0.37509024 -0.4906856 -0.2600379 0.06848497 -0.17321268 -0.10248047 -0.2721923
-0.016979206 -0.36039373 0.40005985 0.2863933 -0.1936012 0.21466263 -0.28471196 -0.12299675
-0.0971347 0.10593418 -0.25711602 0.44633812 0.11266321 -0.11773973 -0.12604094 -0.45571664
-0.3683517 -0.0066042026 0.2711687 -0.4572258 -0.13436335 0.1167247 -0.12748346 0.55686754
-0.090023965 -0.37546137 -0.37991866 0.13553098 0.44843647 -0.1781314 -0.6709732 0.30321068
0.21648504 -0.3657238 0.3169613 0.49627715 0.6572421 -0.36052334 0.32228944 -0.37089357
0.55599725 -0.46958584 -0.42961 0.27625397 -0.25837973 0.028173387 0.055497017 -0.48191977
0.53308564 -0.29363903 -0.15894105 -0.19750395 0.0839639 0.29805225 0.46776187 -0.1199914
0.30683023 0.40759015 -0.11183567 -0.07125455 0.52628416 0.3089519 -0.26227123 -0.31350002
0.384818 -0.319022 -0.25268963 0.33626908 -0.12394027 -0.478684 0.52682245 -0.22750688
0.08235927 -0.5268304 0.25272077 -0.082701765 -0.2990607 0.2158394 0.06809552 0.40899992
0.3125055 0.004173379 -0.07971694 0.372198 -0.25773615 0.34745857 -0.28667012 -0.32026312
0.3463563 -0.38728976 0.59857136 -0.26464248 -0.19132304 -0.09097755 -0.03278649 -0.024424314
0.19809663 -0.37816375 0.52399504 -0.22912928 0.24120215 0.26044205 -0.026591241 -0.20243508
-0.07628295 -0.08188599 0.09175354 0.36859354 0.42860052 -0.386562 0.45443448 -0.34376308
-0.2607256 -0.32843438 0.22063565 -0.0319246 0.22090279 -0.3271626 -0.27587616 0.32084566
-0.0061957063 0.48014295 0.034339003 -0.32416195 0.07423758 -0.5037238 -0.09867704 -0.3868046
-0.18422478 -0.16319329 -0.19168717 -0.35131076 0.09800464 0.089095496 -0.52492774 0.06469196
0.4432596 -0.1674432 -0.07219812 -0.6385993 0.24829166 0.17613918 0.30138308 -0.23141299
0.32892847 -0.24502522 0.065095805 0.49885693 -0.45943803 0.5016764 0.27427948 0.425052
-0.387942 0.23698057 -0.08966911 -0.20757475 0.46297857 0.36631468 -0.48750708 0.13384084
-0.34128487 -0.17939907 -0.3196504 -0.23116189 -0.3980587 -0.2650685 0.15465048 -0.42746344
0.09382013 -0.46915004 -0.41520116 -0.17139678 -0.07862188 0.32091245 -0.17178446 0.21163589
0.32422814 -0.1689883 -0.033765294 -0.450751 0.108856656 -0.0015025797 0.2994833 -0.17235945
-0.24834184 0.13543442 -0.30540675 0.02179659 -0.26566008 0.051352434 0.4599043 -0.10347672
0.03788037 0.4568303 0.07252878 0.4214078 0.08052194 0.40696433 -0.29859954 0.32496026
-0.020323468 0.35832757 -0.12825699 0.17417239 0.44176754 0.07665572 -0.56742805 -0.19294138
-0.429367 0.41540414 -0.18338615 -0.37914565 0.15397768 -0.45047727 0.069160655 0.24480784
-0.33506152 -0.572453 -0.14784738 0.31434685 0.44471735 0.04625653 0.5647258 0.1035798

VAE_Encoder.layers.0.linear0.bias f4 [128]
00000000: 5ee6 4ebe a1b9 6bbe fbf0 2d3e aa0a 65be
00000010: f9d0 0bbe b37b bebd 9ec1 e6be 7d29 b53d
00000020: 1ea6 e03e 6aa0 3d3d b235 92be fbef 2dbe
00000030: af70 3abe 32a9 993e 37d5 82be a10d 62be
00000040: 4492 9c3c c357 363e 1a6a 2dbe 22b7 6dbd
00000050: 8bd2 f03e 1ccd e2be 1913 fabb 5810 a4bd
00000060: ac34 cdbe 5a30 da3d 7dd3 8c3e 1e09 4fbd
00000070: b48d ea3e a7d7 e83e 9ffe d53e 22fc f8be
00000080: 371f c63e 55a7 e63e 233c 083f 1564 933e
00000090: a2aa 003e e59c d5bc e8d2 fdbd 07a6 48be
000000a0: 8043 7bbd 3aae 9fbb 4d54 e4bd c053 873e
000000b0: 53c0 59be b40d f93e 54bf 8a3e 38f8 0abe
000000c0: 58e7 bfbe aa3d dbbe e466 0bbe 0907 d6bd
000000d0: 5a33 c13d 5e5c 1a3d 53d9 ba3e 8de0 30be
000000e0: e080 a03e ed7e c1be f8c6 3c3e e487 85bb
000000f0: da82 e73e 82e1 93be 5058 2fbd e623 853e
00000100: 709c 25bd b24d 5fbe 4fa9 afbd 5dd4 cfbc
00000110: a539 293d ba5b 8f3e 29d1 acbe e73a 983e
00000120: c060 313d c937 acbd 437b 8d3e 1c51 d9bc
00000130: 6858 e3bd 123f 0fbe d02d e13d 4c62 aa3e
00000140: 6ef3 62bc b8b6 d9be 3f77 f73e 4961 b6bb
00000150: 4c73 e6be e5af 96bd 060c a23e d71b f83e
00000160: 822e 3d3c d20b e8be dc54 c63c 6f02 92be
00000170: 4928 73be 99ad ad3e cbab 8abe fe98 173e
00000180: d504 543d 44f5 1e3e 2ec5 b23e e609 f73e
00000190: 22ab 833e fd58 243e 70f0 b43b 15b6 7dbd
000001a0: 8c09 473e 2e38 e63d e01f a83e 9d80 cabe
000001b0: 407e 7fbc 588b 47be 72ab 533d 6bd1 bb3e
000001c0: c5c4 653e c5f2 9abe 4d46 31be fdc4 cc3e
000001d0: 1ec2 ebbe e8b0 ad3d d84e d43d 9c54 c93e
000001e0: e92d ae3e 682c 8ebe e553 c1be 1675 edbe
000001f0: 52a6 e43e 97ef 1bbe feb4 5fbe 4e96 843e
-0.20205066 -0.2302003 0.16986458 -0.2236735 -0.13653935 -0.093009375 -0.45069593 0.08845804
0.43876737 0.04629556 -0.2855659 -0.16986077 -0.18207048 0.30011898 -0.25553295 -0.22075512
0.019112714 0.17806916 -0.16935006 -0.058035977 0.47035632 -0.4429711 -0.007631671 -0.0801093
-0.40079248 0.106537536 0.27505103 -0.050545804 0.45811236 0.4547703 0.41795823 -0.48629862
0.3869569 0.4504954 0.5321676 0.28787294 0.12565091 -0.02607579 -0.12393743 -0.19594584
-0.06134367 -0.0048730643 -0.111488916 0.26431084 -0.21264772 0.48643267 0.27099097 -0.1357125
-0.3748119 -0.42820483 -0.13613468 -0.104505606 0.09433623 0.037685744 0.3649393 -0.1727316
0.31348324 -0.3779215 0.18435276 -0.0040750373 0.4521702 -0.28882986 -0.04280883 0.2600395
-0.040432394 -0.21806982 -0.08577215 -0.025369817 0.04131474 0.2799967 -0.33753327 0.2973244
0.04330516 -0.08409078 0.27633104 -0.026527934 -0.111008465 -0.13988903 0.10995066 0.3327812
-0.0138519835 -0.42522216 0.48333165 -0.0055657965 -0.4500984 -0.07357768 0.31649798 0.4845874
0.011546733 -0.45321518 0.024210386 -0.28517482 -0.23745836 0.33921507 -0.27084193 0.14804456
0.05176242 0.15523249 0.3491606 0.4824974 0.257165 0.16049571 0.0055218264 -0.061941225
0.19437236 0.11241184 0.3283682 -0.3955125 -0.015594065 -0.19486749 0.051677175 0.3668321
0.22438343 -0.30263343 -0.17311974 0.3999404 -0.46046537 0.08481008 0.10366601 0.39322364
0.34019402 -0.27768254 -0.3775932 -0.46378392 0.44658142 -0.15228115 -0.21846387 0.25895923

VAE_Encoder.layers.0.linear1.weight f4 [4, 128]
00000000: d26a 983d 6bee 22bd 9f9a ab3d 3605 0f3d
00000010: 3b92 dd3c fb38 87bd d9c7 103e 16af 6b3d
00000020: 9c3e 46bc 84a2 9fbd f131 b03d 20d3 8abd
00000030: ffaf 7bbd 544e c8bc 2db1 423d 31d0 033e
00000040: 682e dc3b e7f5 8abd 2576 b83d 9e00 a63b
00000050: ed45 0ebd ceda 8ebd 210c 963d c114 cbbd
00000060: 5277 b03d f642 f8bd da56 4bbd af3e 9dbd
00000070: 1bf9 db3c 7bc7 283d 2bdf 1cbe a11a 2cbc
00000080: 8fec a2bc 1c89 86bd a7d9 7fbd c115 263d
00000090: c39b 043d 5073 c4bc 6706 c03d af68 b43d
000000a0: 5cef 1dbd 930b ecbd 8ae3 4b3d 8cb3 81bc
000000b0: 08bc 54bd 9ef2 55bd 6927 32bd 3c61 e23c
000000c0: ffd6 adbd deaf 44bd 743a 163e 259d 1fbe
000000d0: 8ae4 96bc 08c8 993a 2d91 8dbd eee6 113e
000000e0: acfd 903d eb66 bdbc 237f 193c c2b4 323d
000000f0: 5873 14bd 9a6f 38be b3d3 8e3c 1fa9 fbbd
00000100: 87c5 74bd 6d22 853d 0265 ffbc c9af 85bd
00000110: 6ac2 e53d 83b5 95bd ecb5 c43d 8f32 c33d
00000120: c2b6 a6bd fc6a a03d 39b1 a3bd 1181 5e3d
00000130: a046 a2bd 275b a53c 2cd3 b7bc 7b79 833d
00000140: 97aa d3bc cc92 30bc 5d6c ddbc 1e4e ed3d
00000150: 7ddc f5bd 5246 b13d 4aa8 18be 1d55 53bd
00000160: 8ce1 84bd 76bb 103e b300 fa3c 9f84 50bb
00000170: ea90 3cbd 4f6d c3bd f6f8 b33d dcf0 5ebc
00000180: 6a63 ae3c 628c 3a3c 3ba1 f43a c5eb c83c
00000190: 2036 15bd 2fc3 e5bd cdc1 dcbd 3546 c4bc
000001a0: 2e09 0a3d 4047 14be c685 c1bd 8d1e 12be
000001b0: 2d21 9cbd 19a4 11be b363 1bbe 5973 5d3d
000001c0: c84d 58bd 5393 0b3e c139 603d d01a 013d
000001d0: f4b0 4b3e f995 973c 5d32 7fbc 0943 feba
000001e0: 0c45 b8bc 9304 ffbd 8b13 cebd 9c39 3fbc
000001f0: f90a 96bd 3492 a63d 7969 a63c 29ec 7fbd
00000200: 197b 433d 0542 a03d 7f62 d23d 9c5d bdbd
00000210: 8f7a 183b 3930 9c3d 892c 37bd df96 65bd
00000220: 4265 e03a 8119 d8bb 844b 6a3d 60fe 6e3d
00000230: 76af f13d cc9a 85bc 31c3 0cbe 90c3 1cbe
00000240: b447 9d3c f40f acbd bf6d 0b3d e254 66bc
00000250: 7eab 32bd 4465 373c 4131 fcbc cbb6 df3d
00000260: 80ad 963c 94a6 fe3c b6ec d1bd fa8a 74bc
00000270: 146e 9f3c 23e3 c83c 9879 883c 3051 2c3d
00000280: b049 3c3d 3119 90bd 45b4 79bd 1977 38bd
00000290: befe f53c b91d b73d 3c64 0dbe a855 53be
000002a0: be04 c43d a55d 9cbd d7c3 283e 679b 2dbd
000002b0: 79f3 b43d 5b60 47bc c18f 7cbc 09a6 00be
000002c0: 4a08 023b c348 d53d 706e eebd 848c 1e3d
000002d0: 4ea4 73bd 24c9 b13d 0a28 f1bd 1e19 b8bd
000002e0: 2811 43bd 1f94 6fbc 1d33 64bd fd15 113e
000002f0: c765 e73d 4e07 413e 3130 21be b3a4 a53d
00000300: f89d 8b3d 8224 5e3c e356 0e3d d89f b63c
00000310: f798 cbbd 8cd8 743c 76b7 6abd 0173 d9bd
00000320: 0e3a 3c3c 4fbd c8bd 07e3 31bd 8e16 13be
00000330: d0d4 c4bd 332b 9c3d e7f7 453d 7e85 9e3d
00000340: 9ccd a7bd f7f8 38be 527c b8bd 7b6e b7bc
00000350: 8e32 d43d 41dc 93bd fd34 af3b d903 223b
00000360: 4594 f1bd d166 163d 29de f03d 7297 bf3d
00000370: c5da 5a3d 01df 193d 41b4 ec3c aaf3 f33d
00000380: 3d57 a33d 7b8f c8bd e35b c9bd 131f eb3d
00000390: d46c 1d3e 0a25 dfbd 7072 093d 5e95 a4bc
000003a0: 4c74 653d 725d 1bbd 081e 6bbc 4a93 853e
000003b0: 1587 f93c a34f 4d3e 3692 64bd 6bbf 8dbd
000003c0: 8edc a8bd 4db4 3dbe b6a6 ac3d 7dba dfbd
000003d0: 5479 8cbd 4ed3 d2bc 941d 123d 302d 48bd
000003e0: 4b41 1e3d de7a 873d 4374 dcbc ebaf 07be
000003f0: d3c6 003e db89 5f3d 7e1a 983e 2d01 8c3d
0.07442249 -0.039778154 0.08379101 0.03491708 0.027047267 -0.06602665 0.14138736 0.05754002
-0.012099888 -0.07794669 0.086032756 -0.0677855 -0.06144714 -0.024451412 0.04753225 0.12872387
0.0067193992 -0.067851834 0.09006909 0.0050659915 -0.034734655 -0.069753274 0.07326532 -0.09916068
0.086165085 -0.12122147 -0.049643375 -0.076779716 0.026852181 0.041205864 -0.15319507 -0.010504396
-0.01988819 -0.0656912 -0.06246343 0.04054809 0.03237511 -0.023980767 0.09376221 0.08809029
-0.03855835 -0.11525645 0.049777545 -0.015832685 -0.051937133 -0.05223333 -0.043494616 0.027634256
-0.08488273 -0.048019283 0.14670736 -0.1558729 -0.018419523 0.0011732588 -0.06912456 0.14248249
0.07079634 -0.023120364 0.009368691 0.043629415 -0.036242813 -0.18011323 0.01743493 -0.12288117
-0.05975869 0.06500707 -0.031176094 -0.06527669 0.11218722 -0.07310011 0.09605011 0.09531128
-0.08140327 0.07832906 -0.07992787 0.054322306 -0.07923627 0.020185066 -0.022439562 0.06419655
-0.02583818 -0.010777187 -0.02702921 0.11587165 -0.120049454 0.08655991 -0.14907947 -0.051594842
-0.06488332 0.1413401 0.030517912 -0.003181733 -0.04603664 -0.09542333 0.0878772 -0.01360723
0.021287639 0.011386009 0.0018663773 0.024526486 -0.03642857 -0.11218869 -0.10779152 -0.023959259
0.03370016 -0.14480305 -0.094493434 -0.14269467 -0.07623515 -0.14222755 -0.15174751 0.054065082
-0.052808553 0.13630418 0.05474258 0.03151971 0.19891721 0.01850413 -0.015575972 -0.001939864
-0.022493862 -0.12452044 -0.10062321 -0.01167145 -0.073263116 0.08133355 0.020313965 -0.06248108
0.047724817 0.07825092 0.10272693 -0.0924637 0.002326641 0.07626385 -0.044720206 -0.056052085
0.0017120021 -0.006594837 0.057200924 0.05834806 0.11801045 -0.016309164 -0.13746335 -0.15308976
0.01919923 -0.0840148 0.03404021 -0.014058324 -0.04362058 0.011193577 -0.030785205 0.10923537
0.018393278 0.03108529 -0.10250227 -0.014925713 0.019461669 0.02452237 0.016659543 0.042069614
0.04596871 -0.07036055 -0.060962934 -0.045035455 0.030028697 0.08941216 -0.13807768 -0.20638144
0.09571217 -0.07635049 0.16480957 -0.04238453 0.08835501 -0.012168969 -0.015415133 -0.12563337
0.0019841366 0.10414269 -0.11642158 0.038708225 -0.059482865 0.08680943 -0.11775215 -0.08989166
-0.047623783 -0.014622717 -0.055712808 0.14168544 0.11298709 0.18850443 -0.1574104 0.080880545
0.068172395 0.013558509 0.03475083 0.022293016 -0.09941285 0.014944207 -0.05730387 -0.106176384
0.011488451 -0.09801733 -0.0434294 -0.14364073 -0.09610903 0.07625427 0.04833212 0.07740305
-0.08193514 -0.18063723 -0.09008087 -0.022391548 0.10361205 -0.072197445 0.005346893 0.0024721532
-0.11795858 0.036719147 0.11761124 0.09355058 0.05343129 0.03756619 0.028894546 0.119117096
0.07975624 -0.09792992 -0.09831979 0.11480536 0.15373546 -0.108957365 0.0335564 -0.020090755
0.056019112 -0.037930913 -0.014350422 0.26088935 0.03045992 0.2004991 -0.0558035 -0.06921276
-0.082451925 -0.1852581 0.08430235 -0.10924242 -0.06859079 -0.025735524 0.03567274 -0.04887122
0.038636487 0.06615232 -0.026910907 -0.13250701 0.12575845 0.05457483 0.29707712 0.06836162

VAE_Encoder.layers.0.linear1.bias f4 [4]
00000000: 62df 06bd a496 9bbd a44d ba3c 8f7f 3a3c
-0.03292788 -0.07597092 0.0227421 0.011382951

VAE_Encoder.layers.0.norm1.weight f4 [4]
00000000: cfce 943f 8d8d 8c3f 2bd7 933f eea8 883f
1.1625613 1.0980698 1.1550039 1.0676553

VAE_Encoder.layers.0.norm1.bias f4 [4]
00000000: 056d 68bc d668 43bd 655d 623c ba1d ad3d
-0.0141861485 -0.0477074 0.013816212 0.084529355

VAE_Encoder.layers.1.attention.W_q.weight f4 [4, 4]
00000000: 58d1 a2be 67bb bcbd 1d5b d1bd bee1 063f
00000010: 4783 87be 2d7a a5be c77d f8be a8d8 4dbe
00000020: 947f 09bf c750 aa3e e34f 28be b6d4 d73e
00000030: 2981 79be f447 debd 7e22 b13e ab9d 04bf
-0.31800342 -0.09215432 -0.102224566 0.52688205 -0.26467344 -0.32319775 -0.4853346 -0.20102179
-0.53710294 0.33264753 -0.16436724 0.42154473 -0.24365677 -0.10853568 0.34596628 -0.5180308

VAE_Encoder.layers.1.attention.W_q.bias f4 [4]
00000000: ccfe 023e 035d 55be 8f1d 8b3e 8aa2 c7bd
0.1279251 -0.20836262 0.2717099 -0.09747799

VAE_Encoder.layers.1.attention.W_k.weight f4 [4, 4]
00000000: 86cb f5be 73b9 863e 210d 513d 8f19 db3e
00000010: 52d4 babe 6dbb e23d 870f 123d 9141 f8be
00000020: bb65 7abe 2f4d 91be a1e0 623e a3c0 0e3f
00000030: c73d ea3e 71b3 8f3e 7a6c ccbe 21e0 f2bd
-0.4800684 0.26313362 0.05103791 0.42792937 -0.36490113 0.11070905 0.03565934 -0.48487523
-0.2445287 -0.283792 0.22156002 0.5576269 0.45750257 0.2806659 -0.3992651 -0.118591554

VAE_Encoder.layers.1.attention.W_k.bias f4 [4]
00000000: dbe7 9339 441e 2fb8 a4dc 2939 3906 be39
0.0002821077 -4.175144e-05 0.00016199291 0.0003624426

VAE_Encoder.layers.1.attention.W_v.weight f4 [4, 4]
00000000: fcc0 e03e 0f8e 15be 3618 ee3e 3b55 ff3e
00000010: 45ee 603e 7b14 883d 32ec bd3e c89c 1d3e
00000020: dca0 863e e4d0 dbbd bf6e 993e 5c44 d23d
00000030: 5b51 3cbe 909a 56be aed2 0d3e e072 c1bc
0.43897235 -0.14604972 0.46502846 0.49869713 0.21965893 0.06644531 0.37094265 0.15391839
0.262946 -0.10733202 0.29967305 0.10266945 -0.1839041 -0.20957398 0.13849899 -0.023614347

VAE_Encoder.layers.1.attention.W_v.bias f4 [4]
00000000: 2b08 c33c af2b 1cbd c395 283b 83ca d2bc
0.023807606 -0.038127597 0.002572403 -0.02573133

VAE_Encoder.layers.1.linear0.weight f4 [128, 4]
00000000: c70a 61be efaf 453f 7614 d5be f04c ffbd
00000010: a86d 7dbe 6fc2 883e 022f f6be b4dd 423d
00000020: a4fd 07bf b38a f8be 954b 163f e6c8 8dbe
00000030: 7c4b 843e 9da8 613e b4c0 88be 173b 39bd
00000040: 5ea0 60be a860 183f cb64 84be 1a8b 133c
00000050: 7858 e13e e68f 293d 5c19 613e 99f2 32be
00000060: 3d4f 23be dd4c e9be 2076 2fbe 7196 fd3e
00000070: 8cb3 f7be 0c47 26bf ccad c0be a52b 803c
00000080: 067e debe fc81 793e 8ea9 f23c 90bd 0abf
00000090: 58f1 00be 3760 c7be 05de c63e 0ecd bebe
000000a0: 6e9b 893e 7bb0 e23e 8649 21be 5742 6abe
000000b0: d76a 243e 813c 0ebe a73e ba3e 7fb7 c2be
000000c0: de6d 23be e308 6bbd eddc 803e 798d 63be
000000d0: b4ae 803e 5cdc f73e 93ae 04bf ff2b 6abe
000000e0: 5fea afbd 90b4 6a3e dfde e63e 7723 98be
000000f0: 2fb0 473e 19db f33e 597d 2e3d d413 e2be
00000100: 4c33 be3e 9828 6bbe a06c 0dbe 5716 8b3e
00000110: 836a a0be 2ac7 143f 33b6 2dbe f1d3 11be
00000120: b0fe 423e cae4 b6be 8c13 d9be 5f41 953d
00000130: bde9 4fbe 685e d03c 5fcf 75be f2e6 ba3e
00000140: 6349 24be 5aa6 0fbe 743a f03e 9dd0 dcbd
00000150: f18e aa3e 77be 02bf 5077 b2bd d6f1 073f
00000160: f60a ce3e 54ce 99bc fdc1 cb3e 8b3c 02bf
00000170: 0ad5 073c b96f 76be 2802 dabe 18cf c73d
00000180: e15f 563e d888 bcbe 6dd4 193f be22 0bbf
00000190: 3879 ac3e aed2 443e 3632 df3e ffca 04bf
000001a0: cde7 60be 4a35 f5be f418 fbbe bb57 dc3d
000001b0: b167 a03e fd89 423e e0cd 8ebe 6c51 c83e
000001c0: 9e4b aabe ff4d d53e ce30 803e 274b 0e3e
000001d0: d08a 01bf 548a 03bf a01f 6bbd 7d58 37bd
000001e0: 62fe 233e 39c5 003f 4ac8 b9be f330 b1be
000001f0: 9867 7a3e 83aa 8e3e 966d 853e 9d8b b4be
00000200: 8aae b5be ca4a ed3d cfcc bdbe ca5c 73be
00000210: 4585 1fbd c54e 743f ccd6 00bf 04e2 f5be
00000220: bdfa 4f3e 5e13 c53d 69db 443e d7f0 80bd
00000230: 2c54 083f 61a9 0e3d 6170 593e bfdf e63e
00000240: 7df7 063f ac6a 0b3f 3232 a53e f9c7 9ebe
00000250: 656e 83be 31be 403e c0d5 103e 71b6 bf3e
00000260: 8659 3c3e 3959 40be d63c b7be 9ca2 883e
00000270: 3c4d 85be 8500 65be c071 95be a590 4e3d
00000280: 27f8 a43d bf7d 103f 35a3 0f3d a06a 4b3e
00000290: e79b b3bc 0e8b b93e 6f84 31bd 4453 6bbe
000002a0: 4437 d6be 3e86 753b 44cf 0f3f 3980 37bd
000002b0: b48b 083f d705 123f 98ed 88be d813 fabe
000002c0: 02f9 df3e df85 8d3e a46f 2bbe fb8a 2e3e
000002d0: 083f 0bbf 3da3 77be 058d 18bf a7c6 babd
000002e0: 3ef6 f0be 1b45 893e fb04 c1bd 9d28 76bd
000002f0: 2e23 e0be cf04 ae3c 69e7 03bf 7f4f 543e
00000300: 1d13 ac3e d41f e8be ad3c ccbe e4dc b03e
00000310: 2f88 9e3e ac5d ae3e 84ed f1be 0d81 fd3d
00000320: 5634 f93e e97b 353e 92d4 06bf 12c2 0bbe
00000330: 241a b63e 6587 53be 650f 7ebe d734 cf3e
00000340: 412e 303e 2ffb 173e 540e 6f3e 6c52 e8be
00000350: 1924 693e 89a4 ff3e 263f ffbe 8c9c 1c3e
00000360: b26c 06bd ddcf 6bbe c17e d93d 7d3c b2be
00000370: deaf aa3d 1ed4 e8be 77ba b3be 0ccb 9fbe
00000380: 43e0 bf3e e8dd cabd 2623 f2be 14ec bc3e
00000390: 8cd1 78be 5e2d 403e 6727 b3be d93c 933e
000003a0: 18b9 b8be 4f8b 01be 8cfb ae3e a287 afbe
000003b0: b5bb 9e3e 277b 173f 7963 df3d b988 ab3e
000003c0: af50 bc3e 01c3 ad3e 62e4 563e cf21 593d
000003d0: 7cc6 ec3d 3e5b 8dbe 3368 aebd 11a3 a93e
000003e0: b0b5 d93e 13a9 e83d 53eb 933e 643a 8a3e
000003f0: fcb7 eb3b 7712 fd3e 0af7 da3e 3cce 89be
-0.21976767 0.7722158 -0.41617173 -0.124658465 -0.24748862 0.2671084 -0.4808274 0.047574714
-0.531214 -0.4854332 0.5870908 -0.27692336 0.2583884 0.22036977 -0.2670952 -0.045222368
-0.21936175 0.59522486 -0.2585815 0.009005332 0.4401281 0.041396998 0.2198233 -0.17475356
-0.15948196 -0.45566455 -0.17134905 0.4952884 -0.4837917 -0.6495216 -0.37632596 0.015645811
-0.43455523 0.24365991 0.029621866 -0.541955 -0.12592065 -0.38940594 0.38841262 -0.3726582
0.26876396 0.4427527 -0.15750703 -0.22876869 0.16056381 -0.13890268 0.36375925 -0.3803062
-0.1595988 -0.057381522 0.25168553 -0.22221936 0.25133288 0.48410308 -0.5182888 -0.22868346
-0.085896246 0.22920442 0.45091912 -0.29714558 0.19500802 0.47628096 0.04260001 -0.44155753
0.3714851 -0.22964704 -0.13810968 0.2716548 -0.31331262 0.581164 -0.16964035 -0.14241005
0.19042468 -0.35721427 -0.42397726 0.07287859 -0.20304008 0.025435641 -0.24004887 0.36504322
-0.1604362 -0.14028302 0.46919596 -0.10781977 0.3331218 -0.51071876 -0.08714163 0.5310339
0.40242738 -0.018775143 0.3979644 -0.5087363 0.008290539 -0.24066056 -0.4257977 0.09756297
0.20935012 -0.36823153 0.6008976 -0.5434989 0.33686233 0.19220993 0.43592995 -0.5187225
-0.21963425 -0.4789222 -0.49042475 0.10758921 0.3132911 0.18997951 -0.27891445 0.3912462
-0.33260816 0.4166107 0.25037235 0.13895856 -0.50602436 -0.51382947 -0.057403207 -0.044762123
0.16015008 0.5030094 -0.3628562 -0.34607658 0.2445358 0.27864465 0.2606017 -0.35262766
-0.35484725 0.115865305 -0.3707032 -0.23765865 -0.038945455 0.9543269 -0.50327754 -0.48024
0.20310493 0.096228346 0.19224323 -0.062959366 0.53253436 0.0348295 0.21234275 0.4509258
0.5272139 0.54459643 0.32264858 -0.31011942 -0.25670162 0.18822552 0.14144039 0.3744388
0.18393525 -0.18784036 -0.35788602 0.2668656 -0.26035488 -0.2236348 -0.29188347 0.050430913
0.08055144 0.56441873 0.035067756 0.19864893 -0.021924926 0.36238903 -0.04333919 -0.22980982
-0.4183904 0.0037464048 0.5617564 -0.044800017 0.5333817 0.5704016 -0.2674377 -0.48843265
0.43744665 0.27641198 -0.16741806 0.17045204 -0.54393053 -0.24183364 -0.5959018 -0.09119921
-0.47062868 0.26810536 -0.09424778 -0.060097326 -0.4377684 0.021242527 -0.5152498 0.2073345
0.33608332 -0.45336783 -0.39890042 0.34543526 0.30963275 0.3405584 -0.47251523 0.1237813
0.48672742 0.17723049 -0.52668107 -0.1364825 0.3556682 -0.20657118 -0.2481056 0.4047
0.17205144 0.14841913 0.2334531 -0.45375383 0.22767676 0.49930218 -0.49852866 0.15294093
-0.032818504 -0.23028512 0.106198795 -0.34811774 0.08334325 -0.45474333 -0.351032 -0.312096
0.37475786 -0.099056065 -0.4729244 0.36898863 -0.24298686 0.18767306 -0.34991 0.2875736
-0.36078715 -0.12650798 0.3417629 -0.34283167 0.31002584 0.5917229 0.10907645 0.3350275
0.36780307 0.3393784 0.20985559 0.053010758 0.115612954 -0.27608675 -0.08515968 0.33132222
0.4252143 0.11360373 0.28890476 0.26997674 0.0071935635 0.4942815 0.427666 -0.26915157

VAE_Encoder.layers.1.linear0.bias f4 [128]
00000000: 1c51 9f3e 060e 523e 91cb c9be 4976 d53e
00000010: db0f af3e f4ca ee3e 291b 723e 38ea 7abe
00000020: 526e 13be 7109 0abf 28ab 1cbd c53d 7ebd
00000030: cf6d bbbe 6661 74bd b202 1b3c b48f 11bd
00000040: 80ff 3b3b 719e c4be c312 f3bc f6a8 e63e
00000050: b0d1 713e 6528 babe 01a0 31be 2c22 f43e
00000060: f056 93be 0ed2 30be fe87 d7be a86d 75bc
00000070: a630 cdbb ca06 2d3c 5f03 063f 9fe6 6e3e
00000080: 3b8e 5a3e 80f8 a0be fc96 64be 0e41 ba3e
00000090: d738 83be 354c 6c3e 90a2 b73e b3db c53e
000000a0: 6558 7b3e 3e74 53be 455c 933d ca1e 123d
000000b0: 979e cd3e d03a 78be 85b7 153e 4fbe a3be
000000c0: b686 023e 0bd4 5a3e f83f eb3d 57ff c83d
000000d0: b0f6 073e eb3e 783d 1e9c 7bbd 0445 ec3e
000000e0: a982 c9bd 4101 8d3e 1efe 51bd 275d cc3e
000000f0: 3e57 173e 3605 743e 3730 b33e 77e5 243e
00000100: 5fe0 fdbd b49b 02be 21d1 5dbe e331 b73e
00000110: c7bd ff3d 4d30 f1be 7fe8 ae3d 3c31 aebe
00000120: 24d6 173f f562 003e 277e ce3d 0022 c53e
00000130: 0d49 58be 315b 5ebd eda6 eabe 4c9f 0ebe
00000140: fcea d43d a622 dd3c d6ac 04bf 6eca be3e
00000150: db73 c7be 0a7f a63e 18c5 cd3e 03c5 523e
00000160: a9dc 7fbe c6ac bf3e 2d07 0f3d ac2d a63e
00000170: 29e0 57be 71bf 5ebd e2bd e3be a75f d83e
00000180: c8cc 3dbe b8c6 c73e 29ac 4dbe b3fd 21be
00000190: 4c6e 54be 5049 c03e 1393 063e 6a1f 0a3f
000001a0: 6c95 73be de08 24bd 50f9 0f3f bad4 80bd
000001b0: d80c 463d 0c4b 783e b418 f03e f0a1 793e
000001c0: c475 d2be 5b6f e3be 6af6 603e eba5 eb3e
000001d0: 0b43 093e 1a85 71be 8ac1 583e b4c7 783e
000001e0: 6cb8 f73e 3853 b4bc aa4c 953e 44ec e7bc
000001f0: 8bb9 b53e d915 a4be 7941 013f 47ab a63e
0.3111657 0.20513162 -0.3941312 0.41691807 0.34191784 0.46639216 0.23643173 -0.2450341
-0.14397553 -0.53920656 -0.038249165 -0.062070627 -0.36607215 -0.0596632 0.009461092 -0.035537437
0.0028686225 -0.3840213 -0.029672032 0.45050782 0.23615146 -0.36358944 -0.17346193 0.4768232
-0.28777266 -0.1726763 -0.4209594 -0.014979757 -0.006261903 0.010560701 0.52348894 0.23330162
0.21343319 -0.3143959 -0.22323221 0.36377758 -0.25629303 0.23075946 0.35866213 0.3864418
0.24545439 -0.20649812 0.071953334 0.035673894 0.40160057 -0.24241185 0.14620788 -0.3198113
0.127467 0.2136995 0.114868104 0.09814327 0.13277698 0.06060688 -0.06142818 0.46146405
-0.098393746 0.2754002 -0.051267736 0.3991482 0.14779374 0.23830113 0.34997723 0.16103159
-0.12396311 -0.12754709 -0.21661808 0.35780248 0.12487369 -0.47107163 0.08540439 -0.34021938
0.5931113 0.12537749 0.100826554 0.38502502 -0.21121617 -0.054286186 -0.4583048 -0.13927954
0.10396382 0.02699406 -0.51826227 0.37263817 -0.38955578 0.32518798 0.40189433 0.20582967
-0.24986519 0.37436503 0.034918953 0.3245672 -0.21081604 -0.05438179 -0.44480807 0.42260477
-0.18535149 0.39018798 -0.20085205 -0.15819435 -0.207452 0.37555933 0.13142042 0.53954184
-0.23787469 -0.04004752 0.56239796 -0.06290574 0.048352093 0.24247378 0.46893847 0.2437818
-0.41105473 -0.44420895 0.21969 0.46025023 0.13404481 -0.2358593 0.2116758 0.2429493
0.4838289 -0.022012338 0.29160053 -0.028310902 0.3549312 -0.32047918 0.5049053 0.3255255

VAE_Encoder.layers.1.linear1.weight f4 [4, 128]
00000000: cd2b 91bd b5f7 afbc d610 6d3e 6cdf 9e3d
00000010: 347f 4bbd f321 0abe bbdf b83c a057 c2bc
00000020: f5b5 9abd 627b 713d a32a f9bd eb1f 113d
00000030: 6c6a d03d a3f5 10be 761f 8b3a e32f 2ebb
00000040: 766d 113e ebc4 c83e 96a4 5e3d b915 be3d
00000050: 40a5 9d3d 2ed1 aa3d 9ca5 28bb b193 cd3d
00000060: 99c6 7bbc b704 4cbd 1ddc 843d 0afb 803d
00000070: 7dc4 bebc 2eb1 e7bd 03e1 a53b fb69 6a3a
00000080: e2b8 6ebd 16a8 933e 6ae1 cfbc f25b d3bc
00000090: da31 dabd 9e66 7e3d da50 e83d f93f b23d
000000a0: 22c5 bcbd 33eb 84bd 692f dc3b 3367 0cbe
000000b0: 8b43 d43d ffd1 0bbe 6e29 253c 8bd0 26be
000000c0: 38a1 d53c 1b0a 123e d049 ea3c 7cf2 043e
000000d0: dd4e 04be a878 1d3e a5f3 573c 807d 2cbc
000000e0: 59d8 263e 1c30 9ebd 3412 cf3d a692 673c
000000f0: 1f68 c5bc e768 2f3d 340e 89bb 0321 d1bd
00000100: a20b 733e 6dc8 68be 9a5a e53e b96d 98bd
00000110: f9b0 0d3b ddea e83d 04b2 66bd 87d7 113e
00000120: c3e0 09bd d2a1 b93c ecd6 96bd a15b 5c3d
00000130: 3aab 0a3e 9d2d 3cbd 7f9e 0f3e 4dfe f53d
00000140: 0197 92bd e7a4 43bd 8ea4 493e 2d40 7b3b
00000150: 8f4f a43e eb2a 9fbd 1bc0 e73d 6a0f 393d
00000160: 3fea fa3e 9d72 a9bd da0b cebd a96e 933d
00000170: 5868 0e3e 2571 5abd bc29 a13d 4b1a 9e3d
00000180: f15e 4ebb 7c5b a4bd 3d80 983d 97bf b6bc
00000190: 87b3 4f3c 2692 0ebe bbfc 20bb cf55 c13b
000001a0: 2f91 243f 0cc9 e8bd 4075 8c3d 9ceb f5bc
000001b0: 36a4 38be c97f 0cbe dc01 91bb a5e7 07bc
000001c0: c923 913e e480 993d 32e2 b6bd a3f0 c33d
000001d0: 3337 babd 08c3 1a3e 0634 7a3d cd74 88bd
000001e0: 2ece d53c 5c20 9ebc 4852 d03d 5107 04be
000001f0: 5813 adbd f042 c9bc 4aa1 19bd efa2 8c3d
00000200: ad4b a13c 926c bc3d f78e 1bbe b0ab 063d
00000210: 16b1 213e 9743 febd ca31 8bbd 6a54 e8bd
00000220: 5ef0 8f3d e03a aabd 4044 8fbd c529 ecbd
00000230: 6bc2 22be 0fcb a63d b423 dc3d ae09 ecbd
00000240: f60e 79bd e194 56be 3f47 a1bd 8241 d7bc
00000250: f3b3 30bd 0c2a 2ebe bc0d a2bb ae1b 73bd
00000260: a768 96bd f716 c83d 08da 90bb 8548 6bbd
00000270: 4e5c 4ebd 8da3 c0bc 80ca 033e 3dde 1dbe
00000280: 1800 cc3c 5415 90be 6cb2 893d 8dbd a9bc
00000290: 06c8 9ebb 3905 383c 606e 203d d65f cabc
000002a0: c9a9 f13d 39dc 5c3d 3241 ecbc 5c82 4dbd
000002b0: 5a91 07ba ceca d23d 1118 a13d 4f5e 1d3e
000002c0: 2590 2fbd bae0 9abb d3a5 1d3e d4c2 a539
000002d0: 5c7e e0bd 8ab6 433d 92f1 71bd 2549 c6bc
000002e0: a03e 72bc afce 333d 5dd4 8db8 6b6c f43c
000002f0: 77f8 38bd 371f 98bd 11e1 d2bd 4f10 c43d
00000300: 9e96 03bc 433e 5c3e 662f 8ebe f507 333e
00000310: ecce 92bd a3dd 5bbe f0aa 31be f80e afbe
00000320: d66f eb39 94a7 703d cb50 37bd 8753 2fbc
00000330: 276e 01be d37b 4cbd c385 a4bc dd0a 953d
00000340: b546 943d 12e9 24be 1a0b b2ba 4504 de3a
00000350: 7ba9 e3bd 5663 aabc abd3 74bd cf9e e33d
00000360: 6ab0 7abd 9753 77bc 206d 83bd 6d75 733d
00000370: 9d24 63be cbed 503d c1a1 873b 6a11 0c3b
00000380: 79a8 abbc 9a3e 413d 2640 df3d 14a3 debc
00000390: 425a d83c 13bc 473c 027b 203d 6b8a fabd
000003a0: 2407 d73d 79a7 88bc a53f d3bc 60c8 11be
000003b0: 2364 d23d e231 0d3e 60cd 1e3c 6610 b73d
000003c0: 83d6 02be 9d65 36bd a22e 6a3d 0fe5 d5bd
000003d0: 9b43 823d 3c79 18bd 76a1 ab3c 7e5d 37bc
000003e0: 8ca2 3dbd b79a 7dbc fa27 0dbd 3009 57bd
000003f0: 36a8 9a3d 21c2 013c 7b07 933d 5da2 a33d
-0.070884325 -0.02148042 0.23150954 0.07757458 -0.049681857 -0.13489513 0.02256762 -0.023723423
-0.07554237 0.058955558 -0.121663354 0.03543083 0.10176548 -0.14156203 0.0010614234 -0.0026578836
0.14201912 0.39212736 0.05435618 0.09281487 0.076975346 0.08340679 -0.0025733477 0.100379355
-0.015367174 -0.049809184 0.06487296 0.06297882 -0.023287052 -0.11313091 0.005062224 0.0008942184
-0.058281787 0.28839177 -0.02537604 -0.025800679 -0.1065404 0.062109582 0.11343546 0.08703608
-0.092172876 -0.06490173 0.006719519 -0.13711242 0.10364445 -0.13654326 0.010080678 -0.1629049
0.026077852 0.14261667 0.02859965 0.12983125 -0.12920709 0.15378058 0.013180648 -0.010527968
0.16293468 -0.0772402 0.10110894 0.014134085 -0.0240975 0.042824652 -0.0041826013 -0.102113746
0.23734906 -0.22732706 0.44795686 -0.07442803 0.0021620377 0.113729216 -0.056322113 0.14242373
-0.033661615 0.02266017 -0.07365212 0.05379832 0.1354188 -0.045941938 0.14025305 0.12011395
-0.07157708 -0.047764685 0.19691679 0.0038337812 0.32091948 -0.07771858 0.11315938 0.045180716
0.4900684 -0.08273814 -0.10060854 0.07198841 0.13906991 -0.05333056 0.07869288 0.07719859
-0.0031489695 -0.08025262 0.074463345 -0.022308154 0.01267708 -0.13922939 -0.0024564702 0.0059001218
0.6428403 -0.11366472 0.06858301 -0.030019574 -0.18031392 -0.13720621 -0.0044252705 -0.008294974
0.28347614 0.07495287 -0.08929862 0.09567382 -0.0909256 0.15113461 0.06108477 -0.06662903
0.02609929 -0.01930254 0.10171944 -0.12893416 -0.08450955 -0.024568051 -0.037507333 0.068670146
0.019689405 0.09200396 -0.15191256 0.032878578 0.15790209 -0.124152355 -0.06796606 -0.11344226
0.07028268 -0.08312011 -0.069954395 -0.115314044 -0.15894477 0.08144199 0.10748997 -0.11525284
-0.060805283 -0.2095523 -0.07874917 -0.026276354 -0.043140363 -0.17008227 -0.004945485 -0.05935257
-0.073441796 0.09770005 -0.0044205226 -0.057442207 -0.050380997 -0.023515487 0.12870216 -0.15416808
0.024902388 -0.28141272 0.067234844 -0.020720268 -0.004845622 0.011231714 0.03916776 -0.024703901
0.11799962 0.05392096 -0.028839681 -0.05017315 -0.00051715004 0.10292588 0.078659184 0.15368007
-0.042862076 -0.0047264965 0.15395288 0.0003161641 -0.10961601 0.047781505 -0.05906827 -0.0242048
-0.014785439 0.04389828 -6.76296e-05 0.029836854 -0.04515883 -0.07427829 -0.10296834 0.09573423
-0.008031515 0.21508126 -0.27770537 0.17483504 -0.071683735 -0.21471266 -0.17350364 -0.34191108
0.00044906017 0.058753565 -0.044754785 -0.010701067 -0.12639676 -0.049922775 -0.020083314 0.07277463
0.07240049 -0.16104534 -0.0013583631 0.0016938528 -0.1111631 -0.02079932 -0.059772175 0.11114275
-0.061203398 -0.015095613 -0.06417298 0.059438158 -0.22181936 0.051008027 0.0041391556 0.0021372684
-0.020954357 0.047178842 0.10900907 -0.027177371 0.026410226 0.0121908365 0.03917981 -0.122334324
0.10499409 -0.01668142 -0.025787184 -0.14236593 0.10273006 0.1378856 0.00969252 0.08938675
-0.12777142 -0.0445305 0.05717338 -0.1044408 0.06360551 -0.037224993 0.020951014 -0.011191724
-0.046297595 -0.015478781 -0.034461953 -0.052498996 0.07551615 0.007919819 0.07179161 0.07989953

VAE_Encoder.layers.1.linear1.bias f4 [4]
00000000: 1dca 76bd ac00 c4bd e5af c83d 14ca 14bd
-0.060251344 -0.09570441 0.09799174 -0.03632553

VAE_Encoder.layers.1.norm1.weight f4 [4]
00000000: 9843 8e3f f588 8f3f cf5a 933f 45da 883f
1.1114378 1.1213671 1.1512088 1.069161

VAE_Encoder.layers.1.norm1.bias f4 [4]
00000000: b2a8 413d f95e a03d 635b f4bc 01b5 a1bd
0.04728002 0.078306146 -0.029828733 -0.07895852

VAE_Encoder.layers.1.norm0.weight f4 [4]
00000000: 7e61 423f b323 403f 759b 7b3f d385 793f
0.7593001 0.7505447 0.98284084 0.97469825

VAE_Encoder.layers.1.norm0.bias f4 [4]
00000000: 2105 ce3c d361 963c 85bc 2dbd 95c8 1b3d
0.02514893 0.018357193 -0.042416114 0.038033087

VAE_Encoder.last_normalization.weight f4 [4]
00000000: 0000 803f 0000 803f 0000 803f 0000 803f
1.0 1.0 1.0 1.0

VAE_Encoder.last_normalization.bias f4 [4]
00000000: 0000 0000 0000 0000 0000 0000 0000 0000
0.0 0.0 0.0 0.0

VAE_Encoder.head.weight f4 [4, 4]
00000000: b85b aebe b82c debd e8e7 e33d 748d 6fbe
00000010: 0c14 3a3e 4658 81be c459 f4be 309f 91be
00000020: 6029 0b3e f0db afbe d21e 81be 66fb cabe
00000030: d898 b33d e80d 733e 709d 62bd 46f2 e33e
-0.3405435 -0.10848373 0.11128217 -0.23393804 0.1817171 -0.2526266 -0.47724736 -0.28441763
0.13590002 -0.34347486 -0.25218827 -0.39644927 0.08769387 0.23735774 -0.055325925 0.44520777

VAE_Encoder.head.bias f4 [4]
00000000: 4836 f5bd 389b d1be 2400 683e 808b ac3e
-0.11973244 -0.40938735 0.22656304 0.3370018
