tabsyn/vae/ckpt/default/major_only/model.pt (torch, 70246 bytes, 112 tensors)

VAE.Tokenizer.weight f4 [15, 4]
00000000: 64b5 0f3e ef71 8ebe 2e52 ae3b 4328 d0be
00000010: 90a8 44be 01bc 7dbe ce54 403e 1135 acbd
00000020: eb52 b73d 3e88 013d a1ac 09be a142 963d
00000030: b95c 933d 31ff 1ebe 2674 f6bd 4042 2b3e
00000040: 6a13 f73d ca89 a1bd f797 42be 49cb be3d
00000050: e305 f23d 9702 ce3d 9c30 f03d 8504 67be
00000060: 0548 0d3c 56de dbbd 9c7a bc3e 86cd 673d
00000070: 1a04 3f3e a212 823e f72c 4f3e 7ab0 fcbd
00000080: 4c79 7cbe c6a9 5ebe a0f7 463e 05a3 7abe
00000090: e91c 83be fa45 95be 390d 83be 21b3 d53d
000000a0: eaca 4ebe f2d5 8dbe 8a8e ee3e 3528 89be
000000b0: d807 963b ac3d bbbe 3417 81be 08b6 eebd
000000c0: c4a2 97be df2a c9be 0e14 9abe 865c 913d
000000d0: 29b5 72be 0b88 00be 3fe5 a23d da65 2abe
000000e0: 4141 39be 1d8c 6c3e 257f 9bbe 3477 8bbd
0.14034039 -0.278213 0.005319855 -0.40655717 -0.19204926 -0.24778749 0.1878235 -0.08408559
0.08951362 0.03162407 -0.13444759 0.07336927 0.0719542 -0.15527035 -0.12033872 0.16724491
0.1206425 -0.07887609 -0.19003282 0.09316117 0.11817529 0.10059088 0.117280215 -0.22560318
0.008623128 -0.107357666 0.36812294 0.056592487 0.18653908 0.2540484 0.20231996 -0.12338348
-0.24655646 -0.21744451 0.19430399 -0.2447625 -0.25607994 -0.2915495 -0.25596026 0.10434557
-0.20194593 -0.2770229 0.46593124 -0.26788488 0.0045785718 -0.3657049 -0.25213015 -0.116558135
-0.29616368 -0.3929052 -0.30093426 0.070977256 -0.2370192 -0.12551896 0.079538815 -0.16640416
-0.18091299 0.23100324 -0.3037044 -0.068098456

VAE.Tokenizer.bias f4 [23, 4]
00000000: b4e5 e2be a324 b33e 896a acbb bedb dc3e
00000010: 199f d5be b134 7fbe b52f 2bbc 86e8 023f
00000020: 5c40 18bf cbbd 063e 861a 1e3f b7ee b93e
00000030: cc4d 12bf 1069 50bc df9f babe 6ce7 af3e
00000040: 65a8 ba3d b73c 8e3c 8412 0bbf 5b3a e4be
00000050: bfde b8be 3d9d 0a3f 25d3 3bbe 857b e43e
00000060: cfe4 88ba eb4a 47be 51c1 393e 0fa3 8cbd
00000070: 5a6d 28bf 2586 48be 75c6 fcbe e063 103f
00000080: 0323 ba3e a0c9 333c 8524 fc3e c081 633e
00000090: 2a71 21bf f409 3ebe 4a13 103f 81c1 ccbe
000000a0: 075f f8bd 016c f43e 09f7 e2be 89ad 083f
000000b0: a013 b63d fb9b 7cbe 1fc3 6b3e 0b69 32be
000000c0: 10e6 a0be 0ec7 c0be 16e5 693e 6b09 e93e
000000d0: 1e2c 1a3d 824f 0e3e 2eef 98be f036 1b3f
000000e0: e5df 923e a8a6 213e 4e98 873e 32aa 4dbe
000000f0: 9b09 bf3e 7113 433e ef91 a13e b476 1cbe
00000100: 82af 8d3b 3ab9 ab3e 0852 7ebe af04 873e
00000110: d5c7 77be 20ec b23d 186e dfbe cd35 2ebd
00000120: 47b7 eebd 80e3 5dbe b7ee 55be 07de 36be
00000130: c762 1fba cb38 fc3c e027 1e3e 3adc ac3e
00000140: 80a7 083d 9182 ac3e 3f82 12be 264f 233e
00000150: e171 083e f964 593d 90af e3be c815 e6be
00000160: 7a14 64be 5812 eabd e23f 46be 0498 b53d
-0.44315875 0.3498889 -0.0052617234 0.431364 -0.41722944 -0.24922444 -0.010448386 0.5113605
-0.59473205 0.13158338 0.6175922 0.36314937 -0.5714996 -0.012720361 -0.36450097 0.34356248
0.0911415 0.017362935 -0.5432513 -0.44575772 -0.36107442 0.54146177 -0.18342264 0.44625488
-0.0010444167 -0.19462173 0.1814015 -0.068670385 -0.6579186 -0.19582422 -0.4937016 0.564024
0.36354837 0.010973364 0.49246612 0.22217464 -0.630633 -0.18558484 0.5627943 -0.39991382
-0.121275 0.4773865 -0.44329098 0.53389794 0.08890462 -0.24668877 0.23023652 -0.17422883
-0.31425524 -0.37651867 0.22841296 0.45514998 0.03763973 0.13897517 -0.2986998 0.606307
0.28686443 0.1578623 0.26483387 -0.20084456 0.37312016 0.19050385 0.3155665 -0.15279657
0.0043239007 0.33539754 -0.2483598 0.2637076 -0.24197324 0.087364435 -0.43638682 -0.042531777
-0.11656051 -0.21668816 -0.20891844 -0.17858134 -0.00060800876 0.0307888 0.15444899 0.3376177
0.033362865 0.33693364 -0.14307497 0.15948161 0.13324691 0.05307481 -0.4446988 -0.44938493
-0.22273436 -0.1142928 -0.19360307 0.08866885

VAE.Tokenizer.category_embeddings.weight f4 [77, 4]
00000000: da06 2a3e 1b7d c7be d9a5 053e c0e3 223e
00000010: 6730 86be 2124 a43d d583 10be 4a49 ec3c
00000020: 2864 013f 608a 94bf 73f5 6b3e 54c0 8f3a
00000030: 523e a5be ae68 bcbe a8bf eb3e 32bc 813e
00000040: ddc8 9abe e03e a63d 77e5 11bd 5500 4fbd
00000050: e812 133e 40aa ddbc 2123 4ebe 6759 483e
00000060: 62f4 033f 67b8 d53e 5b6f 87be 1b23 16bf
00000070: 359d 29be a660 b8be c05e d4be 1adc 033f
00000080: 5801 af3d e10b a1be b463 383e 3c5a 863e
00000090: 02e0 9fbe 7dd4 84be a221 e8bc 412c 0cbf
000000a0: 8e82 68be 1f07 1abe 8139 7ebd 40e4 433d
000000b0: c728 4fbc b134 0dbe 79ef 8b3e 7530 05bf
000000c0: 910e a53e 1434 4fbd 41f4 233d f21f 4abe
000000d0: 0a36 b0bc d7b9 8dbe a9e3 6f3f 7510 ddbd
000000e0: 9874 d43e 368d 88be e84c 8a3b 5e5e dabe
000000f0: 1067 f6be 4b56 be3d 1e2e a3be c5d2 52be
00000100: a713 c6bd edf2 36be d1d4 aa3d 79df 1dbf
00000110: 6010 5b3e 32ea c6be dd35 6a3e affa bc3e
00000120: c778 713e b5a9 1abd 9cda 5abe 490e fa3e
00000130: aed3 9a3c 1d68 9bbe 75a4 b13a 7b0e a9be
00000140: 120a c9bd 350a cfbc 859a ec3d 58ea 75be
00000150: d977 ac3e 66c8 dfbe f107 403e 34d1 683e
00000160: ec33 843e 5e55 b4be 8585 66bd 89b9 7f3e
00000170: 6142 833d f456 7abe 42b0 3dbc 62d6 ccbe
00000180: 22b2 303e 0eb9 8e3e 8740 d7be da6f 813e
00000190: 69ea 8abe 3f8d 883e a4ee 68be 30d7 82be
000001a0: 80cb b53e 793e b7be 733f 8e3e e152 13be
000001b0: 282a c4bd 5520 f1bd 00f9 5bbe 301d 44be
000001c0: cfb5 bc3b 3179 1bbf 16cb 39be 4efb 9a3e
000001d0: bd53 9f3b bbeb a2bb f0b0 d1bd fcc4 acbc
000001e0: b14b 69be 4593 173e e115 b1be 97b4 12bf
000001f0: b7a9 aebd 3a28 883d 4028 a6be c162 9ebe
00000200: 6639 0b3e 4ca6 673f 186d 7b3c 063f a6bd
00000210: a7ba 8b3e 757b fc3e 3b6f b43d f3aa 3c3c
00000220: cb55 f5be 3e9c 05be 3d5c 053e 9713 62be
00000230: 03c4 8f3e 17c9 21bf e40c 8c3f dc4f 79be
00000240: 97eb 2c3c 0aa6 67bc 7b59 343f dcea 08bd
00000250: 5331 25be 762c 213d 0b5a 24be 36c9 9f3e
00000260: d4ee ab3e 36bd 343d 7f69 d1bd 8660 d5bc
00000270: b3d7 8a3e 9792 5e3f b2ba d83e ae48 b5be
00000280: 2ed8 61bf 6ebb 993f 5fcb 6bbf a92b 853c
00000290: c8a5 063f 7d55 1b3f 0f4a 86bf 788c 6f3e
000002a0: 4a3e 3e3e 922c ce3d bf37 5e3d 4a90 76be
000002b0: d80a 523d aeb8 8cbc 757e 0bbe 734a 60bf
000002c0: 59c2 f43e 41ef bf3e f4c0 533d 1d64 75bd
000002d0: fc6a bf3e 79b7 193d d8c5 75be 477b 2d3d
000002e0: ed43 e93e eac7 f7be 5f7c 603e 8c9e 263e
000002f0: 8982 63be 504a 093e 14f9 223d c975 20be
00000300: 2304 823e 3317 d93e a832 10bf 1f7e a5be
00000310: 0137 14be 5bee 0b3e bdba 5a3e e953 9dbe
00000320: 8ed3 c93d f055 173d d5c0 76be 7188 793d
00000330: 4d68 8a3e 5103 933e 5f28 aa3d 26a0 1dbf
00000340: 1dc3 8cbf e932 623f eec4 8bbf bb87 863f
00000350: 8f05 ce3e ec0e 9dbe 2626 063e a7ef 903e
00000360: 24bc ed3e a58e d93e 219d 073f 676f 5c3e
00000370: bd1a b4be 4d92 233f 1f1a f2be 63d0 dabe
00000380: c03b 2f3e 5528 0abf bc96 12bb 1d7d 14bd
00000390: 7be1 94be 607d b03e 17a5 983d 813a 8cbe
000003a0: dae7 733e 323d 8bbe 6051 133e 5440 a5bd
000003b0: eab5 9fbe daba 553e a892 05be 4079 d73e
000003c0: 7bcd 89be 410a 24bf 6c83 383d 0fd3 e13e
000003d0: a54a 90be 14a5 debe 2571 053f 0889 c73e
000003e0: 7ca7 9cbf 66c2 673f 27b0 81be a023 143f
000003f0: badf 67bd fed1 323e 37ad 193e 3281 273e
0.16604176 -0.38962635 0.13051547 0.15907192 -0.26208803 0.080147035 -0.1411279 0.02884354
0.5054345 -1.1604729 0.2304285 0.0010967352 -0.3227411 -0.36798614 0.4604466 0.25338894
-0.30231372 0.08117461 -0.035619225 -0.050537426 0.14362681 -0.02705872 -0.20130588 0.19565354
0.51544774 0.4174225 -0.26452145 -0.58647317 -0.16563876 -0.36011237 -0.4147854 0.51507723
0.08545178 -0.31454375 0.18006784 0.26240718 -0.31225592 -0.25943366 -0.02833635 -0.54755026
-0.22706053 -0.15041779 -0.06206656 0.047825098 -0.012643999 -0.13789631 0.2733114 -0.52027065
0.32237676 -0.050586775 0.04002786 -0.19738749 -0.021510143 -0.27680847 0.93706757 -0.107941546
0.41495204 -0.26670235 0.0042205937 -0.4265012 -0.48125505 0.09293803 -0.31871122 -0.20588215
-0.09671717 -0.17866106 0.08341373 -0.6166912 0.21392965 -0.38850552 0.2287211 0.36910006
0.23581229 -0.0377595 -0.21372455 0.48839024 0.018899765 -0.3035287 0.001355304 -0.3301886
-0.09816374 -0.025273422 0.1155291 -0.24015176 0.33685187 -0.4370758 0.1875303 0.22736055
0.25820863 -0.3522138 -0.056279678 0.2497312 0.06409145 -0.24447232 -0.011577668 -0.4000731
0.17255452 0.2787556 -0.42041418 0.25280648 -0.27131966 0.26670262 -0.22747284 -0.255548
0.3550682 -0.3578985 0.27782783 -0.14387085 -0.09578353 -0.11773745 -0.21481705 -0.19151759
0.005758978 -0.607318 -0.18143877 0.30269855 0.0048622773 -0.004971949 -0.10238826 -0.021090023
-0.2278278 0.14802273 -0.34587005 -0.5730681 -0.08528464 0.066482976 -0.32452583 -0.30934718
0.13596115 0.90488124 0.015345834 -0.081174895 0.27290842 0.4931294 0.08810278 0.011515367
-0.47917017 -0.13047883 0.13023467 -0.22077785 0.28079233 -0.63197464 1.0941434 -0.2434687
0.010554216 -0.014138708 0.70449036 -0.033427104 -0.16132097 0.039349042 -0.16049974 0.312082
0.3358065 0.044125758 -0.102252 -0.026047003 0.2711769 0.8694243 0.42329937 -0.35407013
-0.8822049 1.2010324 -0.92107195 0.01625617 0.5259671 0.6067732 -1.0491351 0.23393428
0.18578449 0.10067095 0.054252382 -0.2407848 0.051279873 -0.017177906 -0.13622458 -0.876136
0.47804525 0.37487224 0.051697686 -0.05990993 0.3738631 0.03752849 -0.24001253 0.042353895
0.45559636 -0.4839471 0.21922444 0.16271418 -0.22217764 0.13407254 0.03978832 -0.15669931
0.2539378 0.42400512 -0.56327295 -0.32322785 -0.14474107 0.13665144 0.21360298 -0.3072808
0.09854804 0.03694719 -0.24096997 0.060921136 0.270327 0.28713468 0.083084814 -0.6157249
-1.0997044 0.8835893 -1.0919473 1.0510172 0.40238616 -0.30675447 0.1310049 0.2830784
0.46432602 0.42491642 0.52974135 0.21526872 -0.3517665 0.6389511 -0.47285554 -0.4273711
0.17112637 -0.5396779 -0.0022367677 -0.03625213 -0.29078278 0.34470654 0.074533634 -0.27388385
0.23818913 -0.27195126 0.14386511 -0.0806891 -0.31193477 0.2087206 -0.13044226 0.42084694
-0.26914582 -0.64078146 0.04504721 0.44106337 -0.2818195 -0.4348532 0.5212577 0.38971734
-1.2238612 0.90531003 -0.25329706 0.5786686 -0.056609847 0.17462918 0.15007482 0.16357878

VAE.encoder_mu.layers.0.attention.W_q.weight f4 [4, 4]
00000000: 5783 fdbe 8836 d53e b764 6c3e aee5 083d
00000010: baa0 d0bc 2122 f3bd ac6e 80be 59c2 27bc
00000020: 9338 22bd 3a82 71bc 6084 dcbd 3424 173e
00000030: dfc3 34be 40cd afbe 3076 ab3e 941f b33e
-0.49514267 0.41643167 0.23085295 0.033422165 -0.025467265 -0.11871744 -0.25084436 -0.010239207
-0.039604735 -0.014740521 -0.10767436 0.14759904 -0.17652844 -0.3433628 0.33488607 0.3498503

VAE.encoder_mu.layers.0.attention.W_q.bias f4 [4]
00000000: 79ce 85be 966a 3cbe 9fdf df3d e043 233e
-0.2613409 -0.18400034 0.10931324 0.15943861

VAE.encoder_mu.layers.0.attention.W_k.weight f4 [4, 4]
00000000: c4bc a53e 5afa 483e 2180 373d 7e5e 923d
00000010: 5fb6 023f 757b 80bd 769f 093e 10c9 473e
00000020: bd44 a93e 2edd 87be e035 4ebe 06db 5fbe
00000030: d4bf ab3e 1669 b3be fe32 5bbe aa02 0fbf
0.3237058 0.19626752 0.044799928 0.07146929 0.51059526 -0.062735476 0.13439736 0.19510293
0.33060256 -0.26535934 -0.20137739 -0.21860895 0.3354479 -0.35041112 -0.2140617 -0.5586344

VAE.encoder_mu.layers.0.attention.W_k.bias f4 [4]
00000000: a6eb 0839 8c7d cd38 3689 c5b5 2163 0db9
0.00013057757 9.798547e-05 -1.4717577e-06 -0.00013483736

VAE.encoder_mu.layers.0.attention.W_v.weight f4 [4, 4]
00000000: 3d70 72bd 705e d53d 73b8 663d 8d88 823c
00000010: a4f5 79bd 4599 d63d 19a1 653d ba3c 7d3c
00000020: 2004 80bd 9e6a cf3d 2eb3 5b3d 01a7 2d3c
00000030: 6cdc 65bd 6989 d93d ef2a 733d 76a7 153c
-0.05918907 0.10418403 0.05632825 0.015934253 -0.061025277 0.104784526 0.056061838 0.015456373
-0.06250787 0.101277575 0.053637676 0.010598899 -0.056118414 0.10621912 0.059367117 0.009134164

VAE.encoder_mu.layers.0.attention.W_v.bias f4 [4]
00000000: 1d2a 2fbe 1d5f f53c de29 013e 8c02 65bd
-0.17105909 0.02995258 0.12613627 -0.055910632

VAE.encoder_mu.layers.0.linear0.weight f4 [128, 4]
00000000: 99dd a1be e23d 09be 4688 533e 1324 263e
00000010: 8e34 86be b62a 8e3d 4c53 833e 067a 253e
00000020: 46dd acba 7176 a0bd cb0c 133e e23d b9be
00000030: 3329 243f feff edbe f7ca 37be 0b2a a9bd
00000040: 149f c9be a195 61be d4b0 f83e 353f 653e
00000050: 843a 3bbd f174 8c3d 1113 ca3e d562 b93e
00000060: 3ee0 a4be c80b c03e 223b fbbe ba23 85be
00000070: 9141 8c3d af5e 31be 6ee1 d1bd bc5c 8bbe
00000080: 5f18 8bbc 6985 b8be abd4 cc3e 11a2 923e
00000090: 403f 46be 9cd0 5b3e c2c5 91be 3be6 fbbd
000000a0: fdee c6bd 11f4 d83d a0a4 83be 7f86 e43e
000000b0: 89bc e63d 5c21 f1bd 3211 01be a353 e9be
000000c0: 8b98 bcbe ec69 d8bb 9cd6 8a3e 7f19 eabe
000000d0: 9b96 09be 5e0d ef3d f18a 02be db8e 0e3f
000000e0: 6d5e b8bd 6e3c c0be b384 c2be 8ec8 0a3e
000000f0: 6e99 e53e 1b68 36be e3c4 2bbf 703e 9b3e
00000100: 61ae 5d3e 3840 bbbe bc48 a23e 0018 fe3e
00000110: 0141 283f 7c96 b8be 0f03 a53e b1e5 bdbe
00000120: c755 0e3f a26d f0be def5 dbbe 4871 8d3e
00000130: 574a 84be 22ca e63c 0c51 633d 26be f6be
00000140: 3d78 083f e757 96be 97c1 22be 313e 4abe
00000150: a2f5 ab3d 549a 983e 6b7e ef3e 2cbe f5bd
00000160: c618 9d3e a7af d03e b309 e5bd f8ed 91bd
00000170: 8dba 063f 012f 9e3e 5648 86be 2b83 a0be
00000180: c106 c53e f056 a3be 8e60 81be 8b2b ac3e
00000190: 4ed4 fdbd 0e16 f5be d4dd 063f 9ef7 68be
000001a0: 82ac a83d 59de 06bf 9e64 813e 4660 a9bd
000001b0: 821e 99be 3305 5d3e c075 8b3d 6268 d13e
000001c0: bb00 a03e 42c1 883b db42 a3bd c490 be3e
000001d0: 01f6 83be 17e6 b13e 6dc6 92be 7ef9 a3be
000001e0: a255 b13e d64a c6be f63b 193f 3d7f 87be
000001f0: 30ea 43be 7052 babd 204b 06bd 8015 c8bc
00000200: ebd9 4a3e aa9e c1be 8824 063f f3a0 6abe
00000210: 89fd 763e a558 853e dad3 d9bc 184b 4fbe
00000220: 4c3a 9cbd 91b3 a7bd 75e9 bb3d 35b8 bc3e
00000230: 7c71 db3e 6beb c5be a9ab e83e c301 b0be
00000240: e27d 85be 7f28 a8be 3aee 613e b0c2 02bd
00000250: 5034 623e e681 a7be 9a3f 8dbe ea45 a43e
00000260: 120d cbbb 42d5 f53e c8a7 0c3d 7ef8 a5be
00000270: 5c09 983d 06f4 00bf d716 cabd 660b c6be
00000280: 3da5 3cbe 101c 27be b749 44be 0fdf b3be
00000290: edb5 c83d dd77 b63d 9f61 06bf 4b7d 843d
000002a0: 00f3 e23e 3776 2bbe f3dc 93bd 387b 23bf
000002b0: 1e40 7e3e f85d 343e d84e 9a3e 76f7 6cbe
000002c0: 2969 a83e efe7 7abe 9151 853d 326a ff3e
000002d0: 6d3b ebbe e26d 003f 5e6e 8c3e 5ea0 d93e
000002e0: 4fa0 c6be 11ab 723e 36a4 b7bd 9d8e 54be
000002f0: 830b ed3e 868d bb3e 839a f9be ae0d 093e
00000300: e4bc aebe 64b4 37be 38a9 a3be b4b5 6cbe
00000310: 4ece cbbe 20b7 87be b25c 1e3e 82dc dabe
00000320: 7b24 c03d 7434 f0be 4795 d4be 8f82 2fbe
00000330: 9304 a1bd 984e a43e 2be8 2fbe 1db7 583e
00000340: 3001 a63e 540b 2dbe d54d 0abd c3c8 e6be
00000350: 2df0 de3d bef0 c4ba dd55 993e e87e 30be
00000360: 624d 7ebe 55af 0a3e 345e 9cbe 948d b23c
00000370: 9804 88be 6658 523d 8878 eb3e 1fec d3bd
00000380: 3628 1b3d a0e5 e93e 1f8a 943d c9c2 d73e
00000390: aae8 a43d 9b5d d03e 13e2 98be 3e61 a63e
000003a0: 187d a6bc bb76 b73e da55 03be 375a 323e
000003b0: 572f e23e b7fd 9c3d fe42 11bf 5492 45be
000003c0: 00d6 dbbe d3af d43e 98c9 3bbe 511f c2be
000003d0: 2cac 1d3e fba4 e6be 29a4 8d3d f8ae 7a3e
000003e0: 1d8d abbe 498c 12bf 4c65 17be fff1 a03e
000003f0: 07b2 e33e 7277 3d3d de91 103f 9521 d43d
-0.31614378 -0.13402513 0.20657453 0.16224699 -0.2621197 0.0694174 0.25649488 0.1615983
-0.0013188503 -0.07835091 0.14360349 -0.36180025 0.64125365 -0.4648437 -0.17948519 -0.08259972
-0.3937918 -0.22029735 0.4857241 0.22387393 -0.0457101 0.06858242 0.39467672 0.36208215
-0.32202333 0.37508988 -0.49068552 -0.2600382 0.06848443 -0.17321275 -0.102480754 -0.27219188
-0.016979394 -0.36039284 0.40006003 0.28639272 -0.19360065 0.21466297 -0.2847119 -0.12299772
-0.09713552 0.10593427 -0.25711536 0.44633862 0.11266429 -0.11773941 -0.12604216 -0.45571622
-0.3683513 -0.0066044237 0.2711686 -0.45722577 -0.13436358 0.116724715 -0.12748314 0.5568673
-0.09002385 -0.37546104 -0.37991866 0.13553068 0.4484362 -0.1781315 -0.670973 0.30321074
0.21648552 -0.36572433 0.31696117 0.49627686 0.6572419 -0.3605231 0.32228896 -0.37089303
0.55599636 -0.46958643 -0.4296102 0.2762549 -0.25837967 0.028172556 0.055497214 -0.48191947
0.5330847 -0.2936394 -0.15894161 -0.19750287 0.0839646 0.29805243 0.46776137 -0.11999163
0.30682963 0.40759012 -0.111834906 -0.07125467 0.52628404 0.30895236 -0.26227063 -0.31350073
0.38481715 -0.31902266 -0.25268978 0.3362697 -0.123940095 -0.4786839 0.5268223 -0.22750708
0.08236028 -0.52683026 0.25272077 -0.08270316 -0.29906088 0.21584015 0.068095684 0.4089995
0.31250557 0.0041734288 -0.07971736 0.37219822 -0.25773624 0.34745857 -0.28667012 -0.32026285
0.34635645 -0.3872897 0.5985712 -0.26464263 -0.19132304 -0.09097755 -0.03278649 -0.024424314
0.19809692 -0.37816364 0.5239949 -0.2291296 0.24120153 0.26044193 -0.026590277 -0.2024349
-0.07628307 -0.081885464 0.09175388 0.3685929 0.4286002 -0.38656172 0.45443466 -0.34376344
-0.26072603 -0.32843396 0.22063532 -0.03192395 0.22090268 -0.32716292 -0.27587587 0.3208459
-0.0061966265 0.48014265 0.034339696 -0.32416147 0.0742366 -0.5037235 -0.098676376 -0.3868057
-0.18422408 -0.16319299 -0.19168745 -0.35131118 0.098003246 0.08909581 -0.5249271 0.0646921
0.4432602 -0.16744314 -0.07219877 -0.6385989 0.24829146 0.17613971 0.30138278 -0.23141274
0.3289273 -0.24502538 0.06509698 0.49885708 -0.45943776 0.5016767 0.27427953 0.42505163
-0.3879418 0.23698069 -0.089668676 -0.20757528 0.46297845 0.3663141 -0.48750696 0.13384125
-0.34128487 -0.17939907 -0.3196504 -0.23116189 -0.39805835 -0.265069 0.15465048 -0.4274636
0.09381958 -0.4691502 -0.4152014 -0.17139648 -0.078622006 0.32091212 -0.17178409 0.21163602
0.3242278 -0.16898853 -0.033765633 -0.45075044 0.10885654 -0.001502536 0.2994832 -0.17235911
-0.24834207 0.13543446 -0.3054062 0.021796025 -0.26566005 0.051353835 0.45990396 -0.10347771
0.037880145 0.45683002 0.07252907 0.42140797 0.0805219 0.40696415 -0.2985998 0.32496065
-0.020323321 0.35832772 -0.12825719 0.17417227 0.44176742 0.0766558 -0.56742847 -0.19294101
-0.42936707 0.41540393 -0.1833862 -0.37914518 0.1539771 -0.45047745 0.06916077 0.24480808
-0.33506098 -0.5724531 -0.14784735 0.31434628 0.44471762 0.04625649 0.56472576 0.10357968

VAE.encoder_mu.layers.0.linear0.bias f4 [128]
00000000: 73e6 4ebe 96b9 6bbe 0af1 2d3e 9a0a 65be
00000010: edd0 0bbe 997b bebd a7c1 e6be f428 b53d
00000020: 15a6 e03e d99f 3d3d 9735 92be 18f0 2dbe
00000030: b770 3abe 3da9 993e 46d5 82be a20d 62be
00000040: b991 9c3c a657 363e e469 2dbe ecb6 6dbd
00000050: 8cd2 f03e 26cd e2be 4d1a fabb 4b10 a4bd
00000060: 9834 cdbe 5230 da3d 5fd3 8c3e 3109 4fbd
00000070: b98d ea3e acd7 e83e 9dfe d53e 22fc f8be
00000080: 2c1f c63e 5da7 e63e 1e3c 083f 1464 933e
00000090: b9aa 003e 6a9a d5bc 37d3 fdbd f0a5 48be
000000a0: ca42 7bbd 13ad 9fbb 3554 e4bd bb53 873e
000000b0: 2cc0 59be ad0d f93e 50bf 8a3e 40f8 0abe
000000c0: 58e7 bfbe aa3d dbbe c566 0bbe 4e07 d6bd
000000d0: d332 c13d 495c 1a3d 52d9 ba3e 9de0 30be
000000e0: e180 a03e e17e c1be e9c6 3c3e 1685 85bb
000000f0: f082 e73e 7fe1 93be bf58 2fbd e323 853e
00000100: 339c 25bd c54d 5fbe b6a8 afbd a1d3 cfbc
00000110: db38 293d bd5b 8f3e 29d1 acbe ca3a 983e
00000120: 5661 313d fe37 acbd 407b 8d3e 4151 d9bc
00000130: ca58 e3bd fb3e 0fbe a42d e13d 3e62 aa3e
00000140: bff3 62bc bfb6 d9be 3277 f73e 645f b6bb
00000150: 2c73 e6be deaf 96bd 0d0c a23e d41b f83e
00000160: 702f 3d3c f70b e8be 3455 c63c 6f02 92be
00000170: 2728 73be 9cad ad3e d5ab 8abe ef98 173e
00000180: cc04 543d 39f5 1e3e 22c5 b23e f309 f73e
00000190: 2aab 833e ec58 243e 87f4 b43b dcb5 7dbd
000001a0: 9309 473e 4c38 e63d e01f a83e 9780 cabe
000001b0: b07c 7fbc 478b 47be 38ab 533d 61d1 bb3e
000001c0: c0c4 653e c7f2 9abe 6c46 31be ebc4 cc3e
000001d0: 21c2 ebbe d1b0 ad3d be4e d43d 7e54 c93e
000001e0: f22d ae3e 642c 8ebe e453 c1be 1175 edbe
000001f0: 5ea6 e43e aaef 1bbe e8b4 5fbe 6096 843e
-0.20205097 -0.23020014 0.1698648 -0.22367325 -0.13653918 -0.09300918 -0.4506962 0.08845702
0.4387671 0.04629502 -0.2855651 -0.1698612 -0.1820706 0.3001193 -0.2555334 -0.22075513
0.019112455 0.17806873 -0.16934925 -0.058035776 0.47035635 -0.4429714 -0.00763253 -0.0801092
-0.40079188 0.106537476 0.27505013 -0.050545875 0.4581125 0.45477045 0.41795817 -0.48629862
0.38695657 0.45049563 0.5321673 0.2878729 0.12565126 -0.026074607 -0.12393802 -0.1959455
-0.061342992 -0.004872927 -0.11148874 0.2643107 -0.21264714 0.48643246 0.27099085 -0.13571262
-0.3748119 -0.42820483 -0.13613422 -0.10450612 0.09433522 0.037685666 0.36493927 -0.17273183
0.31348327 -0.37792113 0.18435253 -0.004074703 0.45217085 -0.28882977 -0.042809244 0.26003942
-0.040432166 -0.2180701 -0.08577101 -0.025369467 0.041313987 0.27999678 -0.33753327 0.29732352
0.043305717 -0.08409117 0.27633095 -0.026528003 -0.111009195 -0.13988869 0.109950334 0.33278078
-0.013852059 -0.42522237 0.48333126 -0.0055655707 -0.45009744 -0.07357763 0.3164982 0.4845873
0.0115469545 -0.45321628 0.02421055 -0.28517482 -0.23745786 0.33921516 -0.27084222 0.14804433
0.051762387 0.15523233 0.34916025 0.48249778 0.25716525 0.16049546 0.005522314 -0.061941013
0.19437246 0.112412065 0.3283682 -0.3955123 -0.015593693 -0.19486724 0.05167696 0.3668318
0.22438335 -0.3026335 -0.1731202 0.39993986 -0.46046546 0.08480991 0.103665814 0.39322275
0.34019428 -0.27768242 -0.37759316 -0.46378377 0.44658178 -0.15228143 -0.21846354 0.25895977

VAE.encoder_mu.layers.0.linear1.weight f4 [4, 128]
00000000: dd6a 983d 95ee 22bd 409a ab3d f203 0f3d
00000010: 5b92 dd3c f038 87bd c7c7 103e 31ae 6b3d
00000020: 513e 46bc a8a2 9fbd f231 b03d 6bd3 8abd
00000030: 84b0 7bbd 2d4e c8bc 5cb1 423d 16d0 033e
00000040: 442f dc3b 43f6 8abd 1976 b83d eefb a53b
00000050: ae46 0ebd feda 8ebd 180c 963d d114 cbbd
00000060: 3a77 b03d f342 f8bd df56 4bbd b33e 9dbd
00000070: 53f9 db3c 01c7 283d 32df 1cbe a11a 2cbc
00000080: c8ec a2bc 6389 86bd 9bd9 7fbd 4f15 263d
00000090: ca9b 043d f372 c4bc df05 c03d 4c68 b43d
000000a0: 6cf0 1dbd 700b ecbd 08e3 4b3d d1b4 81bc
000000b0: afbb 54bd c3f2 55bd f627 32bd 2062 e23c
000000c0: ffd6 adbd 49b0 44bd 293a 163e 259d 1fbe
000000d0: e5e5 96bc 36b7 993a 3891 8dbd cee6 113e
000000e0: a2fd 903d da66 bdbc e37d 193c e6b4 323d
000000f0: f173 14bd 8e6f 38be d9d3 8e3c 2ca9 fbbd
00000100: 81c5 74bd 7222 853d 4865 ffbc 1bb0 85bd
00000110: 32c2 e53d 78b5 95bd f0b5 c43d 4632 c33d
00000120: f1b6 a6bd ea6a a03d 3cb1 a3bd 6680 5e3d
00000130: c646 a2bd 275b a53c f7d3 b7bc 2879 833d
00000140: 96ac d3bc 2c94 30bc 046d ddbc 004e ed3d
00000150: 63dc f5bd a245 b13d 4ca8 18be 2555 53bd
00000160: 92e1 84bd 71bb 103e dd00 fa3c f28d 50bb
00000170: 4991 3cbd a46d c3bd f7f8 b33d 25f1 5ebc
00000180: 6663 ae3c 888c 3a3c a994 f43a d9eb c83c
00000190: 1336 15bd 41c3 e5bd c5c1 dcbd 3346 c4bc
000001a0: 0609 0a3d 3947 14be f385 c1bd 7e1e 12be
000001b0: 1d21 9cbd 07a4 11be b663 1bbe 6a73 5d3d
000001c0: 854e 58bd 3093 0b3e c939 603d c41a 013d
000001d0: f8b0 4b3e 0a96 973c 5b32 7fbc 5343 feba
000001e0: ec44 b8bc c904 ffbd bf13 cebd f538 3fbc
000001f0: 020b 96bd c791 a63d e168 a63c 27ec 7fbd
00000200: 597b 433d 1142 a03d 6f62 d23d eb5c bdbd
00000210: 977c 183b 5930 9c3d 132c 37bd 9896 65bd
00000220: 326e e03a 0717 d8bb 2d4c 6a3d 88fe 6e3d
00000230: 48af f13d 8899 85bc 27c3 0cbe 62c3 1cbe
00000240: 8248 9d3c ba0f acbd 126e 0b3d b056 66bc
00000250: e4aa 32bd 3663 373c 5a30 fcbc edb6 df3d
00000260: 50ae 963c b2a6 fe3c a0ec d1bd 8988 74bc
00000270: 666f 9f3c 96e3 c83c cf79 883c 3051 2c3d
00000280: ce49 3c3d 1419 90bd c8b3 79bd e776 38bd
00000290: 11ff f53c de1d b73d 3064 0dbe 9655 53be
000002a0: cf04 c43d 5d5d 9cbd e9c3 283e 9f9b 2dbd
000002b0: 91f3 b43d 055f 47bc 3d8f 7cbc f6a5 00be
000002c0: 4a08 023b a648 d53d 166e eebd 448d 1e3d
000002d0: 24a4 73bd 0dc9 b13d c227 f1bd 2719 b8bd
000002e0: 8c10 43bd 7891 6fbc 6432 64bd 0716 113e
000002f0: d065 e73d 6a07 413e 0530 21be c0a4 a53d
00000300: 2c9e 8b3d 9325 5e3c 3457 0e3d 4c9f b63c
00000310: 9498 cbbd a8d9 743c 02b7 6abd ce72 d9bd
00000320: 953b 3c3c 1abd c8bd c8e2 31bd 8716 13be
00000330: bfd4 c4bd 862b 9c3d caf7 453d 7385 9e3d
00000340: 83cd a7bd ebf8 38be 297c b8bd 286d b7bc
00000350: de32 d43d 5bdb 93bd f435 af3b d60c 223b
00000360: ee93 f1bd 5967 163d 5bde f03d 6397 bf3d
00000370: 0edb 5a3d 80df 193d b9b4 ec3c b9f3 f33d
00000380: 3b57 a33d 238f c8bd bd5b c9bd 681f eb3d
00000390: f96c 1d3e ae24 dfbd af72 093d 3b94 a4bc
000003a0: 5974 653d 545d 1bbd 461c 6bbc 4993 853e
000003b0: 3687 f93c a64f 4d3e b091 64bd 0ebf 8dbd
000003c0: 60dc a8bd 49b4 3dbe e9a6 ac3d 2fba dfbd
000003d0: 0379 8cbd ffd1 d2bc 191e 123d 7b2c 48bd
000003e0: f841 1e3d a67a 873d e273 dcbc feaf 07be
000003f0: eec6 003e b389 5f3d 701a 983e 5101 8c3d
0.074422576 -0.03977831 0.0837903 0.034915872 0.027047327 -0.06602657 0.14138709 0.05753917
-0.012099818 -0.07794696 0.08603276 -0.06778606 -0.061447635 -0.02445134 0.047532424 0.12872347
0.0067195017 -0.06785252 0.090069 0.0050654327 -0.034735374 -0.06975363 0.073265254 -0.0991608
0.08616491 -0.121221446 -0.049643394 -0.076779746 0.026852285 0.04120541 -0.15319517 -0.010504396
-0.019888297 -0.06569173 -0.062463384 0.040547665 0.032375135 -0.023980593 0.0937612 0.088089556
-0.038559362 -0.11525619 0.04977706 -0.01583329 -0.0519368 -0.05223347 -0.04349514 0.02763468
-0.08488273 -0.04801968 0.14670624 -0.1558729 -0.01842017 0.0011727575 -0.06912464 0.14248201
0.070796266 -0.023120333 0.009368393 0.04362955 -0.036243383 -0.18011305 0.017435001 -0.12288126
-0.059758667 0.065007105 -0.031176224 -0.0652773 0.112186804 -0.07310003 0.09605014 0.09531073
-0.08140362 0.07832892 -0.07992789 0.05432167 -0.07923655 0.020185066 -0.02243994 0.06419593
-0.025839131 -0.010777514 -0.027029522 0.11587143 -0.12004926 0.086558595 -0.1490795 -0.051594872
-0.064883366 0.14134003 0.03051799 -0.0031822887 -0.046036992 -0.09542397 0.08787721 -0.013607298
0.021287631 0.011386044 0.0018660027 0.024526523 -0.036428522 -0.11218882 -0.10779146 -0.023959255
0.03370001 -0.14480294 -0.09449377 -0.14269444 -0.07623503 -0.14222728 -0.15174755 0.054065146
-0.052809257 0.13630366 0.05474261 0.031519666 0.19891727 0.018504161 -0.0155759705 -0.0019398726
-0.022493802 -0.124520846 -0.1006236 -0.011671294 -0.07326318 0.081332736 0.020313682 -0.06248107
0.047725055 0.07825101 0.10272681 -0.09246238 0.002326762 0.07626409 -0.044719767 -0.05605182
0.0017122685 -0.006594542 0.057201553 0.05834821 0.1180101 -0.016308561 -0.1374632 -0.15308908
0.019199613 -0.08401437 0.034040518 -0.014058754 -0.043620005 0.011193087 -0.030784775 0.10923562
0.018393666 0.031085346 -0.10250211 -0.014925131 0.019462299 0.024522584 0.016659645 0.042069614
0.045968823 -0.07036033 -0.06096247 -0.04503527 0.030028852 0.089412436 -0.1380775 -0.20638117
0.0957123 -0.07634995 0.16480984 -0.04238474 0.08835519 -0.0121686505 -0.01541501 -0.12563309
0.0019841366 0.10414247 -0.11642091 0.03870894 -0.05948271 0.086809255 -0.11775161 -0.089891724
-0.047623202 -0.014622085 -0.05571212 0.14168559 0.11298716 0.18850484 -0.15740974 0.08088064
0.06817278 0.013558763 0.034751132 0.022292756 -0.09941211 0.014944471 -0.057303436 -0.106176004
0.011488815 -0.09801693 -0.043429166 -0.14364062 -0.096108906 0.07625489 0.048332013 0.07740297
-0.08193495 -0.18063705 -0.09008057 -0.022390917 0.10361265 -0.07219573 0.005347008 0.002472689
-0.117957935 0.036719654 0.11761161 0.093550466 0.053431563 0.03756666 0.028894769 0.11911721
0.07975622 -0.09792926 -0.09831951 0.114806 0.15373601 -0.10895668 0.033556636 -0.020090213
0.05601916 -0.0379308 -0.014350003 0.26088932 0.030459981 0.20049915 -0.055803 -0.069212064
-0.08245158 -0.18525805 0.08430273 -0.109241836 -0.06859019 -0.0257349 0.035673235 -0.048870545
0.03863713 0.0661519 -0.026910726 -0.1325073 0.12575886 0.05457468 0.2970767 0.068361886

VAE.encoder_mu.layers.0.linear1.bias f4 [4]
00000000: 7bdf 06bd 7396 9bbd 414d ba3c 727f 3a3c
-0.03292797 -0.07597055 0.022741916 0.011382924

VAE.encoder_mu.layers.0.norm1.weight f4 [4]
00000000: cbce 943f 8b8d 8c3f 25d7 933f eea8 883f
1.1625608 1.0980695 1.1550032 1.0676553

VAE.encoder_mu.layers.0.norm1.bias f4 [4]
00000000: c86b 68bc e868 43bd 6a5c 623c 281e ad3d
-0.014185853 -0.04770747 0.013815979 0.084530175

VAE.encoder_mu.layers.1.attention.W_q.weight f4 [4, 4]
00000000: d0d0 a2be caba bcbd 135d d1bd 7ee1 063f
00000010: 9e83 87be c979 a5be 007e f8be 40d8 4dbe
00000020: 517f 09bf 9850 aa3e 8250 28be 64d4 d73e
00000030: ec81 79be 6349 debd fe22 b13e 949d 04bf
-0.31799936 -0.09215315 -0.102228306 0.52687824 -0.26467603 -0.32319477 -0.4853363 -0.20102024
-0.53709894 0.33264613 -0.16436961 0.4215423 -0.24365968 -0.10853841 0.3459701 -0.51802945

VAE.encoder_mu.layers.1.attention.W_q.bias f4 [4]
00000000: c9fd 023e 4c5c 55be 181d 8b3e afa1 c7bd
0.12792124 -0.2083599 0.27170634 -0.097476356

VAE.encoder_mu.layers.1.attention.W_k.weight f4 [4, 4]
00000000: 51cb f5be a0b9 863e 4f0e 513d 2919 db3e
00000010: c3d4 babe 5dba e23d 8b11 123d 2441 f8be
00000020: 6965 7abe e24c 91be 1be1 623e 69c0 0e3f
00000030: 1b3e ea3e 62b3 8f3e f16c ccbe 48df f2bd
-0.4800668 0.26313496 0.051039036 0.42792633 -0.3649045 0.11070702 0.03566126 -0.48487198
-0.24452747 -0.2837897 0.22156183 0.55762345 0.45750508 0.28066546 -0.39926866 -0.11858994

VAE.encoder_mu.layers.1.attention.W_k.bias f4 [4]
00000000: dbe7 9339 441e 2fb8 acdc 2939 3906 be39
0.0002821077 -4.175144e-05 0.00016199303 0.0003624426

VAE.encoder_mu.layers.1.attention.W_v.weight f4 [4, 4]
00000000: 00c1 e03e ba8e 15be f717 ee3e 4255 ff3e
00000010: 2bee 603e 6615 883d 4fec bd3e d49c 1d3e
00000020: 04a1 863e 93d1 dbbd c86e 993e da43 d23d
00000030: b251 3cbe c199 56be 26d3 0d3e 3d71 c1bc
0.43897247 -0.14605227 0.4650266 0.49869734 0.21965854 0.066447064 0.37094352 0.15391856
0.2629472 -0.107333325 0.29967332 0.10266848 -0.1839054 -0.2095709 0.13850078 -0.023613567

VAE.encoder_mu.layers.1.attention.W_v.bias f4 [4]
00000000: 4c07 c33c 3b2b 1cbd e692 283b 21ca d2bc
0.02380719 -0.038127165 0.0025722324 -0.025731148

VAE.encoder_mu.layers.1.linear0.weight f4 [128, 4]
00000000: de0a 61be eaaf 453f 8814 d5be 8b4c ffbd
00000010: 9a6d 7dbe 63c2 883e 0e2f f6be cfdd 423d
00000020: a8fd 07bf 9d8a f8be 964b 163f f2c8 8dbe
00000030: 694b 843e 99a8 613e a7c0 88be e33a 39bd
00000040: 38a0 60be aa60 183f f064 84be 758c 133c
00000050: 7558 e13e ed90 293d 7019 613e d4f2 32be
00000060: 344f 23be d64c e9be 0b76 2fbe 6496 fd3e
00000070: 84b3 f7be 0747 26bf caad c0be 012b 803c
00000080: f67d debe fc81 793e b5a8 f23c 93bd 0abf
00000090: 69f1 00be 3060 c7be 09de c63e f4cc bebe
000000a0: 6a9b 893e 8db0 e23e bf49 21be 2242 6abe
000000b0: d16a 243e 763c 0ebe a83e ba3e 71b7 c2be
000000c0: d66d 23be 1409 6bbd eddc 803e 928d 63be
000000d0: a3ae 803e 56dc f73e 8fae 04bf fb2b 6abe
000000e0: 05ea afbd 82b4 6a3e cdde e63e 9123 98be
000000f0: 79b0 473e 01db f33e 407d 2e3d cf13 e2be
00000100: 5c33 be3e 8528 6bbe a16c 0dbe 4b16 8b3e
00000110: 8e6a a0be 2ac7 143f 10b6 2dbe f9d3 11be
00000120: 7bfe 423e c2e4 b6be 9a13 d9be a241 953d
00000130: b9e9 4fbe bc5e d03c 60cf 75be f1e6 ba3e
00000140: 5249 24be 6da6 0fbe 5f3a f03e a0d0 dcbd
00000150: 0b8f aa3e 6bbe 02bf b377 b2bd cff1 073f
00000160: c90a ce3e add5 99bc 3fc2 cb3e 513c 02bf
00000170: 2bd4 073c b96f 76be 1c02 dabe 14cf c73d
00000180: af5f 563e cd88 bcbe 73d4 193f a622 0bbf
00000190: 5979 ac3e 86d2 443e 2332 df3e e7ca 04bf
000001a0: a5e7 60be 5635 f5be f318 fbbe 9b57 dc3d
000001b0: ba67 a03e 1a8a 423e d8cd 8ebe 5d51 c83e
000001c0: 974b aabe e64d d53e e330 803e 1b4b 0e3e
000001d0: cd8a 01bf 4b8a 03bf 5f20 6bbd 9a58 37bd
000001e0: 81fe 233e 3dc5 003f 56c8 b9be f330 b1be
000001f0: 8967 7a3e 7eaa 8e3e 956d 853e 718b b4be
00000200: 83ae b5be c94a ed3d efcc bdbe a55c 73be
00000210: 2584 1fbd b64e 743f ccd6 00bf 22e2 f5be
00000220: bdfa 4f3e 5e13 c53d 69db 443e d7f0 80bd
00000230: 2d54 083f 1faa 0e3d 5370 593e bedf e63e
00000240: 86f7 063f a66a 0b3f 0c32 a53e 98c7 9ebe
00000250: 536e 83be 39be 403e 82d5 103e 68b6 bf3e
00000260: 7459 3c3e 5059 40be d63c b7be a3a2 883e
00000270: 3b4d 85be 9e00 65be b571 95be 5b90 4e3d
00000280: 1af8 a43d bc7d 103f d8a2 0f3d c46a 4b3e
00000290: 659e b3bc 258b b93e ab84 31bd 1453 6bbe
000002a0: 4037 d6be 7781 753b 3bcf 0f3f 0d80 37bd
000002b0: b68b 083f cd05 123f a1ed 88be c713 fabe
000002c0: 0bf9 df3e dd85 8d3e a96f 2bbe f28a 2e3e
000002d0: 0e3f 0bbf 2da3 77be 028d 18bf 91c6 babd
000002e0: 36f6 f0be 0e45 893e 4305 c1bd 5928 76bd
000002f0: 3f23 e0be d704 ae3c 64e7 03bf 924f 543e
00000300: 2d13 ac3e d81f e8be a93c ccbe dcdc b03e
00000310: 1b88 9e3e ae5d ae3e 76ed f1be 1b81 fd3d
00000320: 4934 f93e f47b 353e 9cd4 06bf d6c1 0bbe
00000330: 201a b63e 6587 53be 670f 7ebe db34 cf3e
00000340: fa2d 303e 47fb 173e 800e 6f3e 6552 e8be
00000350: e823 693e 9ca4 ff3e 183f ffbe 8f9c 1c3e
00000360: eb6c 06bd d1cf 6bbe ce7e d93d 643c b2be
00000370: e9af aa3d 11d4 e8be 78ba b3be 16cb 9fbe
00000380: 3ae0 bf3e f6dd cabd 2423 f2be 19ec bc3e
00000390: 88d1 78be 492d 403e 7127 b3be e13c 933e
000003a0: 0db9 b8be 2c8b 01be 76fb ae3e a587 afbe
000003b0: c2bb 9e3e 297b 173f 0063 df3d bf88 ab3e
000003c0: 9f50 bc3e dfc2 ad3e 9ee4 563e 0721 593d
000003d0: adc6 ec3d 335b 8dbe 2a68 aebd 02a3 a93e
000003e0: b0b5 d93e 70a9 e83d 5ceb 933e 5c3a 8a3e
000003f0: a8c1 eb3b 7712 fd3e e6f6 da3e 57ce 89be
-0.21976802 0.7722155 -0.41617227 -0.12465771 -0.24748841 0.26710805 -0.48082775 0.047574814
-0.53121424 -0.48543254 0.58709085 -0.27692372 0.25838783 0.22036971 -0.26709482 -0.045222174
-0.21936119 0.595225 -0.2585826 0.009005656 0.440128 0.041397978 0.2198236 -0.17475444
-0.15948182 -0.45566434 -0.17134874 0.495288 -0.48379147 -0.6495213 -0.3763259 0.015645506
-0.43455476 0.24365991 0.029621461 -0.5419552 -0.1259209 -0.38940573 0.38841274 -0.37265742
0.26876384 0.44275323 -0.15750788 -0.2287679 0.16056372 -0.13890252 0.36375928 -0.3803058
-0.15959868 -0.057381704 0.25168553 -0.22221974 0.25133237 0.4841029 -0.51828855 -0.2286834
-0.085895576 0.22920421 0.45091859 -0.29714635 0.19500913 0.47628024 0.042599916 -0.44155738
0.3714856 -0.22964676 -0.1381097 0.27165446 -0.31331295 0.581164 -0.16963983 -0.14241017
0.19042389 -0.35721403 -0.42397767 0.07287909 -0.20304002 0.025435798 -0.24004889 0.3650432
-0.16043594 -0.1402833 0.46919534 -0.107819796 0.33312258 -0.51071805 -0.08714237 0.53103346
0.40242603 -0.018778646 0.39796636 -0.50873286 0.008290331 -0.24066056 -0.42579734 0.09756294
0.20934938 -0.3682312 0.60089797 -0.54349744 0.3368633 0.19220933 0.4359294 -0.51872104
-0.21963365 -0.47892255 -0.49042472 0.10758897 0.31329137 0.18997994 -0.2789142 0.39124575
-0.33260795 0.41660994 0.25037298 0.13895838 -0.5060242 -0.51382893 -0.05740392 -0.04476223
0.16015054 0.5030096 -0.36285657 -0.34607658 0.24453558 0.2786445 0.26060167 -0.35262635
-0.35484704 0.1158653 -0.37070414 -0.2376581 -0.038944382 0.95432603 -0.50327754 -0.48024088
0.20310493 0.096228346 0.19224323 -0.062959366 0.5325344 0.03483021 0.21234255 0.45092577
0.5272144 0.5445961 0.32264745 -0.31011653 -0.25670108 0.18822564 0.14143947 0.37443852
0.18393499 -0.1878407 -0.35788602 0.26686582 -0.26035485 -0.22363517 -0.29188314 0.050430637
0.08055134 0.56441855 0.03506741 0.19864947 -0.021926114 0.3623897 -0.043339413 -0.2298091
-0.41839027 0.00374612 0.56175584 -0.044799853 0.5333818 0.570401 -0.26743796 -0.48843214
0.43744692 0.27641192 -0.16741814 0.17045191 -0.5439309 -0.2418334 -0.5959016 -0.09119905
-0.47062844 0.26810497 -0.09424832 -0.060097072 -0.4377689 0.021242542 -0.5152495 0.20733479
0.3360838 -0.45336795 -0.3989003 0.34543502 0.30963215 0.34055847 -0.4725148 0.123781405
0.48672703 0.17723066 -0.52668166 -0.13648161 0.35566807 -0.20657118 -0.24810563 0.40470013
0.17205039 0.14841948 0.23345375 -0.45375362 0.22767603 0.49930274 -0.49852824 0.15294097
-0.032818716 -0.23028494 0.10619889 -0.348117 0.083343334 -0.45474294 -0.35103202 -0.3120963
0.3747576 -0.09905617 -0.47292435 0.36898878 -0.2429868 0.18767275 -0.3499103 0.28757384
-0.36078683 -0.12650746 0.34176224 -0.34283176 0.31002623 0.591723 0.109075546 0.33502766
0.3678026 0.33937737 0.20985648 0.053010013 0.11561332 -0.27608642 -0.085159615 0.33132178
0.4252143 0.11360443 0.28890502 0.2699765 0.0071947165 0.4942815 0.42766494 -0.26915237

VAE.encoder_mu.layers.1.linear0.bias f4 [128]
00000000: 2c51 9f3e 070e 523e 98cb c9be 4c76 d53e
00000010: d10f af3e e8ca ee3e 141b 723e 4bea 7abe
00000020: 7e6e 13be 6f09 0abf 39aa 1cbd c33d 7ebd
00000030: d46d bbbe 7761 74bd 4aff 1a3c cd8f 11bd
00000040: d4f8 3b3b 669e c4be ae11 f3bc f0a8 e63e
00000050: 9fd1 713e 7828 babe 4da0 31be 2b22 f43e
00000060: da56 93be 44d2 30be 0e88 d7be 716e 75bc
00000070: eb31 cdbb 3e06 2d3c 6103 063f c8e6 6e3e
00000080: 468e 5a3e a1f8 a0be fc96 64be 1041 ba3e
00000090: d838 83be 2a4c 6c3e 95a2 b73e a4db c53e
000000a0: 7f58 7b3e 1074 53be 425c 933d ea1e 123d
000000b0: 959e cd3e b73a 78be 89b7 153e 41be a3be
000000c0: a486 023e 0fd4 5a3e 6040 eb3d 59ff c83d
000000d0: dbf6 073e f23e 783d ff9b 7bbd 0445 ec3e
000000e0: 9982 c9bd 4201 8d3e 76fe 51bd 245d cc3e
000000f0: 0457 173e 1805 743e 3430 b33e 43e5 243e
00000100: 95e0 fdbd 969b 02be 4fd1 5dbe e731 b73e
00000110: 6cbd ff3d 5d30 f1be 88e8 ae3d 3831 aebe
00000120: 21d6 173f 1663 003e fb7d ce3d f221 c53e
00000130: 1749 58be 2a5b 5ebd eba6 eabe 469f 0ebe
00000140: 0deb d43d 7a22 dd3c dbac 04bf 65ca be3e
00000150: e773 c7be fc7e a63e 23c5 cd3e 05c5 523e
00000160: 99dc 7fbe c0ac bf3e 3c07 0f3d ac2d a63e
00000170: 44e0 57be 74c2 5ebd f1bd e3be 8f5f d83e
00000180: eccc 3dbe b4c6 c73e 18ac 4dbe 9cfd 21be
00000190: 196e 54be 4149 c03e 2093 063e 701f 0a3f
000001a0: 7a95 73be b508 24bd 4ff9 0f3f 01d5 80bd
000001b0: f00c 463d 094b 783e ad18 f03e f8a1 793e
000001c0: d075 d2be 566f e3be 85f6 603e dda5 eb3e
000001d0: 1e43 093e 2985 71be 6cc1 583e e0c7 783e
000001e0: 62b8 f73e 2451 b4bc 9a4c 953e c7e7 e7bc
000001f0: 8fb9 b53e c915 a4be 7741 013f 4eab a63e
0.31116617 0.20513164 -0.39413142 0.41691816 0.34191754 0.4663918 0.23643142 -0.24503438
-0.14397618 -0.53920645 -0.038248274 -0.06207062 -0.3660723 -0.059663262 0.00946028 -0.03553753
0.0028682249 -0.38402098 -0.029671516 0.45050764 0.2361512 -0.36359 -0.17346306 0.47682318
-0.287772 -0.1726771 -0.4209599 -0.014979945 -0.006262054 0.01056057 0.52348906 0.23330224
0.21343336 -0.3143969 -0.22323221 0.36377764 -0.25629306 0.2307593 0.35866228 0.38644135
0.24545477 -0.20649743 0.07195331 0.035674013 0.4016005 -0.24241148 0.14620794 -0.3198109
0.12746674 0.21369956 0.11486888 0.09814329 0.13277762 0.060606904 -0.061428066 0.46146405
-0.09839363 0.27540022 -0.051268063 0.3991481 0.14779288 0.23830068 0.34997714 0.16103081
-0.12396351 -0.12754664 -0.21661876 0.3578026 0.12487301 -0.4710721 0.085404456 -0.34021926
0.5931111 0.12537798 0.100826226 0.3850246 -0.21121632 -0.05428616 -0.45830473 -0.13927945
0.10396395 0.026993979 -0.51826257 0.3726379 -0.38955614 0.32518756 0.40189466 0.2058297
-0.24986495 0.37436485 0.03491901 0.3245672 -0.21081644 -0.054384664 -0.4448085 0.42260405
-0.18535203 0.39018786 -0.2008518 -0.158194 -0.20745124 0.37555888 0.13142061 0.5395422
-0.2378749 -0.040047366 0.5623979 -0.06290627 0.048352182 0.24247374 0.46893826 0.24378192
-0.4110551 -0.4442088 0.2196904 0.4602498 0.1340451 -0.23585953 0.21167535 0.24294996
0.4838286 -0.022011347 0.29160005 -0.028308762 0.35493132 -0.3204787 0.50490516 0.3255257

VAE.encoder_mu.layers.1.linear1.weight f4 [4, 128]
00000000: ea2b 91bd c7f7 afbc be10 6d3e 56df 9e3d
00000010: 557f 4bbd 0a22 0abe a8df b83c c157 c2bc
00000020: cdb5 9abd 2d7b 713d a72a f9bd a81f 113d
00000030: 756a d03d a9f5 10be cf0f 8b3a 8e2a 2ebb
00000040: 7a6d 113e d2c4 c83e 8fa4 5e3d ad15 be3d
00000050: 0ca5 9d3d 37d1 aa3d fbb8 28bb a993 cd3d
00000060: dcc7 7bbc a004 4cbd 38dc 843d 0afb 803d
00000070: 81c5 bebc 49b1 e7bd 9cdd a53b 0496 6a3a
00000080: 00b9 6ebd 09a8 933e 6ae1 cfbc 045c d3bc
00000090: 3c31 dabd 6b66 7e3d dc50 e83d e83f b23d
000000a0: 2ec5 bcbd 31eb 84bd cf2b dc3b 3167 0cbe
000000b0: 8843 d43d f8d1 0bbe 4328 253c 86d0 26be
000000c0: 48a1 d53c 160a 123e 4e49 ea3c 7af2 043e
000000d0: 6e4e 04be a778 1d3e 8ef2 573c ab7d 2cbc
000000e0: 5cd8 263e 2630 9ebd fe11 cf3d 3692 673c
000000f0: fc67 c5bc dd68 2f3d e00f 89bb 3921 d1bd
00000100: a40b 733e 6ec8 68be 8c5a e53e d26d 98bd
00000110: c2ad 0d3b f4ea e83d c7b1 66bd 6ad7 113e
00000120: ede0 09bd c9a1 b93c 05d7 96bd 125a 5c3d
00000130: 3cab 0a3e 8d2d 3cbd 559e 0f3e 22fe f53d
00000140: 0997 92bd 47a3 43bd 9da4 493e f539 7b3b
00000150: 844f a43e 162b 9fbd 19c0 e73d 0f0f 393d
00000160: 31ea fa3e be72 a9bd 1b0c cebd 9d6e 933d
00000170: 5968 0e3e 566f 5abd 5f29 a13d 111a 9e3d
00000180: e25b 4ebb 865b a4bd 2580 983d 86c0 b6bc
00000190: f8b2 4f3c 2e92 0ebe 6dfe 20bb 2753 c13b
000001a0: 2a91 243f 34c9 e8bd 3a75 8c3d b8ea f5bc
000001b0: 47a4 38be d07f 0cbe b802 91bb 06e8 07bc
000001c0: be23 913e fc80 993d 69e2 b6bd 8ff0 c33d
000001d0: 3937 babd e7c2 1a3e f633 7a3d d974 88bd
000001e0: 5ecd d53c ce20 9ebc 0c52 d03d 0907 04be
000001f0: 5e13 adbd 1943 c9bc 82a1 19bd e3a2 8c3d
00000200: f34b a13c d76c bc3d 188f 1bbe 13ac 063d
00000210: 22b1 213e 8a43 febd 8331 8bbd 0554 e8bd
00000220: e9ef 8f3d d93a aabd 2044 8fbd b529 ecbd
00000230: 7ac2 22be 1acb a63d 6623 dc3d fa09 ecbd
00000240: b50e 79bd 1195 56be 0b47 a1bd 7e40 d7bc
00000250: 52b4 30bd fa29 2ebe e906 a2bb 031b 73bd
00000260: 9168 96bd f716 c83d 47d7 90bb 0c48 6bbd
00000270: 585c 4ebd 3da3 c0bc 8aca 033e 56de 1dbe
00000280: 6800 cc3c 5515 90be 6cb2 893d 27bc a9bc
00000290: c6db 9ebb 0c06 383c 096f 203d d65e cabc
000002a0: dba9 f13d 13dc 5c3d d541 ecbc 2282 4dbd
000002b0: 167a 07ba 2bcb d23d 0018 a13d 7c5e 1d3e
000002c0: a68f 2fbd 62dd 9abb e1a5 1d3e dc07 a639
000002d0: 9f7e e0bd f7b6 433d 75f1 71bd a948 c6bc
000002e0: ea3c 72bc 46cf 333d 87f8 8eb8 406d f43c
000002f0: 17f8 38bd da1e 98bd c7e0 d2bd dc0f c43d
00000300: 0495 03bc 6b3e 5c3e 682f 8ebe fa07 333e
00000310: ffce 92bd b0dd 5bbe 0aab 31be f10e afbe
00000320: 3396 eb39 39a8 703d 9550 37bd 4153 2fbc
00000330: 106e 01be 1e7b 4cbd 3f85 a4bc db0a 953d
00000340: 5646 943d 3ae9 24be 8706 b2ba faf1 dd3a
00000350: c0a9 e3bd a163 aabc 46d3 74bd 549e e33d
00000360: f7b0 7abd 5453 77bc f36c 83bd 0776 733d
00000370: 7e24 63be 9feb 503d f19f 873b 0409 0c3b
00000380: d5a6 abbc dd3e 413d c63f df3d 69a2 debc
00000390: 605b d83c 96bc 473c a27b 203d ba8a fabd
000003a0: d406 d73d 21a7 88bc 673e d3bc 91c8 11be
000003b0: 6864 d23d e831 0d3e 70cf 1e3c 9c10 b73d
000003c0: a7d6 02be 6865 36bd 7a2e 6a3d c8e4 d5bd
000003d0: e043 823d 8779 18bd d2a2 ab3c 0e5e 37bc
000003e0: e4a2 3dbd 929d 7dbc 7d28 0dbd 410b 57bd
000003f0: 43a8 9a3d 42c3 013c 9607 933d 98a2 a33d
-0.07088454 -0.021480454 0.23150918 0.07757442 -0.04968198 -0.13489547 0.022567585 -0.023723485
-0.07554207 0.05895536 -0.121663384 0.03543058 0.10176555 -0.14156212 0.001060957 -0.0026575658
0.14201918 0.39212662 0.054356154 0.09281478 0.07697496 0.08340686 -0.0025745023 0.100379296
-0.015367474 -0.0498091 0.06487316 0.06297882 -0.023287537 -0.11313111 0.0050618183 0.00089487457
-0.0582819 0.28839138 -0.02537604 -0.025800712 -0.10653922 0.062109392 0.11343548 0.087035954
-0.092172965 -0.06490172 0.0067190896 -0.1371124 0.10364443 -0.13654315 0.0100804 -0.16290483
0.026077881 0.1426166 0.028599408 0.12983122 -0.12920544 0.15378056 0.013180388 -0.010528008
0.16293472 -0.07724027 0.101108536 0.0141339805 -0.024097435 0.042824615 -0.0041828007 -0.10211415
0.2373491 -0.22732708 0.44795644 -0.074428216 0.002161846 0.11372939 -0.056321885 0.1424233
-0.03366177 0.022660153 -0.073652305 0.053796835 0.13541883 -0.045941878 0.14025243 0.120113626
-0.07157714 -0.047763135 0.19691701 0.0038334106 0.32091916 -0.0777189 0.113159366 0.045180377
0.490068 -0.082738385 -0.10060903 0.07198832 0.13906993 -0.053328834 0.07869219 0.077198155
-0.0031487872 -0.08025269 0.07446317 -0.0223086 0.012676947 -0.1392295 -0.0024565712 0.005899805
0.64284 -0.113665015 0.06858297 -0.03001915 -0.18031417 -0.13720632 -0.004425373 -0.008295065
0.28347582 0.07495305 -0.08929903 0.09567367 -0.09092564 0.15113412 0.06108471 -0.06662912
0.026098903 -0.019302752 0.10171899 -0.12893309 -0.084509596 -0.024568127 -0.03750754 0.06867006
0.019689536 0.09200447 -0.15191305 0.032878947 0.15790227 -0.12415226 -0.06796553 -0.113441505
0.07028181 -0.083120055 -0.06995416 -0.115313925 -0.158945 0.08144207 0.10748939 -0.115253404
-0.06080504 -0.20955302 -0.078748785 -0.02627587 -0.043140717 -0.170082 -0.0049446714 -0.059351932
-0.07344163 0.09770005 -0.0044201943 -0.057441756 -0.050381035 -0.023515338 0.12870231 -0.15416846
0.024902537 -0.28141275 0.067234844 -0.0207196 -0.0048479764 0.01123191 0.03916839 -0.024703424
0.117999755 0.053920817 -0.028839985 -0.050172932 -0.00051680335 0.102926575 0.07865906 0.15368074
-0.042861603 -0.004726098 0.15395309 0.00031667843 -0.10961651 0.04778191 -0.059068162 -0.024204569
-0.014785031 0.043898843 -6.8173795e-05 0.02983725 -0.045158472 -0.074277595 -0.10296779 0.095733374
-0.008031134 0.21508186 -0.27770543 0.17483512 -0.071683876 -0.21471286 -0.17350402 -0.34191087
0.000449346 0.05875418 -0.044754583 -0.010701002 -0.12639642 -0.0499221 -0.020083068 0.07277461
0.07239978 -0.16104594 -0.0013582268 0.0016933077 -0.111163616 -0.02079946 -0.0597718 0.11114183
-0.061203923 -0.015095551 -0.06417265 0.05943873 -0.2218189 0.051005956 0.0041389395 0.0021367678
-0.020953575 0.04717909 0.10900836 -0.027177053 0.026410758 0.0121909585 0.039180405 -0.12233491
0.10499349 -0.016681256 -0.025786592 -0.14236666 0.10273057 0.13788569 0.009693012 0.08938715
-0.12777196 -0.044530302 0.05717323 -0.10444027 0.063606024 -0.037225273 0.020951662 -0.011191858
-0.046297923 -0.015479462 -0.03446244 -0.052500967 0.075516246 0.007920088 0.07179181 0.07989997

VAE.encoder_mu.layers.1.linear1.bias f4 [4]
00000000: 55ca 76bd 8a00 c4bd ccaf c83d dec9 14bd
-0.060251553 -0.09570415 0.097991556 -0.036325328

VAE.encoder_mu.layers.1.norm1.weight f4 [4]
00000000: 9443 8e3f ef88 8f3f cd5a 933f 43da 883f
1.1114373 1.1213664 1.1512085 1.0691608

VAE.encoder_mu.layers.1.norm1.bias f4 [4]
00000000: b6a8 413d 165f a03d e55b f4bc 1db5 a1bd
0.047280036 0.07830636 -0.029828975 -0.07895873

VAE.encoder_mu.layers.1.norm0.weight f4 [4]
00000000: 9361 423f 9b23 403f a39b 7b3f ca85 793f
0.75930136 0.7505433 0.9828436 0.9746977

VAE.encoder_mu.layers.1.norm0.bias f4 [4]
00000000: 8d04 ce3c fe61 963c e0bc 2dbd d6c7 1b3d
0.025148654 0.018357273 -0.042416453 0.038032375

VAE.encoder_mu.last_normalization.weight f4 [4]
00000000: 0000 803f 0000 803f 0000 803f 0000 803f
1.0 1.0 1.0 1.0

VAE.encoder_mu.last_normalization.bias f4 [4]
00000000: 0000 0000 0000 0000 0000 0000 0000 0000
0.0 0.0 0.0 0.0

VAE.encoder_mu.head.weight f4 [4, 4]
00000000: b85b aebe b82c debd e8e7 e33d 748d 6fbe
00000010: 0c14 3a3e 4658 81be c459 f4be 309f 91be
00000020: 6029 0b3e f0db afbe d21e 81be 66fb cabe
00000030: d898 b33d e80d 733e 709d 62bd 46f2 e33e
-0.3405435 -0.10848373 0.11128217 -0.23393804 0.1817171 -0.2526266 -0.47724736 -0.28441763
0.13590002 -0.34347486 -0.25218827 -0.39644927 0.08769387 0.23735774 -0.055325925 0.44520777

VAE.encoder_mu.head.bias f4 [4]
00000000: 4836 f5bd 389b d1be 2400 683e 808b ac3e
-0.11973244 -0.40938735 0.22656304 0.3370018

VAE.encoder_logvar.layers.0.attention.W_q.weight f4 [4, 4]
00000000: eba2 18bd a4d4 12bf b8f4 cdbd 0963 84be
00000010: 30c0 e63c 9c9d cfbe 12d8 2bbe 9a1c 043e
00000020: 3d93 b83e 7475 28bf 4302 dd3e bc39 00bf
00000030: 8710 49be 17b4 0dbf 0302 353e 53a8 eabe
-0.037264746 -0.57355714 -0.10056442 -0.25856808 0.028167814 -0.40549934 -0.16781643 0.12901536
0.36049834 -0.6580422 0.43165788 -0.50088096 -0.19635211 -0.5535292 0.17676549 -0.45831546

VAE.encoder_logvar.layers.0.attention.W_q.bias f4 [4]
00000000: 687b d1bd ce7a 053e 3f51 a93d a296 253e
-0.10228616 0.13035128 0.082674496 0.16170743

VAE.encoder_logvar.layers.0.attention.W_k.weight f4 [4, 4]
00000000: 75ee 303f 6bb7 40be 4c8c f43e fe09 45be
00000010: 9d9a 80be 7a48 bfbe 6fe5 cf3e 9043 1dbd
00000020: 09b6 253f 4bdb 06bf 7439 c1be 79af 84bd
00000030: 3f92 51be d8eb 14bf 629f 5fbe 44fe 15bf
0.69113857 -0.18819968 0.47763288 -0.19242093 -0.2511796 -0.37359983 0.4060473 -0.03839451
0.6473089 -0.52678365 -0.37739146 -0.06478781 -0.20465945 -0.5817237 -0.21838143 -0.58591104

VAE.encoder_logvar.layers.0.attention.W_k.bias f4 [4]
00000000: 191f e4b8 2f3b 1638 1309 2638 27f9 98b7
-0.000108776796 3.5817906e-05 3.9585935e-05 -1.8235833e-05

VAE.encoder_logvar.layers.0.attention.W_v.weight f4 [4, 4]
00000000: 3931 4b3e 87bd bf3d 5712 1dbe 9bac 03bf
00000010: 335d 483e 83a4 a83c c110 3dbe ffc3 f3be
00000020: eaf8 19bd b975 ed3d cf85 b0bc 83b6 f8bd
00000030: 0e31 533e f9b8 d13d 2b07 0abe 1c8b f7be
0.19842996 0.09362321 -0.15339027 -0.5143525 0.19566803 0.020586258 -0.18463422 -0.4761047
-0.0375909 0.115947194 -0.02154818 -0.12144186 0.20624182 0.10240359 -0.13479297 -0.4834832

VAE.encoder_logvar.layers.0.attention.W_v.bias f4 [4]
00000000: 5811 28bd 361d adbd ea47 433c 3d41 1b3d
-0.041032165 -0.08452837 0.011919001 0.037904013
