tabsyn/vae/ckpt/default/decoder.pt (torch, 27971 bytes, 49 tensors)

VAE_Decoder.layers.0.attention.W_q.weight f4 [4, 4]
0.37681356 -0.41410068 -0.1851752 -0.22355218 -0.11754155 0.13249052 0.2672249 0.04283246
0.19424643 0.02644316 0.26087692 -0.5614535 -0.26937327 -0.27831995 -0.07518019 0.12525328
00000000: b5ed c03e 0105 d4be 919e 3dbe ddea 64be
00000010: a0b9 f0bd 98ab 073e b4d1 883e 1771 2f3d
00000020: 89e8 463e 539f d83c a991 853e 6bbb 0fbf
00000030: 4beb 89be f47f 8ebe 12f8 99bd 6542 003e

VAE_Decoder.layers.0.attention.W_q.bias f4 [4]
-0.25367463 0.40864933 -0.18800655 -0.14089823
00000000: a4e1 81be 7c3a d13e ca84 40be a047 10be

VAE_Decoder.layers.0.attention.W_k.weight f4 [4, 4]
-0.3617446 -0.027790356 -0.362775 -0.6031688 -0.42428288 -0.19234294 -0.38543403 0.5490801
-0.15807246 0.12922111 -0.111272 -0.46409082 -0.18326499 0.15500705 0.15369506 -0.20522395
00000000: 9736 b9be 9aa8 e3bc a5bd b9be 4569 1abf
00000010: 9b3b d9be 8cf5 44be 9c57 c5be 8390 0c3f
00000020: bfdd 21be 8a52 043e 93e2 e3bd 509d edbe
00000030: d1a9 3bbe 2bba 1e3e 3d62 1d3e 3a26 52be

VAE_Decoder.layers.0.attention.W_k.bias f4 [4]
-0.00060144137 0.001166999 0.00021210167 -1.0873139e-05
00000000: 0caa 1dba fdf5 983a 9c67 5e39 c76b 36b7

VAE_Decoder.layers.0.attention.W_v.weight f4 [4, 4]
-0.27160168 0.12300185 -0.13021868 -0.52344465 -0.05610864 -0.009826104 -0.005321685 -0.1563579
0.050007902 0.005294373 0.0015176797 -0.112001106 0.033108234 -0.008996747 -0.116787784 -0.10126357
00000000: 600f 8bbe 65e8 fb3d 0c58 05be 7800 06bf
00000010: 2cd2 65bd abfd 20bc 8861 aebb 491c 20be
00000020: 16d5 4c3d 6b7c ad3b e1ec c63a d660 e5bd
00000030: 809c 073d 1867 13bc 6f2e efbd 4663 cfbd

VAE_Decoder.layers.0.attention.W_v.bias f4 [4]
-0.24798581 -0.06705363 -0.045431767 0.22660118
00000000: feef 7dbe 6a53 89bd a916 3abd 240a 683e

VAE_Decoder.layers.0.linear0.weight f4 [128, 4]
-0.1243855 0.35700896 0.45753944 -0.07189579 0.60850143 -0.080221124 0.043522112 0.3470495
-0.0049747885 -0.21421213 -0.16591074 -0.2080093 -0.20005356 -0.39770988 0.37578508 0.60845745
0.42992535 -0.5046988 0.31905794 -0.9204684 0.37972653 -0.5870487 0.29381138 -0.7055846
0.4320127 -0.5204935 0.07392534 -0.036693603 -0.001594021 0.25183496 0.13794596 0.43955445
-0.04294445 -0.13378587 -0.59922767 0.34452906 -0.4726707 -0.14978382 0.09979349 -0.49665835
0.38866904 -0.7064814 -0.12512651 0.13718422 0.11669324 0.4356315 -0.14315324 0.46686298
0.679866 -0.72710305 -0.10909967 0.40967706 0.86184126 -0.1748532 -0.46960878 0.3101414
0.16041772 -0.21580626 0.5992751 -0.39324746 0.20766887 -0.14941941 -0.63480663 0.45649064
0.23685321 0.15195027 0.043269284 0.45665652 -0.3155305 0.11572936 0.4972593 -0.6867679
0.38782263 -0.1444922 -0.14470033 0.7253985 -0.119176745 -0.27669746 0.6002131 -0.36926052
-0.6115061 -0.19171289 0.1815489 -0.36973384 -0.22296074 -0.21162023 -0.61421084 0.1507785
-0.2749135 -0.35751656 -0.061998907 0.3584126 -0.31050593 -0.19742338 -0.06833727 0.56908864
0.2469942 -0.33317047 0.013207581 -0.2306438 0.35975748 -0.2818435 0.39486837 -0.6857665
0.8540707 -0.18869393 -0.8633807 -0.8174729 0.24419692 0.54071176 -0.49559578 -0.0047418987
-0.4434891 -0.3173359 -0.16450447 -0.30172685 0.5044698 -0.7485089 0.3506403 0.40367308
-0.12761487 -0.40263373 0.37758905 -0.21131495 -0.31079653 -0.24433784 -0.2215672 -0.12116008
0.4191656 -0.56946164 -0.5200097 0.51929355 0.4821725 -0.63622844 -0.07421404 0.19024447
-0.43224767 0.18294498 -0.015236454 -0.2720181 -0.09814615 0.5898541 -0.5627678 -0.41469428
-0.10429187 -0.124311954 -0.6838438 0.4438619 0.13090989 -0.0057911575 0.26623592 -0.74805886
-0.04400135 0.1437481 0.15244362 0.6056086 -0.560628 0.020388752 0.22994147 -0.5173935
0.1360421 0.5525548 -0.6695797 0.46297222 -0.39036995 -0.44277135 0.55654055 -0.10696514
0.5490049 0.1202498 -0.17263813 -0.4638851 -0.48801053 -0.55005354 0.050439253 0.33302194
-0.32287565 0.057192888 -0.22149485 0.5307398 -0.07843826 0.32713133 0.49119052 -0.396436
-0.2960345 -0.06061866 -0.103037335 0.7412807 -0.49905834 0.5632703 -0.17214465 -0.4831286
0.33719665 -0.5285901 0.29299048 -0.3448761 -0.23877989 0.29917347 0.22820541 -0.42025897
-0.3167374 -0.0003374976 -0.3228832 -0.0105667375 0.28802434 -0.27428237 -0.07361413 0.78874624
-0.026275171 -0.18583545 -0.3827736 0.72298115 -0.3382681 -0.3392179 -0.29517567 0.860861
0.576162 0.11959843 -0.05979155 -0.7182331 0.048796207 0.52699697 0.5154029 -0.00056137907
-0.6114873 0.10538093 -0.48246157 0.66800964 -0.5773473 0.28131804 0.3623149 -0.2805942
-0.4477686 -0.45051965 0.56683046 -0.20311822 -0.17693213 0.3383019 0.311945 -0.3190903
0.3869688 0.4551153 -0.6064206 -0.51266557 0.22637981 0.059588395 0.42873302 0.429193
-0.26185915 -0.2731342 -0.44671676 0.07915217 -0.35071027 -0.38195503 -0.82649386 0.30491704
00000000: d3bd febd e1c9 b63e 9c42 ea3e 1a3e 93bd
00000010: c0c6 1b3f f94a a4bd 3e44 323d 79b0 b13e
00000020: 8d03 a3bb 6d5a 5bbe 81e4 29be 6400 55be
00000030: d7da 4cbe a1a0 cbbe e766 c03e dec3 1b3f
00000040: 2d1f dc3e f133 01bf 905b a33e d1a3 6bbf
00000050: 846b c23e d348 16bf 726e 963e 31a1 34bf
00000060: c530 dd3e 103f 05bf 2b66 973d 084c 16bd
00000070: 78ee d0ba 83f0 803e b541 0d3e 480d e13e
00000080: 85e6 2fbd 2aff 08be fc66 19bf 1d66 b03e
00000090: e501 f2be ee60 19be 8760 cc3d 014a febe
000000a0: a1ff c63e f7db 34bf 2a21 00be 057a 0c3e
000000b0: defc ee3d 180b df3e c396 12be aa08 ef3e
000000c0: b30b 2e3f 6d23 3abf a66f dfbd 31c1 d13e
000000d0: a1a1 5c3f b80c 33be 9070 f0be dbca 9e3e
000000e0: 8b44 243e 51fc 5cbe 186a 193f bb57 c9be
000000f0: 26a7 543e 6701 19be b082 22bf 24b9 e93e
00000100: a689 723e da98 1b3e 223b 313d e2ce e93e
00000110: 378d a1be 8403 ed3d c598 fe3e 05d0 2fbf
00000120: b090 c63e c3f5 13be 532c 14be b7b3 393f
00000130: f012 f4bd 4aab 8dbe 91a7 193f b70f bdbe
00000140: aa8b 1cbf 6250 44be f4e7 393e c14d bdbe
00000150: d24f 64be f9b2 58be ec3c 1dbf ae65 1a3e
00000160: 76c1 8cbe 690c b7be 91f2 7dbd db81 b73e
00000170: a2fa 9ebe 5b29 4abe 69f4 8bbd cbaf 113f
00000180: 0cec 7c3e 5295 aabe 9c64 583c e32d 6cbe
00000190: 2232 b83e cb4d 90be 302c ca3e 658e 2fbf
000001a0: 61a4 5a3f fb38 41be 8406 5dbf e745 51bf
000001b0: c20e 7a3e 166c 0a3f bbbe fdbe ee61 9bbb
000001c0: 0111 e3be da79 a2be dc73 28be f17b 9abe
000001d0: ef24 013f 479e 3fbf 2087 b33e 3dae ce3e
000001e0: 79ad 02be 0226 cebe 5a53 c13e f262 58be
000001f0: b920 9fbe b333 7abe 83e2 62be c722 f8bd
00000200: e09c d63e 3dc8 11bf 5b1f 05bf 6cf0 043f
00000210: 50df f63e dedf 22bf 88fd 97bd 72cf 423e
00000220: 914f ddbe ee55 3b3e 52a2 79bc f545 8bbe
00000230: d900 c9bd ae00 173f 8d11 10bf cf52 d4be
00000240: fa96 d5bd 4497 febd 6310 2fbf de41 e33e
00000250: 3e0d 063e c0c3 bdbb 1350 883e c980 3fbf
00000260: c23a 34bd b432 133e 2e1a 1c3e 2a09 1b3f
00000270: 5185 0fbf 5006 a73c c775 6b3e e773 04bf
00000280: 9f4e 0b3e 3b74 0d3f 9369 2bbf b20a ed3e
00000290: 92de c7be edb2 e2be 7179 0e3f 8a10 dbbd
000002a0: 968b 0c3f 8745 f63d 0dc8 30be 5982 edbe
000002b0: 84dc f9be 4fd0 0cbf 6499 4e3d da81 aa3e
000002c0: f54f a5be 1743 6a3d 8ccf 62be 90de 073f
000002d0: 3da4 a0bd c27d a73e 537d fb3e a9f9 cabe
000002e0: d591 97be 464b 78bd 3d05 d3bd 92c4 3d3f
000002f0: 9384 ffbe 7b32 103f b046 30be a25c f7be
00000300: 0aa5 ac3e ae51 07bf d902 963e 9a93 b0be
00000310: b782 74be 442d 993e aeae 693e 2f2c d7be
00000320: 682b a2be 29f2 b0b9 f250 a5be 1c20 2dbc
00000330: ed77 933e bd6e 8cbe 01c3 96bd 46eb 493f
00000340: 073f d7bc a64b 3ebe e7fa c3be 4b15 393f
00000350: 7a31 adbe f8ad adbe 4421 97be 6361 5c3f
00000360: 5a7f 133f 06f0 f43d fce7 74bd 20de 37bf
00000370: 88de 473d 46e9 063f 72f1 033f 8329 13ba
00000380: 6f8a 1cbf f5d1 d73d 3405 f7be ae02 2b3f
00000390: 08cd 13bf eb08 903e 5781 b93e 0baa 8fbe
000003a0: ed41 e5be 83aa e6be cd1b 113f 39fe 4fbe
000003b0: b22d 35be e835 ad3e 41b7 9f3e ce5f a3be
000003c0: c620 c63e df04 e93e 613e 1bbf 0d3e 03bf
000003d0: 1cd0 673e f612 743d e582 db3e 2fbf db3e
000003e0: 6712 86be 3fd8 8bbe 0fb8 e4be 881a a23d
000003f0: 4c90 b3be 9c8f c3be 1a95 53bf 161e 9c3e

VAE_Decoder.layers.0.linear0.bias f4 [128]
0.32947737 0.37147418 0.49401876 -0.07220138 0.2591588 -0.15992455 0.3050226 0.50844234
-0.05189834 0.09883219 0.14288792 0.57090396 0.3997849 0.21096657 0.35953456 0.48230618
0.4887668 0.25877833 0.02225594 -0.10394871 -0.1779354 -0.015031747 -0.08762826 0.2641993
0.28027678 0.34023198 -0.10889805 -0.019401055 0.29745567 0.26356688 0.36280078 -0.33802113
0.26503703 0.027644487 0.4231606 -0.45191556 0.009900567 0.41206434 0.3197459 -0.16044383
0.33766285 0.09981304 0.24067008 0.28748113 0.61461604 0.090817645 0.45832255 0.078100376
0.37392318 -0.27686092 0.28619975 0.46060863 0.102201514 0.39916846 0.23367202 0.4598797
-0.05766374 0.27395052 0.2985767 -0.23128767 -0.17457713 0.43757161 0.4001874 -0.011700729
-0.32552743 0.33024263 -0.5246749 0.17899306 -0.08906747 0.5716465 0.6751976 0.37751997
0.11276405 0.4168773 -0.1727796 -0.16033737 -0.29765096 0.5729573 0.22019069 -0.37697908
0.029185487 -0.15114535 0.33634216 0.064161435 0.03705791 0.112898745 -0.123732544 0.124981955
0.318853 -0.30865923 -0.2474137 -0.20965706 0.106110446 -0.09825368 -0.10154731 -0.09334358
-0.23049457 -0.011021765 0.4684272 -0.05308823 0.42316556 -0.25353885 -0.07255313 -0.3784236
-0.3834316 0.46430993 0.17372645 0.24547134 0.16011944 -0.25808078 -0.10505121 -0.0025519761
0.11318185 0.014522406 0.3701647 0.27710396 -0.084010385 -0.2351236 0.09978204 0.56236196
0.09555366 0.029030401 0.5375425 -0.3154083 0.44447222 -0.07927884 -0.2300617 0.10904719
00000000: 42b1 a83e dd31 be3e 07f0 fc3e 51de 93bd
00000010: 76b0 843e 43c3 23be ec2b 9c3e 4729 023f
00000020: 5b93 54bd 8868 ca3d 3651 123e c326 123f
00000030: 9bb0 cc3e 9f07 583e ea14 b83e d6f0 f63e
00000040: a43f fa3e 987e 843e 1752 b63c 10e3 d4bd
00000050: b334 36be b747 76bc 7276 b3bd 2145 873e
00000060: 7080 8f3e e332 ae3e f105 dfbd f6ee 9ebc
00000070: 1c4c 983e 3df2 863e 06c1 b93e 1b11 adbe
00000080: efb2 873e b176 e23c 82a8 d83e 7a61 e7be
00000090: fd35 223c 19fa d23e bcb5 a33e 634b 24be
000000a0: 25e2 ac3e c76a cc3d 3872 763e ba30 933e
000000b0: 7a57 1d3f 9afe b93d 41a9 ea3e 17f3 9f3d
000000c0: dc72 bf3e b7c0 8dbe c688 923e e5d4 eb3e
000000d0: 074f d13d cf5f cc3e b847 6f3e 5a75 eb3e
000000e0: d030 6cbd 3e43 8c3e 0cdf 983e add6 6cbe
000000f0: 59c4 32be 6309 e03e 5de5 cc3e 6ab4 3fbc
00000100: 88ab a6be 9015 a93e 1851 06bf f549 373e
00000110: 0169 b6bd 6d57 123f c0d9 2c3f 4c4a c13e
00000120: d7f0 e63d f170 d53e 23ed 30be 7b2f 24be
00000130: b565 98be 54ad 123f ab79 613e 6703 c1be
00000140: 6716 ef3c d9c5 1abe 0a35 ac3e 1267 833d
00000150: 09ca 173d 7537 e73d 7d67 fdbd 8af6 ff3d
00000160: b340 a33e 9508 9ebe 045a 7dbe 57b0 56be
00000170: 6f50 d93d 3a39 c9bd 09f8 cfbd eb2a bfbd
00000180: c506 6cbe a294 34bc b1d5 ef3e 0b73 59bd
00000190: 28a9 d83e d8cf 81be bc96 94bd bdc0 c1be
000001a0: 2651 c4be 08ba ed3e 59e5 313e d75c 7b3e
000001b0: 5af6 233e 2a23 84be 1725 d7bd 0e3f 27bb
000001c0: e3cb e73d 63ef 6d3c 3a86 bd3e 92e0 8d3e
000001d0: a30d acbd 3ec4 70be 875a cc3d f4f6 0f3f
000001e0: a3b1 c33d 2ad1 ed3c 639c 093f 327d a1be
000001f0: dd91 e33e f25c a2bd 4b95 6bbe 2254 df3d

VAE_Decoder.layers.0.linear1.weight f4 [4, 128]
-0.068820864 0.04329962 -0.029352931 -0.039065596 -0.028710077 -0.054643404 0.11560536 -0.27233952
-0.108477816 -0.027348375 0.18305205 -0.17722154 0.043839376 0.7116662 -0.12795502 -0.066765375
-0.10533067 -0.03482993 -0.084146805 -0.02387667 0.13888319 -0.17123826 -0.1873829 -0.21136983
-0.04592468 -0.14044452 0.31064135 -0.15921357 -0.09193584 0.14845316 -0.057058603 0.035034083
-0.021984052 0.1241952 -0.042844597 0.21034251 -0.20880038 -0.15727343 -0.079130895 -0.103721306
-0.1075382 0.019210327 -0.010804224 -0.0046946043 -0.19715911 -0.2608798 -0.22818732 0.00404052
0.08005862 -0.16638 -0.08489453 -0.05421763 -0.21326505 -0.16168484 0.025628123 -0.10605235
-0.12631008 -0.19612888 0.012931794 -0.13837984 -0.12764636 -0.06856309 -0.032681126 -0.3400249
-0.0067833196 -0.10909496 -0.036110844 -0.13810867 -0.2576977 -0.115817554 0.012592827 -0.20739043
-0.2489701 -0.09003961 -0.0154284155 -0.1814259 -0.048474506 -0.07545053 0.07083134 0.069873124
-0.041013002 0.3661312 0.03617608 -0.032576606 -0.31467855 -0.22743171 0.027118905 -0.042026024
-0.1782662 0.20489071 -0.016395152 -0.061771575 -0.16274081 -0.18767965 -0.20028116 -0.52126354
-0.32123193 -0.07387304 -0.108524986 -0.16569906 -0.06358472 0.20410083 -0.17907532 0.1482665
-0.013777668 -0.13192107 -0.0772079 -0.20594667 -0.009926468 -0.044419196 -0.3663168 0.7856416
0.07920698 -0.07993067 -0.015070435 -0.24462192 0.16608422 -0.1275061 0.14587462 0.050891962
-0.023751596 -0.105565794 0.00020360053 0.12134715 0.04690919 -0.110164165 -0.30289423 -0.20245329
-0.026928402 -0.2218044 -0.0709761 -0.19531956 -0.112927094 -0.2604151 -0.15618315 -0.0693605
-0.122595325 0.056816068 -0.35066164 -0.04125593 -0.19409634 -0.22798777 -0.10556955 -0.10386913
-0.040634066 0.064304516 -0.06534056 -0.14097312 -0.31345665 -0.13962007 -0.14422943 -0.25611454
-0.057794403 -0.06668664 0.7187063 -0.052669 -0.038385227 -0.1545292 -0.005556521 0.003747162
-0.11866988 -0.22747415 0.0472766 -0.091704234 -0.17302895 0.07508571 -0.15041405 -0.09764792
-0.10695473 -0.15191083 0.48055312 -0.070364624 -0.061657034 0.06861088 -0.1799035 -0.0006854743
-0.075275235 0.13638613 -0.029179761 -0.17646791 -0.22739623 -0.14530338 0.26753575 0.07330272
-0.2414724 -0.038417608 -0.19682306 0.2549032 0.16598439 -0.29416925 -0.08922266 -0.19728394
-0.0032030519 -0.14990418 0.046331704 0.0486626 -0.11567964 0.11715964 -0.18603596 0.14546448
-0.1787426 0.058799405 -0.16689156 -0.06744441 -0.15000391 -0.17765562 -0.14499104 0.56725883
-0.13928738 0.026599823 -0.043695167 -0.15766698 -0.16660596 -0.12345628 -0.027333317 -0.0012696834
-0.1896759 0.662577 -0.08045538 -0.14207894 -0.03512062 -0.18936166 0.36144328 -0.25610363
-0.11118141 -0.049310274 -0.029973136 0.016136186 -0.09026636 -0.1921527 0.12832032 0.21866824
-0.0031539751 -0.13271365 -0.1972358 0.113163576 -0.054279383 -0.007035152 -0.31943604 -0.114765264
-0.03382453 0.062134866 -0.16142331 -0.09512145 -0.06065908 0.045616947 -0.2919163 -0.14825031
-0.057235338 0.14266811 -0.24888287 -0.23492724 0.012114548 0.20461982 0.20516859 0.31385496
00000000: f4f1 8cbd f15a 313d 8f75 f0bc 3f03 20bd
00000010: 6531 ebbc c3d1 5fbd 81c2 ec3d 1670 8bbe
00000020: 9e29 debd b309 e0bc ff71 3b3e 9079 35be
00000030: eb90 333d c22f 363f a406 03be 49bc 88bd
00000040: 9bb7 d7bd d4a9 0ebd 2955 acbd 0299 c3bc
00000050: 6537 0e3e 1559 2fbe 4ee1 3fbe 5571 58be
00000060: 841b 3cbd b0d0 0fbe 620c 9f3e e208 23be
00000070: dc48 bcbd 1b04 183e 48b6 69bd e67f 0f3d
00000080: e617 b4bc 0e5a fe3d d17d 2fbd 0764 573e
00000090: c4cf 55be 490c 21be 610f a2bd d66b d4bd
000000a0: fd3c dcbd fa5e 9d3c 3304 31bc 32d5 99bb
000000b0: 14e4 49be 0a92 85be f0a9 69be 5766 843b
000000c0: c6f5 a33d 855f 2abe 2fdd adbd 4e13 5ebd
000000d0: 2762 5abe b690 25be 12f2 d13c f931 d9bd
000000e0: 6e57 01be 02d6 48be e0df 533c 72b3 0dbe
000000f0: bab5 02be ce6a 8cbd a5dc 05bd be17 aebe
00000100: 9c46 debb 2e6d dfbd f7e8 13bd 5c6c 0dbe
00000110: f4f0 83be c131 edbd 2552 4e3c 285e 54be
00000120: 05f2 7ebe b066 b8bd 77c7 7cbc b6c7 39be
00000130: 348d 46bd cf85 9abd 0610 913d a419 8f3d
00000140: 40fd 27bd 8c75 bb3e 5f2d 143d 0c6f 05bd
00000150: 8c1d a1be dce3 68be 7728 de3c 7b23 2cbd
00000160: 6a8b 36be dfce 513e 204f 86bc 3104 7dbd
00000170: 87a5 26be 182f 40be 8116 4dbe 8771 05bf
00000180: 8378 a4be c04a 97bd 5942 debd 04ad 29be
00000190: b538 82bd cfff 503e 855f 37be 2cd3 173e
000001a0: babb 61bc 5116 07be 2d1f 9ebd afe3 52be
000001b0: a0a2 22bc e7f0 35bd e08d bbbe cf1f 493f
000001c0: 4537 a23d b1b2 a3bd fce9 76bc 2b7e 7abe
000001d0: fb11 2a3e f690 02be 2860 153e 1774 503d
000001e0: b592 c2bc e132 d8bd 9a7d 5539 db84 f83d
000001f0: da23 403d c09d e1bd f414 9bbe ea4f 4fbe
00000200: f498 dcbc b120 63be eb5b 91bd da01 48be
00000210: 5246 e7bd 2155 85be 7aee 1fbe e10c 8ebd
00000220: 4213 fbbd f7b7 683d ec89 b3be fafb 28bd
00000230: 31c1 46be a075 69be d934 d8bd 57b9 d4bd
00000240: e86f 26bd 16b2 833d 46d1 85bd 425b 10be
00000250: 647d a0be 90f8 0ebe e1b0 13be 7221 83be
00000260: d3b9 6cbd 0193 88bd 23fd 373f 73bb 57bd
00000270: d439 1dbd e73c 1ebe 7a13 b6bb f292 753b
00000280: 3209 f3bd fcee 68be 1ca5 413d 6ecf bbbd
00000290: 802e 31be 89c6 993d 2406 1abe a2fb c7bd
000002a0: 150b dbbd 838e 1bbe 0f0b f63e 541b 90bd
000002b0: 168c 7cbd dc83 8c3d a038 38be 67b1 33ba
000002c0: e729 9abd cea8 0b3e 650a efbc 01b4 34be
000002d0: 8fda 68be 69ca 14be 72fa 883e bd1f 963d
000002e0: 8a44 77be c85b 1dbd fc8b 49be ac82 823e
000002f0: d0f7 293e 5a9d 96be 5fba b6bd cd04 4abe
00000300: 4bea 51bb 7b80 19be 50c6 3d3d 6f52 473d
00000310: 72e9 ecbd 65f1 ef3d 3680 3ebe a4f4 143e
00000320: 4d08 37be a5d7 703d 9fe5 2abe 4b20 8abd
00000330: a09a 19be 5beb 35be 8878 14be e037 113f
00000340: 5aa1 0ebe dfe7 d93c b4f9 32bd 7473 21be
00000350: c19a 2abe a5d6 fcbd 1fea dfbc 816b a6ba
00000360: 663a 42be a59e 293f cac5 a4bd 247d 11be
00000370: a4da 0fbd 06e8 41be 180f b93e 0420 83be
00000380: 14b3 e3bd 92f9 49bd 398a f5bc 0930 843c
00000390: 92dd b8bd adc3 44be 6766 033e 91ea 5f3e
000003a0: ecb2 4ebb 16e6 07be 2ef8 49be 4ec2 e73d
000003b0: 0f54 5ebd 2287 e6bb 1f8d a3be 0d0a ebbd
000003c0: 978b 0abd 2181 7e3d 274c 25be 09cf c2bd
000003d0: a875 78bd d6d8 3a3d 0e76 95be eece 17be
000003e0: 9a6f 6abd 9717 123e 27db 7ebe c490 70be
000003f0: 197c 463c dc87 513e b717 523e 99b1 a03e

VAE_Decoder.layers.0.linear1.bias f4 [4]
-0.0621357 -0.019657731 -0.08906193 0.0002519974
00000000: 0182 7ebd 4009 a1bc 1a66 b6bd 851e 8439

VAE_Decoder.layers.0.norm1.weight f4 [4]
1.332112 1.2718847 1.2777689 1.5207872
00000000: a582 aa3f 1ecd a23f ee8d a33f 28a9 c23f

VAE_Decoder.layers.0.norm1.bias f4 [4]
0.04884525 -0.11956826 -0.08143264 0.20318125
00000000: f511 483d 34e0 f4bd 28c6 a6bd bf0e 503e

VAE_Decoder.layers.1.attention.W_q.weight f4 [4, 4]
0.0351742 0.1728989 -0.113212936 -0.24879374 -0.13340233 0.4894502 0.18245716 0.06603288
-0.20557228 -0.25158685 0.4864884 -0.28152093 0.18388928 0.12506028 0.28803244 -0.39274454
00000000: d212 103d 690c 313e 2fdc e7bd c9c3 7ebe
00000010: 9f9a 08be 3799 fa3e 0dd6 3a3e 3f3c 873d
00000020: 8a81 52be fecf 80be 0215 f93e 8323 90be
00000030: 794d 3c3e cd0f 003e fd78 933e d015 c9be

VAE_Decoder.layers.1.attention.W_q.bias f4 [4]
-0.036112335 0.18651949 0.06998747 -0.15022337
00000000: 87ea 13bd f7fe 3e3e 9755 8f3d 28d4 19be

VAE_Decoder.layers.1.attention.W_k.weight f4 [4, 4]
-0.12780933 0.0951932 -0.37990743 -0.050648995 0.3261759 -0.33866382 0.1609386 0.37089112
-0.40917477 -0.19504358 -0.73668796 -0.041612193 0.13132507 0.5583839 0.20443271 0.117175445
00000000: 73e0 02be a7f4 c23d 3a83 c2be 5275 4fbd
00000010: 8700 a73e 5865 adbe 17cd 243e 71e5 bd3e
00000020: 5b7f d1be 81b9 47be 9597 3cbf 8c71 2abd
00000030: 147a 063e 3ff2 0e3f cf56 513e aef9 ef3d

VAE_Decoder.layers.1.attention.W_k.bias f4 [4]
-4.1391166e-05 -0.00011123408 -3.900138e-05 8.528862e-06
00000000: 6d9b 2db8 5846 e9b8 6a95 23b8 2f17 0f37

VAE_Decoder.layers.1.attention.W_v.weight f4 [4, 4]
-0.1847734 0.08181683 -0.0067545385 -0.18618162 0.058933932 -0.009631544 0.06524785 -0.021057857
0.084005505 0.29510328 0.26177663 0.35017934 0.062156323 0.11780043 -0.049667235 0.19984393
00000000: 3d35 3dbe 958f a73d 2d55 ddbb 65a6 3ebe
00000010: b564 713d a0cd 1dbc aaa0 853d 8781 acbc
00000020: 140b ac3d c717 973e 9607 863e b54a b33e
00000030: a197 7e3d 5a41 f13d df6f 4bbd e3a3 4c3e

VAE_Decoder.layers.1.attention.W_v.bias f4 [4]
-0.055708233 -0.06718886 0.0007432526 -0.00969316
00000000: 512e 64bd 509a 89bd d6d6 423a 0fd0 1ebc

VAE_Decoder.layers.1.linear0.weight f4 [128, 4]
0.44386294 -0.30210873 -0.4209445 0.20597747 0.31717122 -0.3940281 0.053311076 0.040978603
0.07241456 -0.4066685 -0.2311308 0.3463249 -0.21000826 0.6196467 -1.1304249 -0.2931299
0.48891136 0.23739578 0.38009527 -0.6843365 -0.12358311 0.42238274 -0.52067876 0.09012413
-0.6281143 -0.48193905 -0.36619914 0.6706976 0.09436123 0.009819676 -0.015605306 0.25944233
0.29685482 -0.3570931 0.3010854 0.36905375 0.55987036 0.089981705 -0.13491794 0.3180094
-0.40653238 -0.27383026 0.11050678 0.025214039 0.38261944 -0.30500278 -0.45331356 -0.41056952
-0.24212733 0.4432288 -0.5136749 0.2549555 0.22493134 0.4664101 -0.5338439 -0.26344544
-0.4800425 0.33636978 -0.16455798 0.11478566 -0.26614392 -0.6090843 -0.12240233 -0.05140616
0.3486936 0.36493662 -0.19350976 -0.19565941 0.2117306 0.37766948 -0.3491377 0.06258923
0.25435364 0.42391583 -0.37157968 -0.51934355 -0.20367596 -0.1687191 0.8307472 0.0106500555
-0.28680247 -0.2910864 0.21435998 0.2904875 0.11891717 0.15629838 -0.08065342 -0.6111317
-0.076351285 0.30752364 -0.3254478 -0.31565586 -0.57952476 -0.2483018 0.0206694 -0.18003106
-0.143808 -0.58294445 -0.02136047 0.4779126 -0.28377762 -0.3097955 0.013908967 0.48239323
-0.5647306 0.07779109 0.36789972 0.36933544 -0.26928675 0.49787202 0.63622254 -0.3596771
-0.57859683 0.051539633 -0.40633482 0.51164854 -0.6027757 0.59147185 -0.2531416 0.042312633
-0.20651332 0.21323286 0.34310704 -0.35452265 -0.26401144 -0.75283736 0.17276008 0.45211226
0.3439091 0.32978547 0.25583315 -0.10163444 -0.12210532 -0.3823631 -0.31743228 0.28488886
-0.029087847 0.27993765 -0.10670115 0.118102916 -0.05720028 0.5769786 0.45289344 -0.69394666
-0.025684439 -0.47039184 0.23266236 0.24444205 0.2394887 -0.06944916 -0.26047683 0.66631943
-0.22244628 -0.5599151 0.1602552 0.5075149 -0.5378304 -0.14030479 -0.644325 -0.040134493
-0.33160448 0.035596907 0.57818675 0.089517996 0.056623515 0.60491425 0.6940696 -0.10495484
0.1852896 -0.25035694 -0.2625052 0.27611962 -0.42846355 -0.18734938 0.034258425 0.5792034
0.22873394 -0.5659944 -0.3323725 -0.47085536 2.3562884 -0.21831222 0.32687378 0.037435487
0.023557313 0.14461537 -0.5549355 -0.5886723 0.43655598 0.17136711 -0.32742444 0.41581306
-0.22539176 0.3389487 0.18405443 -0.37803105 0.57131225 0.22518247 0.17550954 -0.15297362
-0.10776119 -0.4385526 -0.15101977 0.68385017 0.14339414 0.6224805 0.5473213 -0.53544384
0.25386402 0.5623905 0.32850552 -0.71076846 -0.1333236 0.22546725 0.23189212 -0.35703066
-0.17027156 -0.16458857 0.0080354465 0.15274172 0.33043554 -0.12588902 -0.36883074 0.37484342
0.52676535 0.60980207 -0.15532918 0.38088843 0.4053844 0.025609905 -0.47528958 0.14847893
0.32422772 -0.47157508 0.23064384 -0.15346955 -0.12783785 -0.2813998 0.72537404 0.093990356
0.10858626 -0.6744469 0.18786024 0.25410095 -0.12062935 -0.006193533 -0.6241312 0.56999224
-0.23674627 0.122479305 -0.2309052 0.5415065 -0.077081144 0.24344987 -0.13611807 -0.4786353
00000000: 0142 e33e ffad 9abe 0a86 d7be c2eb 523e
00000010: 4464 a23e 0dbe c9be b75c 5a3d 2ed9 273d
00000020: 164e 943d db36 d0be 8dad 6cbe 7f51 b13e
00000030: 680c 57be 2ba1 1e3f c3b1 90bf 1f15 96be
00000040: 9752 fa3e e117 733e d99b c23e ad30 2fbf
00000050: 2419 fdbd 8d42 d83e 344b 05bf 0093 b83d
00000060: 19cc 20bf b7c0 f6be 747e bbbe d7b2 2b3f
00000070: 7640 c13d b5e2 203c 66ad 7fbc a0d5 843e
00000080: 5bfd 973e e8d4 b6be de27 9a3e 9df4 bc3e
00000090: aa53 0f3f 5448 b83d ee27 0abe 21d2 a23e
000000a0: 0325 d0be 7b33 8cbe 6151 e23d ac8d ce3c
000000b0: b2e6 c33e 5329 9cbe b718 e8be 2b36 d2be
000000c0: 3af0 77be e3ee e23e 3380 03bf 8789 823e
000000d0: 6754 663e 4ecd ee3e fea9 08bf 52e2 86be
000000e0: 21c8 f5be a938 ac3e e381 28be be14 eb3d
000000f0: 0444 88be f3ec 1bbf 13ae fabd 448f 52bd
00000100: f887 b23e f9d8 ba3e 6c27 46be f15a 48be
00000110: e8cf 583e e55d c13e 2dc2 b2be c82e 803d
00000120: a43a 823e 7f0b d93e b13f bebe b3f3 04bf
00000130: 6e90 50be b3c4 2cbe d9ab 543f 927d 2e3c
00000140: c6d7 92be 4709 95be 2f81 5b3e c7ba 943e
00000150: d88a f33d af0c 203e 9f2d a5bd 2173 1cbf
00000160: 105e 9cbd bd73 9d3e 18a1 a6be a59d a1be
00000170: bc5b 14bf d442 7ebe e052 a93c 105a 38be
00000180: 6842 13be d93b 15bf 27fc aebc f6b0 f43e
00000190: 4d4b 91be 849d 9ebe 70e2 633c 3ffc f63e
000001a0: 2f92 10bf ef50 9f3d 5a5d bc3e 8919 bd3e
000001b0: f4df 89be 15e9 fe3e 7bdf 223f 9927 b8be
000001c0: ec1e 14bf 391b 533d 1e0b d0be 66fb 023f
000001d0: 824f 1abf b36a 173f c79b 81be 0350 2d3d
000001e0: 3a78 53be b759 5a3e baab af3e fe83 b5be
000001f0: 822c 87be f3b9 40bf 05e8 303e 427b e73e
00000200: db14 b03e a4d9 a83e 90fc 823e b825 d0bd
00000210: 5b12 fabd 19c5 c3be 7c86 a2be f4dc 913e
00000220: a349 eebc fd53 8f3e 2286 dabd f1df f13d
00000230: d74a 6abd dfb4 133f a6e1 e73e 7da6 31bf
00000240: 2c68 d2bc 33d7 f0be 0b3f 6e3e 044f 7a3e
00000250: 873c 753e 5c3b 8ebd 385d 85be e993 2a3f
00000260: f5c8 63be 9956 0fbf f019 243e 7fec 013f
00000270: 41af 09bf 0fac 0fbe 7cf2 24bf 1164 24bd
00000280: 10c8 a9be 10ce 113d 0c04 143f 3655 b73d
00000290: 0fee 673d a9db 1a3f 8cae 313f 90f2 d6bd
000002a0: 8fbc 3d3e c92e 80be 1567 86be 8d5f 8d3e
000002b0: 935f dbbe 84d8 3fbe 9052 0c3d ad46 143f
000002c0: 3b39 6a3e 02e5 10bf ba2c aabe f413 f1be
000002d0: 6ecd 1640 3d8d 5fbe 005c a73e f455 193d
000002e0: 44fb c03c 0d16 143e 4110 0ebf 3ab3 16bf
000002f0: 4484 df3e dc7a 2f3e 2da4 a7be 73e5 d43e
00000300: 19cd 66be af8a ad3e c478 3c3e 498d c1be
00000310: 8541 123f 3c96 663e c6b8 333e 1ea5 1cbe
00000320: e6b1 dcbd f789 e0be eda4 1abe ce10 2f3f
00000330: ead5 123e e25a 1f3f 401d 0c3f d912 09bf
00000340: 77fa 813e d3f8 0f3f e031 a83e ecf4 35bf
00000350: fb85 08be e3e0 663e 2175 6d3e b9cc b6be
00000360: ab5b 2ebe e889 28be 1ba7 033c 5368 1c3e
00000370: d92e a93e 0de9 00be 62d7 bcbe 7aeb bf3e
00000380: 18da 063f fd1b 1c3f 9d0e 1fbe cf03 c33e
00000390: 8b8e cf3e ddcb d13c 2859 f3be dc0a 183e
000003a0: 2d01 a63e 4a72 f1be e62d 6c3e 1f27 1dbe
000003b0: ede7 02be a213 90be 1db2 393f 047e c03d
000003c0: 7962 de3d 8da8 2cbf 6f5e 403e 8519 823e
000003d0: 850c f7bd 1ff3 cabb 10c7 1fbf 03eb 113f
000003e0: 9d6d 72be 6ed6 fa3d 6a72 6cbe 2ca0 0a3f
000003f0: b8dc 9dbd ec4a 793e 8962 0bbe b00f f5be

VAE_Decoder.layers.1.linear0.bias f4 [128]
-0.048528418 0.07371821 0.1645608 0.56565905 -0.3101253 -0.17631908 0.25684094 0.45106065
0.07699552 0.24095671 0.3023593 0.32606044 0.11795821 0.1826542 0.3204381 0.07484743
-0.49124932 0.45097443 -0.19343103 0.13871597 0.16497807 -0.579172 0.5241975 0.33976716
-0.32643792 0.010037152 0.37765372 0.09656874 -0.24282964 -0.1022504 0.059110865 -0.16186088
-0.3602627 -0.37464765 0.48692423 0.09383223 -0.04994322 0.0042071906 0.14368978 0.34665012
-0.5354479 0.16437949 0.07267665 0.010600227 -0.20301735 -0.21433966 -0.16071919 0.6200187
0.2665066 -0.38529518 -0.38164625 0.27349517 -0.31798783 0.035296757 0.11509546 0.105521165
0.35078824 0.017714595 -0.28908038 -0.2487002 0.041792296 -0.19983897 0.03628776 -0.1576267
0.13822398 -0.10007108 0.5832829 0.58064777 0.3552031 -0.3969972 0.4430721 0.27154472
0.19959757 -0.40638828 0.038879536 0.53005624 -0.3077894 -0.3914691 -0.12013564 0.503683
0.51093006 0.5766651 -0.033272043 0.5551682 -0.004722021 -0.08988477 -0.040839996 -0.4419297
0.5042391 0.3980215 0.31709012 0.267774 0.3015314 0.20531802 -0.23486058 0.13927403
-0.34026685 -0.18486305 0.25434414 0.48937637 0.09712012 -0.50351727 -0.081984065 0.5123774
-0.33865765 0.35951048 0.14005813 0.6591082 0.16186608 -0.26495728 0.45809332 0.11398651
-0.089396395 0.24169189 0.10316561 0.09836721 -0.6007823 -0.2750715 0.09600346 -0.32023248
0.020635448 0.16552965 0.17242788 0.18802778 -0.11044823 -0.1543283 0.3563873 0.017820373
00000000: bcc5 46bd 93f9 963d a082 283e 08cf 103f
00000010: bec8 9ebe fd8c 34be a880 833e 6cf1 e63e
00000020: d4af 9d3d 5bbd 763e d7ce 9a3e 65f1 a63e
00000030: 1394 f13d b409 3b3e 7610 a43e 9c49 993d
00000040: 0885 fbbe 1fe6 e63e c912 46be 8f0b 0e3e
00000050: 03f0 283e 9e44 14bf cf31 063f f6f5 ad3e
00000060: df22 a7be de72 243c d45b c13e d5c5 c53d
00000070: 55a8 78be a868 d1bd 3c1e 723d dcbe 25be
00000080: 5a74 b8be d1d1 bfbe 224e f93e 1d2b c03d
00000090: 4391 4cbd 79dc 893b 6a23 133e 207c b13e
000000a0: 1d13 09bf 1953 283e 7fd7 943d 93ac 2d3c
000000b0: c8e3 4fbe db7b 5bbe 9293 24be 8cb9 1e3f
000000c0: 8e73 883e 6945 c5be 2367 c3be 8f07 8c3e
000000d0: 4dcf a2be 5593 103d 2bb7 eb3d 7b1b d83d
000000e0: 849a b33e 331e 913c 5802 94be 44ab 7ebe
000000f0: 662e 2b3d 96a2 4cbe 79a2 143d e568 21be
00000100: 968a 0d3e 11f2 ccbd 0752 153f 55a5 143f
00000110: 2edd b53e 3843 cbbe 59da e23e e907 8b3e
00000120: 4e63 4c3e 2012 d0be 2640 1f3d c4b1 073f
00000130: 9296 9dbe a36e c8be ad09 f6bd 5ef1 003f
00000140: 50cc 023f 53a0 133f 4448 08bd 811f 0e3f
00000150: 2fbb 9abb 8215 b8bd d747 27bd 9c44 e2be
00000160: d015 013f 79c9 cb3e a359 a23e ac19 893e
00000170: 5362 9a3e e33e 523e 4b7f 70be da9d 0e3e
00000180: 7537 aebe bd4c 3dbe 6539 823e 8a8f fa3e
00000190: eae6 c63d 82e6 00bf 43e7 a7bd 2a2b 033f
000001a0: 8964 adbe c211 b83e 666b 0f3e 51bb 283f
000001b0: 39c0 253e 7ba8 87be 358b ea3e c271 e93d
000001c0: 7515 b7bd 147e 773e 7e48 d33d bf74 c93d
000001d0: decc 19bf 2cd6 8cbe 769d c43d 83f5 a3be
000001e0: ac0b a93c 9b80 293e ef90 303e 5b8a 403e
000001f0: ae32 e2bd 3d08 1ebe 6578 b63e 08fc 913c

VAE_Decoder.layers.1.linear1.weight f4 [4, 128]
0.1843994 0.0014032035 -0.023705862 -0.038091514 -0.17841245 -0.088178456 -0.17325346 -0.041688092
0.006569348 0.08943577 -0.11731977 0.016925752 -0.0075989356 -0.06430438 -0.12949042 -0.013502235
0.15720813 -0.06719655 -0.0364178 -0.07602029 -0.064563766 -0.04502343 -0.11812879 -0.09141175
-0.08328749 -0.15700662 -0.116455026 -0.22917804 -0.08577312 -0.004702379 -0.23722643 -0.029979693
-0.11932108 -0.2299861 -0.14445643 -0.11069156 0.08642522 -0.16916226 -0.09681482 -0.037878413
0.17031614 -0.23308355 -0.10491688 -0.3412166 0.22058785 2.0250616 -0.066691265 -0.011352796
-0.04838048 -0.08369201 -0.2779458 -0.18862675 -0.15557703 -0.097061835 0.027553279 0.054500923
0.097349584 0.059958607 -0.026293756 -0.052878432 0.12909424 -0.11330059 -0.13083296 0.0005528492
-0.082658574 -0.073956534 -0.15323095 -0.11779409 0.004720271 0.14707944 -0.12719668 -0.032504313
-0.18422939 -0.36203197 0.025529291 -0.13424388 -0.031570498 0.48669863 0.012347283 -0.049287688
-0.08057471 -0.046618912 -0.8030619 0.0018243587 0.43831328 0.07817611 -0.014074212 0.14470553
0.05608843 -0.007118418 0.07935041 -0.027120242 -0.17164336 -0.068139724 0.18095651 0.0121439705
0.30762565 0.15008096 -0.0867156 -0.16775905 -0.13925274 -0.0867412 0.09771147 -0.12904134
0.03178164 -0.01973557 -0.018394316 0.0618968 -0.028979601 -0.11847315 -0.098301746 -0.2182636
-0.05041874 -0.09140307 0.06451278 -0.033120725 0.06159697 -0.06539029 -0.09354865 0.1360171
-0.24559264 -0.060655992 -0.09815313 -0.095000386 -0.10456379 -0.110909544 -0.097914524 -0.022577135
0.02146533 -0.15297316 -0.0413711 0.11063207 0.20848596 0.095961854 -0.17894654 -0.14874665
-0.15421773 0.017971668 -0.12318369 0.0985316 -0.027825736 0.08972732 -0.0752568 -0.32605836
-0.12076535 0.057282876 0.1593827 -0.17875019 -0.26025653 0.22007151 0.16918601 -0.05182749
-0.12469551 -0.1578091 -0.11290433 0.06666306 -0.19685018 0.03834441 0.07218208 -0.15437739
0.077196024 -0.098715074 0.07570142 0.25946626 -0.14398958 0.046424836 -0.18570867 -0.06073836
-0.21795742 0.21092395 0.05693904 -0.42959315 -0.041352913 0.3360426 0.122383706 -0.039906956
0.037326504 0.28853783 -0.19560812 0.25594786 0.2964684 0.09445862 -0.17256503 0.061776582
0.067006186 0.028098043 -0.21272887 -0.1479296 -0.16931191 -0.0026849357 -0.1253994 0.023865229
0.15451355 -0.23666446 0.017640907 -0.25774086 0.13052453 0.10462946 -0.08734617 -0.18188658
-0.12698756 -0.1040037 0.12628137 0.20428836 -0.07865246 -0.005457652 -0.19513401 -0.040472336
-0.10000686 -0.14914088 0.5587441 0.2678881 -0.3568833 0.1544781 -0.10384354 0.5952643
-0.24777807 0.27073032 -0.25390106 -0.15717208 0.10627783 0.28727525 0.10224349 0.022421828
0.02342872 0.08287832 -0.07911397 -0.073346965 0.044371597 0.11799438 -0.27194858 -0.10367696
-0.5669552 0.26907274 0.1420268 -0.20821999 0.013961143 0.26846045 -0.08023078 0.24960902
0.12591694 0.27212447 -0.09590697 0.08890076 -0.06178977 -0.109121986 0.027783927 -0.22647886
0.09250876 -0.20903668 -0.083561845 0.052559752 0.14147158 -0.060576763 0.015214667 -0.08840965
00000000: 32d3 3c3e b2eb b73a cc32 c2bc d905 1cbd
00000010: c1b1 36be e896 b4bd 5b69 31be 22c1 2abd
00000020: af43 d73b 1a2a b73d 5945 f0bd e0a7 8a3c
00000030: 7e00 f9bb 04b2 83bd 2399 04be 7a38 5dbc
00000040: 2bfb 203e 589e 89bd d52a 15bd 87b0 9bbd
00000050: 023a 84bd 7d6a 38bd 82ed f1bd 1536 bbbd
00000060: a292 aabd 58c6 20be f97f eebd a6ad 6abe
00000070: d1a9 afbd 6a16 9abb 7ceb 72be f997 f5bc
00000080: 9c5e f4bd 7a81 6bbe 63ec 13be 42b2 e2bd
00000090: b5ff b03d df38 2dbe d946 c6bd 6526 1bbd
000000a0: 5b67 2e3e 74ad 6ebe a9de d6bd f1b3 aebe
000000b0: c8e1 613e 9c9a 0140 6e95 88bd 1401 3abc
000000c0: 9c2a 46bd b766 abbd e94e 8ebe 5f27 41be
000000d0: 964f 1fbe 5bc8 c6bd 6ab7 e13c 5c3c 5f3d
000000e0: 385f c73d 2897 753d 0166 d7bc 0e97 58bd
000000f0: 4831 043e 240a e8bd 13f9 05be 15ed 103a
00000100: e648 a9bd 8676 97bd 93e8 1cbe 073e f1bd
00000110: 81ac 9a3b fe9b 163e d93f 02be 3e23 05bd
00000120: a1a6 3cbe 415c b9be ce22 d13c 3a77 09be
00000130: 1150 01bd 9030 f93e 424c 4a3c e3e1 49bd
00000140: 5b04 a5bd 79f3 3ebd 7795 4dbf 521f ef3a
00000150: 996a e03e cc1a a03d 8697 66bc b02d 143e
00000160: fbbc 653d 9e41 e9bb 7882 a23d 452b debc
00000170: 47c3 2fbe d78c 8bbd aa4c 393e 81f7 463c
00000180: 1c81 9d3e d3ae 193e f397 b1bd 07c9 2bbe
00000190: 4598 0ebe 5fa5 b1bd f41c c83d 6a23 04be
000001a0: 772d 023d 7dac a1bc adaf 96bc 8087 7d3d
000001b0: a166 edbc 0da2 f2bd 6d52 c9bd 7e80 5fbe
000001c0: e183 4ebd 8831 bbbd 471f 843d 99a9 07bd
000001d0: 1b4d 7c3d 58eb 85bd 6f96 bfbd 1148 0b3e
000001e0: a37c 7bbe 6b72 78bd 8204 c9bd 908f c2bd
000001f0: 8a25 d6bd 8b24 e3bd 6987 c8bd aff3 b8bc
00000200: 0fd8 af3c ffa4 1cbe be74 29bd 1193 e23d
00000210: 587d 553e a687 c43d c33d 37be 0b51 18be
00000220: 41eb 1dbe 5239 933c bb47 fcbd efca c93d
00000230: ccf2 e3bc f5c2 b73d 3d20 9abd 1ff1 a6be
00000240: d353 f7bd 73a1 6a3d 3835 233e 4a0a 37be
00000250: 5840 85be 6d5a 613e 193f 2d3e 1049 54bd
00000260: 5c60 ffbd b598 21be 633a e7bd a486 883d
00000270: 1893 49be 070f 1d3d 33d4 933d 1b15 1ebe
00000280: f318 9e3d 212b cabd 5909 9b3d c3d8 843e
00000290: 0172 13be f827 3e3d 6a2a 3ebe c9c8 78bd
000002a0: 3b30 5fbe 73fc 573e e938 693d a2f3 dbbe
000002b0: ac61 29bd c70d ac3e 4fa4 fa3d 7a75 23bd
000002c0: ade3 183d 3bbb 933e 7f4d 48be 990b 833e
000002d0: b5ca 973e 8573 c13d e3b4 30be 7109 7d3d
000002e0: 8a3a 893d de2d e63c 99d5 59be db7a 17be
000002f0: 1a60 2dbe bff5 2fbb b368 00be 0381 c33c
00000300: cd38 1e3e 2b58 72be aa83 903c 9cf6 83be
00000310: 39a8 053e f847 d63d 8ce2 b2bd 7a40 3abe
00000320: 0709 02be e4ff d4bd e74f 013e f830 513e
00000330: 8a14 a1bd 1ad6 b2bb 36d1 47be 52c6 25bd
00000340: 66d0 ccbd 63b8 18be da09 0f3f a128 893e
00000350: 68b9 b6be 822f 1e3e ecab d4bd 3e63 183f
00000360: 89b9 7dbe 2a9d 8a3e 52ff 81be b8f1 20be
00000370: 31a8 d93d be15 933e 0965 d13d fbad b73c
00000380: 96ed bf3c 1cbc a93d 8106 a2bd ef36 96bd
00000390: febe 353d 0aa7 f13d d83c 8bbe 9654 d4bd
000003a0: fa23 11bf e7c3 893e 796f 113e 9f37 55be
000003b0: 47bd 643c a673 893e 0950 a4bd 8299 7f3e
000003c0: 5ff0 003e e653 8b3e e06a c4bd 9a11 b63d
000003d0: 4517 7dbd 597b dfbd 1e9b e33c 13ea 67be
000003e0: 3c75 bd3d b60d 56be 7922 abbd e548 573d
000003f0: eddd 103e 571f 78bd f046 793c 1e10 b5bd

VAE_Decoder.layers.1.linear1.bias f4 [4]
-0.049754977 -0.094414465 -0.049475003 -0.083942264
00000000: e0cb 4bbd 5f5c c1bd 4da6 4abd ece9 abbd

VAE_Decoder.layers.1.norm1.weight f4 [4]
1.5531564 1.3777503 1.464813 1.4373671
00000000: d4cd c63f 1f5a b03f fe7e bb3f a5fb b73f

VAE_Decoder.layers.1.norm1.bias f4 [4]
-0.09736213 -0.06330777 -0.017052308 0.19807896
00000000: cc65 c7bd 81a7 81bd 48b1 8bbc 36d5 4a3e

VAE_Decoder.layers.1.norm0.weight f4 [4]
1.0123487 0.7265127 1.2004306 0.8642168
00000000: a494 813f bcfc 393f b6a7 993f 503d 5d3f

VAE_Decoder.layers.1.norm0.bias f4 [4]
-0.00045973883 0.024384715 0.032233544 0.042537805
00000000: 1a09 f1b9 74c2 c73c 5207 043d 1f3c 2e3d

VAE_Decoder.last_normalization.weight f4 [4]
1.0 1.0 1.0 1.0
00000000: 0000 803f 0000 803f 0000 803f 0000 803f

VAE_Decoder.last_normalization.bias f4 [4]
0.0 0.0 0.0 0.0
00000000: 0000 0000 0000 0000 0000 0000 0000 0000

VAE_Decoder.head.weight f4 [4, 4]
-0.22053003 0.085606456 0.29442346 -0.39103973 0.109589696 -0.48508525 -0.32570654 0.25777513
0.15978009 0.21356475 0.33974576 -0.2824536 0.1722756 -0.0027588606 -0.061137617 -0.44563025
00000000: a0d2 61be 7052 af3d acbe 963e 5c36 c8be
00000010: 9070 e03d 185d f8be 02c3 a6be 1afb 833e
00000020: 649d 233e b8b0 5a3e 28f3 ad3e c29d 90be
00000030: 0469 303e 00ce 34bb 706b 7abd a629 e4be

VAE_Decoder.head.bias f4 [4]
-0.29870385 0.47934777 0.2273109 0.29664844
00000000: b6ef 98be 126d f53e 30c4 683e 4ee2 973e

Detokenizer.weight f4 [14, 4]
0.12596488 -0.1876152 0.05113623 -0.17221212 -0.030446528 0.11638495 -0.16927658 0.18162793
-0.09836558 0.10362173 -0.12126636 0.321056 0.1529708 -0.10056076 -0.20880176 -0.1156657
-0.14125146 0.17111127 0.09340225 0.027448492 0.06981573 -0.1338567 0.09516967 -0.09007487
0.095151395 -0.17574316 0.025283583 -0.37122416 0.02899498 -0.17178908 0.05364463 -0.19471548
0.13299914 -0.019950809 -0.012251254 0.20383564 0.17619437 -0.083696775 0.22511362 -0.00866691
0.3605708 -0.36264583 -0.25264025 -0.3652757 0.18441997 -0.17479937 -0.08205054 -0.0314589
-0.041383404 0.015939044 0.17777106 -0.08885346 0.11768485 0.018283932 -0.31051397 -0.1032395
00000000: f0fc 003e 331e 40be 3974 513d 6058 30be
00000010: ff6a f9bc 3c5b ee3d d756 2dbe acfc 393e
00000020: e573 c9bd a137 d43d 7f5a f8bd 7461 a43e
00000030: 61a4 1c3e cdf2 cdbd 21d0 55be 23e2 ecbd
00000040: 39a4 10be cb37 2f3e ae49 bf3d a9db e03c
00000050: 8dfb 8e3d bb11 09be 51e8 c23d 2c79 b8bd
00000060: bcde c23d 04f6 33be 841f cf3c 1811 bebe
00000070: e186 ed3c 7ae9 2fbe 79ba 5b3d 7f63 47be
00000080: ed30 083e e16f a3bc 7cb9 48bc 4aba 503e
00000090: 4c6c 343e 3769 abbd 2f84 663e a8ff 0dbc
000000a0: bc9c b83e b7ac b9be 105a 81be 6b05 bbbe
000000b0: 97d8 3c3e 9bfe 32be 1d0a a8bd 0cdb 00bd
000000c0: a581 29bd 9992 823c 9e09 363e cef8 b5bd
000000d0: c104 f13d 2fc8 953c b0fb 9ebe 3b6f d3bd

Detokenizer.cat_recons.0.weight f4 [2, 4]
-0.295163 -0.83460724 0.22887278 0.27898508 -0.5045784 0.79107624 -0.013292773 -0.0006371875
00000000: 9b1f 97be d2a8 55bf a05d 6a3e 22d7 8e3e
00000010: 0d2c 01bf f983 4a3f eec9 59bc ee08 27ba

Detokenizer.cat_recons.0.bias f4 [2]
0.41345924 0.46628028
00000000: eeb0 d33e 4abc ee3e

Detokenizer.cat_recons.1.weight f4 [7, 4]
0.6984219 -0.48822352 -0.15893263 -0.22297041 0.08991054 -0.34268463 0.5192242 -0.32027504
-0.26845866 0.26977488 -0.106926724 -0.64020056 0.24970475 0.11127082 -0.8315001 0.05073224
0.4221544 0.3200726 -0.20938744 -0.13661455 1.026627 -0.27681693 -0.21638289 0.10367778
0.085387774 -0.22812317 -0.29017416 0.03810877
00000000: c7cb 323f 6ff8 f9be 3cbf 22be 5b52 64be
00000010: 0423 b83d 5c74 afbe e1eb 043f 17fb a3be
00000020: 6a73 89be ef1f 8a3e 66fc dabd 2fe4 23bf
00000030: 9ab2 7f3e f5e1 e33d 31dd 54bf 9ccc 4f3d
00000040: 9f24 d83e 8ee0 a33e a969 56be afe4 0bbe
00000050: 8368 833f f3ba 8dbe 7a93 5dbe 0455 d43d
00000060: c9df ae3d 1f99 69be b591 94be f117 1c3d

Detokenizer.cat_recons.1.bias f4 [7]
-0.17951837 0.3312471 -0.044933144 0.52833444 -0.13515256 -0.28726572 -0.021764046
00000000: aad3 37be 3899 a93e d10b 38bd ed40 073f
00000010: 6f65 0abe 7e14 93be 834a b2bc

Detokenizer.cat_recons.2.weight f4 [4, 4]
-0.20069134 0.21388584 0.764257 0.16130558 -0.38668007 -0.3612275 -0.28593436 0.0768095
-0.21043831 0.25490633 -0.053077724 -0.60583806 0.7461712 0.22543001 -0.080541305 0.27973452
00000000: 0882 4dbe e404 5b3e 59a6 433f 4a2d 253e
00000010: eefa c5be d0f2 b8be fd65 92be 4d4e 9d3d
00000020: 247d 57be 1583 823e 0768 59bd 3418 1bbf
00000030: 1305 3f3f 20d7 663e d7f2 a4bd 5d39 8f3e

Detokenizer.cat_recons.2.bias f4 [4]
-0.31873804 0.58787733 -0.36333993 -0.5126299
00000000: a231 a3be 217f 163f b107 babe b73b 03bf

Detokenizer.cat_recons.3.weight f4 [11, 4]
-0.5111056 0.39332792 0.74239826 -0.2868272 -0.189066 0.56237537 -0.6055517 -0.44718677
-0.6391272 -0.73604196 -0.11896463 -0.24359764 -0.27801627 0.5170951 -0.18953133 -0.7421617
0.2714695 -0.12432417 0.55400246 0.630254 -0.009460884 -0.12266581 -0.3960393 0.0016753913
0.81466633 -0.23925309 0.6562576 -0.5015467 0.19491957 -0.55688995 0.6678518 -0.22714143
0.4806749 0.4776367 0.5851238 0.31879252 0.24593121 0.46009165 -0.09860361 0.22346197
0.606877 0.193508 -0.14876732 -0.31469887
00000000: d1d7 02bf 4762 c93e d00d 3e3f 04db 92be
00000010: 849a 41be d5f7 0f3f 7005 1bbf aaf5 e4be
00000020: d79d 23bf 3f6d 3cbf baa3 f3bd a971 79be
00000030: 2658 8ebe 5860 043f 8014 42be 4ffe 3dbf
00000040: 0dfe 8a3e ac9d febd 1bd3 0d3f 5358 213f
00000050: d301 1bbc 3638 fbbd aac5 cabe ce98 db3a
00000060: f98d 503f c3fe 74be 8000 283f 5d65 00bf
00000070: ff98 473e 5790 0ebf 56f8 2a3f c397 68be
00000080: 051b f63e cc8c f43e acca 153f c638 a33e
00000090: 64d5 7b3e 2291 eb3e b1f0 c9bd 37d3 643e
000000a0: 4b5c 1b3f f626 463e 7656 18be 3620 a1be

Detokenizer.cat_recons.3.bias f4 [11]
0.2657389 -0.3529526 0.3238161 -0.19807577 0.0955135 0.16820177 0.2286357 0.14321293
0.33715746 -0.5453497 0.24110274
00000000: ee0e 883e 34b6 b4be 39cb a53e 60d4 4abe
00000010: 959c c33d 163d 2c3e 7a1f 6a3e 69a6 123e
00000020: e79f ac3e 0a9c 0bbf a3e3 763e

Detokenizer.cat_recons.4.weight f4 [11, 4]
-0.1566562 0.44096667 -0.322921 0.51643544 0.0019232498 -0.086057834 0.42191303 -0.68374896
-0.47255772 -0.2798482 -0.020964362 0.651654 -0.035918288 0.33459172 -0.36394995 -0.30744013
0.4333177 -0.17718644 0.15713142 0.556624 -0.5713165 -0.16246215 -0.41527483 -0.55806637
0.2227938 0.52178043 -0.041716203 -0.42578688 0.5339921 0.30771974 -0.16823125 -0.08141738
-0.30708224 0.6834937 0.18918869 -0.1733893 0.2740884 0.4883481 -0.19720359 -0.14817862
-0.31743056 0.25908482 0.17784552 0.25003022
00000000: 7c6a 20be 62c6 e13e e755 a5be 1d35 043f
00000010: 8e15 fc3a 173f b0bd fc04 d83e 2c0a 2fbf
00000020: 16f3 f1be 4348 8fbe 74bd abbc ccd2 263f
00000030: 0e1f 13bd 9b4f ab3e a657 babe cb68 9dbe
00000040: d1db dd3e 5d70 35be 0fe7 203e e97e 0e3f
00000050: cc41 12bf 7a5c 26be e79e d4be 70dd 0ebf
00000060: 0f24 643e 6793 053f 9cde 2abd bd00 dabe
00000070: b5b3 083f 718d 9d3e d044 2cbe 28be a6bd
00000080: e239 9dbe 71f9 2e3f aeba 413e f78c 31be
00000090: 5155 8c3e c308 fa3e bdef 49be 23bc 17be
000000a0: 4286 a2be c4a6 843e 231d 363e f603 803e

Detokenizer.cat_recons.4.bias f4 [11]
-0.067779936 0.28613156 -0.0015070465 -0.15736328 0.5332263 0.116203696 -0.05236047 -0.5645643
0.15048294 0.0316568 -0.30584493
00000000: 35d0 8abd d67f 923e 1788 c5ba d723 21be
00000010: 8581 083f 34fc ed3d ef77 56bd 4987 10bf
00000020: 3318 1a3e 90aa 013d b597 9cbe

Detokenizer.cat_recons.5.weight f4 [11, 4]
0.7986044 -1.0112382 0.5910557 -0.12985812 -0.096377715 -0.0023676464 0.8209857 -0.089607164
0.20071279 -0.5153899 -0.123563066 0.49897552 0.17486817 -0.12840207 -0.1887715 0.3997754
0.24258628 0.36531994 0.1867962 -0.40917557 -0.71769744 -0.29454055 -0.66454947 -0.0368083
-0.026174909 -0.26052994 -0.7108697 0.023245145 -0.47180364 0.310828 0.021021161 -0.00025721188
0.21717447 -0.059707694 -0.60294086 -0.8469662 0.3824117 0.5157294 -0.088295735 0.27648336
0.13320097 0.36609206 -0.28300092 0.098105185
00000000: 5771 4c3f 4170 81bf 6d4f 173f 87f9 04be
00000010: ae61 c5bd 842a 1bbb 1e2c 523f f683 b7bd
00000020: a787 4d3e 98f0 03bf a20e fdbd b879 ff3e
00000030: a410 333e d57b 03be 514d 41be 5caf cc3e
00000040: 8a68 783e 370b bb3e 8147 3f3e 767f d1be
00000050: 05bb 37bf 05ce 96be ea1f 2abf 4dc4 16bd
00000060: c36c d6bc 2e64 85be 8ffb 35bf 9a6c be3c
00000070: 3f90 f1be d924 9f3e 9234 ac3c 65da 86b9
00000080: fc62 5e3e 0e90 74bd 555a 1abf c7d2 58bf
00000090: 77cb c33e d806 043f 65d4 b4bd 3a8f 8d3e
000000a0: d665 083e 6b70 bb3e 7fe5 90be 5feb c83d

Detokenizer.cat_recons.5.bias f4 [11]
0.12442028 0.35087538 -0.020229075 0.39390725 -0.48317078 -0.47884834 0.234114 -0.33255833
0.3729889 -0.12852217 -0.5117412
00000000: 0fd0 fe3d f0a5 b33e 72b7 a5bc 36ae c93e
00000010: 2962 f7be 9c2b f5be 95bb 6f3e 1645 aabe
00000020: 67f8 be3e 519b 03be 7901 03bf

Detokenizer.cat_recons.6.weight f4 [11, 4]
0.5429219 -0.39617446 0.10638669 0.32111362 -0.62981474 -0.3598561 0.39142576 0.3335607
-0.14182547 0.4828143 -0.5776757 0.06291569 -0.4169847 0.28955954 0.17753401 -0.102198884
0.03736359 -0.112623945 -0.29811162 0.5095152 -0.2302789 0.2894013 -0.28621143 -0.53699386
-0.97838646 0.10849068 -0.085774735 0.44466203 0.34438217 0.16381617 -0.15135428 0.20934117
0.12224095 -0.3620599 0.15597756 -0.60881895 -0.7898582 -0.30059826 -0.62068135 -0.44818217
0.08428569 0.35652316 0.10198105 0.031963732
00000000: eefc 0a3f 61d7 cabe 44e1 d93d 0169 a43e
00000010: 8a3b 21bf 0f3f b8be f568 c83e 78c8 aa3e
00000020: b23a 11be 7033 f73e 8ee2 13bf f1d9 803d
00000030: 057f d5be 2641 943e 7acb 353e a64d d1bd
00000040: 900a 193d 62a7 e6bd 16a2 98be 976f 023f
00000050: 3bce 6bbe 682c 943e 4e8a 92be 6e78 09bf
00000060: 8977 7abf 5d30 de3d aaaa afbd beaa e33e
00000070: dc52 b03e 6dbf 273e 9efc 1abe 885d 563e
00000080: 7759 fa3d ea5f b9be 95b8 1f3e 8fdb 1bbf
00000090: 2634 4abf 04e8 99be f9e4 1ebf 2278 e5be
000000a0: fa9d ac3d 348a b63e 71db d03d 67ec 023d

Detokenizer.cat_recons.6.bias f4 [11]
-0.23456271 0.20404808 -0.41447195 -0.105696596 -0.076696776 -0.31523308 -0.4125812 0.4294008
0.20222124 0.39839154 0.46495393
00000000: 3531 70be fbf1 503e ab35 d4be 7577 d8bd
00000010: 3313 9dbd 3b66 a1be d83d d3be 6cda db3e
00000020: 1613 4f3e faf9 cb3e 710e ee3e

Detokenizer.cat_recons.7.weight f4 [10, 4]
-0.45318615 0.3488374 0.46832004 -0.47354233 0.35004956 -0.053168662 -0.6387562 -0.5321014
0.11940028 -0.43246272 -0.30319285 0.49352083 1.0431598 -0.41271216 0.4745317 0.5458274
-0.046326466 -0.5240102 0.7138221 0.12844285 -0.7392812 -0.096579276 -0.23857799 0.14833216
0.5429536 0.14067154 -0.07581369 0.4054989 0.6359008 0.14785416 0.017774396 -0.21880446
-0.042967454 0.508112 -0.00697887 -0.14359464 0.6326394 0.0055648247 0.22318539 -0.083444014
00000000: 0408 e8be d19a b23e a5c7 ef3e 2474 f2be
00000010: b239 b33e 62c7 59bd 8785 23bf cc37 08bf
00000020: 2288 f43d c16b ddbe 183c 9bbe c3ae fc3e
00000030: 4386 853f 024f d3be d2f5 f23e 58bb 0b3f
00000040: d2c0 3dbd 8825 06bf 0cbd 363f 8686 033e
00000050: 8841 3dbf 5bcb c5bd ca4d 74be 63e4 173e
00000060: 02ff 0a3f 330c 103e 3544 9bbd 8d9d cf3e
00000070: 65ca 223f 1567 173e 9c9b 913c 470e 60be
00000080: a4fe 2fbd a113 023f 01af e4bb 790a 13be
00000090: a8f4 213f 2259 b63b b68a 643e b2e4 aabd

Detokenizer.cat_recons.7.bias f4 [10]
-0.24461776 -0.24669966 -0.31896862 0.30271277 0.45287114 -0.10991563 -0.31678686 -0.20052707
-0.56756884 0.5821491
00000000: 147d 7abe d69e 7cbe db4f a3be 2bfd 9a3e
00000010: bade e73e 721b e1bd e331 a2be f856 4dbe
00000020: 314c 11bf b907 153f

Detokenizer.cat_recons.8.weight f4 [10, 4]
0.5199666 -0.07154149 -0.38846755 0.2937238 0.13896129 -0.07836628 0.7291537 -0.23532589
-0.6744752 -0.24483576 -0.58723146 0.27383855 0.09841033 -0.636592 0.42707703 0.23255764
0.016583182 0.37000585 -0.49363497 -0.45278966 0.95191896 -0.41730127 0.55562097 0.015251568
-0.48972824 0.19674098 -0.043415938 0.049704634 0.58700216 0.36794993 -0.26219586 -0.17984638
0.7588312 0.5520211 0.297736 0.41004667 -0.21580292 0.43150645 0.027473642 0.021463579
00000000: 881c 053f 5884 92bd 38e5 c6be f762 963e
00000010: de4b 0e3e 807e a0bd d1a9 3a3f 45f9 70be
00000020: 68aa 2cbf 3ab6 7abe cd54 16bf 9134 8c3e
00000030: 5b8b c93d b1f7 22bf d7a9 da3e 9723 6e3e
00000040: 74d9 873c 6871 bd3e b9bd fcbe 0cd4 e7be
00000050: f6b0 733f 83a8 d5be 2d3d 0e3f b6e1 793c
00000060: a9bd fabe 7876 493e e9d4 31bd 1697 4b3d
00000070: c645 163f ef63 bc3e 893e 86be a629 38be
00000080: c342 423f 4151 0d3f da70 983e a3f1 d13e
00000090: 71fb 5cbe 6aee dc3e 6710 e13c 63d4 af3c

Detokenizer.cat_recons.8.bias f4 [10]
-0.20683347 0.4916122 -0.08604886 -0.28571516 0.14119102 0.18444622 -0.064564295 0.045854334
-0.42480236 -0.18771608
00000000: 27cc 53be 98b4 fb3e 623a b0bd 4249 92be
00000010: 6194 103e 78df 3c3e 493a 84bd c1d1 3b3d
00000020: b27f d9be a538 40be
