tabsyn/vae/ckpt/default/decoder.pt (torch, 27971 bytes, 49 tensors)

VAE_Decoder.layers.0.attention.W_q.weight f4 [4, 4]
0	0x3f011ee8	0.50437784
1	0xbef6ff07	-0.48241445
2	0xbd3ff2f0	-0.046862543
3	0xbdd4971a	-0.10380383
4	0xbe460ebb	-0.19341557
5	0x3e6e1c75	0.23253043
6	0x3e02f8e9	0.12790264
7	0xbd9fb2ba	-0.07797761
8	0x3e8ce694	0.27519667
9	0xbdb3eed6	-0.08785789
10	0x3eccc3a5	0.39993015
11	0xbee249ce	-0.44196934
12	0xbeab6a2a	-0.33479434
13	0xbedfc089	-0.4370158
14	0x3ca253ec	0.019815408
15	0x3e3fd6da	0.18734303

VAE_Decoder.layers.0.attention.W_q.bias f4 [4]
0	0xbe11edcb	-0.14250867
1	0x3e9c5f34	0.30541384
2	0xbd97a3d7	-0.07404297
3	0xbd9c2bf4	-0.07625571

VAE_Decoder.layers.0.attention.W_k.weight f4 [4, 4]
0	0xbe9840fc	-0.2973708
1	0xbd49c646	-0.049261354
2	0xbedfe046	-0.43725795
3	0xbf25c1bd	-0.64748746
4	0xbee994f5	-0.45621458
5	0xbdbebc4c	-0.093132585
6	0xbe97cb4e	-0.29647297
7	0x3ee0a015	0.43872133
8	0xbe1a0d0e	-0.15044042
9	0x3d1b96ec	0.037985727
10	0xbe396dc2	-0.18108276
11	0xbec1b8bf	-0.37836263
12	0xbe8d0dd3	-0.2754961
13	0x3e8ef649	0.27922276
14	0x3ea5f297	0.32411644
15	0xbe89212b	-0.26783118

VAE_Decoder.layers.0.attention.W_k.bias f4 [4]
0	0xba1ef47b	-0.0006063652
1	0x3a938a14	0.001125636
2	0x385de8dc	5.2907373e-05
3	0xb8e30086	-0.00010824301

VAE_Decoder.layers.0.attention.W_v.weight f4 [4, 4]
0	0xbe108a29	-0.14115204
1	0x3e334615	0.17507203
2	0xbe0b0ac0	-0.1357832
3	0xbecf8aa4	-0.40535462
4	0x3d32a53e	0.04361462
5	0x3dbe7766	0.09300117
6	0xbd9f1066	-0.077668
7	0xbd48b8bc	-0.0490043
8	0xbb9c5ca6	-0.0047717867
9	0x3de3bb9e	0.111197695
10	0xbdc163fb	-0.09442898
11	0xbe1a6b1e	-0.15079924
12	0x3d24421a	0.0401021
13	0x3dc2ddd4	0.095149666
14	0xbdbaee28	-0.09127456
15	0xbe0dcd8c	-0.13847941

VAE_Decoder.layers.0.attention.W_v.bias f4 [4]
0	0xbe504e79	-0.20342435
1	0xbd37b86e	-0.04485362
2	0xbd70e1dc	-0.058809146
3	0x3e654c63	0.2239242

VAE_Decoder.layers.0.linear0.weight f4 [128, 4]
0	0xbde970a1	-0.113984354
1	0x3eb4dbc2	0.35323912
2	0x3edf326d	0.4359316
3	0xbd996188	-0.07489306
4	0x3f07e622	0.5308553
5	0xbe15d6c1	-0.14632703
6	0x3dc613a8	0.09671718
7	0x3ed74377	0.4204366
8	0xbc62aa83	-0.0138345985
9	0xbe4b5f40	-0.19860554
10	0xbe04cdc1	-0.12969114
11	0xbe64e56b	-0.22353141
12	0xbe4af8ac	-0.19821423
13	0xbed9e617	-0.42558357
14	0x3ec6822c	0.38771188
15	0x3f1e7896	0.6190275
16	0x3ebb0f1b	0.36534962
17	0xbefd47f7	-0.49468967
18	0x3eaaf4da	0.33389932
19	0xbf647fb8	-0.89257383
20	0x3e9bd8a2	0.30438715
21	0xbf097826	-0.53698957
22	0x3e84bf7b	0.25927338
23	0xbf2d0929	-0.675921
24	0x3ebb12ab	0.3653768
25	0xbf10e231	-0.5659514
26	0x3df68ce5	0.12038592
27	0x3cb94281	0.02261472
28	0xbc3a42ec	-0.0113684945
29	0x3e770546	0.24123105
30	0x3e351de6	0.17687187
31	0x3eda265b	0.42607388
32	0xbd83232a	-0.064031914
33	0xbe3afd04	-0.1826058
34	0xbf05c64a	-0.5225569
35	0x3eb49d62	0.35276324
36	0xbeef4427	-0.46731684
37	0xbe22d575	-0.1590174
38	0x3dbf99b9	0.09355492
39	0xbefd4664	-0.49467766
40	0x3e9d28fa	0.30695325
41	0xbf40b15f	-0.75270647
42	0xbd905256	-0.07046954
43	0x3e2c47e3	0.16824298
44	0x3deca368	0.11554605
45	0x3ed44832	0.4146133
46	0xbe06fce3	-0.13182406
47	0x3eeec51b	0.46634755
48	0x3f1ad285	0.6047748
49	0xbf4048d1	-0.7511111
50	0xbd9795d8	-0.07401627
51	0x3eda0bd5	0.42587152
52	0x3f6c812e	0.9238461
53	0xbe49c139	-0.19702615
54	0xbf0650aa	-0.52466834
55	0x3eafa7ab	0.34307608
56	0x3e1b564a	0.15169635
57	0xbe41a2e3	-0.18909793
58	0x3f17b95e	0.5926722
59	0xbecd781f	-0.40130708
60	0x3e4b8b39	0.19877328
61	0xbe36de07	-0.17858134
62	0xbf1de301	-0.61674505
63	0x3ef1fa90	0.47261477
64	0x3e6d9df7	0.2320479
65	0x3df202f0	0.118169665
66	0x3d694c1a	0.05695734
67	0x3eee8f3b	0.4659365
68	0xbe9f4caa	-0.31113178
69	0x3e06db99	0.13169707
70	0x3ef5710f	0.4793782
71	0xbf2fa07a	-0.6860424
72	0x3ec462ec	0.3835672
73	0xbe1af808	-0.15133679
74	0xbe2d40a6	-0.16919193
75	0x3f3dbbaf	0.7411451
76	0xbdf5eac2	-0.12007667
77	0xbea3b450	-0.31973505
78	0x3f1a7f11	0.6035014
79	0xbea83a2f	-0.3285689
80	0xbf192898	-0.59827566
81	0xbe638a71	-0.2222078
82	0x3e38bc71	0.18040635
83	0xbec2a709	-0.38018063
84	0xbe6afa5c	-0.22947067
85	0xbe8437fe	-0.2582397
86	0xbf16652e	-0.5874814
87	0x3e1dc64a	0.15407673
88	0xbe9d7820	-0.3075571
89	0xbeac7621	-0.33683875
90	0xbba7ae49	-0.005117212
91	0x3eac7fb2	0.33691174
92	0xbeafa83e	-0.34308046
93	0xbe4e102e	-0.2012336
94	0x3d203be3	0.039119612
95	0x3f0795d4	0.52962995
96	0x3e47df3a	0.19518748
97	0xbe9ea7a4	-0.30987275
98	0x3c7ba75a	0.015359724
99	0xbe74d88c	-0.23910731
100	0x3eb05a83	0.34444055
101	0xbe8d1896	-0.2755782
102	0x3ec88409	0.39163235
103	0xbf260e01	-0.6486512
104	0x3f72d056	0.94849145
105	0xbe54e63d	-0.20790954
106	0xbf788b27	-0.9708733
107	0xbf432e78	-0.7624278
108	0x3e6b58b6	0.2298306
109	0x3f0cedf3	0.5505058
110	0xbee8f9ac	-0.45502985
111	0xbce23874	-0.02761481
112	0xbee61379	-0.4493673
113	0xbea3e1a3	-0.32008085
114	0xbe218ca7	-0.15776311
115	0xbe98c13c	-0.29834926
116	0x3eeae43b	0.4587725
117	0xbf475a83	-0.77872485
118	0x3ed7b192	0.42127663
119	0x3ed3e234	0.41383517
120	0xbe150de3	-0.14556079
121	0xbec9d489	-0.39419964
122	0x3ec6245e	0.3869962
123	0xbe4ea3d5	-0.20179684
124	0xbe9f2933	-0.3108612
125	0xbe7c0db5	-0.24614604
126	0xbe6070c2	-0.21918014
127	0xbdf7cce1	-0.120996244
128	0x3ecdd9a1	0.402051
129	0xbf175a14	-0.59121823
130	0xbf05f613	-0.52328604
131	0x3f0b8ee9	0.5451494
132	0x3ec06681	0.37578204
133	0xbf2c240c	-0.67242503
134	0xbd063080	-0.032761097
135	0x3e60cd4f	0.21953319
136	0xbed8d11c	-0.42347038
137	0x3e711cdf	0.2354617
138	0xbce58e61	-0.028021993
139	0xbe99ac65	-0.3001434
140	0xbdc65056	-0.096832916
141	0x3f1a4dcb	0.6027495
142	0xbf1bf66a	-0.60922873
143	0xbede252b	-0.43387732
144	0xbde78242	-0.113041416
145	0xbe340f6f	-0.17584012
146	0xbf245fc8	-0.6420865
147	0x3ee36748	0.44414735
148	0x3e118a7a	0.14212981
149	0x3cadcc4f	0.021215586
150	0x3e5b7e3a	0.2143487
151	0xbf393067	-0.7233948
152	0xbd25c6fa	-0.040472962
153	0x3dbe56cb	0.09293898
154	0x3e4477cc	0.19186324
155	0x3f0be658	0.5464835
156	0xbf09cb6e	-0.53826034
157	0xbc7b455e	-0.015336363
158	0x3e73daf9	0.23814
159	0xbf001ee7	-0.50047153
160	0x3e0b4f10	0.13604379
161	0x3ee4e608	0.4470675
162	0xbf0fce02	-0.5617372
163	0x3eec9a21	0.4621134
164	0xbecbecb6	-0.39829034
165	0xbef1a42a	-0.4719556
166	0x3f10ac5a	0.5651299
167	0xbdbf4ccf	-0.09340822
168	0x3f141a0a	0.5785223
169	0x3e1ff4ec	0.15620774
170	0xbe5c60af	-0.21521257
171	0xbeee5d51	-0.4655557
172	0xbeff0dca	-0.49815208
173	0xbf0f60d6	-0.56007135
174	0x3d9ca221	0.07648111
175	0x3ea78b6a	0.32723552
176	0xbea585a4	-0.32328522
177	0x3d28af7a	0.041182972
178	0xbe4d7199	-0.20062865
179	0x3f05df46	0.52293813
180	0xbd98aa82	-0.07454397
181	0x3eafd0f3	0.34339103
182	0x3ee45069	0.44592598
183	0xbeb99117	-0.36243507
184	0xbe99ee03	-0.300644
185	0xbdd4e47e	-0.10395144
186	0xbd79f65a	-0.061025955
187	0x3f37bf9e	0.7177676
188	0xbefef899	-0.4979904
189	0x3f10fa73	0.56632155
190	0xbe32908a	-0.1743795
191	0xbef86ae9	-0.48519066
192	0x3ea30705	0.31841293
193	0xbf0795b3	-0.529628
194	0x3e9447d3	0.28961048
195	0xbea6f4c3	-0.32608613
196	0xbe72164f	-0.23641323
197	0x3ead35d1	0.3383012
198	0x3e30b395	0.17256005
199	0xbed0c81a	-0.40777665
200	0xbea61816	-0.3244025
201	0x3cdb282a	0.02675255
202	0xbe95acea	-0.29233485
203	0xbcc7c81c	-0.024387412
204	0x3e96b053	0.294314
205	0xbe9534d7	-0.29141876
206	0xbd92360c	-0.07139215
207	0x3f4c701d	0.7985857
208	0xbcc25b88	-0.023725286
209	0xbe54fa31	-0.20798565
210	0xbebe17db	-0.37127575
211	0x3f39cf17	0.7258162
212	0xbeaf5711	-0.34246114
213	0xbeb937db	-0.36175427
214	0xbe63349b	-0.22188036
215	0x3f407440	0.75177383
216	0x3f1784bf	0.5918693
217	0x3e3c2f3d	0.18377395
218	0xbdbacded	-0.091213085
219	0xbf3e81e3	-0.7441694
220	0x3d4e5c45	0.050380964
221	0x3f1490ba	0.58033335
222	0x3efa4378	0.488796
223	0xbc19b4a1	-0.009381444
224	0xbf1dd7a5	-0.6165717
225	0x3dbafa90	0.09129822
226	0xbee15036	-0.4400651
227	0x3f26c938	0.65150785
228	0xbf13eb7e	-0.5778121
229	0x3e9bb228	0.3040936
230	0x3eae694d	0.34064713
231	0xbe8ac99f	-0.2710695
232	0xbee329e3	-0.44367895
233	0xbf097ab5	-0.5370286
234	0x3f199e48	0.60007143
235	0xbe377c6d	-0.17918558
236	0xbe3abaac	-0.18235272
237	0x3ea3496c	0.31891954
238	0x3ebd31d9	0.36952093
239	0xbe8a9b74	-0.27071726
240	0x3eef9c95	0.4679915
241	0x3ed49f69	0.4152787
242	0xbf227dbc	-0.63473105
243	0xbf046030	-0.5170927
244	0x3e6648e1	0.22488739
245	0x3d368915	0.044564325
246	0x3ef9f4b1	0.48819497
247	0x3ed35784	0.41277707
248	0xbe8503fc	-0.25979602
249	0xbeb35286	-0.35023898
250	0xbed5629b	-0.41676793
251	0x3d9d31f4	0.076755434
252	0xbeb8fa81	-0.3612862
253	0xbecd9dc1	-0.4015942
254	0xbf3863a3	-0.72027034
255	0x3e824c26	0.25448722

VAE_Decoder.layers.0.linear0.bias f4 [128]
0	0x3ea3482f	0.3189101
1	0x3ec9d1a2	0.3941775
2	0x3ef36102	0.4753495
3	0xbd8142a4	-0.06311539
4	0x3e69e3b9	0.22840776
5	0xbe4d2478	-0.20033443
6	0x3ec0f2b4	0.37685168
7	0x3efa2405	0.48855606
8	0xbd89964f	-0.06718122
9	0x3d9ecad2	0.07753529
10	0x3e1a55c3	0.15071778
11	0x3f12abb1	0.5729323
12	0x3ed36bdc	0.41293228
13	0x3e7c37f1	0.24630715
14	0x3eb125e3	0.34599218
15	0x3efa47ae	0.48882812
16	0x3efa7b86	0.48922366
17	0x3e81d44d	0.25357285
18	0x3d2a8609	0.041631732
19	0xbdd4158b	-0.103556715
20	0xbe43ae1a	-0.19109383
21	0xbc9d08cd	-0.019169236
22	0xbde596d8	-0.11210412
23	0x3e52f1cb	0.20600049
24	0x3e86bed7	0.26317474
25	0x3ea83954	0.32856238
26	0xbbc39378	-0.0059685074
27	0xbce1b5c6	-0.027552497
28	0x3e91423d	0.28370848
29	0x3e828546	0.25492305
30	0x3eb6a825	0.3567516
31	0xbeacffd5	-0.33788934
32	0x3e94072e	0.28911728
33	0x3d2ac35f	0.041690227
34	0x3ed154a3	0.40884885
35	0xbedfbdae	-0.43699402
36	0x3a7bfde0	0.00096127205
37	0x3ed36a1f	0.412919
38	0x3e97d1f3	0.29652366
39	0xbe47827c	-0.1948337
40	0x3ea61368	0.3243668
41	0x3dd75d09	0.10515792
42	0x3ea385a2	0.3193789
43	0x3e8e7841	0.2782612
44	0x3f1d2844	0.61389565
45	0x3dc1f382	0.094702736
46	0x3ee31aa7	0.44356272
47	0x3da753ed	0.081703044
48	0x3ebad7bf	0.36492726
49	0xbe76a9fc	-0.24088281
50	0x3e8f2c1f	0.2796335
51	0x3ef1e218	0.47242808
52	0x3dd6e9a4	0.10493782
53	0x3eb85bf5	0.36007658
54	0x3eabfcd4	0.3359133
55	0x3ee5b489	0.448643
56	0xbd9c8750	-0.07642996
57	0x3e874de0	0.264266
58	0x3e975656	0.29558057
59	0xbe7d19d9	-0.24716891
60	0xbde2e803	-0.11079409
61	0x3ed67b6c	0.41891038
62	0x3ec9f629	0.39445618
63	0xbd6b0279	-0.057375405
64	0xbea2b739	-0.31780413
65	0x3eab6f87	0.33483526
66	0xbee4368a	-0.4457286
67	0x3e33754c	0.17525214
68	0xbdc1642c	-0.094429344
69	0x3f2244ed	0.6338642
70	0x3f29b096	0.66285074
71	0x3ecf8442	0.40530592
72	0x3dce468b	0.10072049
73	0x3ed7f8e5	0.4218208
74	0xbe2b4b11	-0.16727854
75	0xbe1fc1e0	-0.15601301
76	0xbeb4e6bb	-0.35332283
77	0x3f0dfb18	0.55461264
78	0x3e4d0ba8	0.20023978
79	0xbe6fe029	-0.23425354
80	0x3d09e2c3	0.033663522
81	0xbd90fdc9	-0.07079656
82	0x3ebd2e27	0.36949274
83	0x3d87437b	0.06604668
84	0x3ccee112	0.025253806
85	0x3d1a0552	0.03760273
86	0xbe0549f5	-0.13016494
87	0x3e281340	0.16413593
88	0x3e9923f4	0.29910243
89	0xbe241be8	-0.1602627
90	0xbe7ae401	-0.24501039
91	0xbe44b6fc	-0.19210428
92	0x3daeeaa3	0.08540847
93	0xbe1c6b8e	-0.15275404
94	0xbdc2ba56	-0.09508197
95	0xbdf2f60d	-0.11863337
96	0xbe7ac6de	-0.24489924
97	0xbb9a1e1a	-0.0047032954
98	0x3ef3915f	0.47571847
99	0xbd4696f1	-0.048483793
100	0x3ed4ae1e	0.4153909
101	0xbe7a5bef	-0.24449132
102	0xbd0b5ecd	-0.034025956
103	0xbeaa5c91	-0.33273748
104	0xbec45126	-0.3834316
105	0x3ee71341	0.45131877
106	0x3e11a407	0.14222728
107	0x3e7062eb	0.23475234
108	0x3e135483	0.14387707
109	0xbe84232a	-0.25808078
110	0xbe38ce19	-0.1804737
111	0x3d535887	0.051598098
112	0x3dba106c	0.090851635
113	0x3a97e909	0.0011589836
114	0x3eb17f83	0.34667596
115	0x3e869d34	0.2629181
116	0xbda95cec	-0.082696766
117	0xbe5ce08f	-0.21570037
118	0x3dad7827	0.08470183
119	0x3f0c3377	0.5476603
120	0x3dad1aa6	0.084523484
121	0x3d679516	0.056538664
122	0x3f0b4440	0.54401016
123	0xbeae6e23	-0.34068403
124	0x3ef1dcc6	0.4723875
125	0xbc7c23fc	-0.015389439
126	0xbe6c66eb	-0.23086135
127	0x3df9b020	0.12191796

VAE_Decoder.layers.0.linear1.weight f4 [4, 128]
0	0xbd69a9dd	-0.05704676
1	0x3da335de	0.07969259
2	0x3ccad871	0.02476141
3	0xbc750f43	-0.014957252
4	0x3da7ce66	0.08193664
5	0x3d443c6c	0.047909185
6	0x3e1bb449	0.15205492
7	0xbe82a10e	-0.255135
8	0xbd9c6a02	-0.07637407
9	0xbbd82de0	-0.0065972656
10	0x3e63eaf6	0.22257599
11	0xbe1f2bb6	-0.15544018
12	0x3da83379	0.08212943
13	0x3f41d387	0.7571339
14	0xbd83e0d5	-0.06439368
15	0xbd11e5d0	-0.035619557
16	0xbda10f16	-0.078642055
17	0x3b3244c2	0.0027201627
18	0xbd55552c	-0.05208318
19	0x394c490c	0.00019482168
20	0x3e11c956	0.1423696
21	0xbe110083	-0.14160351
22	0xbe2c0fdf	-0.1680293
23	0xbe480044	-0.19531351
24	0x3cca02a2	0.024659459
25	0xbd087465	-0.033314127
26	0x3ea7eb87	0.3279688
27	0xbdc3296a	-0.095293835
28	0xbdbe8c42	-0.09304096
29	0x3e4325d8	0.19057405
30	0xbcd6b237	-0.026208026
31	0x3d0c5cda	0.034268238
32	0x3c793371	0.0152100185
33	0x3e2963af	0.16541933
34	0xbcf891c4	-0.030342944
35	0x3e9df6c6	0.30852336
36	0xbe36fa09	-0.17868818
37	0xbdc2e962	-0.095171705
38	0xbd79b288	-0.060961276
39	0xbdbd88d9	-0.09254617
40	0xbda3e5c9	-0.080028124
41	0x3cc77250	0.0243465
42	0x3d1f8836	0.03894826
43	0x3c18443d	0.009293613
44	0xbe369c3e	-0.17833039
45	0xbe63cdb2	-0.22246435
46	0xbe55da5b	-0.20884077
47	0x3d27ca30	0.040964305
48	0x3e136c87	0.14396869
49	0xbdf87696	-0.121319935
50	0xbd8be882	-0.06831457
51	0xbcb5561e	-0.02213579
52	0xbe3ce941	-0.18448354
53	0xbe0ca3a5	-0.137343
54	0x3d7d6c34	0.06187077
55	0xbdb3c98d	-0.08778677
56	0xbddd03e6	-0.10791759
57	0xbe437d7a	-0.19090834
58	0x3c957c56	0.018247765
59	0xbddc0dd6	-0.107448265
60	0xbd6a3097	-0.057175245
61	0xbd4c39fc	-0.049859986
62	0xbbda2c72	-0.0066581303
63	0xbe9db3ed	-0.30801335
64	0xbcbfcfb2	-0.023414467
65	0xbd9621a3	-0.073306344
66	0x3c9d05f7	0.019167883
67	0xbd816921	-0.0631888
68	0xbe68b8e6	-0.22726783
69	0xbd37d304	-0.044878975
70	0x3d28384a	0.041069306
71	0xbdf98ff9	-0.12185664
72	0xbe69fe44	-0.22850901
73	0xbdbd46e1	-0.09242035
74	0x3cac7081	0.02104974
75	0xbe193b25	-0.14963968
76	0xbc1a14ab	-0.009404342
77	0xbd4e0e30	-0.0503065
78	0x3dd624c1	0.10456229
79	0x3df9584d	0.12175045
80	0xbcfa5cc8	-0.03056182
81	0x3eccdabf	0.4001064
82	0x3d94281d	0.072342135
83	0xbc7b59d4	-0.015341241
84	0xbe95df0b	-0.2927173
85	0xbe4cbdcc	-0.19994277
86	0x3d539c68	0.051662832
87	0x3d1d0d9e	0.038343064
88	0xbe2ec3d0	-0.17066884
89	0x3e5606fd	0.20901103
90	0xbd025b3d	-0.031825293
91	0xbce346ba	-0.027743686
92	0xbe2125f7	-0.15737139
93	0xbe2680c4	-0.16260058
94	0xbe06c206	-0.13159952
95	0xbefe859c	-0.4971131
96	0xbe95087c	-0.29108036
97	0xbd5ba538	-0.05362436
98	0xbdad1e96	-0.084530994
99	0xbde5368c	-0.111920446
100	0xbcfda2b5	-0.030961374
101	0x3e7dca74	0.24784261
102	0xbdb1d8bd	-0.08683918
103	0x3e187e75	0.1489199
104	0xbc61bbba	-0.013777668
105	0xbddccdcc	-0.1078144
106	0xbd24020f	-0.040041026
107	0xbe0c7ce8	-0.13719523
108	0x3be8e4f4	0.0071073715
109	0xbd35f0e7	-0.044419196
110	0xbeb01b05	-0.34395614
111	0x3f53c6da	0.827253
112	0x3e41ec74	0.18937856
113	0xbda0deaa	-0.0785497
114	0x3c5be07a	0.013420219
115	0xbe6131ce	-0.21991655
116	0x3e54d3ce	0.20783922
117	0xbda39c2b	-0.07988771
118	0x3e4c7944	0.19968134
119	0x3d8c41fa	0.068485215
120	0xbc416b3e	-0.011805354
121	0xbd31564f	-0.0432952
122	0x3cea6b9c	0.028615765
123	0x3e414ef5	0.18877776
124	0x3db5b6ae	0.08872734
125	0xbd6c309e	-0.057663552
126	0xbe7a6750	-0.24453473
127	0xbe239d47	-0.15977965
128	0xbc39b2a7	-0.011334098
129	0xbe4ba43a	-0.19886866
130	0xbcbec4ae	-0.023287144
131	0xbe4bb713	-0.19894056
132	0xbdef6348	-0.11688858
133	0xbe72d746	-0.23714933
134	0xbe1a91bd	-0.15094657
135	0xbd4e753a	-0.050404765
136	0xbdb82207	-0.08990865
137	0x3d8875e5	0.066631116
138	0xbeb061af	-0.34449527
139	0xbb7e69a6	-0.0038820296
140	0xbe362176	-0.17786202
141	0xbe37ac96	-0.1793693
142	0xbdd72b97	-0.10506361
143	0xbd87b6a5	-0.066266336
144	0xbc857bfa	-0.016294468
145	0x3d9b2b55	0.07576624
146	0xbd2b9608	-0.041891128
147	0xbe13f703	-0.14449696
148	0xbe9c1da9	-0.3049138
149	0xbddac044	-0.10681203
150	0xbe0ebe57	-0.13939796
151	0xbe78f015	-0.24310334
152	0xbcbb1b05	-0.022840032
153	0xbd6de0df	-0.058075782
154	0x3f4a73da	0.79083025
155	0x3c30b878	0.010786168
156	0xbce14f75	-0.027503708
157	0xbe233617	-0.15938602
158	0xbc01c0d9	-0.007919514
159	0x3b952e98	0.0045526735
160	0xbdbd8dbd	-0.0925555
161	0xbe6293db	-0.22126715
162	0x3da040c2	0.078248516
163	0xbd87e770	-0.0663594
164	0xbe10cafe	-0.14139935
165	0x3e07d954	0.13266498
166	0xbe0bfb10	-0.13669991
167	0xbda69c31	-0.0813526
168	0xbd556371	-0.052096788
169	0xbe1af62b	-0.15132968
170	0x3f077504	0.52912927
171	0xbd885fb1	-0.06658877
172	0xbd2bbe03	-0.041929256
173	0x3dbae3dc	0.09125492
174	0xbe292490	-0.16517854
175	0x3d3544a3	0.04425491
176	0xbd8bc86a	-0.06825335
177	0x3e2cdf3d	0.16882034
178	0x3bc151f9	0.0058996645
179	0xbe22e46c	-0.15907449
180	0xbe53cae7	-0.2068287
181	0xbe04e774	-0.12978917
182	0x3ea6c207	0.32569906
183	0x3dc3194c	0.09526309
184	0xbe62b402	-0.2213898
185	0xbcbbd810	-0.022930175
186	0xbe46b497	-0.19404827
187	0x3e8dfbc7	0.27731153
188	0x3e55b730	0.20870662
189	0xbe9370c3	-0.28796968
190	0xbd847228	-0.06467086
191	0xbe2db9a1	-0.16965343
192	0x3c6bd874	0.014394868
193	0xbe008c31	-0.12553479
194	0x3ddec92c	0.10878214
195	0x3db94337	0.09046023
196	0xbda96427	-0.08271056
197	0x3e2fe258	0.17176187
198	0xbe406188	-0.18787205
199	0x3e3d1513	0.1846507
200	0xbe0fe63d	-0.14052673
201	0x3d9d3b54	0.076773316
202	0xbe08ffb5	-0.13378794
203	0xbce80c98	-0.028326318
204	0xbdea6e5d	-0.114468314
205	0xbe397e00	-0.18114471
206	0xbe171692	-0.14754704
207	0x3f1ca137	0.61183494
208	0xbe08f6c9	-0.13375391
209	0x3dd542df	0.10413145
210	0xbb9a9427	-0.004717368
211	0xbe0f4dd7	-0.13994537
212	0xbe0088b5	-0.1255215
213	0xbd8c00ae	-0.06836067
214	0xbce63d13	-0.028105294
215	0x3d4d81ec	0.05017273
216	0xbe3a8af5	-0.1821707
217	0x3f39064c	0.72275233
218	0xbd82d16d	-0.06387601
219	0xbde814e5	-0.1133211
220	0xbcb711d8	-0.022347376
221	0xbe0eb472	-0.13936022
222	0x3ec125fe	0.37724298
223	0xbe7c2ee4	-0.24627262
224	0xbda10a66	-0.078633115
225	0xbbfc3262	-0.007696436
226	0x3cb94772	0.022617076
227	0x3da314a8	0.07962924
228	0xbdb58d45	-0.08864836
229	0xbe3fa7ce	-0.18716356
230	0x3e164a23	0.14676718
231	0x3e97765e	0.29582494
232	0xbb4eb2ec	-0.0031539751
233	0xbdf22ea8	-0.11825305
234	0xbe22c5c6	-0.15895757
235	0x3e1e2bdc	0.15446419
236	0xbd39bed7	-0.045348015
237	0xbbe68722	-0.007035152
238	0xbe9ea142	-0.30982405
239	0xbd472b85	-0.048625488
240	0xbd454827	-0.048164513
241	0x3da1b7c3	0.07896378
242	0xbe1946fd	-0.14968486
243	0xbd3319db	-0.04372583
244	0xbca02b6a	-0.019551951
245	0x3d977847	0.07395988
246	0xbe9b6eb0	-0.30357885
247	0xbe11b008	-0.14227307
248	0xbc6bf635	-0.014401962
249	0x3e418e92	0.18902043
250	0xbe73ed29	-0.23820938
251	0xbe7b1594	-0.2451995
252	0x3d80c4e6	0.062875554
253	0x3e8be530	0.27323294
254	0x3e63e523	0.22255377
255	0x3eb53f18	0.353997

VAE_Decoder.layers.0.linear1.bias f4 [4]
0	0xbd1440d5	-0.03619464
1	0x3c08cc0b	0.008349429
2	0xbdcc43fc	-0.099739045
3	0x3c443f55	0.01197799

VAE_Decoder.layers.0.norm1.weight f4 [4]
0	0x3faa642e	1.3311822
1	0x3fa61aa8	1.2976885
2	0x3fa4e9d8	1.2883863
3	0x3fc1927b	1.5122827

VAE_Decoder.layers.0.norm1.bias f4 [4]
0	0x3de7d506	0.11319928
1	0xbdca9cf7	-0.0989322
2	0xbdcaa3e6	-0.098945424
3	0x3e483b69	0.19553913

VAE_Decoder.layers.1.attention.W_q.weight f4 [4, 4]
0	0x3cc3bf47	0.02389492
1	0x3e07acf6	0.13249573
2	0xbdc8c7af	-0.098037116
3	0xbe620a54	-0.22074252
4	0xbe01fbac	-0.12693661
5	0x3efd81ce	0.49513096
6	0x3e68f18d	0.22748394
7	0x3d2f6a6b	0.042826097
8	0xbe59b2c7	-0.21259604
9	0xbe8f6ffd	-0.28015128
10	0x3f01b79c	0.5067079
11	0xbe89b2a3	-0.26894102
12	0x3e376c8a	0.17912498
13	0x3e025feb	0.12731902
14	0x3e80a448	0.25125337
15	0xbebf7eba	-0.37401372

VAE_Decoder.layers.1.attention.W_q.bias f4 [4]
0	0xbc266887	-0.010156757
1	0x3e15df97	0.14636074
2	0x3d9f0ed6	0.077665016
3	0xbdecc743	-0.11561444

VAE_Decoder.layers.1.attention.W_k.weight f4 [4, 4]
0	0xbe12f8bf	-0.14352702
1	0x3d8ec96c	0.06972012
2	0xbeb700ea	-0.35742885
3	0xbd3be9ce	-0.04587727
4	0x3ea5d574	0.32389414
5	0xbeaae370	-0.33376646
6	0x3e29e922	0.1659284
7	0x3eaf5fb2	0.34252697
8	0xbec6aad1	-0.38802198
9	0xbe75c13e	-0.23999497
10	0xbf411f67	-0.7543854
11	0xbc389eaa	-0.011268297
12	0x3e056c70	0.13029647
13	0x3f06836a	0.5254427
14	0x3e5d1420	0.21589708
15	0x3e088510	0.1333201

VAE_Decoder.layers.1.attention.W_k.bias f4 [4]
0	0xb82b6f09	-4.0872987e-05
1	0xb8e4ebbd	-0.00010915797
2	0xb8206c70	-3.8247963e-05
3	0x37298261	1.0103541e-05

VAE_Decoder.layers.1.attention.W_v.weight f4 [4, 4]
0	0xbe3aa7f5	-0.18228133
1	0x3d3ae25a	0.045626022
2	0xbb8093be	-0.0039238622
3	0xbe27b2b1	-0.16376759
4	0x3cee0cac	0.029058777
5	0xbcc41246	-0.023934495
6	0x3d846d38	0.06466144
7	0x3b8d7259	0.00431661
8	0x3dcd4246	0.10022406
9	0x3ea06c37	0.3133256
10	0x3e7c802d	0.2465827
11	0x3eaabadd	0.3334569
12	0x3d3e74c2	0.046498068
13	0x3dcecc41	0.10097552
14	0x3c47d1ec	0.012196045
15	0x3e583618	0.21114385

VAE_Decoder.layers.1.attention.W_v.bias f4 [4]
0	0xbcf20d04	-0.029547222
1	0xbd208507	-0.039189365
2	0xbc23404e	-0.009964062
3	0x3b03e382	0.002012462

VAE_Decoder.layers.1.linear0.weight f4 [128, 4]
0	0x3ed91775	0.4240071
1	0xbea4f87b	-0.32220826
2	0xbf022a43	-0.50845736
3	0x3e78c1e5	0.24292715
4	0x3e9d7da2	0.30759913
5	0xbec70498	-0.38870692
6	0x3dbb560c	0.091472715
7	0x3d037bf7	0.032100644
8	0x3d9dcf4b	0.077055536
9	0xbed68f7e	-0.4190635
10	0xbe806a19	-0.25080946
11	0x3eb81f46	0.3596136
12	0xbe587b7b	-0.21140854
13	0x3f0dafd0	0.55346394
14	0xbf8f9451	-1.1217138
15	0xbe882bb2	-0.26595837
16	0x3ed12e5a	0.40855676
17	0x3e4efce9	0.20213665
18	0x3ee0cc1f	0.43905732
19	0xbf200ce0	-0.62519646
20	0xbe22a6b3	-0.15883903
21	0x3ebe5719	0.37175825
22	0xbf01481a	-0.50500643
23	0x3e02831e	0.1274533
24	0xbf1ea53d	-0.61970884
25	0xbef55c5f	-0.47922036
26	0xbe9a28c0	-0.30109215
27	0x3f1cde5f	0.6127681
28	0x3dd81fd9	0.105529495
29	0xbc1cb9fa	-0.009565825
30	0x3c8ca9f0	0.017170876
31	0x3e822b5f	0.25423715
32	0x3e97ad2c	0.29624307
33	0xbeb286d1	-0.34868482
34	0x3ea7ab15	0.32747713
35	0x3eb6dd4e	0.35715717
36	0x3f0dd070	0.55396175
37	0x3db461ba	0.08807702
38	0xbe7c4e08	-0.24639142
39	0x3eacd62e	0.33757156
40	0xbed46b2a	-0.4148801
41	0xbe83dcbb	-0.2575434
42	0x3e4ea70e	0.20180914
43	0x3a02495d	0.00049700384
44	0x3eb0d618	0.3453834
45	0xbea71458	-0.3263271
46	0xbefea4f3	-0.4973522
47	0xbeba8890	-0.36432314
48	0xbe799ec4	-0.2437697
49	0x3ee1027e	0.43947214
50	0xbef3689b	-0.47540745
51	0x3e800a7a	0.25007993
52	0x3e3c3438	0.18379295
53	0x3ee55e4e	0.4479851
54	0xbee5e83b	-0.4490374
55	0xbea36b09	-0.319176
56	0xbef9924f	-0.48744437
57	0x3eb047ee	0.34429878
58	0xbdae19ca	-0.085010126
59	0x3d872564	0.065989286
60	0xbe82e9ea	-0.25569087
61	0xbf1a844b	-0.60358113
62	0xbd9cfd5f	-0.07665514
63	0xbd8c905e	-0.06863473
64	0x3ea0b40d	0.31387368
65	0x3e916d01	0.28403476
66	0xbe2337db	-0.15939276
67	0xbe146fca	-0.14495769
68	0x3e47a57d	0.19496723
69	0x3ec08846	0.37603968
70	0xbe99e401	-0.30056766
71	0x3d62cffd	0.055374134
72	0x3e5614d4	0.20906383
73	0x3edc7c06	0.43063372
74	0xbeb9c3e5	-0.36282268
75	0xbf02bd7d	-0.51070386
76	0xbe5074c9	-0.2035705
77	0xbe2feca5	-0.17180116
78	0x3f59a74f	0.8502092
79	0x3bba798c	0.005690759
80	0xbe91d22c	-0.2848066
81	0xbe917a3c	-0.2841357
82	0x3e89bdf8	0.26902747
83	0x3e8c0498	0.27347255
84	0x3e512c8b	0.20427148
85	0x3e63183e	0.22177216
86	0xbe354802	-0.1770325
87	0xbf0b1d77	-0.54341835
88	0xbdd92a71	-0.10603798
89	0x3e657a97	0.22410046
90	0xbe969efe	-0.29418176
91	0xbe8b6e8d	-0.2723278
92	0xbf14d993	-0.5814449
93	0xbe787e68	-0.2426697
94	0x3d18838b	0.037234824
95	0xbe408ab3	-0.1880291
96	0xbe1c79e7	-0.15280877
97	0xbf13d262	-0.57742894
98	0x3c81d659	0.01584928
99	0x3ef00015	0.46875063
100	0xbe93841d	-0.28811732
101	0xbe977a85	-0.29585662
102	0x3d8e3f6a	0.06945689
103	0x3eed9a4b	0.4640678
104	0xbf1154ac	-0.56769824
105	0x3dc6ae37	0.097011976
106	0x3ed1b30b	0.4095691
107	0x3eaf1858	0.3419826
108	0xbe86b2ff	-0.26308438
109	0x3efbc8b9	0.49176577
110	0x3f1db7c5	0.61608535
111	0xbeb121d9	-0.34596136
112	0xbf11de6d	-0.5698002
113	0x3d831c76	0.06401913
114	0xbeb5e2c5	-0.35524574
115	0x3efb8b47	0.49129698
116	0xbf1b30ed	-0.6062153
117	0x3f1bdb45	0.60881454
118	0xbe646b52	-0.22306564
119	0xbd51128c	-0.05104308
120	0xbe4a53e5	-0.19758566
121	0x3e49e9c6	0.19718084
122	0x3eabf66f	0.3358645
123	0xbeaafcfc	-0.33396137
124	0xbe88b91e	-0.26703733
125	0xbf3f4d52	-0.74727356
126	0x3e6c56a3	0.23079924
127	0x3ee171b3	0.44032058
128	0x3e98e332	0.29860836
129	0x3eb9b79f	0.36272904
130	0x3e40659a	0.18788758
131	0xbcf82fd1	-0.030296238
132	0xbe07f208	-0.13275921
133	0xbec6b776	-0.38811845
134	0xbea16e4d	-0.31529465
135	0x3e961394	0.29311812
136	0xbd4db9bf	-0.05022597
137	0x3e9cdb04	0.30635846
138	0xbd79c93b	-0.060982924
139	0x3d9af40c	0.075660795
140	0xbd82b9bf	-0.063830845
141	0x3f1b95f3	0.6077568
142	0x3ece3a9c	0.4027909
143	0xbf1b1ef9	-0.60594136
144	0xbbab2196	-0.0052225096
145	0xbeee5a9a	-0.46553499
146	0x3e818e67	0.25303957
147	0x3e651e91	0.22374941
148	0x3e749d3f	0.2388811
149	0xbd9b834f	-0.075934045
150	0xbe8ec39e	-0.2788362
151	0x3f2cdda0	0.6752567
152	0xbe5e8853	-0.21731691
153	0xbf0c53e7	-0.54815525
154	0x3e432a26	0.19059047
155	0x3efb45c2	0.49076658
156	0xbf08e13c	-0.5346868
157	0xbe0d0d6f	-0.13774656
158	0xbf1a20ae	-0.60206115
159	0xbd46f46f	-0.048572954
160	0xbe9cb526	-0.30606955
161	0x3cf24c75	0.029577473
162	0x3f11c3cf	0.56939405
163	0x3d996f0a	0.07491882
164	0x3d805693	0.06266513
165	0x3f1fb460	0.62384605
166	0x3f25af4d	0.6472061
167	0xbd9efe5f	-0.07763361
168	0x3e2fd6dd	0.17171808
169	0xbe851d66	-0.25998992
170	0xbe931c34	-0.28732455
171	0x3e974454	0.29544318
172	0xbed50dba	-0.41612035
173	0xbe2cbb99	-0.16868438
174	0x3dda77bd	0.106673695
175	0x3f0a4912	0.54017746
176	0x3e2c5f1b	0.16833155
177	0xbef27304	-0.47353375
178	0xbeaa0d8e	-0.33213466
179	0xbf0849ba	-0.532375
180	0x401257c6	2.2866073
181	0xbe7279c2	-0.2367926
182	0x3eada01a	0.3391121
183	0x3d96515c	0.07339737
184	0xbd7ff53c	-0.062489733
185	0x3e1e5fb0	0.1546619
186	0xbefdb3eb	-0.4955133
187	0xbf1c47f5	-0.610473
188	0x3ee1cb43	0.4410039
189	0x3e1d5e9e	0.15368125
190	0xbeabc05b	-0.33545193
191	0x3edbbbdd	0.42916766
192	0xbe7ad314	-0.24494582
193	0x3eb0e329	0.3454831
194	0x3e3ca8ec	0.18423814
195	0xbea5dab3	-0.32393417
196	0x3f0d2923	0.55140895
197	0x3e868db6	0.26279992
198	0x3e0c26a4	0.13686615
199	0xbe1b2d34	-0.15153962
200	0xbded5169	-0.115877934
201	0xbedbbd44	-0.42917836
202	0xbddf938f	-0.109168164
203	0x3f2ca979	0.67446095
204	0x3e18fc08	0.14939892
205	0x3f234ce0	0.63789177
206	0x3efe3f9a	0.496579
207	0xbefa9190	-0.4893918
208	0x3e86bcd5	0.26315942
209	0x3f1c76c4	0.6111872
210	0x3e80ea19	0.25178602
211	0xbf268db2	-0.6505996
212	0xbe040d92	-0.12895802
213	0x3e871279	0.2638128
214	0x3e22bb73	0.15891819
215	0xbe97a791	-0.2962003
216	0xbe187248	-0.14887345
217	0xbe22b2f1	-0.15888573
218	0x3d13d877	0.03609511
219	0x3e0b920e	0.13629934
220	0x3ea6a235	0.3254563
221	0xbe10c788	-0.14138615
222	0xbecc8fda	-0.399535
223	0x3ec8f8c8	0.39252305
224	0x3f042eb5	0.5163377
225	0x3f1898a8	0.59607935
226	0xbe1f7d4a	-0.15575138
227	0x3ec7e487	0.3904154
228	0x3ec1ede6	0.37876815
229	0xbc2eb77f	-0.010663866
230	0xbf0b7900	-0.54481506
231	0x3e422a49	0.18961443
232	0x3eaba7c9	0.33526447
233	0xbeeeda7a	-0.4665106
234	0x3e4d4bc3	0.20048432
235	0xbe17486b	-0.14773719
236	0xbe03d969	-0.12875904
237	0xbe8d29c8	-0.2757094
238	0x3f3db3f8	0.74102736
239	0x3daff680	0.08591938
240	0x3df38af9	0.11891741
241	0xbf2e5a79	-0.681068
242	0x3e6b4812	0.22976711
243	0x3e7c4793	0.24636678
244	0xbdf808ce	-0.12111054
245	0xbc7e3ff1	-0.0155181745
246	0xbf1d8686	-0.6153339
247	0x3f130b6d	0.5743931
248	0xbe6971c3	-0.22797303
249	0x3e03d49d	0.12874074
250	0xbe2387b9	-0.15969743
251	0x3f065a61	0.5248166
252	0xbd9ecf1a	-0.07754345
253	0x3e907abc	0.2821864
254	0xbe3d11ee	-0.18463871
255	0xbeeab656	-0.45842236

VAE_Decoder.layers.1.linear0.bias f4 [128]
0	0xbcb14660	-0.021640003
1	0x3d83dd40	0.064386845
2	0x3e34debe	0.17663094
3	0x3f171ffd	0.59033185
4	0xbeab74ad	-0.33487454
5	0xbe088083	-0.13330273
6	0x3e6026d1	0.21889807
7	0x3ee4afa2	0.44665247
8	0x3d834e9d	0.06411479
9	0x3e88e31f	0.2673578
10	0x3e8d2a2b	0.27571234
11	0x3eca362b	0.39494452
12	0x3de595d3	0.11210217
13	0x3e2c67d3	0.16836481
14	0x3e8f6a00	0.2801056
15	0x3d68d2bf	0.056841608
16	0xbf11d0ee	-0.56959426
17	0x3ee4ffa9	0.44726303
18	0xbe4aaf8a	-0.19793525
19	0x3e063d6c	0.13109368
20	0x3e196503	0.14979939
21	0xbf003bc4	-0.50091195
22	0x3f085e4e	0.532689
23	0x3ea5f1e7	0.3241112
24	0xbeaabfbd	-0.3334941
25	0xbc091429	-0.008366623
26	0x3eb59546	0.3546545
27	0x3d9a609c	0.07537958
28	0xbe837cb9	-0.25681093
29	0xbe03d56f	-0.12874387
30	0x3d0c67e5	0.03427877
31	0xbe324f07	-0.17412959
32	0xbeae657a	-0.34061795
33	0xbebd2fa0	-0.36950397
34	0x3ee4e24c	0.447039
35	0x3dfcf891	0.12352098
36	0xbd9347b1	-0.071914084
37	0x3c3fbf4a	0.011703322
38	0x3e019166	0.12653121
39	0x3eae9de5	0.3410484
40	0xbf0d635d	-0.5522974
41	0x3e2ecfb6	0.17071423
42	0x3dbc23ed	0.0918654
43	0xbcc9a806	-0.024616253
44	0xbe7e071d	-0.24807401
45	0xbe275d35	-0.1634415
46	0xbe35cffa	-0.17755118
47	0x3f21b046	0.63159597
48	0x3e8db4ab	0.276769
49	0xbeada66b	-0.3391603
50	0xbec96c57	-0.3934047
51	0x3e932c9a	0.28744966
52	0xbe889419	-0.2667549
53	0x3d8bd988	0.068286
54	0x3dd99683	0.10624411
55	0x3df468d9	0.119340606
56	0x3eb91fb5	0.36157003
57	0x3d94c434	0.07263985
58	0xbe971a86	-0.29512423
59	0xbe8436cb	-0.25823054
60	0x3d096993	0.03354795
61	0xbe487455	-0.19575627
62	0x3c8778b3	0.016537046
63	0xbe05f528	-0.13081801
64	0x3e0f9128	0.14020216
65	0xbdfcc31f	-0.12341904
66	0x3f10ea58	0.5660758
67	0x3f106099	0.56397396
68	0x3ec0e26c	0.37672746
69	0xbe92343a	-0.2855547
70	0x3ee02b03	0.43782815
71	0x3e8907f4	0.2676388
72	0x3e3104fc	0.17287058
73	0xbecf8c82	-0.40536886
74	0x3d7dccfe	0.061963074
75	0x3f0c080d	0.54699785
76	0xbe9d9692	-0.3077894
77	0xbeadedc5	-0.33970466
78	0xbe05183c	-0.12997526
79	0x3f009da6	0.5024055
80	0x3f025cf0	0.5092306
81	0x3f0df050	0.5544481
82	0xbd73c45c	-0.059513435
83	0x3f1d117a	0.6135479
84	0xbd6f2874	-0.05838819
85	0xbd5d5eca	-0.054045476
86	0xbd267ca5	-0.040646214
87	0xbedc8e5b	-0.4307736
88	0x3ef8f51c	0.48624504
89	0x3edd9b8d	0.43282738
90	0x3ea5f94d	0.32416764
91	0x3e822b64	0.2542373
92	0x3ea7777f	0.32708356
93	0x3e68bad8	0.22727525
94	0xbe1f500c	-0.15557879
95	0x3df56b57	0.11983364
96	0xbe94f36e	-0.29091972
97	0xbe1020b7	-0.1407498
98	0x3e7d34cf	0.24727176
99	0x3ef47446	0.4774496
100	0x3d8edf02	0.06976129
101	0xbeeb7b66	-0.45992583
102	0xbdd4f370	-0.103979945
103	0x3f00d9a1	0.50332075
104	0xbea93430	-0.33047628
105	0x3ea5d1f3	0.3238674
106	0x3dd862a0	0.10565686
107	0x3f24c866	0.64368284
108	0x3e2b0b9e	0.1670365
109	0xbecd2488	-0.40066934
110	0x3ee8a9b1	0.45441964
111	0x3dde0e22	0.10842539
112	0xbdedb830	-0.116073966
113	0x3e858ee0	0.26085567
114	0x3dbd9912	0.092577115
115	0x3de55793	0.11198344
116	0xbf185daa	-0.5951792
117	0xbea382e9	-0.31935814
118	0x3de711e4	0.11282709
119	0xbea7c1e7	-0.32765123
120	0x3c1c894d	0.009554219
121	0x3e212872	0.15738085
122	0x3e34a99f	0.1764283
123	0x3e425f0c	0.1898157
124	0xbddaa4dd	-0.106759764
125	0xbe4f782c	-0.20260686
126	0x3eb5cf60	0.35509777
127	0x39f827f0	0.00047332002

VAE_Decoder.layers.1.linear1.weight f4 [4, 128]
0	0x3e535263	0.20636897
1	0x3cd6434e	0.02615514
2	0xbc5cfe44	-0.013488356
3	0xbbc3bd30	-0.0059734806
4	0xbdc9ad53	-0.09847512
5	0xbd85f131	-0.06540144
6	0xbe2d0867	-0.16897736
7	0xbd0c6825	-0.034279007
8	0x3c907ea3	0.01763851
9	0x3ddc758b	0.10764607
10	0xbdf93e8c	-0.12170133
11	0x3d0fe0d1	0.03512651
12	0x3ae6ef67	0.0017618955
13	0xbbfbbf25	-0.0076826983
14	0xbe0baf12	-0.13641003
15	0xbc0ef28c	-0.00872482
16	0x3e02d308	0.12775815
17	0xbd19f490	-0.03758675
18	0xbcb87019	-0.02251439
19	0xbda8fea2	-0.08251692
20	0xbd8877d8	-0.066634834
21	0x3caa3380	0.02077651
22	0xbd9939c3	-0.0748172
23	0xbdc9ade4	-0.0984762
24	0xbda1c671	-0.07899178
25	0xbe1fe6f5	-0.15615447
26	0xbdfce0e1	-0.1234758
27	0xbe52c202	-0.2058182
28	0xbda8b48c	-0.082375616
29	0xbb5a6beb	-0.0033328484
30	0xbe55da3e	-0.20884034
31	0xbcddc247	-0.027070178
32	0xbcadb138	-0.021202669
33	0xbe648467	-0.22316132
34	0xbe0af3f3	-0.13569622
35	0xbda3c8e3	-0.079973005
36	0x3dbf299e	0.0933411
37	0xbe2115fb	-0.15731041
38	0xbdc2a276	-0.09503643
39	0xbd0d66d2	-0.034521885
40	0x3e1c677e	0.15273854
41	0xbe54ebbf	-0.20793055
42	0xbdbbede4	-0.091762334
43	0xbeaf37dc	-0.34222305
44	0x3e5233fe	0.20527646
45	0x4000f718	2.0150814
46	0xbd4b1f9e	-0.0495907
47	0x3ac5a113	0.0015077911
48	0xbd18a09e	-0.03726255
49	0x3d3c2d4a	0.04594163
50	0xbe8b75a1	-0.2723818
51	0xbe1e6a6c	-0.15470284
52	0xbdd37656	-0.10325305
53	0xbd915dac	-0.070979446
54	0x3cdde40f	0.027086286
55	0x3d8df908	0.069322646
56	0x3df537cc	0.11973533
57	0x3d959cff	0.07305335
58	0x3cd7faf1	0.026364775
59	0xbd620549	-0.05518082
60	0x3e0e726b	0.13910834
61	0xbdd3d909	-0.103441305
62	0xbe00a601	-0.12563325
63	0x3d13f913	0.036126208
64	0xbd47480a	-0.048652686
65	0xbd999934	-0.07499924
66	0xbe1b1bcf	-0.15147327
67	0xbdee6421	-0.11640192
68	0x3d49e7db	0.04929338
69	0x3e355834	0.17709428
70	0xbdfb2f69	-0.12264902
71	0xbd077602	-0.033071525
72	0xbe38d8f4	-0.18051511
73	0xbeb5a158	-0.35474658
74	0x3d609fc7	0.054839876
75	0xbdd56c80	-0.10421085
76	0xbd015011	-0.031570498
77	0x3f012c2e	0.5045804
78	0x3c8a5c64	0.016889758
79	0xbd73a2e4	-0.059481516
80	0xbd954de0	-0.07290244
81	0xbd48ec60	-0.04905355
82	0xbf3c61c0	-0.73586655
83	0x3d645105	0.05574133
84	0x3ede9bed	0.43478337
85	0x3dddf310	0.10837376
86	0xbbe35a9d	-0.006938292
87	0x3e14a817	0.14517246
88	0x3d6657e8	0.056236178
89	0x3d31b7cf	0.043388184
90	0x3db1219e	0.0864899
91	0xbd0b381b	-0.033989053
92	0xbe1997dd	-0.14999337
93	0xbcea27ab	-0.028583368
94	0x3e73020b	0.23731248
95	0x3cb36bfb	0.021902075
96	0x3ea91067	0.33020326
97	0x3e2a3e55	0.1662534
98	0xbda7c6ac	-0.081921905
99	0xbe31b70b	-0.17354982
100	0xbdedce54	-0.116116196
101	0x3e067c50	0.13133359
102	0x3dce7d59	0.10082502
103	0xbe022695	-0.1271003
104	0x3ddea86d	0.108719684
105	0x3c88e9dd	0.016713077
106	0x3c0e91f0	0.008701786
107	0x3d92b312	0.07163061
108	0x3c07100d	0.008243573
109	0xbd874078	-0.06604093
110	0xbdb13d7b	-0.086543046
111	0xbe404591	-0.18776537
112	0xbd09a51c	-0.033604726
113	0xbd4db690	-0.050222933
114	0x3d796b58	0.060893387
115	0x3a39deda	0.00070903974
116	0x3dbe7b86	0.09300904
117	0x3adaa602	0.0016681554
118	0xbda4a167	-0.080385976
119	0x3df9f98c	0.122058004
120	0xbe621de2	-0.22081712
121	0xbd8900c0	-0.06689596
122	0xbdaf36c8	-0.085553706
123	0xbd9b7f63	-0.075926565
124	0xbd8ba1c3	-0.06817963
125	0xbcf61bfe	-0.030042645
126	0xbdc0d8bb	-0.09416338
127	0xbca7f5fd	-0.020503039
128	0x3d35884a	0.04431943
129	0xbe1f1b1a	-0.15537682
130	0xbccb284a	-0.024799485
131	0x3e0c1e45	0.13683422
132	0x3e1cc75d	0.15310426
133	0x3e02ed55	0.12785847
134	0xbe24aac0	-0.16080761
135	0xbe04d0a0	-0.12970209
136	0xbe17a130	-0.14807582
137	0x3d48821b	0.048952203
138	0xbde90018	-0.11376971
139	0x3e05db6c	0.13071984
140	0x3c50a05a	0.012733543
141	0x3dbbaf60	0.091643095
142	0xbd359103	-0.044327747
143	0xbea1de92	-0.3161512
144	0xbd88b6f0	-0.066755176
145	0x3dbf013b	0.093264066
146	0x3e45602d	0.1927497
147	0xbe319253	-0.17340975
148	0xbe7dabee	-0.24772617
149	0x3e5ed5ad	0.21761198
150	0x3e2ce0bf	0.16882609
151	0xbd35b337	-0.044360366
152	0xbde312e3	-0.11087587
153	0xbe10138b	-0.14069955
154	0xbdcd1846	-0.100143954
155	0x3d712e24	0.058881894
156	0xbe2e20b4	-0.17004663
157	0x3d4f2eb7	0.05058166
158	0x3d874768	0.066054165
159	0xbe12cec0	-0.14336681
160	0x3ccebb21	0.025235714
161	0xbd9eb42a	-0.07749207
162	0x3dde9e12	0.10869993
163	0x3e853ffb	0.26025376
164	0xbe0db4c2	-0.13838485
165	0x3d8f8d46	0.07009368
166	0xbe2fc4d5	-0.17164929
167	0xbcef85b1	-0.029238554
168	0xbe4facbb	-0.20280735
169	0x3e516de4	0.20452076
170	0x3d9e4369	0.07727701
171	0xbed26cb4	-0.4109856
172	0x3a80a3eb	0.0009814476
173	0x3ea8bb8b	0.32955584
174	0x3e199fb9	0.15002336
175	0xbbc382ae	-0.005966506
176	0x3d1c386a	0.03813974
177	0x3e6ed5cb	0.23323743
178	0xbe35fd2c	-0.17772359
179	0x3e82a6fb	0.2551802
180	0x3e8b8017	0.27246162
181	0x3db7cb79	0.08974356
182	0xbe207753	-0.15670519
183	0x3db7bc37	0.08971446
184	0x3ddb23c8	0.10700184
185	0x3d8f5584	0.06998733
186	0xbe4cc25d	-0.19996019
187	0xbe157814	-0.14596587
188	0xbe2763a0	-0.16346598
189	0x3cf0858c	0.029360555
190	0xbdcef354	-0.10105005
191	0x3d0448a8	0.032295853
192	0x3e1a293e	0.15054795
193	0xbe607111	-0.21918131
194	0x3c9e1302	0.019296173
195	0xbe79d165	-0.24396284
196	0x3e1b3cdf	0.15159939
197	0x3decf944	0.11570981
198	0xbd713216	-0.058885656
199	0xbe376078	-0.17907894
200	0xbdd7d39b	-0.105384074
201	0xbda8ed99	-0.08248443
202	0x3e1c2c96	0.15251383
203	0x3e594942	0.21219352
204	0xbda1148a	-0.07865246
205	0x3cb6d917	0.022320313
206	0xbe49ab64	-0.19694287
207	0xbcf595cb	-0.029978653
208	0xbd934448	-0.07190758
209	0xbe0f7dc6	-0.14012823
210	0x3f02ce41	0.5109597
211	0x3e8cdb74	0.2751118
212	0xbe87d560	-0.2652998
213	0x3e25de29	0.16198029
214	0xbddadae2	-0.1068628
215	0x3f139c0f	0.5766
216	0xbe720f3f	-0.23638628
217	0x3e928478	0.2861669
218	0xbe76e175	-0.24109443
219	0xbe12e073	-0.14343433
220	0x3dd0dec2	0.10198738
221	0x3e946dd0	0.2899003
222	0x3ddc218c	0.10748586
223	0x3cdd52b9	0.027016984
224	0x3d159035	0.03651448
225	0x3df505af	0.11963975
226	0xbd8fb9f7	-0.07017892
227	0xbd881394	-0.06644359
228	0x3d5569f9	0.052103017
229	0x3d818fa4	0.063262254
230	0xbe85bd5e	-0.26121038
231	0xbdbab3c3	-0.09116318
232	0xbf06e1bb	-0.5268819
233	0x3e8dea48	0.27717805
234	0x3e2dddb4	0.16979104
235	0xbe45d24b	-0.19318502
236	0x3cbbd1f8	0.02292727
237	0x3e268933	0.16263275
238	0xbd73b5f4	-0.059499696
239	0x3e7925be	0.24330804
240	0x3e22dfb3	0.15905647
241	0x3e8e8c1b	0.27841267
242	0xbd77f1a3	-0.060533177
243	0x3de7f13a	0.11325307
244	0xbd6a73de	-0.057239406
245	0xbd81b0a1	-0.063325174
246	0x3d4956aa	0.049154915
247	0xbe5a80a4	-0.21338135
248	0x3db18003	0.086669944
249	0xbe5084cf	-0.20363162
250	0xbd7b96fe	-0.061423294
251	0x3d592a9a	0.053019144
252	0x3e069870	0.13144088
253	0xbc9015e3	-0.017588561
254	0x3d256ced	0.040387083
255	0xbd9ca45f	-0.07648539

VAE_Decoder.layers.1.linear1.bias f4 [4]
0	0xbd2909e3	-0.041269194
1	0xbd9d2cdf	-0.07674574
2	0xbd5fcd62	-0.054639228
3	0xbd878ebf	-0.066190235

VAE_Decoder.layers.1.norm1.weight f4 [4]
0	0x3fc2e873	1.5227188
1	0x3faffeca	1.374963
2	0x3fba16f5	1.4538256
3	0x3fb1de6f	1.3896006

VAE_Decoder.layers.1.norm1.bias f4 [4]
0	0xbd5a198b	-0.053247016
1	0xbd417e77	-0.047239747
2	0xbcf88bf9	-0.030340182
3	0x3e3ecce0	0.18632841

VAE_Decoder.layers.1.norm0.weight f4 [4]
0	0x3f82064f	1.0158175
1	0x3f3c9df3	0.7367851
2	0x3f9958d4	1.1980233
3	0x3f589f50	0.8461809

VAE_Decoder.layers.1.norm0.bias f4 [4]
0	0xbc6e9583	-0.014562014
1	0x3c7f345a	0.015576446
2	0x3cb8b513	0.02254728
3	0x3cf489ec	0.029850923

VAE_Decoder.last_normalization.weight f4 [4]
0	0x3f800000	1.0
1	0x3f800000	1.0
2	0x3f800000	1.0
3	0x3f800000	1.0

VAE_Decoder.last_normalization.bias f4 [4]
0	0x00000000	0.0
1	0x00000000	0.0
2	0x00000000	0.0
3	0x00000000	0.0

VAE_Decoder.head.weight f4 [4, 4]
0	0xbe61d2a0	-0.22053003
1	0x3daf5270	0.085606456
2	0x3e96beac	0.29442346
3	0xbec8365c	-0.39103973
4	0x3de07090	0.109589696
5	0xbef85d18	-0.48508525
6	0xbea6c302	-0.32570654
7	0x3e83fb1a	0.25777513
8	0x3e239d64	0.15978009
9	0x3e5ab0b8	0.21356475
10	0x3eadf328	0.33974576
11	0xbe909dc2	-0.2824536
12	0x3e306904	0.1722756
13	0xbb34ce00	-0.0027588606
14	0xbd7a6b70	-0.061137617
15	0xbee429a6	-0.44563025

VAE_Decoder.head.bias f4 [4]
0	0xbe98efb6	-0.29870385
1	0x3ef56d12	0.47934777
2	0x3e68c430	0.2273109
3	0x3e97e24e	0.29664844

Detokenizer.weight f4 [14, 4]
0	0x3e13bb6f	0.14426969
1	0xbe3d29b6	-0.18472943
2	0x3e04181f	0.12899826
3	0xbe34cd1a	-0.17656365
4	0xbc95d370	-0.018289298
5	0x3ddadedb	0.106870376
6	0xbe30d56a	-0.17268911
7	0x3e4c3016	0.19940218
8	0xbde5978d	-0.11210547
9	0x3db63b99	0.08898086
10	0xbdf17a03	-0.1179085
11	0x3eafa465	0.3430511
12	0x3e211ae4	0.15732914
13	0xbde47192	-0.11154474
14	0xbe6a3cc7	-0.22874747
15	0xbdc3c23a	-0.0955853
16	0xbdf603fe	-0.1201248
17	0x3e4d5e54	0.20055515
18	0x3d8702c8	0.06592327
19	0x3bf4eeaa	0.00747474
20	0x3d9d0112	0.0766622
21	0xbe0c7498	-0.13716352
22	0x3e12fe54	0.14354831
23	0xbdba0b33	-0.09084167
24	0x3dae63dd	0.08515141
25	0xbe1c2971	-0.15250184
26	0xbac2028b	-0.0014801783
27	0xbed61bdc	-0.4181813
28	0x3c9d22c9	0.019181626
29	0xbe29dac0	-0.16587353
30	0x3dc09fc2	0.094054714
31	0xbe5e8ab9	-0.21732606
32	0x3dd5b11d	0.10434172
33	0xbc907033	-0.017631626
34	0x3c4b7bc7	0.012419648
35	0x3e4a70c1	0.19769575
36	0x3e503f05	0.2033654
37	0xbd8076cc	-0.06272659
38	0x3e38d552	0.18050125
39	0x3d08848c	0.03332953
40	0x3ebabfd9	0.36474493
41	0xbeb6ab46	-0.35677546
42	0xbe7f1030	-0.24908519
43	0xbebefd5b	-0.3730267
44	0x3e4b30cc	0.19842833
45	0xbe3e9b16	-0.18613848
46	0xbd08a942	-0.03336454
47	0xbc938495	-0.018007556
48	0xbd9cd657	-0.076580696
49	0x3ce43e0b	0.027861616
50	0x3e20cf14	0.15703994
51	0xbde1519d	-0.110018946
52	0x3dd177f7	0.102279596
53	0x3ca2fe5f	0.019896684
54	0xbea9502f	-0.33068988
55	0xbdd3e468	-0.103462994

Detokenizer.cat_recons.0.weight f4 [2, 4]
0	0xbe669176	-0.22516426
1	0xbf46a255	-0.7759145
2	0x3e76e322	0.24110082
3	0x3e792d71	0.24333741
4	0xbf131604	-0.5745547
5	0x3f3b7cb5	0.7323716
6	0xbcd126c8	-0.025531188
7	0x3d0f73f9	0.03502271

Detokenizer.cat_recons.0.bias f4 [2]
0	0x3eb3e7ef	0.3513789
1	0x3f07429e	0.52836025

Detokenizer.cat_recons.1.weight f4 [7, 4]
0	0x3f1cb280	0.6120987
1	0xbf01b12c	-0.5066097
2	0xbe096791	-0.13418414
3	0xbe50311b	-0.20331232
4	0x3e07d568	0.13265002
5	0xbe7f3f18	-0.24926412
6	0x3efe43ea	0.4966119
7	0xbeb3614d	-0.35035172
8	0xbe8b64a1	-0.2722521
9	0x3e84ac13	0.25912532
10	0xbe112592	-0.14174488
11	0xbf1ecae6	-0.6202835
12	0x3d784347	0.060611036
13	0xbd45ffb9	-0.04833958
14	0xbf3a579b	-0.72789925
15	0x3d12d3d6	0.035846554
16	0x3f113248	0.5671735
17	0x3ed8c729	0.42339447
18	0xbe9bb251	-0.30409482
19	0xbe0d8c8f	-0.1382315
20	0x3f84f8f8	1.0388479
21	0xbe1547ec	-0.14578217
22	0xbe597d4c	-0.21239203
23	0x3d8eb22e	0.06967579
24	0x3c5208a0	0.012819439
25	0xbe9df6bd	-0.3085231
26	0xbdc32597	-0.09528654
27	0x3d3b94b8	0.045796126

Detokenizer.cat_recons.1.bias f4 [7]
0	0xbe1aa848	-0.15103257
1	0x3e959462	0.2921477
2	0xbd480063	-0.048828494
3	0x3edcbca4	0.4311267
4	0xbd332d2f	-0.043744262
5	0xbe956e02	-0.29185492
6	0x3d0ea31a	0.034823515

Detokenizer.cat_recons.2.weight f4 [4, 4]
0	0xbe1d5b2a	-0.15366808
1	0x3e309e15	0.17247804
2	0x3f22fa25	0.6366294
3	0x3e818bf3	0.25302085
4	0xbe9aa6a9	-0.30205277
5	0xbe97a899	-0.29620817
6	0xbe60f22a	-0.21967378
7	0x3c356edd	0.011073795
8	0xbe9606bb	-0.2930201
9	0x3eac5108	0.33655572
10	0x3d531d9f	0.05154192
11	0xbf344cab	-0.70429486
12	0x3f1e4dfc	0.61837745
13	0x3d53bf11	0.051695887
14	0xbd2324f3	-0.03983016
15	0x3ec878d5	0.39154688

Detokenizer.cat_recons.2.bias f4 [4]
0	0xbeda507f	-0.4263954
1	0x3f09c449	0.5381513
2	0xbe822f97	-0.25426933
3	0xbefd060a	-0.4941867

Detokenizer.cat_recons.3.weight f4 [11, 4]
0	0xbed2096e	-0.4102282
1	0x3eb37d2c	0.35056436
2	0x3f3012d4	0.6877873
3	0xbe5b37eb	-0.2140805
4	0xbe32cf4e	-0.17461893
5	0x3eeba29e	0.46022505
6	0xbf148449	-0.5801435
7	0xbe9517bd	-0.29119673
8	0xbf03efd5	-0.5153783
9	0xbf1a1fe4	-0.6020491
10	0x3b1a7e81	0.0023573937
11	0xbed47775	-0.41497388
12	0xbecae0ce	-0.39624637
13	0x3f169219	0.5881668
14	0xbd82c6cb	-0.06385573
15	0xbf51331e	-0.81718624
16	0x3e7b961c	0.24568981
17	0xbe199a46	-0.15000257
18	0x3f1b83f4	0.6074822
19	0x3f24a362	0.643118
20	0xbae35491	-0.0017343928
21	0xbe895009	-0.26818874
22	0xbec76d78	-0.38950706
23	0x3d8d3b4f	0.06896078
24	0x3f45caa9	0.7726236
25	0xbe404a28	-0.18778288
26	0x3f186997	0.5953612
27	0xbf090e9d	-0.53537923
28	0x3e3c1886	0.1836873
29	0xbef73f5f	-0.48290536
30	0x3f20cfd1	0.628171
31	0xbed197b1	-0.40936044
32	0x3ef911d7	0.48646423
33	0x3ed22322	0.4104243
34	0x3f2b294e	0.668599
35	0x3eb0da7c	0.3454169
36	0x3e7a15dd	0.24422403
37	0x3eb7529b	0.3580521
38	0xbdfd4bba	-0.12367959
39	0x3eb80dbd	0.3594798
40	0x3f148930	0.5802183
41	0x3e36c2b5	0.17847712
42	0xbe131973	-0.14365177
43	0xbeb8e341	-0.3611088

Detokenizer.cat_recons.3.bias f4 [11]
0	0x3e483972	0.19553164
1	0xbe9c376b	-0.3051103
2	0x3e73fc66	0.23826751
3	0xbdf2468d	-0.11829863
4	0x3cb27c47	0.021787776
5	0x3e27a145	0.16370113
6	0x3e21976f	0.15780424
7	0x3d847780	0.06468105
8	0x3eb3ea15	0.35139528
9	0xbefb706e	-0.49109215
10	0x3e4beb7e	0.19914052

Detokenizer.cat_recons.4.weight f4 [11, 4]
0	0xbddf1344	-0.108923465
1	0x3ec08a61	0.37605575
2	0xbefe293d	-0.49640837
3	0x3f3a0afd	0.72673017
4	0x3ce968b2	0.028492305
5	0xbe6e7f22	-0.23290685
6	0x3e9fb037	0.3118913
7	0xbf173fb8	-0.590816
8	0xbf021e48	-0.50827456
9	0xbe328d07	-0.1743661
10	0x3d01373a	0.03154681
11	0x3f015cbe	0.5053214
12	0x3c87162a	0.01649006
13	0x3ed64261	0.41847518
14	0xbed869e2	-0.42268282
15	0xbeb0bf35	-0.3452088
16	0x3ecbe54d	0.3982338
17	0xbe2879fe	-0.16452786
18	0x3e0a283f	0.13491915
19	0x3ef77015	0.483277
20	0xbee7b6a6	-0.45256537
21	0xbdc33742	-0.09532024
22	0xbebd66f2	-0.36992604
23	0xbf0451dd	-0.51687413
24	0x3e596027	0.21228085
25	0x3f189248	0.5959821
26	0x3d84c03c	0.06481978
27	0xbf07165c	-0.5276849
28	0x3f200318	0.6250472
29	0x3e80e34f	0.25173423
30	0xbe435364	-0.1907478
31	0x3dafd7d7	0.0858609
32	0xbea23b89	-0.31686047
33	0x3f233d6a	0.63765585
34	0x3e8b0a07	0.27156088
35	0xbdf74476	-0.12073605
36	0x3ebdaeed	0.3704752
37	0x3f1a3403	0.60235614
38	0xbe5a9dba	-0.2134923
39	0xbe4a6a91	-0.19767214
40	0xbe9c7721	-0.30559638
41	0x3e6a230c	0.22864932
42	0x3e2cd4c0	0.16878033
43	0x3e837ba7	0.25680277

Detokenizer.cat_recons.4.bias f4 [11]
0	0x3e001de5	0.12511404
1	0x3e384ed4	0.1799882
2	0xbc96531f	-0.018350182
3	0xbddd34a7	-0.10801058
4	0x3eecf6c3	0.46282014
5	0xbaa9754d	-0.0012928635
6	0x3ca5e9af	0.02025303
7	0xbf05075e	-0.51964366
8	0x3e21f6ff	0.15816878
9	0x3e10c634	0.14138108
10	0xbea06208	-0.31324792

Detokenizer.cat_recons.5.weight f4 [11, 4]
0	0x3f5de589	0.8667837
1	0xbf6bf5af	-0.9217176
2	0x3efadf34	0.48998415
3	0xbdd21964	-0.10258749
4	0x3b10ecb1	0.0022113735
5	0xbdcebe02	-0.10094835
6	0x3f5100c4	0.81641793
7	0x3d8616c7	0.06547313
8	0x3c1138fe	0.008863686
9	0xbf20da11	-0.6283274
10	0xbce47836	-0.027889352
11	0x3f143fbe	0.5790976
12	0x3e42d409	0.19026197
13	0xbd237966	-0.039910696
14	0xbe8c5a58	-0.27412677
15	0x3ee828e7	0.45343706
16	0x3e1e242f	0.1544349
17	0x3f107f66	0.56444395
18	0x3e04459d	0.1291718
19	0xbf040e86	-0.5158466
20	0xbf0a9417	-0.5413222
21	0xbeb685b1	-0.35648873
22	0xbef9bdcc	-0.48777616
23	0xbe38febc	-0.18065923
24	0x3dc4edf0	0.096156955
25	0xbe3b98b8	-0.18319976
26	0xbf2ec6dc	-0.68272185
27	0x3dfa22a5	0.12213639
28	0xbf1fead1	-0.62467676
29	0x3e67cb5b	0.22636168
30	0x3d910b72	0.07082261
31	0xbddc8717	-0.10767954
32	0x3e69f1ad	0.22846098
33	0xbe5a49a9	-0.21317162
34	0xbf0ccce6	-0.5500015
35	0xbf3ca952	-0.7369586
36	0x3eafc683	0.3433114
37	0x3ee7f68c	0.45305288
38	0xbc0cef7e	-0.008602021
39	0x3e60e91f	0.21963929
40	0x3e03cb6c	0.12870568
41	0x3ed815b1	0.4220405
42	0xbea3f950	-0.32026148
43	0x3d29ceeb	0.041457098

Detokenizer.cat_recons.5.bias f4 [11]
0	0x3da6622a	0.08124192
1	0x3e972f60	0.29528332
2	0x3d46f2c6	0.04857137
3	0x3eddd6e8	0.43328023
4	0xbeca5977	-0.3952138
5	0xbf3dbfb2	-0.7412063
6	0x3e55b888	0.20871174
7	0xbe53591e	-0.20639464
8	0x3eb35ac5	0.3503019
9	0xbe4f4e24	-0.20244652
10	0xbeebed03	-0.46079263

Detokenizer.cat_recons.6.weight f4 [11, 4]
0	0x3f04e39d	0.5190981
1	0xbe9342f3	-0.28762016
2	0x3d3878bc	0.045037016
3	0x3e946c55	0.289889
4	0xbf2fdb48	-0.6869397
5	0xbe87b8bf	-0.26508138
6	0x3e90f0d6	0.28308743
7	0x3eaafcbd	0.3339595
8	0xbe7930e3	-0.24335055
9	0x3eb11333	0.3458496
10	0xbf52b506	-0.8230747
11	0x3e826aeb	0.25472197
12	0xbee5c189	-0.44874218
13	0x3ea8b999	0.329541
14	0x3e5ef65e	0.21773669
15	0xbe116aba	-0.14200869
16	0xbda672bf	-0.08127355
17	0xbeb03f2a	-0.3442319
18	0xbef8eab6	-0.4861657
19	0x3f2e5808	0.68103075
20	0xbe4c4d42	-0.19951347
21	0x3e9337e9	0.28753594
22	0xbe880963	-0.26569661
23	0xbf09e69f	-0.53867525
24	0xbf8a4cfb	-1.0804743
25	0x3e5a3f94	0.21313316
26	0xbeb3daca	-0.3512786
27	0x3f095bdc	0.5365579
28	0x3e828e2e	0.254991
29	0x3e89fc73	0.26950416
30	0xbe8a012b	-0.26954016
31	0x3da895f0	0.08231723
32	0x3e00994d	0.1255848
33	0xbec4d674	-0.38444865
34	0x3da1119a	0.07864685
35	0xbf0c7e24	-0.54879975
36	0xbf1de788	-0.61681414
37	0xbdf7b44c	-0.12094936
38	0xbedeb23e	-0.43495363
39	0xbf261a78	-0.6488414
40	0xbcd741b2	-0.026276443
41	0x3e98d874	0.2985264
42	0x3e6c44f7	0.23073183
43	0xbe056fc1	-0.13030912

Detokenizer.cat_recons.6.bias f4 [11]
0	0xbe85e372	-0.2615009
1	0x3e8d32e2	0.27577883
2	0xbe733a6e	-0.23752758
3	0xbd73066d	-0.0593323
4	0x3e08dca5	0.13365419
5	0xbea65d25	-0.3249294
6	0xbe8e03f0	-0.2773738
7	0x3ed2b744	0.41155446
8	0x3dfbeabb	0.12300631
9	0x3e527361	0.20551826
10	0x3eb62130	0.35572195

Detokenizer.cat_recons.7.weight f4 [10, 4]
0	0xbeced724	-0.40398514
1	0x3e823fa0	0.25439167
2	0x3eef612a	0.46753818
3	0xbee304bc	-0.4433955
4	0x3e9e6f72	0.309444
5	0xbe46e542	-0.19423392
6	0xbf3c70c5	-0.7360957
7	0xbe82a5b6	-0.25517052
8	0x3e0e5eec	0.13903397
9	0xbe8c25b6	-0.2737252
10	0xbebf1103	-0.37317666
11	0x3eec7c75	0.46188703
12	0x3f60aae1	0.8776074
13	0xbe62aca7	-0.22136174
14	0x3f0f7588	0.56038713
15	0x3ec245f1	0.37943986
16	0xbb0f9b4e	-0.0021912637
17	0xbef34092	-0.475102
18	0x3f22815e	0.6347865
19	0x3d80afe4	0.062835485
20	0xbf33e66c	-0.7027347
21	0x3e0c6b93	0.13712911
22	0xbe71443a	-0.23561183
23	0xbd940de9	-0.07229216
24	0x3f285b70	0.6576452
25	0x3e4ed72c	0.20199269
26	0x3caca34d	0.021073962
27	0x3ec06d6a	0.37583476
28	0x3f0572d9	0.5212837
29	0x3ddd585a	0.10807867
30	0x3e957b02	0.2919541
31	0xbebed2ca	-0.37270194
32	0xbe1e1c42	-0.15440467
33	0x3f0b3ca8	0.5438943
34	0xbd7421bb	-0.05960248
35	0xbe268c5a	-0.16264477
36	0x3f1889f7	0.5958552
37	0xbc4bc049	-0.012435981
38	0x3e60eaf7	0.21964632
39	0xbeaef680	-0.3417244

Detokenizer.cat_recons.7.bias f4 [10]
0	0xbe9172ce	-0.28407902
1	0xbe2a1330	-0.16608882
2	0xbe7ea96c	-0.24869317
3	0x3e241526	0.16023692
4	0x3eba9e09	0.36448696
5	0xbe226572	-0.15859011
6	0xbec0f44d	-0.37686387
7	0xbe9fbbb9	-0.3119791
8	0xbf0849ea	-0.53237784
9	0x3f0ca46b	0.5493838

Detokenizer.cat_recons.8.weight f4 [10, 4]
0	0x3f160ba4	0.5861151
1	0xbe3bdb9c	-0.18345493
2	0xbed88d2c	-0.42295206
3	0x3edbe284	0.42946255
4	0x3e923c90	0.2856183
5	0xbd50eae9	-0.051005278
6	0x3f1c3dee	0.61032
7	0xbe47b7c5	-0.19503696
8	0xbeddbc80	-0.43307877
9	0xbe44bc74	-0.19212514
10	0xbf2c8213	-0.6738598
11	0x3e725353	0.23664598
12	0x3e963b64	0.29342186
13	0xbf0869cd	-0.5328644
14	0x3e945588	0.28971505
15	0x3e8786f0	0.26470137
16	0xbd8feeed	-0.07027993
17	0x3ef15597	0.47135612
18	0xbef45cfd	-0.47727194
19	0xbf14b1d8	-0.5808387
20	0x3f564d19	0.8371139
21	0xbe8dfed1	-0.27733472
22	0x3edc0fe3	0.4298087
23	0xbde2fceb	-0.110833965
24	0xbef0e7b5	-0.47051778
25	0x3dce8327	0.10083609
26	0xbc9c045c	-0.019045047
27	0x3d997687	0.074933104
28	0x3f14c643	0.58115023
29	0x3eb3222b	0.34987006
30	0xbe6bdc68	-0.23033297
31	0xbe8188ff	-0.25299832
32	0x3f40c6d2	0.75303376
33	0x3eddb178	0.4329946
34	0x3ed5a4a2	0.41727167
35	0x3edd6bf1	0.43246415
36	0xbe84c043	-0.25927934
37	0x3eef4626	0.46733207
38	0x3d98c927	0.07460242
39	0xbb8f997d	-0.004382311

Detokenizer.cat_recons.8.bias f4 [10]
0	0xbdd9ea6a	-0.10640414
1	0x3ebff586	0.37492007
2	0xbeaf13f7	-0.3419492
3	0xbed92a52	-0.424151
4	0x3e088c69	0.13334812
5	0x3d60b834	0.05486317
6	0xbdb18fc5	-0.0867
7	0x3dbf37c6	0.0933681
8	0xbee00802	-0.4375611
9	0xbe08f076	-0.13372979
