tabsyn/vae/ckpt/default/decoder.pt (torch, 27971 bytes, 49 tensors)

VAE_Decoder.layers.0.attention.W_q.weight f4 [4, 4]
000000 32 30 48 3f ea dc 4d 3a 8e 14 ca be 38 46 b6 be
       0.7819854 0.0007853048 -0.39468807 -0.35600448
000010 e7 aa 88 bd 9b f1 13 bf bd 3b b3 3d e8 f9 a9 3c
       -0.06673222 -0.57790536 0.087516285 0.020749047
000020 72 9c 9a bb 80 d6 5f 3e 75 c3 6f bd 34 a4 8c 3e
       -0.0047183568 0.21859169 -0.05853601 0.27469027
000030 15 d3 ed be 4d 45 1c bf 3a 16 1b bf 99 65 7a be
       -0.46450105 -0.61043245 -0.6058079 -0.24452819

VAE_Decoder.layers.0.attention.W_q.bias f4 [4]
000000 6d ae e0 3d ff 4a 64 3d ba 7d 29 bd c0 1d 7a 3d
       0.10970769 0.055735584 -0.041379668 0.061063528

VAE_Decoder.layers.0.attention.W_k.weight f4 [4, 4]
000000 ac 49 b6 3d 78 7d 0c bf 10 5f 61 3e 2c d4 f6 be
       0.089007705 -0.5487895 0.2200892 -0.4820875
000010 ad 46 d0 3d 77 e8 dd be 93 0f 6f 3d f2 7f 11 3f
       0.1016973 -0.4334142 0.058364462 0.56835854
000020 1c 73 f9 3c fd 1f 3b 3e a0 4a 03 bf 85 b1 b1 be
       0.030450396 0.18273921 -0.51285744 -0.3470575
000030 6d 2e f8 3e 4b 9d ab be 4b 24 1b be 9f 9b ce 3e
       0.4847292 -0.33518443 -0.15150563 0.40353104

VAE_Decoder.layers.0.attention.W_k.bias f4 [4]
000000 6b 7f af ba df 4c 09 3b 3b 8b 97 ba 30 63 1e 3b
       -0.0013389414 0.002095036 -0.001156188 0.0024168007

VAE_Decoder.layers.0.attention.W_v.weight f4 [4, 4]
000000 cb 0f 92 3d 23 4a 0c 3f 5c 5c e4 3d 2d 12 10 be
       0.071319185 0.54800624 0.11150429 -0.14069434
000010 0a 77 05 bf bd 18 fe be fe d4 14 3f c6 45 16 3e
       -0.52134764 -0.4962825 0.581375 0.14675054
000020 d7 6f 36 3e ea 29 4d 3e bd 2a 28 bf 88 40 c1 3d
       0.17816101 0.2003552 -0.65690213 0.094361365
000030 d4 1e f0 be 1e c1 1b 3f a8 fe c3 bd ca ec 93 3e
       -0.4689852 0.6084155 -0.09570056 0.28891593

VAE_Decoder.layers.0.attention.W_v.bias f4 [4]
000000 3f e2 2d 3d c2 d8 6f ba 35 85 d9 3d 95 d7 80 bd
       0.042452093 -0.0009149426 0.1062111 -0.06291119

VAE_Decoder.layers.0.linear0.weight f4 [128, 4]
000000 5b e4 8e 3e 73 31 d2 3e ee 45 d8 be a9 31 de be
       0.27908596 0.41053352 -0.42240852 -0.43397263
000010 b0 a5 bb be 6c 29 df 3e 73 59 7a 3d 07 f8 58 3e
       -0.36649847 0.4358629 0.06112046 0.21188365
000020 bd 60 09 bf 6d 9b 6a 3e 47 37 4a 3e 74 22 87 3d
       -0.53663236 0.22910853 0.19747649 0.06598368
000030 b7 fc 16 3d 12 69 d5 be ec e9 d0 3d 06 5e 9a be
       0.0368621 -0.41681725 0.10200867 -0.3014986
000040 21 40 85 3e ba 79 4b bd 18 4c 86 be 2f 1b ea 3e
       0.2602549 -0.049676634 -0.2622993 0.45723864
000050 a9 22 fc be fa 07 0a 3f 20 65 f9 bd 78 b3 c2 be
       -0.49245194 0.5391842 -0.12177491 -0.3802755
000060 6d 35 0c bf de 09 0d bf 96 39 d4 3e c9 7f a8 3e
       -0.5476902 -0.5509318 0.41450185 0.32909992
000070 da cb 14 be 17 66 fe be e7 93 1b 3f a5 1d b6 bd
       -0.14530888 -0.49687263 0.60772556 -0.08892373
000080 7a 69 62 be 64 e7 fd 3d a9 17 20 3f ad e4 d3 be
       -0.22110549 0.1239765 0.625361 -0.41385403
000090 71 c2 ad be 58 c8 f6 be 09 10 02 3f b4 f7 9e be
       -0.3393741 -0.48199725 0.5080572 -0.31048357
0000a0 ff 95 0a 3f e3 a7 c9 bc c8 6c 3f 3e 86 4f ee 3e
       0.54135126 -0.024616187 0.1869384 0.46545047
0000b0 a3 70 cf be af 38 df be 31 bc 41 3e 76 f1 03 3f
       -0.40515622 -0.43597934 0.18919446 0.51540315
0000c0 31 9f 78 3d 3d 6c fc be 18 34 ae 3e 2f 66 10 3f
       0.06069869 -0.4930133 0.3402412 0.5640592
0000d0 3c 5b 51 be 9b 1e 41 bc 90 5d 54 3e 3e f7 04 bf
       -0.2044496 -0.011787082 0.20738816 -0.5193976
0000e0 ee d7 9f 3e 90 e1 cd 3d 3c c2 9a 3e f4 54 d4 be
       0.3121943 0.10052788 0.30226314 -0.41471064
0000f0 60 9d b6 be f0 36 79 3e 36 91 86 be d6 f1 df be
       -0.35666943 0.24337363 -0.26282662 -0.43739194
000100 14 de 07 3e 3c 4f 36 3e 80 3f 8a 3b f0 51 a0 3d
       0.1326831 0.17803663 0.0042189956 0.07828128
000110 99 31 fa 3e b7 de 99 be 70 cf 0f bf 0c a0 46 be
       0.48865965 -0.3005273 -0.561759 -0.1939699
000120 20 8f 07 3f 5e 13 80 3e 89 c1 41 3e e1 a4 62 3e
       0.52952766 0.25014776 0.18921484 0.22133209
000130 6a a1 4a be f7 cd 22 bf 08 4b 0d bd 9d f6 2d 3d
       -0.19788137 -0.6359553 -0.034495384 0.042471517
000140 b0 0d 09 3e 9f dc 92 bc 4e fd 90 be c0 fe 8c 3e
       0.13384128 -0.017927466 -0.28318256 0.2753811
000150 1e 02 e7 3e b5 3d 83 bd 75 35 af be 43 6f b3 bd
       0.45118803 -0.06408254 -0.34220472 -0.08761456
000160 12 4e a4 3c 94 ec 21 3e 1b 91 a3 3d a2 f0 36 3e
       0.020056758 0.15812904 0.07986661 0.17865232
000170 59 af dc 3d 48 6d 0a 3f 92 80 de bd 95 cc 31 be
       0.107756324 0.54073 -0.108643666 -0.17363198
000180 b8 36 51 3e 94 4f a9 3e 17 3a f5 be 0c 3d a6 be
       0.2043103 0.33068526 -0.47895882 -0.3246845
000190 68 40 f2 be 08 b7 ce 3c dd 5e f5 3e cd f0 4f be
       -0.47314763 0.02523376 0.47923937 -0.20306702
0001a0 4d 02 6f 3e be b4 b7 be 75 5e f5 be 78 9f 05 3c
       0.23340721 -0.35880083 -0.47923627 0.008155696
0001b0 56 c3 17 bf b8 b7 da be 7b 06 2f bd 62 ad ed 3e
       -0.59282434 -0.4271829 -0.04273079 0.46421343
0001c0 90 8f eb be a7 eb ac 3e 3e e9 0c bf 33 bf ce 3e
       -0.46007967 0.33773538 -0.550434 0.40380248
0001d0 71 22 c1 be 84 99 71 be 04 10 c7 be be 2f 51 be
       -0.3772159 -0.23593718 -0.38879406 -0.20428368
0001e0 85 7c 25 bf e6 94 fb 3e e7 33 99 be c5 2d a8 3e
       -0.64643127 0.49137038 -0.2992241 0.3284742
0001f0 eb bb f6 bd 80 60 95 be 01 d0 9c be a4 3d 9c 3e
       -0.12047561 -0.29175186 -0.30627444 0.30515778
000200 22 31 ca 3c da 9a 70 bd 20 4e ca bd 02 03 db be
       0.024681631 -0.058741428 -0.098781824 -0.42775732
000210 34 7e c4 3e 0a fa 1f be 45 2d 03 3f 0a 59 1b 3e
       0.38377535 -0.15622726 0.5124095 0.15170684
000220 70 d1 b3 3e c3 04 80 be a4 4c 81 be c8 af cb 3d
       0.35120726 -0.25003633 -0.25253785 0.09945637
000230 91 44 da be a7 88 cf 3e 7f e1 68 3e 67 e5 0e 3e
       -0.42630437 0.40533945 0.2274227 0.13954698
000240 87 76 08 3f 14 ab 75 3d 2a 52 49 3e 41 a3 0d 3e
       0.5330586 0.059977606 0.1966025 0.13831808
000250 aa 44 ef be 6a ab 42 3d 07 7f ee 3e 3c fb 20 be
       -0.46732074 0.047526754 0.4658129 -0.15720838
000260 fa 38 c4 bd ee fc b5 be 37 9d fb 3d 06 ea 5e be
       -0.0958118 -0.35544533 0.12285846 -0.2176896
000270 95 a6 8c be 4b 39 c5 be 79 27 02 be 9d b8 ab be
       -0.27470842 -0.38520274 -0.1271037 -0.33539286
000280 71 f0 64 be b9 ef c9 3e 35 b0 87 be 2c 70 2f be
       -0.22357346 0.39440706 -0.26501623 -0.17132634
000290 af 00 cc 3e 48 dd b3 be 29 74 9a be 0c ef c5 3e
       0.39844272 -0.35129762 -0.30166748 0.3865894
0002a0 60 b2 64 be 55 a1 36 3e 63 c0 fa 3e f5 87 0a bf
       -0.2233367 0.17834981 0.48974904 -0.54113704
0002b0 94 c1 0a bf 93 8d 94 be c0 d0 f5 be 25 b4 ac 3e
       -0.54201627 -0.29014263 -0.48010826 0.3373119
0002c0 ec 9e 17 3d 02 60 68 be ac ec 69 3e 0a 02 53 3d
       0.037016794 -0.22692874 0.2284419 0.051515616
0002d0 d6 90 8b 3e c3 0d fc 3e a8 3a b6 3c 0e 7c e8 be
       0.2725894 0.4922925 0.022244766 -0.45407146
0002e0 bc e4 cf 3e 9d 04 8a be 9a eb 5e 3d e9 0b 2e be
       0.40604198 -0.26956645 0.054423906 -0.16996731
0002f0 30 c3 50 bd 69 09 9a be 27 7e 92 be 28 b6 40 3e
       -0.050967395 -0.30085304 -0.28611872 0.18819487
000300 78 da 09 be f4 2f 21 bf 87 83 ab 3e 9c bb 37 bd
       -0.13462245 -0.62963796 0.33498785 -0.044856653
000310 5a 52 c7 3e 7e 0f ce bc 21 60 27 bd f4 97 92 bc
       0.38930017 -0.025153872 -0.04086316 -0.017894723
000320 2d a3 55 be 3f 5a 3e bd 05 47 07 bf b5 23 84 3e
       -0.20863028 -0.046472784 -0.5284274 0.25808492
000330 e6 14 2f 3d 65 0b 19 be 4e c0 bd be de fc 92 be
       0.04274454 -0.14945753 -0.3706078 -0.28708547
000340 e6 79 33 bf 79 a7 12 be b6 4e 30 be ca 8b c0 be
       -0.7010788 -0.14321698 -0.17217526 -0.3760665
000350 59 a4 70 be 52 fe 2c 3d 65 6a 79 3d 2f 42 b1 3e
       -0.23500194 0.042234726 0.06089248 0.34620807
000360 7a 84 fe be 6a 10 85 3d d2 13 e0 3e 1e 8d e1 bd
       -0.49710447 0.06497271 0.43765122 -0.11013244
000370 18 b3 c7 bd e8 75 93 3e d9 d9 de 3e 14 66 e6 be
       -0.09750956 0.28800893 0.4352558 -0.44999754
000380 62 f6 f5 3e 91 bb 91 3e d5 bc 9c be b0 26 93 bd
       0.48039538 0.28463414 -0.30612817 -0.071851134
000390 91 82 69 be 0a 6d 12 3f 14 f3 a1 be 82 89 8c be
       -0.22803713 0.5719763 -0.31630766 -0.2744866
0003a0 68 e4 6f 3e e4 00 c0 be b9 fa c4 bd 90 40 a5 be
       0.23426974 -0.3750068 -0.09618134 -0.3227582
0003b0 8a 76 bc 3e 66 5d dd be 11 89 91 bd 72 c2 7d 3e
       0.36809188 -0.4323532 -0.071062215 0.24781206
0003c0 e1 5d cd be 8c 67 ff 3e 83 54 ca bd 5c 99 93 3e
       -0.40110686 0.49883687 -0.098794006 0.2882794
0003d0 8c d8 ef be 18 e1 2d 3d c0 b8 33 3e 05 f5 4d be
       -0.468449 0.042450994 0.17550945 -0.20112999
0003e0 00 86 0c 3f c3 c5 a0 be 7f 95 0a bf 9d d7 49 3e
       0.5489197 -0.3140088 -0.5413436 0.19711156
0003f0 d0 56 f3 be d9 06 0f bf e7 cf 2e 3f 2f 91 5a be
       -0.4752717 -0.55869824 0.68285984 -0.21344446

VAE_Decoder.layers.0.linear0.bias f4 [128]
000000 84 d4 87 be af df 99 be 4a dc 80 3e b7 d4 99 3e
       -0.26529324 -0.3005347 0.25168067 0.300451
000010 f4 42 6f 3e 86 9f 5d 3e 41 ca a1 be 29 c6 29 3f
       0.23365384 0.21642885 -0.3159962 0.66317993
000020 3f 80 39 3d 0d 5e 31 3e ce 4a dd be 59 68 f5 3c
       0.04528832 0.17321034 -0.43221134 0.029956983
000030 94 49 1a be 23 09 b4 3e 8c 93 b1 3e b4 d7 1a be
       -0.1506713 0.3516322 0.34682882 -0.15121347
000040 fc 00 e2 be 06 58 df 3e a2 13 1a bd ba b9 e6 bb
       -0.44141376 0.43621844 -0.03761638 -0.0070411833
000050 29 5a 2c 3c 87 02 03 3e 3e 54 e4 3e 3d 02 b2 be
       0.010519543 0.12793933 0.44595522 -0.34767333
000060 fe 9a 2b 3e 5a 17 c0 3e bc 28 cd bd 00 18 1e 3e
       0.16758344 0.37517816 -0.10017535 0.15438843
000070 5f 5a 31 be dd 47 c2 3e c8 f5 b4 3e f7 34 e1 3e
       -0.1731963 0.37945452 0.35343766 0.4398572
000080 eb d0 2b 3b 6d 37 59 be 54 a9 a4 3e ee a3 06 3e
       0.0026217054 -0.2121255 0.32160437 0.13148472
000090 bb 3d 13 3e f5 af ed 3e 00 50 b0 be 15 7a c4 be
       0.14379017 0.46423307 -0.34436035 -0.3837439
0000a0 68 dc 4c 3e ca d3 80 be e4 2f b3 be fe 26 63 3e
       0.20005953 -0.25161582 -0.34997475 0.22182843
0000b0 5a f8 3f 3e 40 f5 ff be d4 96 c6 3d 29 df b8 3e
       0.18747082 -0.49991798 0.09696737 0.36107758
0000c0 a0 e2 00 3f 27 00 57 be 77 27 90 bc 4d b0 aa 3e
       0.503458 -0.20996152 -0.017596943 0.33337632
0000d0 ec 3a 40 3d 8b 74 c4 be ff 3b 9c 3e 5a 05 dd be
       0.046931192 -0.38370165 0.30514523 -0.43168145
0000e0 b7 86 a4 be 0b e3 c5 bd 31 52 84 be 61 97 05 bc
       -0.3213403 -0.09662446 -0.25843957 -0.008153767
0000f0 ff e6 83 3e cd c8 a8 3d a8 7d 0f be 3a 46 a0 bd
       0.25762174 0.08241425 -0.14012778 -0.07825895
000100 c2 9d f5 bc f5 41 8c be 3b 75 29 be d5 86 95 be
       -0.029982451 -0.2739407 -0.16548626 -0.2920443
000110 05 c3 d2 be 39 ff 33 be 45 a8 0f be 8e 57 d0 3e
       -0.41164413 -0.17577828 -0.14029033 0.406918
000120 ec f0 f9 be 5a a1 c2 bc 3e af 0e be a4 58 e4 be
       -0.4881662 -0.023758579 -0.13934037 -0.44598877
000130 e8 8a b8 bd 04 01 e9 bd 65 f7 9f 3e db 2d c6 be
       -0.09010869 -0.11377147 0.31243435 -0.3870686
000140 6b 99 3a be a6 dc d1 3d 0f 91 c9 be 84 45 46 3e
       -0.18222587 0.102471635 -0.39368483 0.19362456
000150 90 65 92 be 65 6e 09 be cd 5d 8f be 5d df 43 be
       -0.2859311 -0.13421018 -0.28001252 -0.19128175
000160 d9 46 8e be d1 7b 9d be 83 0e 9a 3e d7 cd e3 3e
       -0.27788427 -0.30758527 0.30089197 0.4449298
000170 5a b5 cb be f6 6a d5 3e bd cd c2 3e c4 67 46 be
       -0.39786798 0.41683167 0.3804759 -0.19375521
000180 be 65 25 3e a8 d2 b0 be a0 e5 04 3e 5f 83 3d 3e
       0.16152093 -0.34535718 0.1297822 0.18507145
000190 06 48 dc 3e a8 19 c6 3d 9b 05 b3 3e 2b 3c bf 3e
       0.430237 0.09672862 0.34965214 0.37350592
0001a0 42 98 e3 3c df e2 b7 3e d7 64 e3 3e 4e 11 a9 3e
       0.027782563 0.35915276 0.44412872 0.33021015
0001b0 9d 00 18 3e ea 60 90 bc ad da 39 3e 9f d7 95 bd
       0.14843984 -0.017624337 0.18149824 -0.07316517
0001c0 43 e6 86 3e db 09 07 be 9e cd 14 bf aa 2b f4 be
       0.2634755 -0.13187353 -0.58126247 -0.47689563
0001d0 16 a9 ee be d1 63 f7 be 31 ae 91 be 3f c9 ba bd
       -0.46613377 -0.4831834 -0.2845321 -0.09120416
0001e0 be 2d 72 3e ab 95 d5 3e e1 08 02 3f 59 51 38 3e
       0.23650262 0.4171575 0.507948 0.17999782
0001f0 f1 00 3e bd d3 7d d3 be cc d5 0c 3f 25 df 8a 3e
       -0.046387617 -0.41306934 0.5501373 0.2712337

VAE_Decoder.layers.0.linear1.weight f4 [4, 128]
000000 37 d7 35 3c 76 b4 b3 3d b3 2d b3 3c 1f 54 02 bb
       0.0110986745 0.087746546 0.021872377 -0.0019886566
000010 1d 3c 33 bd 3f 48 11 be 2e 62 de 3c ae 9c ae 3d
       -0.0437585 -0.14187716 0.027146425 0.08525978
000020 c2 b5 50 3e eb 14 3e 3e ea 7e a4 bd 65 24 64 3c
       0.20381835 0.18562667 -0.080320194 0.013924693
000030 67 c1 9d 3d 8e 0b fc bc 0f d0 db bc b0 0d 26 bd
       0.07702904 -0.030767228 -0.026832609 -0.040540397
000040 4a 58 bb bc 0a 8d e3 bd 09 5c f5 3d 79 52 03 3e
       -0.022869248 -0.111108854 0.11980445 0.1282443
000050 10 d8 ba bc a0 bf 17 be 0f b4 97 bc 3a 52 37 be
       -0.022808105 -0.14819193 -0.018518476 -0.1790246
000060 bb db e9 bd 9b b0 0e 3d ef 1a c4 bd 62 2f 9d bc
       -0.114188634 0.034836393 -0.0957545 -0.019187633
000070 91 3e a2 bd 5e 22 14 bd 8f 20 80 bd a4 95 07 3c
       -0.0792209 -0.036165588 -0.0625621 0.008275423
000080 35 c4 3d 3d 64 b5 16 3d f0 a7 86 bb 9d 0f 7a bc
       0.046329696 0.03679408 -0.004109375 -0.015262512
000090 84 33 1c 3d 68 a4 f7 bd 18 be ca 3d 1c 54 c6 3d
       0.038135067 -0.12091905 0.09899539 0.09684011
0000a0 9a 9d 6a 3c c3 61 df 3c 3a 88 13 3e 69 22 0f be
       0.014319802 0.027268296 0.14407435 -0.1397797
0000b0 0f 01 32 3e 45 d0 95 bd e6 13 51 3d 88 2f aa bc
       0.17383216 -0.07315115 0.051044367 -0.020774618
0000c0 b9 ef 89 3d 5b ce bf 3d 34 bb 4c 3d 3c 65 c6 bc
       0.067351766 0.09365531 0.04998322 -0.024218194
0000d0 5b c4 43 be 3c ff bc be ca f2 8f 3b 49 a9 35 3d
       -0.19117872 -0.36913478 0.0043929564 0.044350896
0000e0 d8 9a 21 be e7 05 6f 3e ff eb 8d 3c 92 1c a3 3b
       -0.15781724 0.23342095 0.017324446 0.004977771
0000f0 6e e4 db bd 5c 94 dd bd 1a 99 b3 bd b1 84 24 3e
       -0.10736929 -0.10819313 -0.08769436 0.16066243
000100 af 6f 31 3e 71 1b 96 3d 25 43 bb 3d a2 38 92 3d
       0.1732776 0.07329453 0.09143666 0.07139708
000110 74 cd c6 3d ec 78 80 bd 96 89 5b bd 63 32 0a bd
       0.09707156 -0.06273064 -0.05359801 -0.03373946
000120 0c fb 04 bd 8c 17 20 bd 95 8e 05 be d6 8c 2e 3e
       -0.03246598 -0.039084956 -0.13042672 0.17045912
000130 b1 d6 2b bd a9 bb af bd 34 04 e0 bd 3f 53 24 be
       -0.041952793 -0.08580715 -0.10938302 -0.16047381
000140 7c 60 0d 3e d0 69 33 bb ef 55 78 3e 2d 1b 6c be
       0.13806337 -0.0027376302 0.24251531 -0.23057242
000150 07 4c 01 be 72 52 79 3d 91 b4 f9 bc ab 0c 71 bd
       -0.12626658 0.06086964 -0.030481609 -0.05884997
000160 b6 36 e3 bd 38 26 01 be 03 e6 2a bb b3 39 2f 3d
       -0.1109442 -0.12612236 -0.002607704 0.042779636
000170 04 76 56 3e c8 0c cf 3d 69 55 9e 3d 04 94 f5 3c
       0.20943457 0.1010986 0.077311344 0.029977806
000180 16 d3 b0 bc 22 7b b6 bd aa fe 19 3e 51 9f 8c bb
       -0.021585029 -0.089102045 0.15038553 -0.004291453
000190 04 ce db 3d 10 b7 a6 bd fc 69 f6 3d a3 f5 ac bb
       0.10732654 -0.08140385 0.12031934 -0.0052783056
0001a0 1b 44 c9 3d 5c 2a 59 3c 69 95 1d bd d4 e6 44 3d
       0.09827443 0.013254728 -0.038472567 0.048071697
0001b0 8e 83 04 3d 78 23 1b be e8 cd 68 bd 61 3b ed bd
       0.032352023 -0.15150249 -0.056836993 -0.11583591
0001c0 5b 27 d5 3d 5b da 3c bc 8a bc bc bd d9 0a e3 ba
       0.10407897 -0.011526669 -0.092156485 -0.0017321958
0001d0 20 f1 6f bc 24 21 11 3d ae 4b de bd 5c 8d 65 bd
       -0.014644891 0.035431996 -0.108542785 -0.056043014
0001e0 3f 51 f1 bd c9 cd 31 bc cb 3b 9a 3c 7d 1f fd 3c
       -0.117830746 -0.010852286 0.01882734 0.030898804
0001f0 8f 6e c3 bd 96 d7 f0 3c ad 92 02 bd 38 00 1b 3d
       -0.09542572 0.029399674 -0.031878162 0.037842005
000200 71 da 03 be 94 ae aa 3d 77 1b 16 3d d8 0e 44 3d
       -0.12876298 0.083340794 0.036647286 0.04786572
000210 52 e4 9e bd cb 83 ae 3d 44 33 49 bd 76 d8 b6 3d
       -0.077583924 0.08521231 -0.049121156 0.089280054
000220 f4 66 35 3e 96 60 d4 3d 1d 4a c5 3d a2 53 3e bd
       0.17715055 0.10369985 0.096332766 -0.046466477
000230 68 42 1c 3e a3 1c b0 3c d2 ab 08 bd 78 80 26 3e
       0.15259707 0.02149803 -0.033366986 0.16259944
000240 54 45 6e 3c 71 3a 28 bc 3e 41 5f 3d de ac a9 3d
       0.014542896 -0.01026784 0.05450558 0.08284925
000250 d7 b6 cd bc 61 67 8f bd 78 4c 8e 3d c2 5a 13 bc
       -0.025111599 -0.0700214 0.06948179 -0.008993806
000260 08 f1 1b be bd de 15 3e 1e ef b3 3d ef 75 30 3d
       -0.15228665 0.14635749 0.08785842 0.04308122
000270 2d 56 b0 bd da 89 10 bd 4d b4 2d bd de 08 e9 bd
       -0.08610187 -0.035287715 -0.042408276 -0.113786444
000280 a7 b9 b6 bd 3d 90 9f 3d 03 c6 be bc 79 ab 30 be
       -0.08922129 0.07791183 -0.023287779 -0.17252912
000290 59 01 e3 3c 65 ca 24 3e 73 76 da bd fe 0a 3e 3e
       0.027710604 0.16092832 -0.10667124 0.1855888
0002a0 02 b7 ee bc be 9f e8 3c c7 c4 0e 3e 29 cd 23 bd
       -0.02914 0.028396484 0.13942252 -0.039990578
0002b0 1d f2 16 3e 19 b3 67 bd f6 da 34 bd c1 10 7c bd
       0.14740796 -0.056567285 -0.04415413 -0.061539415
0002c0 f1 c1 a8 3d 5f 95 cf 3d 19 f7 56 be 58 01 a5 bc
       0.082401164 0.10135912 -0.20992698 -0.020142242
0002d0 b2 0d 1a bd 15 b6 e3 be 7d 60 51 3e 03 df 77 3d
       -0.037610717 -0.44474855 0.20446964 0.060515415
0002e0 4e fa 63 bc a2 6d b9 bd 9b c7 93 3d 39 e7 0e 3e
       -0.013914658 -0.09054114 0.07215806 0.13955392
0002f0 67 40 4b 3d 09 67 8a 3d a5 a9 11 3e af b5 db 3d
       0.049621966 0.06757934 0.1422487 0.10728013
000300 f4 ff 2b be 63 91 ca bd 49 bd 72 3d d3 22 dd 3d
       -0.16796857 -0.098910116 0.059262548 0.10797658
000310 91 cc 49 bd 6d e3 37 bd b0 fb 2b 3e 35 49 e6 3c
       -0.049267355 -0.044894625 0.1679523 0.02811108
000320 74 00 cf 3d a2 4f dc 3c fb cb b2 3d 05 e8 6f 3e
       0.10107508 0.02689344 0.087303124 0.23428352
000330 e7 a4 d8 3d ed 61 21 be 16 9c c3 bd f4 8c b8 3d
       0.105783276 -0.15760012 -0.095512554 0.0901126
000340 37 e7 7c bd fd 87 0b 3c f3 97 06 bd 7a 5d cb bd
       -0.06174394 0.008516309 -0.032859754 -0.099299386
000350 30 e5 e6 bd 27 fc 00 bd 86 86 ad bd b8 f9 ec 3b
       -0.11274183 -0.03149047 -0.08472924 0.007231917
000360 97 58 14 3d 19 48 00 3e b3 35 44 3c 34 f1 fa bc
       0.0362173 0.12527503 0.0119756935 -0.030632593
000370 b6 a9 e0 bd 82 31 de bc c7 df 36 be ef da ca 3b
       -0.1096987 -0.027123217 -0.17858802 0.0061906497
000380 af 82 90 3d 60 a0 13 3d 93 4f a3 3d 9a b3 84 bd
       0.07056176 0.036041617 0.07974162 -0.06479569
000390 cd 8b 01 3e ae b8 54 3d 59 cd 00 3e 85 b3 2d be
       0.12650986 0.051933937 0.12578334 -0.16963013
0003a0 28 89 d5 bd a2 53 c1 bd 45 30 c7 3d 70 49 10 3e
       -0.10426551 -0.0943978 0.097260036 0.14090514
0003b0 0f 5b 3a 3c 2a a4 e0 3d 55 3f 1a 3a 0b af a9 bd
       0.011374249 0.10968812 0.0005884071 -0.0828534
0003c0 31 37 01 be 85 75 19 3e a6 1d d8 be 92 e2 b7 be
       -0.1261871 0.14986236 -0.4221012 -0.35915047
0003d0 cb 91 3f be f3 d5 1b 3e 6f 99 58 be b6 8d 86 3e
       -0.1870796 0.15218334 -0.2115228 0.26279992
0003e0 45 6c cd bd 90 bb ad 3d 95 1c f5 3d 69 d3 33 3e
       -0.100304164 0.0848304 0.11968342 0.17561115
0003f0 2b e1 4b 3c 0b ed 60 be 90 93 cc bd 68 c8 86 3c
       0.012443821 -0.21965425 -0.09989083 0.016452983

VAE_Decoder.layers.0.linear1.bias f4 [4]
000000 18 fe a2 3a 46 72 8d 3d e7 3d 2c bd 4e 2e bc bc
       0.0012435345 0.069065616 -0.042051222 -0.022971299

VAE_Decoder.layers.0.norm1.weight f4 [4]
000000 a3 83 9e 3f 7a 78 a2 3f 6d e2 9d 3f 3d c5 92 3f
       1.2383922 1.2693017 1.2334725 1.1466442

VAE_Decoder.layers.0.norm1.bias f4 [4]
000000 b9 6a d6 bc 49 f7 9c 3b 8f 25 e6 3c 36 ee 8f bd
       -0.026173936 0.004790221 0.028094081 -0.07027857

VAE_Decoder.layers.1.attention.W_q.weight f4 [4, 4]
000000 df 6f 21 3d 41 97 fe be 8c 8d 95 bd 99 f9 84 bd
       0.03941333 -0.49724773 -0.073023885 -0.064929195
000010 a2 6e a7 3c fe 8c ba 3d a5 0d ef be 38 c7 cc 3e
       0.020438496 0.091089234 -0.46690097 0.39995742
000020 2c 6b f9 be 9d d7 29 be 8d 7f cf 3e 50 9b 71 be
       -0.48714578 -0.16586156 0.40527 -0.23594403
000030 98 ad 1c be 84 46 a8 3d 50 16 ab 3e c1 86 c7 be
       -0.15300596 0.08216575 0.3341546 -0.38969997

VAE_Decoder.layers.1.attention.W_q.bias f4 [4]
000000 00 0b bf 3c ce a0 f1 3b a3 ea 7f 3d a7 0d 19 3d
       0.023320675 0.0073739057 0.062479626 0.037366536

VAE_Decoder.layers.1.attention.W_k.weight f4 [4, 4]
000000 1a 68 0d 3e e4 75 07 bf 53 04 3a be 09 bf 01 be
       0.13809243 -0.5291426 -0.18165712 -0.1267053
000010 c4 8d 58 be fb c4 32 3e 9a a0 02 3f f6 8f 87 3d
       -0.2114783 0.17457955 0.5102631 0.06619255
000020 e0 6f 43 be f1 ee a5 be 80 55 94 3d a0 0d f3 3e
       -0.19085646 -0.3240886 0.0724287 0.47471333
000030 b0 31 ae be b1 c4 2a bb e3 18 a9 be 1b 60 8d 3e
       -0.34022284 -0.0026057179 -0.330268 0.27612385

VAE_Decoder.layers.1.attention.W_k.bias f4 [4]
000000 b9 68 74 ba 0d f0 bd bb 07 45 8d b8 eb 48 d6 3a
       -0.0009323466 -0.0057964385 -6.736261e-05 0.0016348636

VAE_Decoder.layers.1.attention.W_v.weight f4 [4, 4]
000000 fb 12 26 be 33 40 16 be 28 ba 5c 3e 04 8d 07 be
       -0.16218178 -0.14672928 0.21555388 -0.13237387
000010 03 28 08 3f 64 6b 0e 3d 08 bf 73 bd f6 ec ac be
       0.53186053 0.034770384 -0.059508353 -0.33774537
000020 20 05 83 be bb 66 f3 3e b7 70 cd 3e b3 38 ec be
       -0.25589848 0.47539315 0.40125057 -0.46137008
000030 bb 1b ae be 1e 28 82 3e a1 aa d7 bd cc 19 3f bd
       -0.34005532 0.25421232 -0.10530592 -0.04665546

VAE_Decoder.layers.1.attention.W_v.bias f4 [4]
000000 4b f4 55 3d 99 59 8c bd 37 38 52 3d 21 e9 75 3c
       0.05223493 -0.06853027 0.051323142 0.015009196

VAE_Decoder.layers.1.linear0.weight f4 [128, 4]
000000 5b 4a e3 3e 1c 0c d7 3b 5e c5 bf 3e c7 53 29 bf
       0.44392666 0.006562723 0.37455267 -0.6614346
000010 d9 d7 a1 be ba bb 9c 3e 70 c5 ef 3b 79 d6 21 be
       -0.3160999 0.30611974 0.0073172376 -0.15804471
000020 66 0a 02 be 84 a9 8b 3e 12 e7 36 3f 4b e8 de 3d
       -0.12699279 0.27277768 0.71446335 0.1088415
000030 0c cc 42 3f cd f7 01 bd 90 c3 d8 be 1b 00 da be
       0.760926 -0.031730462 -0.42336702 -0.42578205
000040 81 bf fc 3e 56 20 cd be 93 0b 14 3e 4e 40 02 be
       0.49364856 -0.40063733 0.1445754 -0.12719843
000050 fb f2 55 3f 0f 3c 6a bf 8f df ce 3d 7a af 93 3e
       0.83573884 -0.9149789 0.10101234 0.28844815
000060 9f 32 fa 3e a6 5a 8f 3e ad d8 a5 be db 9e 0c bf
       0.48866746 0.27998847 -0.32391873 -0.54929894
000070 c8 1c 87 3e 5a 8e d5 3e b4 11 3d be 4f 56 0f 3e
       0.26389146 0.41710168 -0.18463784 0.13997768
000080 63 c2 1a bf f1 89 d5 3e 85 93 6b bd 64 f4 72 3d
       -0.6045286 0.41706803 -0.057513732 0.0593151
000090 51 24 24 3e 33 6e b3 3e a6 6d f4 3e 2a 52 cd be
       0.16029479 0.35045013 0.47739905 -0.4010175
0000a0 8b 06 c4 3e e3 c3 3a 3e d2 ea 09 bf eb 44 3c 3e
       0.38286242 0.18238787 -0.5387393 0.18385665
0000b0 10 97 a8 be cf 1d 8c 3e c5 2a 16 3f c8 3a 4d be
       -0.32927752 0.27366492 0.5865901 -0.20041955
0000c0 3a 6a 20 3f 0c db 40 bf 24 ae 69 be d1 8a cf be
       0.6266209 -0.7533424 -0.22820336 -0.40535596
0000d0 8f 36 92 3e 8f 31 03 be b9 2f 0c bf 49 2e e1 3e
       0.2855725 -0.12811874 -0.5476032 0.43980625
0000e0 9e e3 a7 3e b0 eb 43 bd c5 3b db be 16 9f 29 3f
       0.32790846 -0.04783219 -0.42819038 0.6625837
0000f0 e6 2d 04 bf f6 4b 63 bc 32 78 eb 3e f8 66 95 3e
       -0.51632535 -0.013873091 0.4599014 0.2918012
000100 55 ad 60 be c5 da 18 bd 62 ff 20 3f 24 a8 3a bf
       -0.21941121 -0.03731801 0.62889683 -0.7291281
000110 35 30 99 3e d1 b6 31 3e 6a 50 5d 3e 73 e6 01 be
       0.29919592 0.17354895 0.21612707 -0.12685566
000120 cc 09 4c 3e 5c c9 f7 bd 29 29 36 3f c5 3f 8f be
       0.19925612 -0.12098953 0.71156555 -0.2797834
000130 7b 4a 02 bf 0d 5e c5 be 83 37 ce 3e 95 0a 11 3f
       -0.508949 -0.38548318 0.40276727 0.5665677
000140 91 31 09 3f d6 b2 6e 3e e4 88 04 be 1d 1e 21 3f
       0.5359126 0.23310408 -0.12942845 0.62936574
000150 5b f0 15 3d df 2d f3 be fd 73 2e 3f b8 8d 2b 3f
       0.036606174 -0.47495934 0.68145734 0.6701312
000160 4c 50 f0 be c8 89 c9 be 3e a1 48 3e 47 12 16 bf
       -0.46936262 -0.3936293 0.19592759 -0.5862164
000170 23 55 06 be c0 3b a3 3e 55 14 30 bf 41 e4 ea 3d
       -0.13118415 0.31881523 -0.68781024 0.11469317
000180 4e d5 b0 3d 95 00 fa bd bf 58 33 be c9 41 ba be
       0.08634435 -0.12207142 -0.17514323 -0.36378315
000190 69 b0 e9 be 2b ad 12 3f 84 b7 17 bf ac 5a 98 be
       -0.45642403 0.57295483 -0.592644 -0.29756677
0001a0 9a 11 cd 3c 40 cb 13 3e ea cf 0e bf 84 a0 13 be
       0.025032807 0.14433002 -0.55786 -0.144167
0001b0 f4 52 0a bf 90 2b 0a 3d fb d2 c3 3e 54 2d e8 3e
       -0.54032826 0.03373295 0.38246903 0.45347083
0001c0 2d 66 86 be 73 86 44 bf b9 09 5c be b0 d3 b0 3e
       -0.2624983 -0.76767653 -0.21488084 0.34536505
0001d0 e9 6d b8 3e da a6 9c be 78 6b 43 be 05 e6 c3 bd
       0.36021355 -0.30596048 -0.19083965 -0.09565357
0001e0 76 0a 86 be 1b 8c a8 be bb ec 94 3e 09 d8 f2 3d
       -0.26179856 -0.32919392 0.2908686 0.11857612
0001f0 da 49 06 bf 76 b0 9f 3e 66 5f 92 be 98 57 d8 bd
       -0.5245644 0.31189317 -0.28588408 -0.10563582
000200 be d9 c8 be 2c bf 72 be d8 6c 07 3d 59 ac cf 3e
       -0.39228624 -0.23705739 0.033062786 0.40561178
000210 04 6d 28 3f 4b c6 09 bf f2 75 9b 3e 68 a3 ea 3d
       0.65791345 -0.53818196 0.30363423 0.114569485
000220 9b d3 59 3f e9 c1 22 bf 33 dc 8c 3e da 04 c2 3e
       0.8508851 -0.63577133 0.2751175 0.37894326
000230 ed 23 ab 3e b8 2c ed 3d a1 ea 0f bf 5c 5f a1 3e
       0.33425847 0.11580795 -0.5621739 0.31518066
000240 c8 cd 9a 3e 54 a9 b4 be 25 92 6a be 80 20 31 3e
       0.30235124 -0.35285437 -0.22907312 0.17297554
000250 6e 9d 7d 3e 77 94 13 be d0 94 0e bf 94 a2 f8 3e
       0.24767086 -0.14412104 -0.5569582 0.48561537
000260 a3 9f 48 3e 39 69 7d 3e f7 5b da be 49 40 61 3e
       0.19592147 0.2474717 -0.4264829 0.21997179
000270 fd 73 8f bd d3 1b c2 3e ff fb 0b 3e 82 2a c8 3d
       -0.07004545 0.37911853 0.13670348 0.09773733
000280 a6 d3 3c be 6d ec 9a bd 7a 62 99 3e c9 87 f7 3e
       -0.18440112 -0.07564626 0.29957944 0.48345783
000290 cb e6 34 bf 4b 64 4c bd 6a 31 23 3f e4 2d 37 be
       -0.7066466 -0.049900334 0.63747275 -0.178886
0002a0 e4 bb 87 3e 0d 71 82 be 5e dd 86 3e 6c db fd 3e
       0.26510537 -0.25476876 0.26340765 0.49581468
0002b0 9f c0 ca be e5 dc 2b 3d 4e 27 c8 bd 88 8a 11 3f
       -0.39600083 0.04195871 -0.09773122 0.56852007
0002c0 f8 83 61 3e af d2 a4 bc 9d e4 8d 3e 87 10 41 be
       0.22022998 -0.020119993 0.2771348 -0.18853961
0002d0 0a 61 c6 bd 1f f4 d2 be 2e d4 c2 be 76 2e de 3e
       -0.096864775 -0.41201875 -0.38052505 0.43394822
0002e0 51 83 80 3d 57 fd e3 3e 08 b8 23 3f 7b cc 24 bf
       0.062750466 0.4452922 0.63952684 -0.6437451
0002f0 20 b8 c0 be 9c 29 ee 3d 22 81 18 3f 9c 0c a6 3e
       -0.37640476 0.1162903 0.5957204 0.32431495
000300 20 b2 1d 3e e8 ce a6 be e6 80 c3 be d1 61 44 3f
       0.1539998 -0.32579732 -0.3818428 0.76711756
000310 4c a7 f8 be a5 b1 be be 6f b9 68 3e 93 c0 d9 3e
       -0.48565137 -0.37244907 0.22726987 0.42529735
000320 28 cd 23 3e 29 d1 e1 3e da bb 81 3e 66 e6 e8 be
       0.1599623 0.4410489 0.25338632 -0.4548828
000330 2f 35 3c be 4e 5d 80 be 3c 57 d5 3e 25 30 4d 3e
       -0.18379663 -0.25071186 0.41668117 0.20037897
000340 b7 94 cb 3e e9 e3 f5 3d 7b e0 d4 be 39 67 08 3f
       0.39761898 0.12006361 -0.41577515 0.53282505
000350 19 b1 28 be 0a 56 1c 3e 55 20 aa be 7d dd 97 be
       -0.16473807 0.15267196 -0.33227792 -0.2966117
000360 18 61 a4 3e a7 1e 15 bf 74 dc 16 be d1 d3 36 be
       0.32105327 -0.58249897 -0.14732534 -0.17854239
000370 5b 2e e0 3c 89 22 02 bf f5 29 17 bf b4 82 1c 3f
       0.027365854 -0.50833946 -0.59048396 0.6113694
000380 22 88 14 3d d9 1a 5c 3e c6 dd 9b 3e 53 41 1b bf
       0.03626264 0.21494617 0.30442637 -0.6064655
000390 40 35 18 3f 72 2e fe 3e 98 26 c0 3e cf dd 26 bf
       0.59456253 0.4964481 0.37529445 -0.65182203
0003a0 11 c2 3d be 99 8a 58 3e 3f 34 31 3f 7c 5c bd 3e
       -0.18531062 0.21146621 0.69220346 0.36984622
0003b0 88 c6 cb be 13 07 4f 3e ea 2b 54 3e 4f 3b ed be
       -0.39799905 0.20217542 0.20719877 -0.4633431
0003c0 06 a9 4d bd 06 7a b6 bd 97 f4 13 bf 27 56 2c 3e
       -0.05021002 -0.08909993 -0.5779509 0.1682974
0003d0 e7 46 f7 3e de a1 1e bf 64 bd 18 3e fc 80 b8 bc
       0.48296282 -0.6196574 0.14915997 -0.022522442
0003e0 57 36 8c 3e 41 8c d4 be 5d d2 e7 be c7 9d 84 bd
       0.27385208 -0.41513255 -0.45277682 -0.06475406
0003f0 a8 92 c2 be 5f a5 25 be 8a a6 60 3e 05 d6 13 be
       -0.38002515 -0.16176365 0.2193853 -0.1443711

VAE_Decoder.layers.1.linear0.bias f4 [128]
000000 d8 a7 62 be 6a 52 2a 3e 3f cf 51 3e 7a df ad 3e
       -0.2213434 0.16633001 0.20489214 0.33959562
000010 3d 2a c8 3e 44 54 b3 bd ec 0b 09 bf 93 2c a1 3e
       0.39094725 -0.08756307 -0.53533816 0.3147932
000020 e2 2e 7d be 26 4b e7 3e 3f 93 e1 3d 7a a0 a6 3e
       -0.24724916 0.4517452 0.11014413 0.3254431
000030 32 07 78 3d b5 4e 7d be 1b 30 56 be b0 82 05 bb
       0.060553737 -0.24737056 -0.20916788 -0.0020372085
000040 e5 ac d1 3e e8 6b 1c 3f d1 39 73 be f0 18 c3 bd
       0.4095222 0.6110215 -0.23752524 -0.09526241
000050 ee 08 ac 3d 96 e9 7f 3e 9f bb e7 3d da e8 46 be
       0.08400141 0.2499145 0.11315083 -0.19424763
000060 c1 f4 cd 3e b2 bc ee 3d bb 46 f6 3e ba 0c 50 3e
       0.40225795 0.116570845 0.48100838 0.20317355
000070 20 93 84 3e bd b7 3b be 51 06 c1 3e 0b 42 3f bd
       0.25893497 -0.1833181 0.37700132 -0.046693843
000080 50 69 ba be a0 50 d3 3d 05 6f 4e bd c3 49 04 be
       -0.36408472 0.103181124 -0.050398845 -0.12918763
000090 dc fa a3 3e eb 81 48 bd 47 fd 3f be e5 48 5d 3e
       0.32027328 -0.048952024 -0.18748961 0.21609838
0000a0 71 e8 23 be 55 95 df 3d 37 63 0c 3f be 6b 1d bb
       -0.16006638 0.10917155 0.5483889 -0.0024020518
0000b0 12 db 18 be 06 8a 44 be 65 2a d2 3e 84 a3 59 be
       -0.14927319 -0.19193277 0.4104797 -0.21253783
0000c0 03 af e2 3e 50 59 de bd 17 31 df 3e 9a fa 9c 3e
       0.44274148 -0.10856879 0.4359214 0.30659944
0000d0 6a f6 26 bd 7f 33 f3 3e dd 53 ba 3e d5 f9 e3 3e
       -0.040762343 0.47500226 0.36392108 0.44526544
0000e0 ff 3d db 3e 93 19 52 3e 41 53 b9 3e 1f 35 13 3d
       0.42820737 0.20517568 0.3619633 0.035939332
0000f0 37 8c 98 be 1f 1c f4 3d ad cf d1 be af 8f cb 3d
       -0.29794475 0.11919426 -0.40978757 0.09939515
000100 f9 7b 4d be 02 cc 43 be 7b 3c 68 3e 26 31 fb 3e
       -0.20066823 -0.19120792 0.22679321 0.49060935
000110 7e a7 d7 be 3f 5d b4 3d 1f 8e 65 bd 3a 4d 3a be
       -0.42119974 0.08806848 -0.05604374 -0.18193522
000120 47 36 85 be 7e 48 09 3f ad 10 62 3e 8e 11 67 3d
       -0.26017973 0.5362624 0.22076674 0.056413226
000130 cd 12 15 3f 8d 48 2c 3e 54 d3 bd bd f2 20 bb 3e
       0.5823181 0.16824551 -0.09268823 0.36548573
000140 9c 0d b1 be 93 9c 69 3e 25 6e c7 be 68 7d 96 bd
       -0.34580696 0.22813635 -0.3895122 -0.07348138
000150 7a 94 a7 3e 57 13 0a bf 5a 5c 90 3e d7 a1 7b 3d
       0.32730466 -0.5393576 0.2819546 0.06143364
000160 1d 8d b3 3e 95 e1 d0 3e 3b 83 a1 bc 43 1a 87 3d
       0.35068598 0.40797105 -0.019715896 0.06596806
000170 7a db f6 3e fe 1f 5d 3e ac b6 bd bd 79 23 aa be
       0.48214322 0.21594235 -0.092633575 -0.33230188
000180 e0 b2 04 be 69 63 48 3e 72 30 10 3e cc 1a 04 3e
       -0.1295886 0.19569172 0.1408098 0.12900847
000190 10 1c 87 3e 42 2f e2 3e 24 0e fe bd f5 43 6e be
       0.26388597 0.4417668 -0.12405041 -0.23268111
0001a0 18 2b 87 bd 3e a9 a0 3d 85 c3 14 3f 34 63 17 3e
       -0.06600016 0.078447804 0.5811084 0.14783937
0001b0 78 0e 2b 3f f4 da 9c 3d 0c 97 17 3d a1 80 ca 3e
       0.6681895 0.076589495 0.037009284 0.3955126
0001c0 4a 4d 03 3c 82 98 33 3d 3e 0e bc bd 1d 0d d0 3e
       0.008014033 0.043846615 -0.09182404 0.40635005
0001d0 00 cf e6 3e 50 bc b9 be 08 cd 34 be 2c af 01 bf
       0.45079803 -0.36276484 -0.17656338 -0.50657916
0001e0 75 41 fc 3d 1a f1 d9 be 15 bf 21 3e 41 c6 13 bd
       0.123171724 -0.42566758 0.15795548 -0.03607774
0001f0 a8 8c b2 3e b1 ff 5c 3e e9 b9 f1 3e 1f 62 f8 be
       0.34872937 0.21581914 0.4721215 -0.4851236

VAE_Decoder.layers.1.linear1.weight f4 [4, 128]
000000 25 00 48 3d 39 58 9b be 40 8e 5d be 25 7b 49 bd
       0.048828263 -0.30340746 -0.21636295 -0.049189705
000010 30 80 6b 3c 92 c0 b8 be c4 2d d7 3c 12 65 a3 3d
       0.014373824 -0.3608442 0.02626694 0.07978262
000020 9f 26 08 bd 1b 26 47 be 70 f3 8b 3d 1a 2c e4 bd
       -0.033239957 -0.1944813 0.068335414 -0.11141224
000030 f1 0a 2e 3e 18 dc 72 3e 07 8a 05 3e ea 40 b8 bd
       0.16996361 0.23716772 0.13040935 -0.089967564
000040 b8 d8 91 be 1c ec 48 be 37 20 27 bf 63 87 bf bd
       -0.28485656 -0.19621319 -0.6528353 -0.09351995
000050 b6 16 61 3d 12 f8 bd bd 5c e5 2a be 4c f3 3b bd
       0.0549533 -0.09275831 -0.16689056 -0.045886323
000060 4a fd 91 bc bb 5b 39 bd 7a 91 4c 3e c5 95 97 3d
       -0.017820973 -0.045253497 0.1997737 0.07401613
000070 ef e0 29 3e 29 47 90 3d 42 4b 07 be 9c 00 7c be
       0.16589712 0.07044823 -0.13212302 -0.24609607
000080 89 f3 01 3e 2b 95 fa bd 16 a1 9e be c0 9e 60 3e
       0.12690558 -0.12235483 -0.30982274 0.21935558
000090 1c e5 8e 3d 9e 4e d4 3d f9 7f 0d 3e 6a 8e 83 bd
       0.06977293 0.103665575 0.13818349 -0.06423648
0000a0 47 73 68 3e 33 6a 42 be b4 72 80 3d 5f b1 3f 3c
       0.22700225 -0.18985824 0.06271878 0.011700003
0000b0 47 e9 10 be b3 34 94 3d cf f2 08 be 65 c8 5e be
       -0.14151488 0.07236614 -0.13373874 -0.21756132
0000c0 08 6f f6 3d 0e d4 e4 3d 79 70 51 be e4 a7 45 be
       0.12032896 0.11173259 -0.20453061 -0.19302326
0000d0 f3 70 da 3c cb ad 60 bd ac 66 ac bb 78 79 33 3e
       0.026665187 -0.054853242 -0.005261263 0.17526805
0000e0 47 ab dd bc 88 53 f9 bd 61 cc be bd b0 ac 2f be
       -0.02705921 -0.121741354 -0.09316326 -0.17155719
0000f0 d2 aa b4 3b 4a 9d d4 bc 8b e9 08 3d b3 5c 0b be
       0.0055135274 -0.025953908 0.03342585 -0.1360958
000100 21 7f 0b 3e b7 dd 05 3e 61 a7 df ba a1 f8 4f be
       0.13622715 0.13072859 -0.0017063433 -0.20309688
000110 06 7c 41 be 31 73 aa 3d 11 f3 21 be 9c 8b 3e 3e
       -0.18894967 0.08322752 -0.15815379 0.18607944
000120 7e 75 18 3e fc 94 0e be ce 5a 17 3d bd 68 19 3e
       0.1488857 -0.1392402 0.036951832 0.1498136
000130 11 bb e1 3d 31 a8 a9 3d 85 d4 54 bc b9 65 85 3d
       0.11022008 0.08284033 -0.012990122 0.06513543
000140 da eb a3 3b e6 d8 56 3e 98 4d 30 bc 9a 67 6d be
       0.005002481 0.20981178 -0.010760687 -0.23184052
000150 4d 1c 32 be 34 99 7e 3e 56 bf 3b bd 71 7e 91 3d
       -0.17393608 0.2486313 -0.04583677 0.07104195
000160 6e 4c 35 bd bb b6 73 be 86 08 fd 3d 4c 2b 56 3e
       -0.044262342 -0.23800175 0.12355141 0.20914954
000170 1d 99 40 be d5 65 1e be 69 22 8b 3e fe 27 72 3e
       -0.18808408 -0.15468533 0.2717469 0.23648068
000180 0e ed 13 be c0 dc 8b 3c 1e d2 04 3d b3 86 ba bd
       -0.14445898 0.017073035 0.032426946 -0.09107723
000190 95 e0 35 bd 95 09 9e 3d e6 d5 47 3d e8 c8 7e 3c
       -0.04440363 0.077166714 0.048787974 0.0155508295
0001a0 e7 de 07 bd 7e b1 20 be 6f fe 46 be e4 eb 94 3c
       -0.03317156 -0.15692708 -0.19432996 0.018178888
0001b0 16 56 52 be 00 b0 1a be 19 52 7e be 34 ca 6b 3d
       -0.20540652 -0.15106201 -0.24836005 0.057565883
0001c0 c3 c4 f4 bc 3a 68 e9 3d 21 73 90 3e 5a 4a c3 bd
       -0.02987898 0.11396833 0.28212836 -0.09535666
0001d0 46 e7 65 3e bf 8e 7a bd e4 6a cd bd d3 19 77 be
       0.22451505 -0.06117129 -0.100301534 -0.24130945
0001e0 1d d3 0e bd fe ad b9 3e 57 26 ab 3d 70 0a 21 3e
       -0.034869302 0.36265558 0.08356922 0.15726638
0001f0 80 50 61 be b0 0e a3 be 73 e7 86 3d 5e 02 b2 3e
       -0.22003365 -0.31847143 0.06587114 0.3476743
000200 ee a9 d6 3e 07 06 91 bb 33 59 57 3e f0 59 ff bd
       0.4192652 -0.0044257673 0.2103012 -0.12468326
000210 32 30 14 3e ee d9 cb be 21 1d 60 3e ef bb ea bb
       0.1447151 -0.39814705 0.21886112 -0.0071635167
000220 0a 94 67 3e db ae b1 3d 00 ca 9f 3d 7b 65 08 3e
       0.22615066 0.08675929 0.078022 0.13319962
000230 93 55 11 bc 15 39 22 3e f7 72 39 bd c1 43 14 3e
       -0.0088705 0.15842088 -0.045275655 0.14478971
000240 7e 0e 48 be 59 5c 9b bd e8 80 05 bf db 4d 6d 3c
       -0.19536778 -0.07585973 -0.5214982 0.014483894
000250 97 2e a9 bd da e6 3f be b0 c3 88 3d 33 52 f3 bd
       -0.082608394 -0.18740407 0.066779494 -0.11880913
000260 c9 d8 88 3c e8 97 9b bd 36 0e ca 3b 49 37 74 3e
       0.016704934 -0.07597333 0.006166245 0.23849215
000270 b9 ce 28 3d ef 93 bc ba 1f e1 e5 3d b1 27 24 bd
       0.04121277 -0.0014387349 0.11224579 -0.040076915
000280 2d e8 af 3d b8 68 0a be ea 2d 9c be af 04 06 3d
       0.08589206 -0.1351651 -0.3050378 0.03271931
000290 42 fa e0 bd 6c 97 23 be 6d ef e8 bd 73 2f 51 bc
       -0.10985233 -0.15975732 -0.11373792 -0.01276766
0002a0 96 42 0e 3e bb b4 3f 3e c5 3b 07 be 36 24 7a 3e
       0.13892588 0.18721287 -0.13206394 0.24427876
0002b0 51 1d 15 be 32 1a 24 3d fe 5f b4 3d a6 a2 95 3d
       -0.14561965 0.040064044 0.088073716 0.07306413
0002c0 f8 d6 34 be 38 1a 84 3d df 72 dd bd cd 0d f6 3c
       -0.17660129 0.06450313 -0.108129255 0.030035878
0002d0 49 45 3b 3d 00 bb f4 bb 96 e8 b4 bc 25 a6 47 be
       0.045720372 -0.007468581 -0.022083562 -0.19496973
0002e0 54 8c fe 3d 93 08 e7 3d da ac ed 3c cc 8e 85 3d
       0.12429109 0.11280932 0.029013086 0.06521377
0002f0 e3 1d db bd e8 39 a0 bd 27 a7 5e bd fc 89 72 3d
       -0.1069906 -0.07823545 -0.054358628 0.059213623
000300 78 6d 64 3d 0c 71 59 3e 82 f7 08 bd 43 5c 40 3d
       0.05576846 0.2123453 -0.033439167 0.046962988
000310 8f 16 cd 3c 50 8d 8a 3e f7 0c fa bd b3 21 0d 3e
       0.02503517 0.27060938 -0.12209504 0.13782386
000320 04 4b ea bb 26 95 e4 bd f2 84 97 3d 11 8c 98 3d
       -0.007150056 -0.1116126 0.07398404 0.074485905
000330 75 b2 30 bb f1 1e 1d bd 42 cf 32 3e 2a 4e 84 bc
       -0.0026961837 -0.038359586 0.17461875 -0.016150553
000340 45 7e 7c be af 49 aa ba 31 e3 b2 3e 25 b4 07 3c
       -0.24657543 -0.001299193 0.34938958 0.008282696
000350 00 d2 b4 3c d8 c6 c6 bd 1f b2 ce 3d ae b3 da bd
       0.022072792 -0.09705895 0.10092568 -0.106788024
000360 f2 1b 35 3e 47 24 38 be b5 81 b9 bd 0d 49 07 3f
       0.17686442 -0.17982589 -0.09057943 0.5284584
000370 00 9c 87 bd 06 b0 c8 3d 09 26 da 3c c4 dc 0f 3e
       -0.066215515 0.09799199 0.026629465 0.14049059
000380 ee d3 7b 3b 66 16 d5 3c 7e cf 2b be b5 9a 20 3d
       0.003842588 0.026011657 -0.1677837 0.03921004
000390 25 55 d3 3c 6d 1d c4 3d 09 29 4e 3e 6e 4a 93 bd
       0.025797436 0.09575925 0.20132841 -0.07191931
0003a0 23 63 41 bc f5 58 b3 3d 70 92 db 3d 2d 6f 9c bd
       -0.011803421 0.087572016 0.1072129 -0.076383926
0003b0 c0 0d 3a bd bc c6 7e be 89 a4 8d be 56 e6 46 bd
       -0.04542327 -0.24880499 -0.27664593 -0.04855951
0003c0 2c 41 19 3e 88 48 85 3d b8 fb 15 bd e4 13 89 bd
       0.14966267 0.06507975 -0.03661701 -0.06693247
0003d0 0c 77 8a 3d 1c 2f 19 3e 3a 71 0c 3e 40 c3 05 bf
       0.06760988 0.14959377 0.13715068 -0.5225105
0003e0 91 63 0a 3d b2 85 9d 3e c6 7d 2e 3d 95 7e 5e 3c
       0.03378636 0.30766064 0.042600416 0.013579984
0003f0 57 f1 ef 3c 1d f5 a8 bb 78 84 35 3c 24 2d 09 3e
       0.029289884 -0.005156173 0.011078946 0.13396126

VAE_Decoder.layers.1.linear1.bias f4 [4]
000000 81 8d 3d 3d 0f fe 4c 3d e6 9a bb bd 93 88 f8 3c
       0.046277527 0.050046977 -0.09160404 0.030338561

VAE_Decoder.layers.1.norm1.weight f4 [4]
000000 e0 eb b3 3f 27 7b a6 3f ad c4 a8 3f 75 5f a4 3f
       1.4056358 1.3006333 1.3185021 1.2841631

VAE_Decoder.layers.1.norm1.bias f4 [4]
000000 f6 b3 b1 3b 2c 15 a9 bd 9e 77 28 3e 10 b0 9f 3d
       0.0054230643 -0.08255991 0.1645188 0.07797253

VAE_Decoder.layers.1.norm0.weight f4 [4]
000000 cb 69 88 3f 24 c5 7e 3f 79 95 8f 3f 61 97 82 3f
       1.0657285 0.9951956 1.121749 1.0202447

VAE_Decoder.layers.1.norm0.bias f4 [4]
000000 55 5c 84 bd 39 e8 41 ba 74 05 d7 3d 3b 4d 79 3c
       -0.064629234 -0.00073969696 0.10499087 0.015216167

VAE_Decoder.last_normalization.weight f4 [4]
000000 00 00 80 3f 00 00 80 3f 00 00 80 3f 00 00 80 3f
       1.0 1.0 1.0 1.0

VAE_Decoder.last_normalization.bias f4 [4]
000000 00 00 00 00 00 00 00 00 00 00 00 00 00 00 00 00
       0.0 0.0 0.0 0.0

VAE_Decoder.head.weight f4 [4, 4]
000000 76 43 a8 be 00 e9 46 bd 24 3a e7 be 3e 32 87 3e
       -0.3286397 -0.04856205 -0.45161545 0.2640552
000010 00 ce 6e bd 40 a0 b4 3d 0e 50 eb be 1a 99 9d be
       -0.058301926 0.08819628 -0.45959514 -0.3078087
000020 20 52 dd 3d 44 b2 14 3e 34 e1 8f be b0 11 a0 3e
       0.1080668 0.14521128 -0.28101504 0.31263494
000030 86 01 85 3e 00 27 be 3b 98 6c 9e 3e ee 70 ed be
       0.25977725 0.005802989 0.30942225 -0.4637522

VAE_Decoder.head.bias f4 [4]
000000 04 cb 99 3e 58 57 83 be e0 67 87 3d c0 46 1d bd
       0.300377 -0.25652575 0.066116095 -0.03839755

Detokenizer.weight f4 [14, 4]
000000 11 41 5b 3e 37 58 1b 3f 7b ff de bd 65 66 94 3d
       0.2141154 0.6068148 -0.10888573 0.07246093
000010 79 cc 52 3e 14 ff f5 3d 7d c8 bb 3c 34 30 4c be
       0.20585813 0.12011543 0.022922749 -0.19940263
000020 98 95 34 3e 9b d8 88 3e 29 7c 07 bf cc 85 c5 be
       0.1763519 0.26727757 -0.5292383 -0.3857864
000030 15 17 4a 3e e4 59 0f be 09 ba af bd 82 e2 c8 3e
       0.19735368 -0.13999134 -0.08580405 0.39235312
000040 8e 9e 89 be a4 99 b0 3c f4 47 5d 3e fa 15 eb be
       -0.2687878 0.021557637 0.21609479 -0.45915204
000050 02 a4 d8 3d 2f 69 af 3c ef 67 ee 3c 2e 12 23 3e
       0.10578157 0.02141246 0.029102294 0.15924904
000060 a6 61 8d be 5f d3 80 be 38 9b f7 be ab 2c 60 3e
       -0.27613562 -0.25161263 -0.4836061 0.2189204
000070 d8 42 5a be 22 0f db bd e9 48 9d bd 10 69 9e 3e
       -0.21314561 -0.10696246 -0.07679922 0.3093953
000080 04 27 6e 3d 1c aa 2d 3e f9 cc 0e bf b3 e3 21 be
       0.058142677 0.16959423 -0.55781513 -0.15809517
000090 55 dd 00 3f 18 2c d2 3e 1d c2 c0 3e 22 13 10 3e
       0.50337726 0.41049266 0.37648097 0.14069799
0000a0 39 ba 58 be 2f bb 03 3c 2d dd ea be c4 49 13 bf
       -0.21164788 0.0080402335 -0.4587187 -0.5753443
0000b0 44 c6 5d 3e b3 cc e8 be 4d 4e 0f bf 79 66 c5 be
       0.21657664 -0.45468673 -0.5597885 -0.38554743
0000c0 32 97 07 bf 5a 6b a6 be 82 23 c3 3e 57 0c 47 be
       -0.5296508 -0.32503778 0.38113028 -0.19438301
0000d0 a9 c5 0b 3f 52 c0 a6 3e ca 0a d2 3d cd 0a f6 3d
       0.5459848 0.32568604 0.10255964 0.12013779

Detokenizer.cat_recons.0.weight f4 [2, 4]
000000 ee 7b 81 be 58 24 c8 be 26 59 e1 bd 2c 20 8a 3e
       -0.25289863 -0.39090228 -0.11003332 0.2697767
000010 44 88 2a be 8b 6b 91 be f5 0b 29 bd c2 3d c1 3e
       -0.16653544 -0.2840236 -0.04127117 0.3774243

Detokenizer.cat_recons.0.bias f4 [2]
000000 99 db 8e be 91 63 a6 3d
       -0.27901915 0.081244595

Detokenizer.cat_recons.1.weight f4 [7, 4]
000000 b5 6f c5 bd c7 69 2a bf 21 79 ba 3d 24 2a 40 3d
       -0.09640447 -0.66567653 0.09105135 0.04691519
000010 1d 01 b6 3e f8 12 69 3e d2 f7 f1 3e 1a f4 91 bd
       0.35547724 0.22761142 0.47259384 -0.07126637
000020 f9 55 b5 3d e1 22 bb 3e 3e 61 2b 3e 08 3f 04 3e
       0.088542886 0.36550048 0.16736314 0.1291467
000030 f3 82 f5 bd b4 a3 85 3e 74 97 30 be 91 69 be 3e
       -0.11987867 0.26101458 -0.17245275 0.37189916
000040 86 6a 30 be 4a de 94 3c 9c f6 4a bf 29 09 f1 3d
       -0.17228135 0.018172402 -0.79282546 0.11769325
000050 fa 8d 19 3d 70 c7 d2 bb 6b 62 87 3d c7 a9 b2 be
       0.037488915 -0.006432466 0.066105686 -0.34895155
000060 4c 34 65 3d fd c6 0f 3e 0b 91 e4 be 50 b4 e8 be
       0.055958077 0.14040752 -0.4464191 -0.45450068

Detokenizer.cat_recons.1.bias f4 [7]
000000 47 81 03 bf 88 2f 0b 3f a8 4a 5a 3d e3 65 df bc
       -0.51369137 0.543694 0.053293854 -0.027270263
000010 19 6d 82 be af 01 94 3d 07 ef ee be
       -0.2547386 0.072268836 -0.46666738

Detokenizer.cat_recons.2.weight f4 [4, 4]
000000 bb 96 02 bf 5c c7 f6 3d 3c f8 34 be 73 a9 f5 3c
       -0.51011246 0.120497435 -0.17672819 0.029988026
000010 c5 89 41 3f 7a f6 3c 3e 55 53 b8 3d f2 46 10 3f
       0.75600845 0.18453398 0.09000269 0.56358254
000020 9c ab bd 3e e5 04 a1 be 03 99 95 be 9e 71 ec be
       0.3704499 -0.31449047 -0.292183 -0.46180433
000030 ce f8 8e 3e 58 ed 65 be 54 f1 0f 3d 18 1b 88 3d
       0.27924198 -0.2245382 0.035142258 0.06645793

Detokenizer.cat_recons.2.bias f4 [4]
000000 58 3b d6 bd 69 d0 91 3d a3 c3 27 bd 3b 27 0d bf
       -0.10460538 0.07119829 -0.040958058 -0.55137986

Detokenizer.cat_recons.3.weight f4 [11, 4]
000000 29 f5 59 3c 7b 0b 58 bd ab 98 38 bf c3 ee c3 3d
       0.01330308 -0.052745324 -0.7210795 0.095670246
000010 3e 4e 73 be ba d5 bd be 2d ee f3 be 88 45 33 be
       -0.23760316 -0.37077123 -0.4764265 -0.17506993
000020 79 db cd be e5 1b 28 be fe 69 a0 bd 9d 0f da be
       -0.40206507 -0.16416891 -0.078327164 -0.42590037
000030 e1 7a f2 be a8 bf cb 3e 2e 83 7c be a4 7b 80 3d
       -0.47359374 0.3979466 -0.24659416 0.062735826
000040 a2 6f a7 be af 32 b9 be 64 6c fd bc f1 92 e7 be
       -0.32702357 -0.3617148 -0.030935474 -0.45229295
000050 8e a6 2a be 7f 8c e6 bd b4 4e 21 3d a3 ae 84 be
       -0.16665098 -0.11257266 0.039381698 -0.25914487
000060 66 c1 aa bd dd 20 86 3d 27 1e fb 3c 57 5e 48 3d
       -0.08337669 0.06549237 0.030654026 0.048918094
000070 e7 e8 e5 3b c3 86 bc 3e 4e 66 3f 3e 49 6d 12 3e
       0.0070162895 0.36821565 0.1869137 0.14299501
000080 db 70 f0 3e 61 07 8d 3e 3f 73 0e be 0d ed 01 3f
       0.46961102 0.27544692 -0.1391115 0.50752336
000090 24 3d 83 3e 84 8c c1 3e ff a1 c8 3e 5d 96 5f 3d
       0.25632584 0.37802517 0.39186093 0.054586757
0000a0 99 5c dd 3e 93 9c b1 3d b5 3c 94 3e 97 38 91 bd
       0.4323471 0.08672442 0.28952566 -0.07090872

Detokenizer.cat_recons.3.bias f4 [11]
000000 eb bd f5 3e 91 17 ac 3e c3 92 ce be ca 26 77 3f
       0.47996458 0.3361173 -0.40346345 0.9654356
000010 e2 35 92 be 2b c9 2f 3d 1e ad 23 3d 13 5c 7a be
       -0.28556734 0.042916458 0.03996002 -0.24449186
000020 78 05 b4 3d cc 67 e6 be 2c 7b c6 bc
       0.087901056 -0.45001066 -0.024228655

Detokenizer.cat_recons.4.weight f4 [11, 4]
000000 43 58 2b be d3 5f 0a 3f 1f 62 38 bf b4 2d f8 be
       -0.16732888 0.54052466 -0.7202472 -0.4847237
000010 9b 51 d2 be 73 6b 19 3f 6d ce be be 8c fc 28 bf
       -0.41077885 0.5992958 -0.37266865 -0.66010356
000020 da 65 dc bd 72 0e e3 bc b2 f3 80 3e 0c c7 e8 3e
       -0.10761614 -0.027716849 0.25185925 0.4546436
000030 80 a5 43 3d 92 8e ea be d4 5f 14 3d 64 fc 9f 3d
       0.047765255 -0.45811898 0.0362242 0.078118116
000040 c9 2f ca bd 15 ba b1 3e f7 59 7b 3e 78 27 0e bd
       -0.098723955 0.34712282 0.24546038 -0.03470561
000050 51 4b aa be 07 a5 1c bc 2f 4d 1d bd 6b 0b 06 3e
       -0.33260587 -0.00956083 -0.038403686 0.13090293
000060 da 3a 34 be 05 2b 57 3e a1 f7 55 be cb de 0c bf
       -0.17600575 0.21012504 -0.20895244 -0.55027455
000070 82 17 cf 3d 70 8c f0 bd 81 cc 8a be 65 10 da be
       0.10111906 -0.11745536 -0.2710915 -0.42590633
000080 0a 94 2a be 18 50 77 be 04 46 9a be ad 74 47 be
       -0.16658035 -0.24151647 -0.30131543 -0.19478102
000090 e5 e8 15 3f 12 24 3f be 98 b7 61 3e a3 e7 ea be
       0.58558494 -0.18666103 0.22042692 -0.4587985
0000a0 7b b2 8b 3e ce 18 3d bf 2a cd 01 3e 93 70 9a be
       0.27284607 -0.73865974 0.1267592 -0.30164012

Detokenizer.cat_recons.4.bias f4 [11]
000000 e7 15 95 3e 4b 87 38 bd b5 66 81 3c d4 65 82 be
       0.29118273 -0.0450509 0.015796045 -0.25468314
000010 45 ad 08 bf 4d 49 b3 be e6 f8 b8 be 0c af 3e 3c
       -0.5338939 -0.35016862 -0.36127394 0.011638414
000020 23 21 a3 3d d4 1f ff be a0 49 46 bf
       0.07965305 -0.4982897 -0.7745609

Detokenizer.cat_recons.5.weight f4 [11, 4]
000000 4e ad c6 3d bf 29 12 bf 2d 12 2e bf 1a 1a 04 bf
       0.09701024 -0.5709495 -0.67996484 -0.5160233
000010 b6 69 ae 3c 12 72 2a be f0 8b 97 bf c3 1a 02 be
       0.021290641 -0.16645077 -1.183958 -0.12705521
000020 0a b2 0d bf dc d7 5f 3e 60 3a b0 3e b0 8e 22 3d
       -0.5534979 0.21859688 0.34419537 0.03968686
000030 58 46 36 3e f2 a0 ca be 70 ef 90 3e bf 51 17 3e
       0.17800272 -0.39575917 0.28307676 0.14777277
000040 e8 6b 7d be cf 46 e9 3e d1 ac 2f 3d 15 39 55 be
       -0.24748194 0.45561835 0.04288942 -0.20822556
000050 e6 fd 33 be ac 63 cd be 78 87 a2 be 8f 96 66 bd
       -0.17577323 -0.40115106 -0.3174398 -0.056295928
000060 81 bc 82 3e 1f f3 7c be 80 be 52 be 31 b6 cc be
       0.25534442 -0.24702118 -0.20580482 -0.3998275
000070 39 69 2a be f4 07 52 bf 32 60 e6 3d 38 7e 9b bd
       -0.16641702 -0.82043386 0.112488165 -0.07592434
000080 4e f7 c8 3d b8 9a d5 be db 82 16 be 2a 06 06 be
       0.098127946 -0.41719604 -0.14698355 -0.13088289
000090 54 a7 81 3e d6 3b d3 be 59 77 6f bd 71 ad e9 be
       0.25322974 -0.4125659 -0.05846343 -0.45640138
0000a0 ed 18 30 3e 11 67 11 bf df 73 4e be 51 54 8c 3c
       0.17197008 -0.5679789 -0.20161389 0.017130049

Detokenizer.cat_recons.5.bias f4 [11]
000000 cf 43 ab 3d 59 3b 8d bd 4a 17 0b be cd 7f 11 bf
       0.08362543 -0.06896085 -0.13583103 -0.56835634
000010 be 8f 42 bd f9 fb 21 3e cb 5a ae 3e 93 fb 2e be
       -0.047500364 0.15818776 0.34053645 -0.17088155
000020 da f2 5a 3e 93 26 16 be 79 50 32 bd
       0.21381703 -0.14663152 -0.043533776

Detokenizer.cat_recons.6.weight f4 [11, 4]
000000 80 7e cc bc 34 b2 11 3e a0 5d b3 3e 72 8c 88 be
       -0.024962664 0.14228135 0.35032368 -0.2666965
000010 8d 01 51 be c4 2b 03 3b f2 6e f2 be aa 4d a6 bd
       -0.20410748 0.00200151 -0.4735027 -0.08120282
000020 12 f8 77 bd a3 c9 09 bf e0 fc 38 3e 75 b1 97 3e
       -0.060539313 -0.538233 0.18065214 0.29627576
000030 ca ec 37 3f 3d 97 2f be b5 e6 bb 3d 4a 94 1c 3f
       0.71845686 -0.17147537 0.09174863 0.6116377
000040 b3 d3 82 be 60 cc aa 3a be 74 f0 3e fb cc d1 3e
       -0.2555214 0.0013030879 0.46964067 0.409767
000050 1a 6b 32 3e ce 81 81 be b8 d7 d5 3e 0a 85 10 3d
       0.17423669 -0.25294346 0.41766143 0.035283126
000060 8e 2b 55 3e fe 4b 0b be ac d1 02 3f 19 64 50 3d
       0.20817396 -0.13603207 0.51101184 0.05087671
000070 80 d4 91 3e 79 fa 14 3f ee 3e 22 3e 1f 0a 05 3e
       0.28482437 0.5819469 0.15844318 0.12992142
000080 90 c2 e1 3e b8 42 ff 3e 91 ab c5 bd 8d 64 06 3f
       0.44093752 0.4985559 -0.09651864 0.5249718
000090 a7 af ac 3e 50 10 da 3e 3f 08 24 3f ea 50 93 bd
       0.33727762 0.4259057 0.6407508 -0.071931675
0000a0 13 07 01 3f 8c 06 f2 3e af 04 8f 3e 8a 27 09 3f
       0.5040142 0.4727062 0.2793326 0.53575957

Detokenizer.cat_recons.6.bias f4 [11]
000000 cf 16 10 3f 6e c7 f7 be 11 a3 13 be 5d 61 77 3e
       0.56284803 -0.4839434 -0.14417674 0.24158235
000010 2d 11 7e bc c7 75 d3 3e c7 fe 6f bd 20 ad a0 be
       -0.015507025 0.41300794 -0.058592584 -0.31382084
000020 3c eb 5e be 39 0c c3 be e7 d2 fb be
       -0.21769422 -0.38095263 -0.49184343

Detokenizer.cat_recons.7.weight f4 [10, 4]
000000 fb 8f 1b bd 1a fb b4 3e cc 96 18 be 29 04 53 bf
       -0.037979107 0.35347825 -0.14901274 -0.8242822
000010 ab fe 3e 3f fb 31 b9 3e bd 7b 45 bc 13 84 7a bd
       0.7460734 0.36170945 -0.012053427 -0.061161112
000020 42 27 2b be 66 74 22 bf 47 e5 08 bf 7b 5c f1 3e
       -0.16714194 -0.6345886 -0.5347485 0.4714087
000030 25 12 89 3b 99 0b a3 be 2c 53 e4 be 98 08 69 3e
       0.004183071 -0.31844786 -0.44594705 0.22757185
000040 b7 f6 d1 bd 65 25 21 be 30 aa 17 be 49 13 03 bd
       -0.10252135 -0.15736921 -0.14811015 -0.032000814
000050 93 2f 55 be b5 b4 33 3d 03 6c ec bc 2a aa 04 be
       -0.2081893 0.043873508 -0.028860098 -0.12955537
000060 ac c7 62 3e a1 be 6e be db c8 a5 3e 3a ae a1 be
       0.22146481 -0.23314907 0.32379803 -0.31578237
000070 a6 8e e3 be 57 1f 88 3c 2e 05 bb 3e e9 ee 77 3c
       -0.4444477 0.016616507 0.3652739 0.015132644
000080 71 15 0a be d3 f7 92 3e ce 41 ad 3d 95 bc ae be
       -0.13484742 0.287047 0.08459817 -0.34128252
000090 a2 44 ba be 80 a3 3b 3e a6 72 bc 3e f1 3e 4c 3e
       -0.36380488 0.18324089 0.3680622 0.19945885

Detokenizer.cat_recons.7.bias f4 [10]
000000 ef 23 29 bf 93 7e 66 3e c2 2e ba 3d 27 32 28 be
       -0.66070455 0.22509222 0.090909496 -0.16425382
000010 1b 10 89 bd c0 50 43 3e 02 d0 90 be 6d 4c f1 3e
       -0.06692525 0.19073772 -0.28283697 0.4712862
000020 77 5b 39 be 68 cc b8 3e
       -0.18101297 0.3609345
