tabsyn/vae/ckpt/default/encoder.pt (torch, 24682 bytes, 34 tensors)

Tokenizer.weight f4 [15, 4]
000000 e7 ad 00 3f 74 8e 6b be 31 cd 77 3e b1 40 72 bc
       0.50265354 -0.2300356 0.24199368 -0.014785931
000010 92 a3 93 3d 1d 2f d3 bc 2f 46 ac 3d ad 44 73 bc
       0.07208933 -0.025779301 0.08411824 -0.014847917
000020 69 06 81 bd 3d 1e 9a bd af b7 73 bd 9e 1e 8b bd
       -0.06300051 -0.07525299 -0.059501346 -0.06792949
000030 90 58 f1 3e 7a f9 27 3e 81 5f aa 3e 0d 3b 57 3e
       0.4713788 0.16403762 0.3327599 0.2101862
000040 fd ad 8a 3d 54 22 0a be e8 d6 24 3e 4f 75 98 3d
       0.06771467 -0.13489658 0.16097605 0.0744425
000050 71 16 fa 3a f2 3d 2b bf 80 a8 d7 bd 01 dc 69 3d
       0.0019080174 -0.66891396 -0.10530186 0.057094578
000060 87 de 1e 3e fc 60 70 be 10 6b b8 bd 84 9a 50 be
       0.15514575 -0.23474497 -0.090047956 -0.20371443
000070 ee 44 ab bd 82 0b 41 be af e3 09 3e dd 4c 24 be
       -0.08362757 -0.18852046 0.1346576 -0.16044946
000080 07 78 6b 3e 55 ee d6 bd b0 50 9c bb 79 0d 26 3e
       0.22995006 -0.10494677 -0.004770361 0.16216077
000090 19 fc cc 3e 57 75 99 3d 06 dd 84 3e c8 71 e1 be
       0.40036085 0.07493084 0.25949878 -0.4403212
0000a0 f5 4c 2a 3d e1 db 35 3e 75 46 4c bd 26 43 32 3d
       0.0415773 0.17759658 -0.04987188 0.04352107
0000b0 9c c7 79 3e 32 65 93 be ed 8e 7c bd 57 10 b4 be
       0.24392551 -0.28788143 -0.061659742 -0.35168716
0000c0 46 8e f6 3e ff 68 42 3d e2 e4 6d 3e 18 b0 a9 be
       0.4815542 0.047463413 0.23231843 -0.3314216
0000d0 62 ab d5 3e 6e a2 ac be 68 37 d4 be 39 fc 7e 3b
       0.41732317 -0.33717674 -0.41448522 0.003890766
0000e0 58 d3 b4 be d8 0d 96 3e 96 03 7e bd af 64 1e bf
       -0.35317492 0.29307437 -0.06201514 -0.6187238

Tokenizer.bias f4 [23, 4]
000000 3a 84 04 37 f2 c3 8b be 03 aa c6 3a 23 6c d7 3e
       7.8985995e-06 -0.27297932 0.0015156869 0.4207469
000010 6a b1 2a 3e 7a fd e1 3e 95 b9 02 3e b2 03 cf bd
       0.1666924 0.441387 0.12766106 -0.10108127
000020 6b fc 7a 3e e5 b4 eb 3c 81 95 f0 be 99 7b 07 bd
       0.24510352 0.02877278 -0.46989062 -0.033076856
000030 e8 32 ae 3e f1 c0 e6 3e e6 f3 e7 be 87 7b 59 3d
       0.34023213 0.45069078 -0.45303267 0.05309632
000040 00 31 dd be b6 8e d4 3c 04 2c 35 3e 80 73 14 3f
       -0.43201447 0.025946956 0.17692572 0.5798874
000050 cd 99 20 bf 5b 9e ad be 3a f0 6f 3e bf b2 a1 bd
       -0.6273468 -0.33909878 0.23431483 -0.07895421
000060 02 b9 87 be ba 06 6b bd 06 69 b6 be 00 08 a1 3e
       -0.26508337 -0.05737946 -0.35627002 0.31451416
000070 be 09 0a bf 7f 5d 53 3e cc 80 b5 3e b1 f6 db bc
       -0.53921115 0.20641135 0.35449827 -0.02685103
000080 ef bc 0d 3e 55 1f 5b 3e 70 63 be be b6 78 c5 3e
       0.13841604 0.21398671 -0.3718524 0.38568658
000090 2f 27 ff 3e c5 dc 0d 3e 55 c9 ab 3e 33 d6 c2 be
       0.49834582 0.13853748 0.33552042 -0.38054046
0000a0 f7 8d cc be 2c d4 ee ba 1e c0 5b 3e 6a 9d 44 be
       -0.3995206 -0.0018221191 0.21460006 -0.19200674
0000b0 78 4e 24 bd 36 ec 8b 3e 8b 71 0e 3f 66 da 5d bb
       -0.040113896 0.27328652 0.55642 -0.00338521
0000c0 d6 08 d6 3e 79 a7 60 3e 81 6f f0 be d2 22 91 be
       0.41803616 0.21938886 -0.4696007 -0.28346878
0000d0 bd 63 35 bb 50 46 b9 be a6 73 6d 3e 1b 54 61 3e
       -0.0027677857 -0.36186457 0.23188648 0.2200474
0000e0 01 3d d4 bd d1 9d b8 3e ed 05 55 bd ac 0d e8 3e
       -0.10363198 0.36057904 -0.052007604 0.4532293
0000f0 14 ed af 3e 0a 8c 9c be 23 e0 08 bf b0 38 8a 3e
       0.34360564 -0.3057559 -0.53467005 0.26996374
000100 09 6d 1e be 35 e4 6c 3e 3a 3d cd 3e 6d fa c6 3d
       -0.15471281 0.23133929 0.40085775 0.09715734
000110 55 72 db 3e 90 76 96 3d 86 de e4 bd 5d f6 29 3e
       0.42860666 0.07346833 -0.111752555 0.16597886
000120 36 d2 72 be 81 d7 7b 3e 52 72 90 3e 45 c2 5c 3e
       -0.23713002 0.24593927 0.2821222 0.21558483
000130 77 d9 1b 3e 50 d8 b8 3e a9 b9 f0 be 76 d9 0a be
       0.15219675 0.36102533 -0.47016647 -0.13559517
000140 24 33 ae 3d e3 36 bc 3e 3d 09 73 bc 3f 7d 98 3e
       0.08505848 0.36760625 -0.014833746 0.29783055
000150 7d 34 10 be 2e 98 92 bd b3 7e 97 3e d7 1b 8e be
       -0.14082523 -0.07157932 0.2958885 -0.27755615
000160 27 8a 39 3e 60 86 99 3e da 31 06 3e b7 b8 19 3e
       0.18119107 0.29985332 0.13104954 0.1501187

Tokenizer.category_embeddings.weight f4 [77, 4]
000000 55 a5 70 be 50 82 de be 09 02 8a 3c 1a c7 71 3e
       -0.23500569 -0.43458796 0.016846674 0.23611107
000010 8a 80 40 bd 6e b8 6d be ec f3 c4 3e 26 9c b6 bc
       -0.046997584 -0.23214886 0.38467348 -0.022291254
000020 6e 58 10 3e 62 b0 28 be 7c df c6 3e 0c 89 25 3e
       0.14096233 -0.16473535 0.3884238 0.1616556
000030 59 07 76 be 32 c4 37 3d 90 e0 57 3d 74 10 41 3e
       -0.2402624 0.04486484 0.052704394 0.18853933
000040 d6 4a a2 bd 67 44 97 bd 5f 78 05 3e ea 0d 63 3e
       -0.0792443 -0.073860936 0.13034199 0.22173277
000050 ef 30 a8 be 5f 00 19 3d 63 54 37 bd c8 6d 09 3e
       -0.32849833 0.03735387 -0.04475821 0.13420784
000060 76 6f d8 be 3c 99 e3 3c 5d c9 f7 bd 10 cb 92 3d
       -0.42272538 0.027783029 -0.12098954 0.07167637
000070 82 70 0f bf b2 3a b1 bc 15 d9 67 be 4d 28 30 3e
       -0.5603105 -0.021634433 -0.22641404 0.17202874
000080 41 36 8e 3e 5e 89 1b bf 36 0a 7c 3e f3 6b b3 3e
       0.27775767 -0.6075648 0.2461327 0.35043296
000090 e2 78 01 bf ea 48 a0 be 77 70 65 3b 4c 3e 84 3e
       -0.5057508 -0.3130563 0.0035009661 0.2582878
0000a0 d7 4f 9a be 6c 54 96 be 08 c5 68 3e 69 e9 5e bd
       -0.30139038 -0.29361284 0.22731411 -0.054421816
0000b0 2e 33 83 be 5f 72 6c be 62 53 c9 3e 6b ae 8e be
       -0.25624985 -0.23090504 0.3932143 -0.27867445
0000c0 21 d1 02 3d dd 74 ff 3d d7 5a 54 3f 60 e2 8e bd
       0.031937722 0.12473462 0.8295111 -0.06976771
0000d0 ff dc ad 3e 29 37 44 bd d5 b5 f6 be 5d 1d 0e be
       0.3395767 -0.047904167 -0.48185602 -0.13878389
0000e0 66 0b 7e bc f8 e9 4c bd 76 ac bf bd 70 5b 96 be
       -0.015505647 -0.050027817 -0.09359066 -0.29366636
0000f0 ae 80 a6 bb b7 1d f6 3d 46 ee 72 3d c4 72 83 be
       -0.005081258 0.120173864 0.059309267 -0.25673497
000100 61 92 51 3e 85 0d f8 3d 69 52 05 be 3c a6 9d be
       0.20465995 0.12111954 -0.13019718 -0.3079089
000110 fa 30 99 be 9e 6f c4 be fd cb cd be 57 89 bb bc
       -0.2992018 -0.38366407 -0.40194693 -0.022892637
000120 79 54 58 3e c8 44 9e bd c3 b8 a3 be 3f 64 8b bd
       0.21125974 -0.07727963 -0.319769 -0.0680623
000130 fa 3a 41 3e b2 bf 03 3f 08 c4 2e bc f3 17 8d ba
       0.18870154 0.5146438 -0.010666855 -0.0010764584
000140 2c 18 4b be c0 cf 14 3e 38 3c f8 3d 23 23 5e 3e
       -0.1983344 0.14532375 0.12120861 0.21693091
000150 3b d6 b3 3e 48 c1 ec 3e 29 7c 94 3e 24 bb 50 3d
       0.35124382 0.46241212 0.29000977 0.05095972
000160 42 5c d2 bd b3 07 cd 3e fc 53 c2 bd 8f 93 84 3e
       -0.10271503 0.40044937 -0.09488675 0.25893828
000170 77 0c 01 bd 43 8d 74 be fd 35 0f 3e a8 fa ca be
       -0.031506028 -0.23882012 0.13985439 -0.3964436
000180 fe 88 d6 be de 65 12 3e 74 8a cc be bb 7e 56 3e
       -0.41901392 0.14296672 -0.3994938 0.20946781
000190 94 5b 15 be 71 22 77 bc ec 93 9f be 52 1b b5 3e
       -0.14585716 -0.015083895 -0.31167543 0.35372406
0001a0 b7 b7 e3 3e 68 45 a0 3d e3 1e e1 3e ec e7 03 3e
       0.444761 0.07825738 0.43968877 0.1288144
0001b0 16 8c a7 be 8a 9c eb be 96 86 42 be 93 26 a5 3d
       -0.32724065 -0.46017867 -0.18996653 0.08063998
0001c0 71 40 dc 3e 7f 72 0c bc 34 3d a5 3e e8 2c 45 3e
       0.43017915 -0.00857222 0.32273257 0.19255412
0001d0 f8 12 f8 3e 47 f4 8f be b8 21 7e 3d 7f fc cd 3d
       0.48451972 -0.28116056 0.062043875 0.100579254
0001e0 8f 11 b7 b9 cf 7c e9 3c ba ff a7 3d a2 07 b5 3e
       -0.00034917562 0.028501896 0.08203073 0.35357386
0001f0 ac fc b4 be 35 a3 f2 bd f1 25 ed 3a 90 19 55 3e
       -0.35349023 -0.118475355 0.0018092972 0.20810533
000200 dc c7 96 be c0 f9 cd 3e 78 f9 ae 3e 98 71 89 3e
       -0.29449356 0.40229607 0.34174705 0.26844478
000210 b1 f3 23 3e 10 c5 e3 bd 20 af 8a 3c a8 bd a8 3e
       0.1601093 -0.11121571 0.01692921 0.32957196
000220 73 1e 96 3e 0d 02 aa be 56 e3 b0 3c 31 60 a4 3d
       0.29320106 -0.3320469 0.021592777 0.080261596
000230 08 b6 b3 3d 31 f8 cb 3d c7 6a 1f 3e 67 e0 0b be
       0.08774954 0.09959448 0.15568076 -0.13659821
000240 d1 c9 ca 3e e3 4a b2 3e ba 8c a8 3e 01 2f 88 3e
       0.396071 0.3482276 0.32919866 0.2659836
000250 c5 2e a8 3e 06 59 99 be 4b 3f e9 3e 10 68 ff be
       0.32848182 -0.29950732 0.455561 -0.4988408
000260 9a 65 d8 3e 9d 3e c2 be 01 b6 04 3f 01 60 37 bf
       0.42265016 -0.37938395 0.51840216 -0.71630865
000270 ef ac 7c be 66 09 9e 3e 8b 22 6c 3e 35 e9 b5 3e
       -0.24675344 0.30866545 0.23060052 0.35529485
000280 15 bf 97 bd b0 4f 9a 3e 11 58 56 3d 47 b9 f9 3d
       -0.07409493 0.30138922 0.05233008 0.12193542
000290 da 02 75 be f8 cb 65 3e 29 ff 7f 3e 21 8e 62 be
       -0.23926869 0.22441089 0.2499968 -0.2212453
0002a0 72 51 6e 3e 40 89 c7 3e 7b 46 9a be de 76 82 be
       0.23273256 0.389719 -0.30131897 -0.25481313
0002b0 06 e8 22 3d c9 30 00 be 78 15 79 3e 7c e4 aa be
       0.039772056 -0.1251861 0.24324596 -0.33377445
0002c0 97 90 75 bd 71 65 3e 3d f0 e0 7e be 7c 3e 04 bf
       -0.059952345 0.04648346 -0.24890494 -0.51657844
0002d0 5b 7a b2 3d b6 00 ac 3e ba c0 08 3c d3 e7 2e bf
       0.08714744 0.33594292 0.008346731 -0.68322486
0002e0 7e 7b 28 3c 43 fc 4a 3f 88 aa ae 3d 74 c4 01 be
       0.010283349 0.7929117 0.0852862 -0.12672597
0002f0 25 a9 70 3e 42 ee 2d 3e 8e c0 11 bf e4 cd 5f 3f
       0.23502024 0.1698542 -0.5693444 0.8742354
000300 84 f3 91 3e 8e 72 44 be e9 8c a5 be 13 7f 6c be
       0.285061 -0.19184324 -0.32334068 -0.2309535
000310 5a 14 70 3e d7 71 2d bf ea 33 0c be 94 bf be bd
       0.23445264 -0.6775183 -0.13691679 -0.093138844
000320 19 f7 a6 bd e2 bd 47 bc a0 da 1a 3e 61 93 4b bf
       -0.08152599 -0.012191268 0.15122461 -0.7952176
000330 dd 27 2d be ab d0 9c bd 5a 26 38 3e 85 f7 9e 3d
       -0.16909738 -0.07656988 0.1798338 0.07762054
000340 9d 83 ec be a6 e8 60 3f 54 ff 76 3e 74 42 f0 bc
       -0.46194163 0.87854993 0.24120837 -0.029328562
000350 71 b1 8a be a5 00 db 3e 5e ab 05 be b4 c6 c5 3e
       -0.27088502 0.4277393 -0.13053653 0.3862816
000360 1a 92 85 be 4e ae 0d 3f b8 b2 17 3d 1a 7e 01 bf
       -0.2608803 0.5534409 0.037035674 -0.5058304
000370 93 e0 3e be 09 bb 6d be 75 d4 e6 3e cf 14 9c 3e
       -0.18640356 -0.2321588 0.45083967 0.30484626
000380 8c 98 de 3e 67 ff dd be 95 2c 54 bf 3d 87 e3 3e
       0.4347576 -0.4335892 -0.82880527 0.44439116
000390 b2 f4 f4 3e 39 40 4a bd 7f f9 15 be c7 3d 94 bd
       0.47842938 -0.049377654 -0.14645956 -0.072383456
0003a0 bd 5d 47 be af 07 97 3e e9 d8 ea 3d f6 27 84 3e
       -0.19469352 0.2949805 0.114671536 0.25811738
0003b0 81 f7 62 be f6 6e 88 be a3 3a 87 3e c8 85 fd 3d
       -0.22164728 -0.26647156 0.26411924 0.123790324
0003c0 61 0c 51 3e 4e 7a 28 3f c3 6b fc 3e aa e4 52 be
       0.20414878 0.6581162 0.49300966 -0.20595041
0003d0 6e ed 7c 3e ba c2 86 be 50 fb 88 be a9 6d fc 3c
       0.24699947 -0.2632044 -0.26754236 0.030814009
0003e0 51 3c 0d 3f 16 c8 83 be c4 c2 3b be 1e 48 fa bd
       0.5517016 -0.2573859 -0.18336016 -0.122207865
0003f0 56 f8 ce 3e 50 8c ac be e2 96 f4 be 65 8a 60 be
       0.4042384 -0.337008 -0.47771364 -0.21927793

VAE_Encoder.layers.0.attention.W_q.weight f4 [4, 4]
000000 e0 30 49 be bb 63 36 3f c8 51 0e bf cf 75 96 3e
       -0.1964755 0.71245927 -0.5559354 0.29386756
000010 c3 fb 0f 3e fc c6 47 3d c0 f0 75 3e ac 30 da 3e
       0.14060883 0.04877375 0.2401762 0.4261526
000020 9d 13 81 3e d6 b7 49 be 0d ee ac 3e a8 b1 01 3f
       0.25210276 -0.19699034 0.33775368 0.50661707
000030 b8 b4 2c 3f 3c 6d 20 bf da 3d f5 bd b3 d5 93 be
       0.67463255 -0.6266668 -0.11974688 -0.28873977

VAE_Encoder.layers.0.attention.W_q.bias f4 [4]
000000 b4 59 13 be 80 e4 39 3e 07 3b 03 3e 73 80 44 3e
       -0.14389688 0.18153572 0.12815486 0.19189624

VAE_Encoder.layers.0.attention.W_k.weight f4 [4, 4]
000000 cc 7e cf be bc ac e5 be 04 fa 6d 3e 81 f3 0b bf
       -0.40526426 -0.44858348 0.23239905 -0.5466843
000010 70 1c 68 3e 67 fb 0a 3f 51 83 cc 3e 66 bf 17 3f
       0.22667098 0.5428986 0.39943936 0.59276426
000020 20 25 a3 bd 4b 2f e1 bd fe 85 c0 bb 41 b1 17 3f
       -0.079660654 -0.109953485 -0.005875348 0.59254843
000030 0a f3 0f bf f9 7b 80 3c c3 6b 1d 3d e9 3e b1 3e
       -0.56230223 0.015684115 0.038432848 0.3461831

VAE_Encoder.layers.0.attention.W_k.bias f4 [4]
000000 90 cd 53 39 b7 73 d4 bb 2a df 87 bb 28 28 87 3c
       0.00020199106 -0.006483521 -0.0041464763 0.01649864

VAE_Encoder.layers.0.attention.W_v.weight f4 [4, 4]
000000 7e fa e8 3e 50 61 06 bf 49 33 a7 3d 1a 20 0d 3e
       0.4550361 -0.5249224 0.08164079 0.13781777
000010 91 89 1a be 5b d6 5d 3e 0c eb 15 bd f4 a1 15 3e
       -0.1509154 0.21663801 -0.03660111 0.14612561
000020 6d 8e be be 1b db 68 3e 53 61 e0 bd 6e da cc be
       -0.37218037 0.22739832 -0.10956063 -0.400104
000030 9a c7 22 be f5 88 b9 bc e8 31 b4 3e 3e 4c fa 3e
       -0.15896454 -0.022648314 0.35194325 0.48886293

VAE_Encoder.layers.0.attention.W_v.bias f4 [4]
000000 cf 75 70 bc 5c de 58 3d 2d b7 4d bc 0f 0f e4 bb
       -0.014676525 0.052946433 -0.01255588 -0.006959803

VAE_Encoder.layers.0.linear0.weight f4 [128, 4]
000000 db af e5 bd a7 07 a8 be d2 5e 2c 3e 48 6e fe bc
       -0.112151824 -0.32818338 0.16833046 -0.031058446
000010 72 4c 06 3f f4 56 90 be 50 80 81 3e 5b 2f bc be
       0.52460396 -0.2819134 0.25293207 -0.3675488
000020 4f 31 c5 3e 33 ef a7 be 50 ad 37 3b 1a 4d cd 3d
       0.38514182 -0.32799682 0.0028026886 0.100244716
000030 fb b3 cd 3e 02 ce 8f 3e 89 66 b1 bd ca bb a0 bd
       0.40176377 0.2808686 -0.08662135 -0.07848318
000040 80 13 3d be c0 c4 f1 bd c0 64 7d be 38 16 e1 bd
       -0.1846447 -0.11805105 -0.24745464 -0.10990566
000050 fb 9e 07 3f db 1a e5 be 0e 66 6b bd 54 65 85 be
       0.5297696 -0.44747052 -0.057470374 -0.2605387
000060 48 27 fd 3c 45 08 b0 3e 0d fe 66 3d d6 20 a9 3e
       0.03090252 0.3438131 0.056394625 0.33032864
000070 8e 4c 39 3e 45 a3 a6 3e 44 88 a0 3e c9 ac d6 3e
       0.1809561 0.3254644 0.31353962 0.419287
000080 34 16 b6 3e 36 aa d2 be 51 0c 9f be 61 69 d2 be
       0.35563815 -0.41145486 -0.31064084 -0.41096023
000090 30 1b 98 bd 62 fd 89 3e 04 5c 9e 3e f9 74 02 3b
       -0.074270606 0.26951128 0.30929577 0.0019906147
0000a0 3e f8 5c bc 60 01 cf be 27 5f a8 3d bd 62 a6 3d
       -0.01348692 -0.40430737 0.08221274 0.081243016
0000b0 3b be 86 be e9 56 e7 be 84 73 8e 3e a5 8a fa 3d
       -0.2631701 -0.45183495 0.27822506 0.122334756
0000c0 49 52 48 be af 85 d2 be c4 ff 3d be bf fb 8d be
       -0.1956264 -0.41117617 -0.18554598 -0.2773113
0000d0 54 74 c7 3e 02 ee 32 3e 4a 16 12 3e 21 69 de be
       0.3895594 0.17473605 0.14266315 -0.43439582
0000e0 bc f1 b2 be 35 e8 b5 3e e9 b3 b1 3e 60 50 65 3d
       -0.34950054 0.35528722 0.34707573 0.055984855
0000f0 bb 8e a7 be b8 60 74 be 66 a6 cd 3e 97 3f 65 be
       -0.32726082 -0.2386502 0.40166014 -0.22387539
000100 c3 d2 c8 be 3f 58 e1 be b4 7d bf be 2e 47 bb be
       -0.39223298 -0.4401264 -0.3740059 -0.36577743
000110 51 d6 34 be 9d ae 44 3d 8d 12 86 3e 86 73 60 be
       -0.1765988 0.048018087 0.26186028 -0.21919069
000120 b0 1b d7 3e 52 b3 95 bd 7c 1e 69 be 07 46 15 3d
       0.4201331 -0.07309593 -0.22765535 0.036443736
000130 f8 59 c3 bd f2 ee fd 3d 3e 95 0b bf 9d 1c 94 be
       -0.095386446 0.12399091 -0.545246 -0.2892808
000140 4a 30 e2 bd 04 f4 e5 3e a2 01 1c be 8e f3 df 3e
       -0.11044367 0.44912732 -0.15234998 0.43740505
000150 20 aa 86 be ed ca a2 be 0a ce 09 be b0 17 c9 bd
       -0.2630167 -0.31795445 -0.13457504 -0.09818971
000160 f3 db 02 be f3 65 ef bd c1 b2 23 3e 58 cc e7 be
       -0.12779216 -0.11689367 0.15986158 -0.4527309
000170 8d 37 9d 3e 83 2f 78 3e a8 fd 99 be ac 77 c9 3e
       0.30706444 0.24236874 -0.30076337 0.39349115
000180 e6 06 ce be 5e 02 8f bd a9 77 d0 be 9a 70 8d be
       -0.40239638 -0.069828734 -0.40716293 -0.2762497
000190 5f 02 bd be 30 50 ac 3e 49 63 dc 3e e9 f0 ea be
       -0.36915872 0.33654928 0.430445 -0.45886925
0001a0 98 4b 69 be 11 7e 33 3e f3 a9 b1 bc 45 12 0c bf
       -0.22782743 0.1752856 -0.021687483 -0.5471538
0001b0 3e 72 33 3e 22 1a a3 3e 48 08 d0 3c 69 e2 bf be
       0.17524049 0.31855875 0.025394574 -0.37477425
0001c0 ef d7 ac 3e 87 31 d3 be ce a6 a7 be 19 10 81 be
       0.33758494 -0.41248724 -0.3274445 -0.25207594
0001d0 05 c4 01 3f 21 26 35 3e 54 0e fa be f3 b6 f7 bd
       0.5068973 0.17690326 -0.48839056 -0.12095442
0001e0 36 2a 79 3e 69 4b 50 be 4d d3 4e 3e 18 3c 24 be
       0.24332508 -0.20341267 0.20197792 -0.16038549
0001f0 4f 1c e0 be f8 04 97 3d b8 bd 3f be b2 00 96 3e
       -0.43771598 0.073739946 -0.18724716 0.29297405
000200 ed 0f 64 be 7c 98 5c 3d 8b 73 b3 bd e8 3d 34 bf
       -0.222717 0.053856358 -0.087622724 -0.7040696
000210 64 3b 0f bf 1f 79 c5 be 14 28 c1 3e 83 dc 8b bc
       -0.5595 -0.3856897 0.3772589 -0.017072922
000220 7b 24 42 3e 20 69 26 3e 06 14 95 bd 15 20 ab be
       0.18959229 0.1625104 -0.0727921 -0.33422914
000230 fc 79 45 be c1 03 78 be b2 49 3e 3e bd 33 3f bd
       -0.19284815 -0.24220182 0.185828 -0.0466802
000240 20 64 dc 3d 25 07 18 bc c7 ed dd be 68 35 a1 3e
       0.10761285 -0.009279047 -0.43345472 0.31486058
000250 fb 6f b2 be 25 5a 5b be 30 0d 03 3e 70 63 3a 3d
       -0.3485106 -0.21421106 0.12798 0.045504987
000260 2e 40 95 3d f0 d1 07 be 4d 33 5a be 36 9a ea be
       0.07287632 -0.13263679 -0.21308632 -0.4582078
000270 89 24 89 3e e8 54 0e bf 2b 52 ec be f8 10 e4 be
       0.26785687 -0.55598307 -0.4615644 -0.44544196
000280 f2 79 69 be 77 11 cf 3d 93 60 75 be e7 a0 03 3e
       -0.22800425 0.10110753 -0.23962621 0.12854348
000290 8b c3 07 be 2c 3d 46 3d fd 28 91 3e 10 b0 bc 3e
       -0.13258187 0.04839818 0.28351584 0.36853075
0002a0 8f 6f 58 3c a7 b9 c3 be 24 f0 00 3f 49 37 a9 be
       0.013210191 -0.3822758 0.50366426 -0.33049992
0002b0 3c 7d 9d 3e 53 89 ba 3e 3e 62 90 3e 8b 12 55 be
       0.3075961 0.36432895 0.28199953 -0.20807855
0002c0 d0 f4 ec be 67 f2 33 3e 36 ca 83 be ea 63 f0 be
       -0.46280527 0.17572938 -0.25740212 -0.46951228
0002d0 ce 44 67 be a8 3a c2 be ed 8a fc 3d a4 5c db 3b
       -0.2258484 -0.37935376 0.123311855 0.006694393
0002e0 b3 d4 f1 3d de 21 7f be 2d 41 8f bc 4f 8f 7b bc
       0.11808147 -0.24915263 -0.017487133 -0.015353992
0002f0 c8 a9 9d 3e 5a 3d de be ec 0a 35 be d9 7c 65 be
       0.30793595 -0.43406183 -0.17679948 -0.22410907
000300 15 a0 8e 3e 14 49 00 3f 40 bd be bd cd 12 cc 3d
       0.27856508 0.5011151 -0.0931344 0.099645235
000310 b1 d7 17 be 7e 14 e0 be 19 15 1b be 69 39 a9 3e
       -0.14828373 -0.43765634 -0.15144767 0.33051613
000320 35 d5 c1 3b 16 ab a7 3e 99 b8 bb 3e 27 0e ad 3e
       0.005915309 0.32747716 0.36664274 0.3379986
000330 44 a6 e2 3e 2b fe 08 3d d2 0e 80 be 2e d5 03 bf
       0.44267476 0.03344552 -0.25011307 -0.5149716
000340 2e a9 c1 3e 9e d1 e5 3e 1c 41 1f 3b be e3 06 3f
       0.37824386 0.44886488 0.0024300283 0.52691257
000350 b7 66 b2 3e d1 85 a6 3e e3 d5 2c 3e 90 9b ac be
       0.3484399 0.3252397 0.16878466 -0.33712435
000360 a7 52 19 bf d2 ec 46 3d 91 39 bd 3e 92 5f 6f 3e
       -0.5989174 0.048565693 0.36957982 0.23376301
000370 b3 d7 ba bd 5c b3 41 3e fc 9a 81 be e9 1a 4d be
       -0.091231726 0.18916076 -0.25313556 -0.20029797
000380 17 ab 63 be e7 63 b5 be ae 7d db 3e bb 6e f8 3e
       -0.22233234 -0.35427782 0.42869323 0.4852198
000390 fb 92 81 3e 07 75 a4 be 1e 71 82 3e 4b 98 3c 3d
       0.2530745 -0.32120535 0.25476927 0.046043675
0003a0 86 3a 99 be d1 2b ff bd 96 54 b3 3c 40 52 3e bc
       -0.29927462 -0.12459529 0.02189092 -0.01161629
0003b0 6a 53 b0 be f7 4c 16 3e e2 43 d0 3e bc be 64 3e
       -0.3443864 0.14677797 0.4067679 0.22338384
0003c0 82 31 4e 3c ff 8f f5 3e 7d ee 4b 3e 41 87 8e 3e
       0.012585046 0.47961423 0.19915195 0.27837566
0003d0 c1 22 36 be 0b 01 f1 bc 65 d2 18 be 68 74 0a bf
       -0.17786695 -0.029419443 -0.14924009 -0.5408387
0003e0 c4 2b 95 bd 4b ad b3 3e a6 a5 e6 be 71 f9 fc be
       -0.07283738 0.3509315 -0.45048255 -0.4940906
0003f0 0e 79 91 bc bc a1 92 3e 38 6b 61 be 49 a4 c1 be
       -0.017757919 0.2863902 -0.22013557 -0.37820652

VAE_Encoder.layers.0.linear0.bias f4 [128]
000000 55 54 e3 3e 27 94 88 be 92 62 f8 be b5 f5 15 be
       0.44400278 -0.2667553 -0.48512703 -0.14644511
000010 6a 7d 83 be a4 f6 26 be 35 12 c9 be 12 6f 8c 3e
       -0.2568162 -0.16305023 -0.39271703 0.2742849
000020 1a e4 b4 be ee 3b 04 3e 67 6c 21 be 9a 84 fc bd
       -0.35330278 0.12913486 -0.15764008 -0.12329979
000030 39 47 c6 3e 2b c5 a8 be b7 1f 97 be e9 32 95 3e
       0.38726214 -0.32962927 -0.29516384 0.29140404
000040 d4 f0 ef bd cb fd 69 3e 94 15 80 bd 55 1a 26 3e
       -0.11715856 0.2285072 -0.06254116 0.16220982
000050 f2 72 b8 bb d6 63 d5 3e bd 26 5a be 9d 65 ab be
       -0.005628937 0.4167773 -0.2130384 -0.33475962
000060 20 fd dc 3e a2 ca a0 be 70 c2 05 bf a3 ce 2e be
       0.4316187 -0.31404597 -0.52249813 -0.17071013
000070 5a 3c 51 be 75 58 ad be 42 f9 fe bd d3 0c 93 bd
       -0.20433179 -0.3385655 -0.12449886 -0.071801804
000080 54 91 aa be bf 1e e5 be 52 06 8c 3e 79 8d 9d 3e
       -0.33314002 -0.4475002 0.27348572 0.30771998
000090 44 30 32 3e d9 88 71 3e 2b ef 97 be 4b b7 e9 be
       0.17401224 0.2358736 -0.29674658 -0.45647654
0000a0 bf e0 5d 3e 68 aa 9e be 93 9b e6 3e 1c a5 83 bd
       0.21667765 -0.30989385 0.4504057 -0.064279765
0000b0 0b fb 89 3e dd 5c de bd a5 f6 e5 3e 87 5c 0c be
       0.26949343 -0.10857556 0.44914737 -0.13707171
0000c0 6f fd 06 be 39 78 49 3e 02 d6 4c 3e 3c a9 c1 3e
       -0.13182615 0.19674768 0.20003513 0.37824428
0000d0 bc c9 57 be 90 d0 e3 bd 87 5a c5 3e 37 98 87 be
       -0.2107305 -0.111237645 0.3854563 -0.26483318
0000e0 27 48 24 bd aa d7 90 bb b4 e2 c4 be b0 ff 51 be
       -0.040107872 -0.0044202404 -0.3845421 -0.20507693
0000f0 b0 c9 32 3e 3a e0 1e be 54 e6 b2 be b4 af 8d be
       0.1745975 -0.15515223 -0.3494135 -0.27673113
000100 5b 11 4f 3e 84 bd c9 3d 30 73 b9 3e 5b 6d 9f 3d
       0.20221464 0.098506 0.36220694 0.0778453
000110 35 a8 0c 3e 4d d8 cc bd c6 a2 ae 3e c8 31 d6 bc
       0.13736041 -0.100021936 0.3410856 -0.026146784
000120 41 71 03 3f 21 94 de 3e f5 01 bd be 8a d8 ca be
       0.51344687 0.43472388 -0.36915556 -0.3961833
000130 ec 08 e0 be bb 14 91 3e d0 02 b3 3c 62 59 c8 bd
       -0.43756807 0.2833613 0.021851927 -0.097826734
000140 73 07 90 be 73 1b 04 bf d0 e4 cf be ac df df 3e
       -0.28130683 -0.51604384 -0.40604258 0.43725336
000150 e3 4f d5 be 9c ff 20 bd 9c d8 51 bc 7f 14 32 be
       -0.4166251 -0.039306268 -0.012807991 -0.17390631
000160 28 95 45 3e e7 c9 16 3e 96 5f 00 3e 21 e1 67 3e
       0.1929518 0.14725457 0.12536463 0.22644474
000170 a1 38 ec bd e1 ae 51 bd 50 b1 b1 be 33 d3 a7 be
       -0.115342386 -0.05119217 -0.3470559 -0.3277832
000180 6e 02 8b be dd 33 dc be 2d 4d 35 be 51 bd 9c be
       -0.2715029 -0.4300832 -0.17705221 -0.30613187
000190 a9 22 0a bf db c5 09 bf 23 0c 90 3d 2b 1b 34 be
       -0.5395914 -0.5381753 0.07033565 -0.17588489
0001a0 b7 fe d2 be 38 cb c6 be c3 1e 91 3e 65 df 78 bd
       -0.41209957 -0.3882692 0.28343782 -0.06075992
0001b0 20 27 38 be 28 48 b1 3e 39 e2 a3 bc 74 cc 82 be
       -0.17983675 0.34625363 -0.020005332 -0.2554661
0001c0 b8 67 e4 be cf 4c 08 bf ad dd ff 3c 90 1e 0e 3e
       -0.4461038 -0.532422 0.031233633 0.13878846
0001d0 d1 75 48 be 52 49 46 3e 1d 18 d2 be 3c 54 0b be
       -0.19576193 0.19363907 -0.41034022 -0.13606352
0001e0 08 d3 d7 3e 24 bd ea 3e 39 96 d6 3e af b5 ad be
       0.42153192 0.45847428 0.41911486 -0.33927676
0001f0 59 26 9f 3e 02 f8 db be 31 c4 86 3e b5 19 f1 be
       0.31083944 -0.42962652 0.26321557 -0.47089925

VAE_Encoder.layers.0.linear1.weight f4 [4, 128]
000000 5f 24 dd 3c 8b 8b 9e 3d 62 47 05 3d e0 ec a7 3c
       0.026994882 0.077414595 0.03253878 0.020498693
000010 8d 70 35 bd 04 00 9f bd c1 3b 0c be c6 8b f5 3c
       -0.04429679 -0.07763675 -0.1369467 0.029973876
000020 9c 08 20 3d 62 9a df 3c 81 81 76 bc 81 2e b8 bd
       0.03907071 0.027295295 -0.015045525 -0.08993245
000030 d3 2e a3 3d 23 85 c9 3d 5e 68 84 3c f3 12 de bd
       0.079679154 0.09839847 0.016163047 -0.10843458
000040 66 68 d5 3c 10 b3 14 bd a3 0b b0 3d 9c 20 23 3c
       0.026050758 -0.03630358 0.085959695 0.009956505
000050 07 a4 01 3e 96 ba 83 bd bc 13 e7 bd 71 8a 22 bb
       0.12660228 -0.06432073 -0.11283061 -0.0024801756
000060 66 22 10 bc f0 7d cd 3d 06 cb 87 bc 34 ac 4d bd
       -0.008797264 0.10033786 -0.016576301 -0.050213054
000070 64 9a a2 3d 0b b2 99 3d d6 c4 bf 3c 7e 94 13 3e
       0.07939604 0.07504662 0.023409288 0.14412114
000080 12 e7 cc bd 56 86 8e bd 2c 27 55 bd cf 7b b8 bb
       -0.10005011 -0.06959216 -0.05203931 -0.0056299935
000090 1c 64 3e 3d 5c bd e4 3b 96 d9 f0 3d 84 71 f5 3c
       0.04648219 0.006980581 0.11760251 0.029961355
0000a0 d9 58 c3 bc 88 39 49 bd f4 43 50 bd c1 cf 85 bd
       -0.023846077 -0.04912713 -0.050846055 -0.065337665
0000b0 2e ab ca bd 08 21 28 be 24 cd b3 3d 5b 1f 49 3d
       -0.09895931 -0.1641885 0.08779362 0.04910217
0000c0 81 1e 88 3d 6d 01 c4 bd 5f ad db bc 22 d1 43 bd
       0.06646443 -0.095705844 -0.026816068 -0.047806866
0000d0 d7 ff fa 3c 4b ca ac 3d 02 c4 10 3c 14 ce 9a bd
       0.030639572 0.08437022 0.008835794 -0.075588375
0000e0 6e d6 aa bd fa 79 a4 bd 6d 0f 3f bc e2 ce 0c 3d
       -0.083416805 -0.08031078 -0.011661393 0.034376986
0000f0 90 e4 33 bd f9 db 82 3c 16 78 9f 3d ee 43 4f bd
       -0.043919146 0.015974032 0.077865764 -0.050601892
000100 d8 7b d9 3d 0f e0 ba 3d 32 2a 23 bd 51 e7 22 bd
       0.106193244 0.09124767 -0.039835162 -0.03977138
000110 f9 be 7a bc ec 20 2f 3d d0 e2 30 bd 2a 4e d6 3d
       -0.0153043205 0.042756006 -0.043185055 0.10464127
000120 2c 65 93 bd ef 2c 4b bd 7f e4 75 3d d7 34 3c 3b
       -0.071970314 -0.0496034 0.060032364 0.0028718018
000130 6b 78 a9 3d ac 0d b0 bd a7 d9 c2 3d 3b fa e4 bd
       0.08274921 -0.08596358 0.0951417 -0.1118054
000140 33 80 42 bd 69 9b 1a 3d 00 78 48 bc 56 e8 c0 bc
       -0.04748554 0.037745867 -0.0122356415 -0.023548286
000150 10 ad dd 3d 06 c7 03 3e ef d0 a0 bd 1b 12 09 3e
       0.10824025 0.1286889 -0.07852351 0.13385813
000160 85 9d e8 bc 11 0d 98 bd 50 b1 00 3e 08 bc 93 3d
       -0.028395424 -0.07424367 0.1256764 0.072135985
000170 77 6a f5 bd 61 89 db bc dc d3 c1 3d 7c a2 c0 3d
       -0.11983197 -0.026798906 0.09464237 0.094059914
000180 05 43 9f 3b 59 5c 3b bd 00 7c 3e bc 07 44 91 3d
       0.0048602843 -0.045742366 -0.011626244 0.07093053
000190 f0 1f bd 3d 81 82 b5 3e 8c 2c 9f 3d 5a a0 8f 3d
       0.09234607 0.3545113 0.077721685 0.070130065
0001a0 71 78 37 bd 32 8d 62 bd dc fd 04 bc 6d 10 6f 3d
       -0.044792596 -0.055310436 -0.008117165 0.058365274
0001b0 9b e3 40 3c 18 52 c8 3c 84 05 8f 3d 67 5b 84 bd
       0.011773015 0.024453208 0.06983474 -0.06462746
0001c0 89 69 91 3d 2a cc 3d ba 19 14 a3 bb f1 94 e5 3d
       0.07100207 -0.00072402006 -0.004976761 0.11210049
0001d0 c9 6c 4d 3b f4 c8 b4 bd 79 2b 30 3d a0 29 bc 3c
       0.0031345359 -0.08827391 0.04301021 0.022969067
0001e0 ce 5a b7 3c ba 87 80 3c fa 7f 70 bc d1 77 e9 3c
       0.022382166 0.01568972 -0.0146789495 0.028499516
0001f0 ff bd 8f 3d 99 6c a9 bd f3 d1 34 3d d9 c4 81 bd
       0.07018661 -0.082726665 0.044145536 -0.06336374
000200 52 57 69 bd f8 fd 0c 3e bb d4 c9 bd 46 e4 20 bd
       -0.05696804 0.13768756 -0.09855028 -0.0392802
000210 d5 fb ac bd 0a bb bf bd 31 b7 86 3d d4 6e 02 bd
       -0.08446471 -0.09361847 0.0657791 -0.031843975
000220 da 9b 77 bd 17 87 3e 3d 55 b4 45 3d 6f b7 68 bd
       -0.060451366 0.04651555 0.04826768 -0.05681556
000230 6d c6 96 bd 22 d6 85 bb 17 f1 1b bd 29 8e 3f bd
       -0.073620655 -0.0040843645 -0.038071718 -0.046766434
000240 b9 5e e7 3b a1 2a a1 3d 9d 9e 1d bd 52 43 a3 3d
       0.0070608524 0.07869459 -0.038481344 0.07971825
000250 f9 3c e6 3d f8 79 7b 3d 6b 58 86 3d 2c 98 1f 3c
       0.11242098 0.061395615 0.06559833 0.00974087
000260 a7 7d bb 3b 4b d3 a9 bd 04 a8 8b bc 68 da 54 bd
       0.005721766 -0.08292254 -0.01704789 -0.0519661
000270 a3 3b 45 ba ae 4a c1 3d 9c c4 97 3d 18 f8 2b bd
       -0.000752384 0.09438072 0.07410547 -0.041984648
000280 f7 d0 5a 3e 1d 86 ed ba a1 cf 34 3d 47 bd aa 3d
       0.21368776 -0.0018121634 0.044143323 0.08336883
000290 fc 65 4a bd 6a 53 a9 3d c8 60 dd bc fd 3e fd bd
       -0.049413666 0.08267863 -0.027023688 -0.1236553
0002a0 6a 68 ad 3c a9 dc f7 bd 60 76 9a 3d 12 19 4a 3e
       0.021167953 -0.121026345 0.075421095 0.19736126
0002b0 38 72 7e bd c6 8c e5 bd 12 df 12 bc a6 0e 24 bd
       -0.062120646 -0.11208491 -0.008964317 -0.040053032
0002c0 56 db e6 3d ec e3 92 3d bf df 4a bd 5a 93 b2 bd
       0.11272304 0.07172379 -0.049529787 -0.08719511
0002d0 a0 b8 31 3e 4f 50 97 3d 86 bf 1d 3d 2a 36 3b be
       0.17355585 0.073883645 0.03851273 -0.1828238
0002e0 80 9d 9e 3d d9 57 4f 3d 93 74 99 3c 14 b7 24 bd
       0.077448845 0.050620887 0.018732345 -0.04021366
0002f0 14 19 e8 bd 88 db eb 3d d2 eb c7 bd 61 e4 51 be
       -0.11332908 0.11516482 -0.09761776 -0.20497276
000300 73 63 f6 bb e1 50 c0 bd 7e c9 a7 bd d9 d7 82 bd
       -0.0075191795 -0.093904264 -0.081927285 -0.06388826
000310 42 13 06 3d cb 01 a0 bd a7 28 e5 3d 6c f9 22 3d
       0.03273321 -0.07812842 0.111893944 0.03978865
000320 48 c6 78 bd 60 fe b5 bd 50 c0 77 be 58 01 a1 bd
       -0.06073597 -0.08886409 -0.24194455 -0.078615844
000330 3b 96 04 3e cb 61 dd 3c 22 ef 83 3c 12 e5 9c bd
       0.12947933 0.02702417 0.016105238 -0.07660879
000340 c5 fe 4d bd 35 e9 f3 bd 27 c0 ff bd ac 14 fc bc
       -0.050291795 -0.11909715 -0.12487822 -0.030771576
000350 df 39 6d bd 20 5a b7 3c 70 31 ea bd 0e c9 58 bd
       -0.05791652 0.022381842 -0.11435211 -0.052926116
000360 fc 5f b6 3d e5 e2 e6 3d 77 fb 98 3d 93 2b 41 3c
       0.08905026 0.112737454 0.07469838 0.011790174
000370 86 49 b9 bc 26 eb 79 3c 2e 8e 79 3d 33 c8 72 3d
       -0.022618067 0.015253818 0.06092661 0.059272956
000380 c4 9f 5b bd 2e 21 5a 3e 43 4e 5c bd c3 79 03 3e
       -0.05361916 0.2130172 -0.053785574 0.12839417
000390 0b fa bc bc 59 f5 5c bd 4b a9 ba bd 6c 6d eb bc
       -0.023068449 -0.05394492 -0.09114321 -0.0287387
0003a0 a2 27 fc 3a 57 49 b5 bc 42 e1 b3 bd fa 7e 98 3d
       0.0019237886 -0.022129698 -0.08783199 0.07446094
0003b0 5f ee 83 3d be b4 67 bc d0 1c 92 bd 5f ca c0 bd
       0.0644195 -0.014142213 -0.07134402 -0.09413599
0003c0 5e 8c 23 bc be e2 92 3d e5 43 a9 bd 1e c1 78 3d
       -0.009982197 0.07172154 -0.08264903 0.060731046
0003d0 26 fd bf bc 1a c2 56 3d 19 1d 7b bc ee 96 76 3c
       -0.02343614 0.052431203 -0.015326762 0.015050633
0003e0 9d 50 85 bc c6 92 14 3d 52 10 87 bc 2c 31 03 bd
       -0.016273791 0.036272787 -0.016487274 -0.032029316
0003f0 25 13 ac 3d 2c 6c 00 3e b9 c7 2b bd 60 ee 50 3c
       0.08402089 0.12541264 -0.041938517 0.0127521455

VAE_Encoder.layers.0.linear1.bias f4 [4]
000000 07 80 ca bb 88 b1 4e 3c c1 8f d0 bd ae fc 45 bd
       -0.006179813 0.012615569 -0.10183669 -0.048336677

VAE_Encoder.layers.0.norm1.weight f4 [4]
000000 d1 dc 87 3f e2 23 79 3f a5 ad 80 3f 37 27 8a 3f
       1.0614263 0.9732038 1.0052992 1.0793217

VAE_Encoder.layers.0.norm1.bias f4 [4]
000000 9c 52 c5 3c 11 8c 50 3c 40 af 88 bb 36 ff 01 3c
       0.024087243 0.012728707 -0.004171282 0.007934382

VAE_Encoder.layers.1.attention.W_q.weight f4 [4, 4]
000000 e4 e4 1f 3e 7d a0 80 3e 20 62 cb be f6 4f b1 be
       0.15614659 0.25122443 -0.397233 -0.34631318
000010 84 31 70 be fd 73 27 3e 74 58 75 3e e3 c0 9c bd
       -0.23456389 0.1635284 0.23959523 -0.07653978
000020 20 65 26 3e 11 b0 ce be 11 b8 52 bd b4 83 86 be
       0.16249514 -0.40368703 -0.05144507 -0.26272357
000030 8f 65 6f 3e 59 86 05 bf 33 a1 17 be d2 29 88 3c
       0.23378585 -0.52158123 -0.14807586 0.016621504

VAE_Encoder.layers.1.attention.W_q.bias f4 [4]
000000 f8 a5 a9 3d cf 08 c7 bd 6e 75 4a 3a f5 95 30 3d
       0.08283609 -0.09718477 0.0007723187 0.04311176

VAE_Encoder.layers.1.attention.W_k.weight f4 [4, 4]
000000 0a e5 c2 bd d3 bb be be d9 80 b5 be 8d 29 3f be
       -0.09516342 -0.37252674 -0.35449865 -0.18668194
000010 0b 03 76 be d5 4f b4 3e 71 bf ca bb fe 89 1a be
       -0.24024598 0.35217157 -0.0061873724 -0.15091702
000020 25 98 49 3e 9c 9c ef 3d 79 1a 5e 3d e3 9b c2 be
       0.19686945 0.11699793 0.054224465 -0.38009557
000030 cd e9 02 3e d6 67 e6 be 7a 9c 0c 3f 3c e2 0c bf
       0.127845 -0.45001096 0.54926264 -0.55032706

VAE_Encoder.layers.1.attention.W_k.bias f4 [4]
000000 7e dc 4b 3a b9 35 1d 3b 28 83 4c bb a2 4a 27 bb
       0.00077766913 0.002398832 -0.0031206105 -0.0025526662

VAE_Encoder.layers.1.attention.W_v.weight f4 [4, 4]
000000 9a 0b dc be c5 bd 77 3e 19 b1 c9 3e 65 fc 97 3e
       -0.429776 0.24193485 0.39392927 0.2968475
000010 0d 1a 54 3d 75 e1 06 3d 29 45 7d be dc 82 ff 3d
       0.051782656 0.032929856 -0.24733414 0.12476131
000020 87 89 c1 3e 44 63 f6 3e a1 32 82 3e f8 29 f8 bd
       0.37800238 0.4812261 0.25429252 -0.1211738
000030 8b ea 2e 3e 96 c1 be be 63 eb b9 bd 0a 5c 79 3e
       0.17081659 -0.3725707 -0.090780996 0.24351516

VAE_Encoder.layers.1.attention.W_v.bias f4 [4]
000000 8a 59 68 bc 2e 76 bd bc d4 40 67 bc ef b1 ad 3b
       -0.014181504 -0.023127642 -0.014114577 0.0053007524

VAE_Encoder.layers.1.linear0.weight f4 [128, 4]
000000 b0 cf 10 3d 65 6f 2d be 29 be 15 bd 15 77 7e be
       0.035354316 -0.16937025 -0.036558304 -0.24850114
000010 8a 0d ae be 97 82 9b be 4a e5 74 3e 88 68 16 be
       -0.33994704 -0.3037307 0.23915592 -0.14688313
000020 ae a6 6f 3e 3c f5 f4 be 13 eb c3 3e 0f 08 fd 3c
       0.23403427 -0.4784335 0.38265285 0.030887632
000030 d6 77 eb 3d 80 c9 9e 3e 22 07 80 be e9 84 30 bd
       0.11497466 0.31013107 -0.25005442 -0.043095503
000040 31 fb b0 be f8 93 93 be dc cd 83 3c 3c 36 00 bf
       -0.34566644 -0.2882383 0.016089372 -0.50082755
000050 4c 19 6f be 80 e4 5f be b2 01 af be 96 86 db be
       -0.23349494 -0.2186451 -0.3418098 -0.42876118
000060 b8 01 bb be fa da 75 3e 5a 2b 02 be f5 93 8d be
       -0.3652475 0.24009314 -0.1271185 -0.27651945
000070 c1 21 0b 3e 54 4b dc bd b1 95 b0 bd c1 8c b8 be
       0.13587095 -0.10756555 -0.08622301 -0.36044887
000080 d5 3d 61 be bc c2 c9 be aa 1a ca be 7b ce d5 3e
       -0.21996243 -0.39406383 -0.39473468 0.41759095
000090 8c c6 70 be 8c 97 50 bd 2a b2 ef 3e 79 cd 96 be
       -0.2351324 -0.050925776 0.46815616 -0.29453638
0000a0 86 80 00 bf 67 dd 0d be ed f3 19 3d f1 22 a2 be
       -0.5019611 -0.1385399 0.03758614 -0.31667283
0000b0 39 8d 42 3e 0b 03 b0 3e ec a5 87 be f1 a6 f7 3d
       0.18999185 0.34377322 -0.26493776 0.120923884
0000c0 38 6b 0f 3f d3 56 78 3e 6e 0e ce 3e 18 3c 09 3e
       0.5602298 0.24251871 0.40245384 0.1340183
0000d0 77 1b 2e 3e a7 14 03 bf 0a 97 6a 3c 10 75 1a 3e
       0.17002665 -0.5120339 0.014318237 0.15083718
0000e0 5b fe a1 bd c7 a5 46 be e3 f8 ba be 75 11 08 3e
       -0.079098426 -0.19399177 -0.3651801 0.1328791
0000f0 28 22 00 bf 07 35 c3 be 58 02 ac 3e ae 23 4b be
       -0.5005212 -0.38126394 0.33595538 -0.1983783
000100 21 49 8a 3e 61 1a c8 3e 71 be 48 be 8f 7e 6f be
       0.27008918 0.39082626 -0.19603898 -0.23388122
000110 ec 0f 54 be e4 e4 8f 3e f6 e7 8d be 6c e3 4d 3d
       -0.20709199 0.28104317 -0.27716035 0.050265715
000120 68 f0 1a 3f e0 20 00 be ec ab a6 be e7 13 55 3b
       0.6052308 -0.12512541 -0.3255304 0.0032513083
000130 57 77 d4 3e b5 38 c2 be 92 83 c0 3e f1 ad 61 3e
       0.414973 -0.3793389 0.3760038 0.2203901
000140 73 33 02 3f ed e2 95 be e3 96 e8 3d e8 ce 61 be
       0.50859755 -0.29274693 0.11356904 -0.22051585
000150 06 94 9e 3e c4 97 d2 be 25 02 42 3d 2f 38 a3 be
       0.30972308 -0.41131413 0.047365326 -0.31878802
000160 61 df 0e 3e 0c 33 4b 3e 24 fc 1a 3e 4e 55 d9 bd
       0.139524 0.19843692 0.15135247 -0.10611974
000170 6b 98 c0 3e 20 17 95 3d a5 88 bc 3e 68 15 b6 3d
       0.37616286 0.07279801 0.36823002 0.08890802
000180 8b 6f 78 3e f7 7e 49 3e e2 6e 76 be 2d ac fa be
       0.242613 0.1967734 -0.24065736 -0.48959485
000190 59 d4 9f be 5e 6d ea bd b3 09 d6 be 88 c6 be 3e
       -0.31216696 -0.114466414 -0.41804275 0.37260842
0001a0 1d 08 bf be 8f 7c 53 3e 05 bc 06 3e 3d 14 36 3e
       -0.37310877 0.20652984 0.13157661 0.17781158
0001b0 9c b6 9d be 08 f1 f9 bc 44 a8 b9 be bb a8 f4 3e
       -0.30803382 -0.03051044 -0.3626119 0.4778498
0001c0 98 3d 01 bf 07 d8 d2 be 64 0e ff 3e 92 28 fd 3e
       -0.5048461 -0.4118044 0.49815667 0.49445015
0001d0 63 64 71 3e 51 f3 fc 3d ae 10 16 bd 92 c8 37 3e
       0.2357345 0.123510964 -0.036637 0.17947605
0001e0 43 14 11 3e a8 55 e6 be 43 87 f5 be 2b 4d 4d be
       0.14167885 -0.44987226 -0.4795476 -0.20048968
0001f0 ed c9 df 3e 18 5a 90 be 41 7f f3 be 19 86 77 be
       0.43708745 -0.28193736 -0.47558025 -0.24172248
000200 fa 86 c8 3d f6 fc e1 bd 44 57 95 be 70 f0 3b be
       0.0979137 -0.110345766 -0.2916814 -0.18353438
000210 39 c9 9f be 04 81 91 3e 7c 75 d9 be 4e 92 39 3e
       -0.31208208 0.28418744 -0.42472446 0.18122217
000220 92 12 6b 3e fa 7b 36 be 39 25 a7 3e 25 89 96 be
       0.22956303 -0.17820731 0.32645586 -0.29401508
000230 8e 88 a8 bd 8b da c8 3e 35 66 b0 3e a3 54 1c bf
       -0.08229171 0.39229235 0.34452978 -0.61066645
000240 90 cb ff 3d fa ed 18 3e e8 77 85 3d 9f ed e0 be
       0.12489998 0.14934531 0.06517011 -0.4393129
000250 97 41 bd be 7a 62 d0 3e 2b e7 5d be 44 94 fd 3c
       -0.36964104 0.40700132 -0.21670215 0.030954488
000260 8f dd 1d be 64 96 5b 3e 50 21 a4 3e d4 2f a9 3e
       -0.15416549 0.21444088 0.32056665 0.33044302
000270 73 94 d0 3e 5e 68 4b bd 45 62 90 be 37 e1 e1 be
       0.40738258 -0.04966008 -0.28199974 -0.44117138
000280 e9 9c 9c 3e 25 40 a4 bd 42 b0 2d 3e 9e 46 07 3e
       0.30588463 -0.08020047 0.16961768 0.13210532
000290 38 34 05 3f 11 40 d1 be 9f 25 90 be 55 b9 ff 3d
       0.52032804 -0.4086919 -0.28153703 0.12486521
0002a0 d3 e9 bc 3e 5d 33 c2 bd 3e d2 09 3e b9 c0 07 3f
       0.36897144 -0.09482453 0.13459107 0.53028446
0002b0 f2 4b fc be 39 9a e1 3d 1b 34 6f 3e 3c df d3 3c
       -0.49276692 0.11015744 0.2335972 0.025863282
0002c0 ac 21 3e 3e 99 f4 d0 be ec c0 c9 3e 24 1f fe 3e
       0.18567532 -0.40811613 0.39405 0.49633133
0002d0 df 9f 3a 3e 63 ac ba 3e 5a be a1 3e dd 41 0b 3f
       0.18225048 0.36459646 0.3159054 0.54397374
0002e0 18 0a d0 3d 95 19 45 be 08 f4 01 3e 3e 28 58 be
       0.10158175 -0.1924804 0.12690747 -0.21109101
0002f0 aa 69 e5 bd 79 a5 da 3e 79 56 84 3d 5e 2f bf be
       -0.112017944 0.4270437 0.06461806 -0.37340826
000300 56 80 f8 3d 45 2f bb 3e f0 d6 05 be f6 87 6f 3e
       0.12133853 0.365595 -0.13070273 0.23391709
000310 e8 79 2a be 87 3c f3 3e 87 34 20 be e3 88 9d be
       -0.16648066 0.47507116 -0.15645038 -0.307685
000320 bf f4 aa 3e 59 c8 82 be 9f cb c5 3e 9f 29 ec 3e
       0.3338985 -0.25543478 0.38631913 0.46125504
000330 8e 21 fd 3d 23 db 25 3e 64 9c 5b 3e 91 52 b6 be
       0.12359916 0.16196875 0.21446377 -0.35609868
000340 d3 5b c7 3e 46 e9 11 3e 36 2b d9 3d d5 c2 d6 bc
       0.38937244 0.14249143 0.10603945 -0.02621595
000350 cc 66 2b 3e 12 bb 3f bc eb 75 72 3e 27 76 3d be
       0.16738433 -0.011702316 0.23677795 -0.18502103
000360 c4 32 ef 3e b8 8d 60 3e 55 de d8 3e 12 ad ff 3e
       0.4671842 0.21929061 0.42357126 0.4993673
000370 24 b1 43 be c0 d5 02 bf 5b 57 1c 3f c1 fb a7 3e
       -0.19110543 -0.51107407 0.61070794 0.3280926
000380 33 1d 40 be 2c 5e f6 be 0c 29 99 3d be 2f 9c 3d
       -0.18761139 -0.48118722 0.07478532 0.076262936
000390 92 d9 84 3e 9b b1 1c be 48 f0 84 3d c9 ec e2 be
       0.25947243 -0.15302126 0.064911425 -0.44321278
0003a0 cc 14 11 3d 34 f3 47 bd 8e 37 86 3e af 7d ba be
       0.035420224 -0.04881592 0.2621426 -0.36424014
0003b0 08 39 e9 3e d0 ff c2 bd 6f 5d 98 bc 48 43 2c be
       0.45551324 -0.095214486 -0.01859924 -0.16822541
0003c0 53 3d 38 3e e5 3c 24 3c 97 3b a0 be a3 dd 8d be
       0.17992143 0.010024284 -0.31295463 -0.27708158
0003d0 03 76 99 bc cf 62 a9 3c 68 53 c4 be a9 5c 8a 3c
       -0.01873303 0.020676998 -0.38344884 0.016889887
0003e0 76 4b db 3e 9b b9 7a be 28 86 8a 3e 8a be a5 be
       0.4283101 -0.24484865 0.27055478 -0.32371932
0003f0 33 0d bb 3c 06 25 eb 3e 9c 36 09 bf 2c 82 e6 3d
       0.022833442 0.45926684 -0.5359895 0.11255297

VAE_Encoder.layers.1.linear0.bias f4 [128]
000000 e8 b2 04 3f 17 29 35 3e f0 d9 e0 3e b4 af 8b 3e
       0.5183549 0.17691456 0.43916273 0.27282488
000010 5c 91 b9 be 88 b2 b8 be d7 06 e0 be f8 83 44 3e
       -0.36243713 -0.3607371 -0.43755218 0.19190967
000020 64 e4 80 3e 14 d8 ca be 50 9c 5f be 8c f7 41 be
       0.25174248 -0.3961798 -0.21836972 -0.18942088
000030 8c 8f 6e be 8a 8e 9f be 94 64 ac be f9 95 7a 3d
       -0.23296946 -0.31163436 -0.33670485 0.06117818
000040 54 7e 93 bd 5a f0 b3 3e 28 ac 0a bf 3f 41 84 3e
       -0.072018296 0.3514431 -0.5416894 0.2583103
000050 82 5c a0 be 27 20 66 be ab da 66 be e1 83 45 3e
       -0.31320578 -0.22473203 -0.22544353 0.19288589
000060 91 d1 df 3d 8e 8d 91 bc eb fe ab bd 1f 18 e8 bd
       0.109286435 -0.017767694 -0.08398231 -0.11332726
000070 bd 12 22 3e 2a 32 27 be 56 89 db 3e 41 c5 2d 3e
       0.1582746 -0.1632773 0.42878217 0.16969778
000080 e3 24 b9 3e 3f 13 9d be df 0a bb 3e 3f 59 7e be
       0.36160955 -0.30678746 0.3653173 -0.24838732
000090 cb 41 0e be 60 90 39 be 90 e0 92 3e ad fc 87 3e
       -0.13892286 -0.18121481 0.28686953 0.26559964
0000a0 f1 32 83 bd b2 e0 0d 3e c9 1d df be e6 8e d4 be
       -0.06406201 0.13855246 -0.43577412 -0.41515273
0000b0 89 d2 f6 be e5 4d c2 3e c0 7f 39 3e af 4e 80 be
       -0.482075 0.37950054 0.18115139 -0.2506003
0000c0 68 91 f9 be 55 bd d4 3d 41 54 d1 3e 34 29 f9 3e
       -0.4874375 0.10387675 0.40884593 0.48664248
0000d0 19 57 df 3e 92 db f6 be 0c df 2e 3e d7 d2 8a 3e
       0.43621138 -0.48214394 0.17077273 0.27113983
0000e0 9b 87 9e 3e 3c 59 ed be 2e 04 07 3e c0 63 94 bd
       0.30962834 -0.46357143 0.13185188 -0.07245588
0000f0 03 6b fc 3d c1 f7 88 3d 43 54 8c bc 28 98 05 be
       0.12325098 0.0668788 -0.017130023 -0.13046324
000100 59 c9 a1 bd 79 63 e8 be 7d 8e 2c be 79 13 bd 3c
       -0.07899732 -0.45388392 -0.1685123 0.023080574
000110 74 93 9c 3d d7 28 ba 3e da 2c 82 be 77 7d ec bd
       0.07645312 0.36359283 -0.25424844 -0.11547368
000120 07 df c4 3d 72 9c 32 bd 55 1f bf 3e 0c 39 86 3e
       0.096128516 -0.04360623 0.37328592 0.26215398
000130 ba 9c d1 be 14 fd 01 bf a5 d1 b6 be 68 2b 9f 3e
       -0.40939885 -0.5077679 -0.3570682 0.31087804
000140 75 04 b3 3e ea d1 e1 3e 8b 37 36 bd a1 6a 5e be
       0.34964338 0.44105464 -0.044486564 -0.21720363
000150 02 d1 8d 3c 14 c9 d3 3e 4b 97 9c be 8c b0 e3 bd
       0.017311577 0.41364348 -0.30584177 -0.11117658
000160 54 0d b3 be 24 f8 13 bc 6e d1 a2 3e 5b 2e 86 3e
       -0.34971106 -0.009031329 0.31800407 0.2620724
000170 ed ae 98 be 85 c6 04 3e f4 a9 c9 bd ab 30 ec bd
       -0.29820958 0.12966354 -0.09846869 -0.1153272
000180 97 59 7b bd 7a 4c f1 3c d5 5a f0 3e 24 2d d8 3d
       -0.061364736 0.029455412 0.469443 0.10555485
000190 ca 5f 91 3e 0d 43 14 3e 52 dc e3 be 35 c5 c6 3e
       0.28393394 0.14478703 -0.4450403 0.38822332
0001a0 87 3b 1a 3e 5e 93 00 be 55 bb 68 3d 24 45 7a be
       0.1506177 -0.12556216 0.05681928 -0.24440438
0001b0 53 ca d8 3e 39 5d 6b 3d e4 53 58 3e b1 22 cb 3d
       0.4234186 0.05746195 0.21125752 0.09918726
0001c0 b1 b4 b6 be 8e 60 96 3d 8e b1 8d 3d ed 23 b6 3e
       -0.35684732 0.07342635 0.069186315 0.35574284
0001d0 d7 31 e2 3d 99 c0 30 be 6c 57 b3 be 51 1e b3 3e
       0.110446624 -0.1726097 -0.35027635 0.34984067
0001e0 92 b2 88 3e e4 76 45 3e 60 c0 9a bc ea 09 f7 3d
       0.26698738 0.19283634 -0.01889056 0.12062438
0001f0 20 6b 90 be ce 67 45 be 67 82 fc be e2 23 b6 be
       -0.2820673 -0.1927788 -0.4931824 -0.3557425

VAE_Encoder.layers.1.linear1.weight f4 [4, 128]
000000 c0 90 c9 bd 63 48 dc bd 66 6f 96 bd 3d 68 a9 3d
       -0.09842062 -0.10755994 -0.07345466 0.08271835
000010 0a f8 00 bb c9 65 36 bd b8 a6 2a 3d 31 eb ac bd
       -0.0019679093 -0.044530664 0.0416629 -0.08443297
000020 be 82 b2 3c 34 be 07 be 5f d4 53 bd f4 9c d3 3c
       0.021790858 -0.1325615 -0.051716205 0.025831677
000030 17 33 33 3a e2 ec 4e 3e 9f 8c 8a bd 4c 99 0b be
       0.0006835921 0.20207551 -0.067651026 -0.13632697
000040 fa dc 03 3d d5 95 2b 3d 61 14 da bc 2a dc a4 bd
       0.03219316 0.041890938 -0.026621046 -0.080498055
000050 bc 5a 0b be 51 b5 ee bc 75 c8 1f 3d d8 5c 4d bd
       -0.13608831 -0.029139193 0.03900953 -0.05013737
000060 ee ad 20 3d 6b 53 48 bc 3a 67 b9 bd b1 81 f5 bc
       0.039228372 -0.01222692 -0.09052892 -0.029969068
000070 a1 27 c9 bc 5b 92 d0 3c 00 c4 ba bc 48 83 f1 bc
       -0.02455503 0.025460413 -0.022798538 -0.029481545
000080 46 53 89 bd ae b8 60 bd 60 44 c8 bc 92 05 1a 3d
       -0.06705336 -0.054863624 -0.024446666 0.03760297
000090 d2 45 2d bc c2 e2 3f 3d 8b 5b 0f 3c 5a 2d 7d 3c
       -0.0105757285 0.046847112 0.008749853 0.015452707
0000a0 b1 a7 d1 bd c2 7b 22 bd 3f ac 72 3e 45 5a c7 bd
       -0.10237063 -0.039668806 0.23698519 -0.097340144
0000b0 60 76 18 3e bc 56 a7 3d c8 41 c7 bd 38 07 8a 3a
       0.14888906 0.0817084 -0.09729344 0.0010530716
0000c0 95 48 e9 bd 30 93 71 bd 12 4b 99 3d d8 33 64 bd
       -0.11390797 -0.05897826 0.07485022 -0.055713505
0000d0 d2 79 f5 bb 21 da 00 3d ea f3 88 3d 94 2c dc bd
       -0.0074913288 0.031458024 0.06687148 -0.1075069
0000e0 8c 91 fc bc 6d fd f8 bd 22 14 00 be b0 5d f3 bd
       -0.03083112 -0.12157712 -0.1250768 -0.11883104
0000f0 46 9e 87 bd 83 3c 17 3d 15 f1 4d bd 9e d1 10 bd
       -0.06621985 0.036922943 -0.050278742 -0.035356157
000100 c7 c3 44 bd 89 d9 2a be 63 ae c7 bc 9c ea ae bd
       -0.04803827 -0.16684546 -0.024375146 -0.08540842
000110 3e 4c f2 3c 9a 1c 69 bd 95 03 82 3d 60 71 3a 3c
       0.02957737 -0.056912042 0.063483395 0.01137957
000120 2c 32 09 bd e8 d6 7c bd 1a a2 fe bd b5 8c f8 bb
       -0.033495113 -0.061728388 -0.12433262 -0.007585133
000130 27 d8 3b 3e 7c 74 8d bd 70 9a 19 bc d4 b3 0e 3d
       0.18344174 -0.06906983 -0.0093752 0.034839466
000140 6a ac e8 3c 3e fb 6b 3d 2c 5e a2 bd 89 79 ad bd
       0.028402526 0.05761265 -0.07928118 -0.084704466
000150 0f bb 12 be e4 4a 6d bd 39 29 7a bd 13 f4 10 3b
       -0.1432917 -0.05793275 -0.06107447 0.0022118136
000160 57 a1 d4 3b c5 9d 31 3c 0e a9 4e bd 69 75 ac bc
       0.00648896 0.010840838 -0.050454192 -0.02105208
000170 86 e9 49 3e cf 21 15 3d a3 00 aa bd a0 2a 64 bd
       0.19717988 0.036409196 -0.08300903 -0.055704713
000180 43 dd 36 bd 11 1f 93 bd 02 66 87 bd 1f ba c1 3c
       -0.044644605 -0.0718366 -0.06611253 0.02364832
000190 41 5f 24 bd 80 92 10 bd 4b 82 aa bd 6b a7 70 bd
       -0.040129904 -0.035295963 -0.08325633 -0.058753412
0001a0 78 60 80 bd b0 7a c3 bc d0 79 6a 3d 40 cb a6 3c
       -0.062684 -0.023862213 0.057245076 0.020360589
0001b0 6a c9 66 bc 2d 0f e4 bd 68 56 24 3d cc e4 28 3c
       -0.014086107 -0.11135707 0.040121466 0.010308456
0001c0 e8 b5 7f 3c ce 7e b7 bd 4e 98 1f 3d 75 f5 57 ba
       0.015607335 -0.08959733 0.03896361 -0.0008238175
0001d0 bb 13 a9 bd a5 7f 79 3d a0 23 d2 bb df 4d af bd
       -0.082557164 0.060912747 -0.0064129382 -0.085597746
0001e0 31 44 c9 3c 05 3c 1c 3c 7e d3 a6 bd a9 93 d4 bd
       0.024568649 0.009535794 -0.08145808 -0.103797264
0001f0 82 75 b2 bd bb df ab bd c8 5f 85 bc d5 30 b6 3d
       -0.08713819 -0.083922826 -0.016281024 0.08896033
000200 ce 1d a9 bd be 82 d8 3c 63 b9 3c bd 65 77 1e 3c
       -0.08257638 0.02642953 -0.046075236 0.009672021
000210 67 7e b1 3e 3c 3d 99 bd 4d ab 29 bd 6b 19 cf bd
       0.3466675 -0.07482383 -0.04142313 -0.1011227
000220 eb 47 6d bd 2c a4 11 3e 45 f0 cb bd ca 05 04 3d
       -0.057929914 0.14222783 -0.09957937 0.032232083
000230 39 7b bb ba 2e 7d 30 3c 78 7a aa bd fc c4 08 3e
       -0.0014303691 0.010772033 -0.0832414 0.13356394
000240 6b 17 ed bd ec 6f a2 3a 1e c6 28 3e 45 9d 84 3d
       -0.11576732 0.0012392974 0.16481826 0.06475309
000250 5c 67 4d bd 87 b7 e8 bd 9e 5c ff bd 6f 86 5b 3d
       -0.0501474 -0.1136313 -0.12468837 0.053595003
000260 0a 39 04 3c d7 59 d8 3b db cd dc bd 59 2a a5 bc
       0.00807024 0.0066025066 -0.10781451 -0.020161794
000270 24 85 7f 3d 8d 62 4d be 9b 7b d3 bd fb f8 86 bd
       0.062382832 -0.20057125 -0.1032631 -0.06590458
000280 48 dc db bd a8 69 00 3d cb 11 2b 3c 66 3f 1a be
       -0.10735375 0.03135076 0.010441254 -0.15063247
000290 47 03 e0 bd 13 92 94 bd 4f 5b ba 3d c2 67 42 bd
       -0.10938125 -0.07254424 0.09099447 -0.047462232
0002a0 7d a9 74 bd 9f 3e 66 bd a5 1d e9 bd 72 21 31 be
       -0.05973195 -0.056212064 -0.11382607 -0.17297915
0002b0 81 9c 8c 3d 4e 26 14 bc 30 c2 b9 3d 91 97 21 bd
       0.06865788 -0.009042336 0.090702415 -0.039451186
0002c0 d9 34 04 be 58 48 20 bd 87 a0 dd 3d 19 bc d1 bc
       -0.12910785 -0.039131492 0.10821634 -0.025602387
0002d0 ab 81 2a bc 58 b2 0b be 82 f0 05 3c 1e ee 9a bd
       -0.010406892 -0.13642251 0.008175017 -0.075649485
0002e0 68 1d 77 bd 8e a1 e9 bd 96 93 ec bc 71 7d ae bd
       -0.06033078 -0.11407767 -0.028878968 -0.0852002
0002f0 23 7b 65 3d 2e 90 d9 3c 9c 6a 8d 3d 2e 2a 74 ba
       0.056025635 0.026558008 0.069051 -0.00093141466
000300 96 d2 88 bd 29 03 8a bd 72 3f 24 bd f2 76 36 bc
       -0.06680791 -0.06738884 -0.04009957 -0.011136757
000310 81 7f d1 3d 77 8e 56 bd ea 8f 53 bb 39 46 0b 3d
       0.102293976 -0.05238196 -0.0032281824 0.034002516
000320 b3 75 ce 3d cc 30 3b 3d 63 1e 96 bd e9 a0 03 3c
       0.10081043 0.045700833 -0.073300146 0.008033969
000330 35 7d 28 3d 84 8a 02 be 91 46 cb 3d a1 9f c7 3d
       0.04113503 -0.12748152 0.09925569 0.09747244
000340 8d 7c 4a bb 5d 36 51 bd 7b 85 c5 bd 23 f4 8d bd
       -0.0030896992 -0.051077235 -0.096446 -0.06931331
000350 9e 5b fe 3d 47 06 84 bd 4d 59 d5 bd e5 39 49 3d
       0.12419818 -0.0644651 -0.104174234 0.04912748
000360 1c a0 71 3c fc f9 09 3d 69 20 78 ba b6 55 d0 3c
       0.014747646 0.03368567 -0.00094652787 0.025431495
000370 ec 3c e3 3a 5d 8f 8c 3d 91 15 36 3d ec da ee 3c
       0.0017336882 0.06863282 0.04445416 0.029157124
000380 da df e0 3c 23 b0 4e bd 87 15 e2 bd eb 88 87 bd
       0.02745049 -0.050460946 -0.11039262 -0.06617912
000390 11 09 26 bd 0c bb 44 bd 68 7d 15 3e f8 2a 8a bd
       -0.04053599 -0.048029944 0.1459862 -0.06746477
0003a0 ef 45 35 bd 15 0f 9d 3d 0b 6a 5f bd ec 26 26 bd
       -0.044256147 0.07668892 -0.05454449 -0.040564463
0003b0 01 e3 33 bb a5 71 6e 3c 0d cc 96 3d d4 11 76 bd
       -0.0027448537 0.014553462 0.07363138 -0.060075596
0003c0 a2 f7 c7 bd e8 ff ce bd 69 40 39 bd 88 dd ff bc
       -0.09764029 -0.10107404 -0.045227442 -0.031233564
0003d0 38 64 29 3d 58 52 0c 3d 4d 19 83 3d 2b 51 2d 3d
       0.04135534 0.034258217 0.0640131 0.042313736
0003e0 fb 4e 51 bd b0 39 f6 bb 93 3b f4 3d 26 3c 34 be
       -0.051100712 -0.007514201 0.119254254 -0.1760107
0003f0 5e 60 87 3d dd f9 5b 3d 94 b9 98 3c 05 4b 57 bd
       0.066101775 0.053705085 0.018643178 -0.05256178

VAE_Encoder.layers.1.linear1.bias f4 [4]
000000 34 cf 91 bd 3a 6c d9 bd 25 8b a2 bd 16 92 c1 3d
       -0.07119599 -0.10616346 -0.07936696 0.09451692

VAE_Encoder.layers.1.norm1.weight f4 [4]
000000 b1 c0 92 3f 6f 0c 88 3f 43 da 84 3f 31 1e 85 3f
       1.1465055 1.0628794 1.0379108 1.0399839

VAE_Encoder.layers.1.norm1.bias f4 [4]
000000 3a 3a 5e bd 21 35 1d bd 8e ce 48 3d 25 69 53 3b
       -0.054254748 -0.038380746 0.04902511 0.0032258716

VAE_Encoder.layers.1.norm0.weight f4 [4]
000000 20 a8 7c 3f 8f 99 94 3f ea 3d 5f 3f e5 14 80 3f
       0.9869404 1.1609362 0.8720385 1.0006377

VAE_Encoder.layers.1.norm0.bias f4 [4]
000000 ba 9e 58 3c e8 b1 4f bd 8d 0a 8f bc d5 03 f0 bb
       0.013221437 -0.050706774 -0.017461086 -0.0073246756

VAE_Encoder.last_normalization.weight f4 [4]
000000 00 00 80 3f 00 00 80 3f 00 00 80 3f 00 00 80 3f
       1.0 1.0 1.0 1.0
