tabsyn/vae/ckpt/default/encoder.pt (torch, 23664 bytes, 33 tensors)

Tokenizer.weight f4 [15, 4]
0.15294135 -0.27490768 -0.0008735572 -0.4017735 -0.12998252 -0.24723436 0.18875818 -0.10508803
0.08762352 0.054494992 -0.13790531 0.07244407 0.045576945 -0.14358693 -0.12650114 0.15590836
0.10083714 -0.061501686 -0.21261178 0.089112304 0.11617344 0.10435783 0.11243964 -0.2162936
0.025261717 -0.08949335 0.37468016 0.07746015 0.17774206 0.23195091 0.201757 -0.11451295
-0.22619475 -0.20366697 0.18840864 -0.22183406 -0.25151017 -0.2898841 -0.2592529 0.11907093
-0.19238816 -0.28186834 0.42697513 -0.24010594 0.0020019708 -0.36202028 -0.25395653 -0.114493296
-0.30080518 -0.4061706 -0.29991445 0.08731089 -0.22362153 -0.12436705 0.08922727 -0.17597866
-0.18121992 0.21287961 -0.30124104 -0.05931425
00000000: a89c 1c3e b3c0 8cbe 6eff 64ba 42b5 cdbe
00000010: 231a 05be 012b 7dbe d349 413e 6538 d7bd
00000020: f673 b33d 2436 5f3d 0d37 0dbe 8e5d 943d
00000030: e4ae 3a3d 7408 13be 8489 01be 71a6 1f3e
00000040: b483 ce3d 31e9 7bbd e7b6 59be 8380 b63d
00000050: 57ec ed3d 8fb9 d53d c146 e63d 127c 5dbe
00000060: a9f1 ce3c 4a48 b7bd 14d6 bf3e 6da3 9e3d
00000070: 0402 363e 8a84 6d3e 6399 4e3e c485 eabd
00000080: 999f 67be 138e 50be 32ee 403e 7828 63be
00000090: f1c5 80be b06b 94be ccbc 84be 76db f33d
000000a0: 6701 45be 0c51 90be 7c9c da3e 55de 75be
000000b0: 7f33 033b b95a b9be 9706 82be 767b eabd
000000c0: 2303 9abe 98f5 cfbe 638e 99be 0dd0 b23d
000000d0: 0bfd 64be 27b4 febd c9bc b63d c033 34be
000000e0: b791 39be 1dfd 593e 443c 9abe 80f3 72bd

Tokenizer.bias f4 [23, 4]
-0.46981335 0.3946468 -0.005697204 0.43543163 -0.4144199 -0.25197145 -0.010416447 0.5158172
-0.5910354 0.12854339 0.6187305 0.36240658 -0.5720433 -0.017935427 -0.36570138 0.35292575
0.09144583 0.010103569 -0.5341648 -0.4454996 -0.36764622 0.5260039 -0.18534228 0.45424867
-0.009790103 -0.19783914 0.18235841 -0.060231738 -0.65555763 -0.20275213 -0.49368986 0.5650035
0.3512671 0.007961609 0.49093035 0.22325166 -0.63170034 -0.18371396 0.5628271 -0.40120915
-0.12625894 0.48450416 -0.44126347 0.5329413 0.09608798 -0.24442373 0.2219832 -0.1779905
-0.32787815 -0.3601287 0.22911257 0.4538892 0.03885227 0.15676437 -0.299098 0.6019712
0.2883619 0.16719003 0.25784838 -0.20256785 0.37428987 0.1912633 0.3207377 -0.15516986
-0.004360631 0.34598142 -0.24375708 0.26616645 -0.2417106 0.08279659 -0.4359506 -0.03907151
-0.11881123 -0.21643 -0.20861854 -0.17872193 0.003617445 0.03459709 0.14991885 0.3353077
0.03051432 0.34700033 -0.14556302 0.16369396 0.1380863 0.031002264 -0.4497837 -0.4392601
-0.21135308 -0.10859925 -0.20092942 0.09481357
00000000: 608b f0be 250f ca3e 9caf babb e5f0 de3e
00000010: d82e d4be 6702 81be bfa9 2abc 990c 043f
00000020: 194e 17bf e1a0 033e 1f65 1e3f 5b8d b93e
00000030: 6e71 12bf 51ed 92bc 363d bbbe afb2 b43e
00000040: f447 bb3d 7189 253c 06bf 08bf 8618 e4be
00000050: 203c bcbe 31a8 063f 5eca 3dbe 4893 e83e
00000060: ab66 20bc 5896 4abe 2abc 3a3e 8eb5 76bd
00000070: a0d2 27bf 419e 4fbe ebc4 fcbe 12a4 103f
00000080: 48d9 b33e 6971 023c 395b fb3e 159c 643e
00000090: 1db7 21bf 831f 3cbe 7015 103f 496b cdbe
000000a0: 064a 01be ee10 f83e 49ed e1be d76e 083f
000000b0: c6c9 c43d 374a 7abe 904f 633e 2443 36be
000000c0: a5df a7be ca62 b8be 7c9c 6a3e 2a64 e83e
000000d0: 8f23 1f3d d786 203e 6023 99be c91a 1a3f
000000e0: 2ca4 933e dd33 2b3e b404 843e f26d 4fbe
000000f0: eca2 bf3e 87da 433e bb37 a43e d9e4 1ebe
00000100: a0e3 8ebb 7a24 b13e 759b 79be f846 883e
00000110: fc82 77be 4291 a93d eb34 dfbe 7309 20bd
00000120: 4d53 f3bd d39f 5dbe 19a0 55be e202 37be
00000130: a812 6d3b aeb5 0d3d 5484 193e 73ad ab3e
00000140: 2bf9 f93c 07aa b13e 790e 15be 649f 273e
00000150: 7f66 0d3e 76f8 fd3c 0d4a e6be b3e6 e0be
00000160: f16c 58be 4969 debd 71c0 4dbe 9e2d c23d

Tokenizer.category_embeddings.weight f4 [77, 4]
0.17066969 -0.40074018 0.12533003 0.16664268 -0.2615765 0.09637628 -0.14463039 0.026953354
0.5054345 -1.1604729 0.2304285 0.0010967352 -0.35423952 -0.34310246 0.45629886 0.26222742
-0.30086312 0.081154115 -0.030372119 -0.052814916 0.14052641 -0.026404316 -0.20184511 0.19450983
0.33767357 0.14895895 -0.2851329 -0.6926786 -0.17161094 -0.39497167 -0.39474112 0.47424725
0.073956735 -0.3609202 0.20077334 0.27326387 -0.3059206 -0.30764514 -0.030924194 -0.56431603
-0.2073068 -0.10399328 -0.037728976 0.001201336 -0.018476333 -0.1303031 0.26990432 -0.5140299
0.27643523 -0.0029391178 0.0733307 -0.09381478 -0.016926853 -0.27392805 0.9454006 -0.12087738
0.49191663 -0.33388606 0.06751156 -0.47685573 -0.48696733 0.06298695 -0.3275476 -0.18941897
-0.10988679 -0.1757812 0.077763826 -0.5996811 0.30050984 -0.4836198 0.26586547 0.31922668
0.21437795 -0.024763066 -0.25686577 0.5832901 -0.002554507 -0.30617487 0.021268135 -0.32998598
-0.0714003 -0.026180336 0.09962034 -0.23890077 0.3282559 -0.3971721 0.19934592 0.19395384
0.25599754 -0.33532527 -0.058454882 0.2511637 0.0664447 -0.24118403 -0.015330522 -0.39910623
0.14532931 0.31644544 -0.45004758 0.28160265 -0.2663416 0.25014493 -0.22199713 -0.24704817
0.32128945 -0.34575778 0.2954191 -0.11936441 -0.08673048 -0.12830034 -0.22397192 -0.1796577
0.036206853 -0.6521653 -0.16557129 0.33921257 0.0026491443 -0.0045427326 -0.10207196 -0.021639243
-0.2083514 0.14875358 -0.35449383 -0.6054251 -0.07701586 0.06492422 -0.34996337 -0.30432913
0.11270079 0.9191135 0.020810487 -0.067086495 0.29768547 0.48109934 0.07939389 0.012850399
-0.47917017 -0.13047883 0.13023467 -0.22077785 0.28366274 -0.67204857 1.1394521 -0.2777713
0.0401302 0.005587407 0.72584313 -0.0757136 -0.1634276 0.07456837 -0.14471792 0.22968583
0.33315283 0.045004684 -0.10064994 -0.032236766 0.26852217 0.84579927 0.34535858 -0.29272008
-0.60963356 1.0041603 -1.1340756 -0.06241616 0.30441508 0.83641046 -0.7760447 -0.028870195
0.17390609 0.1102631 0.08524078 -0.26384965 0.045887407 -0.048412617 -0.09488573 -0.8766469
0.48124337 0.37579456 0.049277857 -0.06123455 0.388431 0.07544698 -0.2791702 -0.01154544
0.46023583 -0.47955155 0.21165524 0.1710305 -0.20773882 0.11078471 0.025200026 -0.14400654
0.22023465 0.43997562 -0.5491367 -0.30705383 -0.12325482 0.13513699 0.18993254 -0.30919898
0.06557609 0.10927673 -0.20772134 0.041391443 0.27856162 0.28571698 0.011149049 -0.51483536
-1.1058415 1.0153447 -0.84509206 0.77016556 0.40326345 -0.2808576 0.12084369 0.28476095
0.452593 0.38278902 0.5350391 0.21595418 -0.3486105 0.6237539 -0.465027 -0.44068226
0.16065164 -0.53252894 0.007167355 -0.040964637 -0.3007594 0.29369864 0.07145992 -0.20597535
0.21327423 -0.2384764 0.1360277 -0.07376437 -0.30749974 0.29135516 -0.16550386 0.43863413
-0.26257947 -0.6880488 0.042453334 0.44811326 -0.37393922 -0.29203004 0.31123462 0.48643613
-0.9336399 1.0588235 -0.5497038 0.5978381 -0.056985263 0.16757554 0.1469854 0.15676482
00000000: 09c4 2e3e d12d cdbe 8456 003e 61a4 2a3e
00000010: 5bed 85be ed60 c53d fd19 14be 48cd dc3c
00000020: 2864 013f 608a 94bf 73f5 6b3e 54c0 8f3a
00000030: e25e b5be 20ab afbe 01a0 e93e ac42 863e
00000040: bb0a 9abe 2134 a63d f3ce f8bc 7454 58bd
00000050: 28e6 0f3e dd4d d8bc 7cb0 4ebe 962d 473e
00000060: 8de3 ac3e b288 183e f1fc 91be 6253 31bf
00000070: c7ba 2fbe ba39 cabe 821b cabe 89d0 f23e
00000080: a176 973d 88ca b8be 8797 4d3e 3ee9 8b3e
00000090: a0a1 9cbe aa83 9dbe bc54 fdbc 0477 10bf
000000a0: 3c48 54be 6efa d4bd b389 1abd 2676 9d3a
000000b0: ae5b 97bc 2d6e 05be e630 8a3e 7797 03bf
000000c0: eb88 8d3e 379e 40bb 682e 963d f721 c0bd
000000d0: 2faa 8abc 4c40 8cbe c605 723f 8f8e f7bd
000000e0: 7fdc fb3e 1df3 aabe 8043 8a3d 6f26 f4be
000000f0: c853 f9be 4dff 803d 52b4 a7be 0cf7 41be
00000100: 530c e1bd fdff 33be a442 9f3d b384 19bf
00000110: 6ddc 993e 049d f7be 851f 883e ae71 a33e
00000120: e585 5b3e eadb cabc e983 83be 8052 153f
00000130: 8469 27bb f4c2 9cbe 833a ae3c ecf3 a8be
00000140: 523a 92bd 2578 d6bc c005 cc3d 67a2 74be
00000150: 2811 a83e 245a cbbe 5621 4c3e d69b 463e
00000160: 1c12 833e c1af abbe 636e 6fbd 8798 803e
00000170: 2914 883d f2f8 76be df2c 7bbc a757 ccbe
00000180: 35d1 143e 2305 a23e a36c e6be 392e 903e
00000190: ed5d 88be ff12 803e 3753 63be 32fa 7cbe
000001a0: 0d80 a43e 2a07 b1be 2c41 973e 5475 f4bd
000001b0: c09f b1bd 2a61 03be e558 65be 30f8 37be
000001c0: a34d 143d 4ef4 26bf 858b 29be 45ad ad3e
000001d0: 449d 2d3b 34db 94bb 1b0b d1bd c844 b1bc
000001e0: 125a 55be dc52 183e 3780 b5be 24fd 1abf
000001f0: 7eba 9dbd fdf6 843d 662e b3be 07d1 9bbe
00000200: accf e63d 064b 6b3f c17a aa3c a564 89bd
00000210: 3b6a 983e a752 f63e 4499 a23d 7b8a 523c
00000220: cb55 f5be 3e9c 05be 3d5c 053e 9713 62be
00000230: 3e3c 913e 600b 2cbf 91d9 913f 0a38 8ebe
00000240: 915f 243d 9116 b73b dbd0 393f bb0f 9bbd
00000250: 9159 27be 4db7 983d ef30 14be c332 6b3e
00000260: 0293 aa3e d556 383d 8e21 cebd b30a 04bd
00000270: bd7b 893e 4d86 583f d7d2 b03e 68df 95be
00000280: f210 1cbf 5388 803f 6429 91bf 16a8 7fbd
00000290: 4bdc 9b3e ff1e 563f deaa 46bf 3081 ecbc
000002a0: 7014 323e 9fd1 e13d b892 ae3d 4d17 87be
000002b0: 6ff4 3b3d 4f4c 46bd 7353 c2bd ee6b 60bf
000002c0: 8865 f63e 2568 c03e 94d7 493d 14d1 7abd
000002d0: 6ee0 c63e f283 9a3d 65ef 8ebe 1629 3dbc
000002e0: 08a4 eb3e c887 f5be 27bc 583e 9f22 2f3e
000002f0: 7cb9 54be 18e3 e23d 4970 ce3c 7376 13be
00000300: 3185 613e 7c44 e13e 3994 0cbf 2936 9dbe
00000310: 066d fcbd 5a61 0a3e ad7d 423e 544f 9ebe
00000320: c24c 863d 7acc df3d e7b4 54be 138a 293d
00000330: a19f 8e3e 7f49 923e 80aa 363c 40cc 03bf
00000340: 378c 8dbf d1f6 813f f457 58bf 9229 453f
00000350: 8c78 ce3e 91cc 8fbe e67c f73d 30cc 913e
00000360: 45ba e73e ecfc c33e 53f8 083f 1823 5d3e
00000370: 137d b2be 56ae 1f3f 0518 eebe 1ba1 e1be
00000380: dd81 243e d153 08bf 22dc ea3b 89ca 27bd
00000390: 23fd 99be ab5f 963e 9459 923d 34eb 52be
000003a0: 8f64 5a3e 2833 74be d84a 0b3e c611 97bd
000003b0: 9b70 9dbe 812c 953e d879 29be a794 e03e
000003c0: d170 86be f723 30bf 8ce3 2d3d 1a6f e53e
000003d0: f674 bfbe f684 95be 255a 9f3e 280e f93e
000003e0: 0603 6fbf 8787 873f 63b9 0cbf eb0b 193f
000003f0: 6169 69bd ec98 2b3e 5783 163e f586 203e

VAE_Encoder.layers.0.attention.W_q.weight f4 [4, 4]
-0.50771666 0.40392062 0.23374416 0.024980396 -0.025678856 -0.120337375 -0.2455234 -0.01124046
0.04480994 0.0020882855 -0.111831084 0.17573106 -0.11123291 -0.3293228 0.33246118 0.3683122
00000000: b8f9 01bf afce ce3e a15a 6f3e b0a3 cc3c
00000010: 775c d2bc 7173 f6bd 7c6a 7bbe e829 38bc
00000020: a18a 373d 9edb 083b b207 e5bd d8f2 333e
00000030: 14ce e3bd ff9c a8be 5a38 aa3e 6b93 bc3e

VAE_Encoder.layers.0.attention.W_q.bias f4 [4]
-0.26121792 -0.18060872 0.12291484 0.17379294
00000000: 5bbe 85be 7ef1 38be c7ba fb3d c7f6 313e

VAE_Encoder.layers.0.attention.W_k.weight f4 [4, 4]
0.31809404 0.2057446 0.044686977 0.077663995 0.5101887 -0.048887316 0.13497975 0.20298131
0.3296238 -0.2893472 -0.20331088 -0.2260659 0.33979076 -0.34426397 -0.20802121 -0.5592238
00000000: 39dd a23e b6ae 523e b109 373d 4d0e 9f3d
00000010: ba9b 023f 113e 48bd 2238 0a3e 55da 4f3e
00000020: 73c4 a83e 5125 94be ba30 50be d27d 67be
00000030: 0ef9 ad3e 5e43 b0be 8303 55be 4a29 0fbf

VAE_Encoder.layers.0.attention.W_k.bias f4 [4]
0.00025502095 0.00015725133 -5.4092914e-05 -0.00016992414
00000000: 55b4 8539 d5e3 2439 d3e1 62b8 aa2d 32b9

VAE_Encoder.layers.0.attention.W_v.weight f4 [4, 4]
-0.059175048 0.10599922 0.05291172 0.014438478 -0.05991163 0.10777413 0.05559833 0.016509052
-0.06481102 0.096352234 0.055023964 0.013288702 -0.05727904 0.10678465 0.05728991 0.007729737
00000000: 8961 72bd 1e16 d93d f6b9 583d 5e8f 6c3c
00000010: e665 75bd afb8 dc3d 13bb 633d fe3d 873c
00000020: a4bb 84bd 5254 c53d cf60 613d dbb8 593c
00000030: 6d9d 6abd e9b1 da3d d3a8 6a3d bc49 fd3b

VAE_Encoder.layers.0.attention.W_v.bias f4 [4]
-0.17184636 0.031224828 0.12648182 -0.057477538
00000000: 7ef8 2fbe 36cb ff3c 7384 013e 916d 6bbd

VAE_Encoder.layers.0.linear0.weight f4 [128, 4]
-0.31390473 -0.13255917 0.20463735 0.16008487 -0.2606389 0.06639314 0.2555618 0.16352464
-0.00022643828 -0.08171792 0.1439811 -0.3627792 0.6525736 -0.46247733 -0.17391846 -0.090824656
-0.39356238 -0.21905044 0.4860546 0.2240051 -0.04347799 0.07062296 0.39443552 0.36182347
-0.32252404 0.37517932 -0.5070905 -0.25107592 0.068282716 -0.17203882 -0.10524309 -0.2694451
-0.018750494 -0.36325267 0.39978945 0.28910583 -0.19325863 0.21400084 -0.2866371 -0.12270046
-0.0970826 0.10338229 -0.25796962 0.4469974 0.10101678 -0.11071297 -0.12296538 -0.45961702
-0.3660744 -0.0074472087 0.27085674 -0.45975703 -0.1341395 0.11535061 -0.12656143 0.5573368
-0.08871165 -0.37205157 -0.38572267 0.13576563 0.46042925 -0.18059802 -0.66690356 0.3020507
0.21649875 -0.3638193 0.31632456 0.4948724 0.6558934 -0.35869056 0.32127222 -0.3679716
0.5580391 -0.4689153 -0.42832455 0.27489534 -0.2553162 0.02824924 0.05470731 -0.4867407
0.52697384 -0.2916834 -0.15138224 -0.20909 0.08240578 0.29840648 0.46845475 -0.119644545
0.31370622 0.39787975 -0.11873178 -0.06395186 0.530904 0.30250573 -0.25506848 -0.32168126
0.3802778 -0.32107255 -0.25138593 0.33800173 -0.12573266 -0.47981057 0.52657217 -0.22482774
0.080924205 -0.5226937 0.25418153 -0.08668982 -0.29926723 0.21459304 0.06542131 0.40985766
0.31295282 0.0042942986 -0.08329551 0.3721873 -0.25744262 0.34788004 -0.28509688 -0.3209158
0.34546927 -0.38850743 0.5987525 -0.26197773 -0.19132304 -0.09097755 -0.03278649 -0.024424314
0.19712906 -0.37785658 0.5236781 -0.22896594 0.23943357 0.26057515 -0.022783622 -0.207696
-0.07671316 -0.08576727 0.09215146 0.36889225 0.424577 -0.38569078 0.4556228 -0.34060273
-0.25989702 -0.33571708 0.22171398 -0.031642657 0.22570682 -0.32523644 -0.2731529 0.3128346
-0.0062810574 0.47885925 0.03440872 -0.32341373 0.07367887 -0.5028359 -0.09982019 -0.38229036
-0.18142636 -0.16282256 -0.19280417 -0.3524441 0.1000913 0.09386508 -0.5281058 0.06524709
0.43427533 -0.16103953 -0.070980474 -0.64183456 0.24761882 0.18074821 0.30230308 -0.23881096
0.3302739 -0.24251434 0.06738268 0.49628294 -0.4596352 0.5015397 0.27311003 0.42499155
-0.3879901 0.23634559 -0.091295965 -0.20741974 0.45623368 0.37770057 -0.4866207 0.12736487
-0.34128487 -0.17939907 -0.3196504 -0.23116189 -0.39897683 -0.26468366 0.1554014 -0.4260752
0.10885908 -0.4648934 -0.43997368 -0.17394274 -0.07944535 0.32020143 -0.16807434 0.21234334
0.3237133 -0.16983376 -0.033040386 -0.4508843 0.1100118 0.0022988801 0.29920065 -0.17631684
-0.24749704 0.13352002 -0.30677307 0.024186855 -0.26343375 0.049897775 0.4594039 -0.103818655
0.038070083 0.45674023 0.074214324 0.4216314 0.08278605 0.4055608 -0.2994228 0.32314602
-0.021671599 0.36109528 -0.12681362 0.17249906 0.43744498 0.07625916 -0.5660959 -0.1919538
-0.4292474 0.414797 -0.1824243 -0.3808179 0.153021 -0.45178685 0.064707756 0.24978116
-0.3354232 -0.5684703 -0.15041727 0.31424025 0.4442247 0.049014084 0.56476563 0.10144839
00000000: 1fb8 a0be 97bd 07be 748c 513e 4aed 233e
00000010: 7672 85be 20f9 873d ffd8 823e 0173 273e
00000020: 1070 6db9 ba5b a7bd c86f 133e 32be b9be
00000030: 100f 273f d4c9 ecbe ae17 32be 4702 babd
00000040: 0281 c9be c24e 60be 26dc f83e 9861 653e
00000050: fa15 32bd c5a2 903d 74f3 c93e ed40 b93e
00000060: df21 a5be 8117 c03e afd0 01bf 068d 80be
00000070: cfd7 8b3d f22a 30be b089 d7bd b5f4 89be
00000080: a39a 99bc 41fc b9be 34b1 cc3e ae05 943e
00000090: 97e5 45be 0923 5b3e 19c2 92be 614a fbbd
000000a0: 3ed3 c6bd 18ba d33d 9814 84be d8dc e43e
000000b0: e3e1 ce3d 7bbd e2bd 46d5 fbbd ec52 ebbe
000000c0: 1b6e bbbe b707 f4bb bcad 8a3e 4665 ebbe
000000d0: dd5b 09be f13c ec3d 5299 01be a0ad 0e3f
000000e0: 74ae b5bd 8b7d bebe 717d c5be 2506 0b3e
000000f0: 62bd eb3e b0ee 38be 31ba 2abf 64a6 9a3e
00000100: d9b1 5d3e 8646 babe 4bf5 a13e ea5f fd3e
00000110: a1e8 273f 4aa6 b7be cb7d a43e c666 bcbe
00000120: a7db 0e3f ab15 f0be 5b4d dbbe 15bf 8c3e
00000130: ceb8 82be f36a e73c c614 603d 1436 f9be
00000140: c2e7 063f 8757 95be f203 1bbe b01b 56be
00000150: 5dc4 a83d bcc8 983e 4dd9 ef3e 3308 f5bd
00000160: 1a9e a03e e5b6 cb3e a629 f3bd 31f9 82bd
00000170: 53e9 073f 08e2 9a3e 5698 82be 68b3 a4be
00000180: c6b3 c23e 9f63 a4be a8b5 80be 900e ad3e
00000190: 10c0 00be bba9 f5be 6fcd 063f 3e39 66be
000001a0: 97bb a53d 41cf 05bf 1524 823e 6f8a b1bd
000001b0: 8e39 99be 47be 5b3e 9cfb 853d ddd8 d13e
000001c0: 5a3b a03e 30b7 8c3b d696 aabd 558f be3e
000001d0: 85cf 83be 551d b23e 38f8 91be 134f a4be
000001e0: 59e1 b03e 72ea c6be d847 193f f221 86be
000001f0: 30ea 43be 7052 babd 204b 06bd 8015 c8bc
00000200: 33dc 493e 6b76 c1be c50f 063f 0c76 6abe
00000210: 132e 753e 1b6a 853e b8a4 babc 43ae 54be
00000220: ca1b 9dbd c0a6 afbd e8b9 bc3d 72df bc3e
00000230: 2862 d93e 4379 c5be 6447 e93e 7b63 aebe
00000240: 3911 85be 1ce3 abbe fd08 633e bb9b 01bd
00000250: b01f 673e 6485 a6be b2da 8bbe db2b a03e
00000260: 54d1 cdbb 0a2d f53e 28f0 0c3d 7c96 a5be
00000270: f3e4 963d dbb9 00bf 876e ccbd 90bb c3be
00000280: d5c7 39be f5ba 26be 756e 45be 8e73 b4be
00000290: abfc cc3d 563c c03d f131 07bf 44a0 853d
000002a0: 5659 de3e 8ce7 24be 365e 91bd 454f 24bf
000002b0: ca8f 7d3e 0f16 393e 78c7 9a3e dc8a 74be
000002c0: a919 a93e ae55 78be eeff 893d cc18 fe3e
000002d0: 4e55 ebbe e864 003f 14d5 8b3e 7e98 d93e
000002e0: a3a6 c6be 9404 723e 61f9 babd d765 54be
000002f0: 7697 e93e f861 c13e 5926 f9be f06b 023e
00000300: e4bc aebe 64b4 37be 38a9 a3be b4b5 6cbe
00000310: b146 ccbe 9e84 87be 8b21 1f3e 8726 dabe
00000320: 82f1 de3d 8206 eebe 3b44 e1be 0c1e 32be
00000330: 3eb4 a2bd 71f1 a33e ae1b 2cbe 8870 593e
00000340: c0bd a53e e7e8 2dbe 5b55 07bd 4fda e6be
00000350: de4d e13d cfa8 163b d430 993e 678c 34be
00000360: dd6f 7dbe 79b9 083e 5c11 9dbe 8323 c63c
00000370: cae0 86be 9c61 4c3d fd36 eb3e e09e d4bd
00000380: 60ef 1b3d dbd9 e93e aefd 973d 12e0 d73e
00000390: bc8b a93d aaa5 cf3e f24d 99be 6573 a53e
000003a0: a388 b1bc 7be1 b83e 6edb 01be 98a3 303e
000003b0: caf8 df3e c32d 9c3d a9eb 10bf 898f 44be
000003c0: 51c6 dbbe 4660 d43e 70cd 3abe 90fa c2be
000003d0: 89b1 1c3e 9b50 e7be 8085 843d a2c6 7f3e
000003e0: 97bc abbe 4587 11bf fc06 1abe 19e4 a03e
000003f0: 6b71 e33e fec2 483d 7b94 103f 2cc4 cf3d

VAE_Encoder.layers.0.linear0.bias f4 [128]
-0.20359729 -0.2319569 0.16881897 -0.22714366 -0.13632157 -0.0963723 -0.4495444 0.084392406
0.4398319 0.045631316 -0.28507063 -0.16729136 -0.18286887 0.29961994 -0.25365657 -0.22300762
0.019340152 0.17741534 -0.17019792 -0.060362745 0.47017846 -0.4427096 -0.016689142 -0.079813175
-0.4005272 0.10929037 0.27571988 -0.050375644 0.45772865 0.45447627 0.41771775 -0.48629862
0.3859479 0.45033997 0.53219193 0.29029092 0.1252955 -0.030597145 -0.12681264 -0.19564065
-0.061141655 -0.0013765356 -0.11001187 0.26487902 -0.21741931 0.48621374 0.27077138 -0.12998182
-0.3748119 -0.4265988 -0.13631192 -0.104153596 0.08763792 0.036940955 0.3650885 -0.17488839
0.31380248 -0.3796329 0.1837193 -0.0043937927 0.4521323 -0.2866181 -0.04254345 0.2601877
-0.039105784 -0.21486168 -0.08719958 -0.024440296 0.036939643 0.28118256 -0.34145626 0.29785112
0.0441878 -0.08771735 0.27599198 -0.027800348 -0.10992055 -0.13991699 0.11074159 0.33208352
-0.01547595 -0.42639488 0.48749068 -0.0056995205 -0.4505131 -0.07665005 0.30961818 0.4844601
0.013482724 -0.45136544 0.023768919 -0.28514045 -0.24099141 0.3386138 -0.2721554 0.14730342
0.050863076 0.15513575 0.3490054 0.48210645 0.2556803 0.16160229 0.0034915763 -0.06085768
0.19375497 0.1123589 0.328726 -0.3884632 -0.01936842 -0.18639903 0.051466532 0.36388037
0.22275682 -0.30243337 -0.17503817 0.39727908 -0.46452355 0.085016355 0.105622865 0.3904713
0.34033373 -0.2810695 -0.37744138 -0.47328106 0.4431758 -0.15268166 -0.21872437 0.25790593
00000000: cf7b 50be 1c86 6dbe e1de 2c3e 5998 68be
00000010: e297 0bbe d75e c5bd af2a e6be edd5 ac3d
00000020: a631 e13e e7e7 3a3d c7f4 91be 6d4e 2bbe
00000030: fa41 3bbe c967 993e 46df 81be 1c5c 64be
00000040: 3d6f 9e3c 5eac 353e 5d48 2ebe ed3e 77bd
00000050: 3bbb f03e d5aa e2be abb7 88bc 1775 a3bd
00000060: e711 cdbe a1d3 df3d 282b 8d3e b156 4ebd
00000070: 695b ea3e 1db1 e83e 1adf d53e 22fc f8be
00000080: f79a c53e f692 e63e bb3d 083f 03a1 943e
00000090: 774d 003e dda6 fabc 2cdb 01be 0656 48be
000000a0: ac6f 7abd df6c b4ba e74d e1bd 399e 873e
000000b0: 2ba3 5ebe 02f1 f83e 8ca2 8a3e f419 05be
000000c0: 58e7 bfbe 286b dabe 5a95 0bbe 7b4e d5bd
000000d0: 837b b33d 664f 173d e1ec ba3e f115 33be
000000e0: b8aa a03e 3e5f c2be ea20 3c3e cef9 8fbb
000000f0: e37d e73e 9cbf 92be 0a42 2ebd 5237 853e
00000100: 632d 20bd b304 5cbe b295 b2bd 0437 c8bc
00000110: 064e 173d 29f7 8f3e 5bd3 aebe f17f 983e
00000120: 44fe 343d 27a5 b3bd d24e 8d3e 8ebd e3bc
00000130: 061e e1bd 6646 0fbe 7dcc e23d da06 aa3e
00000140: d78e 7dbc 6e50 dabe 6198 f93e 0bc3 babb
00000150: a7a9 e6be b4fa 9cbd 4686 9e3e 270b f83e
00000160: a5e6 5c3c 5f19 e7be 09b7 c23c eefd 91be
00000170: 74c6 76be ca5e ad3e f457 8bbe b5d6 163e
00000180: cd55 503d e8db 1e3e d6b0 b23e a8d6 f63e
00000190: 87e8 823e 127b 253e eed2 643b e745 79bd
000001a0: b467 463e 6c1c e63d c64e a83e a6e4 c6be
000001b0: 85aa 9ebc 63df 3ebe 92ce 523d 874e ba3e
000001c0: 5d1a 643e 8cd8 9abe 353d 33be 2a68 cb3e
000001d0: 08d6 edbe 0e1d ae3d cd50 d83d dbeb c73e
000001e0: 3940 ae3e 57e8 8fbe ff3f c1be e551 f2be
000001f0: f0e7 e23e 9558 1cbe 48f9 5fbe 3f0c 843e

VAE_Encoder.layers.0.linear1.weight f4 [4, 128]
0.07563242 -0.03839297 0.08125395 0.038083676 0.02836934 -0.0644566 0.14342958 0.053031474
-0.012144036 -0.07714756 0.08513365 -0.081004135 -0.063758284 -0.024754507 0.04973775 0.13184811
0.008146334 -0.069218576 0.093661465 0.0009253633 -0.033343352 -0.06636776 0.0683509 -0.10529546
0.08851638 -0.12213598 -0.04624104 -0.07711578 0.027157053 0.04122363 -0.15270531 -0.010504396
-0.018375244 -0.064396255 -0.062520094 0.040114403 0.034015533 -0.020999303 0.095112145 0.08990126
-0.044030417 -0.115227126 0.04420256 -0.018513454 -0.05005993 -0.05234243 -0.04344663 0.023633257
-0.08488273 -0.052282047 0.14904468 -0.156089 -0.021812638 -0.0017170691 -0.06921422 0.14244935
0.07065321 -0.02364289 0.009389211 0.035183914 -0.036283556 -0.17796037 0.017569609 -0.12203925
-0.05404389 0.06723965 -0.02730503 -0.062649876 0.11091472 -0.07293911 0.09144754 0.09642943
-0.07877022 0.077033564 -0.07814968 0.050085705 -0.0785348 0.019350214 -0.025519714 0.06618293
-0.025558773 -0.0073787835 -0.027482595 0.115764186 -0.119994685 0.09114184 -0.1484883 -0.051654577
-0.06530433 0.14026013 0.029975573 -0.0072249863 -0.055598356 -0.094662465 0.08896917 -0.014061308
0.018929873 0.011002991 0.001745637 0.024246052 -0.036769204 -0.11252582 -0.10402747 -0.02436321
0.03551605 -0.14182824 -0.09444278 -0.14626725 -0.074860305 -0.14183985 -0.15171376 0.054057103
-0.057007495 0.13687158 0.050221823 0.03132465 0.20025168 0.018146856 -0.015904143 -0.0022534481
-0.02275361 -0.12088006 -0.09882245 -0.011430844 -0.073090345 0.08140889 0.017907145 -0.0684634
0.04646222 0.077207595 0.103128254 -0.09035187 0.0013786108 0.07505886 -0.042830642 -0.053890426
0.001246794 -0.0064975037 0.05763893 0.0629115 0.11761558 -0.01643155 -0.13619481 -0.15703829
0.020706639 -0.083029844 0.034733035 -0.014248414 -0.041137315 0.0105690705 -0.03000912 0.10310513
0.020671915 0.030706283 -0.10293748 -0.015166743 0.020603547 0.024257913 0.016478734 0.042069614
0.0457221 -0.069734745 -0.061420415 -0.044873074 0.02941094 0.089855805 -0.13763508 -0.20505904
0.09687559 -0.077152565 0.1676361 -0.042105675 0.09074978 -0.012528636 -0.015790537 -0.12949105
0.0019841366 0.10379635 -0.11585906 0.038710427 -0.05750738 0.08729361 -0.11779226 -0.09020384
-0.047847327 -0.015285323 -0.05566024 0.1367425 0.11274515 0.18994416 -0.15591206 0.08068968
0.068865545 0.014596689 0.034421064 0.021719515 -0.10206139 0.01453441 -0.059770286 -0.103873156
0.008739087 -0.095696576 -0.043810952 -0.14296278 -0.09570289 0.076763414 0.048548594 0.077348135
-0.080878 -0.17367662 -0.09015241 -0.022660915 0.102655575 -0.06828944 0.00515222 0.002113428
-0.11816853 0.035000283 0.11620422 0.093681775 0.052443154 0.037969984 0.027673468 0.11889782
0.07951371 -0.09804073 -0.098661676 0.114527814 0.15318684 -0.1085224 0.03326018 -0.02042741
0.055518314 -0.038018916 -0.014842226 0.25339237 0.030512802 0.19285546 -0.055732697 -0.067795634
-0.07888519 -0.18591332 0.078971334 -0.10920948 -0.06707098 -0.025914095 0.035348263 -0.04898455
0.03837015 0.065098785 -0.026097458 -0.13099922 0.12596004 0.054311253 0.2964091 0.06452697
00000000: 2ce5 9a3d f241 1dbd 7968 a63d a1fd 1b3d
00000010: d166 e83c d201 84bd 34df 123e 8837 593d
00000020: c7f7 46bc 8aff 9dbd 8d5a ae3d 7fe5 a5bd
00000030: b493 82bd f7c9 cabc d0b9 4b3d 3103 073e
00000040: 3478 053c 78c2 8dbd 95d1 bf3d 1494 723a
00000050: 0a93 08bd d2eb 87bd 8ffb 8b3d 25a5 d7bd
00000060: 1348 b53d 6e22 fabd 3f67 3dbd e1ee 9dbd
00000070: 7878 de3c 1cda 283d c85e 1cbe a11a 2cbc
00000080: ae87 96bc 2fe2 83bd 890a 80bd 004f 243d
00000090: df53 0b3d bb06 acbc 28ca c23d 271e b83d
000000a0: 3d59 34bd 33fc ebbd be0d 353d 87a9 97bc
000000b0: a40b 4dbd 0465 56bd 18f5 31bd 889a c13c
000000c0: ffd6 adbd b325 56bd 2b9f 183e cbd5 1fbe
000000d0: 6bb0 b2bc 470f e1ba 2fc0 8dbd 3ede 113e
000000e0: a1b2 903d bcae c1bc 35d5 193c 021d 103d
000000f0: 119e 14bd 3e3b 36be 24ee 8f3c b7ef f9bd
00000100: 205d 5dbd f1b4 893d ccae dfbc 944e 80bd
00000110: 4227 e33d 1a61 95bd d948 bb3d cb7c c53d
00000120: 4852 a1bd c6c3 9d3d f00c a0bd ab26 4d3d
00000130: dad6 a0bd 5784 9e3c b80e d1bc ea8a 873d
00000140: a260 d1bc b9c9 f1bb 2e23 e1bc c615 ed3d
00000150: c6bf f5bd 93a8 ba3d 510d 18be c093 53bd
00000160: 47be 85bd 5aa0 0f3e 558f f53c 94bf ecbb
00000170: 1abb 63bd 65de c1bd 7835 b63d 6661 66bc
00000180: d212 9b3c e445 343c dccd e43a a89f c63c
00000190: 4e9b 16bd f073 e6bd 5b0c d5bd 5b95 c7bc
000001a0: 4779 113d 6c3b 11be 376b c1bd 15c7 15be
000001b0: 5c50 99bd 773e 11be da5a 1bbe fb6a 5d3d
000001c0: b180 69bd 1028 0c3e 66b5 4d3d 474e 003d
000001d0: c70e 4d3e b7a8 943c 6849 82bc 96ae 13bb
000001e0: c765 babc f78f f7bd 6d63 cabd 6f48 3bbc
000001f0: 64b0 95bd b4b9 a63d 01b2 923c 8a36 8cbd
00000200: 2b4f 3e3d 041f 9e3d e834 d33d 670a b9bd
00000210: 81b2 b43a 76b8 993d 2f6f 2fbd 35bc 5cbd
00000220: 776b a33a 03e9 d4bb cc16 6c3d bfd7 803d
00000230: 70e0 f03d 759b 86bc a776 0bbe a5ce 20be
00000240: f8a0 a93c 8d0b aabd 3a44 0e3d 2e72 69bc
00000250: 9a7f 28bd e529 2d3c b0d5 f5bc c828 d33d
00000260: 2658 a93c be8b fb3c e3d0 d2bd ee7d 78bc
00000270: c5c8 a83c 88b8 c63c 69fe 863c 3051 2c3d
00000280: 1947 3b3d 17d1 8ebd f993 7bbd d4cc 37bd
00000290: 36ef f03c 5206 b83d 36f0 0cbe fffa 51be
000002a0: b666 c63d 2a02 9ebd cca8 2b3e 0077 2cbd
000002b0: 05db b93d e844 4dbc 285b 81bc 4d99 04be
000002c0: 4a08 023b 2e93 d43d 8447 edbd d38e 1e3d
000002d0: dc8c 6bbd fec6 b23d 123d f1bd cabc b8bd
000002e0: 8ffb 43bd 4b6f 7abc fefb 63bd 3a06 0c3e
000002f0: eee6 e63d b980 423e 69a7 1fbe a240 a53d
00000300: 6109 8d3d f326 6f3c 1afd 0c3d 20ed b13c
00000310: 9005 d1bd bc21 6e3c b0d1 74bd 73bb d4bd
00000320: 632e 0f3c 91fc c3bd 1d73 33bd d664 12be
00000330: e0ff c3bd 2336 9d3d e4da 463d b368 9e3d
00000340: 5da3 a5bd 49d8 31be d4a1 b8bd 62a3 b9bc
00000350: 163d d23d 55db 8bbd f4d3 a83b 7081 0a3b
00000360: 5802 f2bd 755c 0f3d 7afc ed3d 3bdc bf3d
00000370: a2ce 563d 6a86 1b3d 78b3 e23c b380 f33d
00000380: 16d8 a23d 94c9 c8bd 220f cabd 8f8d ea3d
00000390: 03dd 1c3e fe40 debd d43b 083d 6257 a7bc
000003a0: 2c67 633d b9b9 1bbd cf2c 73bc a5bc 813e
000003b0: fcf5 f93c e77b 453e f847 64bd 70d8 8abd
000003c0: 8f8e a1bd 1060 3ebe b9bb a13d 38a9 dfbd
000003d0: 835c 89bd cc49 d4bc 57c9 103d 06a4 48bd
000003e0: 052a 1d3d 8352 853d 56ca d5bc a924 06be
000003f0: abfb 003e 7a75 5e3d efc2 973e b726 843d

VAE_Encoder.layers.0.linear1.bias f4 [4]
-0.032945063 -0.07617343 0.022867193 0.011837506
00000000: 67f1 06bd d100 9cbd fb53 bb3c 19f2 413c

VAE_Encoder.layers.0.norm1.weight f4 [4]
1.1590686 1.0915974 1.1556438 1.0683084
00000000: 5c5c 943f 77b9 8b3f 23ec 933f 54be 883f

VAE_Encoder.layers.0.norm1.bias f4 [4]
-0.008149806 -0.050615758 0.015172601 0.08551389
00000000: c486 05bc 7852 4fbd 8096 783c e821 af3d

VAE_Encoder.layers.1.attention.W_q.weight f4 [4, 4]
-0.32202223 -0.105501875 -0.086685754 0.52779216 -0.26207834 -0.33291352 -0.4755694 -0.20219876
-0.5462089 0.33573928 -0.16104944 0.42465785 -0.23676528 -0.10308364 0.3234048 -0.5201786
00000000: 19e0 a4be 5e11 d8bd 4d88 b1bd 631d 073f
00000010: 222f 86be a473 aabe d57d f3be 310d 4fbe
00000020: 59d4 0bbf 05e6 ab3e 25ea 24be c16c d93e
00000030: 9972 72be 841d d3bd 5095 a53e 6d2a 05bf

VAE_Encoder.layers.1.attention.W_q.bias f4 [4]
0.13061419 -0.20936157 0.2764801 -0.09988183
00000000: babf 053e e162 56be cd8e 8d3e d88e ccbd

VAE_Encoder.layers.1.attention.W_k.weight f4 [4, 4]
-0.48067144 0.25706583 0.05328028 0.43227825 -0.35799363 0.1119738 0.025287645 -0.48174414
-0.2445407 -0.29403058 0.22346126 0.56398773 0.4547323 0.28447762 -0.3970999 -0.122411944
00000000: 911a f6be 229e 833e 6c3c 5a3d 9353 dd3e
00000010: f14a b7be 8552 e53d 0928 cf3c 2ba7 f6be
00000020: e168 7abe 2d8b 96be 07d3 643e 8061 103f
00000030: acd2 e83e 0da7 913e ae50 cbbe 1db3 fabd

VAE_Encoder.layers.1.attention.W_k.bias f4 [4]
0.0002469022 -4.7369962e-05 0.00013196676 0.000402716
00000000: a772 8139 1caf 46b8 8f60 0a39 a023 d339

VAE_Encoder.layers.1.attention.W_v.weight f4 [4, 4]
0.4385426 -0.13076133 0.46713457 0.4982458 0.2199607 0.061135866 0.37067524 0.15377171
0.2628047 -0.1080432 0.2989646 0.10292973 -0.18386832 -0.21509294 0.13530801 -0.023290271
00000000: a888 e03e 4ce6 05be 432c ef3e 131a ff3e
00000010: 613d 613e 9a69 7a3d 25c9 bd3e 5576 1d3e
00000020: 568e 863e c145 ddbd e311 993e d3cc d23d
00000030: fa47 3cbe 5341 5cbe 2f8e 0a3e 3dcb bebc

VAE_Encoder.layers.1.attention.W_v.bias f4 [4]
0.023871986 -0.03831762 0.0026992504 -0.025377825
00000000: 2f8f c33c f0f2 1cbd e8e5 303b 28e5 cfbc

VAE_Encoder.layers.1.linear0.weight f4 [128, 4]
-0.21935251 0.7752857 -0.41275272 -0.12590005 -0.24536078 0.26292282 -0.47825226 0.047529798
-0.5305853 -0.47595054 0.58496726 -0.27807194 0.25763598 0.21683037 -0.26449123 -0.045623258
-0.21795562 0.58482575 -0.2567167 0.0074056694 0.4475104 0.028939322 0.21293521 -0.16164029
-0.1602366 -0.45039648 -0.17174213 0.4956556 -0.484215 -0.6447393 -0.37821135 0.016085988
-0.43521723 0.24677259 0.0251608 -0.5401207 -0.124772176 -0.38651922 0.38773283 -0.37612084
0.25635552 0.45348746 -0.16966464 -0.1865402 0.1619439 -0.11853727 0.3622116 -0.38015252
-0.16295108 -0.049780797 0.25413015 -0.21896555 0.28121483 0.48191777 -0.52142555 -0.2385108
-0.09034132 0.2347955 0.45117742 -0.29101464 0.12657839 0.5071342 0.043542765 -0.4243539
0.37271652 -0.22486253 -0.14078702 0.27051648 -0.33527863 0.58668524 -0.19309466 -0.108339645
0.18946847 -0.34960553 -0.42752588 0.07330408 -0.20555219 0.028620377 -0.23983707 0.36454228
-0.16019619 -0.1393118 0.45892262 -0.107915 0.33513856 -0.5032531 -0.06809751 0.52509785
0.39465 0.019173466 0.38941458 -0.54302555 0.0062585203 -0.23879154 -0.42417622 0.0970732
0.20096824 -0.37214333 0.60928845 -0.53375053 0.36805248 0.21490169 0.43410197 -0.5653009
-0.22017424 -0.47817197 -0.48991928 0.10762204 0.31267458 0.19610283 -0.2791824 0.3913828
-0.3320066 0.4185375 0.2309784 0.13934673 -0.5032077 -0.5147359 -0.0647097 -0.044592563
0.16149096 0.4924188 -0.36520723 -0.3447799 0.18668903 0.34618968 0.2739046 -0.30859667
-0.35111314 0.107692435 -0.37325802 -0.24043874 -0.036081076 0.9488069 -0.50232685 -0.47939128
0.20310493 0.096228346 0.19224323 -0.062959366 0.53437746 0.040453598 0.20743343 0.4489697
0.4747621 0.5279206 0.37270293 -0.30500185 -0.25741327 0.18739791 0.14266327 0.37492305
0.1818922 -0.1890499 -0.3564311 0.26635608 -0.26238102 -0.21433048 -0.28606904 0.050794166
0.08278237 0.5490879 0.039310858 0.1966242 0.030018467 0.3453256 -0.046528235 -0.23586358
-0.4170307 0.004441387 0.5570292 -0.04601882 0.5513579 0.56594443 -0.2901837 -0.46754664
0.4361539 0.27811435 -0.16703598 0.1706947 -0.5420908 -0.25367114 -0.58697283 -0.09242459
-0.4685704 0.26887202 -0.096189335 -0.05931703 -0.43496785 0.0016815028 -0.50812984 0.20542903
0.33420423 -0.44737387 -0.4003054 0.34728456 0.30792084 0.33749273 -0.47130665 0.12439093
0.4859021 0.17900768 -0.51851773 -0.14103705 0.35350177 -0.20600915 -0.24635483 0.40426895
0.16621754 0.1651021 0.2250428 -0.4697605 0.22617632 0.4892443 -0.4964806 0.15335879
-0.034168694 -0.21013913 0.10746838 -0.3485226 0.085257195 -0.45301643 -0.3531239 -0.31298757
0.37208164 -0.09828013 -0.4720939 0.3699382 -0.24032684 0.18391134 -0.34799153 0.28726462
-0.35544702 -0.12757754 0.33805963 -0.35073972 0.3126608 0.59226865 0.10773303 0.33565092
0.33340874 0.3595398 0.2077778 0.061142474 0.11534737 -0.26641756 -0.0892139 0.33160728
0.4252696 0.11640507 0.28674933 0.27038586 0.010673762 0.49065438 0.4149401 -0.26991037
00000000: f29d 60be 2079 463f 5354 d3be f1eb 00be
00000010: db3f 7bbe d29d 863e 7bdd f4be 9bae 423d
00000020: 70d4 07bf caaf f3be 6ac0 153f 725f 8ebe
00000030: dde8 833e c808 5e3e 656b 87be 74df 3abd
00000040: c22f 5fbe 24b7 153f 5f70 83be 42ab f23b
00000050: 1520 e53e 2812 ed3c b00b 5a3e 0885 25be
00000060: 1015 24be 5e9a e6be 2bdd 2fbe 92c6 fd3e
00000070: 07eb f7be a20d 25bf eba4 c1be c3c6 833c
00000080: cbd4 debe f4b1 7c3e 061e ce3c 5a45 0abf
00000090: 8e88 ffbd d9e5 c5be eb84 c63e e992 c0be
000000a0: 0841 833e 822f e83e 91bc 2dbe 6504 3fbe
000000b0: 9fd4 253e abc3 f2bd cd73 b93e 5aa3 c2be
000000c0: a6dc 26be f3e6 4bbd 591d 823e 8138 60be
000000d0: 64fb 8f3e edbd f63e 257c 05bf 2d3c 74be
000000e0: df04 b9bd 3b6e 703e ba00 e73e dfff 94be
000000f0: c49d 013e 8cd3 013f e659 323d ea44 d9be
00000100: b3d4 be3e 5d42 66be 792a 10be 2381 8a3e
00000110: a4a9 abbe 0131 163f 9bba 45be 2de1 ddbd
00000120: 0604 423e 7fff b2be ace4 dabe 7320 963d
00000130: 467c 52be 4875 ea3c d997 75be 49a5 ba3e
00000140: 780a 24be c1a7 0ebe e8f7 ea3e 8a02 ddbd
00000150: 4897 ab3e 32d5 00bf b576 8bbd d06c 063f
00000160: 910f ca3e ac11 9d3c 5961 c73e b903 0bbf
00000170: 4614 cd3b c585 74be a02d d9be 50ce c63d
00000180: 9eca 4d3e 9289 bebe 54fa 1b3f e0a3 08bf
00000190: 6071 bc3e 300f 5c3e 9d42 de3e 8fb7 10bf
000001a0: 5b75 61be f5d2 f4be b3d6 fabe f268 dc3d
000001b0: e216 a03e 2ecf 483e fff0 8ebe 5463 c83e
000001c0: c5fc a9be 8c4a d63e 9a85 6c3e e9b0 0e3e
000001d0: 38d2 00bf bbc5 03bf 8586 84bd b1a6 36bd
000001e0: e35d 253e 511e fc3e 71fc babe fe86 b0be
000001f0: 692b 3f3e c63f b13e 393d 8c3e 6200 9ebe
00000200: 1ac5 b3be da8d dc3d ad1b bfbe 9335 76be
00000210: c0c9 13bd 02e5 723f 7e98 00bf c672 f5be
00000220: bdfa 4f3e 5e13 c53d 69db 443e d7f0 80bd
00000230: f6cc 083f acb2 253d 6e69 543e 5bdf e53e
00000240: 0514 f33e ce25 073f ebd2 be3e 3429 9cbe
00000250: accb 83be 3de5 3f3e 5216 123e eaf5 bf3e
00000260: f341 3a3e 4c96 41be 237e b6be d35f 883e
00000270: ce56 86be 7379 5bbe a477 92be 8b0d 503d
00000280: ce89 a93d 0691 0c3f 6c04 213d db57 493e
00000290: 4ae9 f53c 84ce b03e 6494 3ebd 3986 71be
000002a0: 0c85 d5be 0e89 913b 7799 0e3f 3b7e 3cbd
000002b0: cb25 0d3f bce1 103f f592 94be 4662 efbe
000002c0: 904f df3e 0165 8e3e 7b0b 2bbe 97ca 2e3e
000002d0: 76c6 0abf 2fe1 81be da43 16bf 1a49 bdbd
000002e0: 76e8 efbe 98a9 893e eafe c4bd 6af6 72bd
000002f0: 1bb4 debe df65 dc3a cc14 02bf fd5b 523e
00000300: d11c ab3e 300e e5be d4f4 ccbe 48cf b13e
00000310: cda7 9d3e d9cb ac3e 1b4f f1be acc0 fe3d
00000320: 29c8 f83e ca4d 373e 94bd 04bf 046c 10be
00000330: 2ffe b43e 10f4 52be 7144 7cbe 57fc ce3e
00000340: ee34 2a3e 8610 293e 9f71 663e 7384 f0be
00000350: c49a 673e 3b7e fa3e b532 febe 160a 1d3e
00000360: 79f4 0bbd b62e 57be 6218 dc3d 8e71 b2be
00000370: 539b ae3d c5f1 e7be a8cc b4be e83f a0be
00000380: 7c81 be3e 1847 c9bd 4bb6 f1be 8a68 bd3e
00000390: 3d18 76be 4153 3c3e f22b b2be 5914 933e
000003a0: 27fd b5be b0a3 02be 2716 ad3e 2894 b3be
000003b0: 1415 a03e eb9e 173f 23a3 dc3d 70da ab3e
000003c0: 8db4 aa3e 9a15 b83e b4c3 543e 8870 7a3d
000003d0: 3e3b ec3d e267 88be c7b5 b6bd 6ec8 a93e
000003e0: f0bc d93e c865 ee3d cfd0 923e 0470 8a3e
000003f0: 01e1 2e3c 0d37 fb3e 0773 d43e b131 8abe

VAE_Encoder.layers.1.linear0.bias f4 [128]
0.31022355 0.2050286 -0.39499158 0.4166102 0.33992815 0.47272077 0.23663715 -0.2445768
-0.14138468 -0.5402406 -0.024184624 -0.06380381 -0.36289015 -0.063939296 0.014881605 -0.009929657
0.0022424127 -0.3652489 -0.028628351 0.44995224 0.2357089 -0.37094882 -0.1511254 0.47634193
-0.2793995 -0.15279634 -0.42108268 -0.0148108965 -0.006303282 0.010189816 0.5229499 0.27704826
0.210372 -0.31358287 -0.22323221 0.36150667 -0.28987008 0.23085578 0.3581083 0.38734403
0.24325085 -0.22586495 0.070404254 0.049471807 0.40185636 -0.24307899 0.14442328 -0.32075292
0.1289061 0.21405976 0.108230755 0.09757738 0.13154784 0.061031602 -0.06008322 0.46058452
-0.097477876 0.27529702 -0.05768662 0.3968297 0.16165186 0.23880267 0.35031292 0.158548
-0.123278774 -0.13011433 -0.22084036 0.35675147 0.123168655 -0.4878367 0.10562256 -0.33524314
0.5931359 0.12455358 0.10097747 0.3771558 -0.20860004 -0.056088064 -0.45731723 -0.158225
0.10469942 0.04567901 -0.5183566 0.37179902 -0.38962403 0.32465717 0.40325692 0.20454969
-0.25117287 0.37403178 0.017436719 0.323809 -0.21049233 -0.09071927 -0.4449222 0.42259562
-0.19414552 0.39521748 -0.20047475 -0.13650769 -0.21224046 0.38975176 0.13131243 0.5316545
-0.23990798 -0.040138137 0.5617116 -0.038435575 0.05291224 0.251861 0.46910995 0.24208853
-0.41450554 -0.44541207 0.22041205 0.46056488 0.13343439 -0.23546737 0.21228163 0.21930835
0.48323667 -0.019848896 0.28788495 -0.06976433 0.3646146 -0.32185942 0.50451505 0.3249531
00000000: 9fd5 9e3e 04f3 513e 563c cabe ef4d d53e
00000010: 100b ae3e 7508 f23e 0251 723e 5772 7abe
00000020: 25c7 10be 354d 0abf d51e c6bc 92ab 82bd
00000030: bdcc b9be 9bf2 82bd fad1 733c 00b0 22bc
00000040: 71f5 123b e701 bbbe 0186 eabc 2460 e63e
00000050: ad5d 713e 01ed bdbe 9ec0 1abe 17e3 f33e
00000060: 740d 8fbe a576 1cbe 2698 d7be 67a9 72bc
00000070: c38b cebb 30f3 263c 0be0 053f 45d9 8d3e
00000080: c26b 573e ef8d a0be fc96 64be 6717 b93e
00000090: da69 94be 7565 6c3e f959 b73e f551 c63e
000000a0: c016 793e 2449 67be 1b30 903d f3a2 4a3d
000000b0: 1ec0 cd3e b3e9 78be b2e3 133e ba39 a4be
000000c0: f6ff 033e 7b32 5b3e 16a8 dd3d a6d6 c73d
000000d0: 7ab4 063e 46fc 793d d319 76bd bcd1 eb3e
000000e0: 7ba2 c7bd bbf3 8c3e ce48 6cbd 432d cb3e
000000f0: 1188 253e b088 743e 375c b33e 685a 223e
00000100: 9579 fcbd b13c 05be fa23 62be 21a8 b63e
00000110: d93f fc3d bbc5 f9be a450 d83d fda4 abbe
00000120: c1d7 173f f315 ff3d 47cd ce3d 911a c13e
00000130: 409b 55be 99bc 65bd 7c25 eabe bc05 22be
00000140: a66c d63d ea19 3b3d 05b3 04bf 715c be3e
00000150: cd7c c7be 7739 a63e b177 ce3e 7975 513e
00000160: bb99 80be 1881 bf3e 73d7 8e3c 4bca a53e
00000170: 4d8b 57be 06cb b9bd d8cc e3be 745e d83e
00000180: 15ce 46be f259 ca3e 4149 4dbe acc8 0bbe
00000190: 9055 59be 8b8d c73e c476 063e 821a 083f
000001a0: 70aa 75be e367 24bd 55cc 0f3f 9f6e 1dbd
000001b0: 81ba 583d edf3 803e 2e2f f03e 0ee6 773e
000001c0: 123a d4be 0d0d e4be b2b3 613e 29cf eb3e
000001d0: 06a3 083e 5c1e 71be 5b60 593e 5e92 603e
000001e0: cc6a f73e 279a a2bc a865 933e 9ae0 8ebd
000001f0: c4ae ba3e c2ca a4be e627 013f 4160 a63e

VAE_Encoder.layers.1.linear1.weight f4 [4, 128]
-0.06963347 -0.020925272 0.236678 0.07584275 -0.04830829 -0.13571952 0.022440298 -0.021310987
-0.078199044 0.057394147 -0.12947588 0.034532465 0.0962983 -0.15648882 -0.006990188 0.0035490692
0.13901941 0.3942633 0.05148213 0.093118906 0.07595578 0.08061402 -0.022649875 0.0998648
-0.016083669 -0.09502783 0.06354943 0.062204774 -0.015182711 -0.110327125 0.00068818475 0.0073403073
-0.056979477 0.27475756 -0.02537604 -0.026964357 -0.11361257 0.065468565 0.11267301 0.0872718
-0.09092558 -0.0676361 0.009319017 -0.13976054 0.102067605 -0.13603204 0.0144871315 -0.16230851
0.024427231 0.14122154 0.016334321 0.12836295 -0.13685222 0.15240915 0.011239393 -0.013868004
0.16110203 -0.07673971 0.104466416 0.014414061 -0.022574667 0.042317238 -0.005582642 -0.106442265
0.23491067 -0.22637884 0.43364313 -0.073048525 0.015803924 0.122119136 -0.050018884 0.13043237
-0.032861177 0.022776216 -0.070690006 0.052449968 0.1328349 -0.046402067 0.14405416 0.10702258
-0.080046445 -0.05896644 0.19418953 -0.008424307 0.3248607 -0.075453 0.11081973 0.04879382
0.49476412 -0.079165466 -0.09884984 0.07165836 0.13701595 -0.06865083 0.06778145 0.07931457
-0.0031796377 -0.08510577 0.071582384 -0.024763608 0.0139930565 -0.149045 -0.0018017247 0.0078035546
0.6480062 -0.112237215 0.06851617 -0.024572307 -0.18422416 -0.14790729 -0.0042788126 -0.007510287
0.286779 0.07255357 -0.08344048 0.09456264 -0.09020841 0.1515372 0.061194833 -0.06101439
0.026542187 -0.026473235 0.1041593 -0.13746493 -0.096108735 -0.020941762 -0.036772016 0.06908751
0.014453508 0.08926134 -0.14611131 0.028974159 0.15472852 -0.12379522 -0.06799105 -0.11329905
0.06827883 -0.07116809 -0.067203015 -0.102430664 -0.15656589 0.07535785 0.106165014 -0.13307795
-0.05760454 -0.21645449 -0.07816798 -0.02741809 -0.04077631 -0.16574255 0.04054511 -0.060644783
-0.05507871 0.13885173 -0.00487733 -0.059645634 -0.05169635 -0.022395121 0.11131237 -0.17121018
0.021701705 -0.28024518 0.067234844 -0.02100954 0.0043388987 0.010417736 0.037787136 -0.02554941
0.11480772 0.05606731 -0.027986238 -0.05073987 -0.0030984613 0.100977354 0.07713932 0.15169284
-0.04341535 -0.0082636485 0.14173676 -0.00066187413 -0.107107 0.043055404 -0.044370715 -0.02187433
-0.01605792 0.04221438 0.0016903381 0.026977258 -0.046864156 -0.07440319 -0.09993733 0.094893
-0.0085807005 0.21255004 -0.27885363 0.17143908 -0.083787456 -0.23728172 -0.19309299 -0.3480498
-0.0005874425 0.056116637 -0.04410355 0.0129156 -0.12671104 -0.05073605 -0.024906343 0.07332299
0.070708774 -0.15998304 0.0020395634 0.004054445 -0.10785071 -0.018865721 -0.061661903 0.10821506
-0.055414412 -0.015256028 -0.035353534 0.057811137 -0.21866935 0.07738547 -0.0010400062 0.0042571016
-0.021483904 0.044253103 0.10871639 0.010193465 0.016869716 0.005080178 0.03734692 -0.12002464
0.10743568 0.0090991575 -0.027789734 -0.15578465 0.09439772 0.13087407 0.008297357 0.087638386
-0.11969278 -0.041592482 0.056022447 -0.10013963 0.060804103 -0.03554607 0.019571163 -0.021948759
-0.044785216 -0.016523242 -0.03293779 -0.0395223 0.06943144 0.007033757 0.07084767 0.07838135
00000000: fe9b 8ebd 7a6b abbc b85b 723e 7253 9b3d
00000010: eade 45bd 0ffa 0abe b7d4 b73c 6194 aebc
00000020: d226 a0bd 2016 6b3d 5395 04be ea71 0d3d
00000030: 0b38 c53d 9b3e 20be f20d e5bb 8097 683b
00000040: 1b5b 0e3e e1dc c93e edde 523d 20b5 be3d
00000050: b48e 9b3d f718 a53d 3b8c b9bc eb85 cc3d
00000060: e6c1 83bc f39d c2bd 3426 823d 6fca 7e3d
00000070: e8c0 78bc 30f3 e1bd 4c67 343a f686 f03b
00000080: 5063 69bd 06ad 8c3e 6ae1 cfbc 5be4 dcbc
00000090: b5ad e8bd 6214 863d 1bc1 e63d 8fbb b23d
000000a0: 3137 babd cc84 8abd caae 183c 631d 0fbe
000000b0: d208 d13d fc4b 0bbe 6f5b 6d3c 3434 26be
000000c0: 9e1b c83c 619c 103e 8ecf 853c 9471 033e
000000d0: fd22 0cbe 2511 1c3e 6e25 383c a036 63bc
000000e0: eef7 243e b629 9dbd 7df2 d53d f428 6c3c
000000f0: 82ee b8bc d754 2d3d 98ee b6bb 67fe d9bd
00000100: 6c8c 703e dbcf 67be 7906 de3e 779a 95bd
00000110: 3b77 813c 9919 fa3d 9ae0 4cbd 1090 053e
00000120: 7199 06bd 3095 ba3c ecc5 90bd c7d5 563d
00000130: df05 083e 1810 3ebd ef82 133e a82e db3d
00000140: 64ef a3bd cb86 71bd 9fd9 463e 1b06 0abc
00000150: 2454 a63e 1a87 9abd 74f5 e23d 07dc 473d
00000160: b951 fd3e 8121 a2bd c971 cabd 9ec1 923d
00000170: e94d 0c3e ce98 8cbd 00d1 8a3d ad6f a23d
00000180: 7861 50bb ef4b aebd c999 923d 0ddd cabc
00000190: 2243 653c 419f 18be d927 ecba f6b4 ff3b
000001a0: bce3 253f a0dc e5bd 3552 8c3d dd4b c9bc
000001b0: 42a5 3cbe 0275 17be 4835 8cbb db18 f6bb
000001c0: b2d4 923e f796 943d d8e2 aabd 0faa c13d
000001d0: 30bf b8bd 912c 1b3e 6fa7 7a3d 3aea 79bd
000001e0: 006f d93c 66de d8bc 7951 d53d 9bc3 0cbe
000001f0: a8d4 c4bd 0f8e abbc 419e 16bd c17d 8d3d
00000200: 68ce 6c3c a6ce b63d 349e 15be 375b ed3c
00000210: 2771 1e3e 5988 fdbd e43e 8bbd 5509 e8bd
00000220: c5d5 8b3d 93c0 91bd bca1 89bd 2bc7 d1bd
00000230: cf52 20be 3755 9a3d 0b6d d93d 9645 08be
00000240: bdf2 6bbd 3fa6 5dbe 8916 a0bd e79b e0bc
00000250: 0f05 27bd 6ab8 29be a112 263d aa66 78bd
00000260: 379a 61bd 262f 0e3e 02d2 9fbb fb4e 74bd
00000270: 8dbf 53bd f975 b7bc bdf7 e33d b951 2fbe
00000280: c6c7 b13c 4c7c 8fbe 6cb2 893d 331c acbc
00000290: 522d 8e3b 27af 2a3c afc6 1a3d ff4c d1bc
000002a0: 4f20 eb3d d6a6 653d 6543 e5bc 9cd4 4fbd
000002b0: 8e0f 4bbb 37cd ce3d 38fb 9d3d 5e55 1b3e
000002c0: 4bd4 31bd 4164 07bc 7123 113e 9f81 2dba
000002d0: ea5a dbbd dd5a 303d 11be 35bd cb31 b3bc
000002e0: e68b 83bc fce8 2c3d 568e dd3a 69ff dc3c
000002f0: a1f4 3fbd b360 98bd f1ab ccbd 4357 c23d
00000300: 1196 0cbc b8a6 593e e7c5 8ebe ba8d 2f3e
00000310: c298 abbd fbf9 72be 2bba 45be 9533 b2be
00000320: 99fe 19ba 8fda 653d eda5 34bd f49b 533c
00000330: 8ac0 01be 9bd0 4fbd 6308 ccbc 5d2a 963d
00000340: c3cf 903d 98d2 23be 32aa 053b 26db 843b
00000350: d5e0 dcbd 498c 9abc 3191 7cbd db9f dd3d
00000360: 39fa 62bd 6bf4 79bc dece 10bd 5fcb 6c3d
00000370: dcea 5fbe 467c 9e3d d150 88ba 287f 8b3b
00000380: 03ff afbc be42 353d b3a6 de3d 7e02 273c
00000390: 5c32 8a3c 9f77 a63b 16f9 183d 7acf f5bd
000003a0: 3d07 dc3d a214 153c 4ca7 e3bc 0386 1fbe
000003b0: 9853 c13d da03 063e a3f1 073c c17b b33d
000003c0: 7d21 f5bd e15c 2abd cb77 653d 0216 cdbd
000003d0: b90d 793d c298 11bd b453 a03c e2cd b3bc
000003e0: b470 37bd c05b 87bc c7e9 06bd 23e2 21bd
000003f0: 1232 8e3d 6e7b e63b 9518 913d 6786 a03d

VAE_Encoder.layers.1.linear1.bias f4 [4]
-0.060041294 -0.09651857 0.09857377 -0.03642168
00000000: dced 75bd 87ab c5bd 0be1 c93d e62e 15bd

VAE_Encoder.layers.1.norm1.weight f4 [4]
1.1085465 1.1101983 1.1474315 1.0680537
00000000: dae4 8d3f fa1a 8e3f 09df 923f fcb5 883f

VAE_Encoder.layers.1.norm1.bias f4 [4]
0.049717918 0.07884189 -0.029828038 -0.0838462
00000000: 04a5 4b3d db77 a13d ee59 f4bc 8eb7 abbd

VAE_Encoder.layers.1.norm0.weight f4 [4]
0.75874853 0.74708825 0.9767484 0.9743013
00000000: 583d 423f 2d41 3f3f 2f0c 7a3f cf6b 793f

VAE_Encoder.layers.1.norm0.bias f4 [4]
0.025259176 0.017918037 -0.04072334 0.03805578
00000000: 55ec ce3c d9c8 923c 84cd 26bd 61e0 1b3d

VAE_Encoder.last_normalization.weight f4 [4]
1.0 1.0 1.0 1.0
00000000: 0000 803f 0000 803f 0000 803f 0000 803f

VAE_Encoder.last_normalization.bias f4 [4]
0.0 0.0 0.0 0.0
00000000: 0000 0000 0000 0000 0000 0000 0000 0000

VAE_Encoder.head.weight f4 [4, 4]
-0.3405435 -0.10848373 0.11128217 -0.23393804 0.1817171 -0.2526266 -0.47724736 -0.28441763
0.13590002 -0.34347486 -0.25218827 -0.39644927 0.08769387 0.23735774 -0.055325925 0.44520777
00000000: b85b aebe b82c debd e8e7 e33d 748d 6fbe
00000010: 0c14 3a3e 4658 81be c459 f4be 309f 91be
00000020: 6029 0b3e f0db afbe d21e 81be 66fb cabe
00000030: d898 b33d e80d 733e 709d 62bd 46f2 e33e

VAE_Encoder.head.bias f4 [4]
-0.11973244 -0.40938735 0.22656304 0.3370018
00000000: 4836 f5bd 389b d1be 2400 683e 808b ac3e
