tabsyn/vae/ckpt/default/model.pt (torch, 73486 bytes, 116 tensors)

VAE.Tokenizer.weight f4 [15, 4]
00000000: d1ad 003f 5e8e 6bbe 80cd 773e c73d 72bc
00000010: 9aa6 933d 3432 d3bc b246 ac3d 6d31 73bc
00000020: aa07 81bd 891e 9abd f4b4 73bd 791d 8bbd
00000030: a758 f13e 1df9 273e 915f aa3e ed3b 573e
00000040: 3cae 8a3d 9f21 0abe 52d7 243e de74 983d
00000050: d2ff f93a d63d 2bbf 61ac d7bd c5d9 693d
00000060: 10e0 1e3e 1c63 70be 116b b8bd 969a 50be
00000070: ab45 abbd 830c 41be 35e4 093e 244d 24be
00000080: 8879 6b3e 11f1 d6bd bd4d 9cbb 1e0c 263e
00000090: 51fc cc3e 2475 993d f0dc 843e a171 e1be
000000a0: 8f4e 2a3d cfdb 353e ea45 4cbd 2b43 323d
000000b0: afc7 793e 4d65 93be ed8e 7cbd 5610 b4be
000000c0: 278e f63e cd69 423d c8e4 6d3e 35b0 a9be
000000d0: 71ab d53e 6da2 acbe 8737 d4be 620e 7f3b
000000e0: 84d3 b4be 020e 963e 7cff 7dbd 9b64 1ebf
0.5026522 -0.23003528 0.24199486 -0.014785237 0.07209511 -0.025780775 0.084119216 -0.014843327
-0.0630029 -0.07525355 -0.059498742 -0.06792731 0.4713795 0.16403623 0.33276036 0.21018954
0.06771514 -0.13489388 0.16097763 0.07444166 0.0019073433 -0.6689123 -0.105309255 0.057092447
0.1551516 -0.23475307 -0.09004796 -0.2037147 -0.083628975 -0.18852429 0.1346596 -0.16045052
0.22995579 -0.104951985 -0.0047700093 0.1621556 0.40036252 0.07493046 0.25949812 -0.44032004
0.041578826 0.17759632 -0.049871363 0.043521088 0.2439258 -0.28788224 -0.061659742 -0.35168713
0.4815533 0.04746418 0.23231804 -0.33142248 0.41732362 -0.3371767 -0.41448614 0.0038918485
-0.35317624 0.29307562 -0.062011227 -0.6187226

VAE.Tokenizer.bias f4 [23, 4]
00000000: f0e8 3737 61c4 8bbe 6889 c63a 186c d73e
00000010: 12b1 2a3e a9fd e13e 68b8 023e d7ff cebd
00000020: cffb 7a3e f5be eb3c ec95 f0be 1d7c 07bd
00000030: b132 ae3e 2ec1 e63e 43f4 e7be bd7e 593d
00000040: 2a31 ddbe 7090 d43c 892c 353e 5873 143f
00000050: af99 20bf 5c9e adbe 2cf0 6f3e a1b3 a1bd
00000060: e5b8 87be ec05 6bbd eb68 b6be f906 a13e
00000070: cc09 0abf 645d 533e 7a81 b53e 0807 dcbc
00000080: 61bc 0d3e bf1f 5b3e 0763 bebe 7178 c53e
00000090: e526 ff3e 84dd 0d3e 0ec9 ab3e 3bd6 c2be
000000a0: 8f8d ccbe 18e5 eeba b9bf 5b3e ba9d 44be
000000b0: af4d 24bd d9eb 8b3e e971 0e3f f1b4 5dbb
000000c0: 9f08 d63e 76a7 603e e16e f0be b822 91be
000000d0: 235f 35bb 4046 b9be 7f73 6d3e d253 613e
000000e0: 9a3d d4bd fd9d b83e 2e06 55bd 760d e83e
000000f0: e6ec af3e 098b 9cbe 69e0 08bf 3038 8a3e
00000100: 376d 1ebe 2ee5 6c3e fc3c cd3e b5f8 c63d
00000110: f371 db3e e779 963d 22de e4bd 43f5 293e
00000120: 65d2 72be 95d7 7b3e 0172 903e dec2 5c3e
00000130: 6bdb 1b3e 95d7 b83e 34ba f0be ccd8 0abe
00000140: 5a35 ae3d 3436 bc3e 25eb 72bc 427d 983e
00000150: 7d34 10be dd97 92bd 487e 973e 811b 8ebe
00000160: d789 393e 5c86 993e ce31 063e 3ab9 193e
1.0961885e-05 -0.27298263 0.0015147151 0.42074656 0.1666911 0.4413884 0.12765658 -0.10107391
0.2451012 0.028777579 -0.4698938 -0.033077348 0.3402305 0.4506926 -0.45303544 0.053099383
-0.43201572 0.02594778 0.1769277 0.579885 -0.627345 -0.3390988 0.23431462 -0.078955896
-0.2650825 -0.057378694 -0.3562692 0.31450632 -0.539212 0.20641094 0.35450345 -0.026858822
0.13841392 0.21398829 -0.37184927 0.38568452 0.49834362 0.13854033 0.3355183 -0.3805407
-0.3995175 -0.0018226234 0.21459855 -0.19200793 -0.040113147 0.27328375 0.55642563 -0.0033829773
0.41803452 0.21938881 -0.46959594 -0.283468 -0.0027675114 -0.3618641 0.2318859 0.22004631
-0.10363312 0.36058035 -0.052007847 0.4532277 0.34360427 -0.30574825 -0.5346742 0.26995993
-0.1547135 0.231343 0.4008559 0.09715406 0.42860374 0.0734747 -0.11175181 0.16597466
-0.23713072 0.24593957 0.28211978 0.21558711 0.1522042 0.36101976 -0.47017062 -0.13559264
0.0850627 0.36760104 -0.014826571 0.29783064 -0.14082523 -0.07157872 0.29588532 -0.2775536
0.18118988 0.2998532 0.13104936 0.15012065

VAE.Tokenizer.category_embeddings.weight f4 [77, 4]
00000000: faa4 70be be81 debe 94f9 893c 27c7 713e
00000010: 7d82 40bd 9db8 6dbe 2af4 c43e 7ba0 b6bc
00000020: 6e58 103e 62b0 28be 7cdf c63e 0c89 253e
00000030: f907 76be dfd2 373d 16d8 573d 8010 413e
00000040: ec4a a2bd f044 97bd d478 053e c20c 633e
00000050: 0631 a8be dc03 193d e257 37bd af6d 093e
00000060: e96d d8be f69f e33c a0c9 f7bd e9ca 923d
00000070: 5070 0fbf 212e b1bc e7d9 67be 7a26 303e
00000080: fe34 8e3e 6c89 1bbf 280d 7c3e 5c6a b33e
00000090: 1679 01bf 2347 a0be b047 653b 2440 843e
000000a0: 2250 9abe 8953 96be 5dc3 683e f9eb 5ebd
000000b0: 1433 83be 1b73 6cbe ce53 c93e ccae 8ebe
000000c0: dcda 023d af6e ff3d de5a 543f a9e0 8ebd
000000d0: f5db ad3e aa36 44bd bbb6 f6be 5f1f 0ebe
000000e0: 7cfd 7dbc 77ef 4cbd 79a8 bfbd b45b 96be
000000f0: c778 a6bb ed21 f63d 10f0 723d ea73 83be
00000100: 9794 513e bd0c f83d f052 05be f5a6 9dbe
00000110: 6032 99be e86e c4be 9bcb cdbe 8185 bbbc
00000120: 0c56 583e d33e 9ebd 8ab8 a3be 7c5e 8bbd
00000130: 1b38 413e 87c0 033f f7f0 2ebc 9044 8dba
00000140: 1c17 4bbe ccd0 143e aa39 f83d f521 5e3e
00000150: d0d7 b33e 95bf ec3e d87d 943e 6dc8 503d
00000160: cc5b d2bd 1e09 cd3e 2551 c2bd 3f94 843e
00000170: 7f12 01bd 638d 74be fd34 0f3e fdf9 cabe
00000180: 5089 d6be 5564 123e 9c8a ccbe 7a7d 563e
00000190: 215a 15be 8c16 77bc a194 9fbe b71b b53e
000001a0: c3b7 e33e 6045 a03d ea1e e13e f5e7 033e
000001b0: ec8d a7be 9d9d ebbe 5984 42be 222c a53d
000001c0: ad3e dc3e 5b6f 0cbc b33c a53e 5130 453e
000001d0: a413 f83e 3ef4 8fbe 501e 7e3d e4fa cd3d
000001e0: 2697 bab9 bb82 e93c 7c02 a83d 2208 b53e
000001f0: eafc b4be 2ea0 f2bd 872b ed3a a019 553e
00000200: 14c7 96be 7ffb cd3e 36f8 ae3e 5070 893e
00000210: 57f4 233e bac9 e3bd 20be 8a3c 25be a83e
00000220: 731e 963e 0d02 aabe 56e3 b03c 3160 a43d
00000230: 26b8 b33d 51f5 cb3d aa69 1f3e 29df 0bbe
00000240: c1c9 ca3e 3d4b b23e 538e a83e 6e2e 883e
00000250: 6730 a83e a65a 99be 8b3e e93e 6b67 ffbe
00000260: 3764 d83e fa3f c2be 47b5 043f 475f 37bf
00000270: 39ac 7cbe 4e09 9e3e b41f 6c3e c0e9 b53e
00000280: 94b9 97bd 364f 9a3e ca52 563d 05b8 f93d
00000290: f801 75be dfcd 653e 1bfe 7f3e 688f 62be
000002a0: 1553 6e3e 0b88 c73e c947 9abe d975 82be
000002b0: caea 223d c230 00be 7a15 793e e8e4 aabe
000002c0: e591 75bd 6556 3e3d b9e4 7ebe 7b3d 04bf
000002d0: eb74 b23d a0ff ab3e 1c9b 083c 25e7 2ebf
000002e0: fc7f 283c c4fb 4a3f 82ab ae3d 73c2 01be
000002f0: d3a8 703e 3fee 2d3e dfbf 11bf 7fce 5f3f
00000300: e5f4 913e 9375 44be 238b a5be 8782 6cbe
00000310: 2017 703e 1d71 2dbf b036 0cbe 77ba bebd
00000320: 4cf6 a6bd 02ae 47bc a3d7 1a3e 1293 4bbf
00000330: 5e25 2dbe f7d5 9cbd 1423 383e 72f9 9e3d
00000340: 6a82 ecbe 65e9 603f 31fc 763e 8258 f0bc
00000350: cab0 8abe 5cff da3e 09ad 05be b9c5 c53e
00000360: 1e93 85be 24af 0d3f d8bd 173d ae7e 01bf
00000370: 96e2 3ebe daba 6dbe e8d4 e63e 6715 9c3e
00000380: f797 de3e d2fe ddbe 482c 54bf ac86 e33e
00000390: e5f3 f43e d142 4abd 0df8 15be bb3a 94bd
000003a0: df5d 47be 1808 973e dbd8 ea3d cc27 843e
000003b0: 29f8 62be 0c6f 88be bf39 873e 5d86 fd3d
000003c0: 710e 513e 387a 283f 066b fc3e 15e6 52be
000003d0: 38f0 7c3e f4c1 86be 6efb 88be c17e fc3c
000003e0: 383c 0d3f 96c8 83be 02c5 3bbe c54c fabd
000003f0: 98f6 ce3e 288b acbe 0096 f4be f28d 60be
-0.23500434 -0.4345836 0.016842641 0.23611127 -0.046999443 -0.23214956 0.38467532 -0.02229332
0.14096233 -0.16473535 0.3884238 0.1616556 -0.24026479 0.044878837 0.05269631 0.1885395
-0.079244465 -0.07386196 0.13034374 0.22172835 -0.32849902 0.037357196 -0.044761546 0.13420747
-0.42271355 0.027786236 -0.12099004 0.07167608 -0.5603075 -0.021628441 -0.22641717 0.17202178
0.27774805 -0.60756564 0.24614394 0.35042083 -0.5057539 -0.31304273 0.0034985356 0.25830185
-0.3013926 -0.29360607 0.22730775 -0.05442426 -0.25624907 -0.23090784 0.3932175 -0.27867734
0.031947 0.12472283 0.8295115 -0.06976444 0.33956876 -0.047903694 -0.48186287 -0.13879155
-0.01550233 -0.05003306 -0.093583055 -0.2936684 -0.0050803158 0.120181896 0.059310973 -0.25674373
0.20466839 0.12111805 -0.1301992 -0.3079144 -0.29921246 -0.38365865 -0.401944 -0.022890808
0.21126574 -0.077268265 -0.3197673 -0.06805131 0.18869059 0.5146565 -0.010677568 -0.001077788
-0.19833034 0.14532775 0.121203735 0.21692641 0.3512559 0.46239915 0.2900226 0.05097239
-0.10271415 0.40046018 -0.09488133 0.25894353 -0.03151178 -0.2388206 0.13985057 -0.3964385
-0.41901636 0.14296086 -0.399495 0.20946303 -0.14585163 -0.015081059 -0.31168082 0.35372707
0.44476137 0.07825732 0.43968898 0.12881453 -0.32725465 -0.46018687 -0.18995799 0.08065058
0.43016568 -0.008571471 0.32272872 0.19256712 0.48452485 -0.2811603 0.062040627 0.10057619
-0.000355893 0.02850472 0.08203599 0.35357767 -0.35349208 -0.11846958 0.0018094637 0.20810556
-0.2944876 0.4023094 0.34173745 0.268435 0.16011177 -0.11122461 0.016936362 0.3295757
0.29320106 -0.3320469 0.021592777 0.080261596 0.08775358 0.099589 0.15567651 -0.13659348
0.3960705 0.34823027 0.32921085 0.26597923 0.32849428 -0.29951972 0.4555553 -0.4988359
0.42263958 -0.37939435 0.5183911 -0.71629757 -0.24675073 0.30866474 0.23058969 0.355299
-0.07408443 0.30138558 0.052325048 0.12193302 -0.23926532 0.22441815 0.24999277 -0.22125018
0.23273881 0.3897098 -0.30132893 -0.25480536 0.039774694 -0.125186 0.24324599 -0.33377767
-0.05995359 0.04646911 -0.24891938 -0.5165631 0.087137066 0.33593464 0.008337762 -0.6832145
0.01028442 0.79290414 0.08528806 -0.12671833 0.23501901 0.16985415 -0.569334 0.87424463
0.28507152 -0.19185476 -0.32332715 -0.23096667 0.23446321 -0.6775072 -0.13692737 -0.09312909
-0.08152446 -0.012187483 0.15121321 -0.79521286 -0.16908786 -0.07657998 0.17982131 0.07762422
-0.46193248 0.8785613 0.24119641 -0.029339079 -0.27088004 0.4277295 -0.13054289 0.38627413
-0.26088804 0.5534537 0.037046283 -0.5058392 -0.18641123 -0.2321581 0.4508431 0.3048508
0.43475315 -0.43358475 -0.8288007 0.44438684 0.47842327 -0.049380127 -0.14645405 -0.072377644
-0.19469403 0.29498363 0.11467143 0.25811613 -0.22164978 -0.26647222 0.26411244 0.123791434
0.20415665 0.6581149 0.49300402 -0.20595582 0.24701011 -0.2631985 -0.26754326 0.03082216
0.5517001 -0.25738972 -0.18336871 -0.12221674 0.4042251 -0.33699918 -0.4777069 -0.21929148

VAE.encoder_mu.layers.0.attention.W_q.weight f4 [4, 4]
00000000: 3931 49be 7563 363f 9251 0ebf a176 963e
00000010: e9fb 0f3e 0dca 473d 83f0 753e 0a31 da3e
00000020: cd13 813e 34b7 49be caed ac3e 3bb1 013f
00000030: c6b4 2c3f 3c6d 20bf 783e f5bd 4ad5 93be
-0.19647683 0.7124551 -0.55593216 0.29387382 0.1406094 0.048776675 0.24017529 0.4261554
0.2521042 -0.19698793 0.3377517 0.5066106 0.6746334 -0.6266668 -0.119748056 -0.28873664

VAE.encoder_mu.layers.0.attention.W_q.bias f4 [4]
00000000: 8959 13be 30e4 393e a43a 033e 0380 443e
-0.14389624 0.18153453 0.12815338 0.19189458

VAE.encoder_mu.layers.0.attention.W_k.weight f4 [4, 4]
00000000: e47e cfbe 87ac e5be 1afa 6d3e 6ef3 0bbf
00000010: 521c 683e 92fb 0a3f cc83 cc3e 3ebf 173f
00000020: a325 a3bd ea2d e1bd 636c c0bb 19b1 173f
00000030: 07f3 0fbf 2d79 803c cd69 1d3d e73e b13e
-0.40526497 -0.4485819 0.23239937 -0.5466832 0.22667053 0.54290116 0.39944303 0.5927619
-0.07966163 -0.109950855 -0.0058722957 0.59254605 -0.56230205 0.015682781 0.038430978 0.34618303

VAE.encoder_mu.layers.0.attention.W_k.bias f4 [4]
00000000: 52e4 5339 8d72 d4bb 3ddb 87bb e428 873c
0.00020207584 -0.006483382 -0.0041460083 0.01649899

VAE.encoder_mu.layers.0.attention.W_v.weight f4 [4, 4]
00000000: 9afa e83e 5461 06bf f433 a73d 0120 0d3e
00000010: 5289 1abe b7d7 5d3e 9ce9 15bd 06a2 153e
00000020: 9d8e bebe 6cda 683e 9561 e0bd 6fda ccbe
00000030: e5c7 22be a388 b9bc 9131 b43e 544c fa3e
0.45503694 -0.5249226 0.08164206 0.1378174 -0.15091446 0.2166432 -0.03659974 0.14612588
-0.3721818 0.22739571 -0.10956112 -0.40010402 -0.15896566 -0.022648161 0.35194066 0.4888636

VAE.encoder_mu.layers.0.attention.W_v.bias f4 [4]
00000000: 4278 70bc 42de 583d cdb5 4dbc db0a e4bb
-0.014677109 0.052946337 -0.012555552 -0.006959302

VAE.encoder_mu.layers.0.linear0.weight f4 [128, 4]
00000000: 25b0 e5bd 8f07 a8be e15e 2c3e 326f febc
00000010: 304c 063f cd56 90be c480 813e ad2f bcbe
00000020: 2431 c53e 34ef a7be 4fc2 373b 944d cd3d
00000030: a5b3 cd3e 74ce 8f3e 8866 b1bd 8dbc a0bd
00000040: 8013 3dbe c0c4 f1bd c064 7dbe 3816 e1bd
00000050: 3c9f 073f c81a e5be 8e6b 6bbd 3065 85be
00000060: 3529 fd3c f407 b03e 85fe 663d 0721 a93e
00000070: 784c 393e 2fa3 a63e 5c88 a03e e4ac d63e
00000080: 2616 b63e 2aaa d2be 100c 9fbe a769 d2be
00000090: a51b 98bd adfd 893e d15b 9e3e eb72 023b
000000a0: 8dee 5cbc 5901 cfbe 215d a83d a163 a63d
000000b0: 1dbe 86be 0057 e7be ed72 8e3e 358d fa3d
000000c0: 7652 48be 9c85 d2be f6ff 3dbe acfb 8dbe
000000d0: ac74 c73e f1ee 323e 4114 123e 1d69 debe
000000e0: e1f1 b2be a0e8 b53e e5b3 b13e 8a4f 653d
000000f0: 6d8e a7be b961 74be 69a6 cd3e 7c3e 65be
00000100: c3d2 c8be 3f58 e1be b47d bfbe 2e47 bbbe
00000110: 9ed5 34be 4baf 443d 6712 863e e474 60be
00000120: 301b d73e 79b2 95bd b31e 69be 0a48 153d
00000130: 265a c3bd 81ee fd3d 2e95 0bbf 9b1c 94be
00000140: 3f30 e2bd 86f3 e53e d901 1cbe 0af4 df3e
00000150: ffa9 86be 0ecb a2be f7cd 09be 9a17 c9bd
00000160: aadc 02be 1365 efbd b0b2 233e 4ecc e7be
00000170: 8337 9d3e c330 783e b1fd 99be 5577 c93e
00000180: 0607 cebe 1301 8fbd ba77 d0be a770 8dbe
00000190: cd02 bdbe 5150 ac3e 5d63 dc3e 58f0 eabe
000001a0: 764b 69be 847e 333e 91b8 b1bc 1d12 0cbf
000001b0: d56f 333e b21a a33e 1509 d03c b6e1 bfbe
000001c0: 97d7 ac3e 3731 d3be f2a6 a7be 0c10 81be
000001d0: c6c3 013f ab26 353e 430e fabe 5db6 f7bd
000001e0: 462a 793e 3a4b 50be 3bd3 4e3e 933c 24be
000001f0: 4d1c e0be a304 973d d4bd 3fbe d200 963e
00000200: a111 64be 8499 5c3d 826f b3bd e73d 34bf
00000210: f13a 0fbf 147a c5be 6128 c13e f0dc 8bbc
00000220: 4e24 423e 3a69 263e 1c13 95bd 7420 abbe
00000230: 0d7a 45be 5e03 78be 034a 3e3e 9d38 3fbd
00000240: 7865 dc3d 4d06 18bc f4ed ddbe 2835 a13e
00000250: da6f b2be 4e5a 5bbe d00c 033e 4e65 3a3d
00000260: 0145 953d 67d2 07be e636 5abe ab99 eabe
00000270: a024 893e dd54 0ebf ab52 ecbe c110 e4be
00000280: 3179 69be b90f cf3d d760 75be 3ba1 033e
00000290: 49c3 07be 293d 463d 3f29 913e b0af bc3e
000002a0: ee64 583c 9cb9 c3be 4df0 003f 3937 a9be
000002b0: 0d7d 9d3e d089 ba3e de61 903e 1d12 55be
000002c0: 89f4 ecbe 2bf3 333e 98ca 83be 0764 f0be
000002d0: 7544 67be 913a c2be 858b fc3d aa3c db3b
000002e0: 52d3 f13d 6221 7fbe 7140 8fbc 5c8f 7bbc
000002f0: a4a9 9d3e 603d debe e10a 35be 847c 65be
00000300: 13a0 8e3e f148 003f f9bc bebd bf13 cc3d
00000310: 70d7 17be 9a14 e0be cd14 1bbe 4639 a93e
00000320: 48df c13b d5aa a73e 20b9 bb3e ff0d ad3e
00000330: 3ca6 e23e dfff 083d 1c0f 80be 32d5 03bf
00000340: 26a9 c13e e9d1 e53e 5841 1f3b a4e3 063f
00000350: 8267 b23e 3785 a63e 1fd4 2c3e db9a acbe
00000360: 9e52 19bf e6eb 463d ee39 bd3e 195f 6f3e
00000370: e8d9 babd d7b3 413e 779a 81be 711b 4dbe
00000380: 80aa 63be fc63 b5be 757d db3e df6e f83e
00000390: b292 813e 2275 a4be 4f71 823e 189c 3c3d
000003a0: 2c3a 99be 352c ffbd 155a b33c 0f79 3ebc
000003b0: 1353 b0be 084d 163e 4544 d03e 2dbd 643e
000003c0: 0f33 4e3c d28f f53e 4fef 4b3e f186 8e3e
000003d0: 7423 36be d805 f1bc ded0 18be 6674 0abf
000003e0: 1328 95bd 4cad b33e 7ba6 e6be 4df9 fcbe
000003f0: a172 91bc 35a2 923e 0b6d 61be eaa3 c1be
-0.112152375 -0.32818267 0.16833068 -0.031058881 0.5246 -0.28191224 0.25293553 -0.36755124
0.38514054 -0.32799685 0.00280394 0.100245625 0.4017612 0.280872 -0.086621344 -0.07848463
-0.1846447 -0.11805105 -0.24745464 -0.10990566 0.5297735 -0.44746995 -0.05747562 -0.26053762
0.030903438 0.34381068 0.056395072 0.3303301 0.18095577 0.32546374 0.31354034 0.4192878
0.35563773 -0.4114545 -0.3106389 -0.4109623 -0.07427148 0.26951352 0.30929425 0.0019904922
-0.013484609 -0.40430716 0.08220888 0.081244715 -0.2631692 -0.45183563 0.27822056 0.12233964
-0.19562706 -0.4111756 -0.18554673 -0.27731073 0.389562 0.17473961 0.14265539 -0.4343957
-0.34950164 0.3552904 0.3470756 0.055984057 -0.3272585 -0.23865403 0.40166023 -0.22387117
-0.39223298 -0.4401264 -0.3740059 -0.36577743 -0.17659613 0.048018735 0.26185915 -0.2191959
0.4201293 -0.073094316 -0.22765617 0.036445655 -0.09538679 0.12399007 -0.54524505 -0.28928074
-0.110443585 0.44912356 -0.1523508 0.43740875 -0.26301572 -0.31795543 -0.13457476 -0.09818955
-0.12779489 -0.116892 0.15986133 -0.4527306 0.30706415 0.24237351 -0.30076364 0.39348856
-0.40239733 -0.06982627 -0.40716344 -0.2762501 -0.369162 0.33655027 0.43044558 -0.45886493
-0.22782692 0.1752873 -0.021694453 -0.5471514 0.1752313 0.31856304 0.025394956 -0.3747689
0.33758232 -0.41248485 -0.32744557 -0.25207555 0.5068935 0.17690532 -0.48839006 -0.1209533
0.24332532 -0.20341197 0.20197766 -0.16038732 -0.43771592 0.07373931 -0.18724757 0.292975
-0.2227235 0.05385734 -0.08761503 -0.70406955 -0.5594931 -0.385697 0.3772612 -0.017073125
0.18959162 0.16251078 -0.072790354 -0.33423197 -0.1928484 -0.24220034 0.1858292 -0.04668485
0.10761541 -0.009278846 -0.43345606 0.31485868 -0.3485096 -0.21421167 0.12797856 0.045506768
0.07288552 -0.13263856 -0.21310005 -0.45820364 0.26785755 -0.5559824 -0.4615682 -0.44544032
-0.22800137 0.10110421 -0.23962723 0.12854473 -0.13258089 0.04839817 0.2835178 0.3685279
0.013207657 -0.38227546 0.5036667 -0.33049944 0.3075947 0.36433268 0.28199667 -0.20807691
-0.46280316 0.1757323 -0.25740504 -0.46951315 -0.22584708 -0.37935308 0.12331299 0.0066905813
0.11807884 -0.24915078 -0.017486783 -0.015354004 0.30793488 -0.434062 -0.17679931 -0.2241078
0.27856502 0.501113 -0.093133874 0.09964704 -0.14828277 -0.43765718 -0.15144654 0.3305151
0.00591651 0.32747522 0.36664677 0.3379974 0.44267452 0.033447143 -0.25011528 -0.51497185
0.37824363 0.4488671 0.0024300423 0.526911 0.34844595 0.3252351 0.16877793 -0.33711895
-0.5989169 0.048564814 0.3695826 0.2337612 -0.091235936 0.1891626 -0.2531316 -0.2003
-0.2223301 -0.35427845 0.42869154 0.48522088 0.25307232 -0.32120615 0.25477073 0.0460473
-0.29927194 -0.12459604 0.02189354 -0.011625542 -0.3443838 0.14677823 0.40677086 0.2233779
0.0125854155 0.4796129 0.19915508 0.27837327 -0.17786962 -0.029421732 -0.14923427 -0.5408386
-0.07283034 0.35093153 -0.4504889 -0.4940895 -0.017754855 0.2863938 -0.22014253 -0.3782037

VAE.encoder_mu.layers.0.linear0.bias f4 [128]
00000000: 6754 e33e 5c94 88be 8862 f8be 8ff5 15be
00000010: 6a7d 83be 86f5 26be 5b12 c9be 176f 8c3e
00000020: 03e4 b4be 793a 043e d76c 21be 2884 fcbd
00000030: 4447 c63e f4c4 a8be 531f 97be 0a33 953e
00000040: d4f0 efbd a6fd 693e a416 80bd 9f1a 263e
00000050: 357c b8bb c863 d53e c326 5abe ae65 abbe
00000060: effc dc3e 4fca a0be 7ac2 05bf 1fcd 2ebe
00000070: 4b3c 51be fa58 adbe 82f8 febd fa0d 93bd
00000080: f590 aabe 5a1e e5be 3006 8c3e 9a8d 9d3e
00000090: 8130 323e 0389 713e cced 97be 18b7 e9be
000000a0: c3e0 5d3e 3faa 9ebe 839b e63e 89a4 83bd
000000b0: 19fa 893e d75e debd b4f6 e53e f75c 0cbe
000000c0: 57fd 06be 7278 493e 4cd6 4c3e 1fa9 c13e
000000d0: 6fca 57be 6ed3 e3bd a75a c53e 2098 87be
000000e0: b748 24bd 72c3 90bb 0be3 c4be c8ff 51be
000000f0: 59c9 323e 0ee0 1ebe 6ae6 b2be dfae 8dbe
00000100: b110 4f3e 84bb c93d 2c73 b93e 606e 9f3d
00000110: 2ea8 0c3e 51d6 ccbd a9a2 ae3e b334 d6bc
00000120: 3571 033f 3794 de3e b201 bdbe 8ad8 cabe
00000130: 2108 e0be cd14 913e ee02 b33c 7959 c8bd
00000140: 1607 90be be1b 04bf a9e4 cfbe f9df df3e
00000150: b54f d5be 77ff 20bd 3bf8 51bc bf15 32be
00000160: 9795 453e 9ac8 163e 4a5f 003e 73e0 673e
00000170: 5638 ecbd d3a8 51bd d7b0 b1be 9cd3 a7be
00000180: 6e02 8bbe 6134 dcbe a94c 35be fcbc 9cbe
00000190: a922 0abf d9c5 09bf f00c 903d bf1c 34be
000001a0: 2aff d2be 38cb c6be 1b1f 913e fae2 78bd
000001b0: af26 38be 1a48 b13e 95e3 a3bc 6dcc 82be
000001c0: b867 e4be ec4c 08bf a3d5 ff3c d91f 0e3e
000001d0: aa75 48be f748 463e 2318 d2be 0954 0bbe
000001e0: 01d3 d73e 2abd ea3e 8596 d63e 1fb6 adbe
000001f0: b626 9f3e 2df8 dbbe 54c4 863e 9119 f1be
0.4440033 -0.2667569 -0.48512673 -0.14644454 -0.2568162 -0.16304597 -0.39271817 0.27428505
-0.3533021 0.1291293 -0.15764175 -0.12329894 0.38726246 -0.32962763 -0.29516086 0.29140502
-0.11715856 0.22850665 -0.06254318 0.16221093 -0.005630041 0.4167769 -0.21303849 -0.33476013
0.43161723 -0.3140435 -0.5224987 -0.17070435 -0.20433156 -0.33856946 -0.12449743 -0.071804
-0.33313718 -0.4474972 0.2734847 0.30772096 0.17401315 0.23587422 -0.29673612 -0.45647502
0.21667771 -0.30989262 0.4504052 -0.06427867 0.26948622 -0.10857933 0.44914782 -0.13707338
-0.13182579 0.19674852 0.20003623 0.37824342 -0.21073316 -0.111243114 0.38545725 -0.2648325
-0.04010841 -0.00441783 -0.3845447 -0.20507729 0.1745962 -0.15515158 -0.34941417 -0.2767248
0.20221211 0.09850219 0.36220682 0.07784724 0.1373603 -0.10001815 0.34108475 -0.026148176
0.51344615 0.43472454 -0.36915356 -0.3961833 -0.43756202 0.28336182 0.021851983 -0.097826906
-0.28130406 -0.5160483 -0.4060414 0.43725565 -0.41662374 -0.03930613 -0.01281553 -0.17391108
0.19295345 0.14724961 0.1253635 0.22644214 -0.11534183 -0.051186394 -0.3470523 -0.32778633
-0.2715029 -0.43008712 -0.17705025 -0.30612934 -0.5395914 -0.53817517 0.07033718 -0.17589091
-0.412103 -0.3882692 0.28344044 -0.060763337 -0.17983507 0.34625322 -0.02000598 -0.2554659
-0.4461038 -0.53242373 0.0312298 0.13879336 -0.19576135 0.19363771 -0.4103404 -0.13606276
0.4215317 0.45847446 0.41911712 -0.3392801 0.31084222 -0.4296278 0.2632166 -0.47089818

VAE.encoder_mu.layers.0.linear1.weight f4 [4, 128]
00000000: 9521 dd3c e988 9e3d 2244 053d d3ec a73c
00000010: 8d70 35bd 9f01 9fbd 853b 0cbe e98f f53c
00000020: f801 203d 509f df3c 4d87 76bc c22d b8bd
00000030: de2d a33d 0484 c93d 7f6d 843c 9812 debd
00000040: 6668 d53c cdb1 14bd 4a0a b03d 7425 233c
00000050: 57a4 013e c7ba 83bd 2a12 e7bd f586 22bb
00000060: a41a 10bc cd7e cd3d 66d0 87bc c7ab 4dbd
00000070: 9398 a23d 42b1 993d debb bf3c d794 133e
00000080: bee6 ccbd be84 8ebd c927 55bd 0a79 b8bb
00000090: 4665 3e3d 74cd e43b e5dc f03d fb65 f53c
000000a0: 9455 c3bc 263a 49bd fc44 50bd 23d0 85bd
000000b0: 08aa cabd cc20 28be 22cc b33d 611c 493d
000000c0: 831f 883d b301 c4bd 57ab dbbc dbd3 43bd
000000d0: a002 fb3c 66ca ac3d 09c9 103c 0ccd 9abd
000000e0: 9fd5 aabd 4b7b a4bd f318 3fbc 26ce 0c3d
000000f0: 36e3 33bd d3dd 823c 8279 9f3d 5941 4fbd
00000100: d47a d93d 1cdf ba3d cf2a 23bd 6be8 22bd
00000110: 6fc5 7abc 7a22 2f3d 72e3 30bd 944d d63d
00000120: 2664 93bd b82e 4bbd 39e9 753d d734 3c3b
00000130: 0f78 a93d b50e b0bd f3d9 c23d 9ff9 e4bd
00000140: ed7c 42bd fc9a 1a3d e76f 48bc 27e8 c0bc
00000150: a1ab dd3d 4bc7 033e 3ad0 a0bd b310 093e
00000160: 9b9a e8bc c10c 98bd abb0 003e d8bc 933d
00000170: f96a f5bd f085 dbbc 26d5 c13d a7a3 c03d
00000180: 0543 9f3b c25d 3bbd 5d75 3ebc 3145 913d
00000190: f01f bd3d ed82 b53e d92c 9f3d c99f 8f3d
000001a0: 1578 37bd 328d 62bd 35f4 04bc 8612 6f3d
000001b0: b3e2 403c ac54 c83c 5805 8f3d 335d 84bd
000001c0: 8969 913d d04b 3eba 261b a3bb 3a95 e53d
000001d0: fc11 4d3b 69c8 b4bd 302c 303d 591d bc3c
000001e0: 895b b73c 1d86 803c 2f7f 70bc d47b e93c
000001f0: a5be 8f3d 786d a9bd f8cf 343d 35c5 81bd
00000200: 4957 69bd 0cfe 0c3e 04d4 c9bd e9e8 20bd
00000210: d5fb acbd 16bb bfbd abb8 863d f56e 02bd
00000220: ab9a 77bd 8186 3e3d 6bb3 453d 46b7 68bd
00000230: 93c6 96bd 1af0 85bb eff1 1bbd 068e 3fbd
00000240: b95e e73b f329 a13d 679e 1dbd 8042 a33d
00000250: 1c3c e63d cb79 7b3d 8058 863d 5e97 1f3c
00000260: 387e bb3b 05d2 a9bd 7d9a 8bbc fad7 54bd
00000270: 4115 45ba db49 c13d d8c4 973d 08f7 2bbd
00000280: 27d2 5a3e dbbf edba 25ce 343d 56bd aa3d
00000290: 3b66 4abd 2153 a93d 4768 ddbc 693e fdbd
000002a0: 446a ad3c 3eda f7bd 7f76 9a3d ca18 4a3e
000002b0: 0f74 7ebd c68c e5bd 9de0 12bc 650e 24bd
000002c0: aed9 e63d eee3 923d 76e0 4abd e192 b2bd
000002d0: deb8 313e 2a4f 973d b1bf 1d3d 0937 3bbe
000002e0: 6f9d 9e3d 0957 4f3d 267e 993c 03b3 24bd
000002f0: bb18 e8bd cbdc eb3d 8ced c7bd c3e4 51be
00000300: 5065 f6bb 1051 c0bd 8cc9 a7bd f1d7 82bd
00000310: ec12 063d 6901 a0bd e927 e53d aff8 223d
00000320: 80c5 78bd 7dfe b5bd 83c0 77be 5801 a1bd
00000330: 9696 043e c462 dd3c a4ee 833c eae4 9cbd
00000340: 74ff 4dbd 85ea f3bd f6c0 ffbd c215 fcbc
00000350: e23a 6dbd 2c58 b73c 5132 eabd 22c8 58bd
00000360: 865f b63d 2ee1 e63d 1bfb 983d e526 413c
00000370: 1c4b b9bc 49f3 793c 7889 793d 08c9 723d
00000380: c49f 5bbd 5420 5a3e 3f4c 5cbd 147a 033e
00000390: 0bfa bcbc ccf8 5cbd 29a9 babd d86f ebbc
000003a0: 878b fc3a 5749 b5bc e0e1 b3bd ea7e 983d
000003b0: c0ed 833d bbac 67bc 201d 92bd 4fca c0bd
000003c0: 5e8c 23bc e1e5 923d 1e44 a9bd 85c1 783d
000003d0: 2ffd bfbc b0c1 563d ec26 7bbc 5496 763c
000003e0: 9450 85bc 2592 143d a010 87bc 5132 03bd
000003f0: b912 ac3d 7c6c 003e a0c7 2bbd 65cd 503c
0.026993552 0.07740957 0.03253568 0.020498669 -0.04429679 -0.07763981 -0.1369458 0.029975848
0.039064378 0.027297646 -0.015046907 -0.089931026 0.07967733 0.09839633 0.016165493 -0.1084339
0.026050758 -0.036302377 0.085957125 0.00995766 0.12660347 -0.06432109 -0.112827614 -0.002479968
-0.008795414 0.10033951 -0.016578864 -0.050212648 0.079392575 0.07504512 0.023405012 0.14412247
-0.10004948 -0.06958912 -0.052039895 -0.0056296634 0.0464833 0.0069824997 0.11760882 0.029955855
-0.023844518 -0.04912772 -0.05084704 -0.065338396 -0.09895712 -0.16418761 0.087791696 0.04909933
0.066466354 -0.095706366 -0.0268151 -0.047809463 0.0306409 0.08437042 0.008836993 -0.07558641
-0.08341526 -0.08031329 -0.011663663 0.034376286 -0.043917857 0.015974915 0.07786848 -0.05059943
0.10619131 0.09124586 -0.039835747 -0.039772432 -0.015305861 0.04275749 -0.04318566 0.104640156
-0.07196836 -0.0496051 0.06003687 0.0028718018 0.082748525 -0.08596555 0.09514227 -0.11180424
-0.04748242 0.03774546 -0.012233711 -0.023548199 0.10823751 0.12868993 -0.07852216 0.13385276
-0.028394034 -0.074243076 0.12567393 0.072137535 -0.11983294 -0.026797265 0.09464483 0.09406214
0.0048602843 -0.04574371 -0.011624661 0.07093275 0.09234607 0.3545145 0.07772226 0.070128985
-0.044792254 -0.055310436 -0.008114864 0.058367275 0.011772799 0.024454437 0.06983441 -0.06463089
0.07100207 -0.0007259222 -0.0049776016 0.11210103 0.0031291237 -0.08827288 0.04301089 0.022963213
0.022382515 0.01568895 -0.01467876 0.028501429 0.070187844 -0.08272833 0.044143647 -0.063364424
-0.056968007 0.13768786 -0.09854892 -0.03928462 -0.08446471 -0.09361856 0.06578191 -0.031844098
-0.060450237 0.04651499 0.04826681 -0.05681541 -0.07362094 -0.00408746 -0.038072523 -0.046766303
0.0070608524 0.07869329 -0.038481142 0.07971668 0.11241934 0.061395448 0.06559849 0.009740679
0.0057218336 -0.08292011 -0.01704144 -0.051963784 -0.00075181207 0.09437915 0.07410592 -0.041983634
0.2136923 -0.0018138842 0.044141907 0.08336894 -0.0494139 0.08267809 -0.027027262 -0.123654194
0.021168835 -0.12102173 0.075421326 0.19736019 -0.0621224 -0.11208491 -0.008964685 -0.04005279
0.11271988 0.071723804 -0.04953047 -0.08719421 0.17355677 0.07388146 0.03851289 -0.18282713
0.07744872 0.050620113 0.01873691 -0.04020978 -0.11332842 0.11516722 -0.09762105 -0.20497422
-0.0075194016 -0.093904614 -0.08192739 -0.06388844 0.03273289 -0.07812769 0.11189253 0.039787944
-0.060735226 -0.088864304 -0.24194531 -0.078615844 0.12948069 0.027024634 0.016105004 -0.076608494
-0.050292447 -0.119099654 -0.12487976 -0.030772094 -0.057917483 0.02238091 -0.11435378 -0.052925237
0.089049384 0.11273418 0.074697696 0.011789058 -0.022618823 0.015255758 0.060922116 0.05927375
-0.05361916 0.21301395 -0.05378365 0.12839538 -0.023068449 -0.05394821 -0.09114296 -0.028739855
0.0019267657 -0.022129698 -0.087833166 0.07446082 0.064418316 -0.014140303 -0.071344614 -0.09413587
-0.009982197 0.07172752 -0.082649454 0.06073143 -0.023436157 0.05243081 -0.015329104 0.015050489
-0.016273774 0.036272187 -0.01648742 -0.032030407 0.084020086 0.12541384 -0.041938424 0.012744282

VAE.encoder_mu.layers.0.linear1.bias f4 [4]
00000000: 4382 cabb eaaf 4e3c de8f d0bd 86fc 45bd
-0.006180079 0.012615183 -0.101836905 -0.04833653

VAE.encoder_mu.layers.0.norm1.weight f4 [4]
00000000: c0dc 873f f023 793f 9ead 803f 3927 8a3f
1.0614243 0.9732046 1.0052984 1.079322

VAE.encoder_mu.layers.0.norm1.bias f4 [4]
00000000: 8b50 c53c 2b8f 503c 3fab 88bb 9bfc 013c
0.024086257 0.012729446 -0.0041708048 0.007933761

VAE.encoder_mu.layers.1.attention.W_q.weight f4 [4, 4]
00000000: e7e4 1f3e 5ca0 803e f161 cbbe 1d50 b1be
00000010: 5d31 70be fc73 273e 1458 753e 8dc0 9cbd
00000020: fa64 263e 03b0 cebe 8fb8 52bd 9a83 86be
00000030: 7e64 6f3e 1d86 05bf 13a1 17be b12d 883c
0.15614663 0.25122344 -0.3972316 -0.34631434 -0.2345633 0.16352838 0.2395938 -0.07653914
0.16249457 -0.4036866 -0.05144554 -0.2627228 0.23378178 -0.52157766 -0.14807539 0.01662335

VAE.encoder_mu.layers.1.attention.W_q.bias f4 [4]
00000000: e8a4 a93d 8107 c7bd 5749 4b3a ca95 303d
0.082834065 -0.09718228 0.0007754764 0.0431116

VAE.encoder_mu.layers.1.attention.W_k.weight f4 [4, 4]
00000000: 9ce5 c2bd 90bb bebe fd80 b5be a729 3fbe
00000010: 2703 76be a14f b43e 7aa2 cabb f189 1abe
00000020: 9b98 493e 269d ef3d 8e11 5e3d a39b c2be
00000030: 17ea 023e b067 e6be 129c 0c3f 2de2 0cbf
-0.09516451 -0.37252474 -0.35449973 -0.18668233 -0.2402464 0.35217002 -0.0061839195 -0.15091683
0.1968712 0.116998956 0.05421596 -0.38009366 0.1278461 -0.45000982 0.54925644 -0.55032617

VAE.encoder_mu.layers.1.attention.W_k.bias f4 [4]
00000000: d9da 4b3a 1034 1d3b 637f 4cbb 6a4a 27bb
0.00077764463 0.002398733 -0.0031203858 -0.0025526532

VAE.encoder_mu.layers.1.attention.W_v.weight f4 [4, 4]
00000000: e30b dcbe 42bd 773e 7fb1 c93e 6ffc 973e
00000010: dd1a 543d 21e6 063d 3646 7dbe 7d82 ff3d
00000020: 1a89 c13e 3763 f63e dc32 823e b229 f8bd
00000030: 9fea 2e3e 01c2 bebe a8ea b9bd 6b5c 793e
-0.4297782 0.2419329 0.3939323 0.2968478 0.05178343 0.03293431 -0.24733815 0.124760605
0.37799913 0.4812257 0.25429428 -0.12117328 0.17081688 -0.37257388 -0.0907796 0.24351661

VAE.encoder_mu.layers.1.attention.W_v.bias f4 [4]
00000000: 4f62 68bc 2a73 bdbc 543e 67bc 63ab ad3b
-0.014183595 -0.023126204 -0.014113981 0.005299972

VAE.encoder_mu.layers.1.linear0.weight f4 [128, 4]
00000000: cdcd 103d 0b6f 2dbe 0ebe 15bd a277 7ebe
00000010: 450e aebe c281 9bbe c5e2 743e c066 16be
00000020: e4a6 6f3e eaf4 f4be 08eb c33e b205 fd3c
00000030: 9b76 eb3d 6ac9 9e3e 0f07 80be 5d82 30bd
00000040: 1ffb b0be dc93 93be b0c7 833c 2f36 00bf
00000050: 4c19 6fbe 80e4 5fbe b201 afbe 9686 dbbe
00000060: 9802 bbbe 8ddc 753e 282c 02be e393 8dbe
00000070: e620 0b3e 474b dcbd b293 b0bd df8c b8be
00000080: 893f 61be 1cc3 c9be 331a cabe 9ece d53e
00000090: 4dc5 70be ae94 50bd 27b2 ef3e 0ece 96be
000000a0: f480 00bf 26dd 0dbe 18f2 193d 1922 a2be
000000b0: 9c8b 423e 2803 b03e f8a5 87be 3ba8 f73d
000000c0: 236b 0f3f 4858 783e 650e ce3e 943b 093e
000000d0: f919 2e3e c914 03bf a1a0 6a3c 3176 1a3e
000000e0: d9fe a1bd 7fa5 46be cff8 babe fa10 083e
000000f0: cf21 00bf da35 c3be 5602 ac3e c923 4bbe
00000100: f048 8a3e a01a c83e 16bf 48be e97d 6fbe
00000110: 860f 54be b8e4 8f3e e2e7 8dbe 2fe4 4d3d
00000120: 75f0 1a3f 6b20 00be 52ac a6be 340b 553b
00000130: 1a77 d43e e538 c2be 8383 c03e efae 613e
00000140: 4933 023f 62e2 95be b598 e83d a8cf 61be
00000150: 1e94 9e3e d796 d2be 8002 423d a538 a3be
00000160: d4de 0e3e 7b34 4b3e e5fb 1a3e 8456 d9bd
00000170: 5a98 c03e 8218 953d b088 bc3e 9a14 b63d
00000180: fd6e 783e cf7e 493e 1b6e 76be 65ac fabe
00000190: a8d4 9fbe 2b6e eabd 6e09 d6be 8bc6 be3e
000001a0: 3508 bfbe a17b 533e 07bd 063e 2814 363e
000001b0: 1bb6 9dbe 60ff f9bc 45a8 b9be 22a9 f43e
000001c0: 863d 01bf a5d7 d2be 910d ff3e b328 fd3e
000001d0: 6463 713e 4af4 fc3d ec0d 16bd ecc7 373e
000001e0: 9015 113e f755 e6be 5a87 f5be 4e4c 4dbe
000001f0: c8c9 df3e ed5a 90be 717f f3be 7b83 77be
00000200: 1284 c83d 26fc e1bd 5d57 95be 26f0 3bbe
00000210: 78c8 9fbe a680 913e 7b76 d9be ad93 393e
00000220: 3913 6b3e be7c 36be 3725 a73e 0289 96be
00000230: ed88 a8bd 68da c83e 7966 b03e a854 1cbf
00000240: 54c9 ff3d a6ed 183e 9c7a 853d 8fed e0be
00000250: ab42 bdbe 3d62 d03e dbe6 5dbe 0b9b fd3c
00000260: 2fdd 1dbe 5395 5b3e 5221 a43e 7130 a93e
00000270: 3493 d03e a664 4bbd 6e62 90be 2be1 e1be
00000280: 419d 9c3e e73d a4bd 80ae 2d3e 1647 073e
00000290: 0534 053f 2340 d1be 1a26 90be b1bc ff3d
000002a0: eee9 bc3e 8531 c2bd 2ad3 093e 25c0 073f
000002b0: b34b fcbe c89b e13d db33 6f3e b1d6 d33c
000002c0: 5e22 3e3e 4ff4 d0be 22c0 c93e ab1f fe3e
000002d0: 1ca0 3a3e 62ac ba3e 83be a13e aa41 0b3f
000002e0: 5208 d03d d919 45be 04f5 013e 1d28 58be
000002f0: 166a e5bd 8ba5 da3e af55 843d e42e bfbe
00000300: b781 f83d 2e30 bb3e 8bd6 05be 0c86 6f3e
00000310: 8478 2abe 2c3c f33e ab33 20be 8789 9dbe
00000320: aaf4 aa3e afc7 82be 05cb c53e d829 ec3e
00000330: 0020 fd3d 3adb 253e de9c 5b3e 3253 b6be
00000340: 3f5c c73e 00e9 113e 792d d93d cccf d6bc
00000350: ca67 2b3e 2abd 3fbc 7376 723e 1377 3dbe
00000360: 2e33 ef3e 658d 603e acde d83e 96ac ff3e
00000370: 64b0 43be 1dd6 02bf b457 1c3f 4cfb a73e
00000380: 141c 40be f15d f6be b026 993d 0a30 9c3d
00000390: c0d9 843e efb1 1cbe 62ef 843d 94ec e2be
000003a0: 9412 113d faf1 47bd bd37 863e af7d babe
000003b0: ea38 e93e 6300 c3bd 5b57 98bc 8f43 2cbe
000003c0: 9f3c 383e 9a43 243c a03b a0be 96dd 8dbe
000003d0: 7a76 99bc 1e65 a93c 4953 c4be 2454 8a3c
000003e0: e54a db3e deb7 7abe 0986 8a3e 52bf a5be
000003f0: 3e0a bb3c b024 eb3e 9736 09bf 6a85 e63d
0.035352517 -0.16936891 -0.036558203 -0.24850324 -0.33995262 -0.30372435 0.2391463 -0.14687634
0.23403507 -0.47843105 0.38265252 0.030886505 0.114972316 0.31013042 -0.25005385 -0.043093074
-0.3456659 -0.28823745 0.01608643 -0.5008268 -0.23349494 -0.2186451 -0.3418098 -0.42876118
-0.36525416 0.24009915 -0.12712157 -0.2765189 0.13586769 -0.107565455 -0.08621921 -0.36044976
-0.21996893 -0.3940667 -0.39473113 0.417592 -0.23512764 -0.050923042 0.46815607 -0.29454082
-0.50196767 -0.13853893 0.037584394 -0.3166664 0.18998569 0.34377408 -0.26493812 0.12092634
0.5602285 0.24252427 0.40245357 0.13401634 0.17002095 -0.5120359 0.0143205235 0.15084149
-0.079099365 -0.19399069 -0.3651795 0.13287726 -0.5005159 -0.38127023 0.33595532 -0.1983787
0.27008772 0.39082813 -0.19604144 -0.23387875 -0.20709047 0.28104186 -0.27715975 0.05026644
0.6052316 -0.12512366 -0.32553345 0.0032507898 0.41497117 -0.37934032 0.37600335 0.22039388
0.50859505 -0.2927428 0.113572516 -0.22051871 0.3097238 -0.41130707 0.047365665 -0.31879154
0.1395219 0.19844238 0.15135153 -0.10612205 0.37616235 0.07280065 0.36823034 0.08890648
0.24261089 0.1967728 -0.2406544 -0.48959652 -0.3121693 -0.11446794 -0.4180407 0.3726085
-0.3731095 0.2065263 0.13158046 0.17781126 -0.30802998 -0.03051728 -0.36261192 0.47785288
-0.504845 -0.4118015 0.49815038 0.49445114 0.23573071 0.12351282 -0.03663437 0.17947358
0.14168382 -0.4498746 -0.47954828 -0.20048639 0.43708634 -0.2819437 -0.47558168 -0.2417125
0.097908154 -0.110344216 -0.29168215 -0.18353328 -0.31207633 0.28418463 -0.42473206 0.1812274
0.22956552 -0.17821023 0.3264558 -0.29401404 -0.082292415 0.3922913 0.3445318 -0.61066675
0.12489572 0.14934406 0.065175265 -0.43931243 -0.36964926 0.4069995 -0.21670096 0.03095772
-0.15416406 0.21443681 0.3205667 0.3304477 0.40737307 -0.049656533 -0.28200096 -0.44117102
0.30588725 -0.080196194 0.16961098 0.13210711 0.520325 -0.40869245 -0.2815407 0.12487162
0.36897224 -0.09482101 0.13459459 0.53027564 -0.49276504 0.11016041 0.23359625 0.025859209
0.18567798 -0.40811393 0.39404398 0.49633536 0.1822514 0.36459643 0.3159066 0.5439707
0.10157837 -0.19248141 0.12691122 -0.21109052 -0.11201875 0.42704424 0.06461655 -0.37340462
0.12134116 0.36560196 -0.13070123 0.23390979 -0.16647536 0.47506845 -0.1564471 -0.30768988
0.3338979 -0.25542971 0.38631454 0.46125674 0.12359619 0.1619691 0.21446559 -0.35610348
0.38937566 0.14249039 0.10604376 -0.026222132 0.16738811 -0.011702815 0.23677997 -0.18502454
0.46718735 0.21928938 0.42357385 0.4993636 -0.19110256 -0.5110796 0.61071324 0.32808912
-0.18760711 -0.48118547 0.07478082 0.0762635 0.2594738 -0.15302251 0.06490971 -0.4432112
0.035418108 -0.04881475 0.262144 -0.36424014 0.45551234 -0.09521558 -0.018596342 -0.16822647
0.17991875 0.010025883 -0.3129549 -0.2770812 -0.018733252 0.0206781 -0.38344792 0.016885825
0.42830577 -0.24484202 0.27055386 -0.32372528 0.022832032 0.45926428 -0.5359892 0.112559155

VAE.encoder_mu.layers.1.linear0.bias f4 [128]
00000000: f4b2 043f 5a2a 353e 85da e03e 9baf 8b3e
00000010: 4191 b9be 88b2 b8be 9a05 e0be 8383 443e
00000020: a6e4 803e 9dd7 cabe 609b 5fbe c5f6 41be
00000030: 768f 6ebe e38e 9fbe cf64 acbe bc93 7a3d
00000040: 5d7c 93bd 6af0 b33e ccab 0abf c641 843e
00000050: 1b5d a0be f120 66be e5d8 66be 4684 453e
00000060: f0d3 df3d e793 91bc fdfe abbd ba18 e8bd
00000070: 6c14 223e 4a33 27be ec88 db3e f1c3 2d3e
00000080: f424 b93e f912 9dbe fe0a bb3e ce59 7ebe
00000090: 4e41 0ebe 8d90 39be 2fe0 923e defc 873e
000000a0: f833 83bd 59df 0d3e 751e dfbe 488f d4be
000000b0: f6d2 f6be de4d c23e 0880 393e 5b4f 80be
000000c0: 2891 f9be 8abd d43d a354 d13e 2f29 f93e
000000d0: d955 df3e f7da f6be 75de 2e3e ebd1 8a3e
000000e0: 8387 9e3e 6259 edbe d904 073e a063 94bd
000000f0: 316c fc3d 66f8 883d 9841 8cbc 8f98 05be
00000100: 23c9 a1bd fc62 e8be d38e 2cbe ff16 bd3c
00000110: 9997 9c3d 2029 ba3e 8e2c 82be 427a ecbd
00000120: c3e2 c43d 4795 32bd cb1e bf3e 8238 863e
00000130: 6e9d d1be 09fd 01bf ead0 b6be e12a 9f3e
00000140: 1304 b33e a9d1 e13e 5135 36bd 636a 5ebe
00000150: 88c4 8d3c 3ac9 d33e 2e98 9cbe 34b3 e3bd
00000160: 1d0d b3be a1fb 13bc 6bd1 a23e 102e 863e
00000170: ecae 98be cdc5 043e 21aa c9bd 432a ecbd
00000180: 7959 7bbd 324a f13c c95a f03e 9c2c d83d
00000190: e15f 913e fa42 143e 28dc e3be 7ec5 c63e
000001a0: de3c 1a3e 4893 00be 10bc 683d 2445 7abe
000001b0: faca d83e 945c 6b3d f953 583e e324 cb3d
000001c0: c5b4 b6be 0961 963d 52b0 8d3d 3d24 b63e
000001d0: 5134 e23d 4dc1 30be 7757 b3be 1e1e b33e
000001e0: 06b2 883e cb78 453e 6fa7 9abc 8a0b f73d
000001f0: 886b 90be ce67 45be 8482 fcbe b923 b6be
0.5183556 0.17691937 0.43916717 0.27282414 -0.36243632 -0.3607371 -0.43754274 0.19190793
0.25174445 -0.39617625 -0.21836615 -0.18941791 -0.23296914 -0.311637 -0.3367066 0.061176047
-0.07201455 0.3514436 -0.5416839 0.2583143 -0.31321034 -0.22473504 -0.22543676 0.1928874
0.10929096 -0.01777072 -0.083982445 -0.11332841 0.15828103 -0.16328159 0.428779 0.16969277
0.36161005 -0.30678537 0.36531824 -0.24838945 -0.138921 -0.18121548 0.28686664 0.2656011
-0.064063966 0.13854732 -0.43577924 -0.41515565 -0.48207825 0.37950033 0.18115246 -0.25060543
-0.48743558 0.10387714 0.40884885 0.48664233 0.43620184 -0.48213932 0.17077048 0.2711328
0.30962762 -0.46357256 0.13185443 -0.072455645 0.123253234 0.06688003 -0.017121121 -0.13046478
-0.07899692 -0.4538802 -0.16851358 0.023082254 0.076461025 0.363595 -0.25424618 -0.11546756
0.09613564 -0.043599393 0.3732818 0.26214987 -0.40940422 -0.50776726 -0.35706264 0.31087402
0.34964046 0.4410527 -0.04448444 -0.21720271 0.017305627 0.4136446 -0.30584854 -0.11118165
-0.34970942 -0.009032161 0.31800398 0.26207018 -0.29820955 0.1296608 -0.09846903 -0.11531498
-0.061364625 0.029454324 0.46944264 0.105553836 0.28393462 0.14478675 -0.44503903 0.3882255
0.15062281 -0.12556183 0.056819975 -0.24440438 0.4234236 0.057461336 0.21125783 0.09919145
-0.3568479 0.07342727 0.06918396 0.35574523 0.11045135 -0.17261238 -0.35027668 0.34983915
0.2669832 0.1928436 -0.018878667 0.12062748 -0.2820704 -0.1927788 -0.49318326 -0.3557413

VAE.encoder_mu.layers.1.linear1.weight f4 [4, 128]
00000000: 1691 c9bd 0547 dcbd 1970 96bd 2968 a93d
00000010: 4b06 01bb c965 36bd dba1 2a3d 33eb acbd
00000020: 3f83 b23c d8bd 07be 8dd5 53bd 4b9e d33c
00000030: b2f2 323a e8ed 4e3e 8b8d 8abd 8d97 0bbe
00000040: 59dd 033d 0e95 2b3d 9a10 dabc b5dc a4bd
00000050: f45a 0bbe a0b7 eebc aac6 1f3d ba5d 4dbd
00000060: 99ad 203d 0152 48bc 9266 b9bd ee80 f5bc
00000070: 3222 c9bc 6391 d03c 66c4 babc 5482 f1bc
00000080: 6753 89bd 4cba 60bd ce45 c8bc 8a03 1a3d
00000090: 5643 2dbc b1e1 3f3d 6755 0f3c 152d 7d3c
000000a0: 72a8 d1bd 717c 22bd 4aaa 723e 8d5a c7bd
000000b0: 9f76 183e 2756 a73d 4642 c7bd 6ed2 893a
000000c0: 0948 e9bd bb93 71bd b749 993d 1035 64bd
000000d0: e27c f5bb bfd9 003d cef2 883d d32a dcbd
000000e0: c98e fcbc 35fe f8bd 3f14 00be d35d f3bd
000000f0: 609e 87bd 763c 173d 37f2 4dbd f2d1 10bd
00000100: 10c6 44bd ced8 2abe fbab c7bc 17eb aebd
00000110: 864a f23c 301d 69bd d403 823d 1c70 3a3c
00000120: 3f31 09bd 86d6 7cbd e5a2 febd b799 f8bb
00000130: 93d9 3b3e 8a71 8dbd 2c98 19bc 74b6 0e3d
00000140: f7aa e83c bffa 6b3d f95d a2bd d679 adbd
00000150: 65b8 12be cf4a 6dbd 7e29 7abd 5102 113b
00000160: fb94 d43b 659a 313c 9da8 4ebd 8877 acbc
00000170: a8e7 493e 7121 153d 7800 aabd de2b 64bd
00000180: 45dd 36bd 7e20 93bd a566 87bd d3b4 c13c
00000190: f45f 24bd 8792 10bd 5481 aabd 3aa8 70bd
000001a0: a560 80bd a27c c3bc c378 6a3d 40cb a63c
000001b0: b1cf 66bc 0d0f e4bd bf55 243d 38e2 283c
000001c0: 35b9 7f3c 2d7f b7bd ac97 1f3d a333 58ba
000001d0: a913 a9bd cd7e 793d e729 d2bb 8f4e afbd
000001e0: 0b44 c93c 573d 1c3c 7ad3 a6bd a894 d4bd
000001f0: d875 b2bd abdf abbd 3c62 85bc 842d b63d
00000200: d61d a9bd ac7d d83c 3ab8 3cbd a176 1e3c
00000210: ca7d b13e 3c3d 99bd 0fb2 29bd 5618 cfbd
00000220: 9e47 6dbd 5ca3 113e 23f2 cbbd 1405 043d
00000230: ecc4 bbba 0686 303c b579 aabd 2cc4 083e
00000240: f817 edbd f75c a23a cdc5 283e b89d 843d
00000250: 8469 4dbd 92b8 e8bd ec5d ffbd 0786 5b3d
00000260: 5636 043c 5a50 d83b 0cce dcbd b82d a5bc
00000270: f483 7f3d fb61 4dbe a87b d3bd 9df9 86bd
00000280: e4db dbbd 4669 003d 110f 2b3c 0640 1abe
00000290: 8702 e0bd fc92 94bd a35a ba3d ee66 42bd
000002a0: 11a9 74bd 7f3f 66bd 5f1d e9bd fd21 31be
000002b0: b29d 8c3d 4a29 14bc ddc1 b93d ec95 21bd
000002c0: 1c35 04be 8549 20bd 01a1 dd3d acbb d1bc
000002d0: cc7e 2abc a3b2 0bbe cef4 053c 53ed 9abd
000002e0: 471b 77bd 7ea1 e9bd 8b96 ecbc 5a7d aebd
000002f0: 9e79 653d 418e d93c 3969 8d3d b54a 74ba
00000300: 89d4 88bd d103 8abd a33e 24bd ac82 36bc
00000310: 6f7f d13d fa8d 56bd 0aa3 53bb f140 0b3d
00000320: 7c74 ce3d 572e 3b3d 5b1f 96bd 14a3 033c
00000330: 747f 283d 2d88 02be c345 cb3d e69e c73d
00000340: 1a86 4abb c836 51bd 4584 c5bd b7f6 8dbd
00000350: 725c fe3d e905 84bd 4758 d5bd bf39 493d
00000360: 7798 713c 7bfb 093d 7161 78ba 2355 d03c
00000370: fb44 e33a bc8e 8c3d 0813 363d 31e5 ee3c
00000380: b7de e03c 4fb2 4ebd 9116 e2bd ec86 87bd
00000390: ba09 26bd f2b9 44bd b67c 153e 5e2b 8abd
000003a0: be45 35bd 6b0e 9d3d 7a6b 5fbd ec26 26bd
000003b0: f6d0 33bb e965 6e3c 87cb 963d 9f13 76bd
000003c0: 18f6 c7bd 1cfe cebd 8941 39bd 66e2 ffbc
000003d0: 1967 293d 2551 0c3d b218 833d e152 2d3d
000003e0: 144f 51bd e149 f6bb 523a f43d 423d 34be
000003f0: 895f 873d 40f9 5b3d 2bb2 983c 174b 57bd
-0.09842126 -0.107557334 -0.073456 0.0827182 -0.0019687589 -0.044530664 0.041658264 -0.08443298
0.021791099 -0.13256013 -0.05171733 0.025832316 0.00068263256 0.20207942 -0.067652784 -0.13632031
0.032193515 0.041890197 -0.026619244 -0.08049909 -0.13608915 -0.029140294 0.03900782 -0.050138213
0.039228056 -0.0122265825 -0.09052767 -0.029968705 -0.024552438 0.02545995 -0.022798728 -0.02948109
-0.06705361 -0.054865167 -0.024447348 0.03760103 -0.010575136 0.046846095 0.008748389 0.015452643
-0.102372065 -0.039669458 0.23697773 -0.09734068 0.14889 0.08170729 -0.097294375 0.0010514983
-0.11390693 -0.058978777 0.07484763 -0.055714667 -0.007491694 0.03145766 0.06686936 -0.107503556
-0.030829804 -0.12157861 -0.12507723 -0.1188313 -0.066220045 0.036922894 -0.050279822 -0.03535647
-0.04804045 -0.16684267 -0.024373999 -0.085409336 0.029576551 -0.0569126 0.063483864 0.011379268
-0.03349423 -0.061728023 -0.124334134 -0.0075866836 0.18344717 -0.069064215 -0.0093746595 0.03484197
0.028401835 0.057612177 -0.0792808 -0.08470504 -0.14328153 -0.05793267 -0.061074726 0.0022126625
0.0064874864 0.010840033 -0.05045377 -0.02105309 0.19717276 0.036408845 -0.08300871 -0.055705898
-0.044644613 -0.07183932 -0.06611375 0.023645794 -0.04013057 -0.03529599 -0.08325449 -0.058754183
-0.062684335 -0.02386314 0.057244074 0.020360589 -0.014087603 -0.11135683 0.040120836 0.010307841
0.015608122 -0.08959804 0.038963005 -0.00082474406 -0.08255703 0.060911942 -0.0064136866 -0.08559906
0.024568578 0.009536109 -0.08145805 -0.103799164 -0.08713883 -0.08392271 -0.016282193 0.088954
-0.08257644 0.026427113 -0.04607413 0.009671838 0.34666282 -0.07482383 -0.041429576 -0.101120636
-0.057929628 0.14222473 -0.09958293 0.032231405 -0.0014325655 0.010774141 -0.08323995 0.13356084
-0.11576837 0.0012387325 0.16481705 0.06475395 -0.050149456 -0.11363329 -0.12469086 0.053594615
0.008069595 0.0066013755 -0.10781488 -0.020163402 0.0623817 -0.20056908 -0.1032632 -0.06590579
-0.107353 0.031350397 0.010440604 -0.15063486 -0.10937982 -0.072545975 0.09099319 -0.047461443
-0.059731547 -0.0562129 -0.11382555 -0.17298122 0.068660155 -0.009043047 0.090701796 -0.039449617
-0.12910885 -0.039132614 0.10821725 -0.025602184 -0.010406207 -0.13642363 0.008176042 -0.07564797
-0.060328748 -0.11407755 -0.028880378 -0.08520003 0.056024186 0.02655709 0.06904835 -0.00093189935
-0.06681163 -0.06739009 -0.040098798 -0.011139553 0.10229384 -0.052381493 -0.0032293224 0.03399748
0.100808114 0.04569849 -0.07330199 0.008034486 0.041137174 -0.1274726 0.09925415 0.09747104
-0.0030902685 -0.051077634 -0.09644369 -0.06931823 0.12419976 -0.0644644 -0.10417228 0.049127337
0.014745823 0.033687096 -0.0009474969 0.025431221 0.0017339283 0.06863162 0.044451743 0.029162021
0.027449949 -0.050463017 -0.110394605 -0.06617531 -0.04053662 -0.048028894 0.14598355 -0.06746553
-0.044255964 0.07668766 -0.054545857 -0.040564463 -0.0027437783 0.014550664 0.073630385 -0.060077306
-0.097637355 -0.10107061 -0.045228515 -0.031235885 0.041358087 0.034257073 0.06401195 0.042315368
-0.051100805 -0.0075161313 0.11925186 -0.17601493 0.06610019 0.0537045 0.018639645 -0.052561846

VAE.encoder_mu.layers.1.linear1.bias f4 [4]
00000000: 8acf 91bd 906c d9bd 7b8b a2bd 6b92 c13d
-0.07119663 -0.1061641 -0.0793676 0.09451755

VAE.encoder_mu.layers.1.norm1.weight f4 [4]
00000000: a8c0 923f 6f0c 883f 38da 843f 311e 853f
1.1465044 1.0628794 1.0379095 1.0399839

VAE.encoder_mu.layers.1.norm1.bias f4 [4]
00000000: 473a 5ebd bf32 1dbd 17d0 483d e162 533b
-0.054254796 -0.038378473 0.049026575 0.0032254981

VAE.encoder_mu.layers.1.norm0.weight f4 [4]
00000000: 1da8 7c3f 8899 943f 163e 5f3f e114 803f
0.9869402 1.1609354 0.8720411 1.0006372

VAE.encoder_mu.layers.1.norm0.bias f4 [4]
00000000: f8a4 583c c9b1 4fbd c70c 8fbc ae12 f0bb
0.013222925 -0.05070666 -0.017462147 -0.0073264455

VAE.encoder_mu.last_normalization.weight f4 [4]
00000000: 0000 803f 0000 803f 0000 803f 0000 803f
1.0 1.0 1.0 1.0

VAE.encoder_mu.last_normalization.bias f4 [4]
00000000: 0000 0000 0000 0000 0000 0000 0000 0000
0.0 0.0 0.0 0.0

VAE.encoder_mu.head.weight f4 [4, 4]
00000000: 90fe 28be 649c 3cbe 9cb9 d1be 10a6 32be
00000010: 4885 ca3e 408a f73d c492 5bbe 58d7 d3be
00000020: 48c3 c43e 84ee 1a3e c0e3 bdbe b0d7 5e3d
00000030: e0f1 db3c 2085 b9bc 20da eb3d 6efb d8be
-0.16503358 -0.18419033 -0.4096192 -0.1744616 0.3955481 0.12086916 -0.21442705 -0.41375232
0.38430238 0.15130049 -0.37087822 0.054404914 0.026848733 -0.022646487 0.115162134 -0.42379326

VAE.encoder_mu.head.bias f4 [4]
00000000: 0c43 d63e 48e8 023e 3264 c93e ecd3 c6be
0.41848028 0.12783921 0.39334255 -0.3883356

VAE.encoder_mu.nn_z.weight f4 [1, 96]
00000000: ad68 18be 4b6d b9bc a87b 14be 4b26 e23d
00000010: e386 90bd 2869 cdbd 650f a4bc 30c7 373c
00000020: 5fcb 2cbd 4c05 8c3d 2b5d 93bd c35b 7d3d
00000030: df25 793d c488 dbbd e812 d03d bc66 85bd
00000040: 04b4 92bd 4cb0 a73c e9d3 133d 79be 973d
00000050: b841 a5bd 34aa c8bc b015 55b8 6412 87bc
00000060: 2d63 ccbd d126 25bd 9066 603d 841b 83bd
00000070: 8b08 a2bb 3fc2 d9bc 791a 37bd 31aa 323d
00000080: 25e7 c2bc 86a6 10bd eeb4 003d d232 d73d
00000090: bbff c6bc bc20 dabb ca39 ecbc 3367 71bd
000000a0: 93d9 b9bc 77d0 82bd 928a 06be 7256 a4bd
000000b0: 2255 bdbc 5cad ccbc 7372 35bd 05e2 1cbd
000000c0: 2389 1d3d 874c dd3b 9c98 233d 0e6b c03b
000000d0: d281 a63d 9b16 52bc 5390 263d d5ca 0d3c
000000e0: 78f0 ec3b 92c5 f93d b89a d73c 58d1 c93b
000000f0: b386 313d 4b98 8e3b 6473 ccbd 6219 53bc
00000100: 1714 13bc 4fbb fcbb 2c93 35bd 02be 483d
00000110: e6a4 683d a737 54bd 4251 cf3b 27b9 a13c
00000120: d3bc 89bd dc33 de3c 6836 12bd 4ad0 90bd
00000130: a7b4 afbd 1311 763d cf80 dbbc 35c1 8d3e
00000140: 5d75 bebb 8fb5 4b3d e9ba a73d 86e8 b1bc
00000150: e5e5 febc 0370 25bd bd6b cebb a1b4 8f3d
00000160: 99fd a13d 17b8 f0bc f864 fe3c cdb9 5e3d
00000170: 4dac 50bd 1086 a53d a264 4cbd 47c4 8cbd
-0.1488368 -0.022635123 -0.14500296 0.1104246 -0.070569776 -0.100298226 -0.020026872 0.011216924
-0.042186137 0.06836948 -0.07195505 0.06185509 0.060827132 -0.10719445 0.10159856 -0.06513736
-0.071632415 0.020469807 0.036090765 0.07409377 -0.080691755 -0.024495222 -5.0803355e-05 -0.016488262
-0.09979854 -0.04032022 0.05478531 -0.064017326 -0.004944866 -0.026581882 -0.04470298 0.04361934
-0.023791859 -0.03531506 0.031422548 0.1050774 -0.024291864 -0.0066567343 -0.02883615 -0.05893631
-0.022686755 -0.06387418 -0.13138798 -0.08024301 -0.023111884 -0.024985008 -0.0442986 -0.038301487
0.038460862 0.0067535075 0.03994046 0.005872137 0.0813023 -0.012822772 0.040664982 0.008654316
0.0072308145 0.12195887 0.026318893 0.006158989 0.04334135 0.004351651 -0.099829465 -0.01288447
-0.008976958 -0.0077127586 -0.044329807 0.04900933 0.056797884 -0.051810887 0.0063268254 0.019741608
-0.067254685 0.027124338 -0.035696417 -0.07070978 -0.085793786 0.060074877 -0.02679482 0.27686468
-0.0058123306 0.049733695 0.08189947 -0.021717321 -0.031115482 -0.040390026 -0.0062994645 0.07016874
0.07909698 -0.029384656 0.031054005 0.054376412 -0.05094557 0.08082211 -0.04990066 -0.068733744

VAE.encoder_logvar.layers.0.attention.W_q.weight f4 [4, 4]
00000000: 30e4 253e 9edf aa3e 2848 d23e 953b 57bc
00000010: c074 073f 6f42 0dbf 018c 983c 2675 863e
00000020: 0abb 893e 0f30 29bf 6d23 aabe 8bc0 9fbd
00000030: 0b3a 023e 2ea3 f93e 4d32 cfbe da5e 02be
0.16200328 0.3337373 0.41070676 -0.013136764 0.5291252 -0.55179495 0.018621447 0.26261252
0.26900512 -0.66088957 -0.33230153 -0.078003965 0.12717454 0.4875731 -0.40468064 -0.12731495

VAE.encoder_logvar.layers.0.attention.W_q.bias f4 [4]
00000000: 5e10 8d3e e9a5 c0be 3d7d 1bbf 3dad 65be
0.2755155 -0.3762658 -0.60737973 -0.22429366

VAE.encoder_logvar.layers.0.attention.W_k.weight f4 [4, 4]
00000000: 56fb dabe 054e 053f 4e00 973e 1b41 563e
00000010: 2fa1 123f 6245 07bf 87b9 3e3c 1c04 483f
00000020: c893 a23d 2524 0ebf 8255 d23e e29d 453e
00000030: 0682 053e 06d9 eebd 956b 803e f638 22be
-0.4276988 0.52072173 0.2949242 0.20923273 0.57277197 -0.52840245 0.011640913 0.7813127
0.07938343 -0.555239 0.41080862 0.19298509 0.13037881 -0.11662488 0.2508208 -0.15842041

VAE.encoder_logvar.layers.0.attention.W_k.bias f4 [4]
00000000: 8b3e 2538 1c1c f636 b11a 12b8 93b0 54b8
3.9397313e-05 7.3346437e-06 -3.483397e-05 -5.0709186e-05

VAE.encoder_logvar.layers.0.attention.W_v.weight f4 [4, 4]
00000000: a919 8b3e 04ad 633d 8548 1f3d 750d 403e
00000010: 65f5 95be 0e19 8e3e 6da7 43be 8b17 eabc
00000020: f37d ef3e 410d 86be 6cf9 0d3e aa60 e4be
00000030: 33e6 173f c79f dbbe ab15 1f3e 9b57 f0bd
0.27168015 0.055584922 0.03888752 0.18755133 -0.29288784 0.2775349 -0.19106837 -0.02857568
0.4677578 -0.26181987 0.13864678 -0.44605 0.5933563 -0.42895338 0.1553561 -0.117354594

VAE.encoder_logvar.layers.0.attention.W_v.bias f4 [4]
00000000: 759c 493d 8171 b0bd 3ddb acbc f3f7 a1bc
0.049221475 -0.08615399 -0.021100635 -0.019771552
